output/mlp/blue/checkpoints/epoch_3.pt (torch, 112798 bytes, 27 tensors)

input.0.weight f4 [50, 13]
000000 31 c2 a4 3b fd e0 ca bd e9 bd 3d 3e 2f a3 77 be
       0.005028032 -0.09906194 0.18529476 -0.24183343
000010 5b ef 29 3e b3 6b 09 3d e0 60 09 be 97 c3 87 bb
       0.16595213 0.033549976 -0.13415861 -0.004143189
000020 19 93 ad 3d 58 de 25 be f4 bf 3a 3e 17 75 be 3d
       0.08475322 -0.16198099 0.18237287 0.09299677
000030 fe 1e da bd b9 b8 cb bc 32 f1 ed 3d 06 cf 9e bd
       -0.106504425 -0.024868356 0.1161827 -0.0775433
000040 7d 06 62 3e f0 e0 4b be 46 4e 8b 3e fc 45 7a 3e
       0.22072788 -0.19910026 0.27208155 0.2444076
000050 bb 01 5a be 89 c4 5d 3e 20 4f 62 be 14 4b f8 bd
       -0.21289723 0.21657003 -0.22100496 -0.12123695
000060 51 4a 80 3e 2a 86 30 bc b0 11 58 be 61 d8 5e be
       0.250567 -0.010774175 -0.21100497 -0.2176223
000070 73 2d 90 bd f5 2d 95 3c 49 06 54 bd 85 98 b5 3d
       -0.07039919 0.01821039 -0.051763806 0.088669814
000080 d7 3a 8d be df 88 14 3e c9 31 3a 3e a9 2b 28 3e
       -0.27583954 0.14505337 0.18183054 0.16422905
000090 88 d3 77 3c cc a5 28 3e c0 b2 e9 bd 67 d1 e4 3d
       0.015126117 0.16469496 -0.11411047 0.11172753
0000a0 18 d4 1a 3e 2d 52 66 be db ce e3 3c 1c 77 50 3d
       0.1511997 -0.22492285 0.027808597 0.05089484
0000b0 c3 88 8c 3d d1 3a 46 3e ce c5 7d 3d de 71 ff 3d
       0.06862023 0.19358374 0.06195622 0.1247289
0000c0 96 6b 97 3c 04 0b a8 bd 07 ab 5c be 45 2d 8b be
       0.018483918 -0.08205226 -0.21549617 -0.27182975
0000d0 fd 93 9c be 2d c2 11 3e f7 6f 7e be bf a5 60 be
       -0.30581656 0.14234228 -0.24847399 -0.21938227
0000e0 d5 ea 62 3e bc 6f 6d 3d f8 cf d7 3c 6d 8b 94 bd
       0.22159894 0.057967886 0.026344284 -0.07253156
0000f0 cb d7 43 be d7 59 db 3c d3 17 59 be c2 8a a3 bc
       -0.19125287 0.026776237 -0.21200494 -0.019963626
000100 b6 7b 4a 3d 34 a4 53 be 4e e0 46 be d4 ca 6e 3e
       0.049434386 -0.20668107 -0.19421503 0.2331956
000110 9b d0 27 3e f8 9a 25 3e c1 56 70 bd dc 33 33 3e
       0.1638817 0.16172397 -0.058676485 0.17500252
000120 7a 3d 02 be f2 bb 5b 3d a2 28 ed 3d aa 41 35 be
       -0.12718764 0.053646035 0.11580016 -0.1770083
000130 3e ba 63 3e 6e 2e 80 3e 34 5a 03 be bf 44 ff bd
       0.22239015 0.25035423 -0.12827379 -0.12464284
000140 68 a5 1e bd 62 4f a1 bd 4f a3 3d 3e 82 b5 cf bd
       -0.038731962 -0.07876469 0.18519329 -0.10142042
000150 d6 52 02 3e 83 64 82 be 84 25 49 3e 81 89 cf bd
       0.12726912 -0.2546731 0.19643217 -0.10133649
000160 7a fb fd bd 7b f2 4a be 19 79 1f be f2 e2 fd bd
       -0.12401481 -0.19819061 -0.15573539 -0.12396802
000170 84 e2 4a 3e 52 15 ad bd e7 16 63 be 67 78 8b bd
       0.19812971 -0.08451332 -0.22176705 -0.06810074
000180 78 87 a8 bd 81 6f b2 3c a0 75 63 3e f8 5a 37 be
       -0.082289636 0.021781685 0.22212839 -0.17905796
000190 96 44 78 3c 58 4d cb 3d 83 aa d2 3c 42 18 84 bd
       0.015153071 0.099268615 0.025716072 -0.06449939
0001a0 4b 17 e5 3d 01 1d 1d be 66 1c b8 bd e4 29 89 3e
       0.111860834 -0.15343095 -0.089897916 0.26789773
0001b0 10 ae 97 be 8c 0e e1 bd 01 30 1f 3e 76 f7 17 bd
       -0.29624987 -0.10989103 0.15545656 -0.03710123
0001c0 9f 94 f2 3d c4 a7 88 be 4d c5 87 3e b0 6a 59 3d
       0.118447535 -0.26690495 0.26517716 0.05308026
0001d0 e5 30 a1 bd e9 bb 0f be b7 1c 5a 3e 16 43 0e 3d
       -0.07870654 -0.14036526 0.21300016 0.034731947
0001e0 05 b6 72 be 22 3d 55 bd 9e 8c c4 39 b7 02 2f be
       -0.23702247 -0.052060254 0.000374888 -0.1709088
0001f0 a1 e3 55 be e6 2b f3 3b 2a 05 76 3e de b5 fb bd
       -0.20887615 0.0074210046 0.24025407 -0.12290548
000200 25 9d 42 3d c2 63 59 be e8 5e 49 3e 13 1a a0 bd
       0.047513146 -0.21229461 0.1966511 -0.07817473
000210 d1 4b 52 3d 6f 19 3f 3e 14 d2 6e be 0f ca 06 3e
       0.051341835 0.18662046 -0.23322326 0.13163017
000220 36 59 5a 3e 8a 4d 93 3d 6b 64 9c 3e 6e e1 c6 bd
       0.21323094 0.07192524 0.30545363 -0.09710966
000230 d6 28 60 bd e2 00 89 3e c1 68 71 3e 33 b6 8f 3d
       -0.054726444 0.26758486 0.23575117 0.070171736
000240 06 54 44 bd 47 8f 08 bd de 6a 79 3e 0b bc 38 bd
       -0.047931693 -0.033339765 0.24357173 -0.045101207
000250 d3 86 7c be 54 a3 9e 3c 7e 1e 84 bc c5 cb 8e bd
       -0.24660806 0.01936499 -0.016127821 -0.0697246
000260 38 33 63 3e d9 71 27 be d2 7d 3c 3e be 3f 52 3e
       0.22187507 -0.16352023 0.18407372 0.20532128
000270 40 6b 3e 3e 3e ad d5 3d 38 2b 8c be 8b 9a 0a be
       0.185956 0.10433434 -0.27376723 -0.13535516
000280 33 37 83 be e0 d9 71 3e 5f af 12 be 41 90 a0 b9
       -0.2562805 0.23618269 -0.14324711 -0.00030625056
000290 0f e8 5f be 52 db 3b be d1 83 eb bd 1c f6 13 bd
       -0.21865867 -0.18345383 -0.11499751 -0.03612338
0002a0 53 e0 e3 bc a2 91 26 be c6 0c 55 be 83 1f 12 3e
       -0.027816927 -0.16266492 -0.20805654 0.14269833
0002b0 77 fb 1b 3e 5d f4 50 3d ee 54 1b 3e 26 8c 62 3e
       0.15232645 0.051014293 0.15169117 0.22123775
0002c0 67 3c 35 3e 03 00 63 be a7 42 6f 3e 6d 95 fb bc
       0.17698823 -0.22167973 0.2336527 -0.0307109
0002d0 1d 6b 6f be 7e c7 85 3e 46 4c 99 bd 0d db 18 bd
       -0.23380704 0.26128763 -0.07485251 -0.037318278
0002e0 bd 90 af bd 76 12 14 3e eb 37 35 be 53 1d 78 be
       -0.085725285 0.14460167 -0.17697112 -0.24229936
0002f0 dc 02 9b bc 89 3e 7d 3e ae b6 74 3e 60 2e 21 3e
       -0.018922262 0.24730887 0.23897812 0.15740347
000300 e3 6e 5a 3e 87 36 04 3e a3 49 25 3a 43 73 eb 3c
       0.21331362 0.12911426 0.0006305223 0.028741485
000310 b0 ae 85 be e7 cb 96 be 8b 0c c5 3c 17 f2 60 be
       -0.26109838 -0.2945244 0.024053833 -0.2196735
000320 44 e9 21 3e 5b 7b 85 3e 8c d6 9b bd 0c c4 02 bd
       0.1581164 0.26070675 -0.07609281 -0.031925246
000330 fd 90 09 be 30 b3 57 be fa db 45 3e a0 35 14 be
       -0.13434215 -0.21064448 0.19322196 -0.14473581
000340 65 9c a4 3c 66 99 41 3e a1 b5 bc 3d c1 24 27 3e
       0.020094106 0.18906173 0.092143305 0.16322614
000350 92 67 77 3e 26 5d 66 bd 0c 2a fb bb ed 83 43 bd
       0.24160603 -0.056241177 -0.0076649245 -0.047733236
000360 22 d6 d7 3d ee e1 27 bd c1 5f 85 3e 43 76 5d 3d
       0.105388895 -0.040986948 0.26049617 0.05406786
000370 a2 0d 5a be bb f2 05 3d 74 c6 b2 bb 4a f8 67 be
       -0.21294263 0.03270219 -0.0054557864 -0.22653309
000380 87 2e 6d 3e aa 21 8e bd 93 fb 8c be 3f ea 2b 3a
       0.2316228 -0.06940015 -0.27535686 0.0006558038
000390 2f d5 22 bb 14 9f 18 bc 01 73 ca 3c 82 87 23 3e
       -0.0024846306 -0.009315271 0.024713041 0.15969661
0003a0 aa ef 55 be 9d d2 4d be 89 ac 55 3e e2 1b 37 be
       -0.20892206 -0.20099874 0.20866598 -0.1788173
0003b0 e5 fb f1 bb db c5 3c 3e f0 ee 01 3c 39 8a 69 3e
       -0.0073847645 0.18434851 0.007930502 0.22806634
0003c0 02 49 c2 3d cb 87 99 3e 92 2e 18 bd 0f 40 65 3e
       0.094865814 0.29986414 -0.037153788 0.22387718
0003d0 46 e9 5e 3e bf 35 47 3e 22 4e 16 be 46 77 8f 3b
       0.21768674 0.19454096 -0.14678243 0.004378232
0003e0 6c b3 5d 3e c1 9c 97 3d fb 3c 04 bc 9c 2a 28 be
       0.21650475 0.07402945 -0.0080711795 -0.16422504
0003f0 0e cd 4b 3e 4c f1 20 3d 26 f4 09 3e 59 82 8d 3e
       0.19902441 0.03929262 0.13472041 0.2763851

input.0.bias f4 [50]
000000 a6 45 6f be f2 97 67 be b6 74 5f bd 0a d6 5a be
       -0.23366413 -0.22616556 -0.054554664 -0.21370712
000010 3f 2e 6d be db 9f 66 be 5f d0 11 be b2 27 13 be
       -0.23162173 -0.22521918 -0.14239644 -0.14370611
000020 b6 a1 bf 3d 37 01 c6 bc da 7b 5a be d9 83 64 3e
       0.09357016 -0.024170501 -0.21336308 0.22315921
000030 92 51 0e 3e 86 eb e6 bc 02 89 89 3c 3b 03 68 3e
       0.13898304 -0.028188478 0.016788963 0.22657482
000040 16 4a cb bd fb 12 38 bc b7 a3 81 3e 0a 3a 8d 3e
       -0.0992624 -0.011234994 0.25320217 0.27583343
000050 95 08 d4 3d 95 0d 48 3e d7 fb 0f be 1a 39 d7 3d
       0.103531994 0.19536431 -0.14060913 0.10508938
000060 88 95 56 3d 25 6d 72 bd c8 63 62 3e 41 49 94 3d
       0.052388698 -0.05918612 0.22108376 0.072405346
000070 ad f2 14 be 77 8f f5 bc e7 51 19 be de ab 34 be
       -0.14545698 -0.029975636 -0.1497265 -0.17643687
000080 de 66 4f 3e 03 b0 10 3e 0c 24 33 be b7 af 0c 3e
       0.20254084 0.14129643 -0.1749422 0.13738905
000090 f5 3a 80 bb 82 7c 3e 3e b5 48 6b 3e 16 16 a0 3d
       -0.003913278 0.18602183 0.22976954 0.078167126
0000a0 d8 f2 6e 3e 65 7a 1f 3e 69 f9 06 3e 21 33 e1 bd
       0.23334825 0.15574034 0.1318108 -0.1099608
0000b0 ab 93 f9 3d 02 30 49 3d 03 5e 3e 3e c6 5c f6 bd
       0.121863686 0.04911805 0.1859055 -0.12029414
0000c0 99 23 31 3e cb e5 93 bd
       0.17298736 -0.07221564

hidden.0.weight f4 [50, 50]
000000 cb 20 39 3d cf d4 b6 3d aa 07 c2 3d f0 5e 96 bc
       0.04519729 0.08927309 0.09474118 -0.018355817
000010 0b 07 e4 bc 6b 8b 31 bd e0 92 cf 3d c0 27 47 3d
       -0.02783539 -0.04334585 0.10135436 0.048621893
000020 3a a4 49 3c 59 52 04 bd f3 02 36 3d ce 26 b1 3c
       0.012307221 -0.032305095 0.044436406 0.021624949
000030 18 34 82 3d e0 38 c8 3b 53 e7 02 be 00 51 c4 bb
       0.06357592 0.0061102957 -0.12783556 -0.0059911013
000040 9e 94 90 3d 6e 7e e3 bd 85 92 b0 3b f3 83 12 3d
       0.070595965 -0.11108099 0.0053885602 0.035770368
000050 7d 53 f2 3d 1a d9 cf 3c a8 9b 0d 3c 4c 90 71 3b
       0.118323304 0.025372077 0.008643068 0.003685969
000060 68 c7 df bd 13 7d a6 bd 9a 9b 09 be 53 e7 a2 3c
       -0.109267056 -0.08129325 -0.13438264 0.019885695
000070 ff f3 0a 3e 10 d9 d3 3c 97 33 28 bd 0e 15 cb bd
       0.1356964 0.02586034 -0.041064825 -0.09916125
000080 0b cb a6 bc 10 5f 8a 3d b1 4c 01 bd 4c d0 f1 3d
       -0.02036049 0.06756413 -0.03156728 0.118073076
000090 51 b8 5a bd e0 26 6a bd 3b 87 06 3e 59 72 a7 3d
       -0.053398434 -0.05716598 0.13137524 0.08176107
0000a0 19 dd 01 bd ba b8 b5 3d 09 e2 83 3d 2b b3 85 3d
       -0.031704996 0.088731244 0.06439597 0.06528314
0000b0 2e 11 ca bd 22 8f 17 be f6 31 39 bd 53 af 4f bd
       -0.09866558 -0.14800695 -0.045213662 -0.05070431
0000c0 e6 3b bd 3d 0f ca 37 bd 2f fc 9b bd 2f b1 6e 3c
       0.0923994 -0.044870432 -0.076164596 0.014568611
0000d0 0f 53 dd bd 68 dd 2c bd 12 f4 44 bd 59 60 9a bc
       -0.10806858 -0.042203337 -0.048084326 -0.01884477
0000e0 9e 14 a3 bd a3 bd 5b 3d be 87 ce 3d cb c7 ed 3c
       -0.07962917 0.05364765 0.100844845 0.029025933
0000f0 67 0c 1c bc 99 04 1c 3d d4 04 d9 bd cb ca 60 bd
       -0.009524441 0.038090322 -0.10596624 -0.0548809
000100 d3 9a 27 be d7 a9 45 bb 2c ed 7e bd 3d 66 ea bd
       -0.16367655 -0.0030161047 -0.062237903 -0.11445282
000110 e9 c2 77 bd 27 1a 5c 3b d9 ae ef bd 6b 68 9c 3d
       -0.060488615 0.0033584924 -0.117032714 0.07637104
000120 62 f8 71 3d 67 7d af 3c 6f 3b 70 3d 22 4a 67 bd
       0.059074767 0.021422101 0.05865043 -0.056467183
000130 c9 26 bc 3d db eb 7e 3b 57 4b 77 bd 9b 59 d0 bd
       0.09187085 0.0038897905 -0.060374584 -0.10173341
000140 c9 9c 62 3d a8 64 9c bc 6e d2 55 bc ca 0c 9e ba
       0.055325303 -0.019090965 -0.013050659 -0.0012058255
000150 27 72 a8 bc f6 d4 79 bd a8 20 bd 3d 5e 9c 04 3e
       -0.020562245 -0.06099411 0.09234744 0.12950274
000160 3b ea 46 3c 13 1f b3 3d c3 09 f8 3d 80 0e 11 bd
       0.012140806 0.08746161 0.12111237 -0.03541422
000170 e6 9e a6 3c bc ed b0 bd c6 3a 17 3e 01 c0 d9 3d
       0.02033944 -0.08639094 0.14768514 0.10632325
000180 aa 29 a9 3b 7b de b0 3d 66 54 2a 3e 1a 5a 1a 3d
       0.0051624374 0.08636185 0.16633758 0.037683584
000190 d1 46 d0 3d 90 55 93 3d 3f 39 92 3c 23 d4 13 bb
       0.10169757 0.07194054 0.017849563 -0.0022556863
0001a0 d8 cf e2 bb 41 cd b6 bd 5f 32 de bc 60 16 36 3b
       -0.0069217496 -0.08925868 -0.027123628 0.0027784333
0001b0 0e b9 ae bc b8 4c ac 3d 8e 13 b6 3d 2d a5 cd 3d
       -0.021328475 0.084130704 0.088904485 0.100412704
0001c0 8d c3 11 3d f8 9e 8e bd 8b 36 98 3d bb 98 9a bb
       0.035586882 -0.06963915 0.07432278 -0.004717914
0001d0 7a 14 08 3d 9d 31 59 3d 1a ec 59 3c 15 89 8f bd
       0.033222653 0.05302583 0.01330092 -0.07008568
0001e0 6c 45 c0 3c c9 6d 10 bd 4f fb eb bd cd 4e ca 3d
       0.023470603 -0.03526095 -0.11522543 0.09878311
0001f0 f3 95 ab bd 9a 7b 3c 3d 9f 43 96 3c 62 e9 49 bd
       -0.0837821 0.046016313 0.018342791 -0.049294837
000200 09 32 bb 3d d6 2e ed 3d bc 7c cc 3d 35 a5 f1 bd
       0.09140403 0.11581199 0.09984729 -0.11799089
000210 75 f5 9f bd 00 f0 2d bd 92 d4 d7 3d 41 ff 3b 3d
       -0.07810489 -0.04246521 0.105385914 0.045897726
000220 bf 50 41 bd b0 d9 b0 bd 76 4c dc 3d b0 de 03 3e
       -0.047196146 -0.086352706 0.10756771 0.12877917
000230 ed 46 cb bd 2a 84 fc bc 9c 70 40 bd 73 71 c0 bb
       -0.099256374 -0.03082474 -0.046982393 -0.005872899
000240 8d d1 8f 3d 90 84 0b 3e b5 2a b3 3d f0 74 7a 3d
       0.070223905 0.13624787 0.0874838 0.061146677
000250 80 79 b7 3c ff ad da b9 c9 74 dc 3b 61 c8 08 3c
       0.022396803 -0.00041709837 0.006727789 0.008348555
000260 56 e5 20 bd ba 24 b2 3d dd 74 1e be ab f0 82 3d
       -0.03928121 0.08698411 -0.15474267 0.0639356
000270 d5 02 93 3c 34 33 e7 bc c7 2d cb 3d 5e e7 97 3d
       0.017945686 -0.028222658 0.09920841 0.07417177
000280 06 0b 20 bc 84 8d b9 bd fa 76 ce bc 50 87 b2 bd
       -0.009768253 -0.09060195 -0.025203217 -0.08717215
000290 89 2d 22 3d b5 c5 0d bd 62 ed fd 3d 00 0e 01 3e
       0.039594207 -0.034612376 0.12398793 0.12602997
0002a0 7f e6 b0 bd 72 36 29 bd cc 0b f2 bd eb 2f 66 bd
       -0.08637714 -0.04131169 -0.11818656 -0.056198042
0002b0 46 0a eb 3d 46 36 06 be 4a 1a d2 bd 0c cb be 3d
       0.11476569 -0.13106641 -0.102589205 0.09316072
0002c0 0e d5 0f be ae da 49 3d 8c 07 87 3d 67 0f b7 bc
       -0.14046118 0.049280815 0.06593236 -0.022346212
0002d0 7b 45 6f bd 63 5b b2 bc 52 38 f6 bd 34 68 d2 bd
       -0.05841587 -0.021772092 -0.12022461 -0.102737814
0002e0 fa 53 87 bd b4 2c d4 bc 81 0b 23 be 6e 34 1b bd
       -0.06607814 -0.025900222 -0.15922357 -0.037891798
0002f0 18 bc cb 3c de 4c 1b be c9 f9 86 3d 71 43 af 3c
       0.024869964 -0.15166041 0.065906115 0.021394463
000300 3d fd 04 be 84 d1 0d bd f9 e1 56 bd ed 09 f1 bd
       -0.12987228 -0.034623638 -0.052461598 -0.11769471
000310 57 2d 19 bd f5 77 c1 3c 2b 5e fe ba cc 09 cd bc
       -0.037396755 0.02361677 -0.0019406726 -0.025029086
000320 45 d3 e4 3c 73 9b e5 3d 81 1b c7 bd 2d d6 16 3d
       0.027932772 0.1121129 -0.09722043 0.036825348
000330 9f 2c 26 3d 5f 79 a5 3d 8d 4c 89 bc 73 7a ac bc
       0.040569898 0.0807979 -0.016760135 -0.021054482
000340 c7 bd a1 3d ca f6 1b 3d c3 25 89 3d e8 c6 ea 3d
       0.07897525 0.038077153 0.066966556 0.114637196
000350 91 8d 91 bd 97 81 b6 bd eb 7b 19 3e a9 08 1c bd
       -0.0710708 -0.08911436 0.14988677 -0.038094196
000360 d5 4e f8 bd c6 39 a2 3d a7 18 9a bc 60 84 6f bd
       -0.12124411 0.07921176 -0.018810583 -0.058475852
000370 10 83 8a ba d4 b4 56 3d fd 41 b9 3d 2c 8f 85 bd
       -0.0010567624 0.052418545 0.090457894 -0.065214485
000380 d2 8a b7 3d 28 f9 5f bd 46 bf 55 3c 77 81 cb 3d
       0.08962025 -0.054680973 0.013046091 0.09936803
000390 32 fc 11 bd 9c b9 91 3c 08 ad 0b be 09 e8 df bd
       -0.035640903 0.0177887 -0.13640225 -0.10932929
0003a0 4f 85 fe 3d 60 2f a3 bc ac 03 e2 bc 34 ab b9 3d
       0.1242777 -0.019920051 -0.027589642 0.090658575
0003b0 d6 0e bb bd 0b b1 8f bd cc a2 1a bd c7 9e db 3d
       -0.09133689 -0.0701619 -0.03775291 0.10723644
0003c0 d8 45 f4 bd c4 68 f0 bd 95 84 73 bd 7b 90 76 3d
       -0.11927384 -0.117387325 -0.059452612 0.06019638
0003d0 60 f2 05 be 16 f1 07 3e cb 59 92 3c 9e 4d f6 3d
       -0.1308074 0.1327556 0.017865082 0.12026523
0003e0 25 bc 97 bd 6a 77 e9 3c c2 ff 5d b9 40 28 a5 3d
       -0.074089326 0.028499324 -0.0002117148 0.08064318
0003f0 71 c0 85 3d 78 40 1b bc 61 3f c1 3c a8 9e 02 3d
       0.06530846 -0.00947582 0.023589792 0.031889588

hidden.0.bias f4 [50]
000000 49 a4 c7 bd 52 76 c6 bc 48 7d 0c 3d 4d cc f8 bd
       -0.09748132 -0.024226341 0.034299165 -0.12148342
000010 90 f7 90 bd d7 2d 87 3d ac 36 09 be 30 21 a2 bc
       -0.07078469 0.0660054 -0.13399762 -0.019791216
000020 bf 0e 03 be 9c 24 c6 bd 8a d5 02 3d 6c 80 a4 bc
       -0.12798594 -0.096749514 0.031941928 -0.020080768
000030 1d b3 41 bd cd b3 4d bd e6 a5 c8 3d 85 11 08 be
       -0.047289956 -0.0502203 0.097972676 -0.13287933
000040 d9 51 03 be 32 fd 20 be 57 c7 0a bd 7d c0 07 3d
       -0.12824191 -0.15721586 -0.03388151 0.033142556
000050 9d a2 dd 3d 52 27 63 bd 9e c2 41 3d 70 1c 41 3d
       0.10822032 -0.05545742 0.047304742 0.04714626
000060 c4 0c 8f 3d f0 39 f8 3d 66 09 06 3e 95 45 b8 3d
       0.06984857 0.12120426 0.13089523 0.08997647
000070 2e b5 21 bd 8e 15 9b bd 6d 72 0e be 8f 49 90 bd
       -0.039479427 -0.075724706 -0.13910837 -0.0704528
000080 ae aa fe bb 41 50 cb bd 81 d2 df 3d cb fd 11 3c
       -0.0077718114 -0.099274166 0.10928822 0.008910607
000090 0e c3 c4 bc de a5 1e 3e a9 20 48 3d 13 d3 e8 bd
       -0.02401879 0.15492961 0.048859272 -0.11368384
0000a0 1f 1e 02 be e9 cb 4f bd d4 a8 e5 3d 73 7f 0a be
       -0.12706803 -0.050731573 0.11213842 -0.1352518
0000b0 e8 42 c4 3d 11 c7 a2 3c 59 0c 0d bd 9a 53 e4 3a
       0.09583074 0.019870313 -0.034435604 0.0017419935
0000c0 87 84 e3 bd 9e 4a 94 bd
       -0.11109262 -0.072407946

hidden.3.weight f4 [50, 50]
000000 d5 1e 02 3d ea 00 01 3c d7 9c 53 3d 36 50 02 3c
       0.031767685 0.007873753 0.051663246 0.007953694
000010 16 83 2a 3d f7 67 5d 3d 9c 31 2c bd 5b c4 5b 3d
       0.04162892 0.054054227 -0.0420395 0.053654056
000020 e3 19 ea bd ef e0 a7 bd 89 cf 8d bd 6a 46 91 3b
       -0.11430719 -0.081971996 -0.0692435 0.004433443
000030 ad a6 fb 3d c2 1d 00 3e ba de 17 bd 57 9b e8 3d
       0.1228765 0.12511352 -0.037077643 0.11357754
000040 02 ec 96 bc d0 ce d6 3b 59 a4 ea bd 51 32 e6 bc
       -0.018423084 0.0065554157 -0.11457128 -0.028100165
000050 a4 b2 f4 3d 07 23 f7 3d 90 df 95 bd 87 10 ce 3d
       0.119481355 0.12067228 -0.07318032 0.10061746
000060 88 2e 70 3d f7 83 15 3d e0 f6 13 3e 4d a4 53 3c
       0.058638126 0.036502805 0.14449644 0.01291759
000070 5d bf 0b 3d 71 c6 06 be 43 e1 78 3d 1a 20 bb 3d
       0.034118045 -0.13161637 0.0607617 0.09136982
000080 7e 47 75 3d 92 7a ed bd 95 0d b3 3d d1 1c 5a bd
       0.059882633 -0.11595644 0.08742825 -0.053250138
000090 9e b6 0c 3e 5d 0f fd 3d be d4 aa 3d 91 43 d3 bd
       0.13741538 0.12356446 0.083413586 -0.10315622
0000a0 84 0b ea 3d cc 48 ff bc 47 60 ce bd 16 7b 0a bd
       0.11427978 -0.031162642 -0.10076957 -0.03380879
0000b0 42 a4 bb 3d 14 db 3a 3d 26 a1 81 3d b8 95 ac 3d
       0.09162189 0.045619085 0.06329565 0.08426994
0000c0 a1 9d f4 bb eb af 0c bd 87 07 95 3c 7a d9 5c bd
       -0.00746508 -0.034347456 0.018192066 -0.05391834
0000d0 f6 ae 92 3d ad eb 1a bd c2 2e e9 b9 2a 7c fc bd
       0.071622774 -0.037822414 -0.0004447606 -0.1232837
0000e0 2f ad e1 3d 0e c6 27 3d bc 84 2f bc d6 e9 33 3c
       0.1101936 0.040960364 -0.010712799 0.010981044
0000f0 ab 02 bb bd 7b c1 22 bd a9 ff 4a 3d 8d 7b ab 3d
       -0.09131368 -0.0397353 0.049560223 0.08373175
000100 30 b4 bf 3d 75 0d b3 3d 17 2a 12 3c 21 57 ed 3d
       0.0936054 0.08742801 0.008921168 0.11588884
000110 79 1e 22 3d ba e7 f1 bd 5b b3 cc 3d de dc d0 bd
       0.039579842 -0.118117765 0.09995147 -0.10198377
000120 fe 27 b4 3d 48 d6 60 bc 7a 49 ef bc de b0 3c 3d
       0.087966904 -0.013722964 -0.029209841 0.04606711
000130 6d 8d 3a 3d 71 15 eb 3c 64 0f a8 bc a3 f1 d0 3d
       0.04554503 0.028696747 -0.020515151 0.102023385
000140 6a 6b 44 3d d4 a8 7e 3d 48 6d f5 3d a6 db 9f 3d
       0.047954 0.062172726 0.11983734 0.078055665
000150 fd cb 01 bd b0 36 42 bd b2 3e e1 3d 5a 2d e1 3d
       -0.03168868 -0.047415435 0.10998286 0.10994978
000160 d6 c2 b3 3d 85 c4 89 3d 1a b5 80 bd 60 2b f4 bd
       0.087773964 0.06726936 -0.062845424 -0.119223356
000170 a2 eb 98 3d e8 36 c4 3c 5f 8c 4c 3d 34 42 c6 bb
       0.074668184 0.023951963 0.049938556 -0.0060503725
000180 21 f3 3c bd c3 c6 12 3e 21 f8 52 3c 6c 33 dc bd
       -0.046130303 0.14333634 0.012876541 -0.107519954
000190 f7 9b 08 be b9 03 92 bd 16 5f 45 3d 93 43 13 bc
       -0.13340746 -0.07129616 0.048186384 -0.008988279
0001a0 ab 2f c4 bc 21 9f 3b 3c 14 3c cd bd 1a 72 3b bb
       -0.023948511 0.0114515135 -0.100212246 -0.0028601945
0001b0 7e 0d c6 bd c0 02 38 3d ee fb 25 3d ec 57 2a 3d
       -0.09670542 0.044924498 0.040523462 0.041587755
0001c0 9b 7a b0 bd d5 57 b6 ba 47 73 43 ba a8 b2 b4 bd
       -0.08617135 -0.0013911674 -0.00074558373 -0.088231385
0001d0 92 00 c1 3d 55 66 37 bd d2 30 92 bd 0c d3 43 bd
       0.09423937 -0.044775326 -0.07138218 -0.04780869
0001e0 97 94 17 bc a1 82 66 3b f0 93 e1 bd ae 52 88 3d
       -0.009251735 0.0035173076 -0.11014545 0.06656395
0001f0 26 1f 95 3d 31 cb c2 bd b8 eb a3 3d 7e 01 30 bd
       0.07281332 -0.09511412 0.08003944 -0.042970173
000200 b1 f2 9f 3d 8f f2 f0 bc 6a 83 0d 3e 93 f5 61 bd
       0.078099616 -0.029412536 0.13819662 -0.05516584
000210 d6 0c 32 bb cc 01 a9 bd c0 74 58 3b b7 31 72 bd
       -0.0027168295 -0.08252296 0.0033028573 -0.059129443
000220 f1 45 e5 3d 00 4a 24 be 46 e3 23 3d 45 9c a5 3d
       0.11194981 -0.16043854 0.040011667 0.08086447
000230 89 27 d2 3c ed f5 b9 3d 68 48 52 bd 85 6e 99 bd
       0.025653617 0.0908011 -0.051338583 -0.07491783
000240 12 26 e1 bc 5d 7d 46 3c 3e ab 9a bd 31 66 44 3d
       -0.027483974 0.01211485 -0.07552193 0.04794902
000250 44 45 3d bd 78 e0 08 be c9 1c 87 3d 65 ca 0c be
       -0.046208635 -0.13366878 0.06597287 -0.13749082
000260 be b3 37 be ef ed 3a 3c 0f a0 3d be 80 1b 00 bd
       -0.1793966 0.011409267 -0.18518089 -0.031276226
000270 0e 39 57 3d a0 f2 fe bd b6 5c d7 3d 30 e8 08 3a
       0.052544646 -0.12448621 0.1051573 0.0005222587
000280 77 f9 dd bb df 41 07 3d 5f 25 94 bc 7f b1 ce 3d
       -0.0067741233 0.033021804 -0.018084226 0.100924484
000290 1e b5 a6 3d 5e 23 09 be 82 86 01 bd a8 c3 87 bd
       0.08140014 -0.13392398 -0.031622417 -0.06629115
0002a0 e7 23 78 3d 4f 25 e2 bb ec 02 f8 3d 6d 03 21 bd
       0.060581114 -0.00690142 0.12109932 -0.039309908
0002b0 4b 59 2d be bd 87 50 be b7 53 00 be dc 5a 9d 3d
       -0.16928594 -0.2036428 -0.12531935 0.07683346
0002c0 24 25 84 bc a4 a3 d4 bc 5e 07 19 be d7 7b 22 3d
       -0.016130991 -0.025956936 -0.14944217 0.039668884
0002d0 98 b5 a9 bd e3 56 9f bc 98 f0 77 bd 27 ba d2 bc
       -0.082865894 -0.01945061 -0.060532182 -0.02572353
0002e0 be 59 98 3c e0 99 9f bd b2 0d 6f bc d7 3c 14 bd
       0.01859748 -0.07793021 -0.014590668 -0.036190834
0002f0 ab 1b 06 be f5 13 8d bd 04 1d fd 3d e6 1d 84 3c
       -0.13096492 -0.06888572 0.1235905 0.016127538
000300 b1 3c cb bd 63 e8 09 3d 12 a0 96 bd 91 cf 97 3c
       -0.09923685 0.033668887 -0.0735475 0.018531593
000310 cf 43 20 be 44 ad 71 3d f7 fb 13 be 4d 7c 1d be
       -0.15650867 0.05900313 -0.14451586 -0.15379448
000320 08 52 04 3e 68 84 05 3e 53 a8 b7 3d c9 6e e9 3d
       0.12921917 0.1303879 0.08967652 0.11398084
000330 5b 30 14 bd e8 24 2e 3e 36 7a c4 3d 45 f4 8a 3c
       -0.036178928 0.17006266 0.095936224 0.01696218
000340 74 d1 09 bd 0a d4 20 3e 4f 50 f9 3d c0 59 48 bc
       -0.033647016 0.15705886 0.12173521 -0.012228429
000350 9f ac e3 bd de a2 55 bc 59 f5 71 3c bf fa 2c bd
       -0.11116909 -0.013039319 0.014767968 -0.042231318
000360 c5 71 11 3c ac 85 5a 3d 31 6e 9b 3d 55 f4 1b 3d
       0.008877222 0.053350136 0.07589377 0.03807481
000370 af 4c a2 bd 72 b8 30 3e 68 d6 b1 3d 2b de 04 3e
       -0.079247825 0.1725786 0.08683473 0.12975375
000380 24 aa ba bd 7d 5d 80 bc e8 27 82 3b df 67 60 3d
       -0.09114483 -0.015669579 0.0039720424 0.05478656
000390 84 4d 2b 3e d3 ce 19 bd f4 73 3b bc ad 79 90 bd
       0.16728789 -0.03755076 -0.01144122 -0.07054458
0003a0 d8 45 af 3d 6f cf bb bd 0e 29 44 bd ee ea 07 3e
       0.085582435 -0.09170424 -0.047890715 0.13273212
0003b0 01 37 9e bc c6 59 2e 3e 27 0e aa 3d 0a fc eb 3d
       -0.019313337 0.17026433 0.083034806 0.11522682
0003c0 d2 71 bf bd 90 86 be 3d 00 63 25 3e 37 ba e9 3d
       -0.093478814 0.093030095 0.16151047 0.11412471
0003d0 16 b8 b7 3d fa d5 0e 3e 5e 29 8d 3d c4 75 f3 bd
       0.089706585 0.13948813 0.06892656 -0.118876964
0003e0 32 45 ef 3d 27 fc 15 3e 45 45 fb 3d 8b 2c 64 bd
       0.1168312 0.1464697 0.122690715 -0.055706542
0003f0 67 b5 f2 bc 3b 31 0a be fc d1 6e 3a 73 6d b8 3c
       -0.029627515 -0.13495342 0.00091102696 0.022513127

hidden.3.bias f4 [50]
000000 25 e4 7a 3d 62 77 ee 3c ae 68 bd bc 6c 33 0f be
       0.06125273 0.02910966 -0.023121204 -0.1398446
000010 16 0e 16 3e dc ff e9 3d 62 d2 b6 bd 18 ae 34 be
       0.14653811 0.114257544 -0.08926846 -0.17644536
000020 9e 30 1c 3d 02 70 84 3d 47 37 12 3d 9c 00 99 3d
       0.038132302 0.06466676 0.035697248 0.07470819
000030 cf 2e 2f be a7 ef 07 be f8 61 51 3d 91 62 b5 3d
       -0.171077 -0.13275014 0.05111882 0.08856691
000040 9d 3a 3c 3e 76 64 0f 3e f0 97 57 3d 0a 9d a0 bd
       0.18381734 0.14003167 0.052635133 -0.07842453
000050 2b 97 b4 bc f0 d1 9d bd d9 16 eb 3d f7 6c 22 be
       -0.022044739 -0.07706058 0.11478967 -0.1586188
000060 ac 40 18 bd fa 3f f9 3d 86 8b 0e be d1 2b fd bc
       -0.03717105 0.12170406 -0.13920411 -0.030904682
000070 73 d9 af bd e4 c9 a9 3c a4 0f bc bd 4e cc 06 be
       -0.08586397 0.020726152 -0.09182671 -0.13163874
000080 5c 9f ec 3c 69 01 3a 3d 01 6c a3 bc 59 d3 3d 3d
       0.028884582 0.0454115 -0.019948961 0.046344135
000090 e1 1b 45 be ef 25 c8 3d 97 cd 67 bd f9 bf ab 3d
       -0.19248916 0.0977286 -0.05659255 0.08386225
0000a0 78 c1 72 3d 52 6b ba 3d 73 64 29 be 2e c4 d8 bd
       0.059266537 0.09102501 -0.16542225 -0.10584293
0000b0 af 60 c7 3d 9f 21 ae 3d 94 00 06 3e 1e 6a 10 3d
       0.09735238 0.085025065 0.13086158 0.03525745
0000c0 c0 61 bd bd 7c c6 5c 3d
       -0.0924716 0.053900227

hidden.6.weight f4 [50, 50]
000000 75 fa 84 bd 0f 64 69 bd ec 4c d9 bd 30 9a dc 3d
       -0.064930834 -0.05698019 -0.10610375 0.107715964
000010 1f 10 1e 3d b0 18 dc 3c 6a 75 9c bc f6 35 dd 3d
       0.038589593 0.02686724 -0.019098956 0.10801308
000020 9a ef fc 3c 8e a4 05 be 8e c0 8b bd 17 a3 e1 bd
       0.03087597 -0.13051054 -0.06823836 -0.11017435
000030 aa 31 f1 3d 94 cc 98 3d 68 f3 c2 3d 76 b8 9f bd
       0.11777051 0.07460895 0.09519082 -0.07798855
000040 2c 1d 02 be d0 83 63 bc f5 4c 10 bc 6b 96 9d 3c
       -0.1270644 -0.013886407 -0.0088074105 0.019236764
000050 32 03 a8 bc 33 ca 6a bd 95 8d 89 3d 32 3c 0a be
       -0.020509336 -0.05732174 0.06716458 -0.13499525
000060 b7 03 89 bd 1a d8 5c 3d b2 3b 0f bd df ba 71 3d
       -0.06690162 0.053917028 -0.03496904 0.059016105
000070 5d a6 05 bd 50 3b df bd e4 f9 d6 3d de 25 39 be
       -0.03262936 -0.10899985 0.104968816 -0.18080851
000080 0b 14 87 bd 89 03 29 bd 07 c1 81 bd 5a c5 e1 3d
       -0.0659562 -0.041263137 -0.06335645 0.1102397
000090 2d 38 8e 3c 29 69 94 3d c1 11 d8 3d d6 c6 4e bd
       0.017360771 0.0724662 0.10550261 -0.050482593
0000a0 43 f2 5a 3d e2 af 3a 3c 28 ee b7 bd 77 4d 80 bd
       0.053453695 0.011394473 -0.089809716 -0.06264775
0000b0 d3 a4 d3 bd b7 78 67 bc 21 ba e9 3d 20 28 91 3c
       -0.10334172 -0.014127902 0.114124544 0.017719328
0000c0 71 ba 6b 3d 6f 5c 7a bc c3 d1 a8 bd 7b 31 a2 bb
       0.05755085 -0.015280827 -0.08243134 -0.004949746
0000d0 6b 51 60 3d d6 af f7 bd 05 02 44 bd f8 30 c6 bd
       0.054765146 -0.12094085 -0.04785349 -0.09677309
0000e0 d8 72 8d 3c 1e ef 85 3d 6f b8 6a bb 1c 5b 04 be
       0.017266676 0.065397486 -0.0035815497 -0.1292538
0000f0 bd 52 8d 3d 04 2c 8b 3d 01 ee 81 3d d8 0b 5c bd
       0.06900547 0.06795505 0.06344224 -0.053722233
000100 3f 3e b3 bd 04 58 98 3d 5c 98 3a bd 0a ae 9e 3c
       -0.08752107 0.07438663 -0.045555457 0.019370098
000110 9c 61 ce 3d 5b 89 6e 3c 5a 45 ab bc e8 f6 04 3d
       0.10077211 0.014559115 -0.020907093 0.03246203
000120 08 8f 35 bc 4f f3 04 be 17 97 ed bd 70 a1 d1 bd
       -0.011081465 -0.1298344 -0.11601084 -0.1023587
000130 fc b2 d9 3d 4e d2 8e bd 56 87 37 bd a3 96 3e 3d
       0.10629842 -0.06973706 -0.0448068 0.046530377
000140 0f db ad 3d 99 fa 40 be 82 1a 68 3c 3a 74 e2 3d
       0.08489048 -0.18845595 0.014166476 0.11057325
000150 67 f9 bc 3d 49 18 d1 3d d3 d2 a2 3d 91 6d f4 3d
       0.09227257 0.1020971 0.07950368 0.11934961
000160 48 a1 1e be c8 a4 52 3d 74 43 4b 3c bd c5 a7 bd
       -0.15491211 0.05142668 0.012406219 -0.081920125
000170 08 da 0c 3d 3c b8 a7 bc d9 30 23 3d a8 45 fb bd
       0.03438762 -0.020473592 0.039841507 -0.12269145
000180 ed d2 e8 bd 37 1c 3d 3b aa eb 16 bd 5d 34 87 bd
       -0.11368356 0.0028855929 -0.03684584 -0.066017844
000190 ec ea ad bd 48 f1 60 bd 0f 38 fe bd 4e 95 97 3d
       -0.084920734 -0.054917604 -0.12413036 0.074015245
0001a0 4b 78 fb 3c b0 a9 08 be 67 34 6d 3d 1e 34 94 3d
       0.030697009 -0.1334598 0.057911303 0.07236503
0001b0 67 96 1f bb 2a 9b 01 be d3 b5 95 3d 48 51 14 be
       -0.0024351121 -0.12656847 0.07310071 -0.14484131
0001c0 d1 08 4f 3d 7e 0f 40 bd f6 8b 72 bd c2 0e cb bd
       0.050545517 -0.046889775 -0.05921551 -0.09914924
0001d0 0f 0a 19 3d 78 c5 6e 3d e8 ea 89 bd 57 d7 0e 3d
       0.03736311 0.05829379 -0.06734258 0.034873333
0001e0 65 7d 23 3d d3 60 c0 bd 62 ce bf 3d 6c 02 a1 bd
       0.039914507 -0.09393468 0.09365536 -0.0786179
0001f0 96 1a 72 bd 56 74 8c bc 29 b6 8d bd c5 60 28 bc
       -0.059107386 -0.017145317 -0.0691951 -0.010276978
000200 78 8f 06 bc cc 53 61 3c a5 77 12 bd bf 63 3c 3d
       -0.008212917 0.013752889 -0.035758633 0.045993563
000210 03 6f c3 3d 68 77 04 bd 17 15 39 3b 2e b0 1f bd
       0.09542658 -0.032340437 0.002824133 -0.038986377
000220 8e f4 2e bc fe 2a d8 bd a7 94 cd 3d c9 8a 26 bd
       -0.010678424 -0.10555075 0.10038119 -0.0406597
000230 78 1d 13 3e b2 7a dd 3b fe 8c b3 3d c0 d6 d8 bc
       0.1436671 0.006759011 0.087671265 -0.026469588
000240 c7 79 ac bc f2 ef 28 bd 81 a5 ff bd b4 26 a8 3d
       -0.021054162 -0.041244455 -0.12482739 0.08210507
000250 28 b3 0c 3d 8f 58 41 bd 33 0a 97 3d d3 c9 0e bd
       0.034350544 -0.047203597 0.07374992 -0.034860443
000260 72 6b 99 3d 9c b3 41 bd a7 50 b9 bd 4a ae 84 bd
       0.07491197 -0.04729043 -0.09048586 -0.064785555
000270 97 28 fd 3d 6e 44 11 3c b8 f5 ca bc 6a a0 2f bc
       0.123612575 0.008866413 -0.024775371 -0.010719398
000280 3a c8 29 3d 76 3b 39 3d 4b 50 b6 3d 28 89 3c 3d
       0.041450717 0.045222722 0.089020334 0.04602924
000290 bd 39 40 3c 59 b4 fe bd 33 5c f9 bd dc 4c a6 3d
       0.011732516 -0.12436742 -0.12175789 0.081201285
0002a0 75 82 1e be 04 2a 92 bd 23 36 ef 3d 45 d7 8f 3d
       -0.15479453 -0.0713692 0.11680248 0.07023481
0002b0 ba f6 f8 bc ff c8 33 3d 59 46 e7 3d d1 0d 18 bb
       -0.030391086 0.043892857 0.112927146 -0.0023201595
0002c0 d0 d5 70 3d 48 f8 c5 bd 20 d2 f1 bd 5a a9 fa bd
       0.058797657 -0.096664965 -0.11807656 -0.122393325
0002d0 c9 cd b9 bd ac 3f 83 3c db 9b bb bd 65 5a 2d bc
       -0.090724535 0.016021572 -0.091605864 -0.010580634
0002e0 76 f8 c4 bd be 24 d4 3d 68 e7 f0 3d c9 31 c8 3d
       -0.09617703 0.103585705 0.11762887 0.09775121
0002f0 54 fe 2a be 84 92 7a bd 0f 09 c1 bd c1 82 8f 3d
       -0.16698581 -0.061174884 -0.09425556 0.07007361
000300 03 3f 0f 3e 18 80 96 bd 16 3e 46 3c 6e 00 86 bd
       0.13988881 -0.07348651 0.012099763 -0.06543051
000310 38 11 b1 bc be a3 dc 3c 30 8e d7 b8 7f e6 f9 3c
       -0.021614656 0.026933547 -0.000102784834 0.030505417
000320 3c f2 a0 bc e1 36 6e 3d d0 1a fa 3c 71 c6 a9 3c
       -0.019646756 0.058157805 0.030530363 0.020724507
000330 9a 8c a3 bc 10 b8 8b 3d c8 32 88 bc 7e f1 46 bd
       -0.019964505 0.068222165 -0.016625777 -0.04857015
000340 ba 0a 9c bd d0 ce ed bd 54 18 be 3c c1 51 c9 bd
       -0.076192334 -0.11611712 0.02320496 -0.098300464
000350 01 c1 d7 bd 9d ca 83 bd a6 ba 74 bc 6e 3e de 3d
       -0.105348594 -0.0643513 -0.014937079 0.10851751
000360 51 d6 20 bd 74 2b 49 3d f6 32 92 bd dd 55 a3 ba
       -0.039266888 0.049113706 -0.07138626 -0.0012461502
000370 63 59 4b 3d 68 b0 11 bd 94 c9 59 3c 81 e0 e4 bd
       0.049645793 -0.035568625 0.013292689 -0.11175633
000380 49 4f 88 3d 78 af 5a bd 34 fb e7 bd 83 ed 39 bd
       0.066557474 -0.053389996 -0.1132721 -0.045392524
000390 68 d4 92 bc 58 10 75 bd 3d 1c 89 bd 18 09 ef 3c
       -0.017923549 -0.05983004 -0.06694839 0.02917914
0003a0 53 39 a7 bc f3 4d b3 3d d3 df d7 3d b7 9e d8 bc
       -0.020413077 0.08755102 0.10540738 -0.026442869
0003b0 63 f8 05 be f8 e5 c7 bd e7 44 87 3c 8b 79 c9 bb
       -0.13083033 -0.0976066 0.016512347 -0.0061485223
0003c0 60 25 4f bd f9 70 45 3d 12 3a 0d be 00 4a eb 3a
       -0.050572753 0.048203442 -0.13791683 0.0017951131
0003d0 a9 a3 92 bd bd 3c 6b bb 89 86 23 bc f5 18 4e bd
       -0.07160122 -0.0035894357 -0.009980806 -0.05031677
0003e0 71 5e 59 3d 5a 7f 55 bd 54 38 fe bb 4f 9c 96 3d
       0.053068582 -0.052123405 -0.0077581797 0.07354032
0003f0 78 b6 ba 3d c1 ca 1c be 38 19 a2 3d c6 83 81 3d
       0.091168344 -0.1531172 0.07914966 0.06323962

hidden.6.bias f4 [50]
000000 b2 da 13 be fc 14 5d 3d ef 17 77 bd 44 7d 05 be
       -0.14438894 0.05397509 -0.06032556 -0.13036066
000010 b1 b1 9e bd 63 7d c0 bd c0 82 1d be e9 1b 25 bd
       -0.07748736 -0.093989156 -0.15381908 -0.04030982
000020 cc e1 c1 bd ad 01 d5 bd 6e 57 19 3d 4b 07 d1 bd
       -0.094668955 -0.1040071 0.037436895 -0.10206469
000030 f1 d6 b4 bd 22 e8 f1 3d 26 d4 49 bd 8d a7 72 bc
       -0.08830059 0.11811854 -0.049274586 -0.014810455
000040 8e 57 dc bd 1c 04 37 3d 3a c0 7c 3d 72 d8 85 bd
       -0.10758887 0.044681653 0.06170676 -0.06535424
000050 b4 1c 95 3d d7 ae 0f bd 0f eb 07 3e 6e 31 be 3c
       0.07280865 -0.03507885 0.13273261 0.02321693
000060 70 f6 ca bd b5 3b 09 be 64 96 f8 ba ca bb d2 bd
       -0.099102855 -0.13401683 -0.0018965718 -0.10289724
000070 01 29 35 bd 66 3b 65 3d 75 e3 2b bd 3d c5 45 bd
       -0.044228557 0.05596485 -0.041964967 -0.048283804
000080 71 0a b2 3d 0e 18 ef 3d 66 30 0a 3d 43 60 85 3d
       0.08693398 0.1167451 0.033737563 0.06512501
000090 ee c8 7b 3d a8 9d 6b bb 0b 5c 94 bd 65 ba f7 3d
       0.06147092 -0.0035952125 -0.07244118 0.12096099
0000a0 af d1 c9 bc 27 4e 16 bd 30 63 b6 bd 33 3a 02 3e
       -0.024636118 -0.036695626 -0.08905637 0.12717514
0000b0 e6 c5 b9 bd 72 ee 21 3e 42 b7 96 3d c0 8e 49 3d
       -0.09070949 0.15813616 0.073591724 0.049208403
0000c0 51 41 ed bd 03 7b c6 3c
       -0.11584724 0.024228578

output.weight f4 [1, 50]
000000 00 79 7d 3d 50 c8 ec 3d c8 6d 3b bc 1d 55 45 3c
       0.061882973 0.11561644 -0.011439748 0.012044218
000010 ef 51 55 3d f0 82 b5 3d e9 8a c1 3c da ac 1e bf
       0.05208009 0.08862865 0.023625808 -0.619825
000020 68 94 8d 3d 86 ad de 3d 1b ce 67 bd 67 97 e3 3d
       0.06913072 0.10872941 -0.056593042 0.11112862
000030 ae 89 b4 bc c2 58 b7 3c 0b 74 35 bf af 67 95 3d
       -0.022038307 0.02238119 -0.7088019 0.07295167
000040 f2 2e 08 3e 25 56 ed 3d 8d 9d 2c bf 58 2b b1 3d
       0.13299158 0.115886964 -0.67427903 0.08650845
000050 41 1c 56 3d 45 bb 2d bf 4d 25 3e bf a1 08 8d bd
       0.05227304 -0.67863876 -0.74275666 -0.068864115
000060 68 e8 0c 3d cd 17 8f bd 1c 27 fd 3c 30 e2 13 bf
       0.034401327 -0.069869615 0.030902438 -0.5776701
000070 1c c3 5f 3d 19 1f 30 bf 1b bf bb 3d 6d fe 2f bf
       0.05462943 -0.6879745 0.0916731 -0.687476
000080 05 d7 f4 3c 52 0c 24 bf b6 16 f5 bd 99 00 3d bb
       0.029887686 -0.640813 -0.119672224 -0.0028839468
000090 30 94 34 bf b3 c0 30 bf 25 ed 32 bf f6 71 e7 bc
       -0.70538616 -0.69044036 -0.69893104 -0.028252583
0000a0 1c e5 b1 3d 3c 5d 2f bf 6f 5c e6 3d d6 19 35 bf
       0.08686277 -0.6850164 0.11248099 -0.7074255
0000b0 e1 54 b7 3d 4b 99 35 bf 2d 3a 9a bd e4 44 26 bf
       0.08951736 -0.7093703 -0.075306274 -0.6494887
0000c0 b0 74 05 be 9a ec 37 bf
       -0.13032794 -0.718454

exp_avg f4 [50, 13]
000000 43 c6 4b bb b8 c8 16 3a 55 0e 06 bb ec 5b 00 39
       -0.0031093515 0.00057519553 -0.002045532 0.00012241275
000010 7f c2 e9 3b 68 40 a3 2e 2d ac 87 b9 5d 45 a5 bd
       0.0071337814 7.423823e-11 -0.00025877487 -0.080698706
000020 ad 39 a0 3c 44 df fa 3a 36 07 61 3c d9 a6 ac 3b
       0.019558752 0.0019140025 0.013734629 0.005268913
000030 0b 3c c0 28 b9 61 6c b9 e8 0d d5 bb 20 be eb ba
       2.1342322e-14 -0.00022543118 -0.006501902 -0.0017985739
000040 4b 7a 12 3b 61 98 c0 3a 7a d0 99 2f 8e 13 b7 ba
       0.0022350724 0.001469385 2.797867e-10 -0.001396762
000050 20 18 73 bd 29 cf f7 bb 2f 7d 05 3b ef e9 3a bb
       -0.05934918 -0.007562537 0.0020368805 -0.0028520783
000060 63 5a 81 3b 21 ea 9e 27 af 2c 9f 39 7e f7 b4 b8
       0.0039475425 4.4107653e-15 0.00030360135 -8.629168e-05
000070 77 a8 05 3a 48 73 ad 3a 25 9b ad 3b dc bf 2c 2f
       0.00050986506 0.0013233209 0.0052980357 1.5711471e-10
000080 67 47 a9 bb 20 aa 52 bc fe 07 ab bc eb b1 77 bb
       -0.0051659825 -0.012857944 -0.020877834 -0.0037795256
000090 56 7f ab bb 53 76 4c b9 e1 08 95 27 40 4c 97 3a
       -0.0052336855 -0.00019499035 4.1365434e-15 0.001154311
0000a0 e7 f7 86 ba 53 ce 56 ba 9e 72 b9 ba 53 a9 37 bb
       -0.0010297269 -0.0008194197 -0.0014148538 -0.002802451
0000b0 5f 12 04 ae a3 3a c0 bc b5 1a d3 bc 03 53 3d bc
       -3.0029642e-11 -0.02346546 -0.02576957 -0.011555436
0000c0 be 6a 28 bc 15 fc 97 3b ec ed 33 3c 7d 89 1e a7
       -0.010279356 0.004638205 0.010982018 -2.2001437e-15
0000d0 a8 3d d2 3a ea 84 9d 3a 2f 4c 1d 3a 7d a1 11 b9
       0.0016040104 0.0012017761 0.0006000427 -0.00013888437
0000e0 61 13 c5 bb 62 fb 76 ae 76 8d 08 3c 57 fa 92 3c
       -0.006014273 -5.6157197e-11 0.008334508 0.017941637
0000f0 e1 33 bb 3b 52 35 c9 3b be af f1 bb 0b 57 f1 3b
       0.0057129716 0.0061403895 -0.0073756864 0.0073651127
000100 75 4a 80 27 9c 06 27 ba 0d a5 17 b9 1b a5 c1 3b
       3.5607863e-15 -0.00063715293 -0.00014461968 0.0059095747
000110 f6 be cc bb 95 f7 a1 bb ee 32 8e af 3f fc 87 3a
       -0.0062483503 -0.004942844 -2.5865837e-10 0.0010374858
000120 2a bf 87 bc 14 11 3d bc ca d3 d6 bc 97 ca 19 bb
       -0.016570646 -0.011539716 -0.026224036 -0.00234667
000130 a3 db be ba 37 6c ae 27 61 55 ed 39 11 6d 38 3b
       -0.0014561306 4.841203e-15 0.00045267775 0.002814118
000140 f0 02 9b 3b 22 98 61 3a 13 c6 cd 3b 69 17 bb af
       0.004730575 0.00086057384 0.006279716 -3.4031736e-10
000150 f5 a8 d2 3b 86 cd 6e 3c 00 da 3c bd e3 10 da bb
       0.0064288327 0.014575368 -0.04610634 -0.006654845
000160 04 b5 f5 bb fa ba 12 bc 9e 7c 0d 28 39 ea 9b 3a
       -0.0074983854 -0.0089557115 7.854094e-15 0.0011895365
000170 8c d7 70 bb 75 67 35 b9 2a 80 9f 38 c4 59 62 3a
       -0.003674957 -0.00017300046 7.605583e-05 0.0008634592
000180 65 64 fd ad ae 99 d6 bc 2e 92 f3 bc d2 6b 4b 3b
       -2.8807354e-11 -0.026196327 -0.02973279 0.0031039608
000190 d4 6d e1 3b 90 5c 29 bb fb c2 a4 bb 83 9f c3 27
       0.0068795476 -0.0025842525 -0.0050281263 5.4296315e-15
0001a0 8f 38 25 3a c9 8d d4 ba f8 1f ec b9 ce 4d 09 bb
       0.00063026784 -0.0016216572 -0.00045037246 -0.0020950916
0001b0 1b 6c 02 3b f7 8b 39 2f 28 e8 c4 3c 28 3a 59 bd
       0.0019900862 1.6875377e-10 0.024036482 -0.053033978
0001c0 d1 77 4c 3d be 7d 85 3c 63 5a 3a 3d da 4e c3 3c
       0.049918953 0.01629531 0.045496356 0.02384131
0001d0 e2 53 d9 a9 34 8d 9f 3a eb 20 1e 3b d3 43 2c ba
       -9.651287e-14 0.0012172819 0.0024128507 -0.0006571386
0001e0 b4 c8 ad 39 e3 5e 0e 3a b9 b5 05 2f a1 b3 52 3c
       0.00033146667 0.00054310093 1.216084e-10 0.01286021
0001f0 1c 79 0f be 35 69 0b 3b 77 41 29 3d 92 20 ac 3c
       -0.14011043 0.0021272425 0.041322198 0.021011624
000200 64 b9 43 3c 55 ac bd 27 de 20 de ba 22 4e c8 3a
       0.011946056 5.264488e-15 -0.0016947051 0.0015282074
000210 a8 f1 b8 3b c8 7b c3 3b 15 c6 c7 bb 17 5a d6 ae
       0.005644042 0.0059656836 -0.0060966113 -9.7475965e-11
000220 a5 14 91 bb e6 68 40 bd 0d 9c 2e bc a2 d6 d4 3b
       -0.00442751 -0.04697504 -0.010657323 0.006495313
000230 f9 64 65 bc 8a bb 5b bc cb 09 b7 a8 c2 ac fa ba
       -0.014001125 -0.013411412 -2.0321328e-14 -0.0019124972
000240 03 17 42 bb e2 f3 13 3b 00 cc ac 3a 8b 53 da 3a
       -0.0029615767 0.0022575785 0.0013183355 0.0016656978
000250 b8 d6 ba 2f eb 23 4d bc 39 5c 4f bd 6c 19 3e bc
       3.398577e-10 -0.012520771 -0.05062506 -0.011602741
000260 dc 09 0a 3c e7 3d 82 bb 79 78 26 3b b7 b1 ce a8
       0.008425202 -0.0039746645 0.0025401397 -2.2947666e-14
000270 51 f3 a7 3a d1 7d 62 b8 80 d5 d6 39 b3 f5 8a b9
       0.0012813603 -5.3999775e-05 0.0004097633 -0.0002650447
000280 88 6e 45 bb 50 2a 81 ad a1 d1 17 bb 97 4d 07 bc
       -0.0030125696 -1.4684393e-11 -0.002316572 -0.008258245
000290 be 85 6f 3b 86 a7 2c 3c cc 13 bc 3b 6b 94 25 3c
       0.0036548222 0.010537988 0.0057396647 0.010106186
0002a0 81 eb 7d a9 c9 0a fa 39 97 fa 3f b8 f7 6f c1 ba
       -5.6381552e-14 0.0004769175 -4.577133e-05 -0.00147581
0002b0 2d ac 04 3b af e2 dc bb a5 81 39 ae 1a 90 c2 bb
       0.0020244226 -0.00674089 -4.2179277e-11 -0.0059375884
0002c0 e3 e3 c3 bc 1e ec e5 ba 15 93 6a 3b 3b f8 40 3b
       -0.023912376 -0.0017541682 0.0035793234 0.0029444832
0002d0 f6 c5 83 bc 9c 78 d8 27 6f 68 1f bb 67 7f 45 3b
       -0.016085606 6.008281e-15 -0.0024323722 0.0030135752
0002e0 a7 f5 b2 bb ed 14 f5 ba 93 d3 42 bc 5b da 15 af
       -0.005461413 -0.0018698253 -0.011891264 -1.3629047e-10
0002f0 7b 17 9d 37 f3 2f 4a bc 66 ac 3b 3d a8 25 12 3c
       1.8726792e-05 -0.012340534 0.04581871 0.008920111
000300 21 83 bf 3c 9d 9e 91 3c 00 8b da 27 3d b1 90 39
       0.023377957 0.017775828 6.065786e-15 0.00027597873
000310 7c ea 02 3b cf 07 62 3a 4d 7b e3 3a 3e 74 cc b9
       0.001997619 0.00086223794 0.0017355472 -0.0003899652
000320 3b 89 14 ae 58 8e 7c bb 85 8f 95 bc c1 4d d3 3b
       -3.377319e-11 -0.0038536992 -0.018256912 0.006448478
000330 d3 6a 06 3c 52 71 d3 3b bf fa a4 bb 57 20 4e a9
       0.00820418 0.006452718 -0.005034774 -4.576924e-14
000340 cd 8c da 3a 8b 50 07 3a 6f 5d a0 bb a9 fa 12 ba
       0.0016674042 0.0005161843 -0.0048939507 -0.0005606809
000350 8b 15 2d 3b cd d9 9a 2f 52 91 fb bb f6 1b 80 3c
       0.0026410546 2.8167194e-10 -0.0076772356 0.015638333
000360 24 bf bd bd 7b 9c 27 bb e5 55 6b ba a4 4c e1 bb
       -0.09264973 -0.0025575447 -0.0008977338 -0.0068755914
000370 a7 90 97 29 37 0e 3b ba cd 80 9f 3a c5 3d 0b 3a
       6.73084e-14 -0.0007135602 0.0012169123 0.00053116336
000380 27 18 88 bb b9 99 23 3b 95 9c 37 2e 9c 9a 4a 3c
       -0.00415327 0.0024963452 4.1748455e-11 0.012365963
000390 1a d7 29 bd 87 32 7e 3c e0 79 6a ba 60 f1 bf 3c
       -0.041464902 0.015514976 -0.00089445524 0.023430526
0003a0 dd 37 72 bb d9 87 9c a9 8c d9 8c 3a fe 44 12 3b
       -0.0036959567 -6.9513575e-14 0.0010745986 0.0022318955
0003b0 7b f2 97 bb d2 f7 18 3c 47 76 e9 3a 48 90 21 2f
       -0.00463706 0.009336429 0.0017811739 1.4694124e-10
0003c0 34 5b 96 bc 17 e1 31 bd dd 34 23 bd c8 9a 25 3d
       -0.018354036 -0.043427553 -0.039845336 0.040430814
0003d0 bc e8 b5 3c 36 3c 60 ba b4 c3 e3 a9 8c 20 d5 39
       0.022205703 -0.0008553894 -1.0114774e-13 0.00040650775
0003e0 c0 0e db ba 70 50 56 bb 8f 74 4c ba ae 23 da 3b
       -0.001671277 -0.0032701753 -0.0007799351 0.0066570854
0003f0 23 4a 7f 2f 31 1b df bb 09 24 91 bc f2 1a f0 3b
       2.3218454e-10 -0.0068086614 -0.017717378 0.007327431

exp_avg_sq f4 [50, 13]
000000 9f 96 8a 3a 8d 81 9a 3b fe e4 c7 3c c3 52 4f 3b
       0.0010573453 0.0047151507 0.024401184 0.0031635023
000010 81 80 85 3c 2f e6 a7 26 8a 3f 15 3e 8d 79 ef 40
       0.016296627 1.1650344e-15 0.1457502 7.4835877
000020 39 68 34 3f 7a fd 83 3e 36 1a 02 3f 8a 51 80 3f
       0.7047153 0.25779325 0.50821245 1.0024884
000030 b8 95 da 1b 7d 0c e0 39 94 14 a2 3c 0b c7 a5 3a
       3.6161828e-22 0.00042733914 0.019785203 0.001264782
000040 3a 39 19 3b 05 a3 04 3b 3b 80 3e 28 d7 46 33 3e
       0.0023380057 0.0020238769 1.0574924e-14 0.17507492
000050 eb e7 90 41 1a bd 97 3e bc fb a8 3e 64 7e 50 3d
       18.113241 0.2963646 0.33004558 0.050901785
000060 8b d1 9e 3e 09 e2 54 18 d6 8a fc 39 14 83 38 3b
       0.31019244 2.7514476e-24 0.00048168626 0.00281543
000070 19 66 16 3d 7c 27 aa 3c 9a d6 c6 3c de 43 b4 25
       0.03671846 0.02077078 0.024272252 3.127101e-16
000080 de 36 b4 3d 85 cb d4 3d 28 5e 0c 3f 93 5f 3d 3f
       0.087995276 0.10390381 0.5483117 0.7397396
000090 2e 94 84 3d af f1 95 3d 91 05 36 17 1c c8 b6 3a
       0.064735755 0.07321488 5.8814397e-25 0.0013945135
0000a0 2d 55 69 3d 44 97 93 3a 97 65 c1 3b d7 00 80 3c
       0.056965996 0.0011260291 0.005902003 0.0156254
0000b0 8e 50 1c 24 18 17 f8 3e d7 00 de 3f 8d 8a f6 3e
       3.389534e-17 0.4845512 1.7344006 0.4815258
0000c0 0c 5a 03 40 25 c5 92 3c 68 3e e5 3c c8 a0 8d 1b
       2.052371 0.017916271 0.02798386 2.3430396e-22
0000d0 96 3d bf 39 a7 5b 98 3c 32 94 ea 3a 06 87 2f 3b
       0.00036476244 0.01859839 0.0017896949 0.002678336
0000e0 0b d0 a9 3c d0 93 73 28 4c 1f 94 3e bc 67 82 41
       0.020729085 1.35212615e-14 0.28930128 16.300652
0000f0 e9 3b 5f 3d c1 7d 47 3e 53 04 31 3d 4e f4 53 3d
       0.054500494 0.19481565 0.043217015 0.05174666
000100 35 8b 15 17 4f 42 2f 3a ed 05 96 3b a9 2c 87 3d
       4.83202e-25 0.0006685601 0.004578343 0.06600315
000110 9b a1 ad 3c 6d 80 44 3d 27 4d 28 29 4d df 24 3e
       0.021195224 0.04797404 3.7370413e-14 0.16100807
000120 eb 12 92 41 c6 48 25 3f 0d 08 c7 3e b4 fb 62 3d
       18.259237 0.6456417 0.3887333 0.055415824
000130 91 f8 f8 3e 1c 18 ec 17 92 e7 1c 3a 84 a0 8e 3b
       0.4862714 1.5257229e-24 0.00059854344 0.004352631
000140 2a 0b cb 3c de 32 37 3b fa 9e 8f 3c 10 da 65 28
       0.024785597 0.0027953903 0.01753186 1.2759338e-14
000150 37 f1 75 3e 7a a1 32 41 70 82 ce 3f d2 1c 29 3e
       0.24017797 11.164423 1.6133556 0.165149
000160 31 55 e9 3c d0 c1 cc 3c 13 1c 77 18 f1 e6 77 3a
       0.028483005 0.02499476 3.1938176e-24 0.0009456715
000170 e3 bb e7 3d 13 79 fc 3b 4e 64 29 3b f4 c0 e6 3b
       0.113151334 0.007704863 0.002584714 0.007042045
000180 73 c8 e8 27 f5 78 b8 3e cb 7d af 3f b4 8a d0 3d
       6.4610263e-15 0.36029783 1.3710264 0.101827055
000190 9a 99 13 40 2b 5e 2e 3f d3 fe 85 3f f3 c5 9e 17
       2.30625 0.6811244 1.0468391 1.026048e-24
0001a0 5f 4a 03 3b 60 90 0d 3b e6 3e 49 3b 76 f5 e9 3b
       0.0020033342 0.0021600947 0.0030707656 0.007139857
0001b0 a4 d9 04 3c 10 90 fe 27 d2 60 5e 3f 07 f5 89 3f
       0.00810853 7.0655355e-15 0.86866486 1.0777901
0001c0 cd bd 09 3e 68 8d 74 3c 51 91 c9 3d d8 29 9f 3d
       0.1345131 0.014926292 0.0984217 0.07771653
0001d0 ff fe 90 1b b6 f5 d4 39 15 d3 90 3d de 07 3a 3d
       2.398759e-22 0.0004061886 0.07071511 0.04541766
0001e0 68 c7 e5 3b d7 6d a4 3c fa cf 52 27 54 33 b2 3d
       0.0070122965 0.020071907 2.9256099e-15 0.08701196
0001f0 15 15 a3 40 6e 19 95 3e 96 ae 94 40 96 20 07 3e
       5.0963235 0.29120964 4.6463118 0.13196024
000200 5a 77 12 3f 42 f4 85 17 08 32 cf 3b 4f a4 55 3c
       0.57213366 8.656583e-25 0.006323103 0.0130396625
000210 48 c5 58 3c cb 23 05 3d 71 21 ce 3b 70 76 2a 26
       0.013230629 0.032504838 0.0062906076 5.914111e-16
000220 95 55 df 3d 9c f7 98 3f c3 74 4e 3e 45 57 db 3d
       0.10904995 1.1950564 0.20161729 0.10710005
000230 7f 3b ab 3d 46 22 01 3f 60 35 71 1c 5a 81 3e 3b
       0.08360957 0.5044292 7.9809197e-22 0.0029068799
000240 41 52 1d 3c 3f 47 f3 3b fe 91 8f 3d 2d 3b b7 3b
       0.00960213 0.0074242647 0.07010268 0.005591771
000250 08 70 28 28 e3 bf 5e 3e 19 28 c0 40 5c 48 0d 3f
       9.350166e-15 0.21752886 6.0048947 0.55188537
000260 30 25 b7 3f 30 04 ac 3d f2 ba c0 3e d0 26 b9 1b
       1.4308224 0.08399236 0.37642628 3.0630765e-22
000270 31 bf 17 3b e3 2a 17 3d 7a ee 95 39 b4 2c 99 3b
       0.002315473 0.036906134 0.00028597174 0.0046745185
000280 66 26 24 3c 43 a6 01 23 f3 d7 0f 3e d5 6f e2 3f
       0.0100189205 7.028311e-18 0.14047222 1.7690378
000290 0b ec cd 3e e6 6c 93 3d 1a 02 0f 3c 9b f8 6d 3c
       0.4021915 0.07198505 0.008728528 0.014524604
0002a0 b4 e8 57 1b 11 3c b2 39 3c ff a2 3b bd 62 2f 3c
       1.7859574e-22 0.0003399556 0.004974274 0.010704693
0002b0 8c 23 4c 3c f1 0b 5d 3d c4 73 57 23 24 93 6d 3e
       0.012459647 0.053966466 1.1679688e-17 0.23200661
0002c0 b7 66 00 3f 4d 17 81 3d 32 3b 81 3f 11 3a 11 3d
       0.5015673 0.063032724 1.009619 0.035455767
0002d0 4b 3b d1 3c 84 77 0b 18 e8 b1 44 3a 7a 33 be 3c
       0.025540968 1.8025669e-24 0.0007503317 0.023217905
0002e0 8f 57 dc 3c 45 f4 c2 3c 9e 40 51 3c 17 64 45 27
       0.02689722 0.023798117 0.012771754 2.73935e-15
0002f0 6b 89 27 3e fe 6a 8c 3f 79 65 bf 3f 34 bc b9 3f
       0.16361015 1.0970151 1.4952842 1.451056
000300 01 f3 71 3f 3e fe 94 3f f2 69 09 17 57 c8 cd 3a
       0.9451142 1.1640089 4.440081e-25 0.0015699965
000310 40 5f 7e 3b 6a 5b 5f 3a 34 80 6c 3b 85 c9 02 3c
       0.0038814098 0.00085203967 0.0036087157 0.007982616
000320 55 10 91 27 52 20 ae 3e 39 f5 2f 41 79 86 0c 3e
       4.026329e-15 0.34009033 10.997369 0.13723172
000330 9b c1 c3 3d 16 11 00 3d 1b 99 67 3f ee 4f 82 1a
       0.09558412 0.031266294 0.90467995 5.3895873e-23
000340 02 f8 7c 3b 66 ee 00 3c 2b 58 0a 3c 28 e4 43 3d
       0.0038599973 0.007869339 0.008443872 0.04782501
000350 52 e7 87 3c 97 06 84 27 a0 c4 d9 3d 08 39 78 40
       0.016589794 3.6644505e-15 0.10633206 3.878481
000360 df f2 66 3f 57 a2 19 3f cc 80 8b 3e e9 4b 89 3e
       0.9021434 0.60013336 0.27246702 0.26815727
000370 a8 95 ee 19 de 2c 98 3b 2c 43 43 3c 0c cc a9 39
       2.4669069e-23 0.0046440205 0.0119178705 0.0003238622
000380 ce da e5 3c 3a bd 02 3c 53 07 8d 24 c7 42 01 3e
       0.028058436 0.007979685 6.116141e-17 0.1262313
000390 3f 78 ba 3e 40 fb 06 3e 32 c2 5d 3f 33 9c d3 3d
       0.36419865 0.13181782 0.86624444 0.10332527
0003a0 c2 81 9b 3c b5 26 8f 1b df 1b 45 3c db 09 00 3c
       0.018982772 2.368238e-22 0.012030571 0.00781485
0003b0 3a f7 38 3c a8 a4 ee 3d 51 ab 9a 3c f1 57 4e 27
       0.011289412 0.116524994 0.018880518 2.8635916e-15
0003c0 97 c5 af 3e ff 38 e7 3d 4e 1e bd 3e e6 fa ed 3f
       0.34330437 0.11290168 0.36937183 1.8592193
0003d0 4f de fb 3e 16 09 20 3e c1 c8 cc 1a 42 c6 80 3a
       0.49193045 0.15628466 8.469676e-23 0.000982471
0003e0 27 13 49 3d 84 de 8c 3d aa 21 66 3c 63 01 88 3b
       0.04909053 0.06878379 0.014046112 0.004150556
0003f0 94 d3 fe 26 68 0b 01 3e 17 56 fd 3e 82 ec df 3d
       1.7682139e-15 0.12602007 0.49479744 0.10933782
