output/mlp/blue/checkpoints/epoch_12.pt (torch, 113034 bytes, 27 tensors)

input.0.weight f4 [50, 13]
0.008586299 -0.11317937 0.1891464 -0.22065611 0.15595222 0.030154044 -0.13687623 0.0043774364
0.08119981 -0.16282354 0.17344934 0.07454033 -0.10651738 -0.0354909 0.13302054 -0.094168454
0.16872936 -0.1843258 0.26222897 0.23831852 -0.20474678 0.21210374 -0.219045 -0.117821984
0.22126046 -0.010776202 -0.2069425 -0.2236713 -0.07706547 0.017546905 -0.06318097 0.110602334
-0.27155536 0.16002217 0.18441804 0.17543085 0.032181334 0.15517975 -0.114110634 0.10118699
0.1585336 -0.23833825 0.01774745 0.058967985 0.04257813 0.19430208 0.06085313 0.12072573
0.017072076 -0.10744538 -0.2164048 -0.2718295 -0.3564661 0.15812595 -0.23831843 -0.21440257
0.22402246 0.06319034 0.017845955 -0.06935973 -0.1990997 0.0009973468 -0.19570848 -0.022127464
0.049433716 -0.17135839 -0.17459774 0.22188671 0.15634629 0.16332443 -0.07045326 0.14094582
-0.118224144 0.037970033 0.08975452 -0.19135162 0.19375286 0.250355 -0.1059806 -0.13873853
-0.04510578 -0.041641414 0.1824848 -0.10634994 0.12815945 -0.23833783 0.18734783 -0.118910015
-0.11671333 -0.19907218 -0.15573768 -0.12498765 0.18470918 -0.084425226 -0.1989848 -0.08902254
-0.08164976 0.028873373 0.21279754 -0.17270294 0.0064089885 0.09098961 0.008827559 -0.06450003
0.13965173 -0.14418848 -0.10487967 0.29005063 -0.29858062 -0.09890902 0.16166426 -0.054951236
0.14564501 -0.25766963 0.2779943 0.059622746 -0.07869404 -0.1325021 0.20387705 0.023596039
-0.21614479 -0.064785 0.025094636 -0.15786746 -0.20908985 0.011019276 0.24047473 -0.12658416
0.041778047 -0.21229346 0.18552834 -0.083047114 0.054522272 0.18752679 -0.20518692 0.14793953
0.2244693 0.0822982 0.30798265 -0.07657821 -0.05414027 0.27599266 0.23576589 0.07807345
-0.06955068 -0.039546415 0.2399043 -0.04380718 -0.23808022 0.02814546 -0.02282125 -0.06817234
0.21210691 -0.15870349 0.17550111 0.20531379 0.1613986 0.13168535 -0.31611615 -0.1497435
-0.2470359 0.2356782 -0.15043804 0.007820994 -0.22071354 -0.20965946 -0.13598523 -0.048377328
-0.027806627 -0.15863991 -0.21427275 0.13245948 0.14955813 0.044482414 0.13914753 0.2390569
0.1964415 -0.20549549 0.25030413 0.01729059 -0.18850522 0.26128712 -0.013696529 -0.03405064
-0.07004179 0.15179764 -0.16028364 -0.25503987 -0.022454986 0.25317332 0.22558673 0.15754892
0.21464029 0.12709798 0.00062991265 -0.032423157 -0.23284419 -0.3194606 0.05281569 -0.22373961
0.16088478 0.25926873 -0.07520755 -0.053938933 -0.151163 -0.22530371 0.19828877 -0.14473608
-0.013614897 0.16456036 0.106476344 0.15975194 0.23260787 -0.044351693 -0.006994781 -0.046503007
0.11076104 -0.047926724 0.26234418 0.050119445 -0.21294525 0.04239863 -0.014320434 -0.22151515
0.22478576 -0.09108601 -0.30267748 -0.010470683 0.021859253 -0.03729522 0.0071537127 0.14979084
-0.20780307 -0.20098747 0.2007592 -0.17028663 0.032633845 0.1741334 0.009426468 0.20304206
0.121134564 0.3145179 -0.047814626 0.23140606 0.22994922 0.21223173 -0.14676718 0.056861173
0.23283206 0.080979384 -0.029798523 -0.18680693 0.20272304 0.04620405 0.1549856 0.2756376
00000000: 8cad 0c3c 96ca e7bd 98af 413e adf3 61be
00000010: f0b1 1f3e 9d05 f73c 4829 0cbe 9970 8f3b
00000020: 164c a63d 37bb 26be b49c 313e 9aa8 983d
00000030: c925 dabd e85e 11bd 8936 083e 64db c0bd
00000040: 64c7 2c3e e7bf 3cbe e042 863e c509 743e
00000050: 24a9 51be b931 593e 554d 60be a74c f1bd
00000060: 1a92 623e ab8e 30bc bce8 53be 170a 65be
00000070: 80d4 9dbd 87be 8f3c 0665 81bd 7a83 e23d
00000080: 4e09 8bbe dadc 233e 15d8 3c3e 25a4 333e
00000090: 93d0 033d 71e7 1e3e d6b2 e9bd 203b cf3d
000000a0: a256 223e f10e 74be 1a63 913c 6a88 713d
000000b0: 6866 2e3d 20f7 463e 2241 793d 0d3f f73d
000000c0: bdda 8b3c 530c dcbd 3899 5dbe 3c2d 8bbe
000000d0: ba82 b6be c5eb 213e bf09 74be 598c 5bbe
000000e0: 2566 653e f069 813d ae31 923c 790c 8ebd
000000f0: cbe0 4bbe 68b9 823a ce67 48be a844 b5bc
00000100: 027b 4a3d 9378 2fbe c0c9 32be 4536 633e
00000110: 3e19 203e 853e 273e cc49 90bd 1a54 103e
00000120: 801f f2bd 7786 1b3d 38d1 b73d aef1 43be
00000130: 2667 463e 882e 803e 5b0c d9bd 7911 0ebe
00000140: d7c0 38bd 3090 2abd 4cdd 3a3e ffcd d9bd
00000150: 3b3c 033e d50e 74be 1cd8 3f3e 1887 f3bd
00000160: 6607 efbd 94d9 4bbe b379 1fbe 86f9 ffbd
00000170: 6724 3d3e 22e7 acbd acc2 4bbe 7351 b6bd
00000180: fd37 a7bd da87 ec3c 99e7 593e 0ad9 30be
00000190: 7e02 d23b c358 ba3d 77a1 103c 9718 84bd
000001a0: dd00 0f3e 25a6 13be 27cb d6bd 8481 943e
000001b0: 8fdf 98be d090 cabd 518b 253e 8c14 61bd
000001c0: f723 153e 46ed 83be 4555 8e3e fb36 743d
000001d0: 572a a1bd a1ae 07be 25c5 503e 7b4c c13c
000001e0: 0f55 5dbe 00ae 84bd 4493 cd3c 02a8 21be
000001f0: a61b 56be 328a 343c 023f 763e 479f 01be
00000200: 751f 2b3d 7563 59be 24fb 3d3e 9b14 aabd
00000210: bf52 5f3d 0607 403e 851c 52be 767d 173e
00000220: 48db 653e f58b a83d e7af 9d3e 09d5 9cbd
00000230: 30c2 5dbd e94e 8d3e 9d6c 713e f9e4 9f3d
00000240: 9670 8ebd 6cfb 21bd 79a9 753e 286f 33bd
00000250: 4dcb 73be 4f91 e63c a1f3 babc f19d 8bbd
00000260: 8e32 593e 2b83 22be 90b6 333e c73d 523e
00000270: ad45 253e 86d8 063e fad9 a1be 5c56 19be
00000280: fbf6 7cbe a055 713e 6e0c 1abe a023 003c
00000290: bb02 62be f8b0 56be b63f 0bbe 4e27 46bd
000002a0: b9ca e3bc 8072 22be 516a 5bbe 75a3 073e
000002b0: c425 193e 3133 363d b17c 0e3e 55cb 743e
000002c0: f627 493e 696d 52be dd27 803e ffa4 8d3c
000002d0: 8307 41be 6dc7 853e 6867 60bc af78 0bbd
000002e0: 1272 8fbd d770 1b3e 6521 24be 9694 82be
000002f0: 85f3 b7bc ef9f 813e 3500 673e 8154 213e
00000300: aaca 5b3e f925 023e b920 253a 25ce 04bd
00000310: b56e 6ebe 5790 a3be 4455 583d ff1b 65be
00000320: fbbe 243e dfbe 843e 6a06 9abd 12ef 5cbd
00000330: 79ca 1abe 04b6 66be 360c 4b3e b235 14be
00000340: 0411 5fbc 8382 283e 4510 da3d 0396 233e
00000350: c230 6e3e 1faa 35bd 7a34 e5bb f079 3ebd
00000360: afd6 e23d d04e 44bd fa51 863e 0c4a 4d3d
00000370: 520e 5abe 30aa 2d3d 41a0 6abc ded4 62be
00000380: 3d2e 663e 4d8b babd 8bf8 9abe 3a8d 2bbc
00000390: 2d12 b33c dfc2 18bd b169 ea3b c562 193e
000003a0: 54ca 54be a9cf 4dbe d293 4d3e 9e5f 2ebe
000003b0: 11ab 053d 0750 323e 7971 1a3c 42ea 4f3e
000003c0: 6615 f83d 7d08 a13e 45d9 43bd b6f5 6c3e
000003d0: cf77 6b3e 4653 593e 234a 16be 43e7 683d
000003e0: 876b 6e3e 85d8 a53d 081c f4bc 514a 3fbe
000003f0: a196 4f3e 7540 3d3d 8cb4 1e3e 5f20 8d3e

input.0.bias f4 [50]
-0.23368426 -0.22617002 -0.05455655 -0.2136962 -0.23162377 -0.22521998 -0.14237958 -0.14370865
0.09363049 -0.024171954 -0.21335964 0.22314547 0.1390196 -0.028190112 0.01678611 0.22657353
-0.09928373 -0.011221869 0.25324818 0.27582324 0.103529386 0.19535746 -0.14061019 0.10508907
0.052337095 -0.059188537 0.22108555 0.07240375 -0.14547716 -0.029973691 -0.14970385 -0.17643894
0.20258512 0.14129622 -0.17493723 0.13741215 -0.0039741695 0.18603751 0.22976677 0.0781553
0.2333455 0.15570655 0.13181204 -0.10996241 0.121861406 0.049101196 0.18590084 -0.1202903
0.17299564 -0.07221854
00000000: ed4a 6fbe 1d99 67be b076 5fbd 2dd3 5abe
00000010: c82e 6dbe 11a0 66be f4cb 11be 5c28 13be
00000020: 58c1 bf3d 4304 c6bc f37a 5abe 3f80 643e
00000030: 275b 0e3e f3ee e6bc 0683 893c e402 683e
00000040: 4555 cbbd eedb 37bc bfa9 813e b438 8d3e
00000050: 3707 d43d c90b 483e 1efc 0fbe f038 d73d
00000060: 6c5f 563d ae6f 72bd 4064 623e 6b48 943d
00000070: f7f7 14be 638b f5bc f74b 19be 69ac 34be
00000080: 7972 4f3e f5af 103e bf22 33be c5b5 0c3e
00000090: c039 82bb 9e80 3e3e fb47 6b3e e30f a03d
000000a0: 1ff2 6e3e 8a71 1f3e bcf9 063e f933 e1bd
000000b0: 7992 f93d 561e 493d ca5c 3e3e c35a f6bd
000000c0: c525 313e 50e7 93bd

hidden.0.weight f4 [50, 50]
0.05465961 0.093339935 0.10800738 -0.012030989 -0.051243555 -0.03691016 0.09343441 0.031043911
0.021516506 -0.03649495 0.05475577 0.026281068 0.06801752 0.0071799657 -0.11955233 -0.0032575799
0.07414683 -0.09958909 0.0006780748 0.046068784 0.11799247 -0.003497273 0.018389381 -0.004526357
-0.12432181 -0.08525904 -0.14955504 0.013808837 0.13556518 0.030745605 -0.056506224 -0.09356374
-0.027304277 0.044832315 -0.028122878 0.1192269 -0.049804755 -0.058372673 0.1214623 0.07169073
-0.032820888 0.08009736 0.075011455 0.06408497 -0.096910186 -0.15502152 -0.04875796 -0.054880917
0.07688566 -0.044972736 -0.06515668 0.034408804 -0.1283233 -0.04269824 -0.033491045 0.0048381654
-0.053848457 0.04883454 0.11643092 0.058871087 -0.0025231985 0.050164662 -0.10579996 -0.053466294
-0.2010156 0.0049995077 -0.0324149 -0.084292844 -0.08661475 -0.015766764 -0.13305938 0.0991788
0.024693051 0.024682008 0.084041074 -0.025357582 0.11298836 0.034408916 -0.06058118 -0.12139789
0.054424644 0.001974765 0.011568938 -0.011153553 -0.0107634915 -0.07041854 0.09647593 0.14717963
0.030635303 0.078807615 0.14421955 -0.056504678 0.05188587 -0.10908426 0.1477927 0.12217238
-0.0053222203 0.09141688 0.19122112 0.03705702 0.10800653 0.06520141 0.026610918 0.0017065437
0.0013521918 -0.08327941 -0.05268888 0.004373073 -0.0054803328 0.059596617 0.10092589 0.099166095
0.042309884 -0.07315533 0.08449687 -0.0037102068 0.049929067 0.06214914 0.018886207 -0.055080105
0.02384895 -0.07252638 -0.10336654 0.07722097 -0.10014071 0.024685599 0.0033633637 -0.078115925
0.089350075 0.12627004 0.10054048 -0.13934706 -0.09825254 -0.042904753 0.11830997 0.051440287
-0.027781684 -0.08863841 0.09275863 0.1265032 -0.114550285 -0.030796805 -0.033578575 0.034903225
0.07067111 0.086906165 0.083546914 0.07662825 -0.016284322 0.0059268363 0.0005140064 0.0042739552
-0.04887197 0.07736919 -0.16366398 0.06059827 0.013681577 -0.04152069 0.09312999 0.068789
-0.012758918 -0.09418714 -0.034980368 -0.09587074 0.03269061 -0.039828524 0.12001957 0.1279781
-0.096663825 -0.04872285 -0.13099372 -0.06358891 0.10823431 -0.17387748 -0.110099256 0.08608902
-0.14813723 0.043105226 0.065838546 -0.027941247 -0.08145274 -0.028760426 -0.12443261 -0.113595925
-0.07894219 -0.038360186 -0.17941262 -0.052146513 0.019922381 -0.15726578 0.06261459 0.019348308
-0.1372187 -0.034264546 -0.059501037 -0.12259897 -0.061071828 0.0020332944 -0.006926171 -0.03701006
0.013196103 0.11295088 -0.10517819 0.05072516 0.043474652 0.080586985 -0.021693626 0.012196737
0.06392077 0.031225197 0.0701417 0.10870977 -0.07145404 -0.08414641 0.14153437 -0.025510151
-0.12159253 0.077649936 -0.008920067 -0.05556718 -0.027487837 0.046672314 0.07944571 -0.045144442
0.08284756 -0.06270657 0.012661045 0.093807675 -0.042104013 0.028655274 -0.09157486 -0.1146085
0.123609394 -0.03075699 0.0026579427 0.10882643 -0.05758251 -0.051666815 -0.042117946 0.11191105
-0.11764105 -0.123863585 -0.067992695 0.047771744 -0.12802812 0.11625925 0.023328904 0.13772385
-0.07659172 0.019749828 -0.0138295945 0.07253765 0.053458385 -0.019845672 0.011069233 0.023231898
00000000: c1e2 5f3d 0229 bf3d f932 dd3d a01d 45bc
00000010: c3e4 51bd 1c2f 17bd 8a5a bf3d cd4f fe3c
00000020: 6243 b03c bb7b 15bd 9647 603d 654b d73c
00000030: c54c 8b3d eb45 eb3b dad7 f4bd 1f7d 55bb
00000040: 4bda 973d 5df5 cbbd d4c0 313a 9fb2 3c3d
00000050: 09a6 f13d 8132 65bb 54a5 963c d651 94bb
00000060: 6f9c febd 4b9c aebd f524 19be 763e 623c
00000070: 99d1 0a3e 35de fb3c 1273 67bd 599e bfbd
00000080: 38ad dfbc 17a2 373d f361 e6bc 3c2d f43d
00000090: 1200 4cbd 2f18 6fbd 3ac1 f83d 97d2 923d
000000a0: 326f 06bd 160a a43d 9b9f 993d fb3e 833d
000000b0: d978 c6bd f6bd 1ebe 6db6 47bd d0ca 60bd
000000c0: 3b76 9d3d 5535 38bd de70 85bd 3ff0 0c3d
000000d0: 2f67 03be 5ae4 2ebd e82d 09bd 7989 9e3b
000000e0: 3390 5cbd ba06 483d 5673 ee3d cf22 713d
000000f0: 3f5c 25bb 7679 4d3d a6ad d8bd 79ff 5abd
00000100: 09d7 4dbe e9d2 a33b 7cc5 04bd baa1 acbd
00000110: 1363 b1bd 4d29 81bc b840 08be 411e cb3d
00000120: 1549 ca3c ec31 ca3c ba1d ac3d b4ba cfbc
00000130: 7166 e73d 5df0 0c3d f923 78bd 759f f8bd
00000140: 60ec 5e3d 0f6b 013b a58b 3d3c 64bd 36bc
00000150: 5b59 30bc 9837 90bd 2c95 c53d 42b6 163e
00000160: e3f6 fa3c e365 a13d 4aae 133e 7371 67bd
00000170: 4786 543d 9267 dfbd f856 173e 8335 fa3d
00000180: 0566 aebb c638 bb3d 78cf 433e 1ac9 173d
00000190: 8732 dd3d 5188 853d 24ff d93c 1bae df3a
000001a0: 073c b13a 658e aabd 4cd0 57bd ff4b 8f3b
000001b0: 5d94 b3bb 951b 743d 3cb2 ce3d 9817 cb3d
000001c0: 214d 2d3d 76d2 95bd b20c ad3d f126 73bb
000001d0: 6c82 4c3d 1990 7e3d 3fb7 9a3c ad9b 61bd
000001e0: e05e c33c b688 94bd d6b1 d3bd 0726 9e3d
000001f0: 9316 cdbd 7439 ca3c e16b 5c3b 3efb 9fbd
00000200: 2cfd b63d ef4c 013e 2be8 cd3d ffb0 0ebe
00000210: a138 c9bd e5bc 2fbd 7f4c f23d 0db3 523d
00000220: 6a96 e3bc 0e88 b5bd 3df8 bd3d 0e8a 013e
00000230: 5799 eabd 9549 fcbc b089 09bd aff6 0e3d
00000240: 04bc 903d dcfb b13d a51a ab3d 46ef 9c3d
00000250: b366 85bc e835 c23b 63be 063a 890c 8c3b
00000260: fa2d 48bd bd73 9e3d 8897 27be e435 783d
00000270: b128 603c 9911 2abd f0ba be3d 3fe1 8c3d
00000280: c80a 51bc 30e5 c0bd 9347 0fbd e157 c4bd
00000290: 97e6 053d 3c23 23bd d2cc f53d b10c 033e
000002a0: aff7 c5bd 9c91 47bd 3823 06be e73a 82bd
000002b0: f3a9 dd3d f00c 32be b87b e1bd 714f b03d
000002c0: 49b1 17be 1b8f 303d 5cd6 863d 0be5 e4bc
000002d0: b2d0 a6bd fc9a ebbc 86d6 febd fba4 e8bd
000002e0: 71ac a1bd 921f 1dbd f1b7 37be 9597 55bd
000002f0: 4334 a33c 480a 21be 143c 803d 5880 9e3c
00000300: 0f83 0cbe fb58 0cbd 5cb7 73bd 2b15 fbbd
00000310: 7426 7abd 0541 053b eff4 e2bb dc97 17bd
00000320: 7834 583c ca52 e73d aa67 d7bd 2fc5 4f3d
00000330: 7a12 323d ca0a a53d d5b6 b1bc d3d4 473c
00000340: e5e8 823d fccb ff3c 74a6 8f3d 3aa3 de3d
00000350: 7f56 92bd f454 acbd 63ee 103e aafa d0bc
00000360: 8105 f9bd ee06 9f3d 7925 12bc 699a 63bd
00000370: 2c2e e1bc 782b 3f3d 6fb4 a23d 61e9 38bd
00000380: fbab a93d 4d6c 80bd 4670 4f3c 3d1e c03d
00000390: 4275 2cbd 77be ea3c 9a8b bbbd dcb7 eabd
000003a0: ec26 fd3d 15f6 fbbc e130 2e3b 64e0 de3d
000003b0: a3db 6bbd 95a0 53bd de83 2cbd 9f31 e53d
000003c0: caed f0bd 31ac fdbd c13f 8bbd 4eac 433d
000003d0: ce19 03be 5419 ee3d 421c bf3c 7b07 0d3e
000003e0: 1fdc 9cbd 64ca a13c 8695 62bc 9f8e 943d
000003f0: 2ef7 5a3d 6493 a2bc ba5b 353c d250 be3c

hidden.0.bias f4 [50]
-0.09354308 -0.020374257 0.026823537 -0.124202505 -0.0682088 0.06072621 -0.13901457 -0.023010524
-0.13219874 -0.085144065 0.008142214 -0.025570348 -0.04963791 -0.047187407 0.08564534 -0.14565803
-0.14059114 -0.16208288 -0.036396824 0.040345017 0.107742645 -0.043525845 0.038642757 0.064179726
0.05825866 0.16762255 0.16797754 0.090236 -0.034982342 -0.08383331 -0.13590096 -0.070058905
-0.0066807964 -0.10153001 0.12923655 0.0050610634 -0.023378108 0.15848067 0.06506095 -0.116333924
-0.13255295 -0.054583922 0.121025965 -0.1391815 0.09592519 -0.0024424847 -0.04223541 -0.021956744
-0.113945425 -0.0852008
00000000: 8493 bfbd eae7 a6bc 09bd db3c e25d febd
00000010: 0eb1 8bbd 0cbc 783d d659 0ebe 9180 bcbc
00000020: 1b5f 07be 0360 aebd ec66 053c e878 d1bc
00000030: 1f51 4bbd 9547 41bd d366 af3d 6127 15be
00000040: 20f7 0fbe 0ef9 25be d614 15bd d140 253d
00000050: 2da8 dc3d 2848 32bd de47 1e3d a970 833d
00000060: a2a0 6e3d 3fa5 2b3e 4e02 2c3e a7cd b83d
00000070: a549 0fbd ccb0 abbd 9f29 0bbe 0b7b 8fbd
00000080: 95ea dabb f7ee cfbd 9656 043e 47d7 a53b
00000090: 7283 bfbc c248 223e ad3e 853d 7b40 eebd
000000a0: f6bb 07be 6493 5fbd 76dc f73d 9885 0ebe
000000b0: 6d74 c43d 1812 20bb 0aff 2cbd a1de b3bc
000000c0: 385c e9bd c27d aebd

hidden.3.weight f4 [50, 50]
0.032030664 0.014330465 0.04758554 0.01406411 0.034134533 0.05941462 -0.0420395 0.04825892
-0.11483086 -0.073294304 -0.08124388 0.020789808 0.11866253 0.11555131 -0.030916518 0.11357754
-0.034998707 0.007821072 -0.13235506 -0.023882823 0.12092093 0.0967905 -0.07791616 0.0939586
0.06343637 0.04987282 0.15803313 0.013383413 0.03891688 -0.1337117 0.07273747 0.07744662
0.05507528 -0.11510771 0.09732889 -0.040760297 0.12789953 0.12663272 0.08255246 -0.090089574
0.10550968 -0.03212557 -0.09496016 -0.03442357 0.085418575 0.05059136 0.04946538 0.06360703
0.013547092 -0.034347456 0.029138997 -0.03766915 0.05412775 -0.034221895 -0.008523646 -0.11663794
0.1101936 0.0321138 -0.010678975 0.015219077 -0.0975431 -0.028308606 0.037512235 0.0777843
0.09121408 0.08742801 -0.014835822 0.11494164 0.050847407 -0.115287356 0.100050576 -0.11878583
0.06785791 -0.027010871 -0.02665828 0.041684482 0.04420144 0.029559959 -0.02503954 0.09909623
0.046832755 0.052708525 0.11438829 0.06645502 -0.03295281 -0.0397575 0.0943138 0.10773846
0.08525201 0.048608962 -0.09238944 -0.118090585 0.065438904 0.023235401 0.041216753 0.0036055602
-0.042760413 0.10912471 0.015377097 -0.107519954 -0.11507761 -0.12626599 0.027312772 -0.0021616938
-0.038177952 -0.0044017127 -0.100212246 -0.01817804 -0.09741088 0.037687793 0.047044873 0.037854273
-0.07955497 -0.013304599 -0.01938689 -0.088231385 0.07479407 -0.044744495 -0.11359324 -0.046209287
-0.009737054 -0.01262566 -0.11807776 0.051944055 0.08538605 -0.15879728 0.06840965 -0.057516742
0.06324872 -0.029728562 0.12976003 -0.054459415 -0.0004585454 -0.06616683 -0.042381953 -0.06093026
0.09811772 -0.17709641 0.041222557 0.06715951 0.007178958 0.08993006 -0.065826036 -0.074429154
-0.026793355 -0.0033106715 -0.051436786 0.047751796 -0.050975546 -0.13366878 0.040070266 -0.18403456
-0.24952461 0.011212149 -0.25056666 -0.040810697 0.052544646 -0.1393287 0.105170146 -0.019900588
-0.0085620275 -0.061552037 -0.022211801 0.09475778 0.058432892 -0.13392398 -0.039731916 -0.06637589
0.05316338 -0.014176396 0.12021217 -0.05112009 -0.18225309 -0.32988924 -0.14996758 0.021727456
-0.03131389 -0.033370897 -0.21084887 0.0397379 -0.10008925 -0.023584487 -0.06847945 -0.03297444
-0.023598598 -0.13832691 -0.026771812 -0.0576722 -0.1327493 -0.07730683 0.120216325 0.016150476
-0.10412485 0.033678286 -0.13692655 -0.010995911 -0.16281869 0.049703736 -0.1696188 -0.15379448
0.12953736 0.14633413 0.09192237 0.114563406 -0.007952917 0.17826393 0.095936224 0.031077448
-0.03338134 0.16065568 0.1288037 -0.012287967 -0.10693406 -0.0037600747 0.0250677 -0.042231318
0.025319034 0.053111486 0.08160792 0.041134275 -0.07553037 0.1893272 0.091680534 0.14922765
-0.09080122 0.025355944 0.028689258 0.056752108 0.17063224 -0.0371301 -0.008180549 -0.053312466
0.08983281 -0.08758257 -0.01734981 0.13285433 -0.009821407 0.18079652 0.08573145 0.11445836
-0.09689885 0.09336706 0.16941373 0.11446009 0.09771792 0.12050507 0.081722215 -0.11072513
0.10893572 0.1464697 0.11414982 -0.14934878 -0.05084781 -0.13502349 -0.02558442 0.01818192
00000000: 9632 033d 54ca 6a3c 0ee9 423d 276d 663c
00000010: a7d0 0b3d bf5c 733d 9c31 2cbd 25ab 453d
00000020: 712c ebbd 531b 96bd 3163 a6bd 634f aa3c
00000030: 5705 f33d 2aa6 ec3d a344 fdbc 579b e83d
00000040: ce5a 0fbd f423 003c 1688 07be e9a5 c3bc
00000050: 64a5 f73d 193a c63d 8292 9fbd 5e6d c03d
00000060: edea 813d 7147 4c3d 70d3 213e 1a46 5b3c
00000070: 4e67 1f3d b8eb 08be 62f7 943d 559c 9e3d
00000080: 9e96 613d 97bd ebbd 5e54 c73d 45f4 26bd
00000090: 18f8 023e 02ac 013e 4411 a93d e280 b8bd
000000a0: 7615 d83d 1a96 03bd 797a c2bd bbff 0cbd
000000b0: efef ae3d e338 4f3d 369c 4a3d 6744 823d
000000c0: 9ff4 5d3c ebaf 0cbd e8b4 ee3c f74a 1abd
000000d0: 0fb5 5d3d 422c 0cbd c3a6 0bbc dfdf eebd
000000e0: 2fad e13d c389 033d def6 2ebc 6f59 793c
000000f0: adc4 c7bd 73e7 e7bc 6ea6 193d 604d 9f3d
00000100: 73ce ba3d 750d b33d f311 73bc 8666 eb3d
00000110: 5f45 503d c71b ecbd 51e7 cc3d fc45 f3bd
00000120: 17f9 8a3d e745 ddbc 7762 dabc 59bd 2a3d
00000130: 920c 353d ba27 f23c b91f cdbc f7f2 ca3d
00000140: b4d3 3f3d e5e4 573d 6844 ea3d 9219 883d
00000150: 87f9 06bd c3d8 22bd 9827 c13d fba5 dc3d
00000160: 9b98 ae3d 311a 473d ad36 bdbd 7ad9 f1bd
00000170: d504 863d 2b58 be3c e6d2 283d 434b 6c3b
00000180: 8b25 2fbd c77c df3d 38f0 7b3c 6c33 dcbd
00000190: cfad ebbd df4b 01be 09bf df3c 34ab 0dbb
000001a0: 7c60 1cbd 3e3c 90bb 143c cdbd 1dea 94bc
000001b0: 5b7f c7bd 845e 1a3d 20b2 403d 150d 1b3d
000001c0: b7ed a2bd 88fb 59bc 41d1 9ebc a8b2 b4bd
000001d0: a22d 993d 0146 37bd 93a3 e8bd f345 3dbd
000001e0: 2a88 1fbc dbdb 4ebc c1d2 f1bd 4ac3 543d
000001f0: e2de ae3d c19b 22be 5c1a 8c3d ad96 6bbd
00000200: 8b88 813d 5089 f3bc d0df 043e d610 5fbd
00000210: ec68 f0b9 7a82 87bd b398 2dbd 0292 79bd
00000220: f1f1 c83d c358 35be fcd8 283d ed8a 893d
00000230: 773d eb3b 402d b83d cdcf 86bd 506e 98bd
00000240: bd7d dbbc daf7 58bb 61af 52bd 6397 433d
00000250: bccb 50bd 78e0 08be b820 243d 8e73 3cbe
00000260: 6183 7fbe 29b3 373c 464a 80be 1e29 27bd
00000270: 0e39 573d 2fac 0ebe 7263 d73d 8f06 a3bc
00000280: bf47 0cbc fd1d 7cbd 86f5 b5bc 5e10 c23d
00000290: 5457 6f3d 5e23 09be efbd 22bd 15f0 87bd
000002a0: d8c1 593d 1d44 68bc cc31 f63d 4d63 51bd
000002b0: 8ea0 3abe 3ee7 a8be 1a91 19be c7fd b13c
000002c0: fe42 00bd ecaf 08bd c4e8 57be 35c4 223d
000002d0: 98fb ccbd 4134 c1bc f43e 8cbd 3510 07bd
000002e0: d951 c1bc 92a5 0dbe 8f50 dbbc af39 6cbd
000002f0: 6fef 07be 0b53 9ebd fa33 f63d 014e 843c
00000300: 693f d5bd 3ef2 093d 7936 0cbe 3228 34bc
00000310: f1b9 26be 2596 4b3d 8db0 2dbe 4d7c 1dbe
00000320: 71a5 043e 9dd8 153e cc41 bc3d 38a0 ea3d
00000330: f44c 02bc d28a 363e 367a c43d 2296 fe3c
00000340: dfba 08bd ec82 243e 1ee5 033e 7853 49bc
00000350: 3f00 dbbd 966b 76bb c75a cd3c bffa 2cbd
00000360: dd69 cf3c 6e8b 593d 0e22 a73d 6a7c 283d
00000370: abaf 9abd fdde 413e 01c3 bb3d 22cf 183e
00000380: fdf5 b9bd 45b7 cf3c bc05 eb3c e674 683d
00000390: 38ba 2e3e bb15 18bd b607 06bc 2c5e 5abd
000003a0: 44fa b73d 7e5e b3bd 3021 8ebc f70a 083e
000003b0: f7e9 20bc b922 393e f893 af3d 2569 ea3d
000003c0: e772 c6bd 3b37 bf3d cb7a 2d3e 0d6a ea3d
000003d0: 5520 c83d 5dcb f63d fa5d a73d dbc3 e2bd
000003e0: b119 df3d 27fc 153e 61c7 e93d e3ee 18be
000003f0: cb45 50bd 9943 0abe 6b96 d1bc 40f2 943c

hidden.3.bias f4 [50]
0.061255004 0.02439597 -0.034122955 -0.15480664 0.15423505 0.10706404 -0.11404021 -0.2355145
0.06875643 0.08083434 0.029247513 0.08401122 -0.22160707 -0.13232969 0.051077496 0.08383518
0.22925076 0.14489645 0.047827013 -0.09392235 -0.03914033 -0.13049266 0.10757533 -0.21418962
-0.04714169 0.103502475 -0.20880201 -0.102654815 -0.08639045 0.00824126 -0.13598916 -0.14877161
0.030704835 0.019580955 -0.02901205 0.041168775 -0.26496303 0.084104344 -0.079158194 0.07214326
0.015435953 0.07973198 -0.23728622 -0.17784286 0.09047704 0.08268516 0.14715248 0.027876891
-0.09235237 0.06602589
00000000: 87e6 7a3d 0fda c73c 83c4 0bbd a285 1ebe
00000010: cbef 1d3e 6444 db3d ea8d e9bd b72a 71be
00000020: 2cd0 8c3d 798c a53d 7b98 ef3c 130e ac3d
00000030: f7ec 62be 6f81 07be a336 513d c7b1 ab3d
00000040: b6c0 6a3e bc5f 143e 42e6 433d 5c5a c0bd
00000050: 9c51 20bd de9f 05be 7450 dc3d 8654 5bbe
00000060: a517 41bd 1bf9 d33d 32d0 55be b03c d2bd
00000070: 7aed b0bd 5a06 073c be40 0bbe 9657 18be
00000080: b588 fb3c 3d68 a03c aeaa edbc 97a0 283d
00000090: 3ca9 87be e63e ac3d b11d a2bd d8bf 933d
000000a0: 14e7 7c3c 854a a33d 29fb 72be 701c 36be
000000b0: 074c b93d d656 a93d 24af 163e 145e e43c
000000c0: 3d23 bdbd 9538 873d

hidden.6.weight f4 [50, 50]
-0.07742062 -0.06618196 -0.100386254 0.107715964 0.021895574 0.02709439 -0.01642001 0.10801308
0.01524663 -0.14547363 -0.0649495 -0.12341874 0.11777051 0.060114946 0.07728751 -0.08651557
-0.14074886 -0.02831564 -0.008925057 0.0013963864 -0.030809525 -0.054346573 0.05224232 -0.13499525
-0.06913343 0.04346557 -0.03496904 0.059016105 -0.039106455 -0.10717276 0.104968816 -0.1690831
-0.079041794 -0.041263137 -0.062924646 0.1102397 0.017360771 0.068090245 0.10273315 -0.06226689
0.053453695 0.011572508 -0.089809716 -0.06264775 -0.103802085 -0.034733456 0.08716259 0.011263969
0.045858864 -0.038747523 -0.08687434 -0.011544069 0.044248287 -0.12094085 -0.064441994 -0.096919745
0.006114493 0.065397486 -0.024353122 -0.13664742 0.059544455 0.05856013 0.06344224 -0.064645186
-0.09184268 0.0698503 -0.07360111 -0.00043162552 0.10026366 -0.004766431 -0.020445332 0.033435382
-0.018193366 -0.1298344 -0.11560225 -0.11094023 0.10629842 -0.06973706 -0.04439375 0.04538568
0.08489048 -0.19812872 0.0055763074 0.11057325 0.09220929 0.1020971 0.07950368 0.11888122
-0.15558866 0.032147292 0.012406219 -0.08187342 0.03438762 -0.020473592 0.03826653 -0.124742076
-0.11587267 -0.01589531 -0.064121 -0.0769063 -0.08584756 -0.055579115 -0.12378027 0.074015245
0.012938683 -0.13547139 0.03743388 0.07236503 -0.015394668 -0.13545725 0.061266795 -0.14898732
0.050545517 -0.075885706 -0.056545738 -0.10041372 0.014784628 0.03327761 -0.07277663 -0.0008473862
0.025812058 -0.07579955 0.07664866 -0.0786179 -0.049367674 -0.03311309 -0.0691951 -0.010276978
-0.051635075 0.01101717 -0.035758633 0.022131864 0.07722022 -0.032340437 0.0024670626 -0.038986377
-0.010678424 -0.07985864 0.08626286 -0.054971736 0.1436671 0.008396122 0.087671265 -0.026469588
-0.025376607 -0.0821919 -0.13321017 0.03880981 0.005437042 -0.057264246 0.05312529 -0.055813897
0.034770723 -0.04729043 -0.099462576 -0.065107435 0.106372595 0.008866413 -0.047937702 -0.026433626
0.019078894 0.021844236 0.089020334 0.045893315 -0.015288508 -0.13887842 -0.13130203 0.07183755
-0.15777245 -0.09713904 0.112485215 0.07020035 -0.032334957 0.043892857 0.10912891 -0.011707819
0.058797657 -0.096664965 -0.08405533 -0.12513363 -0.090724535 -0.0015030041 -0.098082736 -0.010580634
-0.0966603 0.103585705 0.11762887 0.08929544 -0.17250901 -0.07311414 -0.09425556 0.069757804
0.13988881 -0.07348651 -0.0019396719 -0.06534901 -0.043405022 0.016577825 -0.00080159464 8.960039e-05
-0.02715249 0.049468376 0.01833432 0.020724507 -0.036678974 0.067206204 -0.032110557 -0.04857015
-0.08758516 -0.12606515 0.012406906 -0.10502326 -0.105348594 -0.08733641 -0.015659638 0.0909978
-0.060735174 0.02827735 -0.077327624 -0.017980514 0.060750157 -0.039134916 -0.007603035 -0.11175633
0.07924334 -0.056584995 -0.1132721 -0.045392524 -0.045006253 -0.065720975 -0.06694839 0.011207765
-0.037584085 0.08755102 0.1026994 -0.026442869 -0.13083033 -0.07257824 0.002461174 -0.02286068
-0.050572753 0.04915752 -0.13791683 0.0017951131 -0.07533115 -0.026349133 -0.015784802 -0.07702759
0.023670662 -0.053635582 -0.01631449 0.067588285 0.08626568 -0.1531172 0.056037266 0.06339754
00000000: b48e 9ebd 688a 87bd 4f97 cdbd 309a dc3d
00000010: 595e b33c 0ef5 dd3c 4283 86bc f635 dd3d
00000020: 00cd 793c 0af7 14be 3e04 85bd f7c2 fcbd
00000030: aa31 f13d 173b 763d ea48 9e3d 132f b1bd
00000040: 7820 10be 33f6 e7bc 673a 12bc f406 b73a
00000050: 4264 fcbc 839a 5ebd 0bfc 553d 323c 0abe
00000060: d495 8dbd f408 323d b23b 0fbd dfba 713d
00000070: 172e 20bd 647d dbbd e4f9 d63d 1f24 2dbe
00000080: aae0 a1bd 8903 29bd a3de 80bd 5ac5 e13d
00000090: 2d38 8e3c e672 8b3d c265 d23d 910b 7fbd
000000a0: 43f2 5a3d 9e9a 3d3c 28ee b7bd 774d 80bd
000000b0: 3096 d4bd ab44 0ebd 4d82 b23d 838c 383c
000000c0: 81d6 3b3d b9b5 1ebd 2deb b1bd 5623 3dbc
000000d0: b13d 353d d6af f7bd 2afa 83bd dc7d c6bd
000000e0: 165c c83b 1eef 853d 3380 c7bc 4ded 0bbe
000000f0: e3e4 733d bfdc 6f3d 01ee 813d b264 84bd
00000100: 0418 bcbd ad0d 8f3d 2ebc 96bd cc4b e2b9
00000110: 0957 cd3d b92f 9cbb f87c a7bc 8af3 083d
00000120: 410a 95bc 4ff3 04be dfc0 ecbd a234 e3bd
00000130: fcb2 d93d 4ed2 8ebd 39d6 35bd 56e6 393d
00000140: 0fdb ad3d 41e2 4abe 75b9 b63b 3a74 e23d
00000150: 39d8 bc3d 4918 d13d d3d2 a23d ff77 f33d
00000160: a252 1fbe e1ac 033d 7443 4b3c 40ad a7bd
00000170: 08da 0c3d 3cb8 a7bc 5dbd 1c3d c678 ffbd
00000180: a74e edbd e236 82bc df51 83bd 0d81 9dbd
00000190: d8d0 afbd eda6 63bd 8380 fdbd 4e95 973d
000001a0: c5fc 533c 03b9 0abe 4554 193d 1e34 943d
000001b0: eb39 7cbc 4eb5 0abe e4f2 7a3d 2290 18be
000001c0: d108 4f3d f769 9bbd 819c 67bd b5a5 cdbd
000001d0: 393b 723c 1a4e 083d ea0b 95bd 2023 5eba
000001e0: cf73 d33c cb3c 9bbd f9f9 9c3d 6c02 a1bd
000001f0: c235 4abd 97a1 07bd 29b6 8dbd c560 28bc
00000200: 4d7f 53bd 5c81 343c a577 12bd e24d b53c
00000210: a225 9e3d 6877 04bd 71ae 213b 2eb0 1fbd
00000220: 8ef4 2ebc ed8c a3bd 95aa b03d 0b2a 61bd
00000230: 781d 133e e38f 093c fe8c b33d c0d6 d8bc
00000240: 9ae2 cfbc 3a54 a8bd 3f68 08be 09f7 1e3d
00000250: 3729 b23b ea8d 6abd e799 593d 1d9d 64bd
00000260: bf6b 0e3d 9cb3 41bd 09b3 cbbd 0c57 85bd
00000270: e0d9 d93d 6e44 113c 535a 44bd 558b d8bc
00000280: 574b 9c3c aff2 b23c 4b50 b63d a1fa 3b3d
00000290: a67c 7abc 2536 0ebe 0a74 06be 911f 933d
000002a0: 1a8f 21be d5f0 c6bd a65e e63d 33c5 8f3d
000002b0: a971 04bd ffc8 333d fa7e df3d 27d2 3fbc
000002c0: d0d5 703d 48f8 c5bd 3325 acbd 0823 00be
000002d0: c9cd b9bd 7300 c5ba 9adf c8bd 655a 2dbc
000002e0: d6f5 c5bd be24 d43d 68e7 f03d 87e0 b63d
000002f0: 34a6 30be debc 95bd 0f09 c1bd 2edd 8e3d
00000300: 033f 0f3e 1880 96bd 973c feba b4d5 85bd
00000310: 77c9 31bd 38ce 873c 1b22 52ba d8e7 bb38
00000320: e66e debc 5a9f 4a3d db31 963c 71c6 a93c
00000330: b13c 16bd 68a3 893d 5c86 03bd 7ef1 46bd
00000340: d95f b3bd 3917 01be 5646 4b3c 6f16 d7bd
00000350: 01c1 d7bd 6fdd b2bd a448 80bc 0e5d ba3d
00000360: 72c5 78bd e7a5 e73c f25d 9ebd df4b 93bc
00000370: 28d5 783d ef4b 20bd e122 f9bb 81e0 e4bd
00000380: 554a a23d abc5 67bd 34fb e7bd 83ed 39bd
00000390: 7a58 38bd b898 86bd 3d1c 89bd c6a0 373c
000003a0: c5f1 19bd f34d b33d 1054 d23d b79e d8bc
000003b0: 63f8 05be e6a3 94bd a64b 213b 5246 bbbc
000003c0: 6025 4fbd 6559 493d 123a 0dbe 004a eb3a
000003d0: 3847 9abd 23da d7bc 214f 81bc a4c0 9dbd
000003e0: fae8 c13c fcb0 5bbd f7a5 85bc ba6b 8a3d
000003f0: 10ac b03d c1ca 1cbe 5587 653d 92d6 813d

hidden.6.bias f4 [50]
-0.15938966 0.044197343 -0.07537127 -0.1445857 -0.091831274 -0.112114854 -0.16810851 -0.055260845
-0.10687283 -0.11773455 0.024770819 -0.11377837 -0.10130051 0.09735313 -0.024454003 -0.030605106
-0.12241942 0.034598343 0.08760498 -0.07523476 0.055128094 -0.012852886 0.16009307 0.007124043
-0.11432402 -0.14350931 -0.017115874 -0.06648746 -0.05706293 0.09131339 -0.05754958 -0.025040794
0.06920414 0.15464008 0.016659869 0.047431685 0.086531706 0.018967904 -0.052376296 0.10696215
-0.035330568 -0.019438492 -0.10264632 0.1548326 -0.10563554 0.18681085 0.06163577 0.08124577
-0.12999515 0.05308568
00000000: 0b37 23be 4608 353d 415c 9abd 460e 14be
00000010: 0912 bcbd 799c e5bd a324 2cbe 3259 62bd
00000020: 24e0 dabd d01e f1bd 2cec ca3c a204 e9bd
00000030: a476 cfbd 1461 c73d c353 c8bc 8fb7 fabc
00000040: 08b7 fabd feb6 0d3d 3d6a b33d af14 9abd
00000050: ffcd 613d e994 52bc 70ef 233e ce70 e93b
00000060: b622 eabd 1bf4 12be 9736 8cbc 942a 88bd
00000070: d2ba 69bd 8402 bb3d 1cb9 6bbd 5a22 cdbc
00000080: e6ba 8d3d f859 1e3e 477a 883c ba47 423d
00000090: 8937 b13d 9462 9b3c 8788 56bd f90e db3d
000000a0: c9b6 10bd 793d 9fbc 3c38 d2bd 708c 1e3e
000000b0: 7257 d8bd 584b 3f3e ca75 7c3d 2f64 a63d
000000c0: 731d 05be 5f70 593d

output.weight f4 [1, 50]
0.061882973 0.11561644 -0.011439748 0.012044218 0.05208009 0.08862865 0.023625808 -1.2757232
0.06913072 0.10872941 -0.056593042 0.11112862 -0.022038307 0.02238119 -1.7045934 0.07295167
0.13299158 0.115886964 -1.7544619 0.08650845 0.05227304 -1.7123206 -1.7877318 -0.068864115
0.034401327 -0.069869615 0.030902438 -1.7315676 0.05462943 -1.7441368 0.0916731 -1.7095612
0.029887686 -1.7789321 -0.119672224 -0.0028839468 -1.7851413 -1.6798176 -1.6804649 -0.028252583
0.08686277 -1.6527083 0.11248099 -1.8022411 0.08951736 -1.7650362 -0.075306274 -1.7596735
-0.13032794 -1.8110331
00000000: 0079 7d3d 50c8 ec3d c86d 3bbc 1d55 453c
00000010: ef51 553d f082 b53d e98a c13c e64a a3bf
00000020: 6894 8d3d 86ad de3d 1bce 67bd 6797 e33d
00000030: ae89 b4bc c258 b73c 1e30 dabf af67 953d
00000040: f22e 083e 2556 ed3d 3592 e0bf 582b b13d
00000050: 411c 563d 522d dbbf 65d4 e4bf a108 8dbd
00000060: 68e8 0c3d cd17 8fbd 1c27 fd3c 02a4 ddbf
00000070: 1cc3 5f3d e03f dfbf 1bbf bb3d e7d2 dabf
00000080: 05d7 f43c 0cb4 e3bf b616 f5bd 9900 3dbb
00000090: 837f e4bf 4304 d7bf 7919 d7bf f671 e7bc
000000a0: 1ce5 b13d f28b d3bf 6f5c e63d d6af e6bf
000000b0: e154 b73d b5ec e1bf 2d3a 9abd fb3c e1bf
000000c0: b074 05be efcf e7bf

exp_avg f4 [50, 13]
-5.760585e-06 -0.00032532975 -0.00024069015 1.0329421e-05 -0.0002903451 1.4517159e-11 -0.0007570691 -0.008217968
-3.3655397e-05 -0.0007386909 5.7054185e-05 0.0017824138 -1.050684e-17 -3.6601283e-05 -0.0004361493 0.0002156428
0.00012830325 -0.00034819258 6.753413e-11 -0.00039432815 -0.0050610583 -0.006013301 -0.0011513134 -0.00067014794
-0.0020162908 -2.6687033e-16 3.0030918e-05 -0.00025713438 0.00020868788 0.0002200919 -0.00081722654 5.2029396e-12
-0.00022478885 0.00032557992 -0.0045856643 -0.0010642066 -0.001242462 -0.0056165406 8.473012e-19 1.8247832e-05
6.170473e-05 0.0010861915 0.00088379945 0.001489195 2.4361344e-12 -0.00031745972 0.0018841572 0.00030773855
-0.0023105138 -0.00014642272 -0.0018294154 -1.4179146e-16 -9.553018e-06 0.0003641386 7.864697e-05 -0.0003114949
0.0005420045 -7.128642e-11 0.00045227417 -0.00027072625 0.0018592849 0.0026020245 0.00080261345 -0.00048238577
1.2713835e-16 -3.6065772e-05 5.330994e-06 0.0005916072 0.0003559685 -0.0016619242 1.0679708e-11 -0.0005399654
-0.000998094 0.0016107402 -0.0006102568 -0.00030238382 0.0053844233 -7.9265404e-19 7.582561e-06 3.0029036e-05
-0.00025097988 0.00044827347 0.0025411043 3.0524725e-11 0.0011363128 0.001126449 -0.0044726417 -0.0030859197
-0.0014430734 -0.0017953307 -1.787468e-18 1.2558799e-06 -0.00014913827 -0.0006847474 6.72476e-05 0.0003246011
5.037099e-12 -4.510895e-05 0.0025902477 -0.0012646366 0.0021242516 -7.398053e-05 0.0051243836 -1.4909789e-16
6.369612e-05 0.0001310725 0.0013307553 3.2689066e-05 3.150459e-05 3.3263985e-11 -0.0004215194 -0.002139112
-0.0033583648 0.000718697 0.0020959869 -0.0019008188 -1.4814621e-18 1.1301734e-06 0.000102112295 0.0009599254
0.00033724765 0.0010407558 1.18975845e-11 -0.0009732748 -0.01062653 0.009725659 -0.00024061436 0.00051650143
-0.0010647216 -8.8164615e-17 -1.0663139e-05 -0.0004001066 0.00051989435 0.00032918845 2.8821355e-06 1.0263859e-11
-0.0010419746 -0.007462419 0.0131703345 0.005581257 0.0017196698 0.0016066661 -2.3910266e-17 -4.5202036e-05
0.00025059507 0.0006015554 3.2147043e-05 0.00036899364 2.8209882e-11 -4.4919056e-05 -0.008963493 0.002406761
0.0054739565 0.0009304195 0.0041337516 -2.3000472e-18 2.4852017e-05 -4.8123507e-05 0.00061954715 0.0009758687
0.00018575766 4.2705514e-12 0.00011672408 0.0004701665 -0.00023514072 0.00048214223 0.00048589215 -0.00048403037
4.9679356e-17 -1.0072811e-05 -8.942629e-05 -0.0002711545 0.00019612967 0.0018340637 5.2910922e-12 0.0016709154
0.0013890164 0.0007224712 -0.00023307763 -0.00072461175 -0.002791918 1.1521344e-17 1.0145622e-05 0.00012995767
-0.0013879661 -0.00047084532 0.0003104017 5.238814e-12 -0.00052462355 0.0029846113 -0.0010885852 -0.0024450938
-0.00013943807 0.00068722555 -5.908816e-19 -1.9458044e-05 -8.765562e-06 0.0009770833 -0.00017866457 0.00028949912
-3.0054785e-11 -0.00045397732 -0.0071885744 0.004164833 0.00086436805 0.0004550613 0.001803428 2.760964e-19
1.3939226e-05 -0.00033046005 -0.0005606763 0.00074504357 -0.0007966556 -1.02456904e-10 0.00019922487 0.0043882076
-0.0023939044 -0.0023337747 -0.0025048105 -0.0062151137 -2.4925653e-17 1.2326574e-05 -4.328146e-05 -0.00094757456
0.00083407917 0.00021336747 3.9900583e-12 0.0008039511 0.0019991922 0.002348424 -0.0004098323 -0.001353438
-0.003010167 -2.3958172e-18 7.366616e-05 -0.00022254472 0.00059010496 0.0005688136 0.002708927 6.868876e-13
-0.0013679039 0.0015550965 0.014102221 -0.0018762073 0.003157325 0.0003974396 6.095924e-18 -5.68349e-06
0.00054931646 -0.0002562417 -0.0005040708 2.1826376e-05 -3.3550834e-13 -0.00029730043 -0.005099587 0.004690359
00000000: 0c4b c1b6 0591 aab9 c561 7cb9 864c 2d37
00000010: 7639 98b9 7963 7f2d 0c76 46ba a8a4 06bc
00000020: 3529 0db8 b5a4 41ba 774d 6f38 e29f e93a
00000030: 26d1 41a3 5484 19b8 f8aa e4b9 2c1e 6239
00000040: 2489 0639 9e8d b6b9 5682 942e d4bd ceb9
00000050: 3cd7 a5bb 3a0b c5bb abe7 96ba deac 2fba
00000060: bf23 04bb 1cd7 99a5 e8ea fb37 fecf 86b9
00000070: 3ad3 5a39 78c8 6639 253b 56ba ea0f b72c
00000080: 4cb5 6bb9 99b2 aa39 5743 96bb d97c 8bba
00000090: 1bda a2ba f50a b8bb 4514 7a21 ec12 9937
000000a0: 7a67 8138 8a5e 8e3a c7ae 673a 1831 c33a
000000b0: 7f6d 2b2c b970 a6b9 d3f5 f63a f857 a139
000000c0: fd6b 17bb 0d89 19b9 ffc8 efba 7479 23a5
000000d0: e645 20b7 dbe9 be39 45ef a438 2350 a3b9
000000e0: 4e15 0e3a b0c2 9cae 361f ed39 43f0 8db9
000000f0: 40b3 f33a ba86 2a3b 7a66 523a b9e8 fcb9
00000100: 9e94 1225 5445 17b8 e4e0 b236 1616 1b3a
00000110: 49a1 ba39 ecd4 d9ba 21e1 3b2d 778c 0dba
00000120: 7ad2 82ba 791f d33a a4f9 1fba 4589 9eb9
00000130: d16f b03b 3ff3 69a1 b46d fe36 dde6 fb37
00000140: f395 83b9 3f06 eb39 a888 263b c93f 062e
00000150: 55f0 943a 5ba5 933a 3d8f 92bb 243d 4abb
00000160: 8225 bdba 4d51 ebba 51e4 03a2 b48f a835
00000170: 0062 1cb9 9f80 33ba 4807 8d38 392f aa39
00000180: 283a b12c 5e33 3db8 25c1 293b 2ac2 a5ba
00000190: 0737 0b3b ff25 9bb8 72ea a73b eee5 2ba5
000001a0: 9894 8538 8270 0939 bd6c ae3a 9e1b 0938
000001b0: cc23 0438 eb4b 122e 60ff dcb9 5830 0cbb
000001c0: 0318 5cbb f066 3c3a d35c 093b e524 f9ba
000001d0: 0ea0 daa1 76b0 9735 1f25 d638 81a3 7b3a
000001e0: 9dd0 b039 f869 883a f54d 512d 5e23 7fba
000001f0: e61a 2ebc 5f58 1f3c 6d4d 7cb9 d365 073a
00000200: 218e 8bba 344b cba4 d5e5 32b7 66c5 d1b9
00000210: 8549 083a ed96 ac39 b66a 4136 5090 342d
00000220: de92 88ba 4f87 f4bb 63c8 573c fae2 b63b
00000230: 8b66 e13a c596 d23a 8588 dca3 5197 3db8
00000240: 4d62 8339 b3b1 1d3a a0d5 0638 7d75 c139
00000250: 0223 f82d 7867 3cb8 9ddb 12bc c0ba 1d3b
00000260: e05e b33b 65e7 733a 6c74 873b aab6 29a2
00000270: 4d79 d037 39d8 49b8 1b69 223a 71d1 7f3a
00000280: f1c7 4239 b541 962c c3c9 f438 ae80 f639
00000290: 1b90 76b9 09c8 fc39 57bf fe39 75c5 fdb9
000002a0: 081b 6524 65fe 28b7 608a bbb8 be29 8eb9
000002b0: 28a8 4d39 f764 f03a ec29 ba2c 9e02 db3a
000002c0: a80f b63a 3964 3d3a 4d66 74b9 dff3 3dba
000002d0: 9df8 36bb 0288 5423 1d37 2a37 3f45 0839
000002e0: 6aec b5ba cadb f6b9 69bd a239 0b53 b82c
000002f0: e486 09ba 7899 433b dcae 8eba de3d 20bb
00000300: 1f36 12b9 ed26 343a c065 2ea1 d539 a3b7
00000310: cd0f 13b7 7a11 803a e857 3bb9 eac7 9739
00000320: ae2e 04ae ce03 eeb9 228e ebbb 2779 883b
00000330: c296 623a 4b95 ee39 0161 ec3a 82fa a220
00000340: 85dc 6937 9941 adb9 59fa 12ba 074f 433a
00000350: a7d6 50ba 1c4e e1ae 05e7 5039 f4ca 8f3b
00000360: 0de3 1cbb 3ef2 18bb bf27 24bb 27a8 cbbb
00000370: 09e6 e5a3 3bce 4e37 1d89 35b8 a766 78ba
00000380: 1ba6 5a3a 65bb 5f39 4063 8c2c 3fc0 523a
00000390: e104 033b 04e8 193b c3de d6b9 d865 b1ba
000003a0: 3946 45bb b5c7 30a2 387d 9a38 e55a 69b9
000003b0: 46b1 1a3a 6f1c 153a 4188 313b 7857 412b
000003c0: 3d4b b3ba 61d4 cb3a 000d 673c 12eb f5ba
000003d0: 20eb 4e3b 715f d039 60e6 e022 cfb4 beb6
000003e0: 0100 103a 2e58 86b9 9e23 04ba c917 b737
000003f0: d9df bcaa fdde 9bb9 701a a7bb 95b1 993b

exp_avg_sq f4 [50, 13]
0.00010400785 0.00041872897 0.0018672242 0.00039247426 0.0013462666 3.2269827e-16 0.011321955 0.596407
0.05541368 0.01878903 0.03695925 0.07550391 3.515523e-23 4.47158e-05 0.0017756304 0.00015429719
0.00034381173 0.00017500085 2.690321e-15 0.014708549 1.4181926 0.031906057 0.025509862 0.004388121
0.033934224 9.91588e-25 3.9748058e-05 0.0002289726 0.0026102748 0.001560719 0.001756835 6.18062e-16
0.0067574005 0.010635204 0.041822866 0.0603013 0.006255968 0.010663544 5.792657e-26 0.00015192216
0.004317083 8.990652e-05 0.0006759876 0.0013140467 1.5603785e-17 0.037709597 0.12687208 0.03693745
0.14717817 0.001344766 0.0021722277 2.0587888e-23 3.319275e-05 0.0016658374 0.00013971973 0.00028087397
0.0016457966 1.238282e-15 0.02073539 1.1776967 0.0067935144 0.015740545 0.003303091 0.003942583
5.0212772e-26 5.2948162e-05 0.00039785408 0.004751035 0.0017506221 0.0035844091 3.4251592e-15 0.016651202
1.3878124 0.054560333 0.06636877 0.0055937474 0.054930586 1.8205671e-25 4.950098e-05 0.00045927792
0.0018230766 0.0006058999 0.0020465658 8.438211e-15 0.025184238 1.20646 0.12837395 0.017731227
0.003724367 0.004407381 2.8508888e-25 7.078037e-05 0.0085930135 0.00055723556 0.00040780703 0.000531624
4.543381e-16 0.027140008 0.10285706 0.00881581 0.16918497 0.05077264 0.07777457 9.6442806e-26
0.00017219604 0.00018812042 0.00023745175 0.00061340205 0.00061289134 7.545483e-16 0.06340164 0.22579606
0.013792088 0.003491403 0.009075485 0.009400184 2.164973e-23 5.598869e-05 0.00675315 0.0034311889
0.0007003282 0.0016313955 7.0900664e-15 0.008621844 1.0940484 0.03455463 0.4677048 0.019887902
0.06489271 1.3199016e-25 0.00079250423 0.001283649 0.0017088243 0.0027443494 0.00062110776 3.0447407e-16
0.028391829 0.113780834 0.08627777 0.04363516 0.019240519 0.14334174 5.922016e-23 0.0004197923
0.0010495862 0.0006492646 0.0053603128 0.000595226 1.7899045e-14 0.017348193 1.0919839 0.049504817
0.17007066 0.012119586 0.06071699 3.2815594e-23 0.00030675417 0.002777919 3.3837565e-05 0.00048985897
0.00084851455 1.501033e-18 0.010940308 0.12844132 0.03263771 0.005454328 0.0007157373 0.0012836072
1.7882213e-23 2.8763005e-05 0.00043541857 0.00085037464 0.001076122 0.004031697 1.7514375e-17 0.022241982
0.04146822 0.006547931 0.084585294 0.0032067867 0.002762261 2.5687855e-25 9.54666e-05 0.0017528355
0.0019465615 0.001906759 0.0010036678 3.2381315e-16 0.012304534 0.08294791 0.108242504 0.10656543
0.069415234 0.09503831 6.44738e-26 0.00025028293 0.0005074781 0.000109666566 0.0005776795 0.0006590444
9.1158855e-15 0.031254176 1.1406659 0.015808992 0.016641967 0.0037971374 0.09278707 4.1498056e-24
0.0003361756 0.00095161906 0.0007403553 0.003648297 0.0015084033 1.7823249e-14 0.008951193 1.0551125
0.088426806 0.07481288 0.032668315 0.036802523 2.9876996e-24 0.00037655613 0.00088598195 3.6091405e-05
0.0022649108 0.0005891642 4.508249e-16 0.00959612 0.17467536 0.011938822 0.07658135 0.018280244
0.0027859127 2.9212532e-23 0.00089353585 0.0006726849 0.00087495375 0.008633904 0.0016977406 4.633298e-16
0.030076304 0.017042726 0.032734107 0.18256147 0.04572593 0.05027353 1.580537e-23 0.000301817
0.005092595 0.005723245 0.0013156479 0.00041720876 2.1149911e-16 0.013756858 0.044271924 0.037259128
00000000: ca1e da38 da88 db39 a6bd f43a 01c5 cd39
00000010: 3675 b03a dc05 ba25 b97f 393c 21ae 183f
00000020: 74f9 623d 74eb 993c 9562 173d cba1 9a3d
00000030: 1100 2a1a 3a8d 3b38 45bc e83a d6ca 2139
00000040: a141 b439 6f80 3739 aadb 4127 20fc 703c
00000050: 5687 b53f edaf 023d 0ffa d03c 3aca 8f3b
00000060: 9dfe 0a3d d970 9917 27b7 2638 5d18 7039
00000070: 2511 2b3b 0a91 cc3a 9a45 e63a ed24 3226
00000080: 2f6d dd3b 473f 2e3c 744e 2b3d 7ffe 763d
00000090: ddfe cc3b 25b6 2e3c 536b 8f15 4b4d 1f39
000000a0: 5176 8d3b 328c bc38 c334 313a 173c ac3a
000000b0: 65eb 8f23 6175 1a3d c1ea 013e b94b 173d
000000c0: e0b5 163e dc42 b03a ef5b 0e3b 241d c719
000000d0: 7238 0b38 3a58 da3a bb81 1239 4442 9339
000000e0: c5b7 d73a 8b74 b226 44dd a93c c4be 963f
000000f0: 219c de3b 51f2 803c ac78 583b c930 813b
00000100: 40a4 7815 a814 5e38 1297 d039 92ae 9b3b
00000110: 2175 e53a 68e8 6a3b 09cf 7627 1a68 883c
00000120: d6a3 b13f a87a 5f3d 5aec 873d c14b b73b
00000130: e5fe 603d 1360 6116 469f 4f38 3dcb f039
00000140: 4df4 ee3a 41d5 1e3a ad1f 063b 6102 1828
00000150: 2d4f ce3c 486d 9a3f 7674 033e 1441 913c
00000160: 8214 743b cb6b 903b 2376 b016 ec6f 9438
00000170: b6c9 0c3c 7213 123a efce d539 af5c 0b3a
00000180: 3cf4 0226 b954 de3c b9a6 d23d 3070 103c
00000190: d33e 2d3e f9f6 4f3d 4648 9f3d e4c7 ee15
000001a0: 868f 3439 3142 4539 78fc 7839 b7cc 203a
000001b0: 71aa 203a d67b 5926 b8d8 813d 1537 673e
000001c0: 36f8 613c 06d0 643b 58b1 143c 3b03 1a3c
000001d0: 2362 d119 66d5 6a38 8749 dd3b ccdd 603b
000001e0: 3b96 373a 8dd4 d53a 5272 ff27 a342 0d3c
000001f0: c709 8c3f 2889 0d3d 0177 ef3e f4eb a23c
00000200: 78e6 843d 5a65 2316 0fc0 4f3a 1d40 a83a
00000210: a1fa df3a 8bda 333b d6d1 223a 7184 af25
00000220: fb95 e83c ed05 e93d 66b2 b03d c8ba 323d
00000230: 4b9e 9d3c 2dc8 123e 812f 8f1a 9217 dc39
00000240: 4592 893a 6933 2a3a 90a5 af3b f108 1c3a
00000250: 6338 a128 cc1d 8e3c 21c6 8b3f 90c5 4a3d
00000260: 0127 2e3e 3a91 463c 61b2 783d bdaf 1e1a
00000270: d9d3 a039 bf0d 363b cfec 0d38 e169 003a
00000280: d96e 5e3a 6c83 dd21 fa3e 333c 1f86 033e
00000290: 1faf 053d 38ba b23b 51a0 3b3a b63e a83a
000002a0: 37f2 ac19 1548 f137 e448 e439 adeb 5e3a
000002b0: aa0c 8d3a 531c 843b a68a a123 d134 b63c
000002c0: 95da 293d 0790 d63b 0e3b ad3d f428 523b
000002d0: 0d07 353b 0800 9f16 3e35 c838 66bf e53a
000002e0: c423 ff3a 37ec f93a 818d 833a 63aa ba25
000002f0: f598 493c 98e0 a93d 3fae dd3d fa3e da3d
00000300: 9329 8e3d 72a3 c23d 20a1 9f15 6838 8339
00000310: 4708 053a cafc e538 6a6f 173a b9c3 2c3a
00000320: 9a37 2428 6104 003d 5701 923f dc81 813c
00000330: bc54 883c 65d9 783b 2607 be3d af89 a018
00000340: ba40 b039 1376 793a 6714 423a 4418 6f3b
00000350: 9eb5 c53a 9d89 a028 06a8 123c ed0d 873f
00000360: 1d19 b53d 7f37 993d 36cf 053d 3ebe 163d
00000370: 7d29 6718 826c c539 3e41 683a da60 1738
00000380: e66e 143b 2472 1a3a 02f1 0126 0b39 1d3c
00000390: 19de 323e 0d9b 433c afd6 9c3d 73c0 953c
000003a0: dc93 363b 5d43 0d1a 2d3c 6a3a 1f57 303a
000003b0: 275d 653a 3875 0d3c b986 de3a b48b 0526
000003c0: 9562 f63c 309d 8b3c 3314 063d 65f1 3a3e
000003d0: 1d4b 3b3d 9eeb 4d3d 33dc 9819 313d 9e39
000003e0: c8df a63b 0f8a bb3b d171 ac3a d0bc da39
000003f0: 85d7 7325 7264 613c 7a56 353d 079d 183d

exp_avg f4 [50]
2.9708082e-18 -8.725885e-15 7.640199e-17 -1.4563556e-15 4.4549994e-15 2.42038e-17 -3.9365592e-16 -3.2450863e-15
-4.526089e-16 -6.270175e-16 -2.316169e-16 -1.3829508e-16 -2.5668306e-16 7.6649944e-17 -1.368535e-16 8.382899e-17
-1.7057597e-15 -3.729978e-17 -2.4208292e-16 6.3279587e-15 -2.967822e-16 6.8327823e-15 5.5256355e-15 4.4266175e-15
4.500301e-16 1.6088407e-16 -5.5639384e-17 2.7507395e-17 -2.8863056e-15 -1.1345312e-14 6.4288306e-15 8.9488455e-15
9.7405325e-15 -4.1237084e-16 -6.6779574e-15 -3.561132e-15 1.3666157e-16 -3.9483313e-17 -6.0227155e-15 -1.348423e-16
6.595011e-18 1.7944295e-17 -2.8007867e-16 -1.1226294e-16 -1.5299894e-16 -3.502183e-15 -9.760233e-15 -1.06691185e-16
8.424899e-15 8.2141015e-16
00000000: fb34 5b22 0b31 1da8 c62b b024 0ae2 d1a6
00000010: 1e82 a027 9b3d df23 5ced e2a5 47d5 69a7
00000020: a474 02a6 bab9 34a6 9f84 85a5 8171 1fa5
00000030: bcf7 93a5 24be b024 06c8 1da5 e74b c124
00000040: 6dd3 f5a6 cf03 2ca4 228d 8ba5 1efd e327
00000050: 5315 aba5 4b2d f627 fe14 c727 577c 9f27
00000060: 5cb6 0126 997c 3925 b24b 80a4 00b6 fd23
00000070: f1fa 4fa7 0461 4ca8 7f9f e727 4435 2128
00000080: 4778 2f28 32b7 eda5 4999 f0a7 a54d 80a7
00000090: 608f 1d25 ab15 36a4 bffd d8a7 6c76 1ba5
000000a0: 1e50 f322 c581 a523 5174 a1a5 2c6e 01a5
000000b0: 5165 30a5 e05b 7ca7 21d3 2fa8 5c03 f6a4
000000c0: fdc4 1728 5fc1 6c26

exp_avg_sq f4 [50]
4.7933328e-23 1.2924544e-24 1.6930053e-25 2.7000853e-23 1.7412225e-25 1.0981765e-24 3.2824745e-23 2.4563928e-25
3.495248e-23 2.925326e-25 9.2827686e-23 4.133166e-23 3.1996334e-23 1.1570638e-24 1.7489183e-25 5.1593665e-24
1.799591e-23 3.8752265e-23 3.146872e-23 3.0506283e-24 2.6350713e-25 2.508758e-23 9.4437405e-26 1.4045616e-23
5.8644374e-23 1.9009348e-25 2.3273966e-24 9.199623e-26 2.8761193e-23 1.217799e-23 3.9287908e-23 9.331881e-26
3.50222e-23 8.369497e-25 3.539565e-23 2.4836188e-23 5.906043e-23 5.0456787e-23 1.5547408e-25 3.684017e-23
1.8331998e-25 1.8433889e-23 2.4587372e-24 1.4624601e-25 1.7308422e-25 4.6201365e-23 8.998157e-24 1.571348e-24
5.0885713e-23 2.7128374e-25
00000000: 96ca 671a 65ff c717 7b95 5116 7091 021a
00000010: 8b8d 5716 41ef a917 11bb 1e1a 190b 9816
00000020: 1305 291a a411 b516 8e71 e01a 1ede 471a
00000030: 8bb9 1a1a 050c b317 6f81 5816 e497 c718
00000040: b70b ae19 fb64 3b1a 632c 181a eb07 6c18
00000050: 5f1a a316 d7a1 f219 d1d0 e915 43d7 8719
00000060: 1ccb 8d1a 0753 6b16 d712 3418 8ac5 e315
00000070: a214 0b1a 7c8e 6b19 13fc 3d1a d30b e715
00000080: 625b 291a fe82 8117 b129 2b1a 6c33 f019
00000090: a3cc 8e1a 7afe 731a b477 4016 ec25 321a
000000a0: 6cf0 6216 1948 b219 4f3c 3e18 360b 3516
000000b0: 9444 5616 856a 5f1a b70c 2e19 8227 f317
000000c0: 7611 761a a0ea a716
