output/red/images/epoch_58.pt (torch, 369546 bytes, 27 tensors)

conv.0.weight f4 [16, 2, 3, 3]
000000 54 24 08 be d1 89 c9 3d 30 24 2b 3e d7 5f 2d 3d
       -0.13295108 0.098407395 0.16713023 0.042327728
000010 98 7f 21 3e 82 0f 65 3d 54 f8 ec 3d 3f 4f eb 3d
       0.1577133 0.055922993 0.11570802 0.11489724
000020 01 70 0a be ef 19 f0 bd 91 40 b1 bd 21 ef 2d 3e
       -0.13519289 -0.117236964 -0.08654893 0.16985752
000030 71 e3 29 be 4d 19 3c bd b1 6e 1f 3e 37 75 71 be
       -0.16590668 -0.045922566 0.15569569 -0.2357987
000040 f9 06 31 3e 12 3d 52 3e 00 05 27 be 88 8a 9a 3c
       0.17287816 0.20531109 -0.16310501 0.018864885
000050 cf a4 8c bd fc 9a de 3d 9a c6 20 bd bc 72 d7 3d
       -0.06867372 0.10869405 -0.0392519 0.10519931
000060 ae 3d 72 bc 76 a6 46 3e 3d 4a 45 be 89 70 16 3e
       -0.014785213 0.19399437 -0.19266601 0.14691366
000070 ae 4e 60 3d 27 8c 22 be 2a 3f d2 3d 56 26 bd bc
       0.054762535 -0.15873776 0.10265954 -0.023089569
000080 24 0a 0f 3e 1b fd 0e be 3d 79 42 3e b1 96 f6 3d
       0.13968712 -0.1396374 0.18991561 0.12040461
000090 8f 9c da 3d bb 9b 84 bc 8d 8b 1b be 11 85 91 3d
       0.106743924 -0.01618754 -0.15189953 0.071054585
0000a0 70 25 52 bd d4 46 13 3e 48 a0 3b bd 9a 4b 1a 3e
       -0.051305234 0.14382488 -0.045807153 0.15067902
0000b0 f5 5d 42 3d b5 df 49 3e 9f d4 28 3e d0 a4 57 be
       0.047452886 0.19714244 0.16487359 -0.21058965
0000c0 39 77 0a 3e 52 e2 55 3e 1c bd 31 be 93 5a 15 be
       0.13522042 0.20887116 -0.17357296 -0.14585333
0000d0 39 7a 4e 3d 7f 5e 0c bb 53 6e 92 be 4c 19 04 3e
       0.05040953 -0.0021418629 -0.28599796 0.12900275
0000e0 cf b1 17 3e 08 f7 03 be 58 36 07 be 0b 16 22 bd
       0.14813922 -0.12887204 -0.13204324 -0.039571803
0000f0 2f f1 a3 3d 40 ae 7e bd ad 98 9f 3d b2 5f ff bd
       0.080049865 -0.062177896 0.077927925 -0.12469424
000100 a6 2a c8 3c da 53 03 bd 36 69 e4 3d e4 0a 31 bd
       0.024434399 -0.03206239 0.1115288 -0.043223277
000110 05 4d 02 bd 37 a5 54 be f0 84 b3 3d 1f 2a 28 bd
       -0.031811733 -0.2076615 0.0876559 -0.041055795
000120 de d9 81 3d a9 db 0e 3e 4d 09 49 be 8d f5 6c be
       0.06340383 0.13950981 -0.19632454 -0.23140545
000130 4b 45 1d 3e 65 06 76 bd d7 ac 29 be 17 81 4f be
       0.15358464 -0.060064692 -0.1656984 -0.20264088
000140 5a 24 a1 bd f1 b3 be 3d 0b 2e d8 3d 0a 58 9e be
       -0.07868262 0.09311665 0.10555657 -0.30926543
000150 b5 e7 98 be bb a4 82 3d 02 b3 8b bd ed 98 4b 3d
       -0.29864278 0.06379076 -0.068212524 0.04970639
000160 56 97 de 3d 24 2d c0 3d ba 83 39 38 48 53 38 be
       0.10868709 0.0938361 4.4230117e-05 -0.1800052
000170 57 07 13 be 7f 90 c5 3d b0 52 1a be 3b ad 0b be
       -0.14358269 0.09646701 -0.15070605 -0.13640301
000180 36 8d da 3c a3 cb 3e bd e0 51 32 be 2a 50 23 be
       0.026678663 -0.04658092 -0.17414045 -0.15948549
000190 e3 4f 6f 3e 3c 7f 0f be 45 65 10 be cf fc b1 bd
       0.23370318 -0.1401338 -0.14101131 -0.086907975
0001a0 ca 2e 26 be c8 62 60 be 61 cc c7 3d 4a 7e 22 3d
       -0.16228786 -0.21912682 0.09755779 0.03967122
0001b0 ba 8b 3d 3e a0 36 f7 3d 1a 8c a0 3d 73 66 25 3e
       0.18510333 0.12070966 0.07839222 0.16152363
0001c0 13 a2 a9 bc 7c c9 06 3d 5f dc 5d be 9a 0f e4 3d
       -0.020707166 0.032906994 -0.21666096 0.11135788
0001d0 cc 40 af bc 0e 78 05 be 7d 40 29 3e bd 6a 5b 3c
       -0.021393202 -0.13034078 0.16528507 0.013392148
0001e0 34 4a c1 3c 0c 06 3f 3d cf ac 0e 3d 1d 70 70 bd
       0.023594953 0.046636626 0.034832772 -0.05870067
0001f0 40 83 4d be 42 90 4e be 88 5c 17 3e b2 08 8a be
       -0.20069599 -0.20172217 0.14781392 -0.2695976
000200 75 21 3a 3d a4 b7 d2 3c 20 54 79 bd 36 6e 50 3d
       0.045442063 0.025722332 -0.060871243 0.050886355
000210 20 91 45 be 2d 8e 48 be 20 a3 ee bc 38 a5 0c bc
       -0.19293642 -0.19585486 -0.029130518 -0.008584313
000220 41 fc 2d 3d 50 25 3c be 2a ef 48 3e a9 90 2e be
       0.042476896 -0.18373609 0.19622484 -0.17047371
000230 92 88 f6 3d 10 f9 51 be 1a 00 f7 bd 38 84 4b 3e
       0.120377675 -0.20505166 -0.12060566 0.19874656
000240 6c 72 89 3d 4f 72 41 3e db e2 2f 3e 2e 72 4a be
       0.06711277 0.18891262 0.17176382 -0.19770119
000250 4e df 83 be e3 93 ca bd 3f aa 96 bd f0 43 07 be
       -0.25756305 -0.098914884 -0.073566906 -0.1320951
000260 5b 60 a3 bc d4 8f 38 be 71 c3 97 bd bc a1 42 3e
       -0.019943407 -0.18023616 -0.07410324 0.1900701
000270 9b 13 18 be 7c 5b 0e be 8a 4f 00 3e fa 40 37 be
       -0.14851229 -0.13902086 0.12530342 -0.1789588
000280 87 b2 b0 bc 5c 15 27 be e0 84 0e be 18 b7 10 3e
       -0.021569503 -0.16316742 -0.13917875 0.14132345
000290 66 5a 31 be 93 cc ee bd 34 ff 63 bd 81 45 6f be
       -0.1731964 -0.11660113 -0.055663303 -0.23366357
0002a0 02 38 7a 3d 4e 9a aa bd 64 6c 4e 3e 90 93 0c be
       0.06108857 -0.083302125 0.20158535 -0.13728166
0002b0 15 42 a2 bd 4b 4b f6 3d 26 c0 3a 3e 3b 53 42 be
       -0.079227604 0.1202608 0.18237361 -0.18977062
0002c0 1c 57 33 be 1d 93 25 be d4 e5 aa bd 4f c3 84 bb
       -0.17513698 -0.161694 -0.083446175 -0.004051603
0002d0 76 5a 37 be a1 1d 51 bd 1f a9 39 be 3c 08 f9 bd
       -0.17905602 -0.051053647 -0.18130921 -0.12159774
0002e0 05 79 48 3e 53 01 4b be a9 bf 83 3d 4e 48 0a be
       0.19577415 -0.19824724 0.06433041 -0.13504145
0002f0 f2 f7 ba bc bd 9c 20 be cb 25 62 3d 20 68 8f bd
       -0.022823308 -0.15684791 0.055211823 -0.07002282
000300 5a 8c 73 be 0a fe 3b 3e 33 84 cc 3c 5f c9 bc 3d
       -0.23784009 0.18358627 0.024965381 0.09218096
000310 3e 5c 42 3e d9 68 2c 3e 65 e4 06 be 8e 19 96 be
       0.189805 0.16836871 -0.13173063 -0.29316372
000320 ae 10 bc bc fe 3c ef 3d 57 54 cd bc 61 f9 be 3d
       -0.022957172 0.11681555 -0.02506463 0.09324909
000330 f2 67 4f bb 15 f5 6f be 06 e0 0e be de 81 1b bd
       -0.003164765 -0.23433335 -0.13952646 -0.037965648
000340 de 83 8e 3d 83 c4 00 be 49 62 1e be ec 91 0d bc
       0.069587454 -0.12574963 -0.1546718 -0.0086407475
000350 9a 54 b5 bd 78 29 85 3d df 2e 11 bd 13 1e 02 3e
       -0.08854027 0.0650205 -0.03544509 0.12706785
000360 83 53 f9 bc 68 3f 46 bc 8a 46 3c bd 48 22 e2 3c
       -0.03043533 -0.012100078 -0.04596571 0.027604237
000370 38 5d 2f be 1d 14 e9 bd 45 b4 f2 bc 02 7d d3 bd
       -0.17125404 -0.113807894 -0.029626975 -0.10326578
000380 24 fd 91 bd 5e c2 4e 3e f7 b3 2a 3d e2 85 31 be
       -0.07128361 0.20191333 0.041675534 -0.17336228
000390 cc c5 a3 bd 97 44 89 bc b5 5c 1f be ce e6 b8 3d
       -0.07996711 -0.016756339 -0.15562709 0.090283975
0003a0 69 a0 d5 3d 50 25 41 3e e6 b2 8d 3d ab bf 18 be
       0.104309864 0.1886189 0.06918888 -0.14916866
0003b0 36 05 10 be 3f 86 06 be 46 64 36 3e e1 96 83 3b
       -0.14064488 -0.13137148 0.17811689 0.004015789
0003c0 96 b7 6a 3d 8c 90 b7 3d 31 98 2d be e6 f9 97 bd
       0.057303987 0.08963117 -0.16952588 -0.07420711
0003d0 58 3e 6c be b0 02 78 be 4e b7 51 3d 25 96 db 3d
       -0.23070657 -0.24219775 0.051200204 0.10721997
0003e0 33 28 c8 3d 4c 88 e5 bd 45 e1 45 be 4b 1a 2b 3e
       0.097732924 -0.11207637 -0.19324215 0.16709249
0003f0 41 5e 20 3e 51 17 a6 3c ad 40 33 be e7 38 f8 bd
       0.15660955 0.02027479 -0.1750514 -0.12120228

conv.0.bias f4 [16]
000000 ac 08 87 3d c0 bd 3a bd fb 3a 28 be ec 23 2c 3d
       0.06593451 -0.045591116 -0.1642875 0.042026445
000010 06 c1 00 be 8f a0 57 3e 4c 63 14 be 6e 98 09 be
       -0.12573633 0.21057342 -0.14491004 -0.13437054
000020 aa 6b ae 3c 8b b1 3b 3e 1f 42 75 be 26 f3 80 bd
       0.021291573 0.18329446 -0.23951004 -0.06296377
000030 d8 dc 5b be 2f bc 62 be f6 b6 31 bd 34 06 70 be
       -0.21470964 -0.22142099 -0.043387376 -0.23439866

conv.3.weight f4 [32, 16, 3, 3]
000000 d3 25 4c bc ee 51 c2 3c 08 24 c0 3b 9b 66 94 bd
       -0.01246019 0.023720708 0.0058636703 -0.07246133
000010 14 43 44 bc 1f 3f 92 bd ef 31 71 3d 91 3f 90 3c
       -0.011978883 -0.07140946 0.05888551 0.017608436
000020 92 9a a2 bc 03 4b ce bc 90 58 9e bd 18 b5 09 3c
       -0.019849095 -0.025182253 -0.07731736 0.0084049925
000030 b9 3f 70 3d e6 33 55 3d 07 50 32 3b b5 a7 9e bd
       0.05865452 0.052051447 0.0027208345 -0.07746831
000040 bb 0c 6e 3d 89 65 74 bd 23 c5 0b bd b9 79 9d 3c
       0.05811761 -0.059667144 -0.03412355 0.019223081
000050 3b 92 27 3d dd c8 5e 3d bc ce 01 bd 74 2c 0d 3d
       0.04091094 0.054390777 -0.031691298 0.034466222
000060 b9 60 a2 bd 93 f6 55 3d 28 34 6b bd 6e ad 02 3d
       -0.07928605 0.052237105 -0.057422787 0.031903677
000070 27 4c 75 3d 96 c9 9d bc f0 4e 48 bd 37 db 5c bd
       0.059887078 -0.019261163 -0.048903406 -0.053919997
000080 31 45 b8 bc 6b 75 15 bd 34 21 97 bc d3 12 18 3d
       -0.02249393 -0.03648893 -0.01844845 0.037127327
000090 f5 a1 94 bd 38 d4 5a bd ea 60 80 3d 7d ae d2 bc
       -0.07257453 -0.053425044 0.06268485 -0.025717968
0000a0 09 c8 08 bd c6 63 78 bd c0 e2 6c bd 98 53 0b 3d
       -0.033393893 -0.060642026 -0.057833433 0.034015268
0000b0 e0 69 25 3d d8 ba db 3c 22 fa c5 3c 41 07 ac bd
       0.040384173 0.026822492 0.024167124 -0.08399821
0000c0 c7 4f 12 bb 0e 60 b7 3b 48 fb 17 3d 01 11 32 bd
       -0.0022325383 0.0055961674 0.037104875 -0.043473247
0000d0 c1 4a 8d 3c b8 ca 35 3d bc ab 53 bc 56 1e b7 bc
       0.01724756 0.04438278 -0.012919363 -0.022353332
0000e0 30 66 9c bd ed 57 7d 3d 7a eb 83 bd f0 db 1b 3d
       -0.07636678 0.06185143 -0.06441398 0.038051546
0000f0 a2 45 32 bc 35 94 9d bd 05 0c a1 bc 99 49 8a bd
       -0.01088086 -0.07694284 -0.019659052 -0.06752319
000100 6c bd 8c bd 03 c9 5e 3a 1f 78 ad bd 5d d2 c5 3c
       -0.06872067 0.0008498581 -0.08470177 0.02414816
000110 ec 78 ca bd 44 3e 39 bd 86 a2 25 bd a2 a5 45 bd
       -0.09886345 -0.045225397 -0.040438198 -0.048253663
000120 e6 e9 9b bd 87 fd c9 bd 6a 2a 3f 3d 12 3f 9a bd
       -0.07612972 -0.0986281 0.04667131 -0.07531561
000130 37 ea 7f 3b d7 22 a4 bb ff 63 9f bd 6c e8 e5 bc
       0.0039049515 -0.005009036 -0.077827446 -0.028064929
000140 86 51 29 bd 09 24 78 3d e8 23 be bd e0 c2 62 bd
       -0.041337512 0.06058124 -0.09284192 -0.05536163
000150 4d e7 b8 bd 50 69 ae bd 8d e7 80 3d 32 9e 91 3c
       -0.09028492 -0.085161805 0.06294165 0.017775629
000160 fe 54 27 bd 45 56 3b 3d 75 a9 6c 3d 8e c4 9c bc
       -0.04085254 0.04573657 0.057778794 -0.019136693
000170 7e 5d c2 3a 66 82 00 bd ac 06 67 bd 4e 91 55 3d
       0.0014828888 -0.031374358 -0.056402847 0.052140526
000180 37 67 55 bd ea f5 29 3c 37 5d 64 bd 9f aa 3d 3d
       -0.052100386 0.010373572 -0.05575296 0.046305295
000190 f4 74 47 3d dd 94 1c bd b9 a3 df bc d6 f0 a3 bc
       0.04869552 -0.038227905 -0.027299749 -0.0200123
0001a0 f0 49 b3 bd c7 06 82 bb f8 4c eb 3c 1c 9d b1 3d
       -0.08754337 -0.003968093 0.028723225 0.08672544
0001b0 ea 7d 58 bc fb 04 46 3d c1 52 45 3d a7 4b 47 3d
       -0.013213614 0.048344593 0.048174623 0.048656132
0001c0 3c b5 f4 bc 1d 87 09 3d bd 90 13 bd 2c 2c 34 bd
       -0.029871576 0.03357612 -0.036026705 -0.043987438
0001d0 3d f5 2a 3d 0f 33 a6 bd 4f 35 91 bd 5d 61 5d bd
       0.041737784 -0.081152074 -0.07090246 -0.05404793
0001e0 76 76 d7 bc 6e f0 4c bd 5f fe 40 bd 0a 0a 3d bd
       -0.026301604 -0.05003398 -0.047117587 -0.046152152
0001f0 29 ac 92 3d 90 66 51 3d c4 3d 25 bd 55 a8 d9 3c
       0.07161743 0.0511232 -0.040342107 0.026569525
000200 fe 33 cf bc 02 cc 3c bd 4f 82 63 bc af 1f 88 3d
       -0.025293346 -0.046092995 -0.013886048 0.06646668
000210 e8 88 07 3d ce 92 60 bd 39 83 24 bd 41 a9 95 bc
       0.03308955 -0.054827504 -0.040164206 -0.018269183
000220 40 27 88 3c 74 2a 50 bc 6b 28 8d bb c5 74 96 3c
       0.016620278 -0.012705434 -0.0043077967 0.018366227
000230 06 51 ba bd 5e 2a 1f 3c 6e 66 bd 39 2f a4 64 bc
       -0.09097485 0.009714691 0.00036125205 -0.01395516
000240 60 d6 8c 3d fd f2 12 3c 5d 41 4a bd 51 7c 47 3d
       0.06876826 0.008969066 -0.04937874 0.04870254
000250 d8 b0 73 bd 39 7f 7f 3d e2 bf 4f bd 73 df 74 bc
       -0.059494823 0.06237719 -0.050720103 -0.014945853
000260 ea fa 14 3d a0 b0 c1 bd 79 59 89 3d e8 54 38 bd
       0.036372103 -0.09457517 0.06706519 -0.045002848
000270 7f 0d 89 bb 5a 9f ed 39 91 08 bb bc a2 d2 57 3d
       -0.004182517 0.0004532289 -0.022831233 0.05269111
000280 17 4d 96 bd b8 db 90 3d bf 8e 5b bd 9b 78 6f 3d
       -0.073389225 0.07073158 -0.05360293 0.058464628
000290 a7 1a 34 bd 0b 7c 6e 3d 2d 24 89 bc 8d d8 ba bc
       -0.04397073 0.058223765 -0.016740883 -0.022808338
0002a0 25 20 7e bb fd 3f 32 bd be 67 03 bd e6 b1 e7 3c
       -0.0038776484 -0.043518055 -0.032081358 0.02828307
0002b0 6b d0 64 3d 62 5e b8 bb 10 02 2a bd 08 f9 30 bd
       0.055862825 -0.0056264857 -0.041505873 -0.043206245
0002c0 02 9e c4 3a dc be ae bd bb 59 51 3d 23 7d c5 bc
       0.0015000703 -0.08532497 0.051110964 -0.024107521
0002d0 0f cd 4d bd 53 3e a3 3d 96 47 aa bd 93 ec 5a bd
       -0.050244387 0.07970872 -0.08314435 -0.05344827
0002e0 ad f3 aa bd b5 db 50 bd 5b 51 1c 3c cd 7b 1d 3d
       -0.08347259 -0.05099078 0.009540881 0.038448144
0002f0 9c 7d 91 3b 64 22 84 bc 2d b3 34 bd 78 e5 c2 3c
       0.0044400226 -0.01612968 -0.044116188 0.02379106
000300 56 75 4d bc 3b 51 2e 3c d9 ca 73 3d 9a 41 a6 bc
       -0.012540182 0.010639484 0.059519622 -0.020294953
000310 97 5f 98 3c 91 f5 a3 bd 9d 49 9b bd 5b 65 56 bd
       0.018600268 -0.080058224 -0.075824 -0.052342754
000320 e7 7a 84 bd 03 2a d8 bb fa ed 4c bd cb 89 8b 3d
       -0.06468754 -0.006596805 -0.05003164 0.06813391
000330 38 28 d5 3c 0f c3 94 bd a5 0a a7 bc 67 54 a5 3d
       0.026020154 -0.07263767 -0.020390818 0.08072739
000340 95 36 1b 3d b8 7c 28 3c 35 95 57 3d e2 c4 39 3d
       0.03789385 0.0102836415 0.05263253 0.045353778
000350 27 c7 ad bd c8 a1 eb 3c e3 b6 91 bd f5 7b 1d bd
       -0.08485251 0.028763667 -0.07114961 -0.038448293
000360 ca ec fc 3c 58 1a 84 3a ce f8 65 3d 26 06 1c bc
       0.030874629 0.0010078652 0.05614548 -0.00952295
000370 98 e3 e3 3c 9f a9 c6 bc a4 ef ff bc 5c ae e0 bc
       0.027818486 -0.024250804 -0.0312422 -0.027426891
000380 7f 7b bf 3c 10 68 1d 3c a4 ec 8f bd ab 15 57 3d
       0.023374317 0.00960733 -0.070275575 0.0525109
000390 eb 56 80 3c 85 e1 8a 3c a7 37 e5 bb 6a 1d 5c 3d
       0.015666446 0.01695324 -0.0069951597 0.05373899
0003a0 f8 fd 93 3d 06 98 84 bd bb 24 5f 3d 37 94 59 3d
       0.07226175 -0.06474309 0.05447839 0.053119864
0003b0 e9 fb 3a 3d d1 a5 6d 3d fe 48 9b bd 2a 92 2c bd
       0.045650396 0.058019463 -0.075822815 -0.04213158
0003c0 65 a3 54 bc 4f af 8a 3c 1e 20 52 bd 40 8f e9 bc
       -0.012978409 0.016929297 -0.05130016 -0.02851069
0003d0 fe e4 de 3c 8e 47 8a 3d cb 41 10 bd f6 3f ac bd
       0.027208801 0.06751929 -0.035218995 -0.08410637
0003e0 19 c4 49 3d da 45 3c 3d 13 15 75 bd 49 f2 ff bc
       0.04925928 0.045965053 -0.05983455 -0.03124346
0003f0 c2 84 39 3d c2 b5 cd bd 22 d3 b3 bd f3 30 02 3c
       0.045292623 -0.10044433 -0.08780505 0.007946241

conv.3.bias f4 [32]
000000 4f 16 2b 3d f2 a1 39 bd 44 35 fd 3c c5 46 a8 bd
       0.041769322 -0.04532046 0.030909188 -0.08216623
000010 08 de 9b bd 73 a6 13 3d 81 53 d5 bd 45 29 1d 3c
       -0.076107085 0.03604741 -0.10416318 0.009592359
000020 0b e2 1f bd 24 58 9d 3d 0c 5b 21 3d ad e7 88 bc
       -0.03903393 0.07682827 0.03939347 -0.016712034
000030 ec 08 c2 bd 4c b9 fd bc 25 b8 8f 3d 7d c2 0a 3d
       -0.09474358 -0.030972145 0.07017545 0.033876885
000040 e0 81 b3 bd c3 db 01 bb 5c 2f 9d 3c 39 dc a6 bd
       -0.08765006 -0.0019814826 0.019187622 -0.08147473
000050 d6 48 a0 bd 06 70 e9 bd f2 f0 48 3d 98 d3 3b bd
       -0.07826392 -0.1139832 0.04905791 -0.04585609
000060 5e d7 c6 bd c8 06 15 bd df 97 73 3d 8a fc 1b bd
       -0.09709047 -0.03638342 0.059471007 -0.038082637
000070 88 ca d5 3c ee 1c cd 3c 2a e6 9f bc bc 29 4a bd
       0.026097551 0.025038209 -0.01951893 -0.049356207

fc.0.weight f4 [128, 128]
000000 12 95 69 3d 0d 3b 5c bc 64 ac a3 bc dc 16 ae 3c
       0.05702693 -0.013441813 -0.019979663 0.021251135
000010 57 4d 94 bd 08 2c c4 bd 08 88 dc bd 44 6e 79 bd
       -0.07241314 -0.09578711 -0.107681334 -0.060896173
000020 e0 2c 07 3d 80 3e 84 bb b5 f2 16 3d e5 4a a6 bd
       0.03300178 -0.004035771 0.036852557 -0.08119754
000030 f4 98 5b bd c3 5c 9f 3d 40 df 9a bd d7 3a 85 3d
       -0.053612664 0.07781365 -0.07562113 0.065053634
000040 00 0b 82 39 fe 11 e2 bc 7a 9e 3a bd 52 0f a7 bd
       0.00024803728 -0.02759647 -0.04556129 -0.08157219
000050 b6 ef 19 bd 39 ce 73 bc 8d 41 81 3c ce fa 85 bc
       -0.03758212 -0.01488071 0.015778327 -0.016354945
000060 bc b8 12 3d 8e 56 06 3d cc 3d fd 3c 86 bf 54 3d
       0.035820708 0.03279739 0.030913256 0.051940463
000070 2f ed d0 bd f5 a6 86 bd 1b 68 96 bd 88 ea 9d bd
       -0.10201489 -0.06574813 -0.07344075 -0.07710749
000080 a3 a5 03 bd ce ea 3d bd ff f9 83 3d a0 3c cf bb
       -0.032140385 -0.046366505 0.06444167 -0.0063243657
000090 46 8d 66 3d 02 8f 21 3d 00 1b 37 ba 0d df b4 3d
       0.056287073 0.039443024 -0.00069849193 0.08831606
0000a0 b8 2f a5 bb f6 58 53 bd f8 3e b8 bc c5 4a 39 bd
       -0.005041089 -0.05159851 -0.022490963 -0.04523732
0000b0 f8 75 c7 bd 66 34 bc 3c 3d cf 58 bc 56 07 e7 bc
       -0.09739298 0.022974204 -0.013233003 -0.02820174
0000c0 e0 44 7d 3b 94 23 15 3d 24 85 b3 bd 94 00 97 3c
       0.003864579 0.036410883 -0.08765629 0.018432893
0000d0 38 f3 91 bd 20 b5 74 3b 6c e7 df 3c 9e 81 62 bd
       -0.071264684 0.0037339404 0.02733203 -0.055299394
0000e0 2c b5 6b 3c 95 fc 6e bd 5d bb 52 bd c5 af 80 bd
       0.014386456 -0.05834635 -0.051448215 -0.062835254
0000f0 53 d2 c7 bd 1c a0 39 bd 1f 4c 7f bd 05 eb 81 3d
       -0.09756913 -0.045318708 -0.062328454 0.063436545
000100 d5 dd a2 bd 8f f5 3e 3d 98 c9 09 3d c5 02 51 bd
       -0.07952467 0.0466209 0.03363952 -0.05102803
000110 88 eb 2a bd 5d cd 92 3c ea 41 56 3d 02 c7 b2 3c
       -0.041728526 0.01792019 0.052308954 0.02182341
000120 1d 8a b5 ba 50 92 3f 3d d6 72 18 bd 76 8c 11 bd
       -0.0013850365 0.046770394 -0.03721889 -0.035534345
000130 4c a5 fb 3c d9 72 b4 bd 4f d2 07 bd a9 d3 7c bd
       0.030718468 -0.08810968 -0.03315955 -0.061725292
000140 b0 5b 91 3b bc ea 20 3d 94 6f 07 bd bf 79 d2 bc
       0.004435979 0.03928636 -0.033065394 -0.025692819
000150 92 74 07 3d c8 f4 cd bc 00 40 72 bd 40 c4 d1 bc
       0.033070154 -0.025141135 -0.059143066 -0.025606275
000160 4c 8a 95 bd ac 54 8e bd 8a ee 2c bc 4f 19 c7 bd
       -0.07301769 -0.06949744 -0.010554919 -0.09721624
000170 29 f2 6c bd 60 02 20 bd 1b 3c 84 3d 9b 9b 46 bd
       -0.05784813 -0.039064765 0.06456777 -0.04848824
000180 f6 bb 8d bd c4 31 6d bd bd 73 98 3d 53 9e 9f 3d
       -0.06920616 -0.05790879 0.0744395 0.0779387
000190 40 6a c2 bd 9c 46 96 bd 0c 11 ac bd e9 05 34 3c
       -0.09492922 -0.073376864 -0.08401689 0.010987737
0001a0 91 92 88 bd dc c8 5d bc c2 a6 17 bc d5 69 a8 bd
       -0.0666858 -0.013536658 -0.009256067 -0.08223311
0001b0 5b 34 86 3d 94 07 8f bd e0 82 1b bd 2a 82 5f bd
       0.06552955 -0.06983867 -0.03796661 -0.054567493
0001c0 37 df a4 bb eb 8c 14 3d 09 60 97 3d 64 f9 28 bc
       -0.005031492 0.036267202 0.07391364 -0.010313366
0001d0 95 05 d5 bd 4c 32 95 bd c4 41 75 3a cc 4d c6 bb
       -0.10401455 -0.07284984 0.0009355808 -0.0060517546
0001e0 4b 11 89 3d 7f ac 9f 3d 64 84 81 bd 9c 6d bd bc
       0.066927515 0.07796573 -0.0632408 -0.023123555
0001f0 48 26 b2 bc 25 27 c7 bd 17 78 9d bd 87 ee 5b 3d
       -0.02174677 -0.09724263 -0.07688921 0.053694274
000200 a3 15 9a bd 10 c6 f9 3b 8d 3e a0 bd c0 bd 9c 3b
       -0.07523658 0.007622488 -0.078244306 0.004783362
000210 d2 70 a7 3d 80 81 44 3d c3 4c 2f bd 3d 0a 8d bd
       0.08175816 0.047975063 -0.042797815 -0.068867184
000220 11 ac 8e 3d 1c 7b a8 bd 77 09 83 bd 51 8a 80 3d
       0.06966413 -0.08226606 -0.0639829 0.06276382
000230 07 fd 9b bd e4 b5 86 bc db 2d 8d bd ba 6e e4 bc
       -0.076166205 -0.016444154 -0.06893512 -0.02788483
000240 d6 7d a8 3d 66 65 75 3d f6 3c 86 b9 2a a0 b3 bd
       0.08227126 0.059911154 -0.0002560389 -0.08770783
000250 54 aa 18 bd 28 ef 99 bd 41 30 a8 bd 08 58 47 bd
       -0.037271813 -0.075163186 -0.08212329 -0.048667938
000260 bf fb 1f bd e1 a5 36 bd d0 77 22 3c c4 af 9b bd
       -0.039058443 -0.04459179 0.009916261 -0.07601884
000270 c8 72 b4 bd f8 29 69 bc c9 cb 99 3d f9 fb 77 3d
       -0.08810955 -0.014231198 0.07509572 0.060543034
000280 4a 0f 07 3d de f9 3e 3d 26 7d 74 3d 5e ef 0d bd
       0.032973565 0.04662501 0.059689663 -0.034652106
000290 1e 18 7d bd 9e 2a 06 bd 95 f6 1e bd 43 d5 8f 3d
       -0.061790578 -0.032755487 -0.038809378 0.07023098
0002a0 86 c3 a1 3d ba 52 98 bd 0c 1b f7 bb 6d 40 de 3b
       0.07898621 -0.07437654 -0.007541066 0.0067825825
0002b0 9d 24 36 bd b9 bb 9b 3d c4 aa 31 3d 70 49 99 3b
       -0.04446851 0.07604165 0.043375745 0.004677944
0002c0 a2 b5 0c bd 13 d7 ab bd 5e fe bb 3c 92 af 99 bd
       -0.034352906 -0.083906315 0.02294844 -0.075041905
0002d0 0a 9c fa bc 98 38 b6 bb db 82 aa 3c 80 e2 9c ba
       -0.030591983 -0.0055609457 0.02081435 -0.0011969358
0002e0 4d ed a7 bd 9c bc 84 bd 59 47 52 bd de da 81 3d
       -0.081995584 -0.06481287 -0.051337574 0.06340574
0002f0 78 0c 80 3b f4 80 bb bc f8 99 bf 3c 66 33 34 3d
       0.0039077364 -0.022888638 0.023388848 0.04399433
000300 7a fd 17 3d 61 ed c0 3a bf de 89 3d 00 f8 10 3a
       0.03710697 0.0014719182 0.067319386 0.0005530119
000310 52 cc 8a 3d 11 48 94 bd 80 96 16 3c 1f 3c 32 bd
       0.06777252 -0.07240308 0.009191155 -0.043514367
000320 16 2f e9 bd fd 60 48 bd 0f 66 a6 bd a8 1e 92 3d
       -0.11385934 -0.04892062 -0.08124935 0.071347535
000330 84 da aa bc c8 f1 48 3d 0d 28 46 3d 60 21 42 bd
       -0.02085615 0.049058706 0.04837804 -0.04739511
000340 99 20 5a bd a7 b9 45 bd 9e e3 5f 3d fd 80 b1 3d
       -0.053253744 -0.048272755 0.054660432 0.08667181
000350 a0 58 12 bb df ff ab bd 3f 32 9d bc 40 9c f9 3a
       -0.0022330657 -0.08398413 -0.019188998 0.0019043759
000360 29 a9 79 bd 74 8d 86 3c 76 9a 4b 3d 52 52 07 3d
       -0.06095234 0.016424872 0.049707852 0.03303749
000370 7c b8 9c 3c f6 b9 85 bd 00 0b e8 bb 98 bb 70 3c
       0.019130938 -0.0652961 -0.0070813894 0.014693163
000380 e8 27 3f 3c a5 6c a3 bd 40 06 09 3c 28 20 f2 3c
       0.011667229 -0.07979707 0.0083633065 0.029556349
000390 47 19 47 3d a4 e5 5e bd d2 54 6e bd 2c 17 03 bd
       0.04860809 -0.05441822 -0.05818636 -0.03200452
0003a0 8d 21 bc bd 80 87 37 bd 54 16 a5 3c 1e 6d 11 bd
       -0.09186087 -0.044806957 0.020152248 -0.035504453
0003b0 42 d8 4f bd a8 7d e1 bc d3 22 46 bd 08 80 13 bd
       -0.05074335 -0.027525738 -0.048373055 -0.036010772
0003c0 dc e8 80 bd b5 6f 18 bd 20 88 9c 3b e0 d2 2f 3b
       -0.062944144 -0.037215907 0.0047769696 0.0026828572
0003d0 89 20 04 3c 01 38 81 3d 77 c5 13 bd 7c 27 89 bd
       0.008064398 0.0630951 -0.03607699 -0.06696984
0003e0 16 44 f3 bc ee 06 dd bc a7 54 ab bd f1 48 a2 3d
       -0.029695552 -0.026980843 -0.083657555 0.07924069
0003f0 43 ae 2c bd f9 df 65 3d 30 cf ff 3c 41 e5 31 bd
       -0.042158376 0.0561218 0.031226724 -0.043431524

fc.0.bias f4 [128]
000000 88 2c a7 bd 0b d0 35 bd 4e 00 28 3d 4f 05 f0 bc
       -0.081627905 -0.04438786 0.041015916 -0.029299406
000010 b5 4e 1a 3d f9 24 ad 3c e2 50 49 bd aa 5b a1 bd
       0.037672717 0.021135794 -0.0491494 -0.07878812
000020 3e 51 0c 3d 8c 17 9b bb 26 5a b7 bc c7 71 83 3d
       0.034257166 -0.0047330316 -0.022381853 0.06418186
000030 ba 5d c9 bb ee 3c c2 bd 28 cf 92 3c 5f 83 bd b8
       -0.0061452063 -0.09484278 0.017921045 -9.036692e-05
000040 b6 ed 85 bd 8b 22 41 bc e4 2a 90 3b 67 ca 83 bd
       -0.065394804 -0.011788021 0.004399644 -0.064350896
000050 ea be 63 bd e2 cf 62 bd 16 ac 99 bd f6 a9 ad bd
       -0.05560199 -0.055374034 -0.07503526 -0.08479683
000060 fd b3 9e 3b 63 bc 2d bd 99 26 05 bc 0a 08 c2 bd
       0.0048432336 -0.042415988 -0.008126878 -0.094741896
000070 a5 43 37 bc b6 09 36 3d 56 7e ac bd 35 93 35 3d
       -0.011185561 0.044442855 -0.08422534 0.04432984
000080 8e 92 72 bd c8 5f d5 3c 23 81 cd bc 79 76 c2 bd
       -0.059221797 0.026046649 -0.025085991 -0.09495253
000090 2a 0a aa bc b6 08 a6 bd d0 05 8e 3d 1e 0b 92 bd
       -0.0207568 -0.0810713 0.069347024 -0.07131027
0000a0 35 60 28 bd 46 53 15 3d 44 a2 25 bd a6 cc 5d bd
       -0.041107375 0.03645637 -0.04043795 -0.054150246
0000b0 87 23 64 3c bd 59 0a 3d 47 c6 e4 39 ba 30 bb 3d
       0.013924486 0.033776987 0.00043635277 0.09140153
0000c0 13 a2 9d bd 2f a3 f0 bc d1 ad b8 bd 71 b5 55 3a
       -0.07696929 -0.029374687 -0.09017528 0.0008152342
0000d0 7d 2d d4 bd 5b 2d e8 bb c3 80 c4 3c 1e 58 81 3c
       -0.10360239 -0.007085485 0.02398718 0.015789088
0000e0 cf 1c 58 bd 17 5c a8 bd 91 d6 26 3d ba f2 3c 3d
       -0.05276185 -0.0822069 0.04073197 0.04612992
0000f0 a0 c6 84 bd a2 1d a6 bd b9 f6 b1 bd 80 41 7d bd
       -0.06483197 -0.08111121 -0.08689637 -0.061830044
000100 a7 08 61 bd e9 68 5e 3c c3 12 ad bd c8 5f d5 bc
       -0.054939892 0.013574817 -0.08450844 -0.026046649
000110 1e 16 c2 bd e0 55 5c 3d 0c 8f 74 3c d8 67 db bc
       -0.09476875 0.053792834 0.014926683 -0.026782915
000120 18 34 ab bd b0 8f fc bd 09 f7 61 bd 62 ba 08 3d
       -0.083595455 -0.12332094 -0.05516723 0.033380874
000130 2e 05 62 bd e6 e1 98 bc 5f 1e bd 3d bc c8 ab 3c
       -0.05518072 -0.018662404 0.092343085 0.020969741
000140 df 6c b9 bd d9 a0 f8 bb 89 a1 80 bd e8 fc 2d 3b
       -0.09053969 -0.007587534 -0.062808104 0.002654845
000150 c7 6f 73 ba 0d 45 43 bd 89 58 89 bd a1 3a 5c bd
       -0.00092863705 -0.047673274 -0.0670634 -0.05376685
000160 d1 7a 29 3c 86 26 54 3d ab 15 dc bd 47 ec 51 3b
       0.010344223 0.05179455 -0.1074632 0.0032031701
000170 ab 42 92 bd 0a 5a 99 bd 9e bf 8c bc 08 1b 63 bd
       -0.07141622 -0.07487877 -0.017181214 -0.0554457
000180 3c 2d 3f bd 30 3d 15 bd c0 1a 58 bd e9 64 47 3d
       -0.046674 -0.036435306 -0.052759886 0.04868022
000190 29 89 ae bd 2f 96 d4 bb b1 ec f0 bc 90 67 8b 3c
       -0.08522255 -0.00648763 -0.029409738 0.017017156
0001a0 31 58 4e bd fa 3d da bc a3 fe b2 3c ac b8 85 bc
       -0.050377075 -0.02664088 0.021849936 -0.01632341
0001b0 9f 9a c3 bd 62 bd 78 bd 70 49 1a 3c 0d 71 84 3c
       -0.09550976 -0.060727485 0.009416923 0.016167188
0001c0 b8 0a cc 3c 79 56 89 3c bc ff b1 bd 02 b8 1b 3d
       0.024907455 0.016764866 -0.086913556 0.03801728
0001d0 9e 4d 0c 3d 63 fd a9 3c ce 85 81 bd f7 f8 df bc
       0.03425371 0.020750707 -0.06324349 -0.027340395
0001e0 53 77 da 3c 29 6d e6 3b e6 bc a3 bd 99 9e 0b bd
       0.026668226 0.007032056 -0.07995014 -0.034086797
0001f0 7c 9b 82 3d 9e a1 df 3d 7e 8c f0 bc 81 9b 21 bd
       0.063773125 0.10919498 -0.029363867 -0.03945494

fc.2.weight f4 [64, 128]
000000 5b 7d e0 3c d5 e4 03 3d e0 19 bc bc a4 32 aa bc
       0.027403524 0.032200653 -0.022961557 -0.0207761
000010 02 ab 89 bd ef 21 83 3d 1f a0 7e 3d 33 7f 9d bb
       -0.0672207 0.06402957 0.062164422 -0.004806423
000020 e7 4e 6e 3d d3 9f f1 bc 75 97 33 3d 76 8e 0f bd
       0.058180716 -0.029495155 0.043845613 -0.03504797
000030 48 18 c6 3c 42 f7 14 bb 2c 11 c8 3b 36 f2 c5 3c
       0.0241815 -0.0022730385 0.0061055627 0.024163347
000040 c2 c6 b4 3b 74 9b 6e 3c 2a 21 62 3d 5b f0 a4 3b
       0.005516858 0.01456343 0.05520741 0.0050335354
000050 79 f8 b6 ba ca 7d ac 3c ff 5a 72 bc 04 92 33 bd
       -0.0013959549 0.021056075 -0.014792203 -0.043840423
000060 b7 4f 40 3d 4c 17 18 bc 9a b5 1c 3d 75 04 ed bc
       0.046951022 -0.009282898 0.038259126 -0.02893279
000070 f2 83 f0 bb c2 eb d5 3d e0 5e 04 bd 98 24 84 bd
       -0.007339948 0.10445358 -0.032317042 -0.06452292
000080 c4 23 c1 3d f8 01 08 bd a4 1c 31 bd 2a 0a fc bc
       0.0943065 -0.033205003 -0.043240204 -0.030766565
000090 fe 14 4b 3d 71 4e 98 bd 0f 6b 53 3d 49 bd 88 bb
       0.049580567 -0.074368365 0.05161577 -0.004172955
0000a0 3a a1 73 3d a1 f7 32 bd 50 c3 6b bd d3 c9 ff 3a
       0.05947993 -0.04369319 -0.05755931 0.0019515104
0000b0 b1 06 34 3d 8c fb 80 bc 94 e1 ad 3d 1f 98 0e 3d
       0.043951694 -0.015744947 0.08490291 0.034813043
0000c0 83 8a 86 3d 14 7c 88 3d c6 4f 05 bd 70 ed 30 bd
       0.06569388 0.06664291 -0.03254678 -0.043195188
0000d0 62 2c 86 39 cd b0 49 bd f1 ff 89 3d 0a 97 64 3d
       0.0002559154 -0.049240876 0.0673827 0.055808105
0000e0 cc 61 31 bc dc f7 fe ba d7 7a a3 3d 63 62 85 3c
       -0.010826539 -0.001945253 0.07982414 0.016282266
0000f0 12 aa 4c 3d ad 50 88 bd 3e 8b bc 3c 07 61 9f 3d
       0.04996688 -0.06656013 0.023015615 0.07782178
000100 67 45 a5 bd 36 d5 45 bd 10 1c 50 3d 25 3e 88 3d
       -0.08069878 -0.048299037 0.050808012 0.06652478
000110 4a c6 2f bd 81 19 8b bd 04 54 b5 bc e2 03 a0 bd
       -0.042913713 -0.06791974 -0.022134788 -0.078132406
000120 c7 8d 12 3c 96 e4 e2 3c 66 2b b0 3b eb 28 82 bd
       0.008944935 0.027696889 0.0053762672 -0.06355461
000130 82 bf de bc 63 ca cc 3c c1 b9 90 3d 3d 18 b2 bd
       -0.027190927 0.02499885 0.0706668 -0.08696029
000140 56 4e a1 bd 6b a7 92 bd b9 0e 8a bd b0 e3 33 3d
       -0.078762695 -0.07160839 -0.067410894 0.04391831
000150 20 1c 89 bd cf fb 75 3d 25 70 c7 bb cd 11 fd bc
       -0.066948175 0.060054597 -0.0060863667 -0.030892277
000160 3d 05 45 3d 5e bd 3f bd 77 86 5d 3c ee 0a 97 3d
       0.0481007 -0.046811454 0.013520828 0.073751315
000170 1c f4 a2 3d 6b 11 67 3b 45 8b 0a 3c 27 0e 74 bc
       0.079567164 0.0035258185 0.008456056 -0.014895952
000180 16 88 64 3d 96 a2 61 3d d7 fd 5b 3d b0 10 55 bd
       0.055793844 0.055086695 0.053708877 -0.052017868
000190 ff 29 45 bd bc 74 a0 bd a1 08 e9 3c 1e 75 d4 bb
       -0.048135754 -0.07834765 0.028446497 -0.006483688
0001a0 f0 c3 31 3c 28 dd 4c bd e6 b9 51 bc 4e 14 e2 3b
       0.010849938 -0.0500156 -0.012800669 0.006899393
0001b0 c4 be 1c bd fb a8 38 bd 35 f2 d1 3c 6d 0c 8a bd
       -0.038267866 -0.045083027 0.025628189 -0.06740651
0001c0 75 8b 6b bd 1d cb be 3d e4 4a e7 bd d6 f3 84 bd
       -0.057506043 0.093160845 -0.11293581 -0.064918205
0001d0 99 f5 1a 3d 3b f0 94 bc fa 06 10 bd dd 13 7c bd
       0.037831876 -0.018180957 -0.035162903 -0.06154238
0001e0 9b 22 40 3d 44 8f 9d 3d 16 ff fe bc 22 3c 9d 3b
       0.046908002 0.076933414 -0.031127494 0.004798428
0001f0 23 6c 97 bd 7f af 67 3c f1 bc 87 3c 4d 37 3f 3d
       -0.07393672 0.014140963 0.016569586 0.0466836
000200 1b a8 b3 3d 00 80 a2 bb 13 91 e5 bc 08 42 e2 bc
       0.08772298 -0.0049591064 -0.028023278 -0.027619377
000210 ac b3 6b bd 4d f2 a4 3d 8b f3 35 bc da 54 6f 3d
       -0.057544395 0.08054028 -0.011105428 0.05843053
000220 ce 3c 72 3d 8c e6 ce bb f0 6f 32 3c f3 12 90 bc
       0.05914002 -0.0063141044 0.010890946 -0.01758716
000230 27 28 6b bd 22 89 ab bd 3f b9 39 3d 6e 37 61 3d
       -0.05741134 -0.083757654 0.04534268 0.054984502
000240 e1 39 96 bd 60 10 4f bb 72 6b 41 3d da 6a 6e bd
       -0.07335258 -0.0031595454 0.04722161 -0.05820737
000250 bf a2 a0 3d dc 0d dd 3c 93 66 65 bd b7 f9 cd bc
       0.07843541 0.026984148 -0.056006026 -0.025143487
000260 0b 14 32 3d 82 46 52 3d 9c 7c 06 3d 89 e3 a9 bd
       0.043476146 0.051336773 0.03283368 -0.08295352
000270 03 5e 4e 3d ea 6a 8a bd bb d8 9b 3b 70 ad 6e 3c
       0.050382625 -0.067586735 0.004756061 0.014567718
000280 50 0c 55 bd 22 35 1a 3d 4c c1 b9 3d c0 95 37 bc
       -0.052013695 0.037648328 0.090700716 -0.011205137
000290 63 78 0d 3d c1 86 92 3d 17 d2 77 bb fc f3 f7 3c
       0.034538638 0.071546085 -0.0037814432 0.030267708
0002a0 1a da 8c bd 50 77 ff bb e1 4f 8b bd 24 ed d9 3c
       -0.06877537 -0.0077962056 -0.06802345 0.026602335
0002b0 20 9a c3 bb fb b6 50 bd b5 1b a0 bd 88 65 ab bd
       -0.005969301 -0.050955754 -0.07817785 -0.08368975
0002c0 40 f9 f9 bb 6d d3 99 3d 02 d8 25 bd 50 7d 1e 3c
       -0.00762859 0.075110294 -0.040489204 0.0096734315
0002d0 5d 99 1d bd 70 3a de 3b aa e4 0e 3d a6 e8 71 3d
       -0.038476337 0.0067818686 0.03488604 0.05905976
0002e0 6c 52 99 bd 00 a9 52 3a ec 8c c2 3c da a3 ef bc
       -0.07486424 0.0008036047 0.023748837 -0.029252935
0002f0 03 a9 43 bd 68 07 61 bc 91 7c af bd a4 81 87 bd
       -0.047768604 -0.013734676 -0.08568681 -0.06616524
000300 3b 2b 6e bd 9f 7f 80 3d c8 be fe 3b 17 e6 5b 3d
       -0.058146697 0.06274342 0.0077742077 0.053686228
000310 e7 87 b3 bd cc d9 c7 3c fd cd f7 bc ab b7 a2 3d
       -0.08766156 0.024395846 -0.03024959 0.07945188
000320 41 99 24 bd 60 af 97 3b ee 94 8f bd 94 2e 11 3d
       -0.040185217 0.0046290606 -0.07010828 0.03544481
000330 fc 58 c7 bc 7c fc f2 3c 0d 33 8b 3d 2b bf 5c bd
       -0.024334423 0.02966141 0.067968465 -0.05389325
000340 94 71 5f 3d 81 4a db 3c ea f2 74 3d 4c f5 c9 3a
       0.054551676 0.026768925 0.059801973 0.0015408187
000350 3b a5 b4 3c 2d d6 45 bb 80 e2 86 bb 48 86 ac bd
       0.022051444 -0.0030187473 -0.0041163564 -0.084240496
000360 c3 c6 a4 bd d8 f9 96 bc 57 26 8a 3d 3a 92 88 bd
       -0.08045723 -0.018429682 0.06745594 -0.066685155
000370 e3 23 b3 3d d0 b7 c0 3b 96 9c 53 bd cd 85 8c 3d
       0.08747079 0.005881287 -0.051663004 0.06861458
000380 f8 b4 b2 bd 07 1c 1c bd 65 45 72 3d 16 f4 11 bd
       -0.08725923 -0.038112666 0.05914821 -0.03563317
000390 2e 65 49 3d 18 33 c1 bc 12 c9 57 bd c6 47 c3 bb
       0.049168758 -0.023583934 -0.05268199 -0.005959484
0003a0 b2 f9 e7 bc 3f d3 92 3d 60 88 a7 bd 48 12 5c bc
       -0.028317306 0.07169198 -0.08180308 -0.013432093
0003b0 3a 34 a9 bd e8 fb 09 bc 72 d2 b2 bd 90 18 0e bc
       -0.082619146 -0.008421876 -0.087315455 -0.008672848
0003c0 16 d3 11 3d 44 97 24 bd d0 22 e7 3b b0 ec b7 bd
       0.035601698 -0.04018332 0.0070537105 -0.089806914
0003d0 5f 55 4f 3d f1 b8 28 bd ba 6a 26 3d 2e 5e 30 3d
       0.050618526 -0.041192 0.040629126 0.043058567
0003e0 a2 5c 9d bd 44 86 95 bd 0b d1 73 bd 64 f2 7a bd
       -0.07683684 -0.07301 -0.05952553 -0.061266318
0003f0 f2 69 a1 bd 7a 25 57 3d b3 c8 13 bd b0 32 0c 3d
       -0.078815356 0.052525975 -0.036080074 0.034228027

fc.2.bias f4 [64]
000000 e6 bb da 3d 2a 6c b6 bd d9 ac a5 bd 85 d9 f1 3d
       0.1068037 -0.089073494 -0.08089609 0.11809067
000010 85 8d 94 3c d4 c7 06 bd 47 a5 7f bb 6c d1 8a 3d
       0.018133888 -0.032905415 -0.0039008425 0.06778225
000020 05 12 9f bd e1 a7 63 3d 75 59 e8 3d 7e d2 ff bc
       -0.07767109 0.055580024 0.113451876 -0.0312283
000030 6d 5b a2 3d 26 10 a3 bd a5 8b 4d bc f6 ce e9 bc
       0.07927594 -0.079620644 -0.012545501 -0.02854107
000040 3a c3 1e 3e 63 4e 72 3c a6 73 a5 3c ca be eb bc
       0.1550416 0.014789197 0.020196747 -0.028777499
000050 8f 7b 3e bb 20 8a 8c bc 31 8b 87 bd 1a a9 5f bd
       -0.0029065346 -0.017155707 -0.066183455 -0.054604627
000060 08 14 0f 3e 99 b3 82 bc 60 04 e1 3b 11 8e 0f 3d
       0.13972485 -0.01595478 0.0068669766 0.035047594
000070 bc e3 94 bc 3c 45 84 bd 52 6e 88 3d 35 ba ff bc
       -0.018174998 -0.06458518 0.06661667 -0.03121672
000080 df d0 ec 3d 1c b5 1c 3e 04 8e 01 bc f1 36 20 3d
       0.115632765 0.15303463 -0.007907394 0.039114896
000090 2e cb 89 bc 51 79 2c 3e 10 40 a2 bb d2 68 17 3e
       -0.016820516 0.16843154 -0.0049514845 0.1478608
0000a0 bb f9 34 3b 42 8d a7 bd 67 75 ac bd 4f 44 38 bd
       0.0027614671 -0.0818124 -0.0842083 -0.04498702
0000b0 1b 7b 84 bd 37 55 8f bc 0c ab c7 bc 2e 57 55 3c
       -0.06468793 -0.017496688 -0.024373554 0.013021274
0000c0 ef dd 0d 3e 3a df 76 bd 56 72 63 3d 07 9c 10 3e
       0.13854192 -0.06027148 0.05552896 0.1412202
0000d0 83 07 26 bd 51 99 2d bc 2c 2d 4b bd 09 2c 00 bd
       -0.040534507 -0.0105956355 -0.049603626 -0.031291995
0000e0 3a e4 85 bd a2 7a 3b 3c aa 46 7a bc 65 cd 98 3d
       -0.065376714 0.011442812 -0.015275637 0.07461051
0000f0 ad e2 34 bd bb 45 c1 3d af a1 79 3c df 77 cf bc
       -0.044161487 0.09437128 0.015236302 -0.025325714

fc.4.weight f4 [1, 64]
000000 34 3d f5 3d c3 4a 74 3d a4 f2 35 3d 22 33 ba 3d
       0.11974564 0.05964161 0.044420853 0.09091784
000010 d2 d2 04 3d a6 8e f2 bc 0d 7d 0a bd ce c0 31 3d
       0.032427616 -0.029609036 -0.033810664 0.043396764
000020 8b 5b 82 3c 73 f8 b2 3c b9 d3 ab 3d b9 52 c0 bc
       0.015912792 0.021846985 0.08389992 -0.023476945
000030 30 db 1d 3d 8d f8 2e be ae a7 8a bd 7e 35 0e bd
       0.03853911 -0.17087002 -0.067702636 -0.034718983
000040 e6 fa 9d 3d 02 38 4a bd 4b a9 5b 3d 08 78 74 bd
       0.07713871 -0.04936982 0.053628247 -0.059684783
000050 12 b8 d4 bd 5b 45 c0 bd 4b f5 3d bc f2 9d 0e 3c
       -0.10386671 -0.093882285 -0.011594127 0.008704649
000060 05 00 da 3d 4b ee cf bd d4 96 c1 bd a4 94 f3 3b
       0.10644535 -0.10152873 -0.09452596 0.007433491
000070 53 de 53 3d 88 b9 a5 bd 31 60 72 3d 17 9a d7 bd
       0.051725697 -0.08092028 0.059173767 -0.10527437
000080 65 7f b4 3d 2c 43 0b 3e 3c 05 b9 bd da 91 c0 3c
       0.08813361 0.13599843 -0.090342015 0.023507047
000090 82 f4 62 bc 1f b4 1a 3e f7 a4 8d bc 4e 6d af 3d
       -0.0138522405 0.15107773 -0.017290575 0.0856577
0000a0 e7 7c 84 bd e4 e4 bc bd 07 02 c6 3d f8 fe 38 bd
       -0.06469136 -0.09223345 0.096683554 -0.045165032
0000b0 38 51 9c bc d9 08 ab bd 7c 6a e0 bd 54 fa 5c 3c
       -0.019081697 -0.08351297 -0.1095781 0.013487417
0000c0 c5 12 9d 3d 89 51 85 b9 df b0 9d 3d 10 82 e4 3d
       0.07669596 -0.00025428485 0.07699751 0.1115762
0000d0 7d 86 dc bd 99 3d 0a bd 22 cb de bb fc 3d 6a bb
       -0.10767839 -0.03375015 -0.0067991177 -0.0035742512
0000e0 99 27 84 bc 64 13 a5 bd 4f 25 8e 3c a1 a0 ae 3d
       -0.016132163 -0.08060339 0.017351774 0.08526731
0000f0 b3 67 ba bc e1 cd 33 3d 49 df fe bc 50 e6 9b 3d
       -0.022754526 0.043897513 -0.03111233 0.07612288

exp_avg f4 [16, 2, 3, 3]
000000 8a 4d 04 37 75 f8 c5 36 90 56 81 37 c1 d6 09 38
       7.885867e-06 5.8999817e-06 1.5418307e-05 3.286335e-05
000010 2e 70 9d 37 ca 7d c1 37 96 e8 b8 b7 fb 52 19 b7
       1.8768096e-05 2.3065968e-05 -2.2042816e-05 -9.138831e-06
000020 41 e5 a8 b7 6d e4 00 b5 d6 08 d1 35 c5 c9 fb 35
       -2.0133915e-05 -4.801612e-07 1.5574285e-06 1.875968e-06
000030 5c 18 c4 b4 b1 61 ea 35 b4 47 02 36 c5 0f be b5
       -3.652557e-07 1.746279e-06 1.9413246e-06 -1.4160693e-06
000040 78 1f 45 35 fb 18 54 35 44 fe 1d 37 fe 85 fa 37
       7.343401e-07 7.9012506e-07 9.41713e-06 2.9864717e-05
000050 cc d8 61 37 7a 1f 37 38 cd ce 1a 38 ee 6b 0d 38
       1.3461522e-05 4.3659915e-05 3.690906e-05 3.3717537e-05
000060 af 93 d7 37 29 a2 95 38 f4 8c 08 37 61 df 07 37
       2.5698768e-05 7.135078e-05 8.13905e-06 8.0986365e-06
000070 92 70 00 37 37 95 e6 36 b9 6a d4 36 3b 57 b7 36
       7.655604e-06 6.871905e-06 6.3305165e-06 5.46398e-06
000080 63 ed 9f 36 39 15 cb 36 ef 00 b0 36 20 82 98 36
       4.7662047e-06 6.052342e-06 5.2453174e-06 4.5451015e-06
000090 df f0 cf 37 8a 9d a3 37 41 84 6a 36 2c 44 21 38
       2.4788487e-05 1.9504474e-05 3.49457e-06 3.844888e-05
0000a0 f9 2c 0a 38 50 05 00 38 39 c1 2e 38 de 3d 99 38
       3.2943648e-05 3.0522526e-05 4.1664785e-05 7.307132e-05
0000b0 40 60 3e 38 28 d6 10 37 f8 17 10 37 d6 c6 08 37
       4.538917e-05 8.632931e-06 8.5886495e-06 8.152527e-06
0000c0 a2 3d c4 36 b0 62 b9 36 ab 08 ac 36 3b f1 a7 36
       5.84843e-06 5.5249184e-06 5.1270085e-06 5.0050708e-06
0000d0 b7 65 9e 36 07 3a a0 36 64 66 86 36 97 c8 09 37
       4.720608e-06 4.775127e-06 4.005431e-06 8.21254e-06
0000e0 03 da 6f 37 91 f4 88 b6 cb 87 03 36 5a 4a 00 37
       1.429627e-05 -4.081587e-06 1.9599563e-06 7.646706e-06
0000f0 00 4f 38 b8 21 c3 13 b5 95 5d fc 35 c9 75 2f b5
       -4.3942593e-05 -5.504572e-07 1.8802699e-06 -6.536398e-07
000100 c7 5e e5 b4 92 1a 55 35 4c 7a 10 b4 f9 56 f3 b4
       -4.2723534e-07 7.938735e-07 -1.3455536e-07 -4.5325558e-07
000110 cf 83 34 35 20 1d 11 b4 18 be 9d b5 88 51 57 34
       6.724703e-07 -1.3514773e-07 -1.1752736e-06 2.0053096e-07
000120 4b ca 89 36 ed bb 5e 37 74 d4 66 36 5d 02 50 36
       4.106468e-06 1.3275986e-05 3.4396335e-06 3.099579e-06
000130 c2 c0 59 36 57 79 12 37 c9 ab 5b b6 7d a5 a2 32
       3.244772e-06 8.73053e-06 -3.2733535e-06 1.8934537e-08
000140 03 e4 a7 35 0d e1 5e b6 73 84 8a b6 fb dc 83 b6
       1.250883e-06 -3.3211575e-06 -4.1281396e-06 -3.9298297e-06
000150 8e 7e 94 b6 4d d1 b2 b6 b1 e4 aa b6 90 0d c6 b6
       -4.4254766e-06 -5.329179e-06 -5.093018e-06 -5.9024387e-06
000160 66 8f e1 b6 52 63 cc b6 8f 5e 50 37 91 48 e5 34
       -6.7222163e-06 -6.091236e-06 1.2419782e-05 4.2707373e-07
000170 fa 46 2e 36 43 ba 0d 38 90 ad bd 35 aa 60 aa 35
       2.5969334e-06 3.379049e-05 1.4132111e-06 1.269412e-06
000180 d3 ff 6a 37 16 e1 1f 37 4a 70 f7 b4 8a fa ef 35
       1.4007051e-05 9.529545e-06 -4.6089036e-07 1.7879804e-06
000190 bd 6f 40 36 05 d2 32 36 5c 6d 99 35 c1 f5 0d 36
       2.867527e-06 2.6646314e-06 1.1431216e-06 2.1153685e-06
0001a0 67 14 0b 36 4c b1 3e 35 7c fe e6 35 04 45 0c 36
       2.072449e-06 7.1038517e-07 1.72104e-06 2.0901798e-06
0001b0 84 e9 37 38 2f 09 8c 35 c3 f5 8a b5 1e a1 89 38
       4.384808e-05 1.0433486e-06 -1.0353327e-06 6.5626795e-05
0001c0 48 a4 58 37 0f 18 f3 35 f9 70 88 b6 05 37 f8 b7
       1.2912853e-05 1.8111913e-06 -4.0662676e-06 -2.9589524e-05
0001d0 d5 49 4b b7 4b ad 9e b5 63 df fd b5 79 02 11 b6
       -1.2116933e-05 -1.1822352e-06 -1.8914983e-06 -2.1608123e-06
0001e0 27 44 be b5 d4 96 0e b6 41 ed 22 b6 2d d5 a6 b6
       -1.4175938e-06 -2.1247442e-06 -2.427798e-06 -4.9720024e-06
0001f0 12 5d c0 b6 4a 8c b2 b6 3a 1e e2 b7 8c 35 75 b5
       -5.7328807e-06 -5.321145e-06 -2.6955375e-05 -9.1347533e-07
000200 20 c6 19 b6 a9 a3 02 b8 c6 62 32 b8 73 22 66 b7
       -2.29141e-06 -3.1146836e-05 -4.2530497e-05 -1.3717089e-05
000210 74 fc 3e 36 fd 97 0b 35 79 2b 0a 37 55 48 01 b6
       2.8459153e-06 5.200271e-07 8.235563e-06 -1.92646e-06
000220 5c 64 f1 b5 61 6f 85 b3 77 66 f8 b5 75 3d e8 b5
       -1.7985108e-06 -6.213555e-08 -1.8507261e-06 -1.7303233e-06
000230 d0 f1 cf 31 4c dd 19 36 9a 0b 20 36 79 19 38 36
       6.051984e-09 2.2927588e-06 2.384861e-06 2.7432964e-06
000240 68 bb 45 37 2a 57 da 37 78 b4 0c 38 e2 28 74 36
       1.1785749e-05 2.6028214e-05 3.3546676e-05 3.638263e-06
000250 b0 22 30 35 63 a4 b9 36 0f 67 5c 36 42 84 4f 36
       6.5615586e-07 5.532567e-06 3.2842543e-06 3.0922388e-06
000260 62 79 bd 35 e9 c1 4c 36 74 b0 62 36 32 da 6c 36
       1.4116924e-06 3.051124e-06 3.3779334e-06 3.5293747e-06
000270 e8 c1 4c 36 74 b0 62 36 31 da 6c 36 a4 cd 21 36
       3.0511237e-06 3.3779334e-06 3.5293745e-06 2.4110568e-06
000280 c3 2c 3c 36 d8 bd 43 36 4c a1 b2 b4 67 0c fb 36
       2.8040238e-06 2.9167768e-06 -3.3272443e-07 7.4818267e-06
000290 45 06 e0 35 01 90 2a 37 4b 73 0a 36 25 fc 0d 35
       1.6691125e-06 1.0166318e-05 2.0630712e-06 5.289351e-07
0002a0 7e 75 73 38 7f 71 4a 37 be 80 00 38 48 9a 3c 36
       5.8045138e-05 1.2066564e-05 3.063748e-05 2.8103987e-06
0002b0 d8 84 79 36 d9 d0 76 36 af 1a 1a 36 5a ce 56 36
       3.7181217e-06 3.6778422e-06 2.296332e-06 3.2008597e-06
0002c0 ff 9e 55 36 9f 1e fe 35 31 8e 3e 36 4e ad 47 36
       3.1832021e-06 1.8933387e-06 2.8394973e-06 2.9754187e-06
0002d0 ee 26 54 35 67 9c 94 b6 ae ed 11 36 cc 8c f0 36
       7.9032804e-07 -4.4289513e-06 2.1745032e-06 7.1689483e-06
0002e0 aa a0 c6 37 a2 6b 5c 36 bc 73 9e 37 4c e9 40 b7
       2.3678254e-05 3.2845205e-06 1.888896e-05 -1.14984105e-05
0002f0 26 1a 71 b7 74 1c 59 36 c5 54 60 36 40 18 da 35
       -1.4370808e-05 3.2352082e-06 3.3427943e-06 1.6249323e-06
000300 33 de ed 36 f9 3c f3 36 c7 12 9d 36 69 fc fa 36
       7.089018e-06 7.2490625e-06 4.6811506e-06 7.479965e-06
000310 98 2d 00 37 6b 26 a6 36 9c ad c6 b6 b5 f5 89 b5
       7.64001e-06 4.951658e-06 -5.9210706e-06 -1.0278806e-06
000320 64 89 e4 b6 e0 4f 85 b7 ce a3 1f b7 f9 54 0f 37
       -6.810924e-06 -1.589203e-05 -9.515277e-06 8.543248e-06
000330 6a ce fd b6 f5 10 82 36 e6 a2 ea 35 ed 65 79 b6
       -7.5640173e-06 3.876276e-06 1.7481768e-06 -3.716322e-06
000340 ee 18 58 b6 75 16 35 b6 32 49 df b4 53 ba 6c 33
       -3.220102e-06 -2.6984173e-06 -4.1590243e-07 5.5117493e-08
000350 b3 a1 d6 34 d6 94 c8 35 8c f5 d2 35 a8 47 b2 35
       3.9978258e-07 1.4944478e-06 1.5717683e-06 1.3282888e-06
000360 ec ed 9c b4 a5 8d 8a b5 0d 6e 05 b4 15 4d 8c 37
       -2.9230375e-07 -1.0323025e-06 -1.2426626e-07 1.6725195e-05
000370 d6 d3 47 b3 63 cd 46 34 da ae 4d 36 53 18 af b4
       -4.652596e-08 1.8514906e-07 3.0649157e-06 -3.2613988e-07
000380 25 06 f2 b4 1d cb 27 36 1c cb 27 36 ec 26 12 b5
       -4.5080483e-07 2.5003167e-06 2.5003164e-06 -5.4445877e-07
000390 45 1d 1e 36 45 1d 1e 36 b7 0a 39 b5 44 77 17 36
       2.3560872e-06 2.3560872e-06 -6.893346e-07 2.2570175e-06
0003a0 45 77 17 36 b7 0a 39 b5 95 d7 4d b6 a9 8f 79 36
       2.2570177e-06 -6.893346e-07 -3.0672866e-06 3.7187513e-06
0003b0 38 5a c7 36 b4 0a 96 35 3c a7 03 38 bb 1c 8c 37
       5.941165e-06 1.1178986e-06 3.1388583e-05 1.670268e-05
0003c0 a5 5a 3a b7 ee de 3c 37 e8 87 6f 37 fe b1 26 b5
       -1.1107569e-05 1.1257578e-05 1.4277153e-05 -6.209883e-07
0003d0 4a ff bd b4 55 6b 93 34 0d b0 60 35 f1 27 e6 34
       -3.538974e-07 2.7458978e-07 8.370269e-07 4.28699e-07
0003e0 1f 00 4f b3 6a e6 28 35 54 29 6d 34 01 25 48 b4
       -4.8196053e-08 6.2920174e-07 2.208738e-07 -1.8639913e-07
0003f0 36 ba 2b b7 7c 07 86 b7 cb 50 1a b6 ff 32 f0 b4
       -1.023575e-05 -1.597753e-05 -2.2994816e-06 -4.4740588e-07
