output/red/images/epoch_22.pt (torch, 369546 bytes, 27 tensors)

conv.0.weight f4 [16, 2, 3, 3]
00000000: 4348 f0bd c8f8 d03d 3937 2b3e a9be 5e3d
00000010: 4d81 2d3e 37d2 7f3d ff1a f63d 7691 f53d
00000020: 542b 17be ea6d eebd e492 aebd 8762 2f3e
00000030: 3cb6 28be 19c2 36bd 5cb7 203e 782f 71be
00000040: edaa 313e dbd0 523e 7730 25be 1768 ac3c
00000050: 8771 76bd 654d e93d a5d1 07bd b8c5 e43d
00000060: 54d6 06bc 0c7a 4d3e cb02 48be 8803 1d3e
00000070: b51b 783d ecd7 1cbe 0eb6 df3d d664 8abc
00000080: 0e33 153e addd 08be 6d66 483e 93eb 003e
00000090: bc5f e23d 09cb 7cbc 1e62 10be 5bc9 a43d
000000a0: e87c 35bd 64b2 1b3e b6ae 10bd c493 243e
000000b0: 98f5 6d3d b165 4a3e ee61 273e 2678 57be
000000c0: a1a3 093e bc5e 533e 79b5 32be 8d2c 19be
000000d0: b206 383d 894f aabb 5f6c 83be 5f85 0f3e
000000e0: 983e 1d3e 1e2f 08be 8e80 e9bd adc1 05bd
000000f0: 3c74 bb3d 090d 91bd 68d9 ac3d 4537 ecbd
00000100: d02f 073d d0c0 bdbc d240 fb3d 8205 0bbd
00000110: d99a b5bc adfb 45be c280 c93d 158b f8bc
00000120: 59a9 813d 36e3 2d3e edc2 40be 4113 62be
00000130: 9225 283e bd13 27bd 6809 38be 1794 37be
00000140: 160f 90bd f9a3 c93d d089 e13d 0336 9fbe
00000150: 3a59 95be 7590 8a3d 6375 92bd e541 443d
00000160: c941 d63d 864c ac3d 0f96 203c e09e 2bbe
00000170: fa76 15be d5a3 bf3d f6df 37be 54fe e9bd
00000180: 8fe1 e33c a1cb 29bd a883 2dbe cbeb 47be
00000190: f161 533e d46f 2abe f60c 37be 8978 ecbd
000001a0: 3394 40be bb12 83be b063 913d 8a07 c63c
000001b0: 8633 473e c6c0 0a3e 9e2b a23d 5955 393e
000001c0: eab7 ffbb 447d 113d 49f5 65be b3d9 ec3d
000001d0: bf5b ebbb 8403 06be b873 2d3e 15ae bb3c
000001e0: a043 c53c 49fa 533d 9f4b 3a3d a68b 81bd
000001f0: e9c7 4cbe 2483 47be 9da4 1f3e 2fed 87be
00000200: edc8 6b3d 01d0 c33c 8c65 75bd d3af 393d
00000210: 2235 2fbe daff 42be d51c 1cbd 93f2 e5ba
00000220: 897b 523d b591 31be 87c9 4c3e 823f 28be
00000230: f363 033e 4e09 51be b6cc f1bd 7bbd 4f3e
00000240: 2fdb 963d e4e2 4b3e 5e1a 3b3e 098e 4abe
00000250: 49df 7dbe fecd b8bd d4a4 95bd a686 02be
00000260: 4045 a9bc 49e6 2fbe a3aa 8abd 8a4a 4a3e
00000270: 116a 0fbe 1fcf 07be 58f8 073e 77f0 31be
00000280: 43dd 8fbc a2ef 21be fb04 0cbe 37ab 193e
00000290: 8ebd 39be ead9 dbbd 5430 48bd ce71 6bbe
000002a0: 529e 923d 879c 93bd f40f 573e 6709 07be
000002b0: 9e3c 99bd fa34 003e 50f9 3f3e 2ec1 3dbe
000002c0: 22ce 2dbe 7049 20be b8b5 a0bd ccb3 ff3a
000002d0: 3f10 3dbe 15f3 3ebd 479e 2cbe ba41 fbbd
000002e0: 6a0d 503e 6e4d 44be 4684 9b3d c9f4 10be
000002f0: 928a ecbc 964a 19be afc2 723d e8cc 8dbd
00000300: 954d 6dbe 5359 413e 6baa e73c 45a3 c93d
00000310: 13db 473e 21ef 2f3e 5323 0fbe a8d0 93be
00000320: a539 dfbc 5380 e83d 4897 9bbc b33f de3d
00000330: 1e9a 893b 5cf7 5ebe ec92 16be b311 13bd
00000340: 6a49 8b3d c028 01be 08a5 12be c543 f7ba
00000350: 1ac7 9ebd 177e b23d 7b00 9ebc b44f 163e
00000360: 6a05 eabc 5908 68ba 42f5 2dbd 767e 203d
00000370: 481a 21be f5db e3bd e720 97bc d964 dbbd
00000380: 8de6 8dbd a23e 433e ca24 f93c 9d14 2cbe
00000390: 89fa b5bd 2c22 d2bc 2cef 17be 9b10 a63d
000003a0: 76c7 c23d 2377 483e 7f5a 993d bc26 fbbd
000003b0: 3878 f8bd 5956 f1bd 62dc 243e 0213 db3c
000003c0: f72a 943d b59f ec3d 796f 2dbe 2541 9cbd
000003d0: 399f 6cbe 6e33 69be c4de 5b3d d888 dc3d
000003e0: 3f17 df3d 1616 e3bd c8ef 46be 5dbe 313e
000003f0: 48cc 1b3e e837 d63c 295e 47be 446f f5bd
-0.11732533 0.10203701 0.16720285 0.054381046 0.16943856 0.062456336 0.12016868 0.11990635
-0.14762622 -0.11642058 -0.08524111 0.17127429 -0.16475767 -0.0446187 0.15694946 -0.23553264
0.1735036 0.20587485 -0.16131769 0.021045728 -0.06016686 0.11391715 -0.033158917 0.11170524
-0.008229811 0.20066088 -0.19532315 0.15333378 0.0605733 -0.15316743 0.10923396 -0.016893785
0.14570257 -0.13365813 0.19570322 0.12589864 0.11053416 -0.015429267 -0.14099929 0.08046218
-0.044308573 0.1520477 -0.035322867 0.16071993 0.058095545 0.19765355 0.16345951 -0.21041927
0.13441326 0.20641607 -0.17452039 -0.14958401 0.04492826 -0.0051974696 -0.25668618 0.14015721
0.15355909 -0.13299224 -0.11401473 -0.032655407 0.09153029 -0.070825644 0.084399045 -0.11533979
0.033004582 -0.02316323 0.12268223 -0.0339408 -0.022168564 -0.19334288 0.09839012 -0.030339757
0.063311286 0.16981205 -0.18824358 -0.22077657 0.16420582 -0.04079031 -0.17972338 -0.17927586
-0.070341274 0.098457284 0.11012614 -0.31095895 -0.29169637 0.06765834 -0.07151296 0.047914404
0.10461766 0.08413033 0.009801402 -0.16759825 -0.14596167 0.0935742 -0.17956528 -0.11425462
0.027817516 -0.04145396 -0.16944754 -0.19523542 0.2064283 -0.16644222 -0.17876038 -0.11546428
-0.18806534 -0.25600228 0.07099092 0.024173517 0.19453248 0.135501 0.079184756 0.18098964
-0.0078039067 0.035519853 -0.2245685 0.1156496 -0.007182568 -0.13087279 0.16938674 0.022910157
0.024080098 0.051752362 0.045482274 -0.06325464 -0.19998135 -0.1948362 0.15590139 -0.26548144
0.057564665 0.023902895 -0.059911296 0.045333695 -0.17110112 -0.19042912 -0.038113434 -0.0017543606
0.051387344 -0.17340739 0.19998752 -0.16430476 0.12831096 -0.20413706 -0.11806624 0.20287125
0.07366025 0.1991077 0.18271777 -0.19780745 -0.24792208 -0.09023665 -0.07306829 -0.12746677
-0.020662904 -0.1717769 -0.067708276 0.19754997 -0.14005305 -0.13262604 0.1327833 -0.17376886
-0.01756156 -0.15814069 -0.13673775 0.1500672 -0.18138716 -0.10734923 -0.048874214 -0.22992632
0.071591035 -0.072075896 0.2100218 -0.1318718 -0.07482265 0.12520209 0.18747449 -0.18530723
-0.16973165 -0.15653014 -0.0784716 0.001950854 -0.18463229 -0.04661854 -0.16857253 -0.12268396
0.20317617 -0.19170162 0.075935885 -0.14155878 -0.02887467 -0.14969859 0.059267696 -0.069238484
-0.23174126 0.1888173 0.028279504 0.09845594 0.19517164 0.17181064 -0.13978319 -0.2887013
-0.027249167 0.11352601 -0.018993035 0.108519934 0.0041992804 -0.21774048 -0.14704484 -0.03590555
0.06801112 -0.12613201 -0.14320767 -0.0018864801 -0.07752819 0.08715456 -0.019287338 0.14678842
-0.028567035 -0.00088513416 -0.042470224 0.039183103 -0.15732682 -0.11125938 -0.018448306 -0.107125945
-0.0692874 0.19066861 0.03041305 -0.16804738 -0.088856764 -0.02565106 -0.1483733 0.08108636
0.095107004 0.19576697 0.07487964 -0.12263247 -0.12132305 -0.11784048 0.16099694 0.026742462
0.072347574 0.11553899 -0.16937055 -0.07629613 -0.23107614 -0.22773525 0.053679243 0.107682884
0.10893106 -0.11088197 -0.19427407 0.17357774 0.15214646 0.026149705 -0.19469513 -0.11984113

conv.0.bias f4 [16]
00000000: 785d 873d 6984 1cbd 5f1c 26be 1a10 543d
00000010: efcc efbd 44ba 593e ae8e 0fbe 833f 05be
00000020: e6b7 e03c 6931 443e 6367 6fbe 5724 56bd
00000030: 7ccc 5ebe 83c4 60be f188 74bd 8292 6abe
0.066096246 -0.038212214 -0.1622176 0.05177317 -0.1170901 0.21262461 -0.14019272 -0.13012509
0.02743144 0.19159473 -0.23379283 -0.05228075 -0.21757692 -0.21949963 -0.05970091 -0.22907451

conv.3.weight f4 [32, 16, 3, 3]
00000000: fcbb 3cbc 3ab8 dc3c ccf7 1d3c 6fee 90bd
00000010: 94c3 14bc d1f1 8fbd 6b57 663d 1179 b63c
00000020: db34 6abc 2432 dbbc a319 97bd 7cc7 403c
00000030: a2a7 6d3d 461e 663d 984e 093c 81f4 acbd
00000040: 33fb 803d 290a 67bd 31bb 0cbd 71fb b33c
00000050: 77ff 393d bcfa 5e3d 7856 f0bc bbae 213d
00000060: 3fd2 a4bd fd91 623d 64d0 64bd 6f57 0a3d
00000070: 7bb0 7d3d 8d4d 7bbc 037e 4dbd 76d2 5dbd
00000080: 34ba 90bc c0b5 24bd 3b5f 72bc 75f9 263d
00000090: 1234 92bd dfac 57bd 05b1 8f3d f9e9 d4bc
000000a0: 5a0e febc 542d 81bd 16dc 6abd 8298 2c3d
000000b0: 79d2 313d 3a2f b13c 3b38 ce3c 940d a6bd
000000c0: 7838 03bc a5ee 313c a29b 153d d3f2 29bd
000000d0: 9ea9 fe3c 0077 523d 0795 4fbc 9e8a 9ebc
000000e0: 1550 95bd 3a9a 7f3d c178 77bd ac74 163d
000000f0: a9d5 35bc 27e3 90bd 2028 81bc f47b 8cbd
00000100: 5925 8fbd 8517 2f3c faeb b6bd ca90 c43c
00000110: 78ac c8bd 0b42 40bd 49d6 17bd 5cb1 52bd
00000120: 0850 9abd 5bd0 c1bd 2fea 523d d9a0 9abd
00000130: 53fa 173b 42df f4bb c05b 97bd 9141 c3bc
00000140: 2798 03bd 1df6 813d 21ad babd 8bb7 4dbd
00000150: dc3c b8bd 736e a2bd f75c 8b3d 01ec 653c
00000160: 9af2 12bd 8dd8 4b3d a9f4 6f3d 370b 85bc
00000170: 7352 4c3c 42ff 21bd a887 4abd e313 513d
00000180: abc0 48bd b10c 793c 63a0 59bd ee58 383d
00000190: aace 4d3d c2e1 03bd 6bfd ecbc 016c afbc
000001a0: ea08 b2bd 9161 76bb a09b 0d3d 338f a83d
000001b0: 5cc7 49bc 5757 4d3d 485c 4e3d 48e6 413d
000001c0: 8f7c f7bc a796 143d 12e8 0abd 27a4 14bd
000001d0: f26f 313d 88fb a5bd 3c1d 8abd 1a7b 43bd
000001e0: 5d18 d3bc c2a6 46bd b8ed 41bd be53 48bd
000001f0: 6dc7 9a3d 9e95 673d e642 27bd 2dcc e93c
00000200: 3fde a3bc 9b0f 45bd 8607 eebb 1f26 833d
00000210: ee85 063d 2062 37bd 5776 1cbd a2ee 89bc
00000220: 8800 a43c edf6 06bc 2845 c3bb 31c9 c83c
00000230: 1b42 b6bd 04eb f83b 1669 3e3c e117 26bc
00000240: 0201 9f3d 2325 3c3c 657a 2ebd 35a3 613d
00000250: 1477 71bd f879 623d 1b67 32bd 7bf3 c2bb
00000260: e5f8 343d 153a b1bd 3f83 913d d4f7 1bbd
00000270: 3f48 0c3b 489b 223b 89ac 03bd 67cf 6e3d
00000280: e61a 88bd 3631 a03d dbfb 43bd 6e1c 813d
00000290: ba3c 3bbd a003 813d 8469 89bc e0b4 0ebd
000002a0: 7a6b 2f3b 917f 10bd fe2f d7bc 5d8c 063d
000002b0: dfa5 703d 10b9 42bc b146 26bd bdcf 15bd
000002c0: 0f91 423b 17bc a0bd 166b 733d ce41 9fbc
000002d0: fb74 3abd be30 ac3d cbd1 b0bd 7535 42bd
000002e0: f120 a6bd e007 54bd 186b 5c3c 819e 303d
000002f0: 2d86 bb3c b5d0 a0bc 7935 46bc b33c 993c
00000300: a36a 973a d083 973c 80ff 883d 2a9d 77bc
00000310: 8612 023d 3340 97bd 303e 8bbd 873d 42bd
00000320: e644 85bd ec2d 5d3a cd0b 66bd 6436 593d
00000330: 093a 083d 1636 7ebd f276 8abc 930c 9e3d
00000340: 479c 443d a979 c23b e5f7 823d 32d4 493d
00000350: e8dc aebd b12f 133d 73fe 8dbd 8967 16bd
00000360: ebdb 1d3d 77a1 d93b d393 613d 04a0 04bc
00000370: 2ac5 193d c23c 4cbc 1a09 d1bc 3c02 ccbb
00000380: 2fd4 043d 9e10 bf3b dd68 75bd 2c22 2e3d
00000390: f780 bc3c 4d73 d33c d70f 0dbc 3821 803d
000003a0: 3a97 9e3d c1e0 6abd 6b1f 893d 10b7 6d3d
000003b0: eb29 593d 2b01 903d 1414 93bd 8671 16bd
000003c0: 1387 19bc 9119 b63c b582 3fbd 7e8b bdbc
000003d0: d1a0 0e3d 5f83 8e3d 49b4 01bd 96d7 a9bd
000003e0: 4c90 763d c728 493d 31d6 60bd fd57 dfbc
000003f0: b65d 303d c496 c5bd 0d17 bfbd e147 483c
-0.011519428 0.026943315 0.009641599 -0.070767276 -0.009079833 -0.07028545 0.056235712 0.022274526
-0.014294828 -0.026757307 -0.07377937 0.011766311 0.058021195 0.056181215 0.008380555 -0.08445073
0.062979124 -0.056406174 -0.034358207 0.021970483 0.045409646 0.054438338 -0.029338107 0.039473277
-0.08047914 0.055315007 -0.0558628 0.03377479 0.061935883 -0.015338314 -0.050169002 -0.05415579
-0.017666914 -0.040212393 -0.0147932125 0.040765245 -0.07138838 -0.052655097 0.07016186 -0.025990473
-0.031012703 -0.06307474 -0.057338797 0.04213763 0.043413613 0.021628965 0.025173297 -0.081080586
-0.008009069 0.01086012 0.036525376 -0.04149134 0.03108674 0.05138302 -0.012669808 -0.019353207
-0.07290665 0.06240294 -0.060417894 0.03673236 -0.011098304 -0.07074576 -0.015766203 -0.0685958
-0.069895454 0.01068676 -0.08931728 0.023994822 -0.09798521 -0.046937983 -0.037069593 -0.051438674
-0.07534796 -0.09463569 0.051492866 -0.075502105 0.0023189976 -0.0074729035 -0.07390547 -0.023834975
-0.032127526 0.063457705 -0.09115053 -0.05022387 -0.08995983 -0.07931223 0.06804841 0.0140333185
-0.035875894 0.049767066 0.058582935 -0.0162407 0.012470829 -0.039550073 -0.049445778 0.051044356
-0.049011867 0.01520078 -0.053131472 0.045006685 0.05024592 -0.03219772 -0.028929433 -0.021413805
-0.086931065 -0.0037594775 0.034572244 0.08230438 -0.012315597 0.050132122 0.050380975 0.047338754
-0.030210761 0.036276486 -0.033912726 -0.03628936 0.04331965 -0.081046164 -0.06743857 -0.04772482
-0.025768453 -0.048498876 -0.047345847 -0.048907988 0.07557569 0.05653917 -0.040835284 0.028539741
-0.020003436 -0.048110586 -0.0072640805 0.064037554 0.03284257 -0.044771314 -0.038198795 -0.016837422
0.020019785 -0.008237583 -0.005959172 0.024509998 -0.08899327 0.0075963754 0.011621734 -0.010137529
0.07763864 0.011483463 -0.042597193 0.055087287 -0.058951452 0.0552921 -0.04355536 -0.0059494353
0.044182677 -0.086536564 0.07105111 -0.038078144 0.0021405367 0.0024811793 -0.032146964 0.058303263
-0.066457555 0.07821886 -0.04784761 0.06304251 -0.04571221 0.062995195 -0.016773947 -0.034840465
0.0026766942 -0.035277907 -0.026268002 0.032848705 0.058751937 -0.011884943 -0.04059476 -0.036575068
0.0029688512 -0.07848375 0.059428297 -0.019440558 -0.045521718 0.08407734 -0.08633765 -0.04741426
-0.08111752 -0.051765323 0.0134532675 0.04311991 0.022891128 -0.01963077 -0.01209771 0.018705701
0.0011552166 0.01849547 0.06689358 -0.015113154 0.031755947 -0.07385292 -0.06798971 -0.04742196
-0.06507282 0.0008437324 -0.056163598 0.053030387 0.03325847 -0.0620633 -0.01690242 0.07717242
0.0480006 0.005934913 0.063949384 0.04927463 -0.08538228 0.035934154 -0.06933298 -0.036719833
0.03853981 0.0066415626 0.055072617 -0.008094791 0.037541546 -0.012465658 -0.025517035 -0.0062258523
0.032428917 0.0058308383 -0.05991446 0.042513058 0.023010714 0.025811816 -0.008609734 0.06256336
0.07743688 -0.05734325 0.066954456 0.05803591 0.05301849 0.07031473 -0.07181564 -0.036729358
-0.009370583 0.022228988 -0.04675551 -0.023137804 0.034821335 0.06958651 -0.031666074 -0.08293073
0.060196206 0.049111154 -0.05489177 -0.027263636 0.04305812 -0.09647897 -0.093305685 0.0122241685

conv.3.bias f4 [32]
00000000: 4634 3b3d f238 1ebd 8d96 743d 1304 a6bd
00000010: 59be 90bd 324c 403d 7049 d0bd a06d 6b3c
00000020: 69a6 01bd 5184 c53d 0a68 2d3d 9cc1 16bc
00000030: 69ba c2bd 437f f3bc 2549 a33d fa8d 303d
00000040: 28cf 95bd ee30 cf3b 5994 c83c d7f0 9ebd
00000050: b89b 98bd 4981 e3bd 0137 693d c3af 29bd
00000060: 2137 b5bd 4b1b 1bbd e108 8c3d 3b78 87bc
00000070: 0963 243d 5b21 e23c fcb7 32bc b1d5 4cbd
0.04570415 -0.038628526 0.05971389 -0.08106246 -0.07067556 0.046947666 -0.10170257 0.014369398
-0.03165284 0.09644378 0.042335548 -0.0092014335 -0.09508211 -0.029723769 0.079729356 0.04310415
-0.073149025 0.0063229715 0.0244848 -0.0776078 -0.07451576 -0.111086436 0.05693722 -0.041427385
-0.08848406 -0.037867825 0.06837631 -0.016536823 0.04013351 0.027603796 -0.010908123 -0.05000848

fc.0.weight f4 [128, 128]
00000000: 1295 693d 400a 4a3c 64ac a3bc dc16 ae3c
00000010: 0489 88bd 082c c4bd c377 aabd 6dea 11bd
00000020: e02c 073d 803e 84bb b5f2 163d e54a a6bd
00000030: f498 5bbd c35c 9f3d 40df 9abd d73a 853d
00000040: 000b 8239 fe11 e2bc 7a9e 3abd ae58 7cbd
00000050: a962 7bbc 0bc7 ed3b 3543 2d3d 3c23 2e3c
00000060: bcb8 123d 8e56 063d cc3d fd3c 86bf 543d
00000070: 08a2 b0bd f5a6 86bd 1b68 96bd 88ea 9dbd
00000080: a3a5 03bd ceea 3dbd fff9 833d a03c cfbb
00000090: 468d 663d 028f 213d 001b 37ba 0ddf b43d
000000a0: b82f a5bb 0303 e1bc 16d1 30bb 6d9c a6bc
000000b0: f875 c7bd 9e96 3f3d 3dcf 58bc 5607 e7bc
000000c0: e044 7d3b 9423 153d 2485 b3bd 9400 973c
000000d0: 38f3 91bd 20b5 743b 6ce7 df3c 9e81 62bd
000000e0: f971 0f3d 318e 5fbd 0b44 12bd c5af 80bd
000000f0: 53d2 c7bd dcc9 bebc 1f4c 7fbd 05eb 813d
00000100: d5dd a2bd 8ff5 3e3d 98c9 093d c502 51bd
00000110: 88eb 2abd b3cc 243d ea41 563d b65c 403d
00000120: 8916 ca3c 26c0 943d d1e5 e0bc 768c 11bd
00000130: 4ca5 fb3c d972 b4bd 22df 0dbc 0295 0dbd
00000140: b05b 913b 709f 7e3d 946f 07bd bf79 d2bc
00000150: 9274 073d c8f4 cdbc 0040 72bd 40c4 d1bc
00000160: 4c8a 95bd ac54 8ebd 8aee 2cbc 4f19 c7bd
00000170: 29f2 6cbd 6002 20bd 1b3c 843d 9b9b 46bd
00000180: f6bb 8dbd c431 6dbd bd73 983d 539e 9f3d
00000190: 3b3e abbd 0999 4abd e9e3 7fbd dc92 c03c
000001a0: 9192 88bd dcc8 5dbc c2a6 17bc d569 a8bd
000001b0: 5b34 863d 9407 8fbd e082 1bbd 2a82 5fbd
000001c0: 37df a4bb c591 7f3d 0960 973d 64f9 28bc
000001d0: 0b8c babd 4c32 95bd 1865 e13c cc4d c6bb
000001e0: 4b11 893d 7fac 9f3d 6484 81bd 9c6d bdbc
000001f0: 4826 b2bc af7f 92bd 1778 9dbd 87ee 5b3d
00000200: a315 9abd 10c6 f93b 8d3e a0bd c0bd 9c3b
00000210: 2623 293d 3c42 ee3c c34c 2fbd 461d 1fbd
00000220: 11ac 8e3d 1c7b a8bd 7709 83bd 518a 803d
00000230: 07fd 9bbd e4b5 86bc db2d 8dbd ba6e e4bc
00000240: 4ff4 a23d 6665 753d 5029 a33b 2aa0 b3bd
00000250: 30c7 67bc 2e68 7ebd ec18 a4bd f812 44bd
00000260: bffb 1fbd e1a5 36bd d077 223c c4af 9bbd
00000270: c872 b4bd f829 69bc c9cb 993d 86dd 453d
00000280: 4a0f 073d def9 3e3d 267d 743d 5eef 0dbd
00000290: 1e18 7dbd 9e2a 06bd 95f6 1ebd 43d5 8f3d
000002a0: d2fa 543d ce18 84bd 6030 ab3b f677 033d
000002b0: 4015 8bbc ad9b 9c3d 5a40 123d 7049 993b
000002c0: a2b5 0cbd 13d7 abbd 0c6f f23c 92af 99bd
000002d0: 0a9c fabc 9079 fe3b bc7a 913c 80e2 9cba
000002e0: 9931 a4bd db25 5abd 6275 6bbd db27 a13d
000002f0: 5ef6 033d f480 bbbc f899 bf3c 6633 343d
00000300: a00c 473c f8ac e5bc bfde 893d 00f8 103a
00000310: 96f4 1a3d 1148 94bd 8096 163c 1f3c 32bd
00000320: 60d7 b3bd 7b18 1cbd c253 5bbd bd5e 9f3d
00000330: 84da aabc 9618 603d d58b 9a3d a591 1dbd
00000340: 9894 c6bc a7b9 45bd 9ee3 5f3d fd80 b13d
00000350: a058 12bb dfff abbd 0a61 39bd 409c f93a
00000360: 29a9 79bd 748d 863c 769a 4b3d 5252 073d
00000370: 7cb8 9c3c f6b9 85bd 000b e8bb 98bb 703c
00000380: e827 3f3c a56c a3bd 4006 093c 2820 f23c
00000390: 3689 453d a4bc 4abd 8f99 53bd df8a 67bd
000003a0: 35ea 90bd 603c 38bd 5416 a53c 1e6d 11bd
000003b0: 42d8 4fbd a87d e1bc d322 46bd 0880 13bd
000003c0: dce8 80bd b56f 18bd 2088 9c3b e0d2 2f3b
000003d0: d8b1 1c3c 0138 813d e861 1bbd 7c27 89bd
000003e0: 1644 f3bc ee06 ddbc a754 abbd f148 a23d
000003f0: 43ae 2cbd 79b4 933d 30cf ff3c 41e5 31bd
0.05702693 0.012331545 -0.019979663 0.021251135 -0.06666759 -0.09578711 -0.08323624 -0.035623956
0.03300178 -0.004035771 0.036852557 -0.08119754 -0.053612664 0.07781365 -0.07562113 0.065053634
0.00024803728 -0.02759647 -0.04556129 -0.06160801 -0.015343347 0.007256394 0.04230042 0.010628518
0.035820708 0.03279739 0.030913256 0.051940463 -0.08624655 -0.06574813 -0.07344075 -0.07710749
-0.032140385 -0.046366505 0.06444167 -0.0063243657 0.056287073 0.039443024 -0.00069849193 0.08831606
-0.005041089 -0.027467256 -0.0026980094 -0.020338262 -0.09739298 0.0467745 -0.013233003 -0.02820174
0.003864579 0.036410883 -0.08765629 0.018432893 -0.071264684 0.0037339404 0.02733203 -0.055299394
0.035020802 -0.054578964 -0.035709422 -0.062835254 -0.09756913 -0.023289613 -0.062328454 0.063436545
-0.07952467 0.0466209 0.03363952 -0.05102803 -0.041728526 0.04023428 0.052308954 0.046963416
0.024668949 0.07263212 -0.027453335 -0.035534345 0.030718468 -0.08810968 -0.008659156 -0.034565933
0.004435979 0.06216377 -0.033065394 -0.025692819 0.033070154 -0.025141135 -0.059143066 -0.025606275
-0.07301769 -0.06949744 -0.010554919 -0.09721624 -0.05784813 -0.039064765 0.06456777 -0.04848824
-0.06920616 -0.05790879 0.0744395 0.0779387 -0.08361479 -0.049462352 -0.06247321 0.023507528
-0.0666858 -0.013536658 -0.009256067 -0.08223311 0.06552955 -0.06983867 -0.03796661 -0.054567493
-0.005031492 0.062394876 0.07391364 -0.010313366 -0.09108742 -0.07284984 0.027514026 -0.0060517546
0.066927515 0.07796573 -0.0632408 -0.023123555 -0.02174677 -0.0715326 -0.07688921 0.053694274
-0.07523658 0.007622488 -0.078244306 0.004783362 0.041293286 0.029084317 -0.042797815 -0.038846277
0.06966413 -0.08226606 -0.0639829 0.06276382 -0.076166205 -0.016444154 -0.06893512 -0.02788483
0.079567544 0.059911154 0.00497929 -0.08770783 -0.014146611 -0.062111072 -0.08012566 -0.047869653
-0.039058443 -0.04459179 0.009916261 -0.07601884 -0.08810955 -0.014231198 0.07509572 0.048306964
0.032973565 0.04662501 0.059689663 -0.034652106 -0.061790578 -0.032755487 -0.038809378 0.07023098
0.051997013 -0.064500436 0.0052242726 0.032096826 -0.016977906 0.0764688 0.0357059 0.004677944
-0.034352906 -0.083906315 0.029593967 -0.075041905 -0.030591983 0.007765956 0.01775872 -0.0011969358
-0.080172725 -0.053258758 -0.05748499 0.0786893 0.032217376 -0.022888638 0.023388848 0.04399433
0.012149006 -0.02803658 0.067319386 0.0005530119 0.03783091 -0.07240308 0.009191155 -0.043514367
-0.08781314 -0.038109284 -0.053546675 0.07781742 -0.02085615 0.054710947 0.07546202 -0.038468976
-0.024240777 -0.048272755 0.054660432 0.08667181 -0.0022330657 -0.08398413 -0.04525856 0.0019043759
-0.06095234 0.016424872 0.049707852 0.03303749 0.019130938 -0.0652961 -0.0070813894 0.014693163
0.011667229 -0.07979707 0.0083633065 0.029556349 0.048226558 -0.049496308 -0.051660117 -0.056528922
-0.070759214 -0.044979453 0.020152248 -0.035504453 -0.05074335 -0.027525738 -0.048373055 -0.036010772
-0.062944144 -0.037215907 0.0047769696 0.0026828572 0.009563886 0.0630951 -0.037935168 -0.06696984
-0.029695552 -0.026980843 -0.083657555 0.07924069 -0.042158376 0.07212157 0.031226724 -0.043431524

fc.0.bias f4 [128]
00000000: 9130 5fbd 53fd 17bd 7a6a 7d3d 40ee 83ba
00000010: 4ee8 9c3d 7ce2 dd3c 981f 30bd aa5b a1bd
00000020: 3d3d 8c3d 8b90 a83c 4e4f 1abc 7f5f d83d
00000030: ee7d 913c ee3c c2bd 4f12 473d f8d0 b13c
00000040: cc6b 12bd 8b22 41bc 8550 943c 80a1 82bd
00000050: eabe 63bd c824 48bd 16ac 99bd 31e9 91bd
00000060: 650c e63c fbf4 fabc 06ed e3bb 8337 c4bd
00000070: 3a61 27bb 09ef 743d d98f acbd ffd0 4b3d
00000080: 491f 18bd 3998 6c3d 0ad4 16bc 7976 c2bd
00000090: ca2d 6abc b3e2 a9bd 0bce bc3d 6ab7 8cbd
000000a0: b228 1bbd e7f4 703d c051 0dbd a6cc 5dbd
000000b0: 9012 0f3d aeb4 6a3d 9ac0 9a3c 190b cc3d
000000c0: c457 9dbd 546a 06bc a4f9 b7bd 71b5 553a
000000d0: 9943 d3bd 093b 003d ae1d 393d 53b4 2c3d
000000e0: ed5a 2abd 19a7 8fbd d92a 873d 444d ac3d
000000f0: fe37 7fbd ae1c 90bd 3ce0 a1bd b7bd 5bbd
00000100: 9661 28bd 9483 1f3d 0561 a6bd e079 8ebc
00000110: 1e16 c2bd 22e4 823d 49eb ea3c 10f6 2cbc
00000120: 1334 abbd 2aff bdbd aaa5 57bd 3632 683d
00000130: 6f8b 61bd f912 eb3b d21a fe3d 2d1e 3c3d
00000140: 4e56 bfbd de83 963c 7725 41bd 715a c33c
00000150: aeac 773c 7f79 0ebd e891 6dbd 3fe0 02bd
00000160: 5732 103d 1a99 a73d ab15 dcbd 93f2 f03c
00000170: ab42 92bd 44b8 95bd ca1b 9cb9 37dd 57bd
00000180: 7b1b f6bc 303d 15bd e5bb e6bc d36e 903d
00000190: 516e a6bd 9b83 073c 34fa fdbb 7a95 1d3d
000001a0: e02d 7ebd 8068 7abc 1db4 9d3c 8f96 823c
000001b0: e494 bcbd c346 7fbd c977 003d 5b7f 503d
000001c0: 97a4 393d eaec 383d bcff b1bd 0e1f 6b3d
000001d0: 633c 6b3d 2701 393d ce85 81bd a9da e2bc
000001e0: bbb7 763d b689 a23c aeff a5bd 6a56 d1bc
000001f0: fdb2 ef3d f324 023e d21e 7abc bf8d a5bc
-0.054489676 -0.037106823 0.061869122 -0.0010065511 0.07661496 0.027085535 -0.04299888 -0.07878812
0.06847618 0.020576736 -0.009418322 0.105650894 0.017760243 -0.09484278 0.048601445 0.02170609
-0.035747334 -0.011788021 0.018104801 -0.0637846 -0.05560199 -0.048863202 -0.07503526 -0.07124556
0.028082082 -0.030634394 -0.0069557456 -0.095809005 -0.002554013 0.059798274 -0.08425874 0.04975986
-0.03713921 0.05776236 -0.0092058275 -0.09495253 -0.0142931435 -0.082951926 0.09218987 -0.06870921
-0.037880607 0.058827307 -0.03450179 -0.054150246 0.034929812 0.057301216 0.018890668 0.09963054
-0.076827556 -0.008204062 -0.08983162 0.0008152342 -0.103156276 0.0313063 0.04519432 0.042164158
-0.04159062 -0.07014293 0.065999694 0.08413175 -0.062309258 -0.0703672 -0.079040974 -0.053647723
-0.04110869 0.038943842 -0.08123974 -0.017392099 -0.09476875 0.06391169 0.028676646 -0.010556713
-0.08359542 -0.09277184 -0.052648224 0.05668851 -0.055064615 0.0071738926 0.12407459 0.045927215
-0.09342633 0.018373426 -0.04715487 0.023846837 0.015116854 -0.034783836 -0.058000475 -0.03195214
0.035204258 0.08183499 -0.1074632 0.029412543 -0.07141622 -0.073105365 -0.00029775343 -0.0527012
-0.0300424 -0.036435306 -0.028165767 0.07052388 -0.0812651 0.008271123 -0.007750774 0.03847263
-0.06205547 -0.015283704 0.019250924 0.015940933 -0.09208086 -0.062323343 0.031364236 0.050902706
0.04532298 0.045147814 -0.086913556 0.057402663 0.057430636 0.045167115 -0.06324349 -0.027692156
0.060233813 0.019841056 -0.08105408 -0.0255539 0.11704061 0.12709408 -0.015266137 -0.020209191

fc.2.weight f4 [64, 128]
00000000: 6a21 4d3d b4de 923c 0b04 94bc 14a5 43bd
00000010: 0cea 60bd 0928 963d 3bbd 7e3d 337f 9dbb
00000020: 93c6 783d c2f8 f0bc 29d6 1d3d ec67 dabc
00000030: b7ee bc3c 42f7 14bb 20c4 be3b f1f5 303c
00000040: d8aa dd3c 749b 6e3c 21fe 753d fa35 a53b
00000050: 79f8 b6ba 5ce2 c13c ff5a 72bc e6df 35bd
00000060: aa6c 393d f13a b0bb 1b1e 273d e3bb edbc
00000070: 8113 dbbb 0294 d03d f1e0 04bd 7bc8 a7bd
00000080: d94a c43d e85f 32bd de20 2bbd 2a0a fcbc
00000090: 2226 663d e3ec 9abd 1b17 6e3d 6b19 7cbb
000000a0: 72ea 963d 27ea 5cbd 3b48 6cbd d3c9 ff3a
000000b0: f0fe 483d e953 82bc 5cfc ab3d de1e 373d
000000c0: 398a 863d 4373 863d c3a5 05bd 70ed 30bd
000000d0: fe3b c83a c596 56bd b9b7 a23d cc34 483d
000000e0: 65d3 35bc 983e 2e3b 68a3 ac3d 546c fe3c
000000f0: 5768 4e3d 9b89 81bd ebfb be3c d790 9f3d
00000100: fb2d a5bd 4722 51bd 64ad 633d 25d9 8c3d
00000110: 4ac6 2fbd 411d 65bd 819d 3cbc cab4 5abd
00000120: 8d8d 123c 2e05 473d 10f4 cc3b 7155 4fbd
00000130: b41c dfbc 223b 0f3d 23f9 9c3d cc29 9fbd
00000140: da41 a1bd 1a05 8cbd b03a 8abd 6da5 3c3d
00000150: 780f 86bd fb61 803d dae3 9dbb 86e8 f7bc
00000160: 2723 533d d0c9 3bbd 7786 5d3c 1b5e 933d
00000170: 1cf4 a23d 1a97 6d3b d067 1b3c 4677 77bc
00000180: 1c15 7c3d 96a2 613d f5e1 6e3d c1d7 58bd
00000190: 4fe4 43bd d561 b5bd 58b7 183d 730b bbbb
000001a0: ea27 98bb e315 43bd 7bc4 60bc 9e5d 33bc
000001b0: 8799 1cbd 27af 3abd e12c 023d 629c 7dbd
000001c0: 1191 60bd 24c9 ab3d e44a e7bd 5695 7cbd
000001d0: 9a6a 263d 776a bcbc fa06 10bd 3dfa 7bbd
000001e0: c8c8 5f3d cff4 983d 507b 00bd 52a3 cb3b
000001f0: 8a59 36bd 89c0 c53c fd45 993c b6d9 563d
00000200: 1ba8 b33d 0080 a2bb 1391 e5bc 0842 e2bc
00000210: acb3 6bbd 4df2 a43d 8bf3 35bc da54 6f3d
00000220: ce3c 723d 8ce6 cebb f06f 323c f312 90bc
00000230: 2728 6bbd 2289 abbd 3fb9 393d 6e37 613d
00000240: e139 96bd 6010 4fbb 726b 413d da6a 6ebd
00000250: bfa2 a03d dc0d dd3c 9366 65bd b7f9 cdbc
00000260: 0b14 323d 8246 523d 9c7c 063d 89e3 a9bd
00000270: 035e 4e3d ea6a 8abd bbd8 9b3b 70ad 6e3c
00000280: 500c 55bd 2235 1a3d 4cc1 b93d c095 37bc
00000290: 6378 0d3d c186 923d 17d2 77bb fcf3 f73c
000002a0: 1ada 8cbd 5077 ffbb e14f 8bbd 24ed d93c
000002b0: 209a c3bb fbb6 50bd b51b a0bd 8865 abbd
000002c0: 40f9 f9bb 6dd3 993d 02d8 25bd 507d 1e3c
000002d0: 5d99 1dbd 703a de3b aae4 0e3d a6e8 713d
000002e0: 6c52 99bd 00a9 523a ec8c c23c daa3 efbc
000002f0: 03a9 43bd 6807 61bc 917c afbd a481 87bd
00000300: 3b2b 6ebd 9f7f 803d c8be fe3b 17e6 5b3d
00000310: e787 b3bd ccd9 c73c fdcd f7bc abb7 a23d
00000320: 4199 24bd 60af 973b ee94 8fbd 942e 113d
00000330: fc58 c7bc 7cfc f23c 0d33 8b3d 2bbf 5cbd
00000340: 9471 5f3d 814a db3c eaf2 743d 4cf5 c93a
00000350: 3ba5 b43c 2dd6 45bb 80e2 86bb 4886 acbd
00000360: c3c6 a4bd d8f9 96bc 5726 8a3d 3a92 88bd
00000370: e323 b33d d0b7 c03b 969c 53bd cd85 8c3d
00000380: f8b4 b2bd 071c 1cbd 6545 723d 16f4 11bd
00000390: 2e65 493d 1833 c1bc 12c9 57bd c647 c3bb
000003a0: b2f9 e7bc 3fd3 923d 6088 a7bd 4812 5cbc
000003b0: 3a34 a9bd e8fb 09bc 72d2 b2bd 9018 0ebc
000003c0: 16d3 113d 4497 24bd d022 e73b b0ec b7bd
000003d0: 5f55 4f3d f1b8 28bd ba6a 263d 2e5e 303d
000003e0: a25c 9dbd 4486 95bd 0bd1 73bd 64f2 7abd
000003f0: f269 a1bd 7a25 573d b3c8 13bd b032 0c3d
0.050080694 0.017928459 -0.018068334 -0.047764853 -0.054910704 0.07331855 0.062192183 -0.004806423
0.06073625 -0.029415492 0.038534317 -0.026660882 0.023063047 -0.0022730385 0.0058217198 0.0108008245
0.027059004 0.01456343 0.06005681 0.005041835 -0.0013959549 0.023667507 -0.014792203 -0.04440298
0.045269646 -0.00537812 0.040800195 -0.029020255 -0.0066856747 0.1018448 -0.032441083 -0.081925355
0.095845886 -0.043548495 -0.04177939 -0.030766565 0.05618871 -0.07564714 0.058127504 -0.0038467299
0.07368936 -0.053934243 -0.05768607 0.0019515104 0.049071252 -0.015909152 0.08397743 0.04470717
0.06569333 0.06564953 -0.032628786 -0.043195188 0.0015276668 -0.05238988 0.079451986 0.048878476
-0.011097764 0.0026587602 0.08429605 0.031057514 0.050392475 -0.06325074 0.023313483 0.07791298
-0.08065411 -0.05105808 0.05558528 0.068773545 -0.042913713 -0.0559361 -0.011512161 -0.05339507
0.008944881 0.048588924 0.0062546805 -0.050618593 -0.027235366 0.034968503 0.076647066 -0.07771644
-0.07873888 -0.068369105 -0.06749475 0.0460562 -0.06545919 0.06268688 -0.004818422 -0.030262243
0.051547196 -0.04584676 0.013520828 0.071956836 0.079567164 0.0036253394 0.0094852 -0.015104121
0.06154357 0.055086695 0.05832096 -0.052940134 -0.047825154 -0.088565506 0.037284225 -0.005708152
-0.00464343 -0.047628295 -0.01371872 -0.010947613 -0.038232353 -0.045577195 0.03178108 -0.061916716
-0.054825846 0.08387974 -0.11293581 -0.061665855 0.040629007 -0.022999985 -0.035162903 -0.061517943
0.05463484 0.074685685 -0.0313676 0.0062145377 -0.044518985 0.02413966 0.01871013 0.05245372
0.08772298 -0.0049591064 -0.028023278 -0.027619377 -0.057544395 0.08054028 -0.011105428 0.05843053
0.05914002 -0.0063141044 0.010890946 -0.01758716 -0.05741134 -0.083757654 0.04534268 0.054984502
-0.07335258 -0.0031595454 0.04722161 -0.05820737 0.07843541 0.026984148 -0.056006026 -0.025143487
0.043476146 0.051336773 0.03283368 -0.08295352 0.050382625 -0.067586735 0.004756061 0.014567718
-0.052013695 0.037648328 0.090700716 -0.011205137 0.034538638 0.071546085 -0.0037814432 0.030267708
-0.06877537 -0.0077962056 -0.06802345 0.026602335 -0.005969301 -0.050955754 -0.07817785 -0.08368975
-0.00762859 0.075110294 -0.040489204 0.0096734315 -0.038476337 0.0067818686 0.03488604 0.05905976
-0.07486424 0.0008036047 0.023748837 -0.029252935 -0.047768604 -0.013734676 -0.08568681 -0.06616524
-0.058146697 0.06274342 0.0077742077 0.053686228 -0.08766156 0.024395846 -0.03024959 0.07945188
-0.040185217 0.0046290606 -0.07010828 0.03544481 -0.024334423 0.02966141 0.067968465 -0.05389325
0.054551676 0.026768925 0.059801973 0.0015408187 0.022051444 -0.0030187473 -0.0041163564 -0.084240496
-0.08045723 -0.018429682 0.06745594 -0.066685155 0.08747079 0.005881287 -0.051663004 0.06861458
-0.08725923 -0.038112666 0.05914821 -0.03563317 0.049168758 -0.023583934 -0.05268199 -0.005959484
-0.028317306 0.07169198 -0.08180308 -0.013432093 -0.082619146 -0.008421876 -0.087315455 -0.008672848
0.035601698 -0.04018332 0.0070537105 -0.089806914 0.050618526 -0.041192 0.040629126 0.043058567
-0.07683684 -0.07301 -0.05952553 -0.061266318 -0.078815356 0.052525975 -0.036080074 0.034228027

fc.2.bias f4 [64]
00000000: ac08 c43d 2a6c b6bd d9ac a5bd 45cb df3d
00000010: a314 e93c 698e 10bd 5dd1 58bb 5e1e 8a3d
00000020: 0512 9fbd 518d 7c3d af43 db3d f2d3 0fbd
00000030: 8002 c03d f7ba cdbd be86 04bc c2d0 2cbd
00000040: c6fd 173e ab4d 123d 60b3 363c cabe ebbc
00000050: 8f7b 3ebb 208a 8cbc 318b 87bd 1aa9 5fbd
00000060: c8a2 043e f3e1 a4b9 4c06 0a3d 0759 863d
00000070: bce3 94bc 3c45 84bd 8e28 733d 35ba ffbc
00000080: 60d1 de3d bf1c 103e 9466 033c f2c8 2a3d
00000090: 618b 93bc 2927 203e 30b0 433c 95f0 113e
000000a0: d250 0a3d 428d a7bd 6775 acbd 4f44 38bd
000000b0: 1b7b 84bd 3755 8fbc 0cab c7bc 4db4 273d
000000c0: 06df 083e 3adf 76bd 9002 3f3d d68a 053e
000000d0: 8307 26bd 8820 4ebb 2c2d 4bbd 8ee2 29bd
000000e0: 3ae4 85bd 3984 0a3d a07e 65bc 0f6e 8c3d
000000f0: ade2 34bd f35c c43d 8f05 1f3d 57ed cfbc
0.095719665 -0.089073494 -0.08089609 0.109274425 0.028452223 -0.035292063 -0.0033083775 0.06744073
-0.07767109 0.061658207 0.10706269 -0.035114236 0.09375477 -0.10045426 -0.008088766 -0.042191274
0.148429 0.0357186 0.011151165 -0.028777499 -0.0029065346 -0.017155707 -0.066183455 -0.054604627
0.12952721 -0.00031448863 0.03369741 0.06559949 -0.018174998 -0.06458518 0.059364848 -0.03121672
0.10879779 0.14073466 0.008020062 0.041695543 -0.018010797 0.15639938 0.011943862 0.14251931
0.033768483 -0.0818124 -0.0842083 -0.04498702 -0.06468793 -0.017496688 -0.024373554 0.040943433
0.13366327 -0.06027148 0.046633303 0.13041243 -0.040534507 -0.0031452496 -0.049603626 -0.041475825
-0.065376714 0.033817504 -0.0140072405 0.068569295 -0.044161487 0.09588041 0.03882366 -0.025381727

fc.4.weight f4 [1, 64]
00000000: 28bd f23d c34a 743d a4f2 353d 51c6 b53d
00000010: e3ac 813d efd4 f1bc 3d6e 0abd 67ad 403d
00000020: 8b5b 823c ed44 cb3c fb95 a43d 3f46 c7bc
00000030: 5a8c 063d 27a9 22be 8e10 8bbd ca67 febc
00000040: 6c04 903d 4939 4dbd 12b2 883d 0878 74bd
00000050: 12b8 d4bd 5b45 c0bd 4bf5 3dbc f29d 0e3c
00000060: c8d5 d23d 884d d3bd b361 c3bd e9dd f5ba
00000070: 53de 533d 88b9 a5bd 9947 813d 179a d7bd
00000080: 6cdc af3d e069 073e 399d bbbd 8b9f fb3c
00000090: 1174 61bc ee46 153e 2a11 9dbc 6f9d 9e3d
000000a0: e642 85bd e4e4 bcbd 0702 c63d f8fe 38bd
000000b0: 3851 9cbc d908 abbd 7c6a e0bd 8a74 693d
000000c0: 993d 8f3d 8951 85b9 4a61 aa3d 010b df3d
000000d0: 7d86 dcbd 6e63 0bbd 22cb debb 7f6c 45bb
000000e0: 9927 84bc ceb5 a5bd 09f4 913c b874 aa3d
000000f0: b367 babc 8d07 313d 1e7f 0dbd cce3 9b3d
0.11852485 0.05964161 0.044420853 0.088757165 0.06331804 -0.02952048 -0.033796538 0.04704037
0.015912792 0.02481314 0.08036419 -0.024325488 0.032848693 -0.15884839 -0.06790267 -0.03105535
0.070320934 -0.05010346 0.06674589 -0.059684783 -0.10386671 -0.093882285 -0.011594127 0.008704649
0.10294682 -0.10317522 -0.09540119 -0.0018758151 0.051725697 -0.08092028 0.06312484 -0.10527437
0.08586964 0.13223982 -0.09160847 0.030715724 -0.013760583 0.14577839 -0.019173224 0.07744872
-0.065069005 -0.09223345 0.096683554 -0.045165032 -0.019081697 -0.08351297 -0.1095781 0.056995906
0.06994171 -0.00025428485 0.08319338 0.10890771 -0.10767839 -0.03403037 -0.0067991177 -0.0030124483
-0.016132163 -0.08091317 0.01781656 0.083230436 -0.022754526 0.04322009 -0.034545057 0.07611808

exp_avg f4 [16, 2, 3, 3]
00000000: ba48 0eb8 ce4d f4b7 6fbd 12b8 f76e b9b7
00000010: 1f70 08b8 92c5 eab7 780e 8cb7 4266 c535
00000020: a692 8535 623a 32b5 c5b3 2db6 311c a5b5
00000030: 039d 9935 32d6 95b5 4cc9 e434 dd2e c736
00000040: 98b2 8236 2f30 ae36 9f90 9ab7 d99a 7cb8
00000050: a608 b7b7 8eef eeb8 edce 4db8 892c 81b8
00000060: 32de 1bb8 bf85 28b9 0f32 1336 6b26 94b7
00000070: 9dae 90b7 6c6f 85b7 ad0b a1b7 2a43 99b7
00000080: f843 8db7 a59c 9ab7 49b1 92b7 5c38 86b7
00000090: 0868 81b8 fbb2 36b8 d75e 54b7 26d9 c3b8
000000a0: 1bea 99b8 39da e6b8 c544 bfb8 8a00 3bb9
000000b0: 3d34 c3b8 158c 03b7 6167 05b7 c837 14b7
000000c0: 2caa 00b7 e478 06b7 24c1 14b7 c387 d6b6
000000d0: b0d6 e1b6 36d9 0eb7 189f 95b7 eadd 4cb8
000000e0: c22b fab8 0ca8 47b7 5294 85b7 077b 57b8
000000f0: 13b8 76b8 6adc a1b7 0e3b 51b8 6338 dfb6
00000100: 5b71 68b6 e23b 7db6 ac25 edb6 601e 79b6
00000110: 66e9 9db6 def4 e2b6 5266 15b6 ea82 2db6
00000120: 64b0 48b7 d631 b8b7 ffe2 e336 d761 68b7
00000130: 3fde 5ab7 545c 34b6 8734 86b4 dac2 23b6
00000140: c43b 99b6 0ef1 8ab6 436a 9cb6 9419 0fb6
00000150: ae9f 42b6 bbee 34b6 6cf5 94b4 ea4e ceb4
00000160: c8e6 1434 4fa5 c635 d504 4db7 0720 31b6
00000170: a7b1 14b6 9126 50b7 4b0c 8ab5 7d12 2835
00000180: 4e41 02b8 aeeb 13b7 ef8a 3236 a32d c7b5
00000190: 21d8 05b6 a4bb 81b4 6218 4cb5 4872 9fb5
000001a0: 3977 d334 b283 1ab5 eea7 86b5 8ec2 f734
000001b0: 1a2f 66b8 3154 19b7 3d69 fa36 1680 9db8
000001c0: d616 6ab8 817f 3ab8 330e 9837 b602 ed37
000001d0: 01c1 1738 374e 8b36 ce33 b836 4da1 5536
000001e0: 2167 9836 658f c536 d7ad 6c36 27c2 0e37
000001f0: 8e02 1737 469d d536 4189 bcb7 5b77 9a36
00000200: 3f4a cb37 2ba3 b837 0b61 b437 275d 05b8
00000210: dc7b c5b6 642d 71b6 9460 47b7 d3a0 dfb6
00000220: 2141 b6b6 fad3 d8b6 1dc8 f2b6 9b94 d3b6
00000230: 7127 f6b6 2590 3ab7 db0c 35b7 8c7d 2bb7
00000240: 9a3e 51b5 205d 32b7 16a0 04b7 b23c 1236
00000250: 1798 0eb6 8116 5836 3b02 8cb7 ce24 5136
00000260: ec8e 6037 c483 3db6 062e f5b4 711e 42b4
00000270: c383 3db6 062e f5b4 911e 42b4 082d 16b6
00000280: 2c57 d2b5 9eb7 97b5 191f 4ab7 2f53 e7b7
00000290: 34b9 37b7 cc85 19b8 8d11 a0b7 3853 0ab7
000002a0: 9978 3eb9 39db 9ab8 acae 31b9 fa69 b9b7
000002b0: 3cdc b9b7 970b bfb7 18d5 adb7 4408 abb7
000002c0: 3c1f b5b7 66bb aeb7 27c9 afb7 1421 bab7
000002d0: 9e61 a536 1294 3637 7618 c5b5 718e 94b7
000002e0: 58c4 15b8 7e17 1037 f389 8db8 ac0d 95b7
000002f0: b912 6736 a5de 3ab6 6134 13b6 a21d 6235
00000300: f2db 4cb7 08c0 55b7 a877 dab6 fa49 58b7
00000310: 0d2e 61b7 cab3 ebb6 5909 3436 616d 9c36
00000320: d6ca 4b36 420b 19b7 5feb 33b7 2181 dd37
00000330: e6d2 a337 e24d e2b6 8247 ccb5 1178 d636
00000340: cb08 0537 603b e436 a8b8 bf35 5b90 4736
00000350: 7dc9 1c36 afb0 a935 9b28 5236 92f9 3936
00000360: a968 a934 6410 9736 2c78 2cb6 e115 91b8
00000370: 0d28 1cb5 7df4 7bb5 024c 4db7 f215 9f33
00000380: 38b2 7d35 7de6 d9b6 7ee6 d9b6 13b1 67b6
00000390: a9da c6b6 a9da c6b6 94bc 3cb6 5d09 beb6
000003a0: 5d09 beb6 a36d 3eb6 f93a 42b7 ac4c c2b6
000003b0: ddf7 7135 dd59 77b7 696d 9db8 c238 18b8
000003c0: 1003 9037 ba43 8338 3b63 deb7 ac1c b7b5
000003d0: 8e5a 87b3 ce5c 77b6 4967 b8b6 3c11 8ab6
000003e0: 083d d8b6 48c0 c0b6 3c6a 92b6 b897 e2b6
000003f0: 559a 18b8 5024 b136 a80e ca35 7ffc 9cb7
-3.392317e-05 -2.9123297e-05 -3.4985536e-05 -2.210539e-05 -3.2529348e-05 -2.7986975e-05 -1.6696038e-05 1.4707405e-06
9.951953e-07 -6.6395125e-07 -2.5883649e-06 -1.2301663e-06 1.1445085e-06 -1.1163704e-06 4.2614772e-07 5.9361178e-06
3.895093e-06 5.1912134e-06 -1.8425575e-05 -6.0225695e-05 -2.1819327e-05 -0.00011393345 -4.9068523e-05 -6.159495e-05
-3.7161815e-05 -0.00016071553 2.1933845e-06 -1.7660865e-05 -1.7247448e-05 -1.590672e-05 -1.9198133e-05 -1.8270297e-05
-1.684016e-05 -1.8431174e-05 -1.7487111e-05 -1.600029e-05 -6.170577e-05 -4.355887e-05 -1.2658266e-05 -9.3387716e-05
-7.339214e-05 -0.00011007902 -9.120399e-05 -0.0001783391 -9.308055e-05 -7.840824e-06 -7.9514875e-06 -8.834475e-06
-7.669016e-06 -8.015169e-06 -8.8664565e-06 -6.3935017e-06 -6.7305155e-06 -8.514433e-06 -1.7836268e-05 -4.8844064e-05
-0.000119290795 -1.1900451e-05 -1.5923903e-05 -5.1374573e-05 -5.8822403e-05 -1.9295334e-05 -4.9884482e-05 -6.652482e-06
-3.4636676e-06 -3.7734794e-06 -7.067536e-06 -3.7121572e-06 -4.7061358e-06 -6.763831e-06 -2.2262288e-06 -2.585521e-06
-1.1961998e-05 -2.1957716e-05 6.791553e-06 -1.3851058e-05 -1.3045558e-05 -2.6875832e-06 -2.4997664e-07 -2.4402311e-06
-4.566713e-06 -4.140783e-06 -4.661533e-06 -2.132355e-06 -2.9001199e-06 -2.696105e-06 -2.7745716e-07 -3.8427908e-07
1.3867532e-07 1.4800261e-06 -1.2220077e-05 -2.6393698e-06 -2.2157126e-06 -1.2406746e-05 -1.0285379e-06 6.261178e-07
-3.1055235e-05 -8.816756e-06 2.6604937e-06 -1.4839937e-06 -1.9944348e-06 -2.416465e-07 -7.6031404e-07 -1.1879683e-06
3.9388559e-07 -5.756111e-07 -1.0032652e-06 4.6148892e-07 -5.488014e-05 -9.139113e-06 7.462832e-06 -7.510201e-05
-5.5811215e-05 -4.4464603e-05 1.8126424e-05 2.8253864e-05 3.6180954e-05 4.151628e-06 5.489658e-06 3.1833363e-06
4.541959e-06 5.887751e-06 3.5267929e-06 8.509064e-06 9.000896e-06 6.3662037e-06 -2.247526e-05 4.6034525e-06
2.423406e-05 2.201049e-05 2.1502861e-05 -3.1796426e-05 -5.8854766e-06 -3.593822e-06 -1.1883811e-05 -6.6646403e-06
-5.4316047e-06 -6.461979e-06 -7.2354583e-06 -6.30559e-06 -7.335963e-06 -1.1120025e-05 -1.0791434e-05 -1.0221625e-05
-7.7949665e-07 -1.0631309e-05 -7.905086e-06 2.1791025e-06 -2.1248177e-06 3.2199607e-06 -1.669034e-05 3.116485e-06
1.3384717e-05 -2.8239892e-06 -4.5668293e-07 -1.8078732e-07 -2.823989e-06 -4.5668293e-07 -1.8078778e-07 -2.2377953e-06
-1.567159e-06 -1.1303816e-06 -1.2047379e-05 -2.7576081e-05 -1.0950771e-05 -3.660265e-05 -1.9081659e-05 -8.244817e-06
-0.00018164738 -7.384126e-05 -0.00016945106 -2.2103068e-05 -2.2156273e-05 -2.2774371e-05 -2.0722437e-05 -2.0388637e-05
-2.1591426e-05 -2.082968e-05 -2.0955295e-05 -2.2188331e-05 4.9287473e-06 1.0882521e-05 -1.4684763e-06 -1.7709304e-05
-3.5707228e-05 8.588539e-06 -6.749099e-05 -1.776855e-05 3.443258e-06 -2.7845756e-06 -2.1935195e-06 8.423468e-07
-1.22105575e-05 -1.27405e-05 -6.510836e-06 -1.2891827e-05 -1.3421767e-05 -7.024476e-06 2.6827531e-06 4.6618957e-06
3.0367423e-06 -9.122132e-06 -1.0724033e-05 2.6405383e-05 1.9529321e-05 -6.7443916e-06 -1.5219996e-06 6.3916746e-06
7.929465e-06 6.8018417e-06 1.4284351e-06 2.9737337e-06 2.3363093e-06 1.2642903e-06 3.1316074e-06 2.7712417e-06
3.1554853e-07 4.502059e-06 -2.5699946e-06 -6.918214e-05 -5.817281e-07 -9.3860564e-07 -1.2236649e-05 7.408006e-08
9.4509187e-07 -6.4939363e-06 -6.493937e-06 -3.4524753e-06 -5.926315e-06 -5.926315e-06 -2.812395e-06 -5.6635313e-06
-5.6635313e-06 -2.8376023e-06 -1.1577032e-05 -5.7905763e-06 9.0140185e-07 -1.474327e-05 -7.5067226e-05 -3.6292484e-05
1.7167564e-05 6.259182e-05 -2.651067e-05 -1.3642907e-06 -6.302899e-08 -3.6859888e-06 -5.4956513e-06 -4.114727e-06
-6.4444066e-06 -5.7444304e-06 -4.3635064e-06 -6.7529872e-06 -3.6383357e-05 5.2792384e-06 1.5054438e-06 -1.8714227e-05

exp_avg_sq f4 [16, 2, 3, 3]
00000000: ab7d 8b33 b96b 9735 de9c 1436 fbca 9c35
00000010: fb8d a936 34bc ff35 42b6 3c36 b4fd 8d36
00000020: a4b9 0734 d7b6 6833 b87e b933 dee6 aa33
00000030: 0100 8533 379a d233 4668 c233 14c5 5a33
00000040: 5dd8 b133 7c78 a333 1b0b 3c34 c75c ab35
00000050: f3d6 0735 edaf 3437 e3bd 4f36 0e15 ff36
00000060: 4fc6 8836 4864 b937 7394 1135 1466 3434
00000070: 00c5 3a34 2ee0 1a34 4039 8c34 b44e 8e34
00000080: 6f38 6f34 a475 7e34 26c5 8134 06bc 5834
00000090: c9e5 c535 2ff9 9d34 f87f 3633 0cc3 6536
000000a0: b66e 9635 5fb5 ac36 321d e535 26d3 0237
000000b0: 4579 4a36 87e2 2633 099e 3433 b9e8 2933
000000c0: 6419 6c33 2fbf 7933 3133 6b33 d35a 4a33
000000d0: 86f9 5633 bcf0 4b33 a45a 8232 7773 ac35
000000e0: 054b 0036 b6aa 6d33 9ab3 c833 0124 c034
000000f0: 8a97 9835 e2a9 0a34 8087 9d35 db3c c332
00000100: e1f2 d132 d9d5 c032 df23 c632 e104 d032
00000110: fdae c132 c9c1 9f32 577d 8432 b7fa 7932
00000120: c719 d433 c30f db34 d13e 6e33 8a79 1633
00000130: 8778 2135 030a d933 662f c631 f740 3c32
00000140: 829f 1233 2c8a 4031 5a4b 8e31 aad5 7031
00000150: d4aa 4531 ed32 9131 d799 8131 f8bf 2131
00000160: a896 8831 c147 9831 8556 9833 014d 0c31
00000170: 62e0 7231 e181 3d35 ddff 4130 e15d 1d32
00000180: fda3 a034 d876 f733 9802 bd2f 642e 8130
00000190: 2d55 1c31 64cb 0231 2009 5c30 470b df30
000001a0: 417d ab30 d501 1e30 6a11 a930 92c8 9e30
000001b0: 7c76 e835 d652 2735 5cbe a334 1a1c 8a36
000001c0: 8b2b 7035 4d47 8b35 73ec fa32 a306 ab34
000001d0: 4e2b cb33 3799 d931 378e d731 dca2 eb31
000001e0: edf2 c831 ce83 c931 8a46 da31 d1de ea31
000001f0: b5d2 0132 4366 ac31 7c16 8935 6cee db32
00000200: 8dd5 e334 c310 b134 3ac4 1e34 aa36 cb34
00000210: fbf9 0031 e4a2 5130 1004 9532 cb66 c731
00000220: 2846 b331 3e67 df31 dda2 c331 989b ad31
00000230: 2697 d731 8039 5a31 db6c 4e31 8878 5f31
00000240: a421 5235 d39d 7d36 cab7 0736 4dc6 0133
00000250: 5fa8 9732 ff45 0e34 a2c0 a434 5a4f a633
00000260: 2439 dc34 c9ed f332 0a84 1433 b0d2 0e33
00000270: c9ed f332 0a84 1433 b0d2 0e33 fb4c ce32
00000280: eedd fb32 1b9d f132 4535 7334 02a2 8336
00000290: 1a9c be33 420f 3335 0c58 4c35 6c71 c333
000002a0: 700c 7337 8e7d 5536 57dc 9d37 e2f8 0934
000002b0: 1222 0e34 39e6 df33 f9cc 0d34 dec1 1034
000002c0: 33bb e333 87b0 0d34 20f3 1234 4aeb e433
000002d0: 8f11 1132 4b36 b833 3846 6532 8534 a134
000002e0: 2a89 cd36 5075 b933 50d3 df35 c72d d033
000002f0: 77e3 0834 5a45 a432 4a6d df32 069d 8532
00000300: c3d4 a133 db09 d133 6d16 7433 ff75 9933
00000310: 957f c733 5c2a 6833 7ea0 4032 eb20 6631
00000320: 0414 e932 e285 2135 1dd0 3234 1898 ef34
00000330: a69e a633 2209 fc31 f2ff 2432 cd09 8531
00000340: 3695 be31 d481 d631 4c4f 6a31 805d 3831
00000350: 5897 2331 955b 5031 bc27 3231 f9f8 2831
00000360: fc63 0c32 4933 a932 e5c0 0d32 cceb 9734
00000370: d376 722f 70dc 1330 1004 c433 61e3 f130
00000380: 0b51 9831 76c7 fd30 7dec fc30 1ac3 f330
00000390: 7941 0231 ba19 0231 fe0a fa30 a7f5 f130
000003a0: 68ad f130 483f f230 a7b7 8533 4d55 5632
000003b0: dfeb 3332 59ba 9132 5b96 b134 a6ae d133
000003c0: 0306 5d34 63ab 9834 0659 c833 3ca6 0d31
000003d0: ee9a 0631 294a bd30 5c81 5331 56c8 7031
000003e0: 4279 0931 33ca 1631 d7cd 3131 d302 d730
000003f0: 85a4 0834 d838 0c33 78a5 2332 0df1 ed32
6.495551e-08 1.1281728e-06 2.2145027e-06 1.1681981e-06 5.053121e-06 1.9053755e-06 2.812027e-06 4.2316624e-06
1.264039e-07 5.4183e-08 8.637784e-08 7.9582364e-08 6.193296e-08 9.8069386e-08 9.052796e-08 5.0936322e-08
8.281561e-08 7.612195e-08 1.7512905e-07 1.2767495e-06 5.060421e-07 1.0769797e-05 3.0955932e-06 7.6020433e-06
4.076202e-06 2.2100416e-05 5.423273e-07 1.6800942e-07 1.7394268e-07 1.4423924e-07 2.6118687e-07 2.6506825e-07
2.227914e-07 2.3698391e-07 2.4171567e-07 2.018497e-07 1.474452e-06 2.9424834e-07 4.2491564e-08 3.4237191e-06
1.1208092e-06 5.147114e-06 1.7070327e-06 7.797766e-06 3.0170934e-06 3.8855912e-08 4.2053248e-08 3.956004e-08
5.4971125e-08 5.814871e-08 5.476176e-08 4.7114394e-08 5.0052698e-08 4.7483567e-08 1.517521e-08 1.2848603e-06
1.9117153e-06 5.5336123e-08 9.345895e-08 3.5788983e-07 1.1368986e-06 1.2914055e-07 1.1736847e-06 2.2728662e-08
2.444125e-08 2.2448988e-08 2.3066546e-08 2.4216606e-08 2.2547733e-08 1.859816e-08 1.542382e-08 1.45507135e-08
9.876708e-08 4.0803397e-07 5.5470824e-08 3.5035136e-08 6.0152564e-07 1.0106671e-07 5.767947e-09 1.09578115e-08
3.4138345e-08 2.8018219e-09 4.1413104e-09 3.504605e-09 2.8764378e-09 4.225845e-09 3.7718837e-09 2.3537705e-09
3.9752486e-09 4.4319397e-09 7.0937894e-08 2.0416453e-09 3.5343182e-09 7.0596985e-07 7.0576595e-10 9.159948e-09
2.992164e-07 1.1523451e-07 3.4380743e-10 9.39917e-10 2.2749405e-09 1.9033104e-09 8.00485e-10 1.6228591e-09
1.2477487e-09 5.748267e-10 1.2301318e-09 1.1553019e-09 1.731983e-06 6.233289e-07 3.049962e-07 4.115992e-06
8.947033e-07 1.0377058e-06 2.9211355e-08 3.185606e-07 9.460801e-08 6.3329497e-09 6.2734915e-09 6.857915e-09
5.8483836e-09 5.8648544e-09 6.3526544e-09 6.8356276e-09 7.5566975e-09 5.0174846e-09 1.0213839e-06 2.5603377e-08
4.2437424e-07 3.2981015e-07 1.4786283e-07 3.785147e-07 1.876855e-09 7.626524e-10 1.734773e-08 5.8033485e-09
5.2175615e-09 6.5018915e-09 5.6937624e-09 5.0526516e-09 6.274507e-09 3.175586e-09 3.0038823e-09 3.2519285e-09
7.828005e-07 3.7791804e-06 2.0223547e-06 3.0215507e-08 1.765528e-08 1.3250245e-07 3.068754e-07 7.744411e-08
4.1019769e-07 2.8397055e-08 3.4579024e-08 3.325357e-08 2.8397055e-08 3.4579024e-08 3.325357e-08 2.4016563e-08
2.9321168e-08 2.8127536e-08 2.2650518e-07 3.9229644e-06 8.875959e-08 6.67049e-07 7.6124047e-07 9.1010264e-08
1.44868245e-05 3.1812556e-06 1.8818462e-05 1.2849662e-07 1.3237175e-07 1.0426124e-07 1.3206217e-07 1.3481574e-07
1.06045626e-07 1.3195869e-07 1.3685758e-07 1.0659876e-07 8.444103e-09 8.5780435e-08 1.334552e-08 3.00268e-07
6.125444e-06 8.636073e-08 1.6676295e-06 9.6940816e-08 1.2748738e-07 1.912365e-08 2.6010316e-08 1.5554644e-08
7.535848e-08 9.7341136e-08 5.6831073e-08 7.146081e-08 9.289867e-08 5.4055235e-08 1.1212363e-08 3.3488117e-09
2.7133872e-08 6.0172e-07 1.6653253e-07 4.4627882e-07 7.758835e-08 7.3352036e-09 9.604252e-09 3.8719237e-09
5.546691e-09 6.2429795e-09 3.4096557e-09 2.6828673e-09 2.380565e-09 3.0320042e-09 2.5924995e-09 2.4588742e-09
8.171806e-09 1.9697511e-08 8.251139e-09 2.8297507e-07 2.2051987e-10 5.379155e-10 9.1277e-08 1.7599683e-09
4.4329957e-09 1.8464863e-09 1.8402627e-09 1.7736028e-09 1.8954707e-09 1.8932114e-09 1.8193018e-09 1.7604876e-09
1.7584343e-09 1.7625803e-09 6.226701e-08 1.2475835e-08 1.0472802e-08 1.6964963e-08 3.3078217e-07 9.764089e-08
2.0584416e-07 2.8436907e-07 9.329419e-08 2.0612694e-09 1.9587634e-09 1.3772637e-09 3.0778073e-09 3.5038474e-09
2.000505e-09 2.194281e-09 2.5873896e-09 1.5644112e-09 1.2725839e-07 3.264799e-08 9.525472e-09 2.7700048e-08

exp_avg f4 [16]
00000000: 8015 5535 61bc d0b7 d623 a6b7 70f5 e6b6
00000010: 81a4 d6b3 16a6 09b7 c14a 1537 2c93 8bb6
00000020: 7033 dbb6 e018 e5b7 24bc 7eb7 bf08 e636
00000030: 9efa 13b7 f254 9d36 786c 74b6 4c60 6734
7.937997e-07 -2.4883253e-05 -1.980543e-05 -6.883107e-06 -9.9950746e-08 -8.204506e-06 8.898497e-06 -4.159656e-06
-6.5326967e-06 -2.731051e-05 -1.5183385e-05 6.8555523e-06 -8.820234e-06 4.6888536e-06 -3.642197e-06 2.1548584e-07

exp_avg_sq f4 [16]
00000000: 752c bc34 aea5 6935 5c5c 5834 a37b b233
00000010: 6f86 6932 7d49 6033 34d4 c732 1041 ab32
00000020: 833a 8d34 ef1e 3435 9315 8234 775c 1932
00000030: d9d0 8631 f219 9d32 2d81 6d31 8b6f a633
3.5050076e-07 8.704036e-07 2.0150168e-07 8.31126e-08 1.3592952e-08 5.22209e-08 2.3263148e-08 1.9936607e-08
2.630587e-07 6.710024e-07 2.4230084e-07 8.926796e-09 3.9236565e-09 1.8289004e-08 3.4561467e-09 7.750267e-08
