output/red/images/epoch_77.pt (torch, 369546 bytes, 27 tensors)

conv.0.weight f4 [16, 2, 3, 3]
00000000: d5d5 11be 1331 d13d 32a3 273e 8130 233d
00000010: 4be4 1e3e a0d6 5a3d d04b ec3d da77 ea3d
00000020: 9721 08be a6fe f3bd fda9 b6bd e1b8 2b3e
00000030: 73a1 2ebe afc6 50bd 4fee 1a3e 35c1 77be
00000040: 6684 2a3e 885f 4c3e 6520 28be 00d7 393c
00000050: b30d 89bd 64f8 d63d 70bf 24bd 8ae4 cd3d
00000060: 80e8 89bc 5ca6 443e a2c8 45be da77 103e
00000070: 75c1 4b3d 829c 27be 9463 cb3d fcaa d5bc
00000080: 38ef 0b3e 8e84 11be f532 403e e10c f23d
00000090: d179 d43d 4a88 39bc 5a1c 1ebe 0228 883d
000000a0: fde4 58bd 08b9 103e 701e 52bd 9be1 163e
000000b0: a558 283d 64da 4c3e ae4d 2a3e 6134 57be
000000c0: aebd 0e3e cbd5 583e f0ba 2fbe cd88 0ebe
000000d0: 9cc2 633d 353b 063b d6bd 92be e578 023e
000000e0: 7e4c 1c3e 183f dabd 0272 11be 75ca 25bd
000000f0: c407 a63d 2d29 8abd 8e3d 9c3d ead1 fcbd
00000100: 47e7 d93c 6b18 fdbc 6a64 e23d 921e 33bd
00000110: 0dd6 07bd 49b6 55be cd40 b23d d42a 32bd
00000120: 3541 953d 9fdb 013e 4706 56be 0450 66be
00000130: cd3b 183e 1bff 87bd efc7 42be 3ffb 56be
00000140: 4deb 84bd 5c99 ce3d c2a1 f03d 0980 98be
00000150: 88d5 96be cb93 8f3d 9304 7ebd c84e 6f3d
00000160: 128f f23d 2c5d d33d 23ee 843b e13f 39be
00000170: 2c60 18be 60a5 b83d b244 25be 09e4 10be
00000180: 8ebe aa3c 3e0a 65bd 476a 2dbe c319 2dbe
00000190: e6ac 653e 49a2 1dbe 066a 15be d517 bdbd
000001a0: fd61 30be 377f 6bbe 75a0 b93d 7345 e33c
000001b0: 8ed4 373e 4b12 f83d a011 8b3d 346d 213e
000001c0: cb9c c2bc 4292 0b3d 0682 52be fe4b da3d
000001d0: a288 d3bc af91 03be 479a 293e 6ef1 553c
000001e0: 0ef5 d73c 5701 443d 8f27 123d 37ed 59bd
000001f0: 5018 49be 2abc 49be c81d 183e fb33 86be
00000200: 8205 353d 327d e53c 8421 62bd 6589 433d
00000210: 35b9 54be 104a 50be 7b59 1bbd ca59 65bc
00000220: 3c59 103d 7f58 43be 0e60 433e 7532 36be
00000230: c6b8 e73d a864 5fbe 8b42 0cbe c6f2 3b3e
00000240: 9995 813d 9658 3f3e af8f 2e3e ad3b 33be
00000250: e192 8abe 68d6 c7bd 0a0a 97bd b899 0bbe
00000260: 69a8 67bc 83bc 3dbe 9b00 a0bd 78bd 3e3e
00000270: 4a40 1dbe 157a 12be 95d6 f83d d4e5 3cbe
00000280: fdcd ddbc 5bc9 2cbe c0c3 0dbe ad50 0e3e
00000290: 87f9 2abe 6541 fabd 2187 62bd e777 71be
000002a0: 7341 6b3d 85ea b1bd 71b5 4b3e accc 0dbe
000002b0: d1ab a5bd a684 f33d 6c9f 393e 6041 44be
000002c0: a5f0 34be e89a 26be e828 aebd 89e2 adbb
000002d0: 2a69 2ebe dc29 5fbd 7b85 3ebe 690d febd
000002e0: a47b 443e a43a 49be 9779 833d 10b6 09be
000002f0: e9da cebc 1d15 24be 5d86 543d 5a02 98bd
00000300: 1541 76be 4982 383e f129 a83c c1e7 b73d
00000310: b819 3f3e f835 283e e305 0abe cd6e 96be
00000320: b5d7 ecbc 61a7 023e 446e dabc 52cb ae3d
00000330: b49d 713b 7051 7abe 8883 1dbe 74a3 e9bc
00000340: 0b99 9e3d 9a06 f7bd a308 18be 1075 35bb
00000350: d610 adbd 88c1 823d ebcf 14bd bd1a 013e
00000360: 4633 14bd 5d4d 9abc 5d73 39bd 6704 e93c
00000370: 225b 2abe fd9b ecbd 6a17 f4bc 77c9 d6bd
00000380: 25a2 91bd 6e3b 4d3e 3e96 243d b353 32be
00000390: 9cfb a1bd 421b 82bc 263a 1dbe c7f0 b93d
000003a0: 8aaa d63d 944f 433e 55ae 843d 2ace 2bbe
000003b0: 3832 1cbe f408 ffbd e319 2f3e 39e7 77bc
000003c0: a138 413d a431 cb3d d160 2fbe 381b 85bd
000003d0: d933 67be f59d 78be 4927 583d 9978 df3d
000003e0: d10b ca3d 0503 e1bd a656 43be 4b13 303e
000003f0: 497b 293e 7a03 073d 0565 25be 06a8 efbd
-0.14241727 0.10214438 0.16370848 0.03984118 0.15516774 0.05342734 0.115378976 0.11448641
-0.13294064 -0.11913805 -0.089191414 0.16769744 -0.17053775 -0.05097073 0.1512997 -0.24194796
0.16652068 0.19958317 -0.16418608 0.011342764 -0.06692066 0.104965955 -0.04022163 0.10053356
-0.016834497 0.19204086 -0.19314817 0.1410822 0.049745042 -0.16368297 0.099311024 -0.026082508
0.13665473 -0.14210722 0.18769439 0.11818863 0.10374797 -0.011323998 -0.15440503 0.06648256
-0.052952755 0.14133084 -0.05129856 0.14734499 0.041100163 0.20005184 0.16631195 -0.21016075
0.13939545 0.21175306 -0.17161155 -0.13919373 0.055605516 0.0020482067 -0.28660458 0.1274143
0.15263554 -0.106565654 -0.14203647 -0.04047628 0.0810695 -0.06746135 0.07628928 -0.123447254
0.02659954 -0.030895432 0.11054309 -0.043730326 -0.03316312 -0.20870318 0.08703766 -0.043497875
0.07287828 0.12681435 -0.20900832 -0.22491461 0.14866562 -0.066404544 -0.19021581 -0.2099428
-0.064901926 0.10087845 0.11749603 -0.29785183 -0.29459786 0.07010611 -0.06201608 0.05842474
0.11843695 0.103205055 0.0040567084 -0.18090774 -0.14880437 0.09015918 -0.16139486 -0.14149489
0.020842817 -0.05591797 -0.16935073 -0.16904359 0.22429237 -0.15393938 -0.14591226 -0.09233061
-0.1722488 -0.22997747 0.09063808 0.027743077 0.17952177 0.12112864 0.06790471 0.15764314
-0.023756405 0.03407503 -0.20557413 0.106590256 -0.025821988 -0.12848543 0.16562758 0.01305805
0.026361968 0.04785284 0.035682257 -0.05320474 -0.1963818 -0.19700685 0.1485511 -0.26211533
0.044194706 0.0280138 -0.055207744 0.04773845 -0.20773776 -0.20340753 -0.037927132 -0.013998458
0.03524135 -0.19076727 0.1907961 -0.17792685 0.113145396 -0.21815741 -0.13697259 0.1835433
0.063273616 0.18686137 0.17046998 -0.17503233 -0.27065185 -0.097576916 -0.07374962 -0.13632858
-0.014139273 -0.18528943 -0.078126155 0.18626964 -0.15356556 -0.14304383 0.12150303 -0.18447047
-0.027075762 -0.16873686 -0.13844204 0.13897963 -0.1669675 -0.12219504 -0.05530465 -0.23580895
0.057435464 -0.08687309 0.19893433 -0.13847607 -0.08089412 0.11890535 0.18127221 -0.19165564
-0.17669924 -0.1627003 -0.08503896 -0.005306546 -0.17032304 -0.05448328 -0.18605606 -0.124049015
0.1918779 -0.19651276 0.06419676 -0.13448358 -0.025250869 -0.16023679 0.05188595 -0.074223235
-0.24048264 0.1801845 0.020527812 0.089797504 0.18662155 0.16426837 -0.13478808 -0.2938141
-0.02891145 0.12759162 -0.026663907 0.08534874 0.003686768 -0.24445128 -0.15382206 -0.028520323
0.077440344 -0.12061806 -0.14847045 -0.0027688183 -0.08450477 0.063845694 -0.0363311 0.12607856
-0.03618171 -0.018835718 -0.045276035 0.028444482 -0.16636327 -0.1155319 -0.029796321 -0.10487645
-0.07111005 0.20042202 0.040182345 -0.17414741 -0.07909319 -0.015882138 -0.15354213 0.09079128
0.104817465 0.19073325 0.06478564 -0.16777864 -0.15253532 -0.124528795 0.17099719 -0.015130811
0.047173146 0.099215776 -0.17126776 -0.06499332 -0.22578372 -0.24279006 0.05277184 0.10911674
0.09865535 -0.10986904 -0.19076023 0.1719486 0.16550936 0.0329623 -0.16151817 -0.1170197

conv.0.bias f4 [16]
00000000: 8f8f 843d 3cad 4abd addc 28be 8884 383d
00000010: cce1 02be 22f4 533e f4d0 1fbe acfc 11be
00000020: cd54 983c e58f 373e 49f7 77be e009 71bd
00000030: 0fcf 59be 987a 6abe f119 39bd de33 78be
0.06472694 -0.049481615 -0.16490431 0.045048267 -0.12781447 0.20698598 -0.15607053 -0.14256543
0.018595124 0.17925985 -0.24215426 -0.05884731 -0.21270393 -0.22898328 -0.045190755 -0.24238536

conv.3.weight f4 [32, 16, 3, 3]
00000000: 3003 7cbc c33a a23c 9719 613b 9701 94bd
00000010: 6e15 78bc d4d6 96bd 9f1e 823d 07c2 8f3c
00000020: 2089 adbc 0e28 dbbc 838f aabd 1aa6 bb3b
00000030: 33dc 813d 4212 4b3d 91fe f03a 1064 84bd
00000040: 0c4a 723d fcae 79bd 3f5f 18bd dfdc 613c
00000050: 551d 1d3d 43e1 5e3d 53ae 03bd 39ac 003d
00000060: 55a2 9abd 724e 5c3d 3b44 73bd 9cce ea3c
00000070: 4249 673d 65b3 9dbc 0128 42bd 7dcd 6dbd
00000080: beeb bdbc 9db0 06bd aa8a 92bc 9d5a 0d3d
00000090: c931 9abd 1378 5fbd 9cb4 6b3d 7209 c9bc
000000a0: 0054 08bd ef3e 7dbd c7fa 6ebd 732c 0c3d
000000b0: 2cc1 2e3d 667f e13c aaa2 c63c 6c7c abbd
000000c0: bd05 ce39 21c4 eb3b ded8 2c3d 4daa 01bd
000000d0: 6d74 403c eaf1 2d3d e0ef 48bc 5d8e dbbc
000000e0: a145 a6bd 5b0f 763d 3d27 8cbd 06a8 053d
000000f0: c079 49bc 1aef a1bd 418d a6bc ba24 87bd
00000100: fada 90bd 2b87 2f3b a1ca a6bd 75c9 b83c
00000110: 93e8 cebd dfd4 38bd 1391 15bd cb85 3ebd
00000120: bf1e 9bbd db92 d3bd 8b72 353d a053 98bd
00000130: 2c9b f63a 224f dcbb edf3 9ebd 515e edbc
00000140: f362 45bd 05b9 6c3d 1d8c bdbd f53f 6abd
00000150: dc0a bfbd 6ceb b0bd 0e7d 813d 48a0 a83c
00000160: f201 1cbd 33bb 2c3d bc59 5a3d cfa3 abbc
00000170: 2761 9dbb 719a f0bc 7e66 59bd effe 483d
00000180: e126 32bd a497 4e3c 8c6b 60bd 68a9 323d
00000190: 2c4e 3e3d efac 24bd fd81 b4bc 6fb4 9bbc
000001a0: 8528 b5bd 7c6b 18bb 954e ec3c 595a b53d
000001b0: fa6f 85bc 3df9 343d e924 423d 7309 483d
000001c0: b330 edbc 2210 073d 01cc 0bbd 7b32 0bbd
000001d0: 7bd5 303d 90f5 a5bd 4ad7 98bd 8f16 6bbd
000001e0: d9b4 cabc e63c 4abd 6ad0 41bd 4ede 44bd
000001f0: 9d6f 903d d763 543d 66d1 10bd 34e7 d13c
00000200: 1ed0 dfbc 39de 6abd 30b3 52bc 964b 893d
00000210: eec0 173d 7fcf 66bd 8570 1dbd 2e85 91bc
00000220: cab5 413c 4c06 88bc a946 443a 4f6a 983c
00000230: 4066 b3bd aaf1 3d3c 637a c1bb a3f3 33bc
00000240: ebe9 843d f2dc de3b 39e1 5ebd 2e22 383d
00000250: f8e6 7cbd 88ec 703d 1de9 52bd 37cd 70bc
00000260: 968c 1d3d b87b c5bd ff74 863d 0251 51bd
00000270: 66b7 e1bb 141d 1f3b ad70 eabc 952a 503d
00000280: 5b90 97bd 2bcb 933d 1eef 62bd 9121 653d
00000290: b507 52bd 5809 5c3d f53e 4abc 3b08 9bbc
000002a0: aad0 a4bb 1b33 35bd 87e5 05bd 5f8e da3c
000002b0: 2bee 553d 0c9e 6bbc 4024 2fbd a510 35bd
000002c0: 196f c1bb d550 afbd eac3 513d af03 c5bc
000002d0: db91 54bd fc16 a03d 33a4 a8bd 8b6e 69bd
000002e0: edf8 a8bd ced7 63bd 9470 143c 3db8 2e3d
000002f0: 6083 0e3c 573d b5bc a896 7ebd dd3b 013d
00000300: 622b 9fbc 95f4 203c d042 523d 37f9 c3bc
00000310: 6f09 7a3c 65c8 a5bd ab55 a4bd 13d4 5ebd
00000320: b81d 88bd 682c 58bc 55ad 46bd df6f 883d
00000330: 3827 d03c 9bae 91bd 1b12 64bc dfa8 aa3d
00000340: b19d 193d 6a6c 253c e142 183d 4af4 3f3d
00000350: 99f6 c7bd 33d1 d93c 1c77 87bd d042 09bd
00000360: c292 dc3c c021 e6ba 4feb 603d 2f3b 40bc
00000370: 5050 aa3c d7a1 2fbd 4a4d 11bd e55d 86bc
00000380: 2d13 083d fa27 023c c209 9abd d6cd 3a3d
00000390: 5d5f 843c c543 bc3c de30 57bb 566f 553d
000003a0: 9aca 923d e624 8abd 7b65 443d ab69 4d3d
000003b0: 11a8 343d 3fde 613d 85fc 95bd 33fe 36bd
000003c0: 3f92 8fbc 169a 933c cffc 53bd 69d6 fdbc
000003d0: 822d ce3c 5309 863d b24a 16bd c53b a6bd
000003e0: 13e8 4a3d 934a 353d ca4a 6fbd 06a0 edbc
000003f0: 1024 343d 6a4b cbbd 30fd acbd c4dd 003c
-0.015381619 0.01980341 0.0034347528 -0.07226866 -0.015141828 -0.07365194 0.06353497 0.017548574
-0.02118355 -0.026752498 -0.08328154 0.005726588 0.06340828 0.04957796 0.0018386414 -0.06464398
0.059152648 -0.060957894 -0.03720021 0.01378557 0.03835805 0.054414045 -0.03214867 0.031414244
-0.07550494 0.05378575 -0.05939124 0.028662972 0.05646635 -0.019250581 -0.047401432 -0.058057297
-0.0231837 -0.032883275 -0.017888386 0.034510244 -0.07529027 -0.05455787 0.05754529 -0.024540637
-0.033283234 -0.061827596 -0.05834463 0.034222078 0.04266469 0.027526569 0.024247486 -0.08373341
0.00039295657 0.0071950112 0.04219901 -0.031656552 0.011746508 0.042467035 -0.012264222 -0.026801283
-0.081187494 0.060073238 -0.068434216 0.032630943 -0.012297094 -0.07906933 -0.020331027 -0.06598802
-0.070730165 0.0026783447 -0.08144117 0.022557 -0.10102954 -0.045124885 -0.036515307 -0.046514314
-0.07574224 -0.10330745 0.04429869 -0.07437825 0.0018814555 -0.0067233006 -0.07761369 -0.028975638
-0.04819007 0.057793636 -0.0925524 -0.0571899 -0.09328243 -0.08638653 0.063226804 0.02058424
-0.038087793 0.042170715 0.053308234 -0.020952133 -0.004802841 -0.029370518 -0.05307626 0.04907125
-0.04349411 0.012609396 -0.054790065 0.04361859 0.04646127 -0.040203985 -0.02203464 -0.019006936
-0.08845619 -0.0023257425 0.028846065 0.08855123 -0.016288746 0.044183005 0.04739848 0.048837136
-0.028953886 0.03297437 -0.0341301 -0.03398369 0.04317234 -0.08103478 -0.07462938 -0.05739456
-0.024744438 -0.049374484 -0.0473179 -0.04806357 0.070525385 0.051853027 -0.035355948 0.025622942
-0.027320918 -0.057340834 -0.012860104 0.0670387 0.037049226 -0.056350227 -0.038437385 -0.0177637
0.011823127 -0.016604565 0.0007487336 0.01860538 -0.08759737 0.011593262 -0.005904482 -0.0109833805
0.06489929 0.006801241 -0.054414008 0.04495447 -0.061743706 0.058819324 -0.051491845 -0.0146973645
0.03846415 -0.09642738 0.06565284 -0.051102646 -0.006888318 0.0024278807 -0.028618181 0.05082186
-0.074005805 0.072164856 -0.05540382 0.055940215 -0.05127688 0.05371985 -0.012344112 -0.018924823
-0.0050297575 -0.04423819 -0.032689597 0.026679216 0.052229088 -0.014380943 -0.04275918 -0.044205327
-0.0059031365 -0.08560339 0.05121223 -0.024049608 -0.05189691 0.07816884 -0.082344435 -0.056990188
-0.08250604 -0.05562573 0.009060044 0.042656172 0.008698314 -0.022123976 -0.062155396 0.03155123
-0.019429866 0.009823938 0.05133325 -0.023922546 0.015261038 -0.08094863 -0.08024152 -0.05440147
-0.066462934 -0.013194181 -0.048505146 0.06661963 0.025409326 -0.071133815 -0.013920332 0.08332991
0.037503902 0.010096649 0.037173156 0.04686383 -0.09763832 0.026589012 -0.06614515 -0.033510983
0.026925448 -0.0017557666 0.054911908 -0.0117328605 0.02079025 -0.042878952 -0.0354741 -0.016402194
0.033221412 0.0079441015 -0.075213924 0.045606457 0.016158754 0.022981534 -0.0032835524 0.05210813
0.071675494 -0.06745319 0.04794834 0.0501496 0.044105593 0.05514359 -0.07323555 -0.044676017
-0.01752579 0.01801781 -0.05175477 -0.030986028 0.025168184 0.06544747 -0.03669233 -0.08116869
0.04953773 0.044260573 -0.058420934 -0.02900697 0.043979704 -0.099264935 -0.08446729 0.007865373

conv.3.bias f4 [32]
00000000: 84a4 493d aebe 45bd 4705 223d 357c 99bd
00000010: 6879 96bd 54f4 0b3d 78d5 d6bd 1b2f ed3b
00000020: 3a40 34bd f704 993d d6a8 1f3d d796 35bc
00000030: 1aad b5bd 568c 02bd 77e8 893d 520c 0d3d
00000040: 1253 b9bd 9b72 44bb 5b6a 4f3c 7cf7 b6bd
00000050: 3761 a2bd b6c8 f3bd b4f4 4c3d a8a7 40bd
00000060: 44f1 d5bd 18d9 0ebd 72af 6f3d 6f27 53bd
00000070: 5adb b83c a6be cc3c b8d2 a3bc 1b90 2ebd
0.04922916 -0.04827755 0.039555814 -0.07494394 -0.07347375 0.034168556 -0.10489935 0.0072382814
-0.044006564 0.0747165 0.038979374 -0.011083326 -0.08870907 -0.031872116 0.06733792 0.034435578
-0.090490475 -0.0029975537 0.012659634 -0.08933923 -0.079286985 -0.11903517 0.050038055 -0.04703489
-0.104464084 -0.034875005 0.058516927 -0.05155128 0.022565532 0.024993252 -0.01999794 -0.0426179

fc.0.weight f4 [128, 128]
00000000: 1295 693d 0d3b 5cbc 64ac a3bc dc16 ae3c
00000010: 574d 94bd 082c c4bd 0888 dcbd 446e 79bd
00000020: e02c 073d 803e 84bb b5f2 163d e54a a6bd
00000030: f498 5bbd c35c 9f3d 40df 9abd d73a 853d
00000040: 000b 8239 fe11 e2bc 7a9e 3abd 520f a7bd
00000050: b6ef 19bd 39ce 73bc 8d41 813c cefa 85bc
00000060: bcb8 123d 8e56 063d cc3d fd3c 86bf 543d
00000070: 2fed d0bd f5a6 86bd 1b68 96bd 88ea 9dbd
00000080: a3a5 03bd ceea 3dbd fff9 833d a03c cfbb
00000090: 468d 663d 028f 213d 001b 37ba 0ddf b43d
000000a0: b82f a5bb f658 53bd f83e b8bc c54a 39bd
000000b0: f875 c7bd 6634 bc3c 3dcf 58bc 5607 e7bc
000000c0: e044 7d3b 9423 153d 2485 b3bd 9400 973c
000000d0: 38f3 91bd 20b5 743b 6ce7 df3c 9e81 62bd
000000e0: 2cb5 6b3c 95fc 6ebd 5dbb 52bd c5af 80bd
000000f0: 53d2 c7bd 1ca0 39bd 1f4c 7fbd 05eb 813d
00000100: d5dd a2bd 8ff5 3e3d 98c9 093d c502 51bd
00000110: 88eb 2abd 5dcd 923c ea41 563d 02c7 b23c
00000120: 1d8a b5ba 5092 3f3d d672 18bd 768c 11bd
00000130: 4ca5 fb3c d972 b4bd 4fd2 07bd a9d3 7cbd
00000140: b05b 913b bcea 203d 946f 07bd bf79 d2bc
00000150: 9274 073d c8f4 cdbc 0040 72bd 40c4 d1bc
00000160: 4c8a 95bd ac54 8ebd 8aee 2cbc 4f19 c7bd
00000170: 29f2 6cbd 6002 20bd 1b3c 843d 9b9b 46bd
00000180: f6bb 8dbd c431 6dbd bd73 983d 539e 9f3d
00000190: 406a c2bd 9c46 96bd 0c11 acbd e905 343c
000001a0: 9192 88bd dcc8 5dbc c2a6 17bc d569 a8bd
000001b0: 5b34 863d 9407 8fbd e082 1bbd 2a82 5fbd
000001c0: 37df a4bb eb8c 143d 0960 973d 64f9 28bc
000001d0: 9505 d5bd 4c32 95bd c441 753a cc4d c6bb
000001e0: 4b11 893d 7fac 9f3d 6484 81bd 9c6d bdbc
000001f0: 4826 b2bc 2527 c7bd 1778 9dbd 87ee 5b3d
00000200: a315 9abd 10c6 f93b 8d3e a0bd c0bd 9c3b
00000210: d270 a73d 8081 443d c34c 2fbd 3d0a 8dbd
00000220: 11ac 8e3d 1c7b a8bd 7709 83bd 518a 803d
00000230: 07fd 9bbd e4b5 86bc db2d 8dbd ba6e e4bc
00000240: d67d a83d 6665 753d f63c 86b9 2aa0 b3bd
00000250: 54aa 18bd 28ef 99bd 4130 a8bd 0858 47bd
00000260: bffb 1fbd e1a5 36bd d077 223c c4af 9bbd
00000270: c872 b4bd f829 69bc c9cb 993d f9fb 773d
00000280: 4a0f 073d def9 3e3d 267d 743d 5eef 0dbd
00000290: 1e18 7dbd 9e2a 06bd 95f6 1ebd 43d5 8f3d
000002a0: 86c3 a13d ba52 98bd 0c1b f7bb 6d40 de3b
000002b0: 9d24 36bd b9bb 9b3d c4aa 313d 7049 993b
000002c0: a2b5 0cbd 13d7 abbd 5efe bb3c 92af 99bd
000002d0: 0a9c fabc 9838 b6bb db82 aa3c 80e2 9cba
000002e0: 4ded a7bd 9cbc 84bd 5947 52bd deda 813d
000002f0: 780c 803b f480 bbbc f899 bf3c 6633 343d
00000300: 7afd 173d 61ed c03a bfde 893d 00f8 103a
00000310: 52cc 8a3d 1148 94bd 8096 163c 1f3c 32bd
00000320: 162f e9bd fd60 48bd 0f66 a6bd a81e 923d
00000330: 84da aabc c8f1 483d 0d28 463d 6021 42bd
00000340: 9920 5abd a7b9 45bd 9ee3 5f3d fd80 b13d
00000350: a058 12bb dfff abbd 3f32 9dbc 409c f93a
00000360: 29a9 79bd 748d 863c 769a 4b3d 5252 073d
00000370: 7cb8 9c3c f6b9 85bd 000b e8bb 98bb 703c
00000380: e827 3f3c a56c a3bd 4006 093c 2820 f23c
00000390: 4719 473d a4e5 5ebd d254 6ebd 2c17 03bd
000003a0: 8d21 bcbd 8087 37bd 5416 a53c 1e6d 11bd
000003b0: 42d8 4fbd a87d e1bc d322 46bd 0880 13bd
000003c0: dce8 80bd b56f 18bd 2088 9c3b e0d2 2f3b
000003d0: 8920 043c 0138 813d 77c5 13bd 7c27 89bd
000003e0: 1644 f3bc ee06 ddbc a754 abbd f148 a23d
000003f0: 43ae 2cbd f9df 653d 30cf ff3c 41e5 31bd
0.05702693 -0.013441813 -0.019979663 0.021251135 -0.07241314 -0.09578711 -0.107681334 -0.060896173
0.03300178 -0.004035771 0.036852557 -0.08119754 -0.053612664 0.07781365 -0.07562113 0.065053634
0.00024803728 -0.02759647 -0.04556129 -0.08157219 -0.03758212 -0.01488071 0.015778327 -0.016354945
0.035820708 0.03279739 0.030913256 0.051940463 -0.10201489 -0.06574813 -0.07344075 -0.07710749
-0.032140385 -0.046366505 0.06444167 -0.0063243657 0.056287073 0.039443024 -0.00069849193 0.08831606
-0.005041089 -0.05159851 -0.022490963 -0.04523732 -0.09739298 0.022974204 -0.013233003 -0.02820174
0.003864579 0.036410883 -0.08765629 0.018432893 -0.071264684 0.0037339404 0.02733203 -0.055299394
0.014386456 -0.05834635 -0.051448215 -0.062835254 -0.09756913 -0.045318708 -0.062328454 0.063436545
-0.07952467 0.0466209 0.03363952 -0.05102803 -0.041728526 0.01792019 0.052308954 0.02182341
-0.0013850365 0.046770394 -0.03721889 -0.035534345 0.030718468 -0.08810968 -0.03315955 -0.061725292
0.004435979 0.03928636 -0.033065394 -0.025692819 0.033070154 -0.025141135 -0.059143066 -0.025606275
-0.07301769 -0.06949744 -0.010554919 -0.09721624 -0.05784813 -0.039064765 0.06456777 -0.04848824
-0.06920616 -0.05790879 0.0744395 0.0779387 -0.09492922 -0.073376864 -0.08401689 0.010987737
-0.0666858 -0.013536658 -0.009256067 -0.08223311 0.06552955 -0.06983867 -0.03796661 -0.054567493
-0.005031492 0.036267202 0.07391364 -0.010313366 -0.10401455 -0.07284984 0.0009355808 -0.0060517546
0.066927515 0.07796573 -0.0632408 -0.023123555 -0.02174677 -0.09724263 -0.07688921 0.053694274
-0.07523658 0.007622488 -0.078244306 0.004783362 0.08175816 0.047975063 -0.042797815 -0.068867184
0.06966413 -0.08226606 -0.0639829 0.06276382 -0.076166205 -0.016444154 -0.06893512 -0.02788483
0.08227126 0.059911154 -0.0002560389 -0.08770783 -0.037271813 -0.075163186 -0.08212329 -0.048667938
-0.039058443 -0.04459179 0.009916261 -0.07601884 -0.08810955 -0.014231198 0.07509572 0.060543034
0.032973565 0.04662501 0.059689663 -0.034652106 -0.061790578 -0.032755487 -0.038809378 0.07023098
0.07898621 -0.07437654 -0.007541066 0.0067825825 -0.04446851 0.07604165 0.043375745 0.004677944
-0.034352906 -0.083906315 0.02294844 -0.075041905 -0.030591983 -0.0055609457 0.02081435 -0.0011969358
-0.081995584 -0.06481287 -0.051337574 0.06340574 0.0039077364 -0.022888638 0.023388848 0.04399433
0.03710697 0.0014719182 0.067319386 0.0005530119 0.06777252 -0.07240308 0.009191155 -0.043514367
-0.11385934 -0.04892062 -0.08124935 0.071347535 -0.02085615 0.049058706 0.04837804 -0.04739511
-0.053253744 -0.048272755 0.054660432 0.08667181 -0.0022330657 -0.08398413 -0.019188998 0.0019043759
-0.06095234 0.016424872 0.049707852 0.03303749 0.019130938 -0.0652961 -0.0070813894 0.014693163
0.011667229 -0.07979707 0.0083633065 0.029556349 0.04860809 -0.05441822 -0.05818636 -0.03200452
-0.09186087 -0.044806957 0.020152248 -0.035504453 -0.05074335 -0.027525738 -0.048373055 -0.036010772
-0.062944144 -0.037215907 0.0047769696 0.0026828572 0.008064398 0.0630951 -0.03607699 -0.06696984
-0.029695552 -0.026980843 -0.083657555 0.07924069 -0.042158376 0.0561218 0.031226724 -0.043431524

fc.0.bias f4 [128]
00000000: 882c a7bd 0bd0 35bd 3ae7 dc3c 4f05 f0bc
00000010: 7666 fb3c 2371 3d3c e7f3 4abd e206 a2bd
00000020: 4021 cf3c 5490 77bc 4aa8 efbc f23a 643d
00000030: 6518 c8bc ee3c c2bd a23b a73b 4ab1 2ebc
00000040: b6ed 85bd e87e 2cbc 2152 673b 2842 8abd
00000050: f108 8abd 10e1 99bd 16ac 99bd 6c73 c9bd
00000060: 4c86 e4ba d582 43bd 36ec b6bc 0a08 c2bd
00000070: ee51 42bc 61c9 ee3c 9d6c adbd da00 393d
00000080: 11a8 5abd 8005 233c 86c5 0abd 7976 c2bd
00000090: 3736 5abd 3a82 a7bd 2c25 613d ee80 9bbd
000000a0: 0fc3 2ebd 16ee ea3c 38a2 3fbd a6cc 5dbd
000000b0: 13dc 93ba 97de 993c 4b4e 0dbc 34fa 9b3d
000000c0: 53df 9cbd ac2f 37bd 3eba babd c7ad 54bb
000000d0: f793 d3bd 3a7e 1dbc 4ef2 e03b 639d 5e3c
000000e0: c0ad 63bd 8429 afbd 3990 cb3c 84d6 3c3d
000000f0: a3c4 a6bd b854 a4bd b836 bebd 7982 85bd
00000100: 0993 65bd 4517 183c 45d1 c6bd b88f 00bd
00000110: 1e16 c2bd 7916 383d 9198 df38 99d8 dcbc
00000120: 1834 abbd b08f fcbd 94ed 65bd b51e cb3c
00000130: 2e05 62bd 58de aebc 6fe1 a43d 6def 1a3c
00000140: d7c9 b9bd 0c59 7abc 7268 82bd 60a3 8fbb
00000150: 17de 12bc ba20 66bd 9b01 8bbd 418a 95bd
00000160: 40ad 38bb 5953 243d ab15 dcbd 247a 28bd
00000170: ab42 92bd ed81 93bd c79d abbc e95d 69bd
00000180: b8fb 64bd 6496 83bd 14e4 76bd 2762 f23c
00000190: 60c8 c9bd d4cc e0bc f58e 28bd 454e 2a3c
000001a0: 0a59 4ebd 7a9a 3cbd b17c 183c 3615 05bd
000001b0: 454f debd f1cb 5ebd cb48 913b 6e96 eaba
000001c0: 59c3 323c 674c 953c bcff b1bd 2b89 043d
000001d0: 675f b63c e0ec 023c ce85 81bd 83a6 fdbc
000001e0: 2d74 973c 4931 94bb 6b07 a7bd 0f66 41bd
000001f0: 7baa 673d a22c be3d 7aa6 0bbd 819b 21bd
-0.081627905 -0.04438786 0.026965726 -0.029299406 0.030688506 0.011562618 -0.04954901 -0.07911469
0.02528441 -0.015110094 -0.029255051 0.055720277 -0.024425695 -0.09484278 0.0051035443 -0.010662386
-0.065394804 -0.010528304 0.0035296755 -0.067508996 -0.06739987 -0.075136304 -0.07503526 -0.09836468
-0.0017435043 -0.047732193 -0.022329431 -0.094741896 -0.011860354 0.02914876 -0.08467982 0.045166828
-0.053382937 0.009950042 -0.03387978 -0.09495253 -0.05327436 -0.081791356 0.05496709 -0.07592951
-0.04266649 0.028677981 -0.046785563 -0.054150246 -0.0011280797 0.018782897 -0.0086246235 0.07616082
-0.07659783 -0.044723198 -0.09117554 -0.0032452212 -0.103309564 -0.009612614 0.0068648225 0.013587329
-0.055585623 -0.0855284 0.024849044 0.046103016 -0.08142974 -0.08023971 -0.092877805 -0.06519026
-0.056048427 0.009282892 -0.09707884 -0.03138706 -0.09476875 0.044943307 0.00010661886 -0.02695875
-0.083595455 -0.12332094 -0.056134775 0.024794916 -0.05518072 -0.021346256 0.080508105 0.009456498
-0.09071701 -0.0152800195 -0.063675776 -0.0043834895 -0.008964083 -0.056183554 -0.067874156 -0.073017605
-0.0028179437 0.04011855 -0.1074632 -0.041132107 -0.07141622 -0.07202516 -0.020949258 -0.056974325
-0.05590412 -0.06425169 -0.060276106 0.029587818 -0.098526716 -0.02744142 -0.04115196 0.0103946375
-0.050377883 -0.046045758 0.0093070725 -0.03249093 -0.10854963 -0.054393712 0.0044337264 -0.0017897615
0.010910832 0.018224908 -0.086913556 0.032357376 0.022262288 0.007991046 -0.06324349 -0.030963188
0.018488014 -0.004522477 -0.08155712 -0.04721647 0.056559067 0.09285857 -0.03409431 -0.03945494

fc.2.weight f4 [64, 128]
00000000: 5b7d e03c d5e4 033d d51a cebc a432 aabc
00000010: e6bb 8bbd f4aa 813d 5ea5 813d a8d4 9ebb
00000020: 4976 743d cee6 02bd 4ecd 063d a378 21bd
00000030: afe6 ce3c 42f7 14bb 18d2 cb3b 3e3d cc3c
00000040: c2c6 b43b ef21 6d3c 7c64 473d 14cd a43b
00000050: 44f9 15bb f0af d33c ff5a 72bc 9f8d 31bd
00000060: 99cb 3f3d 79e1 34bc 7291 213d 7504 edbc
00000070: 9861 10bc 3cf2 c03d 3dc2 04bd 2333 8abd
00000080: a35a be3d 7a0b 2dbd d468 32bd 2a0a fcbc
00000090: 546f 2f3d a97c 98bd c7ae 4e3d 2ded 61bb
000000a0: 47b3 6d3d 2de2 16bd 4c39 61bd d3c9 ff3a
000000b0: aec0 1c3d d469 83bc 48ba ae3d 7910 e03c
000000c0: 117d 863d 739b 893d 1617 03bd 7d6d 07bd
000000d0: cf03 9039 a1d5 4abd 40a0 a73d 32f9 613d
000000e0: 90b6 2ebc fe64 8ebb df7e 9f3d 358d 883c
000000f0: 20b9 473d d0fb 89bd 4447 c03c 0365 a23d
00000100: 1e49 a5bd 3041 6bbd 3501 643d 8be0 863d
00000110: 4ac6 2fbd f8ce 80bd 1cb1 d4bc 92fd 9fbd
00000120: c78d 123c 96e4 e23c bbd3 a33b fb82 80bd
00000130: 82bf debc 6a2f d63c c67e 883d ff9d b6bd
00000140: 6b4a a1bd 6ae9 93bd 55d7 88bd 7702 323d
00000150: 909f 88bd 1e5b 703d abec c2bb 637d e9bc
00000160: ff0d 3f3d 0c55 48bd 7786 5d3c 86b4 993d
00000170: 1cf4 a23d 32e3 653b 9c30 af3b ad1a 60bc
00000180: 9906 843d 0e81 f73c 9bd1 5d3d a587 52bd
00000190: 5b5e 42bd b44a b0bd 973f e43c fac8 b5bb
000001a0: aa18 313c 0372 54bd 5e83 43bc 220c adba
000001b0: f918 1bbd 688f 3ebd c67d ac3c 28c1 8ebd
000001c0: 068c 65bd 2a53 b43d e44a e7bd 2b29 82bd
000001d0: 6aa1 153d 2d63 a7bc fa06 10bd cde2 79bd
000001e0: 3dc0 3e3d d77d 993d db76 ffbc 0a73 da3a
000001f0: 522a 9fbd a273 123c 910f 943c 4d37 3f3d
00000200: 1ba8 b33d 0080 a2bb 1391 e5bc 0842 e2bc
00000210: acb3 6bbd 4df2 a43d 8bf3 35bc da54 6f3d
00000220: ce3c 723d 8ce6 cebb f06f 323c f312 90bc
00000230: 2728 6bbd 2289 abbd 3fb9 393d 6e37 613d
00000240: e139 96bd 6010 4fbb 726b 413d da6a 6ebd
00000250: bfa2 a03d dc0d dd3c 9366 65bd b7f9 cdbc
00000260: 0b14 323d 8246 523d 9c7c 063d 89e3 a9bd
00000270: 035e 4e3d ea6a 8abd bbd8 9b3b 70ad 6e3c
00000280: 500c 55bd 2235 1a3d 4cc1 b93d c095 37bc
00000290: 6378 0d3d c186 923d 17d2 77bb fcf3 f73c
000002a0: 1ada 8cbd 5077 ffbb e14f 8bbd 24ed d93c
000002b0: 209a c3bb fbb6 50bd b51b a0bd 8865 abbd
000002c0: 40f9 f9bb 6dd3 993d 02d8 25bd 507d 1e3c
000002d0: 5d99 1dbd 703a de3b aae4 0e3d a6e8 713d
000002e0: 6c52 99bd 00a9 523a ec8c c23c daa3 efbc
000002f0: 03a9 43bd 6807 61bc 917c afbd a481 87bd
00000300: 3b2b 6ebd 9f7f 803d c8be fe3b 17e6 5b3d
00000310: e787 b3bd ccd9 c73c fdcd f7bc abb7 a23d
00000320: 4199 24bd 60af 973b ee94 8fbd 942e 113d
00000330: fc58 c7bc 7cfc f23c 0d33 8b3d 2bbf 5cbd
00000340: 9471 5f3d 814a db3c eaf2 743d 4cf5 c93a
00000350: 3ba5 b43c 2dd6 45bb 80e2 86bb 4886 acbd
00000360: c3c6 a4bd d8f9 96bc 5726 8a3d 3a92 88bd
00000370: e323 b33d d0b7 c03b 969c 53bd cd85 8c3d
00000380: f8b4 b2bd 071c 1cbd 6545 723d 16f4 11bd
00000390: 2e65 493d 1833 c1bc 12c9 57bd c647 c3bb
000003a0: b2f9 e7bc 3fd3 923d 6088 a7bd 4812 5cbc
000003b0: 3a34 a9bd e8fb 09bc 72d2 b2bd 9018 0ebc
000003c0: 16d3 113d 4497 24bd d022 e73b b0ec b7bd
000003d0: 5f55 4f3d f1b8 28bd ba6a 263d 2e5e 303d
000003e0: a25c 9dbd 4486 95bd 0bd1 73bd 64f2 7abd
000003f0: f269 a1bd 7a25 573d b3c8 13bd b032 0c3d
0.027403524 0.032200653 -0.025159279 -0.0207761 -0.06822948 0.06331435 0.063303694 -0.004847128
0.059683118 -0.031958394 0.032910638 -0.03942169 0.025256483 -0.0022730385 0.0062201135 0.024931546
0.005516858 0.014473422 0.048679814 0.00502933 -0.002288417 0.02584073 -0.014792203 -0.04334795
0.046825025 -0.011040085 0.039445348 -0.02893279 -0.008812331 0.094212025 -0.032411803 -0.06748035
0.09294631 -0.042247273 -0.043557003 -0.030766565 0.04283078 -0.07445652 0.05045965 -0.0034473643
0.0580323 -0.03683679 -0.054986283 0.0019515104 0.03826969 -0.016041674 0.08531624 0.027351605
0.06566823 0.06719103 -0.03200444 -0.0330634 0.00027468658 -0.04952014 0.08184862 0.05516929
-0.0106636435 -0.0043455353 0.077878706 0.016668895 0.048760533 -0.067374825 0.023471482 0.07929423
-0.080705866 -0.057435215 0.055665214 0.06585797 -0.042913713 -0.06289476 -0.025963359 -0.078120366
0.008944935 0.027696889 0.0049996055 -0.062749825 -0.027190927 0.026145656 0.06664805 -0.08916854
-0.07875522 -0.072222546 -0.06681696 0.043459382 -0.06671059 0.058680646 -0.005948623 -0.028502172
0.046644207 -0.048909232 0.013520828 0.07505135 0.079567164 0.0035078046 0.005346371 -0.013678235
0.06446571 0.030212905 0.054154973 -0.051398892 -0.047453266 -0.086079985 0.027862353 -0.00554764
0.010809103 -0.051866543 -0.011933176 -0.0013202468 -0.037865613 -0.04652348 0.021056067 -0.069704354
-0.05604174 0.08804925 -0.11293581 -0.063555084 0.03653089 -0.020433033 -0.035162903 -0.06100731
0.04657005 0.07494705 -0.031184604 0.0016666364 -0.07771744 0.008938702 0.018073829 0.0466836
0.08772298 -0.0049591064 -0.028023278 -0.027619377 -0.057544395 0.08054028 -0.011105428 0.05843053
0.05914002 -0.0063141044 0.010890946 -0.01758716 -0.05741134 -0.083757654 0.04534268 0.054984502
-0.07335258 -0.0031595454 0.04722161 -0.05820737 0.07843541 0.026984148 -0.056006026 -0.025143487
0.043476146 0.051336773 0.03283368 -0.08295352 0.050382625 -0.067586735 0.004756061 0.014567718
-0.052013695 0.037648328 0.090700716 -0.011205137 0.034538638 0.071546085 -0.0037814432 0.030267708
-0.06877537 -0.0077962056 -0.06802345 0.026602335 -0.005969301 -0.050955754 -0.07817785 -0.08368975
-0.00762859 0.075110294 -0.040489204 0.0096734315 -0.038476337 0.0067818686 0.03488604 0.05905976
-0.07486424 0.0008036047 0.023748837 -0.029252935 -0.047768604 -0.013734676 -0.08568681 -0.06616524
-0.058146697 0.06274342 0.0077742077 0.053686228 -0.08766156 0.024395846 -0.03024959 0.07945188
-0.040185217 0.0046290606 -0.07010828 0.03544481 -0.024334423 0.02966141 0.067968465 -0.05389325
0.054551676 0.026768925 0.059801973 0.0015408187 0.022051444 -0.0030187473 -0.0041163564 -0.084240496
-0.08045723 -0.018429682 0.06745594 -0.066685155 0.08747079 0.005881287 -0.051663004 0.06861458
-0.08725923 -0.038112666 0.05914821 -0.03563317 0.049168758 -0.023583934 -0.05268199 -0.005959484
-0.028317306 0.07169198 -0.08180308 -0.013432093 -0.082619146 -0.008421876 -0.087315455 -0.008672848
0.035601698 -0.04018332 0.0070537105 -0.089806914 0.050618526 -0.041192 0.040629126 0.043058567
-0.07683684 -0.07301 -0.05952553 -0.061266318 -0.078815356 0.052525975 -0.036080074 0.034228027

fc.2.bias f4 [64]
00000000: 178b d93d 2a6c b6bd d9ac a5bd 86df ed3d
00000010: 953b 103c a94f 07bd e315 87bb 0926 793d
00000020: 0512 9fbd e109 2b3d aea1 e23d 7a3d 00bd
00000030: 13b0 883d 2610 a3bd 34c4 64bc 92d8 dcbc
00000040: b39a 1b3e 69b6 343b 080d 8c3c 7a6f f3bc
00000050: 4dc2 a1bc 208a 8cbc 318b 87bd 1aa9 5fbd
00000060: bbef 0d3e 737e 9dbc dfe0 35bc 1b56 553c
00000070: bce3 94bc 3c45 84bd b244 813d 35ba ffbc
00000080: 8dc3 e73d e9b3 1c3e 048e 01bc de15 e53c
00000090: b623 84bc 929f 2c3e cfae a7bc 2087 143e
000000a0: 8c72 9fbb 428d a7bd 6775 acbd 4f44 38bd
000000b0: 1b7b 84bd 3755 8fbc 0cab c7bc 0c27 983b
000000c0: 5870 0a3e 3adf 76bd de39 593d a2d6 0f3e
000000d0: 8307 26bd 0bc1 3cbc 2c2d 4bbd da37 febc
000000e0: 3ae4 85bd 5d85 0d3b aa46 7abc 0885 923d
000000f0: ade2 34bd ffba b13d 5376 973a ad19 d5bc
0.106222324 -0.089073494 -0.08089609 0.11614899 0.008803268 -0.033034954 -0.004122482 0.06082729
-0.07767109 0.041757468 0.11065994 -0.03130863 0.066742085 -0.079620644 -0.013962794 -0.026958738
0.15195732 0.0027574545 0.017096058 -0.029716242 -0.01974597 -0.017155707 -0.066183455 -0.054604627
0.13860981 -0.019225335 -0.011100977 0.013021017 -0.018174998 -0.06458518 0.06311931 -0.03121672
0.11316595 0.15303005 -0.007907394 0.027964529 -0.01613031 0.16857746 -0.020469097 0.14504671
-0.00486595 -0.0818124 -0.0842083 -0.04498702 -0.06468793 -0.017496688 -0.024373554 0.0046433266
0.13519418 -0.06027148 0.053033702 0.1404672 -0.040534507 -0.011520634 -0.049603626 -0.031032491
-0.065376714 0.0021594383 -0.015275637 0.0715428 -0.044161487 0.08678245 0.0011555649 -0.02601322

fc.4.weight f4 [1, 64]
00000000: 07a0 f03d c34a 743d a4f2 353d c355 b63d
00000010: 4e1c e43c 5ea2 f2bc eeb8 0abd 0d9b 1d3d
00000020: 8b5b 823c f4e2 853c dd1c a73d 71b1 bdbc
00000030: af30 0b3d 8df8 2ebe 6ea6 8abd ea6c 0fbd
00000040: 862a 9d3d a88c 48bd 6ba0 2e3d c125 74bd
00000050: 0e4a d1bd 5b45 c0bd 4bf5 3dbc f29d 0e3c
00000060: 6f90 d73d 9195 cfbd c7a8 b5bd 3b93 1dbb
00000070: 53de 533d 88b9 a5bd a835 603d 179a d7bd
00000080: 70ac af3d fc60 0a3e 3c05 b9bd 763f 863c
00000090: b96e 63bc 1706 1a3e 25a1 7dbc 9491 ad3d
000000a0: 5a69 84bd e4e4 bcbd 0702 c63d f8fe 38bd
000000b0: 3851 9cbc d908 abbd 7c6a e0bd 939f 803b
000000c0: bcfe 9b3d 8951 85b9 af64 913d fff2 e13d
000000d0: 7d86 dcbd 2d32 0abd 22cb debb 2847 6abb
000000e0: 9927 84bc bae9 a4bd 4f25 8e3c fdbd a53d
000000f0: b367 babc 3d97 273d a652 f4bc f5c5 9b3d
0.11749273 0.05964161 0.044420853 0.089030765 0.027845528 -0.029618438 -0.03386777 0.038477946
0.015912792 0.016343571 0.08159802 -0.0231559 0.033981975 -0.17087002 -0.06770025 -0.035015978
0.07674126 -0.048962265 0.042633455 -0.059606317 -0.10219203 -0.093882285 -0.011594127 0.008704649
0.105255954 -0.101359494 -0.08870082 -0.0024044055 0.051725697 -0.08092028 0.05473867 -0.10527437
0.08577812 0.13513559 -0.090342015 0.016387682 -0.013881379 0.15041386 -0.015480314 0.084750324
-0.06465407 -0.09223345 0.096683554 -0.045165032 -0.019081697 -0.08351297 -0.1095781 0.0039252727
0.07616946 -0.00025428485 0.07099282 0.11032676 -0.10767839 -0.033739258 -0.0067991177 -0.003574798
-0.016132163 -0.08052392 0.017351774 0.08092878 -0.022754526 0.040915716 -0.029824566 0.07606117

exp_avg f4 [16, 2, 3, 3]
00000000: 2abb 5a35 b1df f235 dfd5 3136 d007 02b4
00000010: b9bd 2437 9731 9b36 a70d 8b36 e8b3 cf35
00000020: 4c32 13b6 9185 d9b3 3f59 a6b4 d502 99b4
00000030: 796e d0b4 ab06 25b5 28ad 1eb5 5947 a6b4
00000040: 4ed0 12b5 e47c 1db5 70fb 03b6 b5be 1fb6
00000050: 21ad 47b6 fabd 66b6 60f0 4cb6 4c02 31b6
00000060: ea21 a7b6 cb1b 89b7 c0a5 0eb6 4ae7 39b5
00000070: ff18 a5b5 3545 8cb5 7f41 a5b4 1606 63b5
00000080: 3b47 2ab5 a4af 28b5 be5c 99b5 2293 74b5
00000090: ff83 a2b6 0518 5eb6 0d14 61b5 aa85 0fb7
000000a0: eda3 53b6 1325 6db7 db9c d6b6 9b28 8bb5
000000b0: ef6f e9b6 554a 1bb5 c808 c2b4 2a77 a1b4
000000c0: a918 64b5 b43e 21b5 86d8 11b5 ce83 44b5
000000d0: 3f64 f7b4 59b1 05b5 222b 3134 486c 9336
000000e0: 5275 5d36 c1d0 4436 b1bb 59b6 0351 06b5
000000f0: 34cb c336 f92f 16b6 dae7 1837 8a1f a835
00000100: e338 9635 2835 8e35 3582 c135 5fbc b035
00000110: f0ac a935 156e 9735 8114 9a35 176c 9f35
00000120: 81c4 11b7 b0d8 dcb6 48c8 a0b5 97f7 cdb5
00000130: 041e cfb6 4eec bcb6 26b3 6635 7bcd 0934
00000140: ebf3 a7b5 2601 d8b4 8287 f5b4 79dc 04b5
00000150: f3c6 cbb3 7a1a 0c34 5b11 9133 f56e 8f33
00000160: b52c 9534 9a92 0634 70bc 4ab6 ca33 dbb4
00000170: 4d71 2d34 391d d2b6 9410 b7b3 ee0d 1eb4
00000180: afb8 4ab6 0608 39b5 73a5 3e34 ac10 beb4
00000190: dd81 b4b3 19b9 cdb3 17a1 ccb4 9cdd d9b3
000001a0: 529e 10b4 4406 b5b4 8429 67b2 e566 e833
000001b0: ffe9 1b37 fac7 a436 39f4 3137 a84c 8037
000001c0: 601c 3b37 7dd3 1737 ea6b 28b5 f1ee 7fb6
000001d0: 75e8 dfb4 a5a8 ce34 5980 2635 854c 6935
000001e0: 7561 c934 69fc 2435 8eba 6135 c0f8 f3b4
000001f0: cee9 7db4 1962 ce32 461f 3837 9c3a 12b5
00000200: ef39 c434 e942 6937 5283 ff36 ef40 1136
00000210: e3f4 3334 1889 ab34 d108 6ab5 2dce 9335
00000220: 7e46 9e35 5cd7 8335 0835 8b35 d609 9535
00000230: 6835 7535 33e7 e733 3143 7034 f316 9034
00000240: 04b5 8236 52b9 26b5 fdb8 e5b5 06ab ceb5
00000250: fc26 2734 d4ca 02b4 935e 76b5 2459 9134
00000260: c7e0 82b6 513b fb32 d29a 2fb4 5dd2 3eb4
00000270: 313b fb32 d19a 2fb4 58d2 3eb4 2276 3834
00000280: 126a 26b3 57e5 8cb3 ad5e be35 bdad a4b5
00000290: 0097 d0b5 8ced f8b5 919f b9b6 27cd 1fb5
000002a0: c703 54b7 7a82 6ab6 f31f cfb6 2738 7db5
000002b0: bb91 adb5 5fed b8b5 375b 82b5 9714 b4b5
000002c0: 43be beb5 6885 8ab5 d4b9 c0b5 efa4 cbb5
000002d0: b73b 6a33 e33e e533 8416 a9b5 8b59 2b36
000002e0: 8dab fc35 7207 ca35 8683 5636 4a2c b035
000002f0: 3714 8936 fced dcb3 94a0 1c34 f87d b431
00000300: 24bc dcb4 f879 88b3 10d6 0ab4 f9d7 e1b4
00000310: 39e9 9cb3 3871 29b4 3b97 0fb5 e47d b033
00000320: 0e34 8e36 9ea8 46b6 6240 a6b3 ea94 0d37
00000330: 772d 4c34 ab05 a0b4 49c9 8935 afef 2134
00000340: 7dc2 9c33 886f 9f34 12ca 78b4 30c8 b2b4
00000350: e13b 4433 6407 16b4 794f 4ab4 9e4a 0734
00000360: 3b40 cab4 5e15 8cb4 d20a ea33 e0e2 a2b6
00000370: b0c7 b9b3 1d10 be32 e78f d2b3 24e6 2733
00000380: abb3 cfb2 a51f ceb4 a51f ceb4 bbb5 74b1
00000390: 88ea 2fb5 88ea 2fb5 f7b8 91b4 e4cd 14b5
000003a0: e5cd 14b5 f8b8 91b4 4ee4 e3b6 239a 1d35
000003b0: c921 09b6 00fd 2fb6 c667 13b7 bc3c f9b5
000003c0: 7dc5 17b7 9809 59b7 f959 44b5 38c9 23b5
000003d0: d12b 3eb5 3d67 55b5 b795 bfb5 3603 cdb5
000003e0: e7ab a5b5 4f9e a4b5 ca0b b2b5 bda1 a0b5
000003f0: 425d 8536 2874 c735 1c56 2335 3f26 afb5
8.148369e-07 1.8095508e-06 2.6499545e-06 -1.2110036e-07 9.819335e-06 4.625133e-06 4.144112e-06 1.5475061e-06
-2.1933984e-06 -1.01291455e-07 -3.0984845e-07 -2.850053e-07 -3.8823399e-07 -6.1476993e-07 -5.911156e-07 -3.0971822e-07
-5.469236e-07 -5.86688e-07 -1.9666877e-06 -2.3803852e-06 -2.9754085e-06 -3.4383252e-06 -3.0538286e-06 -2.6376392e-06
-4.980936e-06 -1.6344615e-05 -2.1256128e-06 -6.925444e-07 -1.2300733e-06 -1.0450955e-06 -3.07813e-07 -8.4572946e-07
-6.343359e-07 -6.284047e-07 -1.142638e-06 -9.111119e-07 -4.8433426e-06 -3.309456e-06 -8.384821e-07 -8.554585e-06
-3.1536867e-06 -1.4134933e-05 -6.3959574e-06 -1.0368125e-06 -6.956972e-06 -5.7850167e-07 -3.6141705e-07 -3.007529e-07
-8.4972504e-07 -6.006842e-07 -5.433179e-07 -7.320749e-07 -4.6080274e-07 -4.9804436e-07 1.6500101e-07 4.393547e-06
3.2999856e-06 2.9327787e-06 -3.244477e-06 -5.003678e-07 5.835109e-06 -2.2379666e-06 9.113888e-06 1.2526154e-06
1.1192427e-06 1.0595295e-06 1.4417516e-06 1.3167845e-06 1.2641813e-06 1.1282415e-06 1.1479862e-06 1.1877881e-06
-8.688426e-06 -6.5817367e-06 -1.1979218e-06 -1.5345748e-06 -6.172575e-06 -5.630346e-06 8.594237e-07 1.2833873e-07
-1.2513459e-06 -4.023397e-07 -4.57334e-07 -4.949466e-07 -9.489113e-08 1.3048148e-07 6.7552456e-08 6.6791394e-08
2.778594e-07 1.2533056e-07 -3.021003e-06 -4.082961e-07 1.6153099e-07 -6.2618897e-06 -8.524617e-08 -1.4719964e-07
-3.0207846e-06 -6.8929546e-07 1.7755319e-07 -3.5402388e-07 -8.405525e-08 -9.5797255e-08 -3.811517e-07 -1.01451604e-07
-1.3468642e-07 -3.3718436e-07 -1.3455409e-08 1.0822058e-07 9.293201e-06 4.910861e-06 1.0606885e-05 1.5294485e-05
1.1152675e-05 9.049542e-06 -6.274191e-07 -3.8137043e-06 -4.1706122e-07 3.8493195e-07 6.202659e-07 8.6910615e-07
3.7510077e-07 6.1462066e-07 8.4090505e-07 -4.5443267e-07 -2.3647519e-07 2.4026166e-08 1.0974536e-05 -5.4474526e-07
3.6549997e-07 1.3903461e-05 7.61488e-06 2.164448e-06 1.6759763e-07 3.195098e-07 -8.718462e-07 1.1012359e-06
1.1792433e-06 9.822938e-07 1.0371741e-06 1.1104228e-06 9.134733e-07 1.07988306e-07 2.2376186e-07 2.6838788e-07
3.895375e-06 -6.2109496e-07 -1.7115668e-06 -1.539797e-06 1.556727e-07 -1.2180982e-07 -9.1779765e-07 2.7073213e-07
-3.9004694e-06 2.924722e-08 -1.6354468e-07 -1.7771659e-07 2.9247163e-08 -1.6354467e-07 -1.7771652e-07 1.7179312e-07
-3.8746357e-08 -6.560975e-08 1.4183657e-06 -1.2269517e-06 -1.5541154e-06 -1.8546575e-06 -5.5320056e-06 -5.953065e-07
-1.2637064e-05 -3.4944665e-06 -6.1728e-06 -9.4331557e-07 -1.2931918e-06 -1.3778152e-06 -9.712302e-07 -1.3417038e-06
-1.4211477e-06 -1.0320628e-06 -1.4359198e-06 -1.5172681e-06 5.453668e-08 1.06750825e-07 -1.2598034e-06 2.5533107e-06
1.8825391e-06 1.505234e-06 3.1965042e-06 1.3125912e-06 4.0852715e-06 -1.02878374e-07 1.458705e-07 5.2530105e-09
-4.1115084e-07 -6.3551795e-08 -1.2930127e-07 -4.2066657e-07 -7.306739e-08 -1.578054e-07 -5.349172e-07 8.218538e-08
4.2379897e-06 -2.9602447e-06 -7.7416885e-08 8.438927e-06 1.901552e-07 -2.9806446e-07 1.0265877e-06 1.508149e-07
7.299693e-08 2.9697208e-07 -2.3170313e-07 -3.330074e-07 4.5689266e-08 -1.3972527e-07 -1.8841628e-07 1.26e-07
-3.7672166e-07 -2.609258e-07 1.0898442e-07 -4.854388e-06 -8.651057e-08 2.2126239e-08 -9.805063e-08 3.909203e-08
-2.4179675e-08 -3.8393515e-07 -3.8393515e-07 -3.5609975e-09 -6.553387e-07 -6.553387e-07 -2.7142934e-07 -5.5433907e-07
-5.543391e-07 -2.7142937e-07 -6.7917053e-06 5.8711356e-07 -2.0434256e-06 -2.6224297e-06 -8.786044e-06 -1.8569622e-06
-9.046283e-06 -1.2936442e-05 -7.314662e-07 -6.1015044e-07 -7.0844277e-07 -7.9498915e-07 -1.4274182e-06 -1.5274625e-06
-1.2343488e-06 -1.2265026e-06 -1.3265465e-06 -1.1968001e-06 3.9745655e-06 1.4860461e-06 6.084754e-07 -1.3049647e-06

exp_avg_sq f4 [16, 2, 3, 3]
00000000: 16a0 2331 bc00 2b33 375f a033 dccd 2d33
00000010: 222a 3234 731d 8e33 b9a1 c533 40a7 0f34
00000020: 529f a631 13f1 f130 13ab 3f31 a190 3031
00000030: 87dd 0931 ee46 5931 69b5 4831 9887 e530
00000040: ec2b 3731 5d2f 2931 ad70 c931 2b0c 3333
00000050: 95ae 8f32 9187 b434 dac2 d133 f3d3 8034
00000060: e592 0934 9aa6 3f35 98e8 8f32 6e57 bf31
00000070: b7ed c431 a5be a231 b594 0f32 1cd6 1032
00000080: 5e9f f231 0cc6 0232 0fb6 0432 86d9 dc31
00000090: b94b 5a33 44ca 3d32 79c3 d930 e8a2 0234
000000a0: 9244 3533 11cc 3234 8dec 8333 0374 9334
000000b0: 01c0 e133 1b30 bd30 c40e cc30 96b5 be30
000000c0: c03a fc30 1f91 0431 6610 f730 7364 d730
000000d0: 43fa e230 a3f3 d430 5ebe 2c30 28ed 4233
000000e0: 4f2b 9433 41af 2331 7acd 8531 2955 7332
000000f0: 7bc2 2e33 a6ce b331 a34e 2a33 faa6 4b30
00000100: 1541 6030 7716 4e30 1d44 5130 9e81 6230
00000110: c6e1 5130 cab6 2a30 87a6 1b30 472b 0f30
00000120: 325d f431 bc4f 9c32 1b60 1331 6f0e b430
00000130: 2c03 0333 1ad2 be31 0ea8 a22f c77a e12f
00000140: fda3 c430 0202 402f 2ec1 832f 23ad 6b2f
00000150: f1a9 572f d7d4 8d2f a330 832f c821 702f
00000160: 53de a22f 9307 a32f 74d5 4231 a2a1 a82e
00000170: f7bf 1d2f 48c3 ea32 1d0e 672e 9c68 ba2f
00000180: 247a 3f32 8fbe 8b31 6399 a52d 6959 3f2e
00000190: 5f6d cc2e 3e81 ae2e 9044 282e 98f0 992e
000001a0: 616f 762e 8872 f82d 97e7 6a2e 1385 582e
000001b0: 47bc 8a33 8e20 c432 be17 4e32 a112 2434
000001c0: 4ca9 0433 2629 1b33 d320 b330 eac0 f732
000001d0: ffde ee31 d87d bf2f faae cd2f 613f cf2f
000001e0: e0f0 b92f 223b ca2f 2dd7 c92f 9ce9 fa2f
000001f0: f75d 1030 1b63 dc2f ea61 1533 f85d 6b30
00000200: dbdd 7f32 8216 7b32 0c9f 2b32 0c27 8d32
00000210: 4183 bf2e b136 532e 293e 8130 6b78 6f2f
00000220: 6a4a 622f 89f8 802f fa9a 6a2f ad8d 5b2f
00000230: 0cf9 7b2f 50bd 3a2f d211 362f 0e5b 412f
00000240: ef6a d532 f6ec fd33 9993 8d33 488d 9730
00000250: bb0e 2630 2a27 9b31 3e45 2732 b5ee 3331
00000260: ba22 6032 4e08 7030 71f1 9130 e2c9 8c30
00000270: 4e08 7030 71f1 9130 e2c9 8c30 1cff 4a30
00000280: f999 7730 0629 6e30 1681 f331 3001 0234
00000290: 0604 4c31 9720 bb32 789c d332 7558 4b31
000002a0: 7566 fd34 b118 dd33 7e00 2435 135d 8a31
000002b0: 3a18 8f31 feec 6631 d2b8 8d31 9471 9131
000002c0: e785 6a31 9931 8d31 cf10 9331 35dc 6a31
000002d0: 35e7 a02f 62b7 3d31 cf94 0130 ed82 2232
000002e0: ebf2 5334 3a64 4131 6e83 6e33 0df4 5831
000002f0: 3f20 9d31 4491 3f30 9abd 8030 17f6 1230
00000300: 9099 3b31 81c3 6e31 46ca 0731 d03e 3631
00000310: 0289 6831 fe6e 0331 7473 3e30 65de f92e
00000320: 5029 d730 670b c132 88a3 cc31 65a1 9932
00000330: e662 6b31 0fde 9c2f 1837 d32f c685 4e2f
00000340: 0dd5 792f fb93 7c2f fcb1 082f cfba e82e
00000350: 4d53 dc2e 8b8c f62e 7573 e72e bfc2 e62e
00000360: cba0 8b2f adbb 3c30 6778 872f b66b 2b32
00000370: bf4d ef2c 8476 8f2d c67f 3f31 be87 692e
00000380: a3ca 102f c5fd b92e 2c96 b92e 502b 842e
00000390: dc28 b72e 5b03 b72e 1db5 882e 56b3 aa2e
000003a0: 2391 aa2e 8f0c 852e 54a9 8b31 b9dc 2b30
000003b0: 7c37 1530 06b0 9230 1e84 ae32 0ecd 9b31
000003c0: eb8c 2932 13a7 7f32 0304 6931 bf15 012f
000003d0: 338c f22e 87f8 c62e 2d89 2f2f 1a37 412f
000003e0: 123a fd2e 9b7a 092f 1ade 1a2f d0c1 cf2e
000003f0: b1c9 d531 27a0 3031 50f0 d22f 0686 8430
2.381062e-09 3.9814708e-08 7.4679e-08 4.046693e-08 1.659287e-07 6.617747e-08 9.2029445e-08 1.3378758e-07
4.8493485e-09 1.7603575e-09 2.7891403e-09 2.5693583e-09 2.0062048e-09 3.1617975e-09 2.920695e-09 1.6700481e-09
2.6654972e-09 2.461966e-09 5.8626797e-09 4.1687752e-08 1.6726782e-08 3.362625e-07 9.767764e-08 2.399607e-07
1.2812559e-07 7.139548e-07 1.6753162e-08 5.568771e-09 5.731376e-09 4.7364943e-09 8.357508e-09 8.430586e-09
7.061245e-09 7.612027e-09 7.724807e-09 6.4275723e-09 5.082595e-08 1.1047238e-08 1.5844385e-09 1.2166458e-07
4.220471e-08 1.6651781e-07 6.143191e-08 2.7465293e-07 1.0512304e-07 1.3765232e-09 1.484715e-09 1.3875929e-09
1.8352111e-09 1.929102e-09 1.7976276e-09 1.5671858e-09 1.6514793e-09 1.5494276e-09 6.2843764e-10 4.5384837e-08
6.899665e-08 2.3819242e-09 3.8941694e-09 1.4163825e-08 4.068941e-08 5.233079e-09 3.965273e-08 7.408826e-10
8.158321e-10 7.497429e-10 7.613055e-10 8.240252e-10 7.63546e-10 6.21054e-10 5.662532e-10 5.20846e-10
7.1119297e-09 1.819705e-08 2.1445945e-09 1.3100826e-09 3.05037e-08 5.5536136e-09 2.9587038e-10 4.10145e-10
1.4307485e-09 1.7463012e-10 2.3966024e-10 2.1434636e-10 1.9614511e-10 2.5798982e-10 2.386332e-10 2.1839874e-10
2.96256e-10 2.965491e-10 2.835205e-09 7.668467e-11 1.4347266e-10 2.7329989e-08 5.2535854e-11 3.3907532e-10
1.1145435e-08 4.0670964e-09 1.8826446e-11 4.3507784e-11 9.296274e-11 7.935562e-11 3.8259673e-11 7.0003725e-11
5.603285e-11 2.8245198e-11 5.3411133e-11 4.9230908e-11 6.460373e-08 2.2832207e-08 1.19961765e-08 1.5280467e-07
3.088762e-08 3.6126174e-08 1.3033293e-09 2.8842312e-08 6.9520634e-09 3.4832115e-10 3.741361e-10 3.7698114e-10
3.3822456e-10 3.6785602e-10 3.6714579e-10 4.5640725e-10 5.2520427e-10 4.0088186e-10 3.478082e-08 8.562604e-10
1.4893398e-08 1.4615241e-08 9.989673e-09 1.6432317e-08 8.70899e-11 4.802442e-11 9.403652e-10 2.1779704e-10
2.0581017e-10 2.345966e-10 2.1337235e-10 1.9968267e-10 2.2916796e-10 1.6983859e-10 1.6559135e-10 1.7585597e-10
2.4845091e-08 1.18243335e-07 6.592672e-08 1.102685e-09 6.041138e-10 4.515546e-09 9.736423e-09 2.6183617e-09
1.3046412e-08 8.7323293e-10 1.061876e-09 1.0243719e-09 8.7323293e-10 1.061876e-09 1.0243719e-09 7.3849704e-10
9.0076885e-10 8.6642193e-10 7.086906e-09 1.2107625e-07 2.9688194e-09 2.1784485e-08 2.4634787e-08 2.959067e-09
4.719947e-07 1.0295606e-07 6.1095477e-07 4.02691e-09 4.164602e-09 3.360412e-09 4.1246517e-09 4.2329678e-09
3.4127596e-09 4.1092787e-09 4.280174e-09 3.4176655e-09 2.9268113e-10 2.760736e-09 4.7141396e-10 9.45941e-09
1.973928e-07 2.8142169e-09 5.5533228e-08 3.1570864e-09 4.5729673e-09 6.969183e-10 9.367114e-10 5.3464205e-10
2.7299372e-09 3.474469e-09 1.9760065e-09 2.652019e-09 3.3838323e-09 1.91261e-09 6.9285666e-10 1.1362714e-10
1.5655051e-09 2.2473342e-08 5.9557728e-09 1.7884938e-08 3.4253218e-09 2.8534017e-10 3.8419823e-10 1.8783117e-10
2.2722109e-10 2.297184e-10 1.2432361e-10 1.05833224e-10 1.0019239e-10 1.121175e-10 1.0525173e-10 1.0493783e-10
2.5398203e-10 6.8660705e-10 2.4641908e-10 9.978001e-09 6.80142e-12 1.630985e-11 2.7866789e-09 5.309863e-11
1.3168715e-10 8.4579045e-11 8.439502e-11 6.010359e-11 8.3291346e-11 8.3224726e-11 6.216736e-11 7.7625614e-11
7.7564864e-11 6.0503706e-11 4.064683e-09 6.2523103e-10 5.428473e-10 1.0672927e-09 2.0316346e-08 4.5344057e-09
9.869136e-09 1.4880942e-08 3.3908243e-09 1.1740207e-10 1.102979e-10 9.048145e-11 1.5964892e-10 1.7572824e-10
1.1515423e-10 1.2503636e-10 1.4085125e-10 9.447698e-11 6.2220455e-09 2.5702407e-09 3.836953e-10 9.642356e-10

exp_avg f4 [16]
00000000: 25e1 5034 5ea0 00b6 cdde e2b5 363e ea35
00000010: 7190 6fb5 61d0 47b5 aa8a 8b35 f1af c535
00000020: 703e 8f34 de62 17b6 211e 6d34 26fa 13b4
00000030: f6c7 36b5 d8e4 60b6 3559 4135 979e 92b5
1.9453417e-07 -1.9166832e-06 -1.6903156e-06 1.7452464e-06 -8.924463e-07 -7.443651e-07 1.0396664e-06 1.472885e-06
2.6681255e-07 -2.2558302e-06 2.2083306e-07 -1.3781445e-07 -6.8091265e-07 -3.3511806e-06 7.2027916e-07 -1.0924003e-06

exp_avg_sq f4 [16]
00000000: 4d92 4232 2fa8 ed32 6788 e631 6c5c 4931
00000010: a744 8030 2acf f630 525b f030 2576 5e30
00000020: ad5a 1232 4cdf b832 1c3c 0e32 6ecd ce2f
00000030: 23f6 2e2f bc65 8630 770c 8d2f 21c5 4c31
1.1325551e-08 2.7666912e-08 6.709388e-09 2.9301885e-09 9.332738e-10 1.7957735e-09 1.7488253e-09 8.0931023e-10
8.518936e-09 2.1521963e-08 8.279155e-09 3.7617148e-10 1.5912653e-10 9.778698e-10 2.5656607e-10 2.9797962e-09
