output/red/images/epoch_26.pt (torch, 369546 bytes, 27 tensors)

conv.0.weight f4 [16, 2, 3, 3]
-0.122603066 0.10151292 0.16562177 0.053500257 0.16774699 0.060464133 0.11972591 0.11761344
-0.1511187 -0.11688065 -0.08598444 0.17047593 -0.16515106 -0.04523173 0.15633747 -0.23604433
0.17278555 0.20516218 -0.16076647 0.02110813 -0.06255171 0.112252526 -0.03573683 0.11056902
-0.01053075 0.19909349 -0.19609365 0.15243666 0.05984222 -0.15402782 0.10832689 -0.01774484
0.14476497 -0.13457392 0.19482654 0.124923006 0.107639976 -0.015910229 -0.14606382 0.07845878
-0.045358233 0.15120654 -0.03769727 0.15834527 0.05644055 0.19531427 0.16156612 -0.21283062
0.13273911 0.20510554 -0.17617117 -0.15093228 0.043974362 -0.006299236 -0.26174557 0.13726325
0.15057245 -0.13492039 -0.1172197 -0.034642782 0.08815527 -0.067160465 0.08663777 -0.11797142
0.03204496 -0.023734534 0.12037414 -0.034601994 -0.022462476 -0.19507544 0.09817066 -0.030002564
0.0605199 0.16219032 -0.19025826 -0.22493781 0.16015695 -0.045932885 -0.17614071 -0.18213473
-0.06984154 0.09454039 0.10703591 -0.31266433 -0.2947335 0.065444954 -0.072380476 0.048983745
0.10582883 0.0858778 0.009481192 -0.1678191 -0.14559826 0.09340167 -0.18048364 -0.11912504
0.030302135 -0.04192678 -0.17408143 -0.18860763 0.21003062 -0.16581273 -0.171269 -0.11121683
-0.1875615 -0.24476714 0.077498384 0.025863782 0.19373992 0.13388062 0.078508124 0.17735475
-0.010524858 0.034717556 -0.22274053 0.116450526 -0.01186046 -0.13058911 0.1702499 0.022642016
0.02445548 0.052680545 0.04533054 -0.060439333 -0.19723092 -0.19275731 0.15443633 -0.2649254
0.05848527 0.0251494 -0.05864374 0.049633007 -0.17675334 -0.19221714 -0.031280294 0.001089717
0.053633288 -0.17241056 0.20404752 -0.16045292 0.1307317 -0.2009372 -0.11558984 0.20411158
0.0696433 0.19621193 0.18058917 -0.20144853 -0.24911043 -0.091938026 -0.074787214 -0.12998153
-0.018841682 -0.17203616 -0.0674736 0.19732848 -0.1403123 -0.13239127 0.1325618 -0.17370117
-0.01723327 -0.15824462 -0.14085004 0.14716132 -0.18029831 -0.10816871 -0.05075374 -0.2299503
0.07047185 -0.0738839 0.20810571 -0.13236575 -0.07535236 0.12454114 0.18722393 -0.18560798
-0.17020714 -0.15685394 -0.07888078 0.0012771753 -0.1832396 -0.046127662 -0.17005302 -0.121743485
0.20202944 -0.19352451 0.073150784 -0.14147224 -0.02975266 -0.15252697 0.057010453 -0.072024405
-0.23313916 0.18775116 0.027216157 0.096865244 0.19394356 0.17058331 -0.14740342 -0.2867509
-0.023993172 0.11462121 -0.020989655 0.10422893 0.0049840524 -0.2211027 -0.15033038 -0.0321699
0.07043553 -0.12504591 -0.1414433 -0.00015823406 -0.07825979 0.08841015 -0.018092958 0.14590748
-0.029491793 -0.0018710139 -0.042994633 0.034444693 -0.15850191 -0.11110193 -0.019727781 -0.10750153
-0.069714226 0.19404742 0.033797696 -0.16883402 -0.08608166 -0.02287426 -0.14966062 0.084299386
0.09832197 0.1950658 0.07462761 -0.11883845 -0.1341892 -0.117657974 0.16009097 0.013535091
0.07174131 0.10854689 -0.17104469 -0.07870603 -0.23484185 -0.23241939 0.04986545 0.103840336
0.103969805 -0.11286033 -0.19641456 0.17133693 0.14763652 0.027097458 -0.1906249 -0.11728732
00000000: 5117 fbbd 01e6 cf3d c198 293e 1623 5b3d
00000010: dec5 2b3e 3da9 773d dc32 f53d 51df f03d
00000020: dcbe 1abe 1f5f efbd 9c18 b0bd 3e91 2e3e
00000030: 5c1d 29be e844 39bd ee16 203e 9bb5 71be
00000040: b2ee 303e 0916 523e f79f 24be f5ea ac3c
00000050: 1c1b 80bd a7e4 e53d c860 12bd 0372 e23d
00000060: 2b89 2cbc 2adf 4b3e c6cc 48be 5b18 1c3e
00000070: 1e1d 753d 78b9 1dbe 7dda dd3d a05d 91bc
00000080: 453d 143e bfcd 09be 9c80 473e a2d7 ff3d
00000090: 5972 dc3d 2b56 82bc c191 15be ffae a03d
000000a0: 8ec9 39bd e3d5 1a3e 7468 1abd 4325 223e
000000b0: 352e 673d 7700 483e 9771 253e 45f0 59be
000000c0: c3ec 073e 3007 523e 3766 34be fe8d 1abe
000000d0: 761e 343d d269 cebb 8403 86be bd8e 0c3e
000000e0: aa2f 1a3e 9228 0abe e210 f0bd 97e5 0dbd
000000f0: c08a b43d 6d8b 89bd 256f b13d 009b f1bd
00000100: 9341 033d ed6e c2bc b886 f63d d2ba 0dbd
00000110: 3a03 b8bc dbc1 47be b30d c93d f0c7 f5bc
00000120: b7e3 773d 3815 263e 10d3 42be 1956 66be
00000130: 2f00 243e 1f24 3cbd 3b5e 34be 8781 3abe
00000140: 1509 8fbd 649e c13d a535 db3d 8a15 a0be
00000150: 4fe7 96be 0108 863d 373c 94bd 2ea3 483d
00000160: c9bc d83d b3e0 af3d 0057 1b3c c5d8 2bbe
00000170: b617 15be 6049 bf3d b4d0 38be d4f7 f3bd
00000180: 2f3c f83c 6abb 2bbd 6742 32be 5c22 41be
00000190: 4412 573e d0ca 29be 2461 2fbe a6c5 e3bd
000001a0: 1f10 40be 3da4 7abe 79b7 9e3d 48e0 d33c
000001b0: c263 463e 0018 093e dec8 a03d 7c9c 353e
000001c0: 7470 2cbc ff33 0e3d 1816 64be 9d7d ee3d
000001d0: 6052 42bc 27b9 05be fd55 2e3e c07b b93c
000001e0: dc56 c83c 8ec7 573d 84ac 393d 3c8f 77bd
000001f0: e7f6 49be 2c62 45be 8f24 1e3e 4da4 87be
00000200: 408e 6f3d 1d06 ce3c 6b34 70bd fb4b 4b3d
00000210: d4fe 34be 92d4 44be c41f 00bd d6d4 8e3a
00000220: 94ae 5b3d 658c 30be d5f1 503e c54d 24be
00000230: 88de 053e 7bc2 4dbe 5eba ecbd a002 513e
00000240: 25a1 8e3d c8eb 483e 5eec 383e 8648 4ebe
00000250: ce16 7fbe 014a bcbd 0a2a 99bd e119 05be
00000260: df59 9abc 3f2a 30be 992f 8abd 7a10 4a3e
00000270: 07ae 0fbe 9491 07be 48be 073e b8de 31be
00000280: c92c 8dbc e10a 22be fe3a 10be 75b1 163e
00000290: 1fa0 38be 8e87 ddbd 27e3 4fbd 1778 6bbe
000002a0: 8c53 903d 7150 97bd aa19 553e e38a 07be
000002b0: 5752 9abd 6d0f ff3d a1b7 3f3e 0510 3ebe
000002c0: c84a 2ebe 529e 20be 3f8c a1bd e466 a73a
000002d0: 29a3 3bbe 5cf0 3cbd 6122 2ebe a654 f9bd
000002e0: cee0 4e3e 4a2b 46be 14d0 953d 19de 10be
000002f0: dabb f3bc 0830 1cbe cb83 693d 8881 93bd
00000300: 08bc 6ebe d741 403e 6bf4 de3c 4961 c63d
00000310: 2499 463e 64ad 2e3e ecf0 16be 04d1 92be
00000320: 548d c4bc 86be ea3d 7ff2 abbc fa75 d53d
00000330: 4351 a33b bf68 62be 35f0 19be 96c4 03bd
00000340: 8140 903d 090c 00be 83d6 10be a2eb 25b9
00000350: ab46 a0bd 6110 b53d af37 94bc c568 153e
00000360: c698 f1bc cf3c f5ba 241b 30bd e115 0d3d
00000370: 534e 22be 6989 e3bd 289c a1bc c329 dcbd
00000380: 55c6 8ebd 5eb4 463e 746f 0a3d d3e2 2cbe
00000390: 954b b0bd cd62 bbbc a240 19be 28a5 ac3d
000003a0: 075d c93d 54bf 473e 5cd6 983d 9361 f3bd
000003b0: e568 09be aaf6 f0bd e3ee 233e 49c2 5d3c
000003c0: 1ced 923d d54d de3d 5726 2fbe a130 a1bd
000003d0: 627a 70be 59ff 6dbe b73f 4c3d 3eaa d43d
000003e0: 1fee d43d 5123 e7bd e620 49be f372 2f3e
000003f0: 072e 173e 7dfb dd3c 2c33 43be 5634 f0bd

conv.0.bias f4 [16]
0.06525985 -0.039825514 -0.16377684 0.05026032 -0.12016888 0.21190351 -0.13763118 -0.12809649
0.025623268 0.19007114 -0.23482527 -0.052546162 -0.21975322 -0.21822838 -0.06364362 -0.23012517
00000000: f5a6 853d 1420 23bd 1eb5 27be c4dd 4d3d
00000010: 1a1b f6bd 3cfd 583e 30ef 0cbe ba2b 03be
00000020: e3e7 d13c 02a2 423e 0976 70be a53a 57bd
00000030: fd06 61be 4377 5fbe 9657 82bd efa5 6bbe

conv.3.weight f4 [32, 16, 3, 3]
-0.011741801 0.027019517 0.010093127 -0.07111346 -0.00961889 -0.070265464 0.054994658 0.021619294
-0.015118287 -0.027031122 -0.0740196 0.011855307 0.05777431 0.05539949 0.008002445 -0.08539959
0.062370554 -0.057622302 -0.034396023 0.021902267 0.04566945 0.0543479 -0.030084804 0.03901578
-0.08165491 0.054121662 -0.056387715 0.033706166 0.0626267 -0.0142299 -0.050073605 -0.054881
-0.017138729 -0.04044311 -0.015493731 0.04044531 -0.07120577 -0.052218888 0.07040942 -0.025083141
-0.03135289 -0.06298969 -0.057359394 0.040265888 0.04287094 0.022613445 0.02734771 -0.07996294
-0.0072574248 0.011399734 0.037073415 -0.04139624 0.028774828 0.05080697 -0.012398686 -0.018937364
-0.07230744 0.062158864 -0.06090169 0.036475055 -0.012455415 -0.07192304 -0.016206557 -0.06856854
-0.06888879 0.011978253 -0.088880666 0.024454499 -0.09787826 -0.047188733 -0.038315315 -0.050510384
-0.07522892 -0.09319994 0.05288248 -0.07528798 0.0021781751 -0.007950952 -0.07348199 -0.02486037
-0.031121066 0.06374434 -0.09029719 -0.04833367 -0.09017189 -0.080119 0.06825348 0.013788148
-0.03657654 0.04781132 0.057793126 -0.016074145 0.0129582565 -0.038563967 -0.050547782 0.051122356
-0.049079984 0.01413084 -0.054061353 0.04516511 0.051343773 -0.031628646 -0.028953468 -0.02139167
-0.08673877 -0.0040657106 0.03304452 0.08340258 -0.012066177 0.04992195 0.04994686 0.04763867
-0.030616557 0.035793137 -0.03456174 -0.03679665 0.04387854 -0.08064649 -0.06711234 -0.04733177
-0.025906546 -0.04875085 -0.04762121 -0.04939212 0.075371 0.055391334 -0.040545166 0.029280864
-0.016611213 -0.047999702 -0.008437688 0.06349053 0.032609627 -0.046277493 -0.03908477 -0.0163871
0.019537114 -0.0057661044 -0.005301396 0.023379022 -0.089204095 0.0072190734 0.010989313 -0.010895505
0.07584018 0.010249167 -0.04542911 0.051282514 -0.060492545 0.054692738 -0.045877866 -0.008235313
0.041305102 -0.08830589 0.070137806 -0.040177997 -0.0016503562 -0.0012993646 -0.034029942 0.0562491
-0.067721024 0.07613118 -0.04967741 0.0620104 -0.04719774 0.059175905 -0.019547854 -0.0352006
0.00073209754 -0.037353944 -0.029064002 0.031367153 0.057513785 -0.013455312 -0.04250888 -0.038368423
0.00016584728 -0.08136734 0.056836903 -0.020666009 -0.04602025 0.082354575 -0.0876115 -0.04965138
-0.08021497 -0.052790508 0.008521491 0.03772995 0.015358743 -0.017533075 -0.017458797 0.018781802
-0.0035778915 0.016081277 0.06427844 -0.01789506 0.028586276 -0.07527342 -0.06860975 -0.04837903
-0.067444526 -0.0026521527 -0.057304826 0.05296469 0.030169366 -0.06641715 -0.019468898 0.0782583
0.042944923 0.0046152617 0.06347731 0.048553493 -0.0847972 0.028823437 -0.07274897 -0.038603913
0.036648657 0.004615497 0.05199828 -0.009970654 0.037083544 -0.017692976 -0.033049557 -0.016127853
0.026739227 0.0040317317 -0.06347406 0.04258203 0.019375406 0.021830976 -0.011915179 0.05967672
0.075992376 -0.05878747 0.065180965 0.057549357 0.04938444 0.0664313 -0.07422409 -0.03953877
-0.011513314 0.02077719 -0.04917747 -0.023987764 0.032937694 0.06817881 -0.03318736 -0.08439307
0.05829659 0.0467081 -0.057290614 -0.029799134 0.042640552 -0.096176386 -0.09339627 0.011439874
00000000: af60 40bc 0958 dd3c a55d 253c efa3 91bd
00000010: 8c98 1dbc 57e7 8fbd 1442 613d f21a b13c
00000020: b1b2 77bc 5f70 ddbc 9797 97bd c33c 423c
00000030: c1a4 6c3d 93ea 623d b01c 033c fbe5 aebd
00000040: 4478 7f3d 5d05 6cbd d8e2 0cbd 626c b33c
00000050: e40f 3b3d e79b 5e3d 6874 f6bc 03cf 1f3d
00000060: b13a a7bd adae 5d3d cef6 66bd 7a0f 0a3d
00000070: 6d42 803d 8724 69bc fb19 4dbd e6ca 60bd
00000080: 8566 8cbc ada7 25bd 6bd9 7dbc fba9 253d
00000090: 55d4 91bd 79e3 55bd d032 903d 297b cdbc
000000a0: e36b 00bd bd00 81bd aff1 6abd d8ed 243d
000000b0: 7099 2f3d d53f b93c 4e08 e03c 9cc3 a3bd
000000c0: b1cf edbb f3c5 3a3c 4bda 173d 1b8f 29bd
000000d0: 30b9 eb3c f81a 503d dc23 4bbc 8822 9bbc
000000e0: ec15 94bd 4b9a 7e3d 0d74 79bd de66 153d
000000f0: cc11 4cbc 634c 93bd 9dc3 84bc aa6d 8cbd
00000100: 9115 8dbd 6f40 443c 1107 b6bd cd54 c83c
00000110: 6674 c8bd f948 41bd 85f0 1cbd fae3 4ebd
00000120: 9f11 9abd 9cdf bebd 4d9b 583d 9630 9abd
00000130: b7bf 0e3b b644 02bc ba7d 96bd faa7 cbbc
00000140: 9bf1 febc 648c 823d bced b8bd 87f9 45bd
00000150: 0aac b8bd 6e15 a4bd 7bc8 8b3d afe7 613c
00000160: 48d1 15bd cdd5 433d 7cb8 6c3d edad 83bc
00000170: de4e 543c 40f5 1dbd 310b 4fbd ad65 513d
00000180: 1808 49bd 0a85 673c 706f 5dbd 0dff 383d
00000190: d94d 523d 0a8d 01bd d32f edbc 953d afbc
000001a0: 19a4 b1bd a739 85bb b159 073d f9ce aa3d
000001b0: 37b1 45bc f57a 4c3d 1495 4c3d c420 433d
000001c0: 93cf fabc d39b 123d 9c90 0dbd 16b8 16bd
000001d0: fcb9 333d fd29 a5bd 3272 89bd f5de 41bd
000001e0: f739 d4bc f9ae 47bd 750e 43bd 644f 4abd
000001f0: 1c5c 9a3d 06e2 623d b012 26bd 6cde ef3c
00000200: 3d14 88bc 569b 44bd 3b3e 0abc 5307 823d
00000210: ac91 053d 788d 3dbd 5a17 20bd 3d3e 86bc
00000220: 4c0c a03c 97f1 bcbb 55b7 adbb 5d85 bf3c
00000230: a3b0 b6bd fa8d ec3b 850c 343c 0f83 32bc
00000240: 1952 9b3d 1fec 273c e013 3abd 9d0d 523d
00000250: 08c7 77bd 7e05 603d 6eea 3bbd 68ed 06bc
00000260: 8a2f 293d b8d9 b4bd 69a4 8f3d af91 24bd
00000270: c450 d8ba 714f aaba fb62 0bbd 7565 663d
00000280: 52b1 8abd aaea 9b3d 8a7a 4bbd 9efe 7d3d
00000290: 6b52 41bd 6f62 723d d222 a0bc 812e 10bd
000002a0: 3cea 3f3a 7300 19bd a117 eebc d87a 003d
000002b0: 9393 6b3d ab73 5cbc cb1d 2ebd 3528 1dbd
000002c0: 4ae7 2d39 eca3 a6bd d0cd 683d c34b a9bc
000002d0: bb7f 3cbd 84a9 a83d a86d b3bd 3f5f 4bbd
000002e0: bf47 a4bd dc3a 58bd b99d 0b3c b88a 1a3d
000002f0: 3da3 7b3c 86a1 8fbc c005 8fbc 4bdc 993c
00000300: 0f7b 6abb e2bc 833c 6aa4 833d a998 92bc
00000310: c42d ea3c f328 9abd 4583 8cbd 1729 46bd
00000320: 5b20 8abd bdcf 2dbb 77b8 6abd 81f1 583d
00000330: bf25 f73c b705 88bd 3d7d 9fbc e345 a03d
00000340: 04e7 2f3d 9f3b 973b 6400 823d 07e0 463d
00000350: 28aa adbd 211f ec3c 69fd 94bd 231f 1ebd
00000360: e71c 163d 983d 973b 26fc 543d f45b 23bc
00000370: eae4 173d dcf0 90bc f95e 07bd 8f1e 84bc
00000380: 390c db3c 9e1c 843b b0fe 81bd 7f6a 2e3d
00000390: 2cb9 9e3c e0d6 b23c e237 43bc 946f 743d
000003a0: e4a1 9b3d 21cb 70bd 997d 853d e0b8 6b3d
000003b0: 5747 4a3d 220d 883d cd02 98bd 68f3 21bd
000003c0: 57a2 3cbc ed34 aa3c 516e 49bd fd81 c4bc
000003d0: ade9 063d 55a1 8b3d 78ef 07bd 46d6 acbd
000003e0: 68c8 6e3d fe50 3f3d 90a9 6abd 501d f4bc
000003f0: dca7 2e3d 20f8 c4bd 8b46 bfbd 4f6e 3b3c

conv.3.bias f4 [32]
0.0450814 -0.04079726 0.051639084 -0.08116663 -0.07237977 0.044223744 -0.102434546 0.014716612
-0.03282448 0.09198837 0.041095596 -0.010826288 -0.09417762 -0.032097686 0.07809431 0.04079331
-0.07407955 0.004301578 0.023280527 -0.079615735 -0.0790684 -0.11467444 0.05622262 -0.037916236
-0.08897704 -0.03900899 0.06642156 -0.01819454 0.03683714 0.025516689 -0.015667954 -0.051823635
00000000: 46a7 383d 071b 27bd 8183 533d b13a a6bd
00000010: d83b 94bd f523 353d 34c9 d1bd f21d 713c
00000020: f672 06bd 6664 bc3d db53 283d be60 31bc
00000030: 32e0 c0bd dd78 03bd e9ef 9f3d e316 273d
00000040: 05b7 97bd 40f4 8c3b ceb6 be3c 930d a3bd
00000050: 9dee a1bd 6fda eabd b149 663d 0e4e 1bbd
00000060: 9839 b6bd e4c7 1fbd 0708 883d b70c 95bc
00000070: 8ae2 163d 6008 d13c 155a 80bc 0545 54bd

fc.0.weight f4 [128, 128]
0.05702693 -0.013441813 -0.019979663 0.021251135 -0.07241314 -0.09578711 -0.107681334 -0.060896173
0.03300178 -0.004035771 0.036852557 -0.08119754 -0.053612664 0.07781365 -0.07562113 0.065053634
0.00024803728 -0.02759647 -0.04556129 -0.08157219 -0.03758212 -0.01488071 0.015778327 -0.016354945
0.035820708 0.03279739 0.030913256 0.051940463 -0.10201489 -0.06574813 -0.07344075 -0.07710749
-0.032140385 -0.046366505 0.06444167 -0.0063243657 0.056287073 0.039443024 -0.00069849193 0.08831606
-0.005041089 -0.05159851 -0.022490963 -0.04523732 -0.09739298 0.022974204 -0.013233003 -0.02820174
0.003864579 0.036410883 -0.08765629 0.018432893 -0.071264684 0.0037339404 0.02733203 -0.055299394
0.014386456 -0.05834635 -0.051448215 -0.062835254 -0.09756913 -0.045318708 -0.062328454 0.063436545
-0.07952467 0.0466209 0.03363952 -0.05102803 -0.041728526 0.01792019 0.052308954 0.02182341
-0.0013850365 0.046770394 -0.03721889 -0.035534345 0.030718468 -0.08810968 -0.03315955 -0.061725292
0.004435979 0.03928636 -0.033065394 -0.025692819 0.033070154 -0.025141135 -0.059143066 -0.025606275
-0.07301769 -0.06949744 -0.010554919 -0.09721624 -0.05784813 -0.039064765 0.06456777 -0.04848824
-0.06920616 -0.05790879 0.0744395 0.0779387 -0.09492922 -0.073376864 -0.08401689 0.010987737
-0.0666858 -0.013536658 -0.009256067 -0.08223311 0.06552955 -0.06983867 -0.03796661 -0.054567493
-0.005031492 0.036267202 0.07391364 -0.010313366 -0.10401455 -0.07284984 0.0009355808 -0.0060517546
0.066927515 0.07796573 -0.0632408 -0.023123555 -0.02174677 -0.09724263 -0.07688921 0.053694274
-0.07523658 0.007622488 -0.078244306 0.004783362 0.041293286 0.029084317 -0.042797815 -0.038846277
0.06966413 -0.08226606 -0.0639829 0.06276382 -0.076166205 -0.016444154 -0.06893512 -0.02788483
0.079567544 0.059911154 0.00497929 -0.08770783 -0.014146611 -0.062111072 -0.08012566 -0.047869653
-0.039058443 -0.04459179 0.009916261 -0.07601884 -0.08810955 -0.014231198 0.07509572 0.048306964
0.032973565 0.04662501 0.059689663 -0.034652106 -0.061790578 -0.032755487 -0.038809378 0.07023098
0.051997013 -0.064500436 0.0052242726 0.032096826 -0.016977906 0.0764688 0.0357059 0.004677944
-0.034352906 -0.083906315 0.029593967 -0.075041905 -0.030591983 0.007765956 0.01775872 -0.0011969358
-0.080172725 -0.053258758 -0.05748499 0.0786893 0.032217376 -0.022888638 0.023388848 0.04399433
0.012149006 -0.02803658 0.067319386 0.0005530119 0.03783091 -0.07240308 0.009191155 -0.043514367
-0.08781314 -0.038109284 -0.053546675 0.07781742 -0.02085615 0.054710947 0.07546202 -0.038468976
-0.024240777 -0.048272755 0.054660432 0.08667181 -0.0022330657 -0.08398413 -0.04525856 0.0019043759
-0.06095234 0.016424872 0.049707852 0.03303749 0.019130938 -0.0652961 -0.0070813894 0.014693163
0.011667229 -0.07979707 0.0083633065 0.029556349 0.048226558 -0.049496308 -0.051660117 -0.056528922
-0.070759214 -0.044979453 0.020152248 -0.035504453 -0.05074335 -0.027525738 -0.048373055 -0.036010772
-0.062944144 -0.037215907 0.0047769696 0.0026828572 0.009563886 0.0630951 -0.037935168 -0.06696984
-0.029695552 -0.026980843 -0.083657555 0.07924069 -0.042158376 0.07212157 0.031226724 -0.043431524
00000000: 1295 693d 0d3b 5cbc 64ac a3bc dc16 ae3c
00000010: 574d 94bd 082c c4bd 0888 dcbd 446e 79bd
00000020: e02c 073d 803e 84bb b5f2 163d e54a a6bd
00000030: f498 5bbd c35c 9f3d 40df 9abd d73a 853d
00000040: 000b 8239 fe11 e2bc 7a9e 3abd 520f a7bd
00000050: b6ef 19bd 39ce 73bc 8d41 813c cefa 85bc
00000060: bcb8 123d 8e56 063d cc3d fd3c 86bf 543d
00000070: 2fed d0bd f5a6 86bd 1b68 96bd 88ea 9dbd
00000080: a3a5 03bd ceea 3dbd fff9 833d a03c cfbb
00000090: 468d 663d 028f 213d 001b 37ba 0ddf b43d
000000a0: b82f a5bb f658 53bd f83e b8bc c54a 39bd
000000b0: f875 c7bd 6634 bc3c 3dcf 58bc 5607 e7bc
000000c0: e044 7d3b 9423 153d 2485 b3bd 9400 973c
000000d0: 38f3 91bd 20b5 743b 6ce7 df3c 9e81 62bd
000000e0: 2cb5 6b3c 95fc 6ebd 5dbb 52bd c5af 80bd
000000f0: 53d2 c7bd 1ca0 39bd 1f4c 7fbd 05eb 813d
00000100: d5dd a2bd 8ff5 3e3d 98c9 093d c502 51bd
00000110: 88eb 2abd 5dcd 923c ea41 563d 02c7 b23c
00000120: 1d8a b5ba 5092 3f3d d672 18bd 768c 11bd
00000130: 4ca5 fb3c d972 b4bd 4fd2 07bd a9d3 7cbd
00000140: b05b 913b bcea 203d 946f 07bd bf79 d2bc
00000150: 9274 073d c8f4 cdbc 0040 72bd 40c4 d1bc
00000160: 4c8a 95bd ac54 8ebd 8aee 2cbc 4f19 c7bd
00000170: 29f2 6cbd 6002 20bd 1b3c 843d 9b9b 46bd
00000180: f6bb 8dbd c431 6dbd bd73 983d 539e 9f3d
00000190: 406a c2bd 9c46 96bd 0c11 acbd e905 343c
000001a0: 9192 88bd dcc8 5dbc c2a6 17bc d569 a8bd
000001b0: 5b34 863d 9407 8fbd e082 1bbd 2a82 5fbd
000001c0: 37df a4bb eb8c 143d 0960 973d 64f9 28bc
000001d0: 9505 d5bd 4c32 95bd c441 753a cc4d c6bb
000001e0: 4b11 893d 7fac 9f3d 6484 81bd 9c6d bdbc
000001f0: 4826 b2bc 2527 c7bd 1778 9dbd 87ee 5b3d
00000200: a315 9abd 10c6 f93b 8d3e a0bd c0bd 9c3b
00000210: 2623 293d 3c42 ee3c c34c 2fbd 461d 1fbd
00000220: 11ac 8e3d 1c7b a8bd 7709 83bd 518a 803d
00000230: 07fd 9bbd e4b5 86bc db2d 8dbd ba6e e4bc
00000240: 4ff4 a23d 6665 753d 5029 a33b 2aa0 b3bd
00000250: 30c7 67bc 2e68 7ebd ec18 a4bd f812 44bd
00000260: bffb 1fbd e1a5 36bd d077 223c c4af 9bbd
00000270: c872 b4bd f829 69bc c9cb 993d 86dd 453d
00000280: 4a0f 073d def9 3e3d 267d 743d 5eef 0dbd
00000290: 1e18 7dbd 9e2a 06bd 95f6 1ebd 43d5 8f3d
000002a0: d2fa 543d ce18 84bd 6030 ab3b f677 033d
000002b0: 4015 8bbc ad9b 9c3d 5a40 123d 7049 993b
000002c0: a2b5 0cbd 13d7 abbd 0c6f f23c 92af 99bd
000002d0: 0a9c fabc 9079 fe3b bc7a 913c 80e2 9cba
000002e0: 9931 a4bd db25 5abd 6275 6bbd db27 a13d
000002f0: 5ef6 033d f480 bbbc f899 bf3c 6633 343d
00000300: a00c 473c f8ac e5bc bfde 893d 00f8 103a
00000310: 96f4 1a3d 1148 94bd 8096 163c 1f3c 32bd
00000320: 60d7 b3bd 7b18 1cbd c253 5bbd bd5e 9f3d
00000330: 84da aabc 9618 603d d58b 9a3d a591 1dbd
00000340: 9894 c6bc a7b9 45bd 9ee3 5f3d fd80 b13d
00000350: a058 12bb dfff abbd 0a61 39bd 409c f93a
00000360: 29a9 79bd 748d 863c 769a 4b3d 5252 073d
00000370: 7cb8 9c3c f6b9 85bd 000b e8bb 98bb 703c
00000380: e827 3f3c a56c a3bd 4006 093c 2820 f23c
00000390: 3689 453d a4bc 4abd 8f99 53bd df8a 67bd
000003a0: 35ea 90bd 603c 38bd 5416 a53c 1e6d 11bd
000003b0: 42d8 4fbd a87d e1bc d322 46bd 0880 13bd
000003c0: dce8 80bd b56f 18bd 2088 9c3b e0d2 2f3b
000003d0: d8b1 1c3c 0138 813d e861 1bbd 7c27 89bd
000003e0: 1644 f3bc ee06 ddbc a754 abbd f148 a23d
000003f0: 43ae 2cbd 79b4 933d 30cf ff3c 41e5 31bd

fc.0.bias f4 [128]
-0.081627905 -0.037106823 0.06123232 -0.029297566 0.068500295 0.022825662 -0.04492668 -0.07878812
0.06437989 0.017564217 -0.016813459 0.10205056 0.020735648 -0.09484278 0.044468958 0.022434983
-0.035747334 -0.011788021 0.018589323 -0.064350896 -0.05560199 -0.04578262 -0.07503526 -0.07524586
0.026860623 -0.03267927 -0.0025396685 -0.09498302 -0.0039795227 0.04841556 -0.08431413 0.04379611
-0.04184517 0.058447376 -0.01516791 -0.09495253 -0.016889475 -0.08299333 0.09156795 -0.06977903
-0.038117953 0.05882371 -0.034592014 -0.054150246 0.034813862 0.057606816 0.016794872 0.09890781
-0.07696929 -0.006046257 -0.090426855 0.0008152342 -0.10294133 0.024476802 0.05034693 0.03664421
-0.04158764 -0.07196792 0.064133815 0.08055197 -0.059321877 -0.073384784 -0.07894231 -0.051481508
-0.040982075 0.03910815 -0.083407275 -0.016437933 -0.09476875 0.062333494 0.028348466 -0.016226623
-0.083595455 -0.09277184 -0.05308648 0.048549604 -0.055064615 0.005091453 0.122190475 0.043493588
-0.09354427 0.020301592 -0.047225125 0.022847697 0.013341459 -0.036006857 -0.058000475 -0.03195214
0.03269922 0.077894926 -0.1074632 0.0208184 -0.07141622 -0.072838835 -0.0017537421 -0.055220354
-0.027158791 -0.036435306 -0.027660808 0.06834009 -0.08307168 0.008270054 -0.007894647 0.03622366
-0.06205547 -0.013903724 0.021249104 0.0059119742 -0.09287827 -0.0623232 0.027625892 0.04039096
0.038447734 0.039135214 -0.086913556 0.06596203 0.057122555 0.045634307 -0.06324349 -0.027692156
0.058957547 0.018132146 -0.08376826 -0.02550673 0.09487885 0.12569009 -0.019371804 -0.020209191
00000000: 882c a7bd 53fd 17bd bece 7a3d 7301 f0bc
00000010: e249 8c3d e2fc ba3c 0a05 38bd aa5b a1bd
00000020: 9bd9 833d d5e2 8f3c 61bc 89bc e2ff d03d
00000030: cedd a93c ee3c c2bd 1525 363d 92c9 b73c
00000040: cc6b 12bd 8b22 41bc a348 983c 67ca 83bd
00000050: eabe 63bd 8e86 3bbd 16ac 99bd 801a 9abd
00000060: cf0a dc3c b3da 05bd 9170 26bb 7586 c2bd
00000070: a866 82bb 654f 463d e3ac acbd 8d63 333d
00000080: d765 2bbd 8466 6f3d d382 78bc 7976 c2bd
00000090: cc5b 8abc 68f8 a9bd fa87 bb3d 4fe8 8ebd
000000a0: 9221 1cbd 21f1 703d 5bb0 0dbd a6cc 5dbd
000000b0: fb98 0e3d 20f5 6b3d 6695 893c 2e90 ca3d
000000c0: 13a2 9dbd ae1f c6bb b731 b9bd 71b5 553a
000000d0: e7d2 d2bd 9383 c83c 9538 4e3d 3d18 163d
000000e0: cd57 2abd eb63 93bd 9758 833d 6ef8 a43d
000000f0: 7ffb 72bd c34a 96bd 81ac a1bd 46de 52bd
00000100: d2dc 27bd de2f 203d 6fd1 aabd d8a8 86bc
00000110: 1e16 c2bd 6851 7f3d 0b3b e83c b2ed 84bc
00000120: 1834 abbd 2aff bdbd 3571 59bd f3db 463d
00000130: 6f8b 61bd 34d6 a63b 003f fa3d 5526 323d
00000140: 2394 bfbd 864f a63c 226f 41bd 182b bb3c
00000150: 2396 5a3c ed7b 13bd e891 6dbd 3fe0 02bd
00000160: 9eef 053d 6087 9f3d ab15 dcbd 598b aa3c
00000170: ab42 92bd 872c 95bd d2dd e5ba bd2e 62bd
00000180: 1d7c debc 303d 15bd eb98 e2bc e4f5 8b3d
00000190: 7c21 aabd 1f7f 073c 8d58 01bc 435f 143d
000001a0: e02d 7ebd 72cc 63bc 9a12 ae3c 3cb9 c13b
000001b0: f636 bebd 9d46 7fbd b24f e23c fe70 253d
000001c0: 5f7b 1d3d 3f4c 203d bcff b1bd 1a17 873d
000001d0: 57f9 693d 0aeb 3a3d ce85 81bd a9da e2bc
000001e0: 787d 713d de89 943c b28e abbd 7df3 d0bc
000001f0: d84f c23d e7b4 003e 9eb1 9ebc bf8d a5bc

fc.2.weight f4 [64, 128]
0.027403524 0.017928459 -0.018271219 -0.020777859 -0.060655568 0.07490544 0.062149577 -0.004806423
0.06040573 -0.029591575 0.038753003 -0.029133372 0.023251902 -0.0022730385 0.00596321 0.0110931955
0.027059004 0.01456343 0.059895024 0.0050335354 -0.0013959549 0.022294909 -0.014792203 -0.0440698
0.045498658 -0.0049102525 0.04143182 -0.028872259 -0.0064104125 0.09802603 -0.03246262 -0.0815309
0.09504766 -0.04208747 -0.04211609 -0.030766565 0.0550252 -0.07566282 0.057887156 -0.004048542
0.070966125 -0.053740297 -0.057820167 0.0019515104 0.04703838 -0.015806573 0.084503986 0.042514395
0.06569388 0.066835806 -0.032519195 -0.043195188 0.0012512453 -0.052184664 0.08455206 0.05041281
-0.011049356 -0.0020986926 0.0836096 0.03326597 0.051532485 -0.06406128 0.02332482 0.07792724
-0.08063365 -0.050946265 0.055500176 0.06869996 -0.042913713 -0.053927403 -0.0135897165 -0.054299623
0.008944935 0.048588924 0.0057570566 -0.05234784 -0.027235366 0.032506444 0.07701903 -0.07857748
-0.07872067 -0.06977117 -0.06760633 0.045419104 -0.06646313 0.062303647 -0.004818422 -0.030262243
0.05038107 -0.046344537 0.013520828 0.070213854 0.079567164 0.0035954937 0.009850284 -0.015185852
0.06368497 0.055086695 0.05784746 -0.05302646 -0.048001766 -0.089119405 0.035761323 -0.005740747
-0.00464343 -0.048642837 -0.01323611 -0.011057465 -0.038246874 -0.045577195 0.030985473 -0.06321937
-0.05483048 0.08431392 -0.11293581 -0.06225087 0.040255215 -0.018743552 -0.035162903 -0.061517943
0.052865863 0.07553222 -0.031403016 0.006099397 -0.06637775 0.02261696 0.018057255 0.05245372
0.08772298 -0.0049591064 -0.028023278 -0.027619377 -0.057544395 0.08054028 -0.011105428 0.05843053
0.05914002 -0.0063141044 0.010890946 -0.01758716 -0.05741134 -0.083757654 0.04534268 0.054984502
-0.07335258 -0.0031595454 0.04722161 -0.05820737 0.07843541 0.026984148 -0.056006026 -0.025143487
0.043476146 0.051336773 0.03283368 -0.08295352 0.050382625 -0.067586735 0.004756061 0.014567718
-0.052013695 0.037648328 0.090700716 -0.011205137 0.034538638 0.071546085 -0.0037814432 0.030267708
-0.06877537 -0.0077962056 -0.06802345 0.026602335 -0.005969301 -0.050955754 -0.07817785 -0.08368975
-0.00762859 0.075110294 -0.040489204 0.0096734315 -0.038476337 0.0067818686 0.03488604 0.05905976
-0.07486424 0.0008036047 0.023748837 -0.029252935 -0.047768604 -0.013734676 -0.08568681 -0.06616524
-0.058146697 0.06274342 0.0077742077 0.053686228 -0.08766156 0.024395846 -0.03024959 0.07945188
-0.040185217 0.0046290606 -0.07010828 0.03544481 -0.024334423 0.02966141 0.067968465 -0.05389325
0.054551676 0.026768925 0.059801973 0.0015408187 0.022051444 -0.0030187473 -0.0041163564 -0.084240496
-0.08045723 -0.018429682 0.06745594 -0.066685155 0.08747079 0.005881287 -0.051663004 0.06861458
-0.08725923 -0.038112666 0.05914821 -0.03563317 0.049168758 -0.023583934 -0.05268199 -0.005959484
-0.028317306 0.07169198 -0.08180308 -0.013432093 -0.082619146 -0.008421876 -0.087315455 -0.008672848
0.035601698 -0.04018332 0.0070537105 -0.089806914 0.050618526 -0.041192 0.040629126 0.043058567
-0.07683684 -0.07301 -0.05952553 -0.061266318 -0.078815356 0.052525975 -0.036080074 0.034228027
00000000: 5b7d e03c b4de 923c 86ad 95bc 5436 aabc
00000010: f971 78bd 0668 993d 8e90 7e3d 337f 9dbb
00000020: 006c 773d 086a f2bc 78bb 1e3d 1ca9 eebc
00000030: c67a be3c 42f7 14bb 0867 c33b 3cc0 353c
00000040: d8aa dd3c 749b 6e3c 7c54 753d 5bf0 a43b
00000050: 79f8 b6ba d0a3 b63c ff5a 72bc 8982 34bd
00000060: cd5c 3a3d 2fe6 a0bb 69b4 293d 8485 ecbc
00000070: 700e d2bb dfc1 c83d 86f7 04bd acf9 a6bd
00000080: 59a8 c23d e963 2cbd ec81 2cbd 2a0a fcbc
00000090: 1b62 613d 1cf5 9abd 151b 6d3d a2a9 84bb
000000a0: b056 913d c91e 5cbd d7d4 6cbd d3c9 ff3a
000000b0: 51ab 403d c97c 81bc 6d10 ad3d 9323 2e3d
000000c0: 838a 863d 36e1 883d d932 05bd 70ed 30bd
000000d0: d300 a43a 96bf 55bd a129 ad3d aa7d 4e3d
000000e0: 5c08 35bc 388a 09bb 833b ab3d e641 083d
000000f0: ba13 533d 8f32 83bd b113 bf3c 5198 9f3d
00000100: 4123 a5bd 08ad 50bd 2754 633d 91b2 8c3d
00000110: 4ac6 2fbd fbe2 5cbd 67a7 5ebc 4869 5ebd
00000120: c78d 123c 2e05 473d b1a5 bc3b b06a 56bd
00000130: b41c dfbc 7a25 053d 27bc 9d3d 3bed a0bd
00000140: 4d38 a1bd 30e4 8ebd 3075 8abd 6209 3a3d
00000150: d21d 88bd 1c32 7f3d dae3 9dbb 86e8 f7bc
00000160: 615c 4e3d c5d3 3dbd 7786 5d3c 48cc 8f3d
00000170: 1cf4 a23d 60a2 6b3b 1663 213c 14ce 78bc
00000180: 446d 823d 96a2 613d 75f1 6c3d 4632 59bd
00000190: 809d 44bd 3c84 b6bd 777a 123d e01c bcbb
000001a0: ea27 98bb b63d 47bd 45dc 58bc 5f2a 35bc
000001b0: c1a8 1cbd 27af 3abd 3fd5 fd3c 2879 81bd
000001c0: ed95 60bd c7ac ac3d e44a e7bd c5fa 7ebd
000001d0: a7e2 243d 148c 99bc fa06 10bd 3dfa 7bbd
000001e0: e089 583d a3b0 9a3d 73a0 00bd 73dd c73b
000001f0: 0ff1 87bd 3447 b93c cfec 933c b6d9 563d
00000200: 1ba8 b33d 0080 a2bb 1391 e5bc 0842 e2bc
00000210: acb3 6bbd 4df2 a43d 8bf3 35bc da54 6f3d
00000220: ce3c 723d 8ce6 cebb f06f 323c f312 90bc
00000230: 2728 6bbd 2289 abbd 3fb9 393d 6e37 613d
00000240: e139 96bd 6010 4fbb 726b 413d da6a 6ebd
00000250: bfa2 a03d dc0d dd3c 9366 65bd b7f9 cdbc
00000260: 0b14 323d 8246 523d 9c7c 063d 89e3 a9bd
00000270: 035e 4e3d ea6a 8abd bbd8 9b3b 70ad 6e3c
00000280: 500c 55bd 2235 1a3d 4cc1 b93d c095 37bc
00000290: 6378 0d3d c186 923d 17d2 77bb fcf3 f73c
000002a0: 1ada 8cbd 5077 ffbb e14f 8bbd 24ed d93c
000002b0: 209a c3bb fbb6 50bd b51b a0bd 8865 abbd
000002c0: 40f9 f9bb 6dd3 993d 02d8 25bd 507d 1e3c
000002d0: 5d99 1dbd 703a de3b aae4 0e3d a6e8 713d
000002e0: 6c52 99bd 00a9 523a ec8c c23c daa3 efbc
000002f0: 03a9 43bd 6807 61bc 917c afbd a481 87bd
00000300: 3b2b 6ebd 9f7f 803d c8be fe3b 17e6 5b3d
00000310: e787 b3bd ccd9 c73c fdcd f7bc abb7 a23d
00000320: 4199 24bd 60af 973b ee94 8fbd 942e 113d
00000330: fc58 c7bc 7cfc f23c 0d33 8b3d 2bbf 5cbd
00000340: 9471 5f3d 814a db3c eaf2 743d 4cf5 c93a
00000350: 3ba5 b43c 2dd6 45bb 80e2 86bb 4886 acbd
00000360: c3c6 a4bd d8f9 96bc 5726 8a3d 3a92 88bd
00000370: e323 b33d d0b7 c03b 969c 53bd cd85 8c3d
00000380: f8b4 b2bd 071c 1cbd 6545 723d 16f4 11bd
00000390: 2e65 493d 1833 c1bc 12c9 57bd c647 c3bb
000003a0: b2f9 e7bc 3fd3 923d 6088 a7bd 4812 5cbc
000003b0: 3a34 a9bd e8fb 09bc 72d2 b2bd 9018 0ebc
000003c0: 16d3 113d 4497 24bd d022 e73b b0ec b7bd
000003d0: 5f55 4f3d f1b8 28bd ba6a 263d 2e5e 303d
000003e0: a25c 9dbd 4486 95bd 0bd1 73bd 64f2 7abd
000003f0: f269 a1bd 7a25 573d b3c8 13bd b032 0c3d

fc.2.bias f4 [64]
0.097293936 -0.089073494 -0.08089609 0.11061369 0.02597579 -0.03600044 -0.003317641 0.067763776
-0.07767109 0.061638404 0.10800706 -0.03388216 0.09168417 -0.09490206 -0.01064795 -0.041747317
0.14947267 0.03234004 0.012638097 -0.028777499 -0.0029065346 -0.017155707 -0.066183455 -0.054604627
0.13100441 -0.00031448863 0.03152219 0.06208832 -0.018174998 -0.06458518 0.060573254 -0.03121672
0.109756455 0.14247087 0.008020062 0.04198471 -0.017406834 0.15805721 0.010411936 0.14316772
0.030431522 -0.0818124 -0.0842083 -0.04498702 -0.06468793 -0.017496688 -0.024373554 0.037783466
0.13430133 -0.06027148 0.04807425 0.13195506 -0.040534507 -0.0033377178 -0.049603626 -0.040617917
-0.065376714 0.03115555 -0.012554936 0.06955987 -0.044161487 0.095937885 0.03663409 -0.025325714
00000000: 0b42 c73d 2a6c b6bd d9ac a5bd 6e89 e23d
00000010: 2ecb d43c 3375 13bd c86c 59bb bcc7 8a3d
00000020: 0512 9fbd 8d78 7c3d ce32 dd3d 05c8 0abd
00000030: e9c4 bb3d 035c c2bd bd74 2ebc 3cff 2abd
00000040: 5d0f 193e fd76 043d 0510 4f3c cabe ebbc
00000050: 8f7b 3ebb 208a 8cbc 318b 87bd 1aa9 5fbd
00000060: 0526 063e f3e1 a4b9 691d 013d 5250 7e3d
00000070: bce3 94bc 3c45 84bd a91b 783d 35ba ffbc
00000080: fec7 e03d e2e3 113e 9466 033c 29f8 2b3d
00000090: c798 8ebc c0d9 213e d396 2a3c 8f9a 123e
000000a0: 874b f93c 428d a7bd 6775 acbd 4f44 38bd
000000b0: 1b7b 84bd 3755 8fbc 0cab c7bc d6c2 1a3d
000000c0: 4a86 093e 3adf 76bd 81e9 443d 3a1f 073e
000000d0: 8307 26bd 9dbd 5abb 2c2d 4bbd f95e 26bd
000000e0: 3ae4 85bd ed39 ff3c 38b3 4dbc 6875 8e3d
000000f0: ade2 34bd 157b c43d a10d 163d df77 cfbc

fc.4.weight f4 [1, 64]
0.11842371 0.05964161 0.044420853 0.08835251 0.060218066 -0.029546266 -0.033802588 0.04628295
0.015912792 0.024265178 0.08017013 -0.024587004 0.033387512 -0.16528171 -0.067758664 -0.032496262
0.070802756 -0.04992975 0.06470095 -0.059684783 -0.10386671 -0.093882285 -0.011594127 0.008704649
0.1029622 -0.10317522 -0.095343694 0.0067500253 0.051725697 -0.08092028 0.062139902 -0.10527437
0.08524062 0.13236453 -0.09160847 0.02963416 -0.013818285 0.14586365 -0.018995127 0.078085564
-0.06502555 -0.09223345 0.096683554 -0.045165032 -0.019081697 -0.08351297 -0.1095781 0.04983598
0.07024172 -0.00025428485 0.08181166 0.108766966 -0.10767839 -0.03407766 -0.0067991177 -0.003213466
-0.016132163 -0.08087314 0.01799618 0.08375297 -0.022754526 0.042462327 -0.034308802 0.07612288
00000000: 2188 f23d c34a 743d a4f2 353d 29f2 b43d
00000010: 38a7 763d 030b f2bc 9574 0abd 3193 3d3d
00000020: 8b5b 823c c4c7 c63c 3d30 a43d af6a c9bc
00000030: 58c1 083d 9c3f 29be 0ec5 8abd cd1a 05bd
00000040: 0901 913d 2383 4cbd ef81 843d 0878 74bd
00000050: 12b8 d4bd 5b45 c0bd 4bf5 3dbc f29d 0e3c
00000060: d9dd d23d 884d d3bd 8e43 c3bd 512f dd3b
00000070: 53de 533d 88b9 a5bd 6986 7e3d 179a d7bd
00000080: a292 ae3d 918a 073e 399d bbbd 57c3 f23c
00000090: 1766 62bc 485d 153e ab9b 9bbc 53eb 9f3d
000000a0: 1e2c 85bd e4e4 bcbd 0702 c63d f8fe 38bd
000000b0: 3851 9cbc d908 abbd 7c6a e0bd d020 4c3d
000000c0: e4da 8f3d 8951 85b9 df8c a73d 37c1 de3d
000000d0: 7d86 dcbd 0495 0bbd 22cb debb 0399 52bb
000000e0: 9927 84bc d1a0 a5bd ba6c 933c ad86 ab3d
000000f0: b367 babc faec 2d3d 6387 0cbd 50e6 9b3d

exp_avg f4 [16, 2, 3, 3]
9.077528e-06 3.599111e-05 3.083832e-05 4.878621e-05 6.3700376e-05 3.845423e-05 -1.1765901e-05 4.9209997e-05
1.2705599e-05 7.26476e-07 2.374975e-06 2.1725539e-06 3.4460431e-06 5.2018427e-06 5.2097716e-06 7.739818e-07
2.4845176e-06 2.6494577e-06 1.1012603e-05 9.786788e-06 1.0803765e-05 6.6855515e-05 2.3352382e-05 4.7853355e-05
1.6471175e-05 0.00010435931 -3.4064703e-06 9.788231e-06 8.566609e-06 9.375363e-06 1.4107383e-05 1.1818554e-05
1.1825166e-05 1.5062346e-05 1.2659295e-05 1.2698736e-05 7.2613635e-05 1.0579745e-05 7.884872e-06 6.2437495e-05
3.4581746e-05 4.2523177e-05 5.8854712e-05 9.334656e-05 5.2597123e-05 4.2076094e-06 4.0724603e-06 4.1059916e-06
1.9578029e-06 1.4137913e-06 1.44346e-06 -1.9704191e-07 -7.5622324e-07 -7.258842e-07 8.865701e-06 5.738319e-05
6.754662e-05 1.39396625e-05 -6.55548e-06 1.6202568e-05 1.043916e-05 -9.531564e-06 -4.7750917e-05 -2.126353e-06
-3.6036428e-07 -7.4798194e-08 -3.0641745e-06 -1.5425467e-06 -1.1334197e-06 -5.1974043e-06 -5.0833532e-06 -4.231569e-06
-8.322038e-06 1.6771122e-05 7.0924066e-06 1.3038957e-05 3.1338714e-05 1.4881557e-05 6.4813577e-07 -2.8681777e-06
7.7651674e-07 -1.2619186e-06 -2.8481604e-06 -3.2470666e-06 -5.8033964e-07 -1.6310596e-06 -1.8645419e-06 -1.8335896e-06
-2.8838422e-06 -2.7489991e-06 1.0600788e-05 1.4928005e-07 2.2298768e-06 2.2651426e-05 2.3747114e-06 4.0357245e-06
4.4711437e-06 -2.7751357e-06 -3.7299193e-07 5.245188e-07 -8.1398845e-08 -3.986059e-07 4.3465778e-07 -3.710866e-07
-8.573791e-07 -3.3095696e-07 -1.136701e-06 -8.3946384e-07 4.9337305e-05 2.7207695e-06 1.3630571e-05 6.7322915e-05
-1.3297555e-05 4.8101433e-06 -6.8053687e-06 -5.0209205e-06 -8.8894085e-06 3.9503543e-06 2.6317182e-06 2.8010847e-06
3.5097535e-06 2.3949874e-06 2.8368736e-06 -7.527457e-07 -1.47426e-06 1.7318257e-08 1.568106e-05 -1.2832358e-07
-4.192047e-05 -4.8298793e-05 -4.4491368e-05 -3.7425594e-05 3.3453846e-06 1.8536289e-06 -9.586909e-06 4.837506e-07
9.246711e-08 1.7715686e-06 -1.8181292e-07 -7.57186e-07 9.219156e-07 4.8425027e-06 4.490432e-06 4.6889377e-06
-9.902236e-06 1.1112678e-05 1.6164578e-05 5.775816e-06 -4.3089935e-06 -2.4560713e-05 9.190053e-06 3.516388e-06
1.4800167e-06 -5.785463e-07 -8.8092776e-07 -6.631725e-07 -5.785463e-07 -8.8092725e-07 -6.631726e-07 -6.281636e-07
-4.436099e-08 1.9431127e-07 1.3878654e-05 1.571022e-05 -2.9329117e-06 -2.7281683e-06 1.8752215e-05 -6.067073e-06
6.382442e-05 4.9870097e-05 9.9172066e-05 4.182923e-06 4.511844e-06 5.5029877e-06 4.398868e-06 4.982403e-06
6.2554e-06 4.269496e-06 5.220046e-06 6.5797894e-06 -3.5212938e-06 -7.727764e-06 1.4298773e-06 1.3911418e-05
3.525997e-05 5.889679e-06 2.650297e-05 5.9213266e-07 -1.2710495e-05 8.037761e-06 8.228978e-06 6.43814e-06
1.3555884e-05 1.489269e-05 1.1642516e-05 1.4760885e-05 1.6097689e-05 1.18448725e-05 -1.7620314e-07 5.95654e-07
6.3687157e-06 3.0274552e-07 8.121271e-06 3.8364033e-05 -1.6645354e-05 6.5232853e-06 -3.9562174e-06 -2.2266431e-06
-1.5731243e-06 -5.5203103e-08 2.0135533e-06 2.114271e-06 3.8170665e-06 2.5595957e-06 2.57511e-06 3.7012953e-06
-1.8043885e-06 -8.919507e-08 -6.253306e-07 2.2421917e-05 7.305904e-07 -8.099763e-08 5.204095e-06 -3.9419595e-07
2.7287427e-07 4.928593e-06 4.928593e-06 2.206558e-07 5.4051907e-06 5.4051907e-06 5.3670846e-07 4.8968154e-06
4.8968145e-06 7.139001e-07 9.157399e-06 -1.4251002e-05 -3.0575895e-06 -1.8348413e-06 -8.835137e-07 4.1988158e-05
-2.4199357e-05 1.7464641e-05 -1.2265407e-05 1.42043e-06 2.173045e-06 2.6954408e-06 1.921186e-06 1.1532832e-06
1.0134759e-06 -5.068992e-07 -1.2748009e-06 -8.692007e-07 1.1600861e-05 -1.0405045e-05 3.5925257e-06 -4.6298632e-07
00000000: b04b 1837 29f5 1638 6558 0138 cb9f 4c38
00000010: e196 8538 ea49 2138 2966 45b7 d566 4e38
00000020: 222a 5537 0d03 4335 c361 1f36 31cc 1136
00000030: 9242 6736 7d8b ae36 99cf ae36 a0c3 4f35
00000040: b0bb 2636 56cd 3136 c5c2 3837 ef31 2437
00000050: d141 3537 c834 8c38 dce4 c337 26b6 4838
00000060: 942b 8a37 7adb da38 b79a 64b6 2238 2437
00000070: 4eb9 0f37 e14a 1d37 c0ae 6c37 4e48 4637
00000080: b464 4637 49b4 7c37 4263 5437 a80c 5537
00000090: 2648 9838 a97f 3137 4449 0437 e0f0 8238
000000a0: de0b 1138 ea5a 3238 c4da 7638 0ec3 c338
000000b0: bb9b 5c38 172f 8d36 2ba6 8836 33c6 8936
000000c0: cc62 0336 80c1 bd35 e8bc c135 7892 53b4
000000d0: 44ff 4ab5 62da 42b5 e5bd 1437 bbae 7038
000000e0: d1a7 8d38 65de 6937 25f7 dbb6 c0ea 8737
000000f0: da23 2f37 c1e9 1fb7 2848 48b8 77b2 0eb6
00000100: 1778 c1b4 bea0 a0b3 1ea2 4db6 8009 cfb5
00000110: 0120 98b5 5d65 aeb6 ac91 aab6 e7fc 8db6
00000120: e29e 0bb7 b6af 8c37 4ffb ed36 e5c1 5a37
00000130: b071 0338 cdab 7937 8dfb 2d35 eb7a 40b6
00000140: d371 5035 315f a9b5 0623 3fb6 2ee8 59b6
00000150: a3c8 1bb5 c8ea dab5 2c41 fab5 a919 f6b5
00000160: 0888 41b6 727b 38b6 0ada 3137 ca49 2034
00000170: fea4 1536 9103 be37 3b5d 1f36 9c6a 8736
00000180: d506 9636 783c 3ab6 9f3f c8b4 a8cc 0c35
00000190: 7dcd aeb3 faff d5b4 e95a e934 c139 c7b4
000001a0: a526 66b5 61ae b1b4 c090 98b5 8457 61b5
000001b0: 87ef 4e38 7796 3636 dbae 6437 b72f 8d38
000001c0: 9018 5fb7 d166 a136 ac59 e4b6 6179 a8b6
000001d0: b823 15b7 498d 8436 939c 3036 45fa 3b36
000001e0: 1b89 6b36 92b9 2036 1e61 3e36 4a10 4ab5
000001f0: 30df c5b5 40c3 9432 d28a 8337 51c9 09b4
00000200: c3d3 2fb8 6f94 4ab8 3e9c 3ab8 6df9 1cb8
00000210: 4581 6036 34ca f835 76d7 20b7 17db 0135
00000220: 5592 c633 a2c6 ed35 5b38 43b4 6d41 4bb5
00000230: 8f79 7735 c87c a236 84ac 9636 ab55 9d36
00000240: c821 26b7 9770 3a37 2b99 8737 e2cd c136
00000250: f995 90b6 bb07 ceb7 fa2e 1a37 16fb 6b36
00000260: fda4 c635 664d 1bb5 e578 6cb5 de04 32b5
00000270: 664d 1bb5 dc78 6cb5 e004 32b5 139f 28b5
00000280: 6d87 3eb3 e0a3 5034 5dd8 6837 71c9 8337
00000290: 0ad3 44b6 9315 37b6 134e 9d37 c393 cbb6
000002a0: 79d9 8538 9c2b 5138 99fa cf38 095b 8c36
000002b0: 7264 9736 4ea6 b836 fd99 9336 842e a736
000002c0: 7ae5 d136 b142 8f36 db27 af36 f6c7 dc36
000002d0: 5e4f 6cb6 7ea6 01b7 36ea bf35 1665 6937
000002e0: 1be4 1338 f59f c536 b252 de37 0cf3 1e35
000002f0: 293f 55b7 ecd9 0637 310f 0a37 3407 d836
00000300: 146e 6337 9edb 7937 3a54 4337 85a5 7737
00000310: 8609 8737 57b9 4637 5a32 3db4 08e5 1f35
00000320: dab2 d536 0789 a234 9840 0837 11e9 2038
00000330: a0a1 8bb7 98e2 da36 a6bf 84b6 706d 15b6
00000340: 2424 d3b5 7418 6db3 9520 0736 e6e2 0d36
00000350: 5a14 8036 85c5 2b36 0ed0 2c36 c563 7836
00000360: 512e f2b5 828b bfb3 64dc 27b5 b316 bc37
00000370: ca1d 4435 ebf0 adb3 d69e ae36 e1a1 d3b4
00000380: 8e7f 9234 4b60 a536 4b60 a536 68ed 6c34
00000390: 3c5e b536 3c5e b536 5312 1035 534f a436
000003a0: 514f a436 d7a2 3f35 bba2 1937 9617 6fb7
000003b0: fd30 4db6 ab44 f6b5 992a 6db5 711c 3038
000003c0: b9ff cab7 0881 9237 86c7 4db7 9aa5 be35
000003d0: a1d4 1136 52e3 3436 b9ed 0036 82ca 9a35
000003e0: c406 8835 d911 08b5 d319 abb5 0453 69b5
000003f0: 52a1 4237 5491 2eb7 1f17 7136 5b90 f8b4

exp_avg_sq f4 [16, 2, 3, 3]
5.1237773e-08 8.8721265e-07 1.726264e-06 9.190099e-07 3.9649826e-06 1.5025265e-06 2.180413e-06 3.2865444e-06
9.901016e-08 4.2032447e-08 6.710498e-08 6.180297e-08 4.8049156e-08 7.62036e-08 7.031622e-08 3.9526213e-08
6.425233e-08 5.9046485e-08 1.3895058e-07 1.0069245e-06 3.9948796e-07 8.458165e-06 2.4326177e-06 5.9889594e-06
3.1908996e-06 1.7394474e-05 4.2220506e-07 1.3225812e-07 1.3681067e-07 1.1340797e-07 2.0569743e-07 2.0847878e-07
1.7510536e-07 1.8661699e-07 1.9012396e-07 1.5864569e-07 1.1624484e-06 2.3364369e-07 3.3660697e-08 2.7097992e-06
8.916341e-07 4.025379e-06 1.3683905e-06 6.24641e-06 2.4076114e-06 3.035957e-08 3.2871153e-08 3.0931037e-08
4.267557e-08 4.5135124e-08 4.2495518e-08 3.6553107e-08 3.882797e-08 3.682983e-08 1.2328591e-08 1.0166125e-06
1.5244972e-06 4.3988862e-08 7.41013e-08 2.8793042e-07 8.903055e-07 1.0211299e-07 9.1390456e-07 1.7697982e-08
1.9044172e-08 1.7491864e-08 1.7966459e-08 1.8870246e-08 1.7565293e-08 1.4515905e-08 1.2101926e-08 1.1406155e-08
7.861737e-08 3.2148765e-07 4.3643805e-08 2.9118187e-08 4.70616e-07 8.090454e-08 4.7178945e-09 8.644225e-09
2.7158915e-08 2.2780309e-09 3.3695482e-09 3.0404852e-09 2.362158e-09 3.4601382e-09 3.2919094e-09 2.0956648e-09
3.4274594e-09 3.925648e-09 5.6872544e-08 1.6141004e-09 2.8208629e-09 5.6940365e-07 5.6347627e-10 7.265897e-09
2.3825997e-07 9.1135014e-08 2.825559e-10 7.843758e-10 1.8517137e-09 1.5199147e-09 6.6862704e-10 1.3372039e-09
1.0082407e-09 4.7479853e-10 1.0074594e-09 9.291671e-10 1.4194402e-06 4.9839093e-07 2.4227273e-07 3.3929716e-06
7.2446375e-07 8.3639634e-07 2.3526349e-08 2.5616376e-07 7.7503564e-08 5.056286e-09 4.98825e-09 5.4488156e-09
4.6701136e-09 4.6676663e-09 5.0503988e-09 5.6529363e-09 6.285411e-09 4.15246e-09 7.9598027e-07 1.9986743e-08
3.308857e-07 2.6672632e-07 1.2615072e-07 3.0226602e-07 1.558128e-09 6.426275e-10 1.4179449e-08 4.571043e-09
4.1090016e-09 5.1590447e-09 4.4857007e-09 3.9803836e-09 4.973761e-09 2.7843836e-09 2.6289066e-09 2.8412723e-09
6.1160006e-07 2.950733e-06 1.5920647e-06 2.3823945e-08 1.3892552e-08 1.0392736e-07 2.386053e-07 6.034357e-08
3.205694e-07 2.2065942e-08 2.6862086e-08 2.5853941e-08 2.2065942e-08 2.6862086e-08 2.5853941e-08 1.8639158e-08
2.2777273e-08 2.1861284e-08 1.7727353e-07 3.0695803e-06 7.001903e-08 5.264242e-07 5.971863e-07 7.1192005e-08
1.1458323e-05 2.5221445e-06 1.4935601e-05 1.0090121e-07 1.0407346e-07 8.236157e-08 1.03609786e-07 1.05920215e-07
8.371985e-08 1.03458326e-07 1.07450326e-07 8.4108855e-08 6.6191608e-09 6.700515e-08 1.0480385e-08 2.3477898e-07
4.828845e-06 6.753646e-08 1.325742e-06 7.571271e-08 9.989443e-08 1.5534747e-08 2.0907237e-08 1.2383156e-08
6.081398e-08 7.809403e-08 4.5329223e-08 5.785438e-08 7.4714634e-08 4.3187594e-08 9.089062e-09 2.6254938e-09
2.1679693e-08 4.6996956e-07 1.3035879e-07 3.590739e-07 6.2374994e-08 5.975799e-09 7.692289e-09 3.1030412e-09
4.4110964e-09 4.9014566e-09 2.7078435e-09 2.135526e-09 1.9316777e-09 2.4225113e-09 2.0719695e-09 2.002573e-09
6.396665e-09 1.5514896e-08 6.3979213e-09 2.267107e-07 1.7137249e-10 4.1732492e-10 7.1023806e-08 1.3663808e-09
3.4333936e-09 1.5262515e-09 1.521435e-09 1.3837029e-09 1.5489992e-09 1.5472504e-09 1.4181981e-09 1.4355594e-09
1.4339696e-09 1.3740036e-09 5.0370062e-08 9.969196e-09 8.4041964e-09 1.3670772e-08 2.6494766e-07 7.776487e-08
1.6293981e-07 2.2530715e-07 7.351671e-08 1.6988717e-09 1.5990669e-09 1.1070364e-09 2.500595e-09 2.856779e-09
1.6592548e-09 1.8113919e-09 2.142377e-09 1.2985261e-09 1.06093495e-07 2.7131025e-08 7.566764e-09 2.185046e-08
00000000: 8710 5c33 ca28 6e35 fbb1 e735 e1b1 7635
00000010: f10a 8536 6baa c935 3653 1236 678e 5c36
00000020: 699f d433 2a87 3433 5a1b 9033 8bb8 8433
00000030: 9b5e 4e33 5fa5 a333 c000 9733 88c3 2933
00000040: 18fb 8933 4c9a 7d33 7232 1534 aa25 8735
00000050: 3579 d634 8be7 0d37 0e40 2336 c5f4 c836
00000060: 3d23 5636 59ea 9137 6cab e234 d602 0e34
00000070: 3be6 1234 b18a f333 aedd 5c34 36da 5f34
00000080: 9804 3c34 e360 4834 e024 4c34 3258 2a34
00000090: 6c05 9c35 7ddf 7a34 5492 1033 ffd9 3536
000000a0: a158 6f35 be11 8736 8aa9 b735 4198 d136
000000b0: 7392 2136 b364 0233 372e 0d33 09d9 0433
000000c0: 494a 3733 98da 4133 5184 3633 91fe 1c33
000000d0: cec3 2633 d42e 1e33 b7cd 5332 8a72 8835
000000e0: 539d cc35 44ee 3c33 9f21 9f33 db94 9a34
000000f0: 54fd 6e35 3649 db33 0b53 7535 4606 9832
00000100: 9496 a332 0441 9632 a954 9a32 1c18 a232
00000110: 7de2 9632 a061 7932 d5e8 4f32 cdf4 4332
00000120: 5bd4 a833 ed98 ac34 df72 3b33 921f fa32
00000130: f8a8 fc34 bebd ad33 0a1b a231 b481 1432
00000140: 164b e932 8b8b 1c31 b88d 6731 c8f0 5031
00000150: 8653 2231 65c7 6d31 e237 6231 5303 1031
00000160: 8188 6b31 5de2 8631 0644 7433 1cd7 dd30
00000170: 25d9 4131 1fd9 1835 1ee3 1a30 82a7 f931
00000180: 67d4 7f34 01b6 c333 3556 9b2f 8a9b 5730
00000190: 627f fe30 3fe5 d030 72ca 3730 aec8 b730
000001a0: 5192 8a30 fa82 0230 d476 8a30 5268 7f30
000001b0: 9883 be35 2ac9 0535 b611 8234 cfb2 6336
000001c0: c578 4235 b884 6035 fd16 ca32 e186 8934
000001d0: 0970 a633 90bb ad31 1c65 ab31 4a38 bb31
000001e0: c176 a031 3a61 a031 c787 ad31 c13b c231
000001f0: 0ff7 d731 6dad 8e31 59ab 5535 50af ab32
00000200: 96a4 b134 9632 8f34 0c74 0734 2047 a234
00000210: c125 d630 e4a4 3030 e099 7332 520f 9d31
00000220: 292f 8d31 7043 b131 a420 9a31 d3c3 8831
00000230: aae5 aa31 6557 3f31 37a8 3431 3140 4331
00000240: d62c 2435 3505 4636 edae d535 69a5 cc32
00000250: 17ac 6e32 ac2e df33 aa19 8034 3a96 8133
00000260: b91a ac34 858b bd32 5abe e632 6b15 de32
00000270: 858b bd32 5abe e632 6b15 de32 f11b a032
00000280: c1a7 c332 79c9 bb32 9458 3e34 fdfe 4d36
00000290: 5e5d 9633 984f 0d35 544e 2035 38e2 9833
000002a0: 1f3d 4037 1d42 2936 eb93 7a37 07af d833
000002b0: fd7e df33 c0de b033 1580 de33 4176 e333
000002c0: 79c9 b333 d12c de33 71bf e633 559f b433
000002d0: c16e e331 79e4 8f33 380d 3432 8e17 7c34
000002e0: 7607 a236 9008 9133 26f0 b135 8197 a233
000002f0: 8b85 d633 4571 8532 8097 b332 b2bd 5432
00000300: d798 8233 a6b4 a733 02b0 4233 907b 7833
00000310: ce72 a033 437d 3933 1e26 1c32 2d6c 3431
00000320: 263a ba32 2050 fc34 c0f8 0b34 bec6 c034
00000330: 04f3 8533 af53 cd31 0b27 0432 473d 5531
00000340: 6a90 9731 ab69 a831 e314 3a31 92c0 1231
00000350: 6fbe 0431 4579 2631 7962 0e31 a39d 0931
00000360: a9c9 db31 9e45 8532 b6d4 db31 c36d 7334
00000370: 116d 3c2f 436d e52f c085 9833 40cb bb30
00000380: e6f0 6b31 33c4 d130 bc1a d130 b82c be30
00000390: 90e4 d430 09a7 d430 69ea c230 424d c530
000003a0: 5215 c530 74d7 bc30 7856 5833 fd44 2b32
000003b0: 0c62 1032 b1dc 6a32 213e 8e34 b0ff a633
000003c0: 8ef4 2e34 f5eb 7134 3de0 9d33 bc7d e930
000003d0: 2ac6 db30 6126 9830 efd6 2b31 fd50 4431
000003e0: d70b e430 b0f4 f830 1839 1331 d377 b230
000003f0: 84d5 e333 c10d e932 fbfe 0132 abb1 bb32

exp_avg f4 [16]
4.5825027e-06 2.2665748e-05 4.781934e-06 1.5202304e-06 -4.794982e-06 -6.5303266e-07 -1.763686e-06 -7.6642414e-07
4.439046e-06 1.8389344e-05 1.5185416e-05 7.707854e-06 5.995484e-06 -2.1669493e-06 2.5651536e-06 -4.2065915e-07
00000000: 66c3 9936 5322 be37 8074 a036 b80a cc35
00000010: 95e4 a0b6 104c 2fb5 cab7 ecb5 44bc 4db5
00000020: 1df3 9436 d142 9a37 ddc4 7e37 fb50 0137
00000030: d12c c936 e86b 11b6 0125 2c36 f4d6 e1b4

exp_avg_sq f4 [16]
2.716458e-07 6.855484e-07 1.5651182e-07 6.464399e-08 1.1725805e-08 4.1249557e-08 1.833918e-08 1.5600124e-08
2.0633952e-07 5.30451e-07 1.9324534e-07 7.0877983e-09 3.2216463e-09 1.4800125e-08 2.822676e-09 6.029053e-08
00000000: b7d6 9134 8706 3835 a40d 2834 69d2 8a33
00000010: a372 4932 5e2a 3133 4988 9d32 0901 8632
00000020: 2d8e 5d34 5164 0e35 e07e 4f34 ef88 f331
00000030: cd63 5d31 a343 7e32 0bf9 4131 1279 8133
