output/red/images/epoch_62.pt (torch, 369546 bytes, 27 tensors)

conv.0.weight f4 [16, 2, 3, 3]
00000000: 1cac 08be 3aa7 c83d 8537 2c3e 1aac 2d3d
00000010: 06b4 243e d85f 623d e624 ef3d 153a ec3d
00000020: 51c4 08be 87a9 ecbd f5d5 adbd 7bbb 2f3e
00000030: 3d79 28be 9a46 36bd 19f9 203e eb8e 70be
00000040: b9f8 313e a654 533e 5027 28be 351a 993c
00000050: e04a 8ebd 6b4a db3d da1f 25bd c287 d43d
00000060: d107 78bc a4c2 453e 79a6 45be 9d12 153e
00000070: b626 5b3d ac00 24be 7e6a cf3d 2d06 c8bc
00000080: 2986 0d3e 007d 10be 95ff 403e f547 f33d
00000090: 04cb dd3d 7354 96bc 4a46 1ebe a4d1 913d
000000a0: e0de 52bd 66c4 133e 4f7c 40bd a150 193e
000000b0: d39f 3e3d aa38 4b3e cbde 293e b917 56be
000000c0: 7fc3 0b3e c8fc 563e 5d40 30be 230b 14be
000000d0: e1d4 523d fc83 4dba defa 91be 90d9 053e
000000e0: 79f6 1d3e 89ab edbd 1831 04be 1547 17bd
000000f0: 5dc6 ab3d fa0a 76bd 298e 9b3d c79b fbbd
00000100: 71b5 dd3c 152a ecbc 2969 e93d 1d0f 24bd
00000110: 349d e6bc 465b 52be 68e9 ba3d 3399 17bd
00000120: 5ecb 6a3d 3e84 083e 6247 51be c794 67be
00000130: 5a1a 143e 74ad 7abd aaae 25be ca54 57be
00000140: 9650 a1bd b96e bc3d 30ce d53d 0d52 9ebe
00000150: d302 9abe 80f1 7b3d ca4c 8dbd 95dc 483d
00000160: 9705 dc3d 3b19 c13d b5f4 e13a 5977 3abe
00000170: 3940 15be bde4 c33d 3f95 16be bf63 09be
00000180: 8411 033d dbaf 47bd a405 35be 5537 27be
00000190: 1dbf 6b3e 5457 16be 0ba3 12be 60d8 b5bd
000001a0: 2a5e 2dbe 967a 62be d7aa c43d b976 0a3d
000001b0: 61b0 3a3e 7c84 f43d 718f 9d3d 3c36 243e
000001c0: a74c b2bc d086 043d 226a 61be b1af e33d
000001d0: 12f9 b0bc d71c 0bbe d542 233e d6e4 0f3c
000001e0: ead7 953c 66ee 273d 2c48 f93c 6abf 79bd
000001f0: 2e3f 50be f790 50be feaf 153e 7ea7 89be
00000200: 229a 303d b01e fc3c 9c46 83bd 4970 583d
00000210: 9333 4bbe 72e4 4ebe 67d4 debc 5d09 3bbc
00000220: 7cd5 1e3d c654 3fbe c6b4 463e c2b8 31be
00000230: 7d55 f13d 483e 55be b940 00be 82f8 473e
00000240: 781a 8d3d 16b7 413e 43e3 313e 0cb2 45be
00000250: b966 83be b54c c8bd 8435 98bd e18b 04be
00000260: 5fd3 95bc 99af 38be b1b0 96bd fb20 433e
00000270: 6033 18be 12d2 0dbe c4ce 003e f029 37be
00000280: 4a66 adbc 49d8 26be 67ff 0fbe 1ff8 0c3e
00000290: 1409 32be cc77 f5bd 0f85 6dbd 7715 75be
000002a0: e0f6 743d ddb2 afbd 63d1 4c3e e810 0dbe
000002b0: 0e3e a3bd 73f0 f43d 586a 3a3e 68b7 42be
000002c0: d3e5 33be caf8 25be 6686 abbd 2124 93bb
000002d0: e2e0 36be 9d73 5ebd 0c82 3bbe a145 febd
000002e0: 5d6c 473e b1d8 49be 742f 803d b3c3 0bbe
000002f0: 6036 eebc 57a2 21be 6506 5f3d 91cc 92bd
00000300: 9f02 74be bf76 3b3e 6c41 c43c 7495 bb3d
00000310: 22b5 413e 7759 2b3e bbe8 0abe 7455 97be
00000320: 986b f8bc f922 e43d e5de f5bc 4782 ae3d
00000330: 19a8 73bc 76fd 73be dca5 16be 4d76 26bd
00000340: aec8 883d cd55 03be 3655 23be 6360 70bc
00000350: f615 c2bd 59d3 753d 1389 2abd 49f3 f83d
00000360: 1fa5 03bd 1305 7abc ef51 3abd 1e5b c93c
00000370: 7a6c 2ebe 0b92 eabd 58fb f7bc 5612 d4bd
00000380: 3edb 8fbd ec77 4d3e a188 253d 7d84 2ebe
00000390: 09dc a4bd 1e9e 8dbc 269d 1bbe c0c0 b63d
000003a0: 1f7a d33d 63f2 443e 8508 853d 3da7 1bbe
000003b0: 88d0 14be 5948 0bbe 6771 313e 644e 04bb
000003c0: 7060 5c3d c6dc c03d c13b 2dbe c95d 94bd
000003d0: f3dc 6abe 61c8 76be e601 513d b361 db3d
000003e0: 4cfa c83d eccc e1bd 6014 44be 9940 2e3e
000003f0: 4d6f 1a3e c1ba e63c 73f0 2ebe 7f05 fbbd
-0.13346905 0.09797521 0.16818054 0.042400457 0.16084298 0.055267185 0.1167696 0.11534516
-0.13356139 -0.11555772 -0.08488075 0.17161362 -0.16452499 -0.044500925 0.15720023 -0.23492019
0.17380036 0.2063776 -0.16421247 0.018689254 -0.06947875 0.107075535 -0.04031358 0.10377456
-0.015138582 0.19312531 -0.19301786 0.14557882 0.053503715 -0.16015881 0.10127734 -0.024417007
0.1382071 -0.14110184 0.18847497 0.11878959 0.10829738 -0.018350815 -0.154565 0.07120064
-0.05148208 0.14430389 -0.04699355 0.14972164 0.04653914 0.19845834 0.16588895 -0.20907487
0.13648795 0.20994866 -0.17212053 -0.14457373 0.05147255 -0.00078397966 -0.2851171 0.13071275
0.15426053 -0.11604983 -0.12909353 -0.036933023 0.08387444 -0.06006906 0.07595474 -0.122855715
0.027064057 -0.02882866 0.11397011 -0.040053476 -0.028151132 -0.2054263 0.0912655 -0.037011337
0.057322852 0.13331696 -0.20437387 -0.22615348 0.14463177 -0.061200574 -0.1617991 -0.21028438
-0.07876699 0.09200806 0.10439718 -0.30921975 -0.3008028 0.06150961 -0.06899412 0.04903849
0.10743254 0.094286405 0.0017239066 -0.1820959 -0.1457528 0.09565113 -0.1470537 -0.13416956
0.031999126 -0.048751693 -0.17677933 -0.16329701 0.23022123 -0.1468175 -0.14320008 -0.08879161
-0.16930452 -0.22117075 0.096028976 0.03380463 0.18231346 0.11939332 0.07693375 0.16036314
-0.021765066 0.03235513 -0.22013143 0.11117495 -0.021603141 -0.1358522 0.15943463 0.008782586
0.018291432 0.04099884 0.030429922 -0.060973562 -0.20336601 -0.203678 0.14617917 -0.268856
0.043115743 0.030776352 -0.06409952 0.05284146 -0.19843893 -0.20204332 -0.02720089 -0.011415807
0.038777813 -0.18684682 0.19404897 -0.17355636 0.11783884 -0.2082454 -0.1252469 0.19528392
0.06889814 0.18917498 0.1737185 -0.193062 -0.2566431 -0.09780256 -0.07432082 -0.12943985
-0.018289266 -0.18035735 -0.0735792 0.1905555 -0.14863348 -0.13849667 0.12578875 -0.17887092
-0.02116694 -0.16293444 -0.14062272 0.13766526 -0.17386276 -0.1198574 -0.057988223 -0.2393397
0.05980575 -0.08579037 0.2000175 -0.1377598 -0.0797082 0.119599245 0.1820463 -0.19015276
-0.1756814 -0.16208187 -0.08375244 -0.004490391 -0.17859223 -0.054309476 -0.18311328 -0.124156244
0.19474931 -0.19711567 0.06259051 -0.13648872 -0.029078662 -0.15784584 0.054449458 -0.07167924
-0.23829125 0.18307017 0.023956977 0.09159365 0.18916753 0.16733347 -0.13565342 -0.29557383
-0.030324742 0.11139483 -0.030013511 0.08520942 -0.014871621 -0.23827156 -0.14711708 -0.040640164
0.066789016 -0.12825699 -0.15950474 -0.014671418 -0.09476845 0.06001601 -0.04163463 0.12155778
-0.032139894 -0.015259999 -0.045488294 0.02457958 -0.17033568 -0.11453637 -0.030271217 -0.1035506
-0.07024239 0.20065278 0.040413503 -0.17042728 -0.08049781 -0.01728731 -0.15196666 0.08923483
0.10326027 0.19233088 0.064957656 -0.15200515 -0.14532673 -0.13601817 0.17328416 -0.0020188326
0.053802907 0.09417109 -0.16917326 -0.072444506 -0.22935848 -0.24099876 0.0510272 0.10711994
0.09813365 -0.11025414 -0.19148397 0.1701683 0.1508152 0.028165223 -0.17083912 -0.12256908

conv.0.bias f4 [16]
00000000: e49c 8b3d 29f8 42bd aaac 27be 07d7 3d3d
00000010: 1e8d 09be 2989 583e 2ff8 18be cdd9 08be
00000020: 2201 bb3c b781 393e b7a4 75be 3448 90bd
00000030: b8f3 5dbe 3007 66be a648 2bbd 91ec 71be
0.06817034 -0.047599945 -0.1637446 0.046347644 -0.13432738 0.21146072 -0.14938425 -0.13364334
0.022827689 0.18115889 -0.23988615 -0.07045022 -0.21675003 -0.2246368 -0.04181733 -0.23625399

conv.3.weight f4 [32, 16, 3, 3]
00000000: 41ba 40bc 62d4 bc3c eb1a af3b 16b4 94bd
00000010: 2167 44bc 2a57 91bd 1ddc 743d 53f4 8c3c
00000020: 8860 a0bc 1f69 cdbc 6e54 a0bd cf9f 043c
00000030: 9a3b 733d 51e5 543d 6038 583b aff6 9abd
00000040: 08ec 6e3d 65b1 72bd 7b04 0fbd 5b8e 9c3c
00000050: 6a80 243d dbff 5e3d 7064 02bd 9dc7 0d3d
00000060: 555f a2bd 8dd7 553d 0a66 68bd 9f49 073d
00000070: 7225 743d 537b a6bc 4c2f 46bd 2054 5cbd
00000080: 41c2 b1bc 60fd 14bd 5731 97bc 588a 153d
00000090: 3db9 91bd 5268 59bd 355f 7e3d df54 d1bc
000000a0: 042e 07bd 97b7 76bd a397 6cbd e1aa 0f3d
000000b0: a5ee 283d 8c7a de3c 0ddc be3c dfe0 acbd
000000c0: 85f8 9eba 8a3f 993b b59a 173d 38f3 26bd
000000d0: 15f6 7d3c dfc1 2b3d 73ed 4ebc 363b b7bc
000000e0: 362a 9ebd 11ba 7b3d 29f5 85bd e014 1d3d
000000f0: 803e 36bc f8b3 9dbd fb27 a4bc 02ed 88bd
00000100: dff4 8cbd d1d5 a73a b315 abbd b0cc c23c
00000110: bd2e cbbd 7707 3dbd 6d16 1cbd 4280 4abd
00000120: 3a1d 9bbd 9573 ccbd c55c 393d 4942 9bbd
00000130: 72d7 833b 9935 4ebb d46b a0bd c818 e6bc
00000140: 0759 36bd 57f7 7b3d 10ef bdbd 2519 66bd
00000150: 3729 b8bd f158 afbd 7f9c 803d e376 8c3c
00000160: 5897 26bd ffde 3a3d 9b22 703d 6603 9ebc
00000170: 3b0d 7a39 5ad1 f7bc f52d 62bd 517b 5c3d
00000180: f70d 4dbd bbce 473c 53af 65bd 1d24 3f3d
00000190: 5dc9 473d 537c 1ebd bdfa e0bc 428d a6bc
000001a0: af06 b4bd 6e3a 4ebb 4580 ec3c 71cf ae3d
000001b0: 012b 63bc d3d3 423d ecbf 463d c831 483d
000001c0: 9b73 f5bc d859 093d 62f0 11bd f193 2dbd
000001d0: 8b8a 2c3d 4a32 a4bd 6cdb 91bd 856d 61bd
000001e0: cdb8 d5bc 731a 4ebd e3a9 3cbd eaf2 3bbd
000001f0: 4185 8f3d 234b 553d 0155 22bd f970 e93c
00000200: 1617 d5bc 1867 41bd 1476 60bc 1a5a 8a3d
00000210: b37d 053d 9165 64bd 6bf2 24bd 00e4 97bc
00000220: 4b5c 7b3c 9b0b 63bc 6db6 7cbb 7944 953c
00000230: 9c83 b8bd 093c 183c 9d10 9dba 71af 65bc
00000240: cc7d 8c3d 2000 173c 991b 4ebd bb80 463d
00000250: b987 73bd 26b5 823d 7558 51bd 61a0 6cbc
00000260: 84bd 1c3d f98b c1bd f75f 893d 0944 3bbd
00000270: 4cbe 84bb f393 533b 42e3 98bc 7ff0 573d
00000280: 06a4 94bd 7033 943d 482d 5ebd 19bc 6d3d
00000290: 6e47 36bd 4439 713d 27b4 6cbc c999 94bc
000002a0: a07b 88bb 19c2 30bd 03de fabc 17f0 e83c
000002b0: 6b66 673d c80d 25bc fcba 2dbd 960d 37bd
000002c0: 06c3 e8b9 2ed9 adbd be45 513d a6d6 c2bc
000002d0: ce58 4fbd 085f a23d c15e a8bd 53ee 5bbd
000002e0: 9e6e abbd 21db 4ebd 6c18 093c dd00 233d
000002f0: b995 923b 24eb 85bc 8217 4fbd 897f 0a3d
00000300: f378 7ebc 085e 333c 3cbe 673d 395c b2bc
00000310: 8aad 893c f55f a4bd 9dd7 9dbd 03c3 53bd
00000320: 8fed 84bd 0aff 06bc 0df5 46bd 287d 8f3d
00000330: 1b76 d33c 7927 93bd 5be5 88bc 5aa9 a43d
00000340: 45cc 2c3d 48ec 5b3c 9e2f 503d 939d 373d
00000350: ada0 b7bd a29c d83c c119 90bd 8010 1abd
00000360: b3b7 f83c 7c64 d63a b842 683d 6d1e 26bc
00000370: 39c4 c23c ff7e 07bd 3fb2 f2bc f432 e1bc
00000380: ff7a df3c c726 243c 7887 95bd ce41 4d3d
00000390: 7798 803c 6f5b 923c 1ed2 42ba e226 5c3d
000003a0: e6ef 943d df78 86bd 1c1b 593d 7bce 563d
000003b0: 5f49 403d 9089 6c3d 2588 95bd ac6a 1dbd
000003c0: a6f9 6abc e157 923c 6046 4ebd 0950 edbc
000003d0: fc25 d83c cd1d 8b3d 4eb3 10bd 1a5f a6bd
000003e0: a402 423d df06 3d3d aa48 74bd a086 ebbc
000003f0: 72f1 393d f04c cbbd 608b b0bd 0e77 043c
-0.011763156 0.02305049 0.005343785 -0.07260911 -0.0119874785 -0.07096703 0.05978023 0.017206347
-0.01957728 -0.02507454 -0.07828604 0.008094742 0.059383012 0.051976506 0.0032992586 -0.075665824
0.058330566 -0.059251208 -0.034916382 0.01911085 0.040161528 0.05444322 -0.031834066 0.034614194
-0.079283394 0.05220752 -0.056737937 0.033029195 0.059606023 -0.020322477 -0.04838495 -0.053791165
-0.021699073 -0.03637445 -0.018456144 0.036508888 -0.071154095 -0.053078003 0.062102515 -0.025553165
-0.03300287 -0.06023368 -0.0577618 0.035075072 0.041243214 0.027158044 0.023298288 -0.08441328
-0.0012128508 0.004676764 0.037012774 -0.040759295 0.015500565 0.041932937 -0.0126298545 -0.022367101
-0.07722895 0.061456744 -0.06540901 0.038349986 -0.0111233 -0.07700342 -0.020038595 -0.06685831
-0.06882643 0.0012804811 -0.08353748 0.023779243 -0.09921024 -0.046149697 -0.038107324 -0.049438722
-0.07573934 -0.09982983 0.045254488 -0.07581002 0.004023486 -0.0031465052 -0.078330666 -0.028087988
-0.044518497 0.06151518 -0.09274113 -0.056176323 -0.08992236 -0.08561886 0.06279849 0.017146533
-0.040671676 0.045622822 0.058626752 -0.01928873 0.00023846787 -0.030251194 -0.05521961 0.05382854
-0.050062146 0.0121952845 -0.056075405 0.0466653 0.04877602 -0.038692784 -0.027463311 -0.020331029
-0.08790337 -0.0031467932 0.028869757 0.0853566 -0.013865233 0.047565293 0.048522875 0.0488756
-0.029962352 0.033532947 -0.035629638 -0.042377416 0.042124312 -0.080174044 -0.071219295 -0.055036087
-0.026089096 -0.050318193 -0.046060454 -0.045885958 0.07007838 0.05207361 -0.039631847 0.028496252
-0.026011985 -0.04721746 -0.013700027 0.06755467 0.03259058 -0.055760924 -0.04027025 -0.018541336
0.015341829 -0.013857747 -0.0038560883 0.018221127 -0.090094775 0.009291657 -0.00119831 -0.014018879
0.06859931 0.009216338 -0.050319288 0.04846261 -0.059455607 0.063822076 -0.05110975 -0.014442534
0.038266674 -0.09450526 0.06707757 -0.04571918 -0.0040510055 0.003228423 -0.018663052 0.05271959
-0.072578475 0.072363734 -0.054242402 0.058040712 -0.044501714 0.058892503 -0.014447249 -0.018139737
-0.004165128 -0.043153856 -0.030623442 0.028434796 0.056494158 -0.0100740865 -0.04241465 -0.04469069
-0.00044395792 -0.08488689 0.051091902 -0.023783993 -0.0506218 0.07928282 -0.08221198 -0.05369408
-0.08370708 -0.050501946 0.008367639 0.039795745 0.0044734147 -0.016347475 -0.05055953 0.033813033
-0.015531766 0.010947712 0.056577906 -0.02177249 0.016806383 -0.08026115 -0.077071406 -0.05169965
-0.06490623 -0.008239517 -0.048573542 0.070062935 0.025813153 -0.07185263 -0.016710928 0.08040114
0.042186994 0.013423033 0.05082666 0.04482801 -0.08966193 0.026441876 -0.07036162 -0.037613392
0.030361032 0.0016356851 0.056704253 -0.01013909 0.023775207 -0.033080097 -0.02962601 -0.027490117
0.027280329 0.010019011 -0.07301229 0.050111584 0.0156977 0.017865865 -0.00074318226 0.05374802
0.072723195 -0.06566023 0.05300437 0.05244301 0.046944972 0.057748377 -0.07301358 -0.03843181
-0.014341747 0.01786417 -0.050360084 -0.028968828 0.0263853 0.067927934 -0.03532725 -0.08123608
0.0473658 0.04614913 -0.05963961 -0.028750718 0.045396276 -0.09926784 -0.08620334 0.0080850255

conv.3.bias f4 [32]
00000000: 6fb8 2e3d 8498 38bd d1a2 073d b7b5 a5bd
00000010: 07bc 9bbd e812 153d 4b35 d6bd 48cc 083c
00000020: c20b 1dbd 4c38 9c3d bd7c 283d 1086 89bc
00000030: 4c48 b5bd b1b1 07bd 83f9 8e3d eafe 043d
00000040: 1b38 bbbd 994c 4fbb 6a23 9a3c cf40 9fbd
00000050: e771 a3bd 926f e7bd 42e1 443d b03f 3ebd
00000060: 60ce cabd ba42 0dbd d4d3 7a3d 4e01 4bbd
00000070: 7ae8 d43c fa9e d53c e01c b7bc b51c 62bd
0.04265636 -0.045067325 0.03311426 -0.080913 -0.07604223 0.036394984 -0.104593836 0.008349486
-0.03834129 0.07627925 0.041134585 -0.016787559 -0.0885168 -0.033128444 0.06981184 0.032469667
-0.09141561 -0.003163135 0.018815715 -0.07776033 -0.079807095 -0.11300577 0.048066385 -0.046447456
-0.09902644 -0.034487464 0.06123717 -0.04956179 0.02598976 0.026076782 -0.022352636 -0.05520316

fc.0.weight f4 [128, 128]
00000000: 1295 693d 0d3b 5cbc 64ac a3bc dc16 ae3c
00000010: 574d 94bd 082c c4bd 0888 dcbd 446e 79bd
00000020: e02c 073d 803e 84bb b5f2 163d e54a a6bd
00000030: f498 5bbd c35c 9f3d 40df 9abd d73a 853d
00000040: 000b 8239 fe11 e2bc 7a9e 3abd 520f a7bd
00000050: b6ef 19bd 39ce 73bc 8d41 813c cefa 85bc
00000060: bcb8 123d 8e56 063d cc3d fd3c 86bf 543d
00000070: 2fed d0bd f5a6 86bd 1b68 96bd 88ea 9dbd
00000080: a3a5 03bd ceea 3dbd fff9 833d a03c cfbb
00000090: 468d 663d 028f 213d 001b 37ba 0ddf b43d
000000a0: b82f a5bb f658 53bd f83e b8bc c54a 39bd
000000b0: f875 c7bd 6634 bc3c 3dcf 58bc 5607 e7bc
000000c0: e044 7d3b 9423 153d 2485 b3bd 9400 973c
000000d0: 38f3 91bd 20b5 743b 6ce7 df3c 9e81 62bd
000000e0: 2cb5 6b3c 95fc 6ebd 5dbb 52bd c5af 80bd
000000f0: 53d2 c7bd 1ca0 39bd 1f4c 7fbd 05eb 813d
00000100: d5dd a2bd 8ff5 3e3d 98c9 093d c502 51bd
00000110: 88eb 2abd 5dcd 923c ea41 563d 02c7 b23c
00000120: 1d8a b5ba 5092 3f3d d672 18bd 768c 11bd
00000130: 4ca5 fb3c d972 b4bd 4fd2 07bd a9d3 7cbd
00000140: b05b 913b bcea 203d 946f 07bd bf79 d2bc
00000150: 9274 073d c8f4 cdbc 0040 72bd 40c4 d1bc
00000160: 4c8a 95bd ac54 8ebd 8aee 2cbc 4f19 c7bd
00000170: 29f2 6cbd 6002 20bd 1b3c 843d 9b9b 46bd
00000180: f6bb 8dbd c431 6dbd bd73 983d 539e 9f3d
00000190: 406a c2bd 9c46 96bd 0c11 acbd e905 343c
000001a0: 9192 88bd dcc8 5dbc c2a6 17bc d569 a8bd
000001b0: 5b34 863d 9407 8fbd e082 1bbd 2a82 5fbd
000001c0: 37df a4bb eb8c 143d 0960 973d 64f9 28bc
000001d0: 9505 d5bd 4c32 95bd c441 753a cc4d c6bb
000001e0: 4b11 893d 7fac 9f3d 6484 81bd 9c6d bdbc
000001f0: 4826 b2bc 2527 c7bd 1778 9dbd 87ee 5b3d
00000200: a315 9abd 10c6 f93b 8d3e a0bd c0bd 9c3b
00000210: d270 a73d 8081 443d c34c 2fbd 3d0a 8dbd
00000220: 11ac 8e3d 1c7b a8bd 7709 83bd 518a 803d
00000230: 07fd 9bbd e4b5 86bc db2d 8dbd ba6e e4bc
00000240: d67d a83d 6665 753d f63c 86b9 2aa0 b3bd
00000250: 54aa 18bd 28ef 99bd 4130 a8bd 0858 47bd
00000260: bffb 1fbd e1a5 36bd d077 223c c4af 9bbd
00000270: c872 b4bd f829 69bc c9cb 993d f9fb 773d
00000280: 4a0f 073d def9 3e3d 267d 743d 5eef 0dbd
00000290: 1e18 7dbd 9e2a 06bd 95f6 1ebd 43d5 8f3d
000002a0: 86c3 a13d ba52 98bd 0c1b f7bb 6d40 de3b
000002b0: 9d24 36bd b9bb 9b3d c4aa 313d 7049 993b
000002c0: a2b5 0cbd 13d7 abbd 5efe bb3c 92af 99bd
000002d0: 0a9c fabc 9838 b6bb db82 aa3c 80e2 9cba
000002e0: 4ded a7bd 9cbc 84bd 5947 52bd deda 813d
000002f0: 780c 803b f480 bbbc f899 bf3c 6633 343d
00000300: 7afd 173d 61ed c03a bfde 893d 00f8 103a
00000310: 52cc 8a3d 1148 94bd 8096 163c 1f3c 32bd
00000320: 162f e9bd fd60 48bd 0f66 a6bd a81e 923d
00000330: 84da aabc c8f1 483d 0d28 463d 6021 42bd
00000340: 9920 5abd a7b9 45bd 9ee3 5f3d fd80 b13d
00000350: a058 12bb dfff abbd 3f32 9dbc 409c f93a
00000360: 29a9 79bd 748d 863c 769a 4b3d 5252 073d
00000370: 7cb8 9c3c f6b9 85bd 000b e8bb 98bb 703c
00000380: e827 3f3c a56c a3bd 4006 093c 2820 f23c
00000390: 4719 473d a4e5 5ebd d254 6ebd 2c17 03bd
000003a0: 8d21 bcbd 8087 37bd 5416 a53c 1e6d 11bd
000003b0: 42d8 4fbd a87d e1bc d322 46bd 0880 13bd
000003c0: dce8 80bd b56f 18bd 2088 9c3b e0d2 2f3b
000003d0: 8920 043c 0138 813d 77c5 13bd 7c27 89bd
000003e0: 1644 f3bc ee06 ddbc a754 abbd f148 a23d
000003f0: 43ae 2cbd f9df 653d 30cf ff3c 41e5 31bd
0.05702693 -0.013441813 -0.019979663 0.021251135 -0.07241314 -0.09578711 -0.107681334 -0.060896173
0.03300178 -0.004035771 0.036852557 -0.08119754 -0.053612664 0.07781365 -0.07562113 0.065053634
0.00024803728 -0.02759647 -0.04556129 -0.08157219 -0.03758212 -0.01488071 0.015778327 -0.016354945
0.035820708 0.03279739 0.030913256 0.051940463 -0.10201489 -0.06574813 -0.07344075 -0.07710749
-0.032140385 -0.046366505 0.06444167 -0.0063243657 0.056287073 0.039443024 -0.00069849193 0.08831606
-0.005041089 -0.05159851 -0.022490963 -0.04523732 -0.09739298 0.022974204 -0.013233003 -0.02820174
0.003864579 0.036410883 -0.08765629 0.018432893 -0.071264684 0.0037339404 0.02733203 -0.055299394
0.014386456 -0.05834635 -0.051448215 -0.062835254 -0.09756913 -0.045318708 -0.062328454 0.063436545
-0.07952467 0.0466209 0.03363952 -0.05102803 -0.041728526 0.01792019 0.052308954 0.02182341
-0.0013850365 0.046770394 -0.03721889 -0.035534345 0.030718468 -0.08810968 -0.03315955 -0.061725292
0.004435979 0.03928636 -0.033065394 -0.025692819 0.033070154 -0.025141135 -0.059143066 -0.025606275
-0.07301769 -0.06949744 -0.010554919 -0.09721624 -0.05784813 -0.039064765 0.06456777 -0.04848824
-0.06920616 -0.05790879 0.0744395 0.0779387 -0.09492922 -0.073376864 -0.08401689 0.010987737
-0.0666858 -0.013536658 -0.009256067 -0.08223311 0.06552955 -0.06983867 -0.03796661 -0.054567493
-0.005031492 0.036267202 0.07391364 -0.010313366 -0.10401455 -0.07284984 0.0009355808 -0.0060517546
0.066927515 0.07796573 -0.0632408 -0.023123555 -0.02174677 -0.09724263 -0.07688921 0.053694274
-0.07523658 0.007622488 -0.078244306 0.004783362 0.08175816 0.047975063 -0.042797815 -0.068867184
0.06966413 -0.08226606 -0.0639829 0.06276382 -0.076166205 -0.016444154 -0.06893512 -0.02788483
0.08227126 0.059911154 -0.0002560389 -0.08770783 -0.037271813 -0.075163186 -0.08212329 -0.048667938
-0.039058443 -0.04459179 0.009916261 -0.07601884 -0.08810955 -0.014231198 0.07509572 0.060543034
0.032973565 0.04662501 0.059689663 -0.034652106 -0.061790578 -0.032755487 -0.038809378 0.07023098
0.07898621 -0.07437654 -0.007541066 0.0067825825 -0.04446851 0.07604165 0.043375745 0.004677944
-0.034352906 -0.083906315 0.02294844 -0.075041905 -0.030591983 -0.0055609457 0.02081435 -0.0011969358
-0.081995584 -0.06481287 -0.051337574 0.06340574 0.0039077364 -0.022888638 0.023388848 0.04399433
0.03710697 0.0014719182 0.067319386 0.0005530119 0.06777252 -0.07240308 0.009191155 -0.043514367
-0.11385934 -0.04892062 -0.08124935 0.071347535 -0.02085615 0.049058706 0.04837804 -0.04739511
-0.053253744 -0.048272755 0.054660432 0.08667181 -0.0022330657 -0.08398413 -0.019188998 0.0019043759
-0.06095234 0.016424872 0.049707852 0.03303749 0.019130938 -0.0652961 -0.0070813894 0.014693163
0.011667229 -0.07979707 0.0083633065 0.029556349 0.04860809 -0.05441822 -0.05818636 -0.03200452
-0.09186087 -0.044806957 0.020152248 -0.035504453 -0.05074335 -0.027525738 -0.048373055 -0.036010772
-0.062944144 -0.037215907 0.0047769696 0.0026828572 0.008064398 0.0630951 -0.03607699 -0.06696984
-0.029695552 -0.026980843 -0.083657555 0.07924069 -0.042158376 0.0561218 0.031226724 -0.043431524

fc.0.bias f4 [128]
00000000: 882c a7bd 0bd0 35bd 1f0a 153d 4f05 f0bc
00000010: 56c7 103d fd9a a23c da15 4abd aa5b a1bd
00000020: 2718 ff3c 6a52 09bc 1641 dabc 04b4 7e3d
00000030: 6822 8bbc ee3c c2bd acb3 713c 8ac8 f53b
00000040: b6ed 85bd 8b22 41bc 6956 233b 8a1f 84bd
00000050: 9969 88bd 76cb 82bd 16ac 99bd 8510 aebd
00000060: 93a1 dd3b ff58 31bd d226 13bc 0a08 c2bd
00000070: ec64 38bc 5058 2d3d 567e acbd 6bf2 353d
00000080: 8e92 72bd d292 0f3d e8ce ebbc 7976 c2bd
00000090: 1b50 02bd ad94 a3bd 6a2b 863d 7b77 96bd
000000a0: e914 32bd d7fb c83c bb0e 1ebd a6cc 5dbd
000000b0: f9bb 4a3c 1c8e f33c f1a2 1dbb 2cc1 b53d
000000c0: ad4d 9dbd ee2d e8bc 38f7 b9bd 71b5 553a
000000d0: 8b24 d4bd ba8f f5bb d57a c23c c17a 4d3c
000000e0: 55dc 4ebd e2dc a6bd 91be 143d 7793 3d3d
000000f0: e9a0 9dbd 28a6 a6bd 296c b2bd 9755 67bd
00000100: a708 61bd c5ab 843c 462e adbd 6ea7 d7bc
00000110: 1e16 c2bd a472 523d 3380 403c d867 dbbc
00000120: 1834 abbd b08f fcbd dbe4 60bd 7d7b ee3c
00000130: 2e05 62bd 50bf 9abc 3620 b03d 2ca4 9b3c
00000140: ddae bcbd b118 26bc 983e 79bd 197f 513a
00000150: e77f 40bb aa24 45bd 8958 89bd a13a 5cbd
00000160: a43b e13b 9f76 443d ab15 dcbd 0be9 393b
00000170: ab42 92bd 1a5b 9bbd ea59 9abc 3206 63bd
00000180: 2e1d 2abd 303d 15bd d587 61bd 4de6 2b3d
00000190: fbcc bdbd f3fd b2bc 1cf9 08bd 7d33 873c
000001a0: 0a59 4ebd 3021 f1bc 4760 863c 3615 05bd
000001b0: 12be dbbd a7e1 73bd 0a53 153c 815f 343c
000001c0: 2a1c a43c f88a 883c bcff b1bd 82b4 1a3d
000001d0: 7efc 033d 7d0a a93c ce85 81bd 2bce f6bc
000001e0: e6f9 d33c 1cdd 363a 9454 a6bd 7519 1bbd
000001f0: 04be 803d a477 d83d fa7e d5bc 819b 21bd
-0.081627905 -0.04438786 0.036386605 -0.029299406 0.03534635 0.019849295 -0.049337246 -0.07878812
0.031139446 -0.008381465 -0.026642364 0.062183395 -0.01698418 -0.09484278 0.01475231 0.0075007128
-0.065394804 -0.011788021 0.002492333 -0.06451328 -0.06660766 -0.06386463 -0.07503526 -0.084992446
0.006763646 -0.043297764 -0.008981423 -0.094741896 -0.01125453 0.04232055 -0.08422534 0.04442064
-0.059221797 0.035052128 -0.028785184 -0.09495253 -0.031814676 -0.07987342 0.06551249 -0.07347008
-0.043476973 0.02453415 -0.038588267 -0.054150246 0.012373918 0.029730849 -0.002405342 0.08874735
-0.07680831 -0.028342213 -0.09080356 0.0008152342 -0.103585325 -0.00749394 0.023740212 0.012541474
-0.050503094 -0.08147599 0.03631455 0.04628321 -0.07696707 -0.081371605 -0.08712036 -0.05647811
-0.054939892 0.016195187 -0.084560916 -0.026324954 -0.09476875 0.05137886 0.011749315 -0.026782915
-0.083595455 -0.12332094 -0.054905754 0.029111618 -0.05518072 -0.018890053 0.08599894 0.018999182
-0.0921304 -0.010137723 -0.06085071 0.00079916563 -0.002937311 -0.04813067 -0.0670634 -0.05376685
0.006873565 0.04796469 -0.1074632 0.0028367664 -0.07141622 -0.075857356 -0.018841702 -0.05542583
-0.041531734 -0.036435306 -0.05506118 0.04196768 -0.092676125 -0.021849608 -0.033440694 0.016504044
-0.050377883 -0.02943477 0.01640333 -0.03249093 -0.107296124 -0.05954137 0.009114036 0.011009098
0.02003296 0.016667828 -0.086913556 0.037769802 0.032223217 0.020634884 -0.06324349 -0.030127605
0.025875997 0.0006975697 -0.08121601 -0.037866075 0.062862426 0.10569695 -0.026061524 -0.03945494

fc.2.weight f4 [64, 128]
00000000: 5b7d e03c d5e4 033d efc6 ccbc a432 aabc
00000010: 80f0 87bd 7b8c 843d b94e 7e3d 337f 9dbb
00000020: 9a60 6d3d be15 fbbc 9be2 273d 8429 12bd
00000030: a66f c43c 42f7 14bb ec9d cb3b 1ecc 9a3c
00000040: c2c6 b43b 749b 6e3c 853a 5b3d 02ec a43b
00000050: 1e0a 12bb 2a85 aa3c ff5a 72bc 6d42 34bd
00000060: 76da 413d 03e9 c5bb 8c6d 263d 7504 edbc
00000070: d989 fabb 82ce dc3d e05e 04bd 2485 85bd
00000080: c423 c13d ff0a 08bd a388 30bd 2a0a fcbc
00000090: da99 623d 412e 98bd 03ee 573d 8df5 80bb
000000a0: 5cad 763d 3d1b 3cbd a07f 6bbd d3c9 ff3a
000000b0: 8003 323d 931c 80bc 7bd6 ac3d 99ea 083d
000000c0: e47d 863d 4655 883d 5cbb 03bd 70ed 30bd
000000d0: c15c 8c39 85eb 46bd f8e3 8a3d 952d 603d
000000e0: 8371 31bc 6109 a8ba 234b a33d e1de 7f3c
000000f0: 95de 473d c923 89bd 40be bc3c 62eb 9f3d
00000100: 6745 a5bd 660a 47bd 23d4 503d c49b 873d
00000110: 4ac6 2fbd 3455 84bd 7662 babc e203 a0bd
00000120: c78d 123c 96e4 e23c ac65 ae3b af7b 7bbd
00000130: 82bf debc d6d7 ca3c fc8d 893d e913 b2bd
00000140: 1b50 a1bd e640 93bd 7c08 87bd f1f5 323d
00000150: 50de 89bd a66c 743d 2570 c7bb cd11 fdbc
00000160: 2b45 413d d218 40bd 7786 5d3c 01bb 9b3d
00000170: 1cf4 a23d 3030 683b 905b d53b 391c 73bc
00000180: feee 5e3d 96a2 613d 2a55 5c3d 703c 5abd
00000190: 1f21 44bd 9b9e 9ebd c7bd e53c dca3 d0bb
000001a0: 0b19 313c ee02 4cbd 3494 55bc 220c adba
000001b0: 9e0f 1bbd 6e2a 38bd 4114 c13c 702f 8bbd
000001c0: a7e1 6dbd d532 bb3d e44a e7bd fa67 84bd
000001d0: 4cc0 173d 1903 88bc fa06 10bd 1a70 79bd
000001e0: 8d5c 403d a659 9b3d 8962 ffbc 385e 8c3b
000001f0: 1b3d 9dbd 8e6b 563c 301a 7f3c 4d37 3f3d
00000200: 1ba8 b33d 0080 a2bb 1391 e5bc 0842 e2bc
00000210: acb3 6bbd 4df2 a43d 8bf3 35bc da54 6f3d
00000220: ce3c 723d 8ce6 cebb f06f 323c f312 90bc
00000230: 2728 6bbd 2289 abbd 3fb9 393d 6e37 613d
00000240: e139 96bd 6010 4fbb 726b 413d da6a 6ebd
00000250: bfa2 a03d dc0d dd3c 9366 65bd b7f9 cdbc
00000260: 0b14 323d 8246 523d 9c7c 063d 89e3 a9bd
00000270: 035e 4e3d ea6a 8abd bbd8 9b3b 70ad 6e3c
00000280: 500c 55bd 2235 1a3d 4cc1 b93d c095 37bc
00000290: 6378 0d3d c186 923d 17d2 77bb fcf3 f73c
000002a0: 1ada 8cbd 5077 ffbb e14f 8bbd 24ed d93c
000002b0: 209a c3bb fbb6 50bd b51b a0bd 8865 abbd
000002c0: 40f9 f9bb 6dd3 993d 02d8 25bd 507d 1e3c
000002d0: 5d99 1dbd 703a de3b aae4 0e3d a6e8 713d
000002e0: 6c52 99bd 00a9 523a ec8c c23c daa3 efbc
000002f0: 03a9 43bd 6807 61bc 917c afbd a481 87bd
00000300: 3b2b 6ebd 9f7f 803d c8be fe3b 17e6 5b3d
00000310: e787 b3bd ccd9 c73c fdcd f7bc abb7 a23d
00000320: 4199 24bd 60af 973b ee94 8fbd 942e 113d
00000330: fc58 c7bc 7cfc f23c 0d33 8b3d 2bbf 5cbd
00000340: 9471 5f3d 814a db3c eaf2 743d 4cf5 c93a
00000350: 3ba5 b43c 2dd6 45bb 80e2 86bb 4886 acbd
00000360: c3c6 a4bd d8f9 96bc 5726 8a3d 3a92 88bd
00000370: e323 b33d d0b7 c03b 969c 53bd cd85 8c3d
00000380: f8b4 b2bd 071c 1cbd 6545 723d 16f4 11bd
00000390: 2e65 493d 1833 c1bc 12c9 57bd c647 c3bb
000003a0: b2f9 e7bc 3fd3 923d 6088 a7bd 4812 5cbc
000003b0: 3a34 a9bd e8fb 09bc 72d2 b2bd 9018 0ebc
000003c0: 16d3 113d 4497 24bd d022 e73b b0ec b7bd
000003d0: 5f55 4f3d f1b8 28bd ba6a 263d 2e5e 303d
000003e0: a25c 9dbd 4486 95bd 0bd1 73bd 64f2 7abd
000003f0: f269 a1bd 7a25 573d b3c8 13bd b032 0c3d
0.027403524 0.032200653 -0.024997203 -0.0207761 -0.066376686 0.06472107 0.062086795 -0.004806423
0.057953455 -0.030650016 0.040987592 -0.035684124 0.02397902 -0.0022730385 0.006213894 0.018896159
0.005516858 0.01456343 0.053522605 0.005033017 -0.0022283862 0.02081545 -0.014792203 -0.04400866
0.04732748 -0.00603974 0.040631816 -0.02893279 -0.0076458273 0.10781576 -0.032317042 -0.06519535
0.0943065 -0.03321361 -0.043099057 -0.030766565 0.055322506 -0.07430697 0.05271722 -0.003935522
0.060223922 -0.045924414 -0.05749476 0.0019515104 0.04346037 -0.015638625 0.084393464 0.033426855
0.065669805 0.066568896 -0.0321611 -0.043195188 0.00026771988 -0.048564453 0.06781763 0.05473097
-0.010830286 -0.0012820178 0.079733156 0.015617103 0.048796255 -0.066962786 0.023039937 0.078085676
-0.08069878 -0.0485939 0.05098356 0.06621507 -0.042913713 -0.06461564 -0.022752028 -0.078132406
0.008944935 0.027696889 0.005322179 -0.06139725 -0.027190927 0.024761122 0.067165345 -0.08695204
-0.07876607 -0.07190113 -0.06593415 0.04369158 -0.06731856 0.059673928 -0.0060863667 -0.030892277
0.047185104 -0.04689867 0.013520828 0.076040275 0.079567164 0.0035429113 0.0065111592 -0.014838272
0.05442714 0.055086695 0.053792156 -0.053280294 -0.04788315 -0.07745095 0.028044594 -0.00636719
0.010809193 -0.04980748 -0.013035823 -0.0013202468 -0.03785669 -0.04496234 0.023569228 -0.06796157
-0.058076527 0.09140555 -0.11293581 -0.064651445 0.037048623 -0.01660304 -0.035162903 -0.060897924
0.046963263 0.075854585 -0.031174915 0.0042836927 -0.076776706 0.0130871665 0.015570208 0.0466836
0.08772298 -0.0049591064 -0.028023278 -0.027619377 -0.057544395 0.08054028 -0.011105428 0.05843053
0.05914002 -0.0063141044 0.010890946 -0.01758716 -0.05741134 -0.083757654 0.04534268 0.054984502
-0.07335258 -0.0031595454 0.04722161 -0.05820737 0.07843541 0.026984148 -0.056006026 -0.025143487
0.043476146 0.051336773 0.03283368 -0.08295352 0.050382625 -0.067586735 0.004756061 0.014567718
-0.052013695 0.037648328 0.090700716 -0.011205137 0.034538638 0.071546085 -0.0037814432 0.030267708
-0.06877537 -0.0077962056 -0.06802345 0.026602335 -0.005969301 -0.050955754 -0.07817785 -0.08368975
-0.00762859 0.075110294 -0.040489204 0.0096734315 -0.038476337 0.0067818686 0.03488604 0.05905976
-0.07486424 0.0008036047 0.023748837 -0.029252935 -0.047768604 -0.013734676 -0.08568681 -0.06616524
-0.058146697 0.06274342 0.0077742077 0.053686228 -0.08766156 0.024395846 -0.03024959 0.07945188
-0.040185217 0.0046290606 -0.07010828 0.03544481 -0.024334423 0.02966141 0.067968465 -0.05389325
0.054551676 0.026768925 0.059801973 0.0015408187 0.022051444 -0.0030187473 -0.0041163564 -0.084240496
-0.08045723 -0.018429682 0.06745594 -0.066685155 0.08747079 0.005881287 -0.051663004 0.06861458
-0.08725923 -0.038112666 0.05914821 -0.03563317 0.049168758 -0.023583934 -0.05268199 -0.005959484
-0.028317306 0.07169198 -0.08180308 -0.013432093 -0.082619146 -0.008421876 -0.087315455 -0.008672848
0.035601698 -0.04018332 0.0070537105 -0.089806914 0.050618526 -0.041192 0.040629126 0.043058567
-0.07683684 -0.07301 -0.05952553 -0.061266318 -0.078815356 0.052525975 -0.036080074 0.034228027

fc.2.bias f4 [64]
00000000: b4f8 da3d 2a6c b6bd d9ac a5bd 747c f13d
00000010: a557 823c fb8a 07bd 8684 6ebb 255c 883d
00000020: 0512 9fbd 0e75 593d 388d e73d a342 fdbc
00000030: 451b 9d3d 2610 a3bd a58b 4dbc 009e efbc
00000040: 6a52 1e3e b9ac 3e3c 5de1 a23c c92a f3bc
00000050: 8f7b 3ebb 208a 8cbc 318b 87bd 1aa9 5fbd
00000060: e913 0f3e 99b3 82bc 72c4 5a3b c516 003d
00000070: bce3 94bc 3c45 84bd 3489 873d 35ba ffbc
00000080: 8426 ec3d bef3 1c3e 048e 01bc df6d 183d
00000090: a14e 89bc a4bb 2c3e d115 e0bb cbfa 163e
000000a0: 6128 f4ba 428d a7bd 6775 acbd 4f44 38bd
000000b0: 1b7b 84bd 3755 8fbc 0cab c7bc 9ff5 263c
000000c0: cb58 0d3e 3adf 76bd e865 623d 15b0 103e
000000d0: 8307 26bd 5199 2dbc 2c2d 4bbd da37 febc
000000e0: 3ae4 85bd 8078 223c aa46 7abc 6fe4 973d
000000f0: ade2 34bd 7d77 be3d 7c5e cf3b 4dbb d4bc
0.106919676 -0.089073494 -0.08089609 0.11791316 0.015910933 -0.033091526 -0.0036394908 0.066582
-0.07767109 0.053090148 0.11306232 -0.030915564 0.07671217 -0.079620644 -0.012545501 -0.029250145
0.15461126 0.01163786 0.019882852 -0.029683487 -0.0029065346 -0.017155707 -0.066183455 -0.054604627
0.13972439 -0.01595478 0.003338125 0.031271715 -0.018174998 -0.06458518 0.06617966 -0.03121672
0.11530784 0.15327355 -0.007907394 0.037214156 -0.016761126 0.16868454 -0.006838538 0.14744107
-0.0018627757 -0.0818124 -0.0842083 -0.04498702 -0.06468793 -0.017496688 -0.024373554 0.010190397
0.13803403 -0.06027148 0.055272967 0.1412967 -0.040534507 -0.0105956355 -0.049603626 -0.031032491
-0.065376714 0.009916425 -0.015275637 0.07416617 -0.044161487 0.09300134 0.006328402 -0.025968218

fc.4.weight f4 [1, 64]
00000000: f79c f43d c34a 743d a4f2 353d b8c5 b93d
00000010: 03f0 013d a58d f2bc 0c89 0abd c984 2e3d
00000020: 8b5b 823c 2510 ab3c 853f ab3d e345 bebc
00000030: 8b54 1b3d 8df8 2ebe aea7 8abd 8156 0ebd
00000040: a014 9e3d a1d7 49bd 20c3 523d 9c28 74bd
00000050: 12b8 d4bd 5b45 c0bd 4bf5 3dbc f29d 0e3c
00000060: add5 d93d 4bee cfbd 66b8 c1bd fae4 9a3b
00000070: 53de 533d 88b9 a5bd 500e 6f3d 179a d7bd
00000080: 9bdc b33d 344a 0b3e 3c05 b9bd 54a2 b53c
00000090: 8d25 63bc 92be 1a3e 3204 8dbc 7149 af3d
000000a0: 966a 84bd e4e4 bcbd 0702 c63d f8fe 38bd
000000b0: 3851 9cbc d908 abbd 7c6a e0bd 2545 3a3c
000000c0: ee16 9d3d 8951 85b9 5524 9b3d 324b e43d
000000d0: 7d86 dcbd 993d 0abd 22cb debb 2847 6abb
000000e0: 9927 84bc e91b a5bd 4f25 8e3c 1fd8 ac3d
000000f0: b367 babc cdb9 313d ab21 f5bc 10c8 9b3d
0.11944001 0.05964161 0.044420853 0.09070915 0.031723034 -0.029608557 -0.033822104 0.042607103
0.015912792 0.020881722 0.08361725 -0.023226684 0.037922423 -0.17087002 -0.067702636 -0.034750465
0.07718778 -0.049277905 0.051455617 -0.05960904 -0.10386671 -0.093882285 -0.011594127 0.008704649
0.106364585 -0.10152873 -0.09458999 0.004727003 0.051725697 -0.08092028 0.05836326 -0.10527437
0.087823115 0.13602525 -0.090342015 0.02217213 -0.013863933 0.1511176 -0.017213915 0.0855893
-0.06465642 -0.09223345 0.096683554 -0.045165032 -0.019081697 -0.08351297 -0.1095781 0.011369024
0.07670389 -0.00025428485 0.07575289 0.11147155 -0.10767839 -0.03375015 -0.0067991177 -0.003574798
-0.016132163 -0.08061964 0.017351774 0.08439659 -0.022754526 0.043390084 -0.02992328 0.07606518

exp_avg f4 [16, 2, 3, 3]
00000000: 6888 66b6 cd1a adb7 6328 feb7 b3dc 25b7
00000010: 11e8 e2b7 849f 9fb7 e1e0 bd36 b179 8db7
00000020: 76e5 fe35 f559 44b6 f3c3 7ab6 e0b8 80b6
00000030: b9c2 55b6 8590 82b6 81a2 86b6 1b4f 49b6
00000040: 8863 72b6 32fa 76b6 0352 4336 b946 7635
00000050: 339b 65b6 7e8d 0937 201e 1e37 514a bb37
00000060: f858 1137 32d6 0e38 b64d 5e36 5a85 4e36
00000070: 15a0 5536 6c28 3c36 7fee 7536 b142 7836
00000080: 9ad1 5e36 af6f 8136 a9e3 7f36 9937 6536
00000090: d9d1 78b7 76c1 dfb6 1006 2d34 4954 92b7
000000a0: 0ddd d9b6 a77f 5cb7 7ede dcb5 7b01 a1b7
000000b0: f8a6 d4b5 9688 5bb6 4089 60b6 e59f 51b6
000000c0: 2c72 85b6 a0fb 8bb6 ef48 83b6 4a57 57b6
000000d0: 1e70 63b6 31fe 4cb6 b51e f6b5 1d0c 08b8
000000e0: 794a c8b7 322a 59b7 bb2e 1bb7 0a29 b6b6
000000f0: cbf5 a8b7 0374 dfb6 b5c9 79b7 f693 c5b5
00000100: 7549 1db6 d924 24b6 a0e2 ddb5 4b16 34b6
00000110: 90d1 3ab6 db5d c6b5 ab40 1fb6 0054 1cb6
00000120: c910 c937 f2bd f837 4418 6835 cfe9 9f33
00000130: f464 6238 efdb 1037 4f4c 7236 7de9 8536
00000140: bcdb 1736 0885 d235 b5c1 0136 190b 0536
00000150: 4c06 d735 1df9 e535 f051 e835 ffc1 9e35
00000160: 62b4 ad35 1eab a335 c87c b8b6 228d 3eb5
00000170: f1ca 3234 c61e 86b5 1b4c 9335 f408 9eb5
00000180: c41e 49b6 17f7 adb6 1f15 ad34 c574 a134
00000190: d577 2535 b4a3 8f35 faad 9533 1954 c834
000001a0: eda8 6b35 c554 91b4 b52a 4733 9882 8d34
000001b0: 1a6a b537 f5db df36 d31c 8e37 c5c9 6b37
000001c0: 9396 d636 0754 4936 1d81 4236 2ca0 ba37
000001d0: d5a3 1b37 70b6 5f36 97b9 8436 1a38 5136
000001e0: 15d2 6336 33cc 8636 f981 5236 70ab 3736
000001f0: c26c 6536 5d6f 2b36 2b63 53b6 bcfd 7bb5
00000200: 86ed 9035 76ea b8b6 98da 43b5 07d7 dab6
00000210: e918 1a35 d979 6bb5 1283 9a34 5bee 0635
00000220: d041 0f35 0928 e134 4347 0835 0ebd 1d35
00000230: 871e fe34 0be4 0e35 6afc 4a35 c846 2f35
00000240: f7a7 70b7 ee1d fdb6 5810 6fb7 c216 57b5
00000250: 2fb5 eab5 bb3d a2b6 ebbe 8735 e2ad 4ab6
00000260: 6946 88b5 9ee3 56b4 b19b 1fb4 f29d 27b4
00000270: a4e3 56b4 b99b 1fb4 f19d 27b4 ec42 c2b4
00000280: 548b 8bb4 aa98 86b4 7b0c 0136 ea37 af37
00000290: bdbc e636 bba7 5536 9981 3037 d011 3a36
000002a0: ae3d 1736 5be2 b436 35f6 c637 6271 0635
000002b0: a458 6735 3ef1 ad35 eddd d834 48ed 4635
000002c0: 62c8 9e35 1ba1 3c34 eb78 a334 aa73 3d35
000002d0: 254f 75b5 3868 e534 085c 59b5 5011 0cb4
000002e0: 3cda 2537 12d6 5836 9587 b236 13f3 4d36
000002f0: b30a 2137 86ed 65b3 51fd 9c34 48b2 7fb3
00000300: 6dcc a435 c317 e035 8dae b935 2731 d435
00000310: 3cbe 0736 5e0e e935 7a37 5336 2007 8034
00000320: 6e06 b2b5 1841 8137 148c b636 2a22 ab35
00000330: fda9 e036 8b8f 9334 e589 c735 03d7 8cb4
00000340: 1b45 45b4 91bb d833 b6a8 5634 0657 8a34
00000350: 792c 1635 1c93 3432 0035 c933 cf16 6234
00000360: 627e 4134 27c0 edb5 5780 19b3 a04d 7e36
00000370: 099f 3b33 566e 55b4 aaa4 6d35 4744 5932
00000380: 192a 8533 4667 feb4 4467 feb4 fa90 cfb4
00000390: dd8b 11b5 dd8b 11b5 bc1f f4b4 a588 e7b4
000003a0: a688 e7b4 be1f f4b4 7a4f 82b4 7d4f 1ab6
000003b0: ecb8 57b5 423a a434 dbb6 1d37 a59d 0b37
000003c0: 5daf d4b6 567b 86b5 3d01 07b5 5f76 66b3
000003d0: 79a3 8834 b3c9 2335 ecdf dcb4 11e1 a2b2
000003e0: 3e9a 5534 29ab 78b5 3f52 0fb5 feb0 90b4
000003f0: 0852 bd35 2886 86b6 61c5 d3b4 791d 50b4
-3.435207e-06 -2.0635687e-05 -3.0297966e-05 -9.886152e-06 -2.7049364e-05 -1.9028557e-05 5.6588183e-06 -1.6865177e-05
1.8991257e-06 -2.9258638e-06 -3.736696e-06 -3.8362195e-06 -3.1852817e-06 -3.891126e-06 -4.012429e-06 -2.999738e-06
-3.6118745e-06 -3.680249e-06 2.9105001e-06 9.1745056e-07 -3.4213997e-06 8.19878e-06 9.424548e-06 2.2326743e-05
8.663388e-06 3.4054923e-05 3.3125812e-06 3.0774013e-06 3.1832653e-06 2.8037712e-06 3.6646668e-06 3.69937e-06
3.3202582e-06 3.8575013e-06 3.8130477e-06 3.4156021e-06 -1.4830811e-05 -6.6684397e-06 1.6114086e-07 -1.7443805e-05
-6.4928377e-06 -1.3142743e-05 -1.6456031e-06 -1.9193385e-05 -1.5843825e-06 -3.2713046e-06 -3.345849e-06 -3.1236498e-06
-3.9770002e-06 -4.171816e-06 -3.912595e-06 -3.2088305e-06 -3.3890897e-06 -3.0546328e-06 -1.8337365e-06 -3.2436208e-05
-2.3876537e-05 -1.2944032e-05 -9.2496e-06 -5.4288003e-06 -2.0141617e-05 -6.6594234e-06 -1.488852e-05 -1.4720706e-06
-2.343758e-06 -2.4459353e-06 -1.653174e-06 -2.6835066e-06 -2.7838141e-06 -1.4779465e-06 -2.3730488e-06 -2.3294706e-06
2.3968883e-05 2.9652354e-05 8.6462046e-07 7.446544e-08 5.397662e-05 8.634276e-06 3.6105228e-06 3.9908905e-06
2.2628656e-06 1.5684936e-06 1.933525e-06 1.9825004e-06 1.6020581e-06 1.7134331e-06 1.7309194e-06 1.1828378e-06
1.2942003e-06 1.2194248e-06 -5.4981538e-06 -7.098589e-07 1.6651371e-07 -9.992734e-07 1.0974503e-06 -1.1774523e-06
-2.9969242e-06 -5.184567e-06 3.223913e-07 3.0073548e-07 6.164167e-07 1.0701974e-06 6.969999e-08 3.7314092e-07
8.779014e-07 -2.7070033e-07 4.637214e-08 2.6358316e-07 2.1626289e-05 6.6715243e-06 1.6941141e-05 1.405407e-05
6.395226e-06 3.0000244e-06 2.8983407e-06 2.2247514e-05 9.276865e-06 3.3335782e-06 3.955512e-06 3.1176082e-06
3.394792e-06 4.017283e-06 3.1368093e-06 2.7368915e-06 3.4186965e-06 2.5545808e-06 -3.1499173e-06 -9.387402e-07
1.0797964e-06 -5.510922e-06 -7.2961257e-07 -6.5219388e-06 5.740572e-07 -8.7721634e-07 2.8780102e-07 5.0265743e-07
5.336742e-07 4.1938645e-07 5.076765e-07 5.876217e-07 4.7333398e-07 5.323097e-07 7.5618175e-07 6.529558e-07
-1.4344222e-05 -7.543472e-06 -1.4249315e-05 -8.012686e-07 -1.748709e-06 -4.8351626e-06 1.0113848e-06 -3.0201559e-06
-1.0153282e-06 -2.001311e-07 -1.4864669e-07 -1.5610547e-07 -2.0013118e-07 -1.486468e-07 -1.5610546e-07 -3.6184008e-07
-2.5992142e-07 -2.5070523e-07 1.9229763e-06 2.0887663e-05 6.876506e-06 3.1837105e-06 1.0520592e-05 2.7726528e-06
2.2536656e-06 5.3907693e-06 2.3718088e-05 5.0083884e-07 8.6183195e-07 1.2959715e-06 4.0394607e-07 7.410604e-07
1.1830236e-06 1.7567474e-07 3.0449095e-07 7.05763e-07 -9.138478e-07 4.2730403e-07 -8.097272e-07 -1.3044814e-07
9.885578e-06 3.2311114e-06 5.320597e-06 3.0688868e-06 9.598839e-06 -5.3534244e-08 2.9241576e-07 -5.953396e-08
1.2278448e-06 1.6696216e-06 1.3834375e-06 1.5809536e-06 2.0227299e-06 1.7364034e-06 3.1473742e-06 2.3847042e-07
-1.3263905e-06 1.540831e-05 5.44033e-06 1.2750436e-06 6.6955095e-06 2.7485325e-07 1.4866788e-06 -2.6233474e-07
-1.8372195e-07 1.0092402e-07 1.999168e-07 2.576782e-07 5.594407e-07 1.0510828e-08 9.3694325e-08 2.1056188e-07
1.8020503e-07 -1.77138e-06 -3.5739813e-08 3.7894133e-06 4.3683972e-08 -1.9877311e-07 8.8529e-07 1.2646587e-08
6.2009526e-08 -4.7386328e-07 -4.7386322e-07 -3.866224e-07 -5.422024e-07 -5.422024e-07 -4.5471631e-07 -4.3126525e-07
-4.3126528e-07 -4.5471637e-07 -2.4272214e-07 -2.2994057e-06 -8.036284e-07 3.058977e-07 9.400504e-06 8.32175e-06
-6.3385073e-06 -1.0019673e-06 -5.029322e-07 -5.3658706e-08 2.5450916e-07 6.1015743e-07 -4.1141118e-07 -1.896163e-08
1.9893284e-07 -9.263627e-07 -5.3391335e-07 -2.695087e-07 1.4105472e-06 -4.009129e-06 -3.9445425e-07 -1.9382232e-07

exp_avg_sq f4 [16, 2, 3, 3]
00000000: 7421 cc31 39e9 d633 97db 4c34 3f3a df33
00000010: f50a e634 6907 3634 4d84 7b34 bc45 b934
00000020: 6e4d 4832 1056 9b31 9fbf f631 7049 e331
00000030: ad9e b131 c13a 0c32 bd79 0132 893b 9331
00000040: f7f4 eb31 c689 d931 89f2 8032 1174 e633
00000050: ab23 3733 9264 6a35 090b 8834 9755 2735
00000060: 66af b134 2848 f635 fd1d 3a33 2fdf 7332
00000070: 3216 7b32 29e1 4f32 428d b932 ae55 bb32
00000080: 9306 9d32 13d2 a832 cb74 ab32 e9c5 8e32
00000090: 41e1 0a34 4a82 ec32 c36c 8831 a09c a434
000000a0: f457 e133 2839 e634 80f5 2634 f015 3d35
000000b0: a6e3 9034 e3da 6d31 d9bb 8031 e5c0 7131
000000c0: 21d3 9f31 a185 a831 b6b8 9d31 4bd3 8731
000000d0: d2ba 8f31 a7b2 8731 1110 d430 4792 f833
000000e0: e892 3b34 f67f bf31 d2e7 2332 3a9e 1633
000000f0: b36a d733 e2ab 5532 865c d533 0445 0131
00000100: fd8f 0d31 737c 0231 756e 0431 8501 0e31
00000110: 7302 0431 476e d730 00bd be30 575d b030
00000120: 7fe1 8232 1c3e 3b33 a4fa ad31 aabd 6531
00000130: 65fc 9633 bc47 5532 09c9 3d30 b2e7 8c30
00000140: 38f0 6131 0970 e42f 44a9 1d30 d7ce 0e30
00000150: e026 0030 395b 2930 8505 1f30 30f7 0b30
00000160: 9eca 3d30 e65f 4330 14f7 ed31 b9fd 472f
00000170: 86ca bd2f ec3d 8c33 0c99 d72e 2f14 6630
00000180: c2fa e732 11d7 2d32 b713 412e 7dc1 df2e
00000190: 184c 7c2f df9a 572f 409b ba2e ec6a 372f
000001a0: d961 132f 8cba 852e 8629 0a2f dc27 012f
000001b0: 5ae2 2e34 916b 6f33 4dad f432 241d d434
000001c0: 0bc6 a933 e827 c533 a625 5031 11de 4933
000001d0: f2fc 5932 bd02 5330 660a 5e30 e90c 5c30
000001e0: 20a4 4a30 904a 5830 f665 5330 9ac2 8a30
000001f0: 139b 9f30 7e50 6330 c796 ba33 e76c 1531
00000200: 9c3b 1f33 ffc6 1233 ab92 c432 814e 2833
00000210: 6901 672f 7afb cf2e 97c8 0a31 78a0 1030
00000220: adc9 0530 7589 1e30 66b0 0d30 0f1c 0130
00000230: 219a 1930 a990 d92f ab65 d02f 562a df2f
00000240: 4b0a 8833 9a87 a334 dc73 3534 e3e1 3431
00000250: d1c7 d130 a9d3 4232 a8d9 d332 d353 dd31
00000260: 85f3 0e33 7935 1b31 6a8d 3c31 8cd6 3531
00000270: 7935 1b31 6a8d 3c31 8cd6 3531 ed14 0331
00000280: a8ed 1f31 18c3 1931 d54a 9d32 c5be a834
00000290: a4f7 0132 79fa 7133 51ae 8833 8e2b 0232
000002a0: c007 a435 a58c 8f34 902b d535 49dc 3332
000002b0: 38d1 3932 15c1 1532 f948 3832 05e8 3c32
000002c0: 0a1e 1832 f8ae 3732 9922 3f32 be6c 1832
000002d0: 7841 4730 44ca f231 90bc a030 40ac d132
000002e0: 16a5 0835 ab33 f531 3898 1934 b508 0a32
000002f0: 5eb7 4232 6fab f330 756f 2331 4edb bb30
00000300: 3893 ec31 dcae 1632 96e0 ab31 90d8 e431
00000310: 9e34 1232 54b6 a531 715e c530 bc2e 9d2f
00000320: ffc9 7031 7986 6e33 306e 7c32 ed5f 3d33
00000330: 8ec8 0d32 4704 4530 10f7 8030 9a68 f32f
00000340: 8820 1a30 6d64 1e30 b39c a82f 6eb7 8d2f
00000350: 2b35 862f 0129 992f 9b37 8c2f 6dcc 8b2f
00000360: 19b2 3530 0834 f330 32ae 3030 bec4 d732
00000370: f0d7 9a2d 791f 3a2e 42eb f831 ef33 182f
00000380: 2805 bd2f 8ecb 612f 4944 612f a2af 282f
00000390: 401e 5f2f 52ed 5e2f 42ec 2d2f 8daf 4f2f
000003a0: db82 4f2f ad24 292f 38dd 0c32 eafb ca30
000003b0: 53a2 a230 bb21 2331 99b1 2d33 e44e 3332
000003c0: 568e c132 3fbe ff32 7552 0f32 5fd9 922f
000003d0: 26e9 862f f3f4 452f 933e c22f f231 dc2f
000003e0: 5427 8a2f 502f 942f 43ec ac2f ccf5 5c2f
000003f0: d51d 6a32 a624 a031 1750 7130 8d9a 2331
5.9409846e-09 1.00075745e-07 1.9078867e-07 1.03948416e-07 4.284881e-07 1.6952767e-07 2.3424327e-07 3.4509674e-07
1.1659138e-08 4.520878e-09 7.181327e-09 6.6149184e-09 5.1694173e-09 8.162432e-09 7.536468e-09 4.2850314e-09
6.8672494e-09 6.3311942e-09 1.5011453e-08 1.0731322e-07 4.2640448e-08 8.731814e-07 2.5340003e-07 6.23369e-07
3.3096438e-07 1.8349429e-06 4.3333774e-08 1.4195208e-08 1.46151695e-08 1.2100181e-08 2.1601071e-08 2.1808628e-08
1.8280195e-08 1.9653305e-08 1.9960131e-08 1.6620975e-08 1.2934198e-07 2.7533265e-08 3.9704857e-09 3.066134e-07
1.04933775e-07 4.2882425e-07 1.5549267e-07 7.043991e-07 2.6987726e-07 3.4612462e-09 3.746646e-09 3.5179764e-09
4.6515116e-09 4.9046354e-09 4.5903006e-09 3.9530383e-09 4.1830868e-09 3.9493275e-09 1.5429596e-09 1.15750076e-07
1.7469176e-07 5.573379e-09 9.540559e-09 3.5068503e-08 1.0031126e-07 1.2437313e-08 9.935415e-08 1.8811201e-09
2.0600048e-09 1.898823e-09 1.9271316e-09 2.0664583e-09 1.920992e-09 1.5674652e-09 1.3878036e-09 1.2832214e-09
1.5236536e-08 4.359582e-08 5.063457e-09 3.3431697e-09 7.0308296e-08 1.2414542e-08 6.904349e-10 1.0252192e-09
3.2878358e-09 4.1552564e-10 5.735681e-10 5.1953236e-10 4.6621373e-10 6.1611477e-10 5.7851707e-10 5.091918e-10
6.9045736e-10 7.1076867e-10 6.9256973e-09 1.8189085e-10 3.45228e-10 6.5305215e-08 9.8042546e-11 8.3702195e-10
2.700597e-08 1.0118826e-08 4.390063e-11 1.01752363e-10 2.29463e-10 1.9609157e-10 8.485879e-11 1.668174e-10
1.3404335e-10 6.081277e-11 1.2565779e-10 1.1746643e-10 1.6287359e-07 5.5744355e-08 2.8484147e-08 3.950928e-07
7.9056996e-08 9.180786e-08 3.0289384e-09 4.7000928e-08 1.26885755e-08 7.6765244e-10 8.0777907e-10 8.005388e-10
7.372041e-10 7.86863e-10 7.690625e-10 1.0096131e-09 1.1612847e-09 8.2696505e-10 8.688726e-08 2.1744258e-09
3.7074287e-08 3.417426e-08 2.28841e-08 3.9186947e-08 2.1009829e-10 9.4579414e-11 2.0195665e-09 5.2614935e-10
4.8671717e-10 5.7675403e-10 5.154618e-10 4.69698e-10 5.5880106e-10 3.9574857e-10 3.790722e-10 4.0593545e-10
6.334866e-08 3.045978e-07 1.6899088e-07 2.632185e-09 1.5263543e-09 1.1340412e-08 2.4662612e-08 6.4414762e-09
3.328343e-08 2.2585864e-09 2.7437985e-09 2.6460922e-09 2.2585864e-09 2.7437985e-09 2.6460922e-09 1.9074904e-09
2.3272637e-09 2.2375328e-09 1.8311235e-08 3.1431242e-07 7.565095e-09 5.633999e-08 6.3647015e-08 7.576899e-09
1.2221208e-06 2.6738158e-07 1.5882415e-06 1.0469258e-08 1.0815988e-08 8.716843e-09 1.0726802e-08 1.0995795e-08
8.8543946e-09 1.0691785e-08 1.112553e-08 8.87229e-09 7.2488815e-10 7.066122e-09 1.1695125e-09 2.4409132e-08
5.090418e-07 7.1363124e-09 1.4304612e-07 8.034637e-09 1.1333979e-08 1.7729301e-09 2.3782978e-09 1.3668371e-09
6.885241e-09 8.7709076e-09 5.0022875e-09 6.6602936e-09 8.510282e-09 4.8228603e-09 1.4360478e-09 2.859134e-10
3.5039418e-09 5.5535995e-08 1.4693384e-08 4.4092236e-08 8.252881e-09 7.167426e-10 9.383445e-10 4.4275766e-10
5.6071103e-10 5.762278e-10 3.0670363e-10 2.5778085e-10 2.4412236e-10 2.7859673e-10 2.5505362e-10 2.5429206e-10
6.610051e-10 1.7695365e-09 6.4275973e-10 2.5118762e-08 1.7603669e-11 4.2319457e-11 7.2444957e-09 1.384277e-10
3.4382563e-10 2.0535948e-10 2.048789e-10 1.5341908e-10 2.0292479e-10 2.0275095e-10 1.5818194e-10 1.8888908e-10
1.887303e-10 1.538349e-10 8.199372e-09 1.4769033e-09 1.1833187e-09 2.3738795e-09 4.0441225e-08 1.0437109e-08
2.2532884e-08 2.9772421e-08 8.342444e-09 2.6711697e-10 2.454012e-10 1.8004069e-10 3.5332856e-10 4.0053255e-10
2.5129998e-10 2.695466e-10 3.1454492e-10 2.0096208e-10 1.3627376e-08 4.6607793e-09 8.7789104e-10 2.3807474e-09

exp_avg f4 [16]
00000000: e8b6 17b7 4d29 dc36 f46b f7b6 c237 09b7
00000010: 904a 1737 2c8d 56b5 1ba4 0337 441f 2835
00000020: 271a 72b6 09bb a236 9bf3 a535 809f fa35
00000030: fc5b 11b4 6682 c934 fa40 c5b5 b395 9f36
-9.0428875e-06 6.561319e-06 -7.373741e-06 -8.1788185e-06 9.017662e-06 -7.9926645e-07 7.846417e-06 6.2630374e-07
-3.6076033e-06 4.84975e-06 1.2364357e-06 1.8672872e-06 -1.3537641e-07 3.7534045e-07 -1.4696554e-06 4.7559965e-06

exp_avg_sq f4 [16]
00000000: dbfe fa32 a8d3 9933 9623 9232 7d63 f731
00000010: f3d9 1c31 111e 9a31 589d 5831 427a fc30
00000020: ff1f bb32 232c 7033 4560 b532 6894 7a30
00000030: a927 d82f 2a0f 0831 0a13 f92f 268a e431
2.9219725e-08 7.163118e-08 1.701282e-08 7.1999566e-09 2.2824878e-09 4.485408e-09 3.1521576e-09 1.8370161e-09
2.1784215e-08 5.5919497e-08 2.1114952e-08 9.116037e-10 3.931835e-10 1.9799224e-09 4.5306364e-10 6.651379e-09
