output/red/images/epoch_66.pt (torch, 369546 bytes, 27 tensors)

conv.0.weight f4 [16, 2, 3, 3]
-0.13509025 0.096622586 0.16865358 0.03882555 0.15754141 0.05393278 0.11579289 0.115775816
-0.13683133 -0.1179052 -0.08789182 0.16863178 -0.1673565 -0.047990974 0.153814 -0.2377519
0.1702953 0.20280376 -0.16520794 0.01805571 -0.06889616 0.10688773 -0.040688954 0.10367226
-0.014875573 0.19326948 -0.19409427 0.14544927 0.05394415 -0.15938033 0.10156874 -0.023790663
0.1391705 -0.14072075 0.18919048 0.1198661 0.10774531 -0.016151564 -0.15730964 0.06982602
-0.051985238 0.14271009 -0.047518086 0.1486869 0.04498464 0.19498599 0.16237232 -0.21227352
0.13399586 0.20742442 -0.1743394 -0.14746046 0.048568673 -0.003510309 -0.28187907 0.13372652
0.15239803 -0.11065332 -0.13054745 -0.036551923 0.08645488 -0.05680655 0.075430684 -0.12290324
0.025490163 -0.030608699 0.11427308 -0.041056857 -0.029480476 -0.20491959 0.08961587 -0.039030507
0.0633125 0.13350481 -0.20017157 -0.22457252 0.14802812 -0.05833137 -0.16587758 -0.20487748
-0.07327043 0.09471228 0.108444236 -0.30542162 -0.29877877 0.064141534 -0.06633806 0.050890256
0.109716244 0.09666058 0.0013075124 -0.18121944 -0.1469135 0.09502705 -0.15125872 -0.13518047
0.028513046 -0.04839391 -0.17571528 -0.16640681 0.22444193 -0.15381663 -0.14539964 -0.09435372
-0.17568566 -0.22292727 0.0918958 0.028524905 0.18296358 0.12254274 0.07403833 0.15840931
-0.022037504 0.033432975 -0.2188622 0.114262655 -0.013340072 -0.13077088 0.16433673 0.014602942
0.02358615 0.046058882 0.03647055 -0.054857735 -0.19771871 -0.19618526 0.1484349 -0.26701087
0.045783486 0.028785992 -0.061626546 0.052201856 -0.19718918 -0.19459361 -0.027611146 -0.010624892
0.03908406 -0.18675555 0.19467235 -0.17305689 0.118104644 -0.20887536 -0.12632547 0.19431545
0.06669496 0.18763229 0.17300713 -0.19066566 -0.2619558 -0.098382965 -0.073428996 -0.13279274
-0.020380627 -0.1811884 -0.075084 0.1890933 -0.14946453 -0.14000143 0.12432656 -0.17944373
-0.022698473 -0.16448952 -0.13913758 0.1377344 -0.17345853 -0.12031544 -0.056533117 -0.2389775
0.059679274 -0.0854877 0.19965725 -0.1382884 -0.08033752 0.119251005 0.1814803 -0.19086303
-0.17612678 -0.16266643 -0.08441614 -0.004893869 -0.18191285 -0.056917038 -0.19202636 -0.12380434
0.19479302 -0.19495022 0.061475184 -0.13477497 -0.02565335 -0.15970086 0.05243974 -0.07457008
-0.23818976 0.18303227 0.023412725 0.09170341 0.18913482 0.16675538 -0.13054217 -0.29695848
-0.027242227 0.11483746 -0.029388884 0.08786441 -0.008948382 -0.2389836 -0.14682594 -0.035554115
0.07134261 -0.12464078 -0.15186262 -0.006137391 -0.08661775 0.06507632 -0.036474235 0.12621863
-0.033590432 -0.01603963 -0.045278065 0.023917692 -0.17010449 -0.114414155 -0.030363744 -0.10369307
-0.070590645 0.20049395 0.040254544 -0.1704831 -0.08044361 -0.017233089 -0.15155941 0.08931431
0.1033398 0.19274384 0.07079129 -0.16024722 -0.14693287 -0.12948096 0.17557625 -0.0062775686
0.056076378 0.099322684 -0.16872708 -0.06664882 -0.2251029 -0.23674227 0.05525293 0.11008086
0.100515805 -0.10547381 -0.1881944 0.17266022 0.15213007 0.02988764 -0.17221278 -0.12084293
00000000: 1955 0abe 10e2 c53d 86b3 2c3e 8a07 1f3d
00000010: 8952 213e 9ee8 5c3d d324 ed3d df1b ed3d
00000020: 831d 0cbe 4878 f1bd a000 b4bd cfad 2c3e
00000030: 815f 2bbe 2f92 44bd 6b81 1d3e 3c75 73be
00000040: e461 2e3e caab 4f3e 452c 29be 91e9 933c
00000050: 6e19 8dbd f4e7 da3d 76a9 26bd 1f52 d43d
00000060: adb8 73bc 6fe8 453e a6c0 46be a7f0 143e
00000070: 8bf4 5c3d 9934 23be 4603 d03d a3e4 c2bc
00000080: b682 0e3e 1a19 10be 26bb 413e 5c7c f53d
00000090: 93a9 dc3d 4950 84bc c715 21be f200 8f3d
000000a0: 79ee 54bd 9822 123e 53a2 42bd 6141 183e
000000b0: d041 383d 68aa 473e ee44 263e 3b5e 59be
000000c0: 3636 093e 1167 543e 0786 32be e0ff 16be
000000d0: f2ef 463d 360d 66bb 7452 90be 9bef 083e
000000e0: 3b0e 1c3e 359e e2bd 3bae 05be 78b7 15bd
000000f0: 420f b13d fcad 68bd 677b 9a3d b2b4 fbbd
00000100: bfd0 d03c 18bf fabc 0108 ea3d 3c2b 28bd
00000110: 0a81 f1bc 71d6 51be 8688 b73d 74de 1fbd
00000120: fca9 813d 7cb5 083e c7f9 4cbe 57f6 65be
00000130: af94 173e e0ec 6ebd d0db 29be 67cb 51be
00000140: cf0e 96bd 83f8 c13d 0318 de3d 3960 9cbe
00000150: 88f9 98be a35c 833d 40dc 87bd 4d72 503d
00000160: e9b2 e03d fbf5 c53d d660 ab3a 9791 39be
00000170: 7e70 16be 8b9d c23d 91e3 1abe c06c 0abe
00000180: 3194 e93c b138 46bd b5ee 33be 8c66 2abe
00000190: 1bd4 653e 1b82 1dbe a5e3 14be 863c c1bd
000001a0: f1e6 33be 0c47 64be dd33 bc3d 10ad e93c
000001b0: ce5a 3b3e b0f7 fa3d 68a1 973d 0d36 223e
000001c0: ff87 b4bc 04f1 083d 6a1d 60be 8a02 ea3d
000001d0: 5190 5abc cde8 05be e347 283e 2e41 6f3c
000001e0: be37 c13c 3da8 3c3d 2562 153d 81b2 60bd
000001f0: c676 4abe cae4 48be 52ff 173e a6b5 88be
00000200: 7787 3b3d 9ad0 eb3c 1e6c 7cbd 9dd1 553d
00000210: f6eb 49be 8c43 47be c530 e2bc 0714 2ebc
00000220: 9b16 203d d93c 3fbe 3058 473e d335 31be
00000230: d9e0 f13d 6ce3 55be 775b 01be a1fa 463e
00000240: 5e97 883d ae22 403e c828 313e dc3d 43be
00000250: 121f 86be 027d c9bd f161 96bd d2fa 07be
00000260: 46f5 a6bc 7489 39be a4c5 99bd ada1 413e
00000270: 3b0d 19be 895c 0fbe ec9e fe3d 19c0 37be
00000280: 26f2 b9bc f16f 28be 157a 0ebe 3f0a 0d3e
00000290: 1d9f 31be f167 f6bd 458f 67bd 85b6 74be
000002a0: 4172 743d 2d14 afbd f372 4c3e 799b 0dbe
000002b0: ff87 a4bd df39 f43d f9d5 393e 9971 43be
000002c0: 945a 34be 0792 26be 5fe2 acbd c05c a0bb
000002d0: 5d47 3abe d721 69bd 8fa2 44be 218d fdbd
000002e0: d277 473e 08a1 47be 67cd 7b3d 7302 0abe
000002f0: f926 d2bc 9f88 23be 0ecb 563d 33b8 98bd
00000300: 04e8 73be d06c 3b3e 0bcc bf3c ffce bb3d
00000310: 8fac 413e ecc1 2a3e d9ac 05be f10a 98be
00000320: 172b dfbc e72f eb3d f5c0 f0bc 41f2 b33d
00000330: 3c9c 12bc 1eb8 74be 8a59 16be 31a1 11bd
00000340: 131c 923d aa43 ffbd e081 1bbe 2b1c c9bb
00000350: a664 b1bd bc46 853d 0266 15bd 753f 013e
00000360: 1f96 09bd 8b65 83bc 7e75 39bd 09ef c33c
00000370: df2f 2ebe f851 eabd 63bd f8bc 085d d4bd
00000380: d491 90bd 494e 4d3e f3e1 243d 1f93 2ebe
00000390: 9fbf a4bd 682c 8dbc 6432 1bbe 6cea b63d
000003a0: d1a3 d33d a45e 453e 06fb 903d d917 24be
000003b0: 9275 16be a896 04be 43ca 333e 10b4 cdbb
000003c0: 58b0 653d b169 cb3d cbc6 2cbe 2d7f 88bd
000003d0: 6081 66be 916c 72be e550 623d 1372 e13d
000003e0: 3bdb cd3d a702 d8bd 08b6 40be d7cd 303e
000003f0: fcc7 1b3e edd6 f43c 8c58 30be 807c f7bd

conv.0.bias f4 [16]
0.066132836 -0.047624934 -0.16584149 0.04523871 -0.13125536 0.21074566 -0.14577338 -0.13288805
0.021258255 0.18032415 -0.24010725 -0.06642479 -0.2166291 -0.2225239 -0.045015432 -0.23460452
00000000: a770 873d 5d12 43bd 5ad2 29be 3a4c 393d
00000010: ce67 06be b6cd 573e 9e45 15be ce13 08be
00000020: cb25 ae3c e5a6 383e adde 75be b809 88bd
00000030: 05d4 5dbe 4edd 63be 1a62 38bd 2b3c 70be

conv.3.weight f4 [32, 16, 3, 3]
-0.012850414 0.023274906 0.0070178835 -0.07302661 -0.01064394 -0.06893744 0.061758462 0.020777887
-0.017359354 -0.025501931 -0.07851948 0.009390165 0.059658643 0.053248305 0.0061309137 -0.07205738
0.06204306 -0.057165004 -0.03562082 0.018605469 0.0414231 0.05401253 -0.030874053 0.036934193
-0.07717922 0.055275932 -0.05513775 0.03165383 0.059183042 -0.018626709 -0.047845293 -0.053026
-0.020818142 -0.033586748 -0.016569715 0.03852345 -0.071674645 -0.0531765 0.061976172 -0.025129972
-0.033210356 -0.059996225 -0.057377584 0.036782496 0.042371463 0.028281264 0.023843694 -0.08551908
-0.0005117975 0.0052381717 0.03831408 -0.034454122 0.019116819 0.043717623 -0.012000689 -0.023521276
-0.076668724 0.060354184 -0.0657274 0.038912855 -0.011539657 -0.074844256 -0.019375654 -0.06635183
-0.0690318 0.001705117 -0.0827004 0.023016369 -0.09911323 -0.045381185 -0.036349427 -0.048192773
-0.075986266 -0.10077232 0.046530038 -0.07577961 0.004948408 -0.0023127946 -0.07888976 -0.028729636
-0.0433606 0.060261983 -0.09194499 -0.056770228 -0.09023693 -0.08552556 0.06476058 0.020323714
-0.03795789 0.047492176 0.058259465 -0.018580617 0.001507892 -0.030126525 -0.053069957 0.054740585
-0.048124734 0.016185582 -0.054647475 0.046450038 0.048349857 -0.038040128 -0.027147915 -0.019873615
-0.087172136 -0.0011942999 0.03113601 0.088640876 -0.013893332 0.046714045 0.04818715 0.04834925
-0.029489432 0.033463582 -0.03580816 -0.0395962 0.042414006 -0.08011414 -0.071534276 -0.05347655
-0.026200505 -0.050130114 -0.044861577 -0.04669986 0.07334685 0.052173145 -0.038764387 0.027709471
-0.027630204 -0.047689233 -0.012238772 0.06712501 0.032793462 -0.055123784 -0.03909752 -0.017645206
0.013938028 -0.013509615 -0.0025455765 0.01890569 -0.08851271 0.008839206 -0.0010742951 -0.014005831
0.06892436 0.008930412 -0.051375687 0.049227543 -0.059956376 0.05851541 -0.050474867 -0.0135437995
0.040085915 -0.093925856 0.06760539 -0.04782778 -0.0043905512 0.0024691392 -0.022815948 0.053322062
-0.071523294 0.074725546 -0.05364075 0.058177356 -0.047205735 0.058183804 -0.01589925 -0.021271436
-0.0032834641 -0.04224149 -0.030118065 0.029085264 0.05576689 -0.009831703 -0.042121902 -0.045606915
-0.003549677 -0.08394016 0.051599827 -0.021892248 -0.05048863 0.078228004 -0.08174115 -0.05369931
-0.084287345 -0.0506497 0.0099921385 0.042046174 0.0065747146 -0.019461391 -0.050507832 0.036166124
-0.014413551 0.013295091 0.055716883 -0.022324506 0.016759304 -0.079723395 -0.07742591 -0.050957467
-0.06485938 -0.0074870493 -0.04940122 0.065256536 0.02687493 -0.071017995 -0.015183951 0.082063064
0.0425474 0.013657611 0.048320614 0.043931685 -0.09190537 0.027842382 -0.06999171 -0.03646331
0.0310284 0.0018169836 0.058516786 -0.010949904 0.022614894 -0.031252764 -0.02951887 -0.027777404
0.026839448 0.0108832875 -0.07297209 0.049373664 0.016351638 0.015802681 0.0037662648 0.054645084
0.07381685 -0.06484259 0.05291856 0.05278502 0.045584027 0.05660738 -0.07377173 -0.036602825
-0.014086615 0.01885195 -0.050343882 -0.028947506 0.02623438 0.0676756 -0.034269806 -0.08341607
0.04586416 0.046703618 -0.05688244 -0.028490141 0.04437947 -0.097997345 -0.08756399 0.008317138
00000000: 8b8a 52bc 04ab be3c 46f6 e53b fa8e 95bd
00000010: ec63 2ebc 132f 8dbd 71f6 7c3d 6336 aa3c
00000020: 3435 8ebc 6de9 d0bc d2ce a0bd 35d9 193c
00000030: 9f5c 743d e51a 5a3d d5e5 c83b d292 93bd
00000040: dd20 7e3d da25 6abd 23e7 11bd 7f6a 983c
00000050: 45ab 293d 3e3c 5d3d 95eb fcbc 4f48 173d
00000060: 2410 9ebd 0469 623d 1fd8 61bd 72a7 013d
00000070: eb69 723d 0a97 98bc 6df9 43bd ca31 59bd
00000080: cf8a aabc 4292 09bd 36bd 87bc c4ca 1d3d
00000090: 28ca 92bd 9acf 59bd bada 7d3d 5fdd cdbc
000000a0: 9507 08bd 9abe 75bd c204 6bbd 3ea9 163d
000000b0: b38d 2d3d 1cae e73c da53 c33c a124 afbd
000000c0: 262a 06ba f8a4 ab3b 3aef 1c3d c41f 0dbd
000000d0: e09a 9c3c 4011 333d 8a9e 44bc b1af c0bc
000000e0: 7e04 9dbd f335 773d 169c 86bd 1663 1f3d
000000f0: d410 3dbc f247 99bd b1b9 9ebc 78e3 87bd
00000100: 8b60 8dbd 3c7e df3a d45e a9bd d38c bc3c
00000110: e1fb cabd 9fe1 39bd 23e3 14bd c965 45bd
00000120: b09e 9bbd b861 cebd 4896 3e3d 5732 9bbd
00000130: 4126 a23b 4192 17bb f490 a1bd 6a5a ebbc
00000140: e29a 31bd 45d5 763d a84d bcbd e687 68bd
00000150: 24ce b8bd 0628 afbd 32a1 843d eb7d a63c
00000160: bc79 1bbd 2887 423d 7aa1 6e3d 6136 98bc
00000170: 76a4 c53a e7cb f6bc e25f 59bd aa37 603d
00000180: 711e 45bd a097 843c 08d6 5fbd 6542 3e3d
00000190: 800a 463d f7cf 1bbd 4e65 debc fecd a2bc
000001a0: 4e87 b2bd 0e8a 9cba f210 ff3c 5989 b53d
000001b0: dca0 63bc 3a57 3f3d e45f 453d dd09 463d
000001c0: d293 f1bc 1c11 093d 94ab 12bd a02f 22bd
000001d0: 4fba 2d3d e212 a4bd 9080 92bd 3a0a 5bbd
000001e0: 71a2 d6bc 3c55 4dbd c6c0 37bd 5a48 3fbd
000001f0: e036 963d 82b3 553d 68c7 1ebd f9fe e23c
00000200: bd58 e2bc c955 43bd 2185 48bc d678 893d
00000210: 7052 063d 7ac9 61bd b924 20bd ae8c 90bc
00000220: 545c 643c 6f57 5dbc b0d3 26bb 1be0 9a3c
00000230: 2746 b5bd 51d2 103c 5dcf 8cba b778 65bc
00000240: 3728 8d3d dd50 123c 506f 52bd d2a2 493d
00000250: d194 75bd dbad 6f3d bcbe 4ebd d0e6 5dbc
00000260: 2131 243d 335c c0bd b274 8a3d 10e7 43bd
00000270: 9dde 8fbb 48d1 213b 83e8 babc 3c68 5a3d
00000280: ce7a 92bd b509 993d 67b6 5bbd 614b 6e3d
00000290: cd5a 41bd 2452 6e3d 253f 82bc 6f41 aebc
000002a0: 632f 57bb 6a05 2dbd 29ba f6bc 3844 ee3c
000002b0: d36b 643d 2715 21bc 0488 2cbd 51ce 3abd
000002c0: b3a1 68bb d2e8 abbd 575a 533d 5f57 b3bc
000002d0: 2acd 4ebd 0136 a03d e767 a7bd cff3 5bbd
000002e0: d89e acbd 0f76 4fbd 11b6 233c 9c38 2c3d
000002f0: b470 d73b 7f6d 9fbc 4de1 4ebd ee22 143d
00000300: d126 6cbc a7d3 593c 6337 643d e2e1 b6bc
00000310: cf4a 893c 0546 a3bd 7a91 9ebd c7b8 50bd
00000320: ffd4 84bd ec55 f5bb ef58 4abd 38a5 853d
00000330: d028 dc3c e271 91bd 1bc6 78bc ae10 a83d
00000340: 2f46 2e3d 2cc4 5f3c d6eb 453d b6f1 333d
00000350: e238 bcbd b515 e43c d057 8fbd 8d5a 15bd
00000360: 452f fe3c da27 ee3a 4caf 6f3d 3a67 33bc
00000370: df42 b93c e602 00bd 8fd1 f1bc 708d e3bc
00000380: 67de db3c d14f 323c 6472 95bd 0a3c 4a3d
00000390: dff3 853c a074 813c 70d3 763b 86d3 5f3d
000003a0: 4a2d 973d 31cc 84bd 22c1 583d 1b35 583d
000003b0: 51b6 3a3d 24dd 673d a215 97bd d8ec 15bd
000003c0: 8ccb 66bc 686f 9a3c 6335 4ebd 5223 edbc
000003d0: 7ce9 d63c 8199 8a3d 7f5e 0cbd 0bd6 aabd
000003e0: 0fdc 3b3d 4b4c 3f3d 90fd 68bd 2864 e9bc
000003f0: 3fc7 353d d5b2 c8bd c054 b3bd 9b44 083c

conv.3.bias f4 [32]
0.046396237 -0.044513483 0.033344153 -0.082543135 -0.07589385 0.03548811 -0.1044417 0.007549902
-0.038695365 0.07541899 0.03927174 -0.015099341 -0.0942209 -0.03319905 0.07053545 0.033543527
-0.09049928 -0.0035661818 0.017781438 -0.08039783 -0.08023421 -0.117135845 0.049099628 -0.047100984
-0.100954555 -0.036790643 0.062381748 -0.05155128 0.02482565 0.026019799 -0.022219079 -0.0536573
00000000: fb09 3e3d c553 36bd e193 083d 600c a9bd
00000010: 3c6e 9bbd fb5b 113d 88e5 d5bd 2b65 f73b
00000020: 087f 1ebd 4575 9a3d 67db 203d 3a63 77bc
00000030: e3f6 c0bd bafb 07bd e474 903d f064 093d
00000040: b057 b9bd 9ab6 69bb 61aa 913c 9ea7 a4bd
00000050: d551 a4bd ebe4 efbd b11c 493d f6ec 40bd
00000060: 43c1 cebd c9b1 16bd 0184 7f3d 6f27 53bd
00000070: 295f cb3c 7927 d53c c904 b6bc c2c7 5bbd

fc.0.weight f4 [128, 128]
0.05702693 -0.013441813 -0.019979663 0.021251135 -0.07241314 -0.09578711 -0.107681334 -0.060896173
0.03300178 -0.004035771 0.036852557 -0.08119754 -0.053612664 0.07781365 -0.07562113 0.065053634
0.00024803728 -0.02759647 -0.04556129 -0.08157219 -0.03758212 -0.01488071 0.015778327 -0.016354945
0.035820708 0.03279739 0.030913256 0.051940463 -0.10201489 -0.06574813 -0.07344075 -0.07710749
-0.032140385 -0.046366505 0.06444167 -0.0063243657 0.056287073 0.039443024 -0.00069849193 0.08831606
-0.005041089 -0.05159851 -0.022490963 -0.04523732 -0.09739298 0.022974204 -0.013233003 -0.02820174
0.003864579 0.036410883 -0.08765629 0.018432893 -0.071264684 0.0037339404 0.02733203 -0.055299394
0.014386456 -0.05834635 -0.051448215 -0.062835254 -0.09756913 -0.045318708 -0.062328454 0.063436545
-0.07952467 0.0466209 0.03363952 -0.05102803 -0.041728526 0.01792019 0.052308954 0.02182341
-0.0013850365 0.046770394 -0.03721889 -0.035534345 0.030718468 -0.08810968 -0.03315955 -0.061725292
0.004435979 0.03928636 -0.033065394 -0.025692819 0.033070154 -0.025141135 -0.059143066 -0.025606275
-0.07301769 -0.06949744 -0.010554919 -0.09721624 -0.05784813 -0.039064765 0.06456777 -0.04848824
-0.06920616 -0.05790879 0.0744395 0.0779387 -0.09492922 -0.073376864 -0.08401689 0.010987737
-0.0666858 -0.013536658 -0.009256067 -0.08223311 0.06552955 -0.06983867 -0.03796661 -0.054567493
-0.005031492 0.036267202 0.07391364 -0.010313366 -0.10401455 -0.07284984 0.0009355808 -0.0060517546
0.066927515 0.07796573 -0.0632408 -0.023123555 -0.02174677 -0.09724263 -0.07688921 0.053694274
-0.07523658 0.007622488 -0.078244306 0.004783362 0.08175816 0.047975063 -0.042797815 -0.068867184
0.06966413 -0.08226606 -0.0639829 0.06276382 -0.076166205 -0.016444154 -0.06893512 -0.02788483
0.08227126 0.059911154 -0.0002560389 -0.08770783 -0.037271813 -0.075163186 -0.08212329 -0.048667938
-0.039058443 -0.04459179 0.009916261 -0.07601884 -0.08810955 -0.014231198 0.07509572 0.060543034
0.032973565 0.04662501 0.059689663 -0.034652106 -0.061790578 -0.032755487 -0.038809378 0.07023098
0.07898621 -0.07437654 -0.007541066 0.0067825825 -0.04446851 0.07604165 0.043375745 0.004677944
-0.034352906 -0.083906315 0.02294844 -0.075041905 -0.030591983 -0.0055609457 0.02081435 -0.0011969358
-0.081995584 -0.06481287 -0.051337574 0.06340574 0.0039077364 -0.022888638 0.023388848 0.04399433
0.03710697 0.0014719182 0.067319386 0.0005530119 0.06777252 -0.07240308 0.009191155 -0.043514367
-0.11385934 -0.04892062 -0.08124935 0.071347535 -0.02085615 0.049058706 0.04837804 -0.04739511
-0.053253744 -0.048272755 0.054660432 0.08667181 -0.0022330657 -0.08398413 -0.019188998 0.0019043759
-0.06095234 0.016424872 0.049707852 0.03303749 0.019130938 -0.0652961 -0.0070813894 0.014693163
0.011667229 -0.07979707 0.0083633065 0.029556349 0.04860809 -0.05441822 -0.05818636 -0.03200452
-0.09186087 -0.044806957 0.020152248 -0.035504453 -0.05074335 -0.027525738 -0.048373055 -0.036010772
-0.062944144 -0.037215907 0.0047769696 0.0026828572 0.008064398 0.0630951 -0.03607699 -0.06696984
-0.029695552 -0.026980843 -0.083657555 0.07924069 -0.042158376 0.0561218 0.031226724 -0.043431524
00000000: 1295 693d 0d3b 5cbc 64ac a3bc dc16 ae3c
00000010: 574d 94bd 082c c4bd 0888 dcbd 446e 79bd
00000020: e02c 073d 803e 84bb b5f2 163d e54a a6bd
00000030: f498 5bbd c35c 9f3d 40df 9abd d73a 853d
00000040: 000b 8239 fe11 e2bc 7a9e 3abd 520f a7bd
00000050: b6ef 19bd 39ce 73bc 8d41 813c cefa 85bc
00000060: bcb8 123d 8e56 063d cc3d fd3c 86bf 543d
00000070: 2fed d0bd f5a6 86bd 1b68 96bd 88ea 9dbd
00000080: a3a5 03bd ceea 3dbd fff9 833d a03c cfbb
00000090: 468d 663d 028f 213d 001b 37ba 0ddf b43d
000000a0: b82f a5bb f658 53bd f83e b8bc c54a 39bd
000000b0: f875 c7bd 6634 bc3c 3dcf 58bc 5607 e7bc
000000c0: e044 7d3b 9423 153d 2485 b3bd 9400 973c
000000d0: 38f3 91bd 20b5 743b 6ce7 df3c 9e81 62bd
000000e0: 2cb5 6b3c 95fc 6ebd 5dbb 52bd c5af 80bd
000000f0: 53d2 c7bd 1ca0 39bd 1f4c 7fbd 05eb 813d
00000100: d5dd a2bd 8ff5 3e3d 98c9 093d c502 51bd
00000110: 88eb 2abd 5dcd 923c ea41 563d 02c7 b23c
00000120: 1d8a b5ba 5092 3f3d d672 18bd 768c 11bd
00000130: 4ca5 fb3c d972 b4bd 4fd2 07bd a9d3 7cbd
00000140: b05b 913b bcea 203d 946f 07bd bf79 d2bc
00000150: 9274 073d c8f4 cdbc 0040 72bd 40c4 d1bc
00000160: 4c8a 95bd ac54 8ebd 8aee 2cbc 4f19 c7bd
00000170: 29f2 6cbd 6002 20bd 1b3c 843d 9b9b 46bd
00000180: f6bb 8dbd c431 6dbd bd73 983d 539e 9f3d
00000190: 406a c2bd 9c46 96bd 0c11 acbd e905 343c
000001a0: 9192 88bd dcc8 5dbc c2a6 17bc d569 a8bd
000001b0: 5b34 863d 9407 8fbd e082 1bbd 2a82 5fbd
000001c0: 37df a4bb eb8c 143d 0960 973d 64f9 28bc
000001d0: 9505 d5bd 4c32 95bd c441 753a cc4d c6bb
000001e0: 4b11 893d 7fac 9f3d 6484 81bd 9c6d bdbc
000001f0: 4826 b2bc 2527 c7bd 1778 9dbd 87ee 5b3d
00000200: a315 9abd 10c6 f93b 8d3e a0bd c0bd 9c3b
00000210: d270 a73d 8081 443d c34c 2fbd 3d0a 8dbd
00000220: 11ac 8e3d 1c7b a8bd 7709 83bd 518a 803d
00000230: 07fd 9bbd e4b5 86bc db2d 8dbd ba6e e4bc
00000240: d67d a83d 6665 753d f63c 86b9 2aa0 b3bd
00000250: 54aa 18bd 28ef 99bd 4130 a8bd 0858 47bd
00000260: bffb 1fbd e1a5 36bd d077 223c c4af 9bbd
00000270: c872 b4bd f829 69bc c9cb 993d f9fb 773d
00000280: 4a0f 073d def9 3e3d 267d 743d 5eef 0dbd
00000290: 1e18 7dbd 9e2a 06bd 95f6 1ebd 43d5 8f3d
000002a0: 86c3 a13d ba52 98bd 0c1b f7bb 6d40 de3b
000002b0: 9d24 36bd b9bb 9b3d c4aa 313d 7049 993b
000002c0: a2b5 0cbd 13d7 abbd 5efe bb3c 92af 99bd
000002d0: 0a9c fabc 9838 b6bb db82 aa3c 80e2 9cba
000002e0: 4ded a7bd 9cbc 84bd 5947 52bd deda 813d
000002f0: 780c 803b f480 bbbc f899 bf3c 6633 343d
00000300: 7afd 173d 61ed c03a bfde 893d 00f8 103a
00000310: 52cc 8a3d 1148 94bd 8096 163c 1f3c 32bd
00000320: 162f e9bd fd60 48bd 0f66 a6bd a81e 923d
00000330: 84da aabc c8f1 483d 0d28 463d 6021 42bd
00000340: 9920 5abd a7b9 45bd 9ee3 5f3d fd80 b13d
00000350: a058 12bb dfff abbd 3f32 9dbc 409c f93a
00000360: 29a9 79bd 748d 863c 769a 4b3d 5252 073d
00000370: 7cb8 9c3c f6b9 85bd 000b e8bb 98bb 703c
00000380: e827 3f3c a56c a3bd 4006 093c 2820 f23c
00000390: 4719 473d a4e5 5ebd d254 6ebd 2c17 03bd
000003a0: 8d21 bcbd 8087 37bd 5416 a53c 1e6d 11bd
000003b0: 42d8 4fbd a87d e1bc d322 46bd 0880 13bd
000003c0: dce8 80bd b56f 18bd 2088 9c3b e0d2 2f3b
000003d0: 8920 043c 0138 813d 77c5 13bd 7c27 89bd
000003e0: 1644 f3bc ee06 ddbc a754 abbd f148 a23d
000003f0: 43ae 2cbd f9df 653d 30cf ff3c 41e5 31bd

fc.0.bias f4 [128]
-0.081627905 -0.04438786 0.038577482 -0.029299406 0.035184152 0.019601023 -0.0492123 -0.07878812
0.028572308 -0.013126681 -0.029210877 0.06259662 -0.0186415 -0.09484278 0.012156806 -0.0009090996
-0.065394804 -0.011788021 0.002039288 -0.06452752 -0.06739987 -0.066551775 -0.07503526 -0.083500795
0.0041324245 -0.043319315 -0.01118644 -0.094741896 -0.01149139 0.037773058 -0.08422534 0.044368114
-0.058521256 0.03345409 -0.031392824 -0.09495253 -0.04051997 -0.08068058 0.06817181 -0.07507139
-0.042000894 0.023211952 -0.043857336 -0.054150246 0.015097616 0.0270214 -0.004817598 0.089080885
-0.07680328 -0.032634195 -0.09102198 0.02345557 -0.10371374 -0.007952005 0.03108257 0.012186887
-0.047107752 -0.08087025 0.035060167 0.04611781 -0.07665348 -0.08063998 -0.08711873 -0.052841365
-0.054939892 0.018956898 -0.09313251 -0.026655557 -0.09476875 0.050832517 0.010739343 -0.026782915
-0.083595455 -0.12332094 -0.05372513 0.029332334 -0.05518072 -0.020140132 0.084441125 0.017895674
-0.09110129 -0.010352392 -0.03923696 -0.0016659901 -0.0058740093 -0.046133798 -0.0670634 -0.05376685
0.0029328368 0.04480699 -0.1074632 -0.0014347024 -0.07141622 -0.0758577 -0.018387297 -0.054841716
-0.05590412 -0.063976616 -0.056111377 0.040052205 -0.093391 -0.0242422 -0.034804992 0.014601948
-0.050377883 -0.029434767 0.02328339 -0.03249093 -0.107296385 -0.060007077 0.008422797 0.011168173
0.016373364 0.015895247 -0.086913556 0.03953399 0.02987055 0.016118685 -0.06324349 -0.030272618
0.027035153 -0.0018071422 -0.08164353 -0.03416283 0.06313456 0.104989626 -0.026812937 -0.03945494
00000000: 882c a7bd 0bd0 35bd 6c03 1e3d 4f05 f0bc
00000010: 421d 103d 5392 a03c d692 49bd aa5b a1bd
00000020: 7910 ea3c 4a11 57bc a64b efbc a832 803d
00000030: 0fb6 98bc ee3c c2bd 572d 473c a450 6eba
00000040: b6ed 85bd 8b22 41bc 93a5 053b 0127 84bd
00000050: f108 8abd 4c4c 88bd 16ac 99bd 7702 abbd
00000060: 4a69 873b 986f 31bd 5447 37bc 0a08 c2bd
00000070: 6246 3cbc ecb7 1a3d 567e acbd 57bb 353d
00000080: fcb3 6fbd 2807 093d c395 00bd 7976 c2bd
00000090: 45f8 25bd dc3b a5bd a99d 8b3d 07bf 99bd
000000a0: 2109 2cbd fe26 be3c c0a3 33bd a6cc 5dbd
000000b0: fe5b 773c fc5b dd3c f1dc 9dbb 0a70 b63d
000000c0: 0a4b 9dbd 6fab 05bd bb69 babd e525 c03c
000000d0: df67 d4bd 2049 02bc e0a0 fe3c 82ab 473c
000000e0: 0ff4 40bd 4d9f a5bd 409b 0f3d 07e6 3c3d
000000f0: 80fc 9cbd 9326 a5bd 4e6b b2bd 3070 58bd
00000100: a708 61bd 7f4b 9b3c 42bc bebd c15c dabc
00000110: 1e16 c2bd c235 503d 12f4 2f3c d867 dbbc
00000120: 1834 abbd b08f fcbd e20e 5cbd 5d4a f03c
00000130: 2e05 62bd ebfc a4bc 78ef ac3d f399 923c
00000140: 5093 babd 149d 29bc efb6 20bd 5a5d daba
00000150: c37a c0bb cbf6 3cbd 8958 89bd a13a 5cbd
00000160: d634 403b 8987 373d ab15 dcbd a00c bcba
00000170: ab42 92bd 485b 9bbd f5a0 96bc b5a1 60bd
00000180: b8fb 64bd 2c06 83bd 0bd5 65bd c80d 243d
00000190: c843 bfbd 9497 c6bc ae8f 0ebd 023d 6f3c
000001a0: 0a59 4ebd 2e21 f1bc cfbc be3c 3615 05bd
000001b0: 35be dbbd fbc9 75bd c5ff 093c b6fa 363c
000001c0: 6f21 863c c036 823c bcff b1bd 65ee 213d
000001d0: 15b3 f43c 550b 843c ce85 81bd 48fe f7bc
000001e0: d378 dd3c a1dd ecba b934 a7bd 53ee 0bbd
000001f0: b14c 813d cd04 d73d cea6 dbbc 819b 21bd

fc.2.weight f4 [64, 128]
0.027403524 0.032200653 -0.023637427 -0.0207761 -0.06881229 0.06569189 0.0622318 -0.004806423
0.058407016 -0.02972526 0.041131094 -0.03468984 0.023848636 -0.0022730385 0.0060760854 0.019861372
0.005516858 0.01456343 0.05324993 0.0050329734 -0.002288417 0.020387411 -0.014792203 -0.044247676
0.04746075 -0.0060368176 0.04107728 -0.02893279 -0.007628213 0.10318305 -0.032317042 -0.06554008
0.09433654 -0.024215933 -0.0430049 -0.030766565 0.05221236 -0.07445652 0.05509232 -0.0033474336
0.058302052 -0.046862043 -0.055962615 0.0019515104 0.046011005 -0.01578724 0.084360935 0.034439124
0.06566886 0.06638069 -0.032211356 -0.060724445 0.0002930439 -0.048666988 0.08124723 0.056443565
-0.010815969 -0.0008772164 0.080446474 0.016371792 0.04825358 -0.06717192 0.023037704 0.07830511
-0.08069878 -0.048109826 0.052638676 0.06559983 -0.042913713 -0.0632784 -0.022187164 -0.078132406
0.008944935 0.027696889 0.0052914433 -0.062235426 -0.027190927 0.025429526 0.06591729 -0.08868702
-0.078756995 -0.07134855 -0.06390475 0.045079425 -0.06676461 0.06025379 -0.0060863667 -0.030892277
0.047313936 -0.04749338 0.013520828 0.07796822 0.079567164 0.0035429113 0.006038875 -0.014725216
0.06446571 0.030458394 0.054032568 -0.05171417 -0.047987193 -0.07853486 0.02824991 -0.0064072013
0.010809103 -0.049385756 -0.011718764 -0.0013202468 -0.03785669 -0.045120016 0.02477984 -0.06590624
-0.058615513 0.089661196 -0.11293581 -0.062155794 0.037797075 -0.012719567 -0.035162903 -0.061049655
0.05241208 0.07571301 -0.031184578 0.0049449545 -0.07722895 0.0143403625 0.016391126 0.0466836
0.08772298 -0.0049591064 -0.028023278 -0.027619377 -0.057544395 0.08054028 -0.011105428 0.05843053
0.05914002 -0.0063141044 0.010890946 -0.01758716 -0.05741134 -0.083757654 0.04534268 0.054984502
-0.07335258 -0.0031595454 0.04722161 -0.05820737 0.07843541 0.026984148 -0.056006026 -0.025143487
0.043476146 0.051336773 0.03283368 -0.08295352 0.050382625 -0.067586735 0.004756061 0.014567718
-0.052013695 0.037648328 0.090700716 -0.011205137 0.034538638 0.071546085 -0.0037814432 0.030267708
-0.06877537 -0.0077962056 -0.06802345 0.026602335 -0.005969301 -0.050955754 -0.07817785 -0.08368975
-0.00762859 0.075110294 -0.040489204 0.0096734315 -0.038476337 0.0067818686 0.03488604 0.05905976
-0.07486424 0.0008036047 0.023748837 -0.029252935 -0.047768604 -0.013734676 -0.08568681 -0.06616524
-0.058146697 0.06274342 0.0077742077 0.053686228 -0.08766156 0.024395846 -0.03024959 0.07945188
-0.040185217 0.0046290606 -0.07010828 0.03544481 -0.024334423 0.02966141 0.067968465 -0.05389325
0.054551676 0.026768925 0.059801973 0.0015408187 0.022051444 -0.0030187473 -0.0041163564 -0.084240496
-0.08045723 -0.018429682 0.06745594 -0.066685155 0.08747079 0.005881287 -0.051663004 0.06861458
-0.08725923 -0.038112666 0.05914821 -0.03563317 0.049168758 -0.023583934 -0.05268199 -0.005959484
-0.028317306 0.07169198 -0.08180308 -0.013432093 -0.082619146 -0.008421876 -0.087315455 -0.008672848
0.035601698 -0.04018332 0.0070537105 -0.089806914 0.050618526 -0.041192 0.040629126 0.043058567
-0.07683684 -0.07301 -0.05952553 -0.061266318 -0.078815356 0.052525975 -0.036080074 0.034228027
00000000: 5b7d e03c d5e4 033d 47a3 c1bc a432 aabc
00000010: 75ed 8cbd 7889 863d c6e6 7e3d 337f 9dbb
00000020: 323c 6f3d 6382 f3bc 1479 283d ef16 0ebd
00000030: 375e c33c 42f7 14bb e619 c73b 51b4 a23c
00000040: c2c6 b43b 749b 6e3c 991c 5a3d a4eb a43b
00000050: 44f9 15bb 8003 a73c ff5a 72bc 0d3d 35bd
00000060: 3466 423d 7fd0 c5bb a640 283d 7504 edbc
00000070: 17f6 f9bb a351 d33d e05e 04bd e139 86bd
00000080: 8433 c13d 7e60 c6bc e825 30bd 2a0a fcbc
00000090: a1dc 553d a97c 98bd 7ca8 613d 9e60 5bbb
000000a0: 22ce 6e3d 6af2 3fbd 0e39 65bd d3c9 ff3a
000000b0: 0976 3c3d 3e54 81bc 6dc5 ac3d 0a10 0d3d
000000c0: 657d 863d 99f2 873d 0ef0 03bd 32ba 78bd
000000d0: b0a3 9939 0957 47bd f364 a63d 5e31 673d
000000e0: 7635 31bc fff4 65ba 1fc1 a43d 231e 863c
000000f0: 8ca5 453d 6e91 89bd 91b9 bc3c 6e5e a03d
00000100: 6745 a5bd cf0e 45bd a79b 573d 3459 863d
00000110: 4ac6 2fbd 1b98 81bd dbc1 b5bc e203 a0bd
00000120: c78d 123c 96e4 e23c d863 ad3b 93ea 7ebd
00000130: 82bf debc 9551 d03c a5ff 863d 8aa1 b5bd
00000140: 594b a1bd 301f 92bd 7ee0 82bd 34a5 383d
00000150: e2bb 88bd aecc 763d 2570 c7bb cd11 fdbc
00000160: 42cc 413d 6b88 42bd 7786 5d3c cdad 9f3d
00000170: 1cf4 a23d 3030 683b c1e1 c53b 0842 71bc
00000180: 9906 843d e283 f93c 4151 5d3d 3dd2 53bd
00000190: 388e 44bd e2d6 a0bd 5b6c e73c 80f3 d1bb
000001a0: aa18 313c b848 4abd 0f00 40bc 220c adba
000001b0: 9e0f 1bbd c4cf 38bd 17ff ca3c daf9 86bd
000001c0: d216 70bd 4aa0 b73d e44a e7bd 1397 7ebd
000001d0: 1bd1 1a3d bb65 50bc fa06 10bd 340f 7abd
000001e0: 0dae 563d 6c0f 9b3d cd76 ffbc 4909 a23b
000001f0: 362a 9ebd d7f3 6a3c af46 863c 4d37 3f3d
00000200: 1ba8 b33d 0080 a2bb 1391 e5bc 0842 e2bc
00000210: acb3 6bbd 4df2 a43d 8bf3 35bc da54 6f3d
00000220: ce3c 723d 8ce6 cebb f06f 323c f312 90bc
00000230: 2728 6bbd 2289 abbd 3fb9 393d 6e37 613d
00000240: e139 96bd 6010 4fbb 726b 413d da6a 6ebd
00000250: bfa2 a03d dc0d dd3c 9366 65bd b7f9 cdbc
00000260: 0b14 323d 8246 523d 9c7c 063d 89e3 a9bd
00000270: 035e 4e3d ea6a 8abd bbd8 9b3b 70ad 6e3c
00000280: 500c 55bd 2235 1a3d 4cc1 b93d c095 37bc
00000290: 6378 0d3d c186 923d 17d2 77bb fcf3 f73c
000002a0: 1ada 8cbd 5077 ffbb e14f 8bbd 24ed d93c
000002b0: 209a c3bb fbb6 50bd b51b a0bd 8865 abbd
000002c0: 40f9 f9bb 6dd3 993d 02d8 25bd 507d 1e3c
000002d0: 5d99 1dbd 703a de3b aae4 0e3d a6e8 713d
000002e0: 6c52 99bd 00a9 523a ec8c c23c daa3 efbc
000002f0: 03a9 43bd 6807 61bc 917c afbd a481 87bd
00000300: 3b2b 6ebd 9f7f 803d c8be fe3b 17e6 5b3d
00000310: e787 b3bd ccd9 c73c fdcd f7bc abb7 a23d
00000320: 4199 24bd 60af 973b ee94 8fbd 942e 113d
00000330: fc58 c7bc 7cfc f23c 0d33 8b3d 2bbf 5cbd
00000340: 9471 5f3d 814a db3c eaf2 743d 4cf5 c93a
00000350: 3ba5 b43c 2dd6 45bb 80e2 86bb 4886 acbd
00000360: c3c6 a4bd d8f9 96bc 5726 8a3d 3a92 88bd
00000370: e323 b33d d0b7 c03b 969c 53bd cd85 8c3d
00000380: f8b4 b2bd 071c 1cbd 6545 723d 16f4 11bd
00000390: 2e65 493d 1833 c1bc 12c9 57bd c647 c3bb
000003a0: b2f9 e7bc 3fd3 923d 6088 a7bd 4812 5cbc
000003b0: 3a34 a9bd e8fb 09bc 72d2 b2bd 9018 0ebc
000003c0: 16d3 113d 4497 24bd d022 e73b b0ec b7bd
000003d0: 5f55 4f3d f1b8 28bd ba6a 263d 2e5e 303d
000003e0: a25c 9dbd 4486 95bd 0bd1 73bd 64f2 7abd
000003f0: f269 a1bd 7a25 573d b3c8 13bd b032 0c3d

fc.2.bias f4 [64]
0.110218376 -0.089073494 -0.08089609 0.12102166 0.015212033 -0.03309825 -0.0038318855 0.068795286
-0.07767109 0.054154683 0.116050065 -0.030567136 0.07830855 -0.079620644 -0.012545501 -0.027833838
0.15760008 0.013785732 0.022470826 -0.029716242 -0.0029065346 -0.017155707 -0.066183455 -0.054604627
0.14296667 -0.01595478 -4.3326677e-06 0.030768212 -0.018174998 -0.06458518 0.068953134 -0.03121672
0.11833754 0.15668225 -0.007907394 0.03854483 -0.016765855 0.17212205 -0.007193905 0.1504702
-0.0032743711 -0.0818124 -0.0842083 -0.04498702 -0.06468793 -0.017496688 -0.024373554 0.009857483
0.14098302 -0.06027148 0.058165435 0.14458641 -0.040534507 -0.0105956355 -0.049603626 -0.031032491
-0.065376714 0.0081967525 -0.015275637 0.07706172 -0.044161487 0.095220685 0.006949728 -0.02601322
00000000: 2cba e13d 2a6c b6bd d9ac a5bd 34da f73d
00000010: e43b 793c 0892 07bd 5f20 7bbb 8be4 8c3d
00000020: 0512 9fbd 4dd1 5d3d a8ab ed3d ee67 fabc
00000030: 3c60 a03d 2610 a3bd a58b 4dbc ca03 e4bc
00000040: ea61 213e 8ddd 613c bd14 b83c 7a6f f3bc
00000050: 8f7b 3ebb 208a 8cbc 318b 87bd 1aa9 5fbd
00000060: db65 123e 99b3 82bc 5561 91b6 9e0d fc3c
00000070: bce3 94bc 3c45 84bd 4d37 8d3d 35ba ffbc
00000080: f45a f23d 5071 203e 048e 01bc 2fe1 1d3d
00000090: 8c58 89bc c340 303e d9ba ebbb dc14 1a3e
000000a0: d596 56bb 428d a7bd 6775 acbd 4f44 38bd
000000b0: 1b7b 84bd 3755 8fbc 0cab c7bc 4881 213c
000000c0: da5d 103e 3adf 76bd e13e 6e3d 760e 143e
000000d0: 8307 26bd 5199 2dbc 2c2d 4bbd da37 febc
000000e0: 3ae4 85bd ac4b 063c aa46 7abc 89d2 9d3d
000000f0: ade2 34bd 1003 c33d 8bba e33b ad19 d5bc

fc.4.weight f4 [1, 64]
0.12225957 0.05964161 0.044420853 0.09360645 0.031385086 -0.029608546 -0.033814814 0.04470314
0.015912792 0.022561766 0.08659975 -0.023252621 0.041026533 -0.17087002 -0.067702636 -0.034912426
0.08038251 -0.04928654 0.05212357 -0.059606317 -0.10386671 -0.093882285 -0.011594127 0.008704649
0.10931832 -0.10152873 -0.09452055 0.007587616 0.051725697 -0.08092028 0.060385518 -0.10527437
0.090834655 0.13900198 -0.090342015 0.023397304 -0.013861681 0.15430185 -0.017201627 0.089072235
-0.06466404 -0.09223345 0.096683554 -0.045165032 -0.019081697 -0.08351297 -0.1095781 0.010955753
0.080065526 -0.00025428485 0.07774515 0.114391536 -0.10767839 -0.03375015 -0.0067991177 -0.003574798
-0.016132163 -0.080615625 0.017351774 0.08745248 -0.022754526 0.04606183 -0.029944364 0.07606117
00000000: 3a63 fa3d c34a 743d a4f2 353d bdb4 bf3d
00000010: a68d 003d 9f8d f2bc 6781 0abd a41a 373d
00000020: 8b5b 823c 74d3 b83c 365b b13d 487c bebc
00000030: 700b 283d 8df8 2ebe aea7 8abd 5500 0fbd
00000040: 969f a43d afe0 49bd 867f 553d c125 74bd
00000050: 12b8 d4bd 5b45 c0bd 4bf5 3dbc f29d 0e3c
00000060: 49e2 df3d 4bee cfbd fd93 c1bd 89a1 f83b
00000070: 53de 533d 88b9 a5bd ce56 773d 179a d7bd
00000080: 8507 ba3d 8956 0e3e 3c05 b9bd b4ab bf3c
00000090: 1b1c 63bc 4e01 1e3e 6dea 8cbc 816b b63d
000000a0: 956e 84bd e4e4 bcbd 0702 c63d f8fe 38bd
000000b0: 3851 9cbc d908 abbd 7c6a e0bd c27f 333c
000000c0: 65f9 a33d 8951 85b9 d938 9f3d 1c46 ea3d
000000d0: 7d86 dcbd 993d 0abd 22cb debb 2847 6abb
000000e0: 9927 84bc ce19 a5bd 4f25 8e3c 491a b33d
000000f0: b367 babc 54ab 3c3d e24d f5bc f5c5 9b3d

exp_avg f4 [16, 2, 3, 3]
6.0487855e-06 -1.1622984e-05 1.6310249e-05 4.320309e-06 9.158742e-06 -8.833109e-06 1.6745387e-05 2.787894e-06
1.0488452e-06 1.3370629e-06 1.9754623e-06 1.7461504e-06 1.1473136e-06 1.7277539e-06 1.529492e-06 1.3167622e-06
1.7217363e-06 2.0125065e-06 -9.92635e-07 -8.370672e-06 3.6005506e-06 -8.602068e-06 -9.137696e-06 4.6881023e-06
-1.772315e-05 -1.8571542e-05 -6.36394e-07 -2.5294405e-06 -2.4738886e-06 -2.1375033e-06 -3.2878938e-06 -2.8200357e-06
-2.4608767e-06 -3.2420432e-06 -2.6972473e-06 -2.33836e-06 -3.3813405e-06 1.0236025e-05 1.8510631e-06 9.502944e-06
-1.1703233e-05 -1.0486456e-06 -5.909214e-07 -1.7840064e-05 7.782133e-07 1.195639e-06 1.1620753e-06 1.6639597e-06
1.8849302e-06 1.8066374e-06 2.1697952e-06 1.7886953e-06 1.6884961e-06 2.1299277e-06 -1.6900249e-06 1.5379635e-05
1.2176715e-05 7.3552806e-06 8.553041e-07 4.1032563e-06 1.6957394e-05 1.2810752e-06 1.3133734e-05 -9.225731e-07
3.6076898e-07 3.977939e-07 -1.3081552e-06 3.5512095e-08 -8.798234e-09 -9.680883e-07 3.6968032e-07 1.7306489e-07
5.0617678e-06 2.122487e-05 7.270493e-06 -1.8648428e-06 -2.0343772e-05 4.5615857e-06 -1.914507e-06 -8.279905e-07
-9.534794e-06 1.4175931e-06 1.9116153e-06 1.9419817e-06 1.224565e-06 1.2627966e-06 1.4473984e-06 2.7577025e-07
4.081559e-07 8.436941e-07 -1.0745724e-06 9.4869824e-07 -1.529513e-06 -1.7945624e-05 1.747208e-07 -1.566512e-06
-8.101969e-06 -2.7126538e-07 -1.5658048e-07 -3.4025277e-07 -4.3774583e-07 -2.9826975e-07 -1.0201395e-06 -9.1183153e-07
-8.2180736e-07 -1.1498363e-06 -1.2262657e-06 -1.0434544e-06 -4.3078824e-05 -2.9937853e-05 -1.1752821e-05 -2.104559e-05
-2.0934507e-05 -2.8575114e-05 -9.289206e-06 -1.771735e-05 -1.4762232e-05 -2.7773185e-06 -2.3673304e-06 -1.914387e-06
-2.731442e-06 -2.3213875e-06 -1.941381e-06 -2.216341e-06 -1.8696991e-06 -1.6148476e-06 -8.842059e-06 4.2500465e-06
-7.628999e-06 8.642718e-06 4.5155857e-06 2.203075e-05 -3.205231e-07 -1.6603913e-06 8.1281786e-07 -5.013352e-07
-2.1062574e-07 -4.9535026e-07 -3.3438408e-07 -3.788173e-07 -6.6354204e-07 -7.560815e-07 -8.144641e-07 -1.041014e-06
7.963349e-06 3.3569652e-06 -2.6087253e-06 2.1366411e-06 2.4689596e-06 -1.7068453e-06 6.8526583e-06 4.7239346e-06
6.6512325e-06 4.8673354e-07 3.889084e-07 3.750941e-07 4.867337e-07 3.8890852e-07 3.7509398e-07 9.939952e-07
7.924392e-07 7.6797465e-07 2.479092e-06 -2.129096e-05 -3.399923e-06 -4.3731775e-06 -6.461122e-06 1.02337445e-07
1.6820202e-05 -6.5673507e-06 9.239082e-06 -8.6840987e-07 -3.4137918e-07 -3.2388795e-07 -1.1116956e-06 -6.261698e-07
-6.0764705e-07 -1.4102926e-06 -9.470396e-07 -9.117861e-07 -4.633648e-08 -6.0099e-06 2.7322181e-07 -4.4943135e-06
-1.4949466e-05 -1.2646642e-06 -7.3492033e-06 -3.749521e-06 -1.024717e-05 -1.9449378e-06 -2.8389973e-06 -1.9701688e-06
-2.7344727e-06 -3.3158624e-06 -2.6814394e-06 -2.5631869e-06 -3.1445759e-06 -2.6673058e-06 7.2722382e-06 2.9816695e-07
8.5841924e-07 1.1629315e-05 7.096169e-06 8.484647e-06 -9.99472e-06 8.8924367e-07 -2.8425328e-08 5.470016e-07
2.0545032e-07 -8.688094e-08 -3.4313314e-07 -8.153209e-07 -1.2045313e-06 -9.188521e-07 -1.4452648e-06 -1.99374e-06
4.8067648e-08 -6.807292e-07 2.008139e-07 4.928168e-06 7.498689e-08 -1.818369e-08 -2.326974e-06 5.5145233e-07
1.427826e-07 7.3358547e-07 7.3358535e-07 8.7455015e-07 7.7136616e-07 7.7136616e-07 8.975351e-07 6.1781265e-07
6.1781253e-07 8.9753513e-07 8.666623e-06 8.010191e-06 1.1281248e-06 -1.5482525e-06 2.550325e-05 1.2830858e-05
2.2523516e-05 1.4111383e-05 6.02056e-06 1.4457434e-06 1.7010855e-06 1.126148e-06 1.5177644e-06 1.2310999e-06
8.882399e-07 1.0784528e-06 7.9178847e-07 4.7913426e-07 -1.327005e-05 1.3281773e-06 -2.705019e-06 -3.6168628e-06
00000000: acf6 ca36 5600 43b7 fed1 8837 2cf7 9036
00000010: 7fa8 1937 ea31 14b7 7278 8c37 a717 3b36
00000020: 0cc6 8c35 2275 b335 2f92 0436 455d ea35
00000030: 65fd 9935 2ce5 e735 f248 cd35 9bbb b035
00000040: 6916 e735 990e 0736 ae3a 85b5 c36f 0cb7
00000050: fda0 7136 9a51 10b7 1b4e 19b7 7e4e 9d36
00000060: 2dac 94b7 15ca 9bb7 aad4 2ab5 75bf 29b6
00000070: 1505 26b6 0772 0fb6 96a5 5cb6 d83f 3db6
00000080: 8a25 25b6 e191 59b6 5b02 35b6 b8ec 1cb6
00000090: fdea 62b6 65bb 2b37 0b72 f835 d56e 1f37
000000a0: 0159 44b7 30bf 8cb5 cf9f 1eb5 3fa7 95b7
000000b0: 69e6 5035 d879 a035 9af8 9b35 3855 df35
000000c0: b5fd fc35 977b f235 cc9c 1136 1a13 f035
000000d0: 49a0 e235 e1ef 0e36 d0d4 e2b5 8403 8137
000000e0: 984a 4c37 61cd f636 0d98 6535 b4ae 8936
000000f0: ba3f 8e37 69f1 ab35 f558 5c37 bea6 77b5
00000100: b6af c134 6190 d534 df93 afb5 f685 1833
00000110: 0b27 17b2 43ef 81b5 7a78 c634 b7d3 3934
00000120: 41d8 a936 100c b237 0ff5 f336 834b fab5
00000130: eba7 aab7 b90f 9936 fb7a 00b6 1343 5eb5
00000140: a1f7 1fb7 2144 be35 4d49 0036 fe52 0236
00000150: bc5b a435 5c7d a935 3b44 c235 930d 9434
00000160: 8520 db34 387a 6235 073a 90b5 0caa 7e35
00000170: ab49 cdb5 ef89 96b7 e39a 3b34 f140 d2b5
00000180: b1ed 07b7 6ea2 91b4 8420 28b4 fcab b6b4
00000190: 5403 ebb4 e221 a0b4 baeb 88b5 96c4 74b5
000001a0: 2c9a 5cb5 1354 9ab5 2b96 a4b5 d20c 8cb5
000001b0: 89af 34b8 0d23 fbb7 fb2d 45b7 0f8b b0b7
000001c0: 839c afb7 97b4 efb7 d6d8 1bb7 b89f 94b7
000001d0: 4eab 77b7 f861 3ab6 6dde 1eb6 eb78 00b6
000001e0: d14d 37b6 22c9 1bb6 ac48 02b6 73bc 14b6
000001f0: 5ff2 fab5 bebd d8b5 5b58 14b7 9f9b 8e36
00000200: 9afc ffb6 3100 1137 9684 9736 adce b837
00000210: 5c14 acb4 9cda deb5 6b30 5a35 7e93 06b5
00000220: 5d28 62b4 36f8 04b5 6685 b3b4 4160 cbb4
00000230: 431e 32b5 86f5 4ab5 8ca1 5ab5 f8b8 8bb5
00000240: 539a 0537 3948 6136 8f11 2fb6 3763 0f36
00000250: 67b0 2536 c216 e5b5 e3ef e536 4a82 9e36
00000260: a72d df36 13a8 0235 2acb d034 8a60 c934
00000270: 16a8 0235 2ecb d034 8660 c934 6a69 8535
00000280: 02b8 5435 d126 4e35 7a5e 2636 fd99 b2b7
00000290: 3b2a 64b6 4fbd 92b6 9ecc d8b6 9bc4 db33
000002a0: 1c19 8d37 1d5d dcb6 8e01 1b37 ac1c 69b5
000002b0: cc46 b7b4 d2e2 adb4 9235 95b5 1016 28b5
000002c0: 301d 23b5 4949 bdb5 1138 7eb5 77c1 74b5
000002d0: 8003 47b3 a6a8 c9b6 52af 9234 dccd 96b6
000002e0: 78cf 7ab7 88bd a9b5 2d99 f6b6 48a0 7bb6
000002f0: 43eb 2bb7 c785 02b6 9a85 3eb6 3e37 04b6
00000300: e281 37b6 1586 5eb6 c7f2 33b6 3703 2cb6
00000310: 6707 53b6 f7ff 32b6 0d04 f436 c113 a034
00000320: 1f6e 6635 871b 4337 a11b ee36 4859 0e37
00000330: ffae 27b7 5cb4 6e35 f52b f4b2 aad5 1235
00000340: c199 5c34 4d93 bab3 dc37 b8b4 6ddc 5ab5
00000350: 61ab a1b5 09a7 76b5 ecfa c1b5 31cc 05b6
00000360: f072 4e33 5bbb 36b5 4e9f 5734 a45c a536
00000370: 7b08 a133 5b32 9cb2 1c29 1cb6 8407 1435
00000380: c84f 1934 9ceb 4435 9aeb 4435 a1c2 6a35
00000390: e10f 4f35 e10f 4f35 24ee 7035 c3d7 2535
000003a0: c1d7 2535 25ee 7035 dd66 1137 8263 0637
000003b0: 136a 9735 8dcd cfb5 d0ef d537 1e44 5737
000003c0: e2f0 bc37 eebf 6c37 3704 ca36 5d0b c235
000003d0: da50 e435 2726 9735 fdb5 cb35 453c a535
000003e0: 626f 6e35 5bbf 9035 4a8b 5435 db9d 0035
000003f0: 6ea2 5eb7 d343 b235 df87 35b6 3bb9 72b6

exp_avg_sq f4 [16, 2, 3, 3]
4.6421587e-09 7.7835836e-08 1.4842533e-07 8.08112e-08 3.3232783e-07 1.3190922e-07 1.8265656e-07 2.67432e-07
9.194638e-09 3.507791e-09 5.567328e-09 5.1283857e-09 4.010183e-09 6.3271064e-09 5.842221e-09 3.3308813e-09
5.3269966e-09 4.9129003e-09 1.1667585e-08 8.344018e-08 3.313448e-08 6.7674466e-07 1.9655324e-07 4.83016e-07
2.5673737e-07 1.4252882e-06 3.3609822e-08 1.105133e-08 1.1374666e-08 9.415847e-09 1.6764998e-08 1.6919339e-08
1.418062e-08 1.5254459e-08 1.5487354e-08 1.289516e-08 1.0120151e-07 2.1625414e-08 3.112403e-09 2.4093202e-07
8.2749864e-08 3.3328794e-07 1.223191e-07 5.510842e-07 2.1028579e-07 2.7157891e-09 2.9381364e-09 2.7546194e-09
3.6243524e-09 3.820367e-09 3.5726428e-09 3.0786693e-09 3.2568162e-09 3.0734135e-09 1.210302e-09 9.028452e-08
1.3636974e-07 4.484399e-09 7.571532e-09 2.7679588e-08 7.8346275e-08 9.8389545e-09 7.757133e-08 1.4628172e-09
1.6053269e-09 1.4792062e-09 1.4986626e-09 1.6112421e-09 1.4967828e-09 1.2186716e-09 1.0878233e-09 1.0032861e-09
1.21611965e-08 3.4297628e-08 4.1140593e-09 2.6000364e-09 5.5649924e-08 1.0106534e-08 5.501016e-10 7.9958457e-10
2.592838e-09 3.2865313e-10 4.5438867e-10 4.0968268e-10 3.6926723e-10 4.893284e-10 4.5729973e-10 4.078284e-10
5.540474e-10 5.6585037e-10 5.4491727e-09 1.420035e-10 2.7387131e-10 5.1198086e-08 7.874466e-11 6.5620237e-10
2.1122247e-08 7.912097e-09 3.4515356e-11 8.046043e-11 1.799687e-10 1.5367176e-10 6.708507e-11 1.312072e-10
1.05602964e-10 4.8144988e-11 9.905107e-11 9.268178e-11 1.264928e-07 4.3581853e-08 2.2522576e-08 3.066373e-07
6.131051e-08 7.137806e-08 2.3726574e-09 3.6903998e-08 1.0064367e-08 6.043091e-10 6.384423e-10 6.341883e-10
5.8143196e-10 6.230934e-10 6.1086186e-10 7.952252e-10 9.15897e-10 6.5734174e-10 6.7889815e-08 1.6935586e-09
2.897119e-08 2.7182466e-08 1.8534388e-08 3.092194e-08 1.6455996e-10 7.660609e-11 1.6035746e-09 4.1178663e-10
3.8265455e-10 4.4938003e-10 4.0296042e-10 3.6858547e-10 4.35822e-10 3.1321618e-10 2.9995303e-10 3.208383e-10
4.9174417e-08 2.3640258e-07 1.3111752e-07 2.0664959e-09 1.1900095e-09 8.8501935e-09 1.9174752e-08 5.0102074e-09
2.582745e-08 1.7529249e-09 2.1279118e-09 2.052385e-09 1.7529249e-09 2.1279118e-09 2.052385e-09 1.4804941e-09
1.8054425e-09 1.7360622e-09 1.4200242e-08 2.4351476e-07 5.874648e-09 4.3718465e-08 4.9337903e-08 5.8862257e-09
9.4818057e-07 2.0724544e-07 1.2304309e-06 8.116367e-09 8.386696e-09 6.761274e-09 8.315303e-09 8.525607e-09
6.8676225e-09 8.286945e-09 8.624885e-09 6.880748e-09 5.648969e-10 5.4903064e-09 9.2229535e-10 1.8951146e-08
3.9516098e-07 5.5500933e-09 1.11064665e-07 6.2550893e-09 8.846014e-09 1.3812801e-09 1.8529211e-09 1.0619587e-09
5.375593e-09 6.8428037e-09 3.89642e-09 5.2051066e-09 6.645203e-09 3.7603156e-09 1.1664304e-09 2.2199713e-10
2.8100184e-09 4.377414e-08 1.1510121e-08 3.450737e-08 6.494139e-09 5.592187e-10 7.3292394e-10 3.543331e-10
4.4202628e-10 4.5192242e-10 2.3986388e-10 2.0187213e-10 1.9129068e-10 2.1762273e-10 2.0039977e-10 2.0024345e-10
5.1221244e-10 1.3740604e-09 4.9766696e-10 1.9520696e-08 1.3642012e-11 3.2782565e-11 5.6164904e-09 1.0720605e-10
2.661565e-10 1.6316161e-10 1.6278963e-10 1.1929838e-10 1.608108e-10 1.6067622e-10 1.2307015e-10 1.4972683e-10
1.496039e-10 1.197054e-10 6.537646e-09 1.1726122e-09 9.361679e-10 1.8995616e-09 3.224836e-08 8.367578e-09
1.7812594e-08 2.3589347e-08 6.5798282e-09 2.1128253e-10 1.9362557e-10 1.450215e-10 2.7941557e-10 3.152145e-10
1.9785318e-10 2.1341891e-10 2.4788957e-10 1.5845565e-10 1.0768745e-08 3.7756918e-09 6.9794814e-10 1.860419e-09
00000000: dc80 9f31 b426 a733 d85e 1f34 6d8a ad33
00000010: ca6a b234 eea2 0d34 4120 4434 9393 8f34
00000020: 72f6 1d32 b60d 7131 bc4a bf31 c235 b031
00000030: f1c9 8931 d165 d931 b8bc c831 7ce5 6431
00000040: c208 b731 54ce a831 9572 4832 b92f b333
00000050: bf4f 0e33 8aa9 3535 250c 5334 9ba8 0135
00000060: b7d5 8934 884c bf35 645a 1033 43dc 3d32
00000070: 4f6a 4332 55c3 2132 9f02 9032 0556 9132
00000080: 079f 7332 e908 8332 0d09 8532 8389 5d32
00000090: 1e54 d933 cac2 b932 f9e1 5531 7259 8134
000000a0: 38b4 b133 bfee b234 d156 0334 38ee 1335
000000b0: ebca 6134 aba0 3a31 3ee8 4931 c74b 3d31
000000c0: 4810 7931 4e44 8331 9982 7531 8690 5331
000000d0: 84ce 5f31 1034 5331 b757 a630 71e2 c133
000000e0: 076d 1234 3115 9a31 f313 0232 0fc4 ed32
000000f0: 523f a833 2e08 2932 4a95 a633 4e0c c930
00000100: 6ba2 dc30 f14c cb30 81f9 cd30 8b72 dd30
00000110: 5db7 cd30 327e a730 6182 9530 fee3 8930
00000120: 82ed 5032 a44e 1333 a65b 8d31 53ac 3231
00000130: bd03 6f33 02a1 2d32 f535 1730 c3c9 5b30
00000140: b02d 3231 d1ad b42f 85cd f92f b639 e12f
00000150: be01 cb2f 6d81 0630 3767 fb2f bf34 e02f
00000160: 9f4b 1830 2e8a 1b30 6e3b bb31 6f22 1c2f
00000170: f68f 962f e4e4 5b33 4d29 ad2e 2360 3430
00000180: 5070 b532 c5ed 0732 d6cc 172e 32ef b02e
00000190: b0e0 452f c1f6 282f 8985 932e 8b43 102f
000001a0: 2f39 e82e 70be 532e ccd0 d92e 34cf cb2e
000001b0: 13d2 0734 c12e 3b33 ab77 c132 e99f a434
000001c0: cfa9 8333 8148 9933 3b0c 2331 6080 1e33
000001d0: 8ee7 2c32 791c 2630 627e 2f30 0953 2e30
000001e0: a3d2 1f30 4d46 2b30 95e9 2730 0097 5a30
000001f0: 86c2 7b30 50b0 3430 d2ca 9133 ccc2 e830
00000200: 52dc f832 e07e e932 8d35 9f32 08cf 0433
00000210: 83ef 342f 6575 a82e c464 dc30 d161 e22f
00000220: d75d d22f 9e0c f72f a387 dd2f cba1 ca2f
00000230: 7e98 ef2f 4231 ac2f a3e6 a42f fa61 b02f
00000240: d833 5333 d9d5 7d34 4fc9 0c34 2e02 0e31
00000250: bd8d a330 900b 1832 bab5 a432 4026 ac31
00000260: 2adb dd32 90eb f030 9f3a 1231 f009 0d31
00000270: 90eb f030 9f3a 1231 f009 0d31 417a cb30
00000280: 5c23 f830 429a ee30 53f5 7332 6abc 8234
00000290: f3d9 c931 f6c4 3b33 99e7 5333 ca3f ca31
000002a0: 7986 7e35 3187 5e34 4925 a535 2970 0b32
000002b0: 1415 1032 cc50 e831 17db 0e32 0478 1232
000002c0: 3ff8 eb31 5f5e 0e32 a52c 1432 b36b ec31
000002d0: 1647 1b30 3fa5 bc31 c484 7d30 03ca a232
000002e0: 8326 d434 23b3 be31 7282 ee33 59ec d631
000002f0: 2ef9 1732 79d7 bd30 dea9 fe30 5af4 9130
00000300: 37b4 b831 f01d eb31 46e1 8531 9ad8 b231
00000310: d353 e431 1634 8131 1f50 a030 a316 742f
00000320: 5e1a 4131 2d02 3c33 0cbe 4532 4135 1433
00000330: 0d23 df31 85b7 1930 f076 4930 f3cb c22f
00000340: ab01 f32f 6d72 f82f d7dd 832f f4f5 5d2f
00000350: 8a53 522f 5a47 6f2f 8557 5c2f 852b 5c2f
00000360: bfcb 0c30 74d9 bc30 33cc 0830 77ae a732
00000370: 29fe 6f2d e32d 102e 2cfb c031 a4bf eb2e
00000380: 3352 922f e965 332f 35fd 322f 822b 032f
00000390: 37d0 302f 56aa 302f 2b51 072f 5ba0 242f
000003a0: c17d 242f 139e 032f bea1 e031 a029 a130
000003b0: 7baa 8030 7189 0231 7281 0a33 ffc0 0f32
000003c0: 4f02 9932 86a1 ca32 c814 e231 bf4e 682f
000003d0: c1e4 542f ec73 1f2f 3f9c 992f 7f4a ad2f
000003e0: b88a 592f 15a8 6a2f 5b47 882f 4d39 2e2f
000003f0: 7101 3932 56bb 8131 bcd9 3f30 adb1 ff30

exp_avg f4 [16]
8.867901e-06 -4.6759727e-08 1.0276054e-06 6.976835e-06 4.3774205e-07 -6.7828805e-06 -8.527988e-06 1.7646937e-07
6.0115426e-06 9.486023e-07 -2.7706553e-06 7.942722e-07 8.152023e-07 4.713821e-06 -2.6307869e-06 1.049272e-06
00000000: 58c7 1437 ddd4 48b3 41ec 8935 8e1a ea36
00000010: cf02 eb34 8098 e3b6 6e13 0fb7 887b 3d34
00000020: c2b6 c936 74a3 7e35 7fef 39b6 f835 5535
00000030: 47d4 5a35 6a2b 9e36 938c 30b6 b6d4 8c35

exp_avg_sq f4 [16]
2.2646086e-08 5.5548128e-08 1.32504825e-08 5.6230967e-09 1.7841099e-09 3.4928962e-09 2.496218e-09 1.4358134e-09
1.6911727e-08 4.333936e-08 1.6435369e-08 7.142756e-10 3.083436e-10 1.5562877e-09 3.6835082e-10 5.178401e-09
00000000: 4587 c232 d093 6e33 3da4 6332 4835 c131
00000010: c934 f530 ae07 7031 ee89 2b31 3156 c530
00000020: 4845 9132 2124 3a33 c22d 8d32 ad56 4430
00000030: 8183 a92f 01e5 d530 c580 ca2f b2ed b131
