output/red/images/epoch_91.pt (torch, 369546 bytes, 27 tensors)

conv.0.weight f4 [16, 2, 3, 3]
000000 5b b3 23 be 48 7c d0 3d dc 7b 24 3e 6a 3b 24 3d
       -0.15986387 0.10179955 0.16062874 0.040095724
000010 42 9d 20 3e da 20 59 3d da 27 ea 3d 8d 5c ec 3d
       0.15684989 0.053009845 0.11433382 0.1154109
000020 39 e1 04 be f4 21 f1 bd 45 49 b5 bd cd 56 2c 3e
       -0.1297654 -0.11774054 -0.08851866 0.16829987
000030 f2 10 2f be 93 0a 54 bd 00 13 1a 3e 91 83 77 be
       -0.17096308 -0.051767897 0.1504631 -0.24171282
000040 75 53 2a 3e 60 41 4c 3e 34 02 25 be cc 8a 33 3c
       0.16633399 0.19946814 -0.16114122 0.010958385
000050 d7 5a 95 bd 44 85 d2 3d 4e 2f 19 bd 48 e3 cc 3d
       -0.07292717 0.10279325 -0.03739863 0.10004288
000060 fb 76 aa bc 77 b9 43 3e db 69 42 be bc 28 0c 3e
       -0.020808687 0.19113718 -0.18985693 0.13687414
000070 26 d1 3c 3d 61 4a 2b be e5 9b c7 3d 5f ed e2 bc
       0.046097897 -0.16727592 0.097465314 -0.027701078
000080 6b 65 0a 3e 79 15 13 be 24 d3 3e 3e ba a5 ef 3d
       0.1351525 -0.1436366 0.18635231 0.11701532
000090 70 af d2 3d 6d 99 e5 bb 5c bd 22 be d7 29 84 3d
       0.10287368 -0.007006815 -0.15892547 0.06453293
0000a0 43 67 51 bd 1a 6a 11 3e 2f eb 50 bd bc 4a 16 3e
       -0.05112387 0.14200631 -0.05100554 0.14676946
0000b0 62 4b 28 3d f1 2b 48 3e 62 6b 25 3e 6d d6 5d be
       0.041087516 0.19548012 0.16154245 -0.21663828
0000c0 36 2b 0d 3e 35 c0 56 3e 73 31 33 be c7 47 0d be
       0.13786015 0.20971759 -0.17499332 -0.13796912
0000d0 8a 0e 66 3d 62 35 bd 3a b3 9a 8e be 72 dd 02 3e
       0.05616621 0.0014435465 -0.278524 0.12779787
0000e0 b3 5e 20 3e 8b 44 c4 bd 70 66 22 be 01 f0 2a bd
       0.15661125 -0.09583386 -0.1585939 -0.04173279
0000f0 77 00 9f 3d a1 0e 87 bd ff 33 ae 3d fc d9 f9 bd
       0.077637605 -0.06594587 0.08506011 -0.1219978
000100 6c 6a d3 3c e9 12 01 bd 66 74 de 3d ef 3a 42 bd
       0.025807582 -0.031512175 0.10862045 -0.047419485
000110 9d ec 14 bd 86 3d 58 be 69 6f aa 3d 08 49 42 bd
       -0.036358465 -0.2111722 0.08322031 -0.04743293
000120 22 99 ac 3d 39 60 eb 3d e0 b1 5b be 39 16 6a be
       0.08427645 0.114929624 -0.21454573 -0.2286004
000130 9f d0 16 3e ac 36 9e bd 15 ac 4b be 3d ff 5e be
       0.1472802 -0.077252716 -0.19889863 -0.21777053
000140 82 b9 a7 bd 2f f2 dd 3d 35 48 04 3e a6 ef 93 be
       -0.0818968 0.108372085 0.1291817 -0.28893775
000150 12 ff 93 be 5e a0 9f 3d b4 7e 64 bd 08 18 8e 3d
       -0.2890554 0.077942595 -0.055784896 0.06938177
000160 2f a9 05 3e 01 67 e8 3d d7 03 bc ba 9b 8b 39 be
       0.1305282 0.113477714 -0.0014344406 -0.18119662
000170 b7 23 0c be 86 6a ca 3d a7 47 22 be 5e dd 0c be
       -0.13685499 0.09883599 -0.15847646 -0.1375632
000180 b3 1b ca 3c 6b 17 58 bd 7b a1 1f be d0 2a 1f be
       0.024671411 -0.052756708 -0.15588944 -0.15543675
000190 2c a1 6c 3e 35 d1 16 be fe 35 02 be 83 d2 a8 bd
       0.23108357 -0.14728244 -0.12715909 -0.08243277
0001a0 2f a8 26 be cd 98 5c be 99 a6 c6 3d 38 d6 e5 3c
       -0.16275094 -0.21542664 0.09699745 0.028056249
0001b0 99 f0 3b 3e f1 7e f3 3d c3 4b 85 3d 16 db 1b 3e
       0.183535 0.118894465 0.06508591 0.15220293
0001c0 28 00 ba bc 5d 46 0e 3d 04 44 49 be 38 56 df 3d
       -0.022705153 0.034735072 -0.19654852 0.10905117
0001d0 e3 23 d9 bc 67 01 05 be 42 2d 26 3e f4 25 c2 3b
       -0.02650637 -0.12988816 0.16228202 0.0059249345
0001e0 b9 cd c5 3c 7f 0d 33 3d ff 70 e8 3c 61 8f 5a bd
       0.024145948 0.043714043 0.028374193 -0.053359393
0001f0 e4 c8 4b be 31 5d 4f be d0 da 1e 3e 51 9f 86 be
       -0.19900852 -0.20250393 0.15513158 -0.26293424
000200 ed 17 3f 3d dd 8e f7 3c f9 db 68 bd 12 77 60 3d
       0.046653677 0.03021949 -0.056850407 0.054801054
000210 72 a5 56 be 4c 98 4e be a2 fe 32 bd 20 3d 1e bc
       -0.2096155 -0.20175284 -0.043699868 -0.009658128
000220 df c7 27 3d 70 7a 40 be 70 bc 48 3e c9 5c 2f be
       0.040962096 -0.18796706 0.19603133 -0.17125238
000230 07 2b ef 3d 9b a8 5e be 0d a6 09 be ae 98 3c 3e
       0.11678129 -0.21744005 -0.1344225 0.18417618
000240 79 42 75 3d ad 06 3f 3e ad 47 2d 3e ff a4 27 be
       0.059877846 0.1865489 0.16921873 -0.16371535
000250 2e f5 88 be fd 69 de bd a3 7b 96 bd ec f4 07 be
       -0.26749557 -0.108600594 -0.073478006 -0.13277024
000260 ac ce 3a bc bf 59 3f be bf 89 a1 bd bb c5 3d 3e
       -0.0114018135 -0.18686579 -0.07887601 0.1853246
000270 86 dd 1e be a2 3e 13 be 03 e7 f6 3d b0 97 3d be
       -0.15514192 -0.14379361 0.12055781 -0.18514895
000280 3e 91 dd bc 58 46 2d be bf d6 0d be c5 06 11 3e
       -0.027046796 -0.16921365 -0.1385145 0.14162739
000290 d4 1a 29 be ce af fb bd 52 81 5a bd 36 f0 6e be
       -0.1651414 -0.122893915 -0.053345986 -0.2333382
0002a0 6d a7 61 3d 96 2c b6 bd c3 64 4c 3e 2b 05 0e be
       0.05509131 -0.08895223 0.19960313 -0.13869159
0002b0 17 63 a7 bd f2 90 f2 3d 0b 04 3a 3e c5 dc 44 be
       -0.08173197 0.118440524 0.18165605 -0.19224842
0002c0 85 25 35 be fc 7f 26 be 98 c9 ae bd 9c e7 aa bb
       -0.17690094 -0.1625976 -0.08534545 -0.0052155983
0002d0 09 b5 31 be 30 80 85 bd d6 c5 50 be 65 bd fc bd
       -0.17354216 -0.065185905 -0.20387968 -0.12340812
0002e0 7f 84 3e 3e 33 e7 53 be 4f 5b 7f 3d e6 39 09 be
       0.18605231 -0.20693664 0.062342938 -0.13400993
0002f0 2a 1a ac bc d6 40 26 be dd d7 40 3d 58 49 a2 bd
       -0.02100857 -0.1623567 0.047080863 -0.079241455
000300 73 24 79 be d2 f2 33 3e e7 1d 7d 3c 62 fa b0 3d
       -0.2433031 0.17573097 0.015449024 0.08641507
000310 35 02 3a 3e ed 41 22 3e d2 2c 19 be 3c 67 90 be
       0.18164904 0.15845461 -0.14958504 -0.28203762
000320 dc 46 d2 bc 5d ce 09 3e bc a6 92 bc 89 94 8a 3d
       -0.025668554 0.13457628 -0.01790177 0.06766612
000330 7a b0 38 3c 22 5e 7e be 15 d5 18 be 10 be e6 bc
       0.011272544 -0.24840596 -0.14925034 -0.0281668
000340 c5 67 9a 3d 72 db fe bd 3a 14 1e be f4 08 53 bc
       0.07539324 -0.124441996 -0.15437403 -0.012880553
000350 85 ff c4 bd 17 af 59 3d 7e 29 43 bd 4f 0d ea 3d
       -0.09619049 0.053145494 -0.047646992 0.1142832
000360 02 6d 2c bd 96 6a 89 bc 18 79 43 bd 83 a9 be 3c
       -0.042096145 -0.016774457 -0.047722906 0.023274189
000370 9f ef 25 be 49 ce fd bd 07 86 fc bc eb 3b d5 bd
       -0.1620469 -0.123928614 -0.030825628 -0.10411819
000380 4a 0c 92 bd 68 d7 45 3e 6d fe 06 3d b8 07 38 be
       -0.0713125 0.19320452 0.032957483 -0.17971694
000390 93 c8 b3 bd f8 55 c9 bc 14 4b 24 be 55 0a a8 3d
       -0.08778491 -0.024577126 -0.16044265 0.08205096
0003a0 70 c2 c4 3d 2f e4 3b 3e c9 35 69 3d 14 52 2a be
       0.096073985 0.18348764 0.05693606 -0.16632873
0003b0 3c 15 25 be c2 08 fb bd 2c b2 23 3e 89 18 10 bd
       -0.16121382 -0.1225753 0.15985936 -0.03517965
0003c0 74 ac 2f 3d 9b 16 cc 3d d8 c8 31 be ae 57 8a bd
       0.042889073 0.09965249 -0.17361772 -0.06755005
0003d0 78 60 6a be 8a fb 7c be 23 d5 33 3d a5 31 cd 3d
       -0.22888362 -0.2470533 0.043904435 0.100192346
0003e0 d6 c9 b7 3d 11 f3 ea bd e4 94 48 be 04 c4 2d 3e
       0.08974044 -0.114721425 -0.19588047 0.16969305
0003f0 1b 3e 3b 3e 4a 79 0b 3d 3b 5e 2f be 32 6d db bd
       0.1828541 0.034051217 -0.1712579 -0.10714187

conv.0.bias f4 [16]
000000 49 35 83 3d 16 98 55 bd fa 75 27 be 08 86 3e 3d
       0.06406648 -0.052146994 -0.16353598 0.04651454
000010 5a 20 02 be a4 0a 5c 3e ce 85 26 be c3 35 0c be
       -0.12707654 0.21488434 -0.1626198 -0.13692383
000020 1b 91 6f 3c 56 6d 36 3e c5 ff 7e be 28 4a 88 bd
       0.014621998 0.17815146 -0.24902256 -0.06654769
000030 eb 09 5f be 8c e6 6e be 35 ef 1c bd 8d 2c 7b be
       -0.21781127 -0.23330134 -0.038314063 -0.24528714

conv.3.weight f4 [32, 16, 3, 3]
000000 a3 45 8e bc 95 2c 8d 3c e5 8d 06 3b 08 ab 8a bd
       -0.01736719 0.017233172 0.0020531353 -0.06770903
000010 41 d9 67 bc c6 17 98 bd ef c3 8d 3d 80 68 a2 3c
       -0.014150918 -0.074264094 0.06922137 0.01982522
000020 03 f7 b2 bc be 20 e2 bc c4 e5 ad bd 47 0e 5c 3b
       -0.0218463 -0.027603503 -0.0849109 0.0033577846
000030 22 82 8e 3d 07 fc 56 3d 86 f0 94 3a ef d2 65 bd
       0.069584146 0.052486446 0.0011363185 -0.056109365
000040 1c 34 79 3d 08 9e 7c bd e7 02 1f bd b2 19 54 3c
       0.06084071 -0.061674148 -0.038821127 0.012945579
000050 28 a9 13 3d 7d e1 67 3d e2 72 d5 bc f3 25 fe 3c
       0.03604999 0.056611527 -0.026055757 0.031023955
000060 1b 62 98 bd a2 5d 64 3d a4 56 72 bd ad 62 df 3c
       -0.07440587 0.055753358 -0.05916466 0.027268732
000070 13 c8 5d 3d 3d a6 99 bc 8f 8e 48 bd f1 bf 66 bd
       0.054145884 -0.018756026 -0.04896408 -0.056335393
000080 eb 6d b7 bc 1a 56 01 bd 95 5f 88 bc fb fe 0a 3d
       -0.02239128 -0.031576253 -0.01664714 0.033934575
000090 54 dd 9b bd 93 2d 60 bd 64 86 65 3d dc 8a c8 bc
       -0.07610574 -0.054730963 0.056036368 -0.024480276
0000a0 17 e1 fb bc 5a 84 7c bd a1 e9 7d bd 34 18 19 3d
       -0.03074698 -0.061649658 -0.061990384 0.037376598
0000b0 05 47 35 3d 5d 4c b8 3c f7 8d 91 3c b9 a2 a9 bd
       0.044257183 0.02249735 0.01776789 -0.0828299
0000c0 dc 32 b1 ba 9b d9 c8 3b 38 1d 47 3d 67 33 b8 bc
       -0.0013519186 0.006129456 0.04861185 -0.022485448
0000d0 62 cc dd 3b c8 ed 36 3d 63 7f 6f bc 4f 33 de bc
       0.006768749 0.04466036 -0.014617774 -0.027124075
0000e0 54 64 a7 bd 7c 57 7f 3d f0 f1 8a bd 05 e2 0f 3d
       -0.08173433 0.06233929 -0.06784427 0.03512766
0000f0 6a e1 81 bc 93 28 a3 bd f1 8a 96 bc fa 1a 8c bd
       -0.015854556 -0.07966723 -0.0183768 -0.06841083
000100 fd e5 8e bd 40 08 da 3a c0 af 9c bd 05 6d be 3c
       -0.069774605 0.0016634539 -0.07650709 0.023245344
000110 7f 3b cf bd cc b4 4e bd 50 03 14 bd ac 5f 33 bd
       -0.1011877 -0.05046539 -0.03613597 -0.04379241
000120 07 05 99 bd 06 2c d7 bd c6 d8 38 3d 98 78 93 bd
       -0.07471662 -0.10506444 0.045128606 -0.07200736
000130 75 e8 bf 3b c2 4b 6e bb 84 81 a0 bd 8d f3 f1 bc
       0.0058565685 -0.0036361073 -0.07837203 -0.02953508
000140 1d c2 49 bd db d7 63 3d 17 84 be bd f2 60 81 bd
       -0.049257386 0.055625778 -0.09302538 -0.06317319
000150 61 32 c1 bd 05 53 b0 bd 50 58 89 3d da ef a1 3c
       -0.09433437 -0.08609585 0.067062974 0.01976769
000160 36 a0 18 bd c1 63 35 3d 53 c9 5b 3d 42 bb bb bc
       -0.037262164 0.044284586 0.053658795 -0.02291644
000170 19 fd 09 bc 46 7b af bc 57 b7 51 bd 14 77 4a 3d
       -0.00842216 -0.021421086 -0.051200237 0.049429968
000180 6e a6 16 bd 86 88 19 3c ae 2a 5a bd 84 ca 30 3d
       -0.036779813 0.009370929 -0.05326336 0.043161884
000190 3d 68 3c 3d b7 18 25 bd a9 f0 91 bc 48 77 8d bc
       0.045997847 -0.040306773 -0.017814951 -0.017268792
0001a0 ca 72 ae bd b2 46 26 bb 91 24 d4 3c 4c 58 b7 3d
       -0.08517988 -0.0025371728 0.025896342 0.08952388
0001b0 73 f8 87 bc 3e f3 32 3d 50 ed 40 3d ec 0e 46 3d
       -0.016597962 0.043689005 0.04710132 0.048354074
0001c0 f2 0c df bc 21 ce 08 3d b5 a7 ea bc a3 5e c2 bc
       -0.027227852 0.033399705 -0.028644422 -0.023726767
0001d0 fc a1 2b 3d 39 52 a7 bd eb 63 9c bd 63 b8 70 bd
       0.041902527 -0.081699796 -0.07636245 -0.058769595
0001e0 ce 4c bf bc 9b f5 45 bd 03 7d 38 bd 89 6a 59 bd
       -0.023352053 -0.04832993 -0.045041095 -0.053080115
0001f0 dd 26 8b 3d f9 24 57 3d 97 83 0e bd 18 36 bc 3c
       0.06794522 0.052525494 -0.034793463 0.022975013
000200 a2 e5 de bc af 04 78 bd fa d3 43 bc 34 1c 9f 3d
       -0.027209107 -0.06055134 -0.011952395 0.07769051
000210 fa cb 12 3d 3d bc 6d bd 8f 8c 22 bd ba 26 96 bc
       0.03583906 -0.058040846 -0.03968483 -0.018329013
000220 08 f8 1c 3c ba 52 87 bc 45 23 8f bb 37 72 99 3c
       0.00958062 -0.01651894 -0.004368218 0.01873122
000230 d3 c9 b0 bd 5a 6d f4 3b c7 47 11 bc 69 59 0f bc
       -0.08632245 0.007459325 -0.008867211 -0.008749344
000240 04 8d 88 3d 36 9f f1 3b d5 50 45 bd 9a ff 37 3d
       0.066675216 0.0073737158 -0.04817279 0.044921495
000250 63 11 6b bd ed 2d 8a 3d ac 40 59 bd 6b 8e 89 bc
       -0.05738963 0.06747041 -0.05304019 -0.016791543
000260 79 c0 24 3d 38 65 c2 bd 6f 72 89 3d d9 e2 3f bd
       0.04022262 -0.09491962 0.067112796 -0.0468472
000270 be 5d 05 bc 39 f6 60 3b 28 3b ac bc 4e 0a 46 3d
       -0.008140026 0.0034326448 -0.021024302 0.04834967
000280 60 b1 9c bd 8c 78 95 3d 37 3e 5e bd 0c 54 6a 3d
       -0.07651019 0.07298383 -0.05425855 0.05720906
000290 f0 5f 34 bd 30 cb 5d 3d b3 c2 bc bb 92 1e 29 bc
       -0.044036806 0.054148853 -0.0057605146 -0.01032223
0002a0 0e 8f d5 bb 4b 1b 3d bd fe ed 04 bd 63 fd f0 3c
       -0.0065172976 -0.046168607 -0.03245353 0.0294177
0002b0 77 13 55 3d 1c 9f 0e bc ab a7 2c bd 0a 1b 30 bd
       0.052020516 -0.008704927 -0.042152088 -0.042994536
0002c0 9f d1 60 bb ca 8c b1 bd c3 05 47 3d e6 a7 da bc
       -0.0034304631 -0.086694315 0.04858948 -0.026691388
0002d0 90 bf 54 bd 4f a8 a1 3d 68 a2 a4 bd ad f7 6e bd
       -0.0519405 0.078934304 -0.08038789 -0.05834167
0002e0 b9 dd a7 bd 3d 02 73 bd e1 2a a0 3b 39 28 28 3d
       -0.08196587 -0.059328306 0.004887924 0.041053984
0002f0 8a 0c 1a 3c b0 93 8d bc 4f 2a 64 bd 0c d1 fd 3c
       0.009402404 -0.017282337 -0.05570441 0.03098347
000300 6b 2b c2 bc 7a 24 dc 3b e6 59 69 3d ad d6 c4 bc
       -0.023702344 0.0067182155 0.0569705 -0.024028147
000310 2f 39 42 3c 2d 9d ae bd 05 7e a6 bd cc 72 57 bd
       0.011854454 -0.08526073 -0.08129505 -0.052599713
000320 d7 8b 85 bd d0 e7 80 bc 33 01 2c bd 37 28 9d 3d
       -0.06520813 -0.015735537 -0.04199333 0.07673686
000330 9a 6b c7 3c c8 be 97 bd 60 dd 3b bb 87 9d a8 3d
       0.0243433 -0.074094355 -0.0028665885 0.08233171
000340 3f d7 2b 3d d0 2f e8 3b ab 8c 14 3d 56 47 64 3d
       0.04195332 0.007085778 0.036266964 0.055732094
000350 da f6 c3 bd ff 5e c6 3c 83 f5 81 bd 78 cb ed bc
       -0.095685676 0.02421522 -0.06345656 -0.029027686
000360 a2 fe da 3c 95 a7 73 bb 65 f1 5b 3d 8b 37 6f bc
       0.026732747 -0.0037178744 0.05369701 -0.014600645
000370 93 77 86 3c 11 d2 40 bd b2 b2 16 bd 9c 4b 87 bc
       0.01641444 -0.047075335 -0.03679151 -0.016515546
000380 ad 4a 08 3d a2 7b 3c 3c fd a1 93 bd b1 f4 5c 3d
       0.03327434 0.011504086 -0.07208631 0.053944293
000390 88 d1 84 3c 96 31 e8 3c d7 c7 ca 3b 30 01 42 3d
       0.016213194 0.028343957 0.0061883735 0.047364414
0003a0 f0 39 8c 3d 8d d8 91 bd ee 2d 47 3d b9 fd 47 3d
       0.06846988 -0.07121382 0.048627786 0.048825953
0003b0 0c 92 47 3d 32 c0 69 3d 5c c6 91 bd 7d d5 1f bd
       0.048723266 0.057068057 -0.07117912 -0.039021958
0003c0 19 7d 9c bc 08 2d 55 3c 60 0c 53 bd e6 61 ff bc
       -0.01910262 0.013011225 -0.051525474 -0.031174611
0003d0 5a 38 c9 3c e3 fe 82 3d fa 6c 28 bd f5 64 a6 bd
       0.024563003 0.06396272 -0.041119553 -0.08124725
0003e0 2a 25 64 3d 76 91 29 3d 11 68 6d bd c3 8d e6 bc
       0.055699505 0.041398488 -0.057960574 -0.02814377
0003f0 6b ef 32 3d 89 a0 c9 bd 7a c1 a4 bd 80 17 d2 3b
       0.043685358 -0.09845073 -0.08044715 0.006411493

conv.3.bias f4 [32]
000000 cd 83 70 3d fd aa 50 bd 32 00 29 3d 42 de 9a bd
       0.058719445 -0.050944317 0.041259952 -0.075619236
000010 fd 60 8e bd c1 7f 22 3d 04 13 d7 bd 7c 5f c5 3b
       -0.06952093 0.039672617 -0.10501674 0.0060233455
000020 97 06 36 bd cf 5d 9c 3d ca 0c 27 3d 1d 76 36 bc
       -0.04443988 0.0763508 0.04078368 -0.011136559
000030 20 51 a7 bd fb c2 ca bc f6 00 89 3d f6 46 e4 3c
       -0.0816977 -0.024751177 0.066896364 0.027865868
000040 0f f7 d5 bd 31 35 88 bb 8e 01 3a 3c e0 33 a7 bd
       -0.10447513 -0.0041567315 0.01135291 -0.08164191
000050 7e a7 91 bd 58 d7 e9 bd 83 99 4d 3d 85 db 22 bd
       -0.07112025 -0.11418027 0.05019523 -0.03976013
000060 cb 79 da bd 19 22 02 bd 75 d4 69 3d 6f 27 53 bd
       -0.106677614 -0.0317708 0.05708738 -0.05155128
000070 48 1f 9d 3c ea 2f e8 3c ab 5e 9d bc ec ca 03 bd
       0.019179955 0.02834316 -0.01921018 -0.032175943

fc.0.weight f4 [128, 128]
000000 12 95 69 3d 0d 3b 5c bc 64 ac a3 bc dc 16 ae 3c
       0.05702693 -0.013441813 -0.019979663 0.021251135
000010 57 4d 94 bd 08 2c c4 bd 08 88 dc bd 44 6e 79 bd
       -0.07241314 -0.09578711 -0.107681334 -0.060896173
000020 e0 2c 07 3d 80 3e 84 bb b5 f2 16 3d e5 4a a6 bd
       0.03300178 -0.004035771 0.036852557 -0.08119754
000030 f4 98 5b bd c3 5c 9f 3d 40 df 9a bd d7 3a 85 3d
       -0.053612664 0.07781365 -0.07562113 0.065053634
000040 00 0b 82 39 fe 11 e2 bc 7a 9e 3a bd 52 0f a7 bd
       0.00024803728 -0.02759647 -0.04556129 -0.08157219
000050 b6 ef 19 bd 39 ce 73 bc 8d 41 81 3c ce fa 85 bc
       -0.03758212 -0.01488071 0.015778327 -0.016354945
000060 bc b8 12 3d 8e 56 06 3d cc 3d fd 3c 86 bf 54 3d
       0.035820708 0.03279739 0.030913256 0.051940463
000070 2f ed d0 bd f5 a6 86 bd 1b 68 96 bd 88 ea 9d bd
       -0.10201489 -0.06574813 -0.07344075 -0.07710749
000080 a3 a5 03 bd ce ea 3d bd ff f9 83 3d a0 3c cf bb
       -0.032140385 -0.046366505 0.06444167 -0.0063243657
000090 46 8d 66 3d 02 8f 21 3d 00 1b 37 ba 0d df b4 3d
       0.056287073 0.039443024 -0.00069849193 0.08831606
0000a0 b8 2f a5 bb f6 58 53 bd f8 3e b8 bc c5 4a 39 bd
       -0.005041089 -0.05159851 -0.022490963 -0.04523732
0000b0 f8 75 c7 bd 66 34 bc 3c 3d cf 58 bc 56 07 e7 bc
       -0.09739298 0.022974204 -0.013233003 -0.02820174
0000c0 e0 44 7d 3b 94 23 15 3d 24 85 b3 bd 94 00 97 3c
       0.003864579 0.036410883 -0.08765629 0.018432893
0000d0 38 f3 91 bd 20 b5 74 3b 6c e7 df 3c 9e 81 62 bd
       -0.071264684 0.0037339404 0.02733203 -0.055299394
0000e0 2c b5 6b 3c 95 fc 6e bd 5d bb 52 bd c5 af 80 bd
       0.014386456 -0.05834635 -0.051448215 -0.062835254
0000f0 53 d2 c7 bd 1c a0 39 bd 1f 4c 7f bd 05 eb 81 3d
       -0.09756913 -0.045318708 -0.062328454 0.063436545
000100 d5 dd a2 bd 8f f5 3e 3d 98 c9 09 3d c5 02 51 bd
       -0.07952467 0.0466209 0.03363952 -0.05102803
000110 88 eb 2a bd 5d cd 92 3c ea 41 56 3d 02 c7 b2 3c
       -0.041728526 0.01792019 0.052308954 0.02182341
000120 1d 8a b5 ba 50 92 3f 3d d6 72 18 bd 76 8c 11 bd
       -0.0013850365 0.046770394 -0.03721889 -0.035534345
000130 4c a5 fb 3c d9 72 b4 bd 4f d2 07 bd a9 d3 7c bd
       0.030718468 -0.08810968 -0.03315955 -0.061725292
000140 b0 5b 91 3b bc ea 20 3d 94 6f 07 bd bf 79 d2 bc
       0.004435979 0.03928636 -0.033065394 -0.025692819
000150 92 74 07 3d c8 f4 cd bc 00 40 72 bd 40 c4 d1 bc
       0.033070154 -0.025141135 -0.059143066 -0.025606275
000160 4c 8a 95 bd ac 54 8e bd 8a ee 2c bc 4f 19 c7 bd
       -0.07301769 -0.06949744 -0.010554919 -0.09721624
000170 29 f2 6c bd 60 02 20 bd 1b 3c 84 3d 9b 9b 46 bd
       -0.05784813 -0.039064765 0.06456777 -0.04848824
000180 f6 bb 8d bd c4 31 6d bd bd 73 98 3d 53 9e 9f 3d
       -0.06920616 -0.05790879 0.0744395 0.0779387
000190 40 6a c2 bd 9c 46 96 bd 0c 11 ac bd e9 05 34 3c
       -0.09492922 -0.073376864 -0.08401689 0.010987737
0001a0 91 92 88 bd dc c8 5d bc c2 a6 17 bc d5 69 a8 bd
       -0.0666858 -0.013536658 -0.009256067 -0.08223311
0001b0 5b 34 86 3d 94 07 8f bd e0 82 1b bd 2a 82 5f bd
       0.06552955 -0.06983867 -0.03796661 -0.054567493
0001c0 37 df a4 bb eb 8c 14 3d 09 60 97 3d 64 f9 28 bc
       -0.005031492 0.036267202 0.07391364 -0.010313366
0001d0 95 05 d5 bd 4c 32 95 bd c4 41 75 3a cc 4d c6 bb
       -0.10401455 -0.07284984 0.0009355808 -0.0060517546
0001e0 4b 11 89 3d 7f ac 9f 3d 64 84 81 bd 9c 6d bd bc
       0.066927515 0.07796573 -0.0632408 -0.023123555
0001f0 48 26 b2 bc 25 27 c7 bd 17 78 9d bd 87 ee 5b 3d
       -0.02174677 -0.09724263 -0.07688921 0.053694274
000200 a3 15 9a bd 10 c6 f9 3b 8d 3e a0 bd c0 bd 9c 3b
       -0.07523658 0.007622488 -0.078244306 0.004783362
000210 d2 70 a7 3d 80 81 44 3d c3 4c 2f bd 3d 0a 8d bd
       0.08175816 0.047975063 -0.042797815 -0.068867184
000220 11 ac 8e 3d 1c 7b a8 bd 77 09 83 bd 51 8a 80 3d
       0.06966413 -0.08226606 -0.0639829 0.06276382
000230 07 fd 9b bd e4 b5 86 bc db 2d 8d bd ba 6e e4 bc
       -0.076166205 -0.016444154 -0.06893512 -0.02788483
000240 d6 7d a8 3d 66 65 75 3d f6 3c 86 b9 2a a0 b3 bd
       0.08227126 0.059911154 -0.0002560389 -0.08770783
000250 54 aa 18 bd 28 ef 99 bd 41 30 a8 bd 08 58 47 bd
       -0.037271813 -0.075163186 -0.08212329 -0.048667938
000260 bf fb 1f bd e1 a5 36 bd d0 77 22 3c c4 af 9b bd
       -0.039058443 -0.04459179 0.009916261 -0.07601884
000270 c8 72 b4 bd f8 29 69 bc c9 cb 99 3d f9 fb 77 3d
       -0.08810955 -0.014231198 0.07509572 0.060543034
000280 4a 0f 07 3d de f9 3e 3d 26 7d 74 3d 5e ef 0d bd
       0.032973565 0.04662501 0.059689663 -0.034652106
000290 1e 18 7d bd 9e 2a 06 bd 95 f6 1e bd 43 d5 8f 3d
       -0.061790578 -0.032755487 -0.038809378 0.07023098
0002a0 86 c3 a1 3d ba 52 98 bd 0c 1b f7 bb 6d 40 de 3b
       0.07898621 -0.07437654 -0.007541066 0.0067825825
0002b0 9d 24 36 bd b9 bb 9b 3d c4 aa 31 3d 70 49 99 3b
       -0.04446851 0.07604165 0.043375745 0.004677944
0002c0 a2 b5 0c bd 13 d7 ab bd 5e fe bb 3c 92 af 99 bd
       -0.034352906 -0.083906315 0.02294844 -0.075041905
0002d0 0a 9c fa bc 98 38 b6 bb db 82 aa 3c 80 e2 9c ba
       -0.030591983 -0.0055609457 0.02081435 -0.0011969358
0002e0 4d ed a7 bd 9c bc 84 bd 59 47 52 bd de da 81 3d
       -0.081995584 -0.06481287 -0.051337574 0.06340574
0002f0 78 0c 80 3b f4 80 bb bc f8 99 bf 3c 66 33 34 3d
       0.0039077364 -0.022888638 0.023388848 0.04399433
000300 7a fd 17 3d 61 ed c0 3a bf de 89 3d 00 f8 10 3a
       0.03710697 0.0014719182 0.067319386 0.0005530119
000310 52 cc 8a 3d 11 48 94 bd 80 96 16 3c 1f 3c 32 bd
       0.06777252 -0.07240308 0.009191155 -0.043514367
000320 16 2f e9 bd fd 60 48 bd 0f 66 a6 bd a8 1e 92 3d
       -0.11385934 -0.04892062 -0.08124935 0.071347535
000330 84 da aa bc c8 f1 48 3d 0d 28 46 3d 60 21 42 bd
       -0.02085615 0.049058706 0.04837804 -0.04739511
000340 99 20 5a bd a7 b9 45 bd 9e e3 5f 3d fd 80 b1 3d
       -0.053253744 -0.048272755 0.054660432 0.08667181
000350 a0 58 12 bb df ff ab bd 3f 32 9d bc 40 9c f9 3a
       -0.0022330657 -0.08398413 -0.019188998 0.0019043759
000360 29 a9 79 bd 74 8d 86 3c 76 9a 4b 3d 52 52 07 3d
       -0.06095234 0.016424872 0.049707852 0.03303749
000370 7c b8 9c 3c f6 b9 85 bd 00 0b e8 bb 98 bb 70 3c
       0.019130938 -0.0652961 -0.0070813894 0.014693163
000380 e8 27 3f 3c a5 6c a3 bd 40 06 09 3c 28 20 f2 3c
       0.011667229 -0.07979707 0.0083633065 0.029556349
000390 47 19 47 3d a4 e5 5e bd d2 54 6e bd 2c 17 03 bd
       0.04860809 -0.05441822 -0.05818636 -0.03200452
0003a0 8d 21 bc bd 80 87 37 bd 54 16 a5 3c 1e 6d 11 bd
       -0.09186087 -0.044806957 0.020152248 -0.035504453
0003b0 42 d8 4f bd a8 7d e1 bc d3 22 46 bd 08 80 13 bd
       -0.05074335 -0.027525738 -0.048373055 -0.036010772
0003c0 dc e8 80 bd b5 6f 18 bd 20 88 9c 3b e0 d2 2f 3b
       -0.062944144 -0.037215907 0.0047769696 0.0026828572
0003d0 89 20 04 3c 01 38 81 3d 77 c5 13 bd 7c 27 89 bd
       0.008064398 0.0630951 -0.03607699 -0.06696984
0003e0 16 44 f3 bc ee 06 dd bc a7 54 ab bd f1 48 a2 3d
       -0.029695552 -0.026980843 -0.083657555 0.07924069
0003f0 43 ae 2c bd f9 df 65 3d 30 cf ff 3c 41 e5 31 bd
       -0.042158376 0.0561218 0.031226724 -0.043431524

fc.0.bias f4 [128]
000000 88 2c a7 bd 0b d0 35 bd 3d 39 69 3c 4f 05 f0 bc
       -0.081627905 -0.04438786 0.014234838 -0.029299406
000010 72 67 1e 3d 98 7e f0 3b 7f c9 55 bd 90 d5 a3 bd
       0.038672872 0.00733931 -0.052194115 -0.07999718
000020 e0 91 a4 3c 32 3b a1 bc 27 7d fa bc 07 a7 79 3d
       0.02008909 -0.019681547 -0.030577255 0.060950305
000030 a8 a0 26 bd ee 3c c2 bd 0f 28 60 bb 97 d1 4a bc
       -0.040680557 -0.09484278 -0.0034203564 -0.012379072
000040 b6 ed 85 bd 73 e1 39 bc 0a a9 ab ba 28 42 8a bd
       -0.065394804 -0.011345255 -0.0013096642 -0.067508996
000050 f1 08 8a bd 55 50 a7 bd 16 ac 99 bd 70 c6 d2 bd
       -0.06739987 -0.08169619 -0.07503526 -0.10291755
000060 e6 64 8b bc c2 32 4b bd 63 9f 04 bd 0a 08 c2 bd
       -0.017015886 -0.049608953 -0.032378566 -0.094741896
000070 71 1c da bc 6b 78 cf 3c 19 e8 ae bd 1d ed 34 3d
       -0.02662489 0.025325974 -0.08540363 0.04417144
000080 62 2b 82 bd c3 c4 1e 3c 86 3b 41 bd 79 76 c2 bd
       -0.06355931 0.009690466 -0.047175907 -0.09495253
000090 37 36 5a bd 3a 82 a7 bd 8b 7a 45 3d 25 fd a3 bd
       -0.05327436 -0.081791356 0.04821257 -0.08007268
0000a0 b9 bd 22 bd c7 f8 8f 3c 57 92 6e bd a6 cc 5d bd
       -0.039731715 0.017574681 -0.05824503 -0.054150246
0000b0 7a 5a 80 ba da 85 5a 3c 8f 77 7c bc a1 4a 83 3d
       -0.0009792589 0.013337577 -0.015409364 0.06410719
0000c0 0a 96 9d bd dd 4d 50 bd 61 c5 bb bd c7 ad 54 bb
       -0.07694633 -0.050855506 -0.091685064 -0.0032452212
0000d0 f7 93 d3 bd 89 03 67 bc 70 2a ce 3b 11 f4 bf 3b
       -0.103309564 -0.014099964 0.00629168 0.0058579524
0000e0 da 54 7b bd bd 99 b3 bd 65 03 80 3c d4 1f 3d 3d
       -0.061360218 -0.087695576 0.015626619 0.04617293
0000f0 79 d8 b5 bd 69 ca b2 bd c5 c3 c4 bd 52 f6 9b bd
       -0.088791795 -0.08730013 -0.096076526 -0.07615341
000100 b0 70 7b bd 24 24 d6 3b f7 5e c3 bd 47 a0 df bc
       -0.061386764 0.00653507 -0.095395975 -0.027298106
000110 1e 16 c2 bd 29 8c 2c 3d fd d9 31 bc 99 d8 dc bc
       -0.09476875 0.042125855 -0.010855195 -0.02695875
000120 18 34 ab bd b0 8f fc bd 09 16 61 bd 4e 04 ce 3c
       -0.083595455 -0.12332094 -0.054952655 0.025148537
000130 91 5a 63 bd ca 95 ad bc 1d 45 92 3d 69 47 0e 3c
       -0.055506293 -0.021189589 0.071420886 0.008684018
000140 ef d0 ae bd 5a 75 ce bc 29 90 a9 bd f6 98 d9 bb
       -0.08535945 -0.025202442 -0.082794495 -0.006640549
000150 34 50 2a bc c9 f7 78 bd 8c a6 9c bd 41 8a 95 bd
       -0.0103950985 -0.06078318 -0.07648954 -0.073017605
000160 b1 cb d2 bb b8 d3 10 3d ab 15 dc bd a5 49 10 bd
       -0.0064329733 0.03535816 -0.1074632 -0.035226483
000170 ab 42 92 bd b3 c6 9c bd 74 cd 9e bc 17 78 72 bd
       -0.07141622 -0.07655086 -0.019385077 -0.059196558
000180 d0 ce 7f bd 64 96 83 bd 77 36 82 bd 4f 3d bc 3c
       -0.06245309 -0.06425169 -0.063580446 0.022978453
000190 f0 e8 e5 bd a6 a5 0d bd fa 45 3e bd f8 2c f6 3b
       -0.1122607 -0.034581803 -0.046453454 0.007512685
0001a0 08 48 62 bd 4e 62 68 bd 4f 8c 7c bb 36 15 05 bd
       -0.055244476 -0.056734376 -0.003853578 -0.03249093
0001b0 b1 89 ec bd 20 4b 42 bd ed a3 5d ba 68 06 15 bb
       -0.115497 -0.047434926 -0.0008454908 -0.0022739414
0001c0 35 f3 68 ba 2d e0 94 bb bc ff b1 bd 7e 64 f5 3c
       -0.00088863383 -0.0045433254 -0.086913556 0.029955145
0001d0 6d d4 a5 3c 61 30 ef 3b ce 85 81 bd ca 2c 03 bd
       0.020242894 0.0072994684 -0.06324349 -0.032025136
0001e0 d1 22 9a 3c 7e b8 94 bc fc d7 a7 bd a2 05 4a bd
       0.01881543 -0.018154379 -0.081954926 -0.049321778
0001f0 cb 4e 70 3d de 8b a5 3d 38 07 0d bd 81 9b 21 bd
       0.058668893 0.08083318 -0.034430712 -0.03945494

fc.2.weight f4 [64, 128]
000000 5b 7d e0 3c d5 e4 03 3d 41 d7 de bc a4 32 aa bc
       0.027403524 0.032200653 -0.02720225 -0.0207761
000010 91 0f a2 bd 77 d8 82 3d e7 f3 84 3d c6 24 9f bb
       -0.07913125 0.06388944 0.06491833 -0.0048566787
000020 fe 76 6a 3d 3c 8f 03 bd 39 93 d0 3c 04 47 42 bd
       0.057242386 -0.03211902 0.025460826 -0.047431007
000030 10 18 dd 3c 42 f7 14 bb 74 cc d0 3b e5 40 e2 3c
       0.026989013 -0.0022730385 0.006372029 0.027618835
000040 c2 c6 b4 3b cf ee 6b 3c 76 58 3e 3d 14 cd a4 3b
       0.005516858 0.014400198 0.04647108 0.00502933
000050 44 f9 15 bb d7 66 0e 3d ff 5a 72 bc 3b 4a 2d bd
       -0.002288417 0.034766044 -0.014792203 -0.04230712
000060 d8 fd 41 3d 57 6f 32 bc cc 63 20 3d 75 04 ed bc
       0.047361225 -0.010890803 0.039157674 -0.02893279
000070 84 e0 02 bc 73 b2 b8 3d fd 48 05 bd 47 c8 87 bd
       -0.007988099 0.090184115 -0.03254031 -0.06629997
000080 a1 fd bd 3d 64 a9 36 bd 2b 42 32 bd 2a 0a fc bc
       0.092768915 -0.044595137 -0.043520134 -0.030766565
000090 54 6f 2f 3d a9 7c 98 bd a3 89 50 3d fb ac 3b bb
       0.04283078 -0.07445652 0.05091251 -0.002863704
0000a0 c1 dd 52 3d 75 cb c3 bc bf 5c 5d bd d3 c9 ff 3a
       0.051481012 -0.023900727 -0.054043528 0.0019515104
0000b0 56 da 30 3d ce 97 87 bc 68 0f ad 3d 82 17 b0 3c
       0.04317697 -0.016551878 0.08450204 0.021495584
0000c0 e1 a6 86 3d 56 2d 8c 3d 62 9a 00 bd 7d 6d 07 bd
       0.065747984 0.06844585 -0.03139723 -0.0330634
0000d0 cf 03 90 39 4d c8 57 bd b9 9f ae 3d d2 21 60 3d
       0.00027468658 -0.052681256 0.085265584 0.054719754
0000e0 4e 53 2d bc 3e c4 4e bb 27 15 9f 3d 8e bd 56 3c
       -0.010578943 -0.0031550075 0.07767706 0.013106717
0000f0 9c 74 38 3d 81 89 8a bd 67 84 c1 3c 93 53 a1 3d
       0.045033082 -0.06764508 0.023622705 0.07877269
000100 06 7a a5 bd 5b cd 7b bd 49 0f 5c 3d 52 10 81 3d
       -0.08079915 -0.06147514 0.053725515 0.06301941
000110 4a c6 2f bd f1 e4 88 bd 27 8e d4 bc 92 fd 9f bd
       -0.042913713 -0.06684292 -0.02594669 -0.078120366
000120 c7 8d 12 3c 96 e4 e2 3c da 4e a2 3b e6 9c 86 bd
       0.008944935 0.027696889 0.0049532475 -0.06572895
000130 62 3e de bc 3b 3c d9 3c 76 f6 85 3d 9e f1 ba bd
       -0.027129356 0.026517978 0.06541149 -0.09128116
000140 bb 4d a1 bd c2 6a 94 bd f9 6f 81 bd c7 75 30 3d
       -0.07876154 -0.07246925 -0.06320185 0.04308107
000150 a3 f5 85 bd 20 86 6b 3d 28 50 8e bb 63 7d e9 bc
       -0.06540992 0.05750096 -0.0043430515 -0.028502172
000160 42 c2 3c 3d 1f 9d 4a bd 77 86 5d 3c ec 29 95 3d
       0.046083696 -0.04946625 0.013520828 0.072833866
000170 1c f4 a2 3d 44 d5 70 3b a6 01 bd 3b ed 02 74 bc
       0.079567164 0.003674821 0.005768019 -0.014893276
000180 8f dd 7f 3d 0e 81 f7 3c fa 98 5a 3d f4 6f 63 bd
       0.062467154 0.030212905 0.053368546 -0.05552669
000190 3a 42 41 bd 32 da ba bd e2 0e e9 3c 55 17 c9 bb
       -0.0471823 -0.09123649 0.02844948 -0.0061368146
0001a0 be 5b 69 3c 86 85 50 bd a9 df 63 bc 22 0c ad ba
       0.014243064 -0.050908588 -0.013908305 -0.0013202468
0001b0 63 a2 1a bd f5 b4 57 bd a9 42 a6 3c 6a 51 8e bd
       -0.03775252 -0.05266281 0.020295458 -0.06949122
0001c0 4e b1 72 bd b2 18 ac 3d e4 4a e7 bd 2d 6b 89 bd
       -0.059251122 0.08403148 -0.11293581 -0.06709895
0001d0 34 78 15 3d 90 bd a5 bc fa 06 10 bd bd 2b 7a bd
       0.036491588 -0.020231992 -0.035162903 -0.06107687
0001e0 e4 e0 29 3d d5 0f 9f 3d da af ff bc 6d bd 0a 3b
       0.041474238 0.077666916 -0.031211782 0.0021170035
0001f0 10 a6 93 bd c6 2a c5 3b 33 59 95 3c 4d 37 3f 3d
       -0.07209408 0.006017062 0.01823101 0.0466836
000200 1b a8 b3 3d 00 80 a2 bb 13 91 e5 bc 08 42 e2 bc
       0.08772298 -0.0049591064 -0.028023278 -0.027619377
000210 ac b3 6b bd 4d f2 a4 3d 8b f3 35 bc da 54 6f 3d
       -0.057544395 0.08054028 -0.011105428 0.05843053
000220 ce 3c 72 3d 8c e6 ce bb f0 6f 32 3c f3 12 90 bc
       0.05914002 -0.0063141044 0.010890946 -0.01758716
000230 27 28 6b bd 22 89 ab bd 3f b9 39 3d 6e 37 61 3d
       -0.05741134 -0.083757654 0.04534268 0.054984502
000240 e1 39 96 bd 60 10 4f bb 72 6b 41 3d da 6a 6e bd
       -0.07335258 -0.0031595454 0.04722161 -0.05820737
000250 bf a2 a0 3d dc 0d dd 3c 93 66 65 bd b7 f9 cd bc
       0.07843541 0.026984148 -0.056006026 -0.025143487
000260 0b 14 32 3d 82 46 52 3d 9c 7c 06 3d 89 e3 a9 bd
       0.043476146 0.051336773 0.03283368 -0.08295352
000270 03 5e 4e 3d ea 6a 8a bd bb d8 9b 3b 70 ad 6e 3c
       0.050382625 -0.067586735 0.004756061 0.014567718
000280 50 0c 55 bd 22 35 1a 3d 4c c1 b9 3d c0 95 37 bc
       -0.052013695 0.037648328 0.090700716 -0.011205137
000290 63 78 0d 3d c1 86 92 3d 17 d2 77 bb fc f3 f7 3c
       0.034538638 0.071546085 -0.0037814432 0.030267708
0002a0 1a da 8c bd 50 77 ff bb e1 4f 8b bd 24 ed d9 3c
       -0.06877537 -0.0077962056 -0.06802345 0.026602335
0002b0 20 9a c3 bb fb b6 50 bd b5 1b a0 bd 88 65 ab bd
       -0.005969301 -0.050955754 -0.07817785 -0.08368975
0002c0 40 f9 f9 bb 6d d3 99 3d 02 d8 25 bd 50 7d 1e 3c
       -0.00762859 0.075110294 -0.040489204 0.0096734315
0002d0 5d 99 1d bd 70 3a de 3b aa e4 0e 3d a6 e8 71 3d
       -0.038476337 0.0067818686 0.03488604 0.05905976
0002e0 6c 52 99 bd 00 a9 52 3a ec 8c c2 3c da a3 ef bc
       -0.07486424 0.0008036047 0.023748837 -0.029252935
0002f0 03 a9 43 bd 68 07 61 bc 91 7c af bd a4 81 87 bd
       -0.047768604 -0.013734676 -0.08568681 -0.06616524
000300 3b 2b 6e bd 9f 7f 80 3d c8 be fe 3b 17 e6 5b 3d
       -0.058146697 0.06274342 0.0077742077 0.053686228
000310 e7 87 b3 bd cc d9 c7 3c fd cd f7 bc ab b7 a2 3d
       -0.08766156 0.024395846 -0.03024959 0.07945188
000320 41 99 24 bd 60 af 97 3b ee 94 8f bd 94 2e 11 3d
       -0.040185217 0.0046290606 -0.07010828 0.03544481
000330 fc 58 c7 bc 7c fc f2 3c 0d 33 8b 3d 2b bf 5c bd
       -0.024334423 0.02966141 0.067968465 -0.05389325
000340 94 71 5f 3d 81 4a db 3c ea f2 74 3d 4c f5 c9 3a
       0.054551676 0.026768925 0.059801973 0.0015408187
000350 3b a5 b4 3c 2d d6 45 bb 80 e2 86 bb 48 86 ac bd
       0.022051444 -0.0030187473 -0.0041163564 -0.084240496
000360 c3 c6 a4 bd d8 f9 96 bc 57 26 8a 3d 3a 92 88 bd
       -0.08045723 -0.018429682 0.06745594 -0.066685155
000370 e3 23 b3 3d d0 b7 c0 3b 96 9c 53 bd cd 85 8c 3d
       0.08747079 0.005881287 -0.051663004 0.06861458
000380 f8 b4 b2 bd 07 1c 1c bd 65 45 72 3d 16 f4 11 bd
       -0.08725923 -0.038112666 0.05914821 -0.03563317
000390 2e 65 49 3d 18 33 c1 bc 12 c9 57 bd c6 47 c3 bb
       0.049168758 -0.023583934 -0.05268199 -0.005959484
0003a0 b2 f9 e7 bc 3f d3 92 3d 60 88 a7 bd 48 12 5c bc
       -0.028317306 0.07169198 -0.08180308 -0.013432093
0003b0 3a 34 a9 bd e8 fb 09 bc 72 d2 b2 bd 90 18 0e bc
       -0.082619146 -0.008421876 -0.087315455 -0.008672848
0003c0 16 d3 11 3d 44 97 24 bd d0 22 e7 3b b0 ec b7 bd
       0.035601698 -0.04018332 0.0070537105 -0.089806914
0003d0 5f 55 4f 3d f1 b8 28 bd ba 6a 26 3d 2e 5e 30 3d
       0.050618526 -0.041192 0.040629126 0.043058567
0003e0 a2 5c 9d bd 44 86 95 bd 0b d1 73 bd 64 f2 7a bd
       -0.07683684 -0.07301 -0.05952553 -0.061266318
0003f0 f2 69 a1 bd 7a 25 57 3d b3 c8 13 bd b0 32 0c 3d
       -0.078815356 0.052525975 -0.036080074 0.034228027

fc.2.bias f4 [64]
000000 d6 57 d5 3d 2a 6c b6 bd d9 ac a5 bd 68 a4 e7 3d
       0.10417144 -0.089073494 -0.08089609 0.11310655
000010 ab 38 fa 3a 65 6a 03 bd 18 16 ac bb 89 2e 5c 3d
       0.0019090375 -0.032083888 -0.005251657 0.053755317
000020 05 12 9f bd bc 99 ee 3c b3 6c db 3d 19 a4 0d bd
       -0.07767109 0.02912604 0.10714092 -0.034580324
000030 11 56 65 3d 26 10 a3 bd 8f e7 84 bc 38 a5 db bc
       0.055990282 -0.079620644 -0.016223697 -0.02681218
000040 0e b1 17 3e c8 de 48 bb 8e 9d 51 3c 51 7f fa bc
       0.14813635 -0.0030650366 0.012793912 -0.030578287
000050 4d c2 a1 bc 20 8a 8c bc 31 8b 87 bd 1a a9 5f bd
       -0.01974597 -0.017155707 -0.066183455 -0.054604627
000060 13 7b 0b 3e 80 91 bf bc 24 8f b9 bc b4 4a 9b 3b
       0.13621168 -0.02338481 -0.022651263 0.00473913
000070 bc e3 94 bc 3c 45 84 bd e5 7d 6f 3d 35 ba ff bc
       -0.018174998 -0.06458518 0.05846967 -0.03121672
000080 5f 1f e1 3d 4e 09 1b 3e 04 8e 01 bc a8 e2 8c 3c
       0.10992312 0.15140268 -0.007907394 0.017197922
000090 73 05 86 bc 0a 28 2b 3e cf ae a7 bc d7 02 11 3e
       -0.01636002 0.16714492 -0.020469097 0.1416124
0000a0 12 57 04 bc 42 8d a7 bd 67 75 ac bd 18 82 38 bd
       -0.0080774 -0.0818124 -0.0842083 -0.045045942
0000b0 1b 7b 84 bd 37 55 8f bc 0c ab c7 bc 50 ae 5c 3a
       -0.06468793 -0.017496688 -0.024373554 0.00084183086
0000c0 c0 5c 06 3e 3a df 76 bd f3 66 4a 3d 06 9b 0d 3e
       0.13121319 -0.06027148 0.049414586 0.13828668
0000d0 83 07 26 bd 0b c1 3c bc 2c 2d 4b bd 87 03 00 bd
       -0.040534507 -0.011520634 -0.049603626 -0.031253364
0000e0 3a e4 85 bd 21 02 8c bb aa 46 7a bc fe 99 8a 3d
       -0.065376714 -0.0042727147 -0.015275637 0.06767653
0000f0 ad e2 34 bd 2b cf a2 3d f2 10 57 bb ad 19 d5 bc
       -0.044161487 0.079496704 -0.0032816497 -0.02601322

fc.4.weight f4 [1, 64]
000000 d8 e3 ea 3d c3 4a 74 3d a4 f2 35 3d f7 47 b1 3d
       0.11469239 0.05964161 0.044420853 0.08656304
000010 18 17 b8 3c 5f a3 f4 bc 87 b4 0a bd 1a 00 0a 3d
       0.02247195 -0.029863058 -0.03386357 0.033691503
000020 8b 5b 82 3c 9e 5a 31 3c 1b 64 a1 3d 79 1d c3 bc
       0.015912792 0.0108248275 0.07880422 -0.023817765
000030 9f 20 eb 3c 8d f8 2e be 61 57 8a bd a5 a3 10 bd
       0.028702078 -0.17087002 -0.067549475 -0.035312314
000040 a4 cc 99 3d 0f 1d 47 bd a8 8c 05 3d 8d 0f 74 bd
       0.07509735 -0.048611697 0.032604843 -0.059585143
000050 0e 4a d1 bd 5b 45 c0 bd 4b f5 3d bc f2 9d 0e 3c
       -0.10219203 -0.093882285 -0.011594127 0.008704649
000060 39 28 d3 3d 73 4a cf bd 29 48 b0 bd 43 75 4b 3b
       0.10310406 -0.10121622 -0.086075135 0.0031045235
000070 53 de 53 3d 88 b9 a5 bd ae e0 4d 3d 17 9a d7 bd
       0.051725697 -0.08092028 0.0502631 -0.10527437
000080 a2 f8 a9 3d 23 99 08 3e 3c 05 b9 bd c5 d8 1b 3c
       0.08299376 0.13339667 -0.090342015 0.009512131
000090 3e 5d 63 bc fb 79 18 3e 25 a1 7d bc 94 85 a9 3d
       -0.013877211 0.14890282 -0.015480314 0.08277431
0000a0 69 5f 84 bd e4 e4 bc bd 07 02 c6 3d 8e fd 38 bd
       -0.064635105 -0.09223345 0.096683554 -0.045163684
0000b0 38 51 9c bc d9 08 ab bd 7c 6a e0 bd d3 c0 5b 3b
       -0.019081697 -0.08351297 -0.1095781 0.003353168
0000c0 7c a1 98 3d 89 51 85 b9 2c aa 85 3d 6f f0 dd 3d
       0.07452676 -0.00025428485 0.06526598 0.10836875
0000d0 7d 86 dc bd 2d 32 0a bd 22 cb de bb ce a9 69 bb
       -0.10767839 -0.033739258 -0.0067991177 -0.003565419
0000e0 99 27 84 bc fe d7 a4 bd 4f 25 8e 3c 38 cc 9c 3d
       -0.016132163 -0.0804901 0.017351774 0.07656139
0000f0 b3 67 ba bc 22 86 19 3d 58 6c f5 bc f5 c5 9b 3d
       -0.022754526 0.037481435 -0.029958889 0.07606117

exp_avg f4 [16, 2, 3, 3]
000000 53 e2 c6 b3 8c ec ed b6 49 82 73 b4 7f df 95 b6
       -9.2612616e-08 -7.090688e-06 -2.2678536e-07 -4.4665644e-06
000010 a7 60 18 b6 b1 c7 2f 36 a4 30 06 35 a1 9f 1f b7
       -2.2706024e-06 2.6193268e-06 4.998967e-07 -9.514305e-06
000020 e5 cd 29 b5 53 cc e6 b4 02 2e af b5 46 20 b1 b5
       -6.325702e-07 -4.2989504e-07 -1.3051906e-06 -1.319692e-06
000030 ab bf 97 b5 b7 5d 08 b6 64 fd ff b5 3e 87 8d b5
       -1.1306159e-06 -2.0320128e-06 -1.9072727e-06 -1.0544679e-06
000040 64 2f 0b b6 70 e2 fe b5 14 51 f6 b4 37 0f 5f 36
       -2.07402e-06 -1.8990377e-06 -4.5880063e-07 3.3238446e-06
000050 49 54 c6 b4 64 73 a3 36 a2 18 02 b6 ca a9 b9 b5
       -3.69417e-07 4.871212e-06 -1.9385848e-06 -1.3832989e-06
000060 f0 e6 51 37 9b 4d df 36 8e fa b3 35 c8 de 4b b5
       1.251114e-05 6.6549524e-06 1.340946e-06 -7.594758e-07
000070 cc 02 3e b5 52 8b 51 b5 40 0e 44 34 62 b6 9a 34
       -7.0784586e-07 -7.8061305e-07 1.8259107e-07 2.8817436e-07
000080 2e aa 96 34 fb 47 83 35 00 3b 8e 35 a2 cc 8e 35
       2.80635e-07 9.78121e-07 1.0596996e-06 1.063938e-06
000090 f8 c1 1b b7 0e 47 b2 b6 e4 78 24 b5 b1 9b 94 b6
       -9.283882e-06 -5.3130852e-06 -6.127068e-07 -4.4288686e-06
0000a0 1c 75 44 b6 fa 24 bc b6 cf 18 ac b5 db 08 d9 b6
       -2.9274443e-06 -5.6071412e-06 -1.2822219e-06 -6.468135e-06
0000b0 bf 00 a6 b6 c9 3b 21 b6 b1 d2 28 b6 03 6e 16 b6
       -4.9472724e-06 -2.402567e-06 -2.515659e-06 -2.2415777e-06
0000c0 fa 58 38 b6 a1 17 42 b6 2f fa 30 b6 70 ca 0a b6
       -2.7469928e-06 -2.8922007e-06 -2.637167e-06 -2.0681437e-06
0000d0 a1 94 14 b6 66 9f 09 b6 1f 69 31 b6 3c c0 9e b7
       -2.2140232e-06 -2.0507373e-06 -2.6436244e-06 -1.8924584e-05
0000e0 fa 11 16 b7 52 06 86 b6 6a 9b a8 34 d5 3e 23 b6
       -8.944882e-06 -3.994247e-06 3.1405517e-07 -2.4325466e-06
0000f0 50 55 1c b7 8c 7f e5 b6 fc c0 f2 b6 6e 52 55 b6
       -9.318188e-06 -6.8395802e-06 -7.2346284e-06 -3.1787454e-06
000100 a5 18 37 b6 62 7d 16 b6 a3 d1 72 b6 43 ac 4f b6
       -2.728347e-06 -2.2424724e-06 -3.6182835e-06 -3.0945673e-06
000110 08 a1 2c b6 89 e1 6b b6 6f bb 55 b6 91 00 3a b6
       -2.572373e-06 -3.5149008e-06 -3.1848574e-06 -2.771649e-06
000120 60 7d 48 36 b4 41 10 b6 1f 95 27 b6 a1 20 f4 b4
       2.98753e-06 -2.1495916e-06 -2.497174e-06 -4.5472282e-07
000130 47 b8 1f b7 19 d8 d5 b6 08 30 23 b5 f1 9f 73 b4
       -9.520044e-06 -6.3730517e-06 -6.0792127e-07 -2.2689325e-07
000140 71 20 a2 b5 29 bb 3f 36 fe 09 81 36 b8 e1 9b 36
       -1.2079382e-06 2.857016e-06 3.845663e-06 4.645637e-06
000150 34 85 47 36 07 ce 52 36 8a f4 85 36 2a 09 47 36
       2.9730845e-06 3.1412362e-06 3.992177e-06 2.9658645e-06
000160 23 9b 54 36 3c ea 81 36 e6 6d 7e 35 a5 ce fe 31
       3.1680763e-06 3.871768e-06 9.4782297e-07 7.4158657e-09
000170 e1 e4 44 35 8c 3c bd 36 bb c6 b2 b4 6a e2 ae 35
       7.334875e-07 5.6396875e-06 -3.329968e-07 1.3029905e-06
000180 2b 7e 19 37 35 af 95 36 6f 8f 81 b4 5d f3 b0 b4
       9.148886e-06 4.460943e-06 -2.4132484e-07 -3.2959625e-07
000190 dd 22 17 b5 45 da 8f 34 c8 cb b3 b4 97 eb 29 b5
       -5.6302616e-07 2.6794638e-07 -3.3489619e-07 -6.3300234e-07
0001a0 bb 36 7c 34 10 6f ef b4 e2 7e 3c b5 6e 0d 4b b5
       2.348924e-07 -4.4598028e-07 -7.0220096e-07 -7.5642936e-07
0001b0 ce 09 6a 36 c2 45 a6 37 4b 98 38 37 18 ec 90 35
       3.4874424e-06 1.9821226e-05 1.1002713e-05 1.0797548e-06
0001c0 66 63 03 37 29 77 1d 37 48 d0 c9 34 17 f7 73 b7
       7.8313515e-06 9.385673e-06 3.7590712e-07 -1.4541459e-05
0001d0 2d 18 c0 35 bf f3 b7 34 9c 17 c0 35 3c 89 78 35
       1.4312151e-06 3.4263755e-07 1.4311986e-06 9.25869e-07
0001e0 d6 4b c1 34 ef 42 c2 35 72 c5 75 35 53 4c 82 35
       3.600423e-07 1.4473607e-06 9.1556933e-07 9.707968e-07
0001f0 f8 81 0b 36 4f 68 b2 35 ec 2c 08 37 7e 7a 08 36
       2.0788266e-06 1.3292391e-06 8.116691e-06 2.033688e-06
000200 3f a1 2c 35 8d f8 95 37 43 15 1f 36 99 b1 65 36
       6.4309637e-07 1.7877925e-05 2.3705222e-06 3.4227035e-06
000210 2a d3 d2 34 52 a1 b5 34 e9 b1 de b5 14 ae 16 34
       3.926919e-07 3.3831253e-07 -1.6592068e-06 1.4033168e-07
000220 d4 d4 3f 34 7f df e5 33 0f 5e ac b3 64 22 5e b3
       1.7865688e-07 1.0704297e-07 -8.026483e-08 -5.171968e-08
000230 b6 6d 04 b4 a9 a1 c7 b4 24 e2 c2 b4 e2 61 cf b4
       -1.233337e-07 -3.7184262e-07 -3.6299855e-07 -3.8627974e-07
000240 d8 52 82 36 fe ad c2 36 b5 c5 17 36 97 c9 9a 35
       3.883946e-06 5.801906e-06 2.2615834e-06 1.1532564e-06
000250 33 bb 7d b5 76 5d 01 37 85 05 2a b5 b5 1f c3 b5
       -9.4522255e-07 7.71076e-06 -6.3337967e-07 -1.453786e-06
000260 07 bf c8 35 51 58 1a b6 cf 54 3f b6 b3 6f 44 b6
       1.4956757e-06 -2.2999195e-06 -2.8510583e-06 -2.9271293e-06
000270 51 58 1a b6 d0 54 3f b6 b4 6f 44 b6 49 11 30 b6
       -2.2999195e-06 -2.8510585e-06 -2.9271296e-06 -2.6236105e-06
000280 bb 0d 3f b6 1c 25 42 b6 eb ba 1e b6 6d ec c4 b5
       -2.846921e-06 -2.8929853e-06 -2.3652635e-06 -1.4671947e-06
000290 cb 76 98 b6 8d 59 1a b6 af 7e e4 b6 d0 10 be 34
       -4.5437823e-06 -2.2999914e-06 -6.8096774e-06 3.540249e-07
0002a0 a9 50 c4 b6 78 48 19 b7 aa f0 b2 b7 f1 71 0d b5
       -5.8506453e-06 -9.136384e-06 -2.1331321e-05 -5.26924e-07
0002b0 d5 5b 57 b5 0e 0b 35 b5 69 db 98 34 1c 5c 42 33
       -8.0227375e-07 -6.744384e-07 2.8471848e-07 4.5252918e-08
0002c0 1e 71 38 34 ba be d7 34 63 0f 0f b4 c6 24 32 32
       1.7177487e-07 4.0185643e-07 -1.332351e-07 1.0369325e-08
0002d0 3c 86 b4 b4 52 c4 7d b5 d5 0e cd 34 6f a6 17 35
       -3.362528e-07 -9.453553e-07 3.8195017e-07 5.6494076e-07
0002e0 f5 76 14 37 48 ba 90 36 5a 65 6c 35 04 f8 03 36
       8.849184e-06 4.3132204e-06 8.8064337e-07 1.9664885e-06
0002f0 c3 2e a8 b6 ca 22 e5 34 26 5a 50 35 40 98 5e 35
       -5.012234e-06 4.2679886e-07 7.761722e-07 8.2923e-07
000300 ce 55 80 34 bf 87 aa 34 9d 5b 0f 35 ed 5c 25 35
       2.390429e-07 3.1763736e-07 5.3404966e-07 6.1602515e-07
000310 e9 75 3a 35 61 cd 7c 35 a5 81 be 35 7a 13 5c 34
       6.946198e-07 9.417618e-07 1.4193835e-06 2.0496182e-07
000320 e2 3c aa b5 77 a3 7d 37 9d a6 73 36 14 ab f9 36
       -1.2683706e-06 1.5118035e-05 3.6306803e-06 7.4406944e-06
000330 05 d7 04 34 d7 0d e3 b3 81 c5 35 b5 4c 79 ce 35
       1.2371682e-07 -1.0573029e-07 -6.771516e-07 1.5383498e-06
000340 ab 7a c6 35 00 f3 ba 35 01 54 b0 35 30 78 ab 35
       1.4787851e-06 1.3928802e-06 1.313747e-06 1.2775472e-06
000350 5a e4 9b 35 92 44 2c b4 88 a2 8a b4 16 4c ce b4
       1.1614859e-06 -1.6043694e-07 -2.582276e-07 -3.842585e-07
000360 3e f2 07 33 62 e5 57 34 cf ed df b2 26 6b 96 b4
       3.1652455e-08 2.0106884e-07 -2.606876e-08 -2.8017638e-07
000370 f9 3c 1d 33 46 bf 0d 33 c3 7a 4d b4 cf d5 7e b3
       3.6609865e-08 3.3003083e-08 -1.9136773e-07 -5.933344e-08
000380 3f 4d 8b b2 81 7b e7 34 83 7b e7 34 75 fc 98 34
       -1.6216857e-08 4.3116964e-07 4.311697e-07 2.8495893e-07
000390 4b 8e f1 34 4e 8e f1 34 34 26 a0 34 7d 3d f8 34
       4.499328e-07 4.4993288e-07 2.983012e-07 4.6238338e-07
0003a0 7f 3d f8 34 34 26 a0 34 e3 57 aa 36 77 62 29 b4
       4.6238344e-07 2.983012e-07 5.076626e-06 -1.5775173e-07
0003b0 0e e3 68 33 36 75 0e b5 42 61 03 37 6c 7b 0c 36
       5.4223214e-08 -5.3069687e-07 7.830853e-06 2.0933467e-06
0003c0 b1 d1 b2 b3 f3 52 55 b6 0a a2 f2 b4 6c ed 85 b3
       -8.3269136e-08 -3.1787756e-06 -4.5193912e-07 -6.236482e-08
0003d0 26 b6 07 35 91 bb bf 34 8e f7 10 b4 f2 52 db 34
       5.055648e-07 3.5712995e-07 -1.3501105e-07 4.085228e-07
0003e0 64 1f 6d 34 a1 4d a9 b4 21 02 75 34 2f d5 8e 33
       2.2083765e-07 -3.1535185e-07 2.2818178e-07 6.651168e-08
0003f0 a4 56 cb 36 50 3c c6 35 2d 8e 1b b6 b1 9c eb b5
       6.0599577e-06 1.4769703e-06 -2.3179557e-06 -1.7554468e-06
