output/red/images/epoch_38.pt (torch, 369546 bytes, 27 tensors)

conv.0.weight f4 [16, 2, 3, 3]
0	0xbe052fff	-0.1300659
1	0x3dcb5d47	0.099299006
2	0x3e272c1d	0.16325422
3	0x3d536989	0.051614318
4	0x3e28b4bf	0.16475199
5	0x3d6eab63	0.058268916
6	0x3df505b0	0.119639754
7	0x3def8f0c	0.11697206
8	0xbe0fa281	-0.14026834
9	0xbdf4fc93	-0.11962237
10	0xbdb49d27	-0.08819037
11	0x3e2c8f11	0.1685145
12	0xbe2b19b3	-0.16709022
13	0xbd3ee2c7	-0.04660299
14	0x3e1eeee6	0.1552082
15	0xbe727a28	-0.23679411
16	0x3e308893	0.17239599
17	0x3e51ffb3	0.20507698
18	0xbe266982	-0.16251186
19	0x3cab2951	0.020893725
20	0xbd841e6e	-0.064511165
21	0x3de1d832	0.11027564
22	0xbd1bf962	-0.038079627
23	0x3dde2dad	0.10848556
24	0xbc529b22	-0.012854369
25	0x3e494433	0.19654922
26	0xbe47c2c7	-0.19507895
27	0x3e19690e	0.14981481
28	0x3d6a8182	0.057252415
29	0xbe20016a	-0.1562554
30	0x3dd8806a	0.10571368
31	0xbca69b5c	-0.020337753
32	0x3e11e8be	0.1424894
33	0xbe0c3750	-0.13692975
34	0x3e4509ac	0.19241971
35	0x3dfbb5f7	0.122905664
36	0x3dda41af	0.106570594
37	0xbc36c547	-0.011155433
38	0xbe13fa70	-0.14451003
39	0x3d9ae163	0.0756252
40	0xbd4a5d82	-0.049405582
41	0x3e176280	0.14783669
42	0xbd223b6e	-0.039607458
43	0x3e1e7f3d	0.15478225
44	0x3d57e3cb	0.052707475
45	0x3e4857bc	0.19564718
46	0x3e265bdf	0.16245984
47	0xbe5941f6	-0.21216568
48	0x3e07a179	0.1324519
49	0x3e526283	0.20545392
50	0xbe344812	-0.17605618
51	0xbe19aad3	-0.1500657
52	0x3d3a5368	0.0454897
53	0xbbba9ee8	-0.0056952126
54	0xbe8a618c	-0.27027547
55	0x3e07ec6d	0.13273783
56	0x3e171543	0.14754204
57	0xbe0535c4	-0.13008791
58	0xbdfe473b	-0.1241593
59	0xbd232e5f	-0.039839145
60	0x3daecd15	0.0853521
61	0xbd804b8f	-0.06264412
62	0x3dadbebd	0.08483646
63	0xbdef2c6e	-0.11678396
64	0x3d0b2275	0.033968408
65	0xbcb8246c	-0.022478305
66	0x3df62b2d	0.12019954
67	0xbd0b3c23	-0.033992898
68	0xbcb75e12	-0.022383723
69	0xbe482fd6	-0.19549498
70	0x3dcc1f5e	0.0996692
71	0xbce75660	-0.028239429
72	0x3d8cc1db	0.068729125
73	0x3e1f0950	0.15530896
74	0xbe4960cc	-0.19665831
75	0xbe66f389	-0.22553839
76	0x3e25814f	0.16162609
77	0xbd46e91d	-0.048562158
78	0xbe33c129	-0.17554154
79	0xbe436130	-0.19080043
80	0xbd9379a2	-0.07200934
81	0x3dc279ef	0.09495913
82	0x3ddada62	0.106861845
83	0xbe9ebd95	-0.31004015
84	0xbe965d27	-0.29367945
85	0x3d8983f0	0.06714618
86	0xbd89c914	-0.06727806
87	0x3d47fd0a	0.0488253
88	0x3ddb6040	0.107117176
89	0x3db90a77	0.09035199
90	0x3b395f16	0.0028285435
91	0xbe3355cf	-0.17513202
92	0xbe1bad81	-0.15202905
93	0x3dbe43bd	0.09290264
94	0xbe2cb8c6	-0.1686736
95	0xbe02fa6f	-0.12790845
96	0x3cddad72	0.027060244
97	0xbd2b4bc6	-0.04182031
98	0xbe333b69	-0.17503132
99	0xbe391635	-0.18074878
100	0x3e5e874e	0.21731302
101	0xbe211a8b	-0.15732782
102	0xbe2700d9	-0.16308917
103	0xbdd53171	-0.10409821
104	0xbe37f40a	-0.17964187
105	0xbe708574	-0.23488408
106	0x3dafc614	0.08582702
107	0x3d018141	0.031617407
108	0x3e471b1d	0.19443937
109	0x3e048b2d	0.12943716
110	0x3da2a7f7	0.07942193
111	0x3e2c0f4f	0.16802715
112	0xbc5a249a	-0.013314391
113	0x3d0c998d	0.034326125
114	0xbe69b80e	-0.22824118
115	0x3dd4d550	0.10392249
116	0xbc8897c7	-0.016673936
117	0xbe06646f	-0.1312425
118	0x3e2bbb96	0.16770777
119	0x3c9eb45e	0.019373115
120	0x3cbffe15	0.023436585
121	0x3d4ba239	0.049715254
122	0x3d2a6a59	0.041605327
123	0xbd758ad1	-0.05994684
124	0xbe4be900	-0.19913101
125	0xbe48acba	-0.1959714
126	0x3e17b065	0.14813383
127	0xbe87d4e4	-0.2652961
128	0x3d59aff4	0.053146318
129	0x3ce0b7b7	0.027431352
130	0xbd871a33	-0.06596794
131	0x3d40e1ab	0.047090214
132	0xbe2cfd6e	-0.16893551
133	0xbe4057f0	-0.18783545
134	0xbccaf8fd	-0.02477693
135	0xbbabd7fa	-0.0052442523
136	0x3d3f383c	0.04668449
137	0xbe37ab7e	-0.17936513
138	0x3e4c50bf	0.19952677
139	0xbe2a0a4e	-0.16605493
140	0x3dffe6b6	0.124951765
141	0xbe4dc860	-0.20095968
142	0xbded1396	-0.11576001
143	0x3e507e25	0.2036062
144	0x3d8834ee	0.066507205
145	0x3e454f88	0.1926862
146	0x3e34ab53	0.1764348
147	0xbe55c7bd	-0.20876975
148	0xbe806959	-0.25080374
149	0xbdbf4f62	-0.09341313
150	0xbd946255	-0.07245318
151	0xbe09a2ff	-0.13441084
152	0xbc9867e4	-0.018604226
153	0xbe333338	-0.17500007
154	0xbd8f1fd1	-0.069884904
155	0x3e474977	0.19461618
156	0xbe12b700	-0.14327621
157	0xbe0a09b2	-0.13480261
158	0x3e04f745	0.12984951
159	0xbe33a18f	-0.17542098
160	0xbc98168f	-0.018565444
161	0xbe23b2ba	-0.15986148
162	0xbe10f5bf	-0.14156245
163	0x3e12d7b0	0.14340091
164	0xbe364ab2	-0.17801932
165	0xbde56586	-0.11201005
166	0xbd5e5a23	-0.05428518
167	0xbe6b7d2f	-0.22996973
168	0x3d8a8961	0.06764484
169	0xbd9f9f7a	-0.077940896
170	0x3e53496f	0.20633481
171	0xbe0a8e1c	-0.13530773
172	0xbda02b95	-0.078208126
173	0x3df7cd15	0.12099663
174	0x3e3d3889	0.18478598
175	0xbe408b4c	-0.18803138
176	0xbe319a29	-0.17343964
177	0xbe231e35	-0.15929492
178	0xbda695ed	-0.08134065
179	0xbaf8e8a9	-0.0018990237
180	0xbe3ff0a7	-0.18744145
181	0xbd3da571	-0.046300355
182	0xbe38186e	-0.17978069
183	0xbdfc538f	-0.12320625
184	0x3e4bf80c	0.19918841
185	0xbe47cad3	-0.19510965
186	0x3d91a555	0.07111613
187	0xbe08c1c8	-0.13355172
188	0xbce37ca9	-0.027769404
189	0xbe217282	-0.15766338
190	0x3d61ba95	0.05510958
191	0xbd94467e	-0.07240008
192	0xbe713259	-0.23554362
193	0x3e3edb9d	0.18638463
194	0x3cd9ae22	0.02657229
195	0x3dc1281e	0.0943148
196	0x3e4516ca	0.19246975
197	0x3e2dc81c	0.16970867
198	0xbe0c0c93	-0.13676672
199	0xbe94b41a	-0.29043657
200	0xbce2cebc	-0.02768647
201	0x3de94900	0.11390877
202	0xbcbe797c	-0.023251288
203	0x3dcf691c	0.1012747
204	0x3ae0e712	0.0017158708
205	0xbe65a51d	-0.22426267
206	0xbe155235	-0.1458214
207	0xbd2524b1	-0.040318195
208	0x3d88107d	0.0664377
209	0xbe034e85	-0.12822922
210	0xbe1d1786	-0.15341005
211	0xbc14052b	-0.009034435
212	0xbdb2fb57	-0.087393455
213	0x3d950d50	0.0727793
214	0xbcefb24b	-0.029259821
215	0x3e0944ab	0.13405101
216	0xbcf188d7	-0.029484196
217	0xbb8ec578	-0.004357036
218	0xbd2f083f	-0.042732473
219	0x3d07cde1	0.033155326
220	0xbe299a75	-0.16562827
221	0xbdddaeb4	-0.108243376
222	0xbcbb632b	-0.022874435
223	0xbdd88d1c	-0.105737895
224	0xbd8f836a	-0.07007487
225	0x3e4cf30d	0.20014592
226	0x3d237412	0.039905615
227	0xbe2daf13	-0.16961317
228	0xbda51c04	-0.08061984
229	0xbc8e9e2e	-0.01740941
230	0xbe1a77b1	-0.15084721
231	0x3dbaa408	0.09113318
232	0x3dd75dcf	0.105159394
233	0x3e468b62	0.19389108
234	0x3d903651	0.0704161
235	0xbe0eba55	-0.13938268
236	0xbe1822a8	-0.1485697
237	0xbde7cb64	-0.113180906
238	0x3e2c4cbd	0.16826148
239	0x3bfac527	0.007652897
240	0x3d89205c	0.06695625
241	0x3dd2a8da	0.10286112
242	0xbe28646a	-0.16444555
243	0xbd997eff	-0.07494926
244	0xbe6c0cc4	-0.23051745
245	0xbe6e9235	-0.23297961
246	0x3d57f521	0.052724008
247	0x3ddd2cc4	0.10799554
248	0x3dd70a59	0.105000205
249	0xbde8815f	-0.113528006
250	0xbe48043f	-0.1953287
251	0x3e2fdf3c	0.17175001
252	0x3e1916e6	0.14950141
253	0x3ca49269	0.020089345
254	0xbe3bd7d8	-0.18344057
255	0xbdf2c6ca	-0.11854322

conv.0.bias f4 [16]
0	0x3d8429a5	0.064532556
1	0xbd2d5071	-0.042313043
2	0xbe2a0399	-0.16602935
3	0x3d3baa03	0.045816433
4	0xbdf84778	-0.121230066
5	0x3e568aa0	0.20951319
6	0xbe0fc825	-0.14041193
7	0xbe06815d	-0.13135286
8	0x3cc18cf3	0.02362678
9	0x3e403e34	0.18773729
10	0xbe7193e0	-0.23591566
11	0xbd6bd730	-0.057578266
12	0xbe5a6466	-0.21327361
13	0xbe5e514a	-0.21710697
14	0xbd748846	-0.059700273
15	0xbe6d02f3	-0.23145656

conv.3.weight f4 [32, 16, 3, 3]
0	0xbc54b175	-0.012981762
1	0x3cc3f2b3	0.023919439
2	0x3be243b5	0.006905044
3	0xbd97d577	-0.07413762
4	0xbc3bd9a5	-0.011465465
5	0xbd8f5afb	-0.06999775
6	0x3d65af60	0.056075454
7	0x3ca23ad6	0.019803446
8	0xbc843a31	-0.01614103
9	0xbcd7cb10	-0.026341945
10	0xbd9d6e3b	-0.076870404
11	0x3c1f3e15	0.009719391
12	0x3d6185c4	0.05505921
13	0x3d55f284	0.052233234
14	0x3be5e27d	0.007015525
15	0xbdac22d6	-0.08405082
16	0x3d79a91c	0.06095229
17	0xbd688ed1	-0.056776825
18	0xbd146530	-0.036229312
19	0x3ca38199	0.019959258
20	0x3d2f7bc6	0.04284265
21	0x3d533a04	0.051569
22	0xbd043337	-0.032275405
23	0x3d1c96a4	0.0382296
24	0xbda91676	-0.08256237
25	0x3d58c676	0.052923642
26	0xbd686262	-0.05673445
27	0x3d035ba1	0.032069806
28	0x3d77d4bc	0.060505614
29	0xbc9cdc8f	-0.01914814
30	0xbd4ab2b1	-0.04948682
31	0xbd609e67	-0.054838564
32	0xbc94d4f6	-0.018167954
33	0xbd1f79ef	-0.038934644
34	0xbc7a9f13	-0.015296715
35	0x3d277ccb	0.040890496
36	0xbd914a03	-0.07094195
37	0xbd5b2805	-0.053504962
38	0x3d8935e7	0.06699734
39	0xbcd5afe4	-0.026084848
40	0xbd05c93e	-0.032662623
41	0xbd7a11a6	-0.061051987
42	0xbd6dbc17	-0.058040705
43	0x3d2b51d8	0.0418261
44	0x3d301cc2	0.042996176
45	0x3cb18277	0.021668656
46	0x3cd4c8ab	0.025974592
47	0xbda62bd4	-0.08113828
48	0xbbc99dce	-0.006152845
49	0x3c11302c	0.008861583
50	0x3d1b298a	0.03788141
51	0xbd269595	-0.040669996
52	0x3cd9d1e0	0.026589334
53	0x3d40ff9a	0.04711876
54	0xbc561fa1	-0.013069064
55	0xbca8f183	-0.020622974
56	0xbd9938b4	-0.074815184
57	0x3d7112df	0.058855888
58	0xbd850b9f	-0.06496357
59	0x3d18eb12	0.037333556
60	0xbc60d302	-0.013722183
61	0xbd985670	-0.07438362
62	0xbc8b7de9	-0.017027812
63	0xbd8c6d43	-0.068567775
64	0xbd8c8078	-0.06860441
65	0x3bdfca84	0.0068295617
66	0xbdb24388	-0.08704287
67	0x3cc21b63	0.0236947
68	0xbdc7dca2	-0.09758879
69	0xbd453392	-0.048144884
70	0xbd1db5d6	-0.03850349
71	0xbd467b0e	-0.048457198
72	0xbd9b9c5a	-0.07598181
73	0xbdc41f7d	-0.095763184
74	0x3d3f7ac6	0.046747945
75	0xbd9b05e8	-0.07569486
76	0x3b1025fb	0.0021995294
77	0xbbcfba43	-0.006339343
78	0xbd9a0eca	-0.07522352
79	0xbcd9eaa0	-0.026601136
80	0xbd059c05	-0.032619495
81	0x3d7a1bfe	0.06106185
82	0xbdbcb86f	-0.092148654
83	0xbd530190	-0.051515162
84	0xbdb9a42b	-0.09064516
85	0xbdabbd70	-0.08385742
86	0x3d8c9b09	0.06865508
87	0x3c6adbac	0.0143346
88	0xbd19f0dd	-0.03758322
89	0x3d424de1	0.047437552
90	0x3d6f6cee	0.058453493
91	0xbc91acd4	-0.017782606
92	0x3c3851ab	0.01124994
93	0xbd1ff74e	-0.039054208
94	0xbd538bad	-0.051646877
95	0x3d59e237	0.05319425
96	0xbd48caab	-0.049021404
97	0x3c80a48a	0.015703458
98	0xbd5d896c	-0.054086134
99	0x3d38b621	0.045095567
100	0x3d4fcd53	0.05073292
101	0xbd15682e	-0.036476307
102	0xbce68afc	-0.028142445
103	0xbcaa1c18	-0.02076535
104	0xbdade834	-0.08491555
105	0xbb85482f	-0.004067443
106	0x3d0d4488	0.034489185
107	0x3dab2b8d	0.08357916
108	0xbc5145f7	-0.012773029
109	0x3d486ee0	0.048933864
110	0x3d48c4c3	0.04901577
111	0x3d439c03	0.047756206
112	0xbcfd6e10	-0.030936271
113	0x3d10285e	0.035194747
114	0xbd0d7438	-0.034534663
115	0xbd1ec0e4	-0.038758174
116	0x3d315be6	0.04330053
117	0xbda589ee	-0.080829486
118	0xbd90c3c7	-0.070685916
119	0xbd4f4faf	-0.0506131
120	0xbcdca76c	-0.026935302
121	0xbd4c1c0e	-0.049831443
122	0xbd3afd58	-0.045651764
123	0xbd475922	-0.048668988
124	0x3d96b407	0.07358556
125	0x3d58cb91	0.05292851
126	0xbd26b2cf	-0.04069787
127	0x3ce7c6af	0.028292982
128	0xbca316ee	-0.019908395
129	0xbd46048e	-0.048344187
130	0xbc526b50	-0.012842968
131	0x3d8e0815	0.06935135
132	0x3d025792	0.031821795
133	0xbd44f1c4	-0.04808213
134	0xbd26f00e	-0.040756278
135	0xbc91fa22	-0.017819468
136	0x3c8eaf78	0.017417654
137	0xbc1f8a59	-0.0097375745
138	0xbba781c5	-0.0051119053
139	0x3ca81e3f	0.020522235
140	0xbdb4eda9	-0.088343926
141	0x3be8f2af	0.0071090083
142	0x3bc330c1	0.0059567397
143	0xbc220c05	-0.009890561
144	0x3d94c0ac	0.07263312
145	0x3c166527	0.00917939
146	0xbd458971	-0.048226777
147	0x3d4d77dc	0.050163135
148	0xbd6fefee	-0.058578424
149	0x3d658e4c	0.056043908
150	0xbd3f200a	-0.046661414
151	0xbc16f769	-0.009214261
152	0x3d24b75b	0.040213924
153	0xbdb74553	-0.089487694
154	0x3d8d2cde	0.06893323
155	0xbd287eeb	-0.041136663
156	0xbb6089b0	-0.0034261756
157	0x3ae58b20	0.0017512776
158	0xbcf0a9c7	-0.029377831
159	0x3d647fdd	0.055786002
160	0xbd8ccde4	-0.06875208
161	0x3d992c2b	0.074791275
162	0xbd51ff6d	-0.051268984
163	0x3d785a0c	0.06063275
164	0xbd4168cd	-0.047219086
165	0x3d6e1d87	0.05813363
166	0xbc97c70e	-0.018527534
167	0xbd00c3f0	-0.03143686
168	0xb9722fbc	-0.00023096701
169	0xbd1de00b	-0.038543742
170	0xbcf0c5a7	-0.029391123
171	0x3cec1b45	0.028821597
172	0x3d67aee7	0.056563284
173	0xbc623818	-0.013807319
174	0xbd25845f	-0.040409442
175	0xbd237f2a	-0.039916195
176	0xbb4d9269	-0.0031367785
177	0xbda7fe46	-0.08202796
178	0x3d64648b	0.055759948
179	0xbcb5c79e	-0.022189911
180	0xbd404fdf	-0.04695117
181	0x3da656bd	0.08122013
182	0xbdb13895	-0.0865337
183	0xbd528620	-0.051397443
184	0xbdaa4480	-0.083138466
185	0xbd5ddf28	-0.054167897
186	0x3c2a0047	0.010376043
187	0x3d20ee6a	0.03928987
188	0x3c2be7ae	0.010492248
189	0xbc77cd12	-0.015124576
190	0xbd0694cd	-0.03285675
191	0x3c911ed5	0.017714897
192	0xbbcf6b5a	-0.006329936
193	0x3c3a223c	0.011360701
194	0x3d868e32	0.0657009
195	0xbc985a48	-0.018597737
196	0x3cd520fd	0.026016707
197	0xbd9cb31f	-0.07651352
198	0xbd8fb8ee	-0.070176944
199	0xbd4cad1e	-0.049969785
200	0xbd88ca1b	-0.066791736
201	0xbbc420b2	-0.005985343
202	0xbd69ae2f	-0.05705088
203	0x3d711c3a	0.05886481
204	0x3cebbe8a	0.02877738
205	0xbd872689	-0.06599147
206	0xbc9c5954	-0.019085564
207	0x3da90fbc	0.08254954
208	0x3d1f7900	0.038933754
209	0x3bb7d6a2	0.005610303
210	0x3d77f24c	0.060533807
211	0x3d2dfd49	0.04247788
212	0xbdb11d03	-0.08648112
213	0x3cfd5939	0.030926334
214	0xbd8d0583	-0.06885817
215	0xbd251a8a	-0.040308513
216	0x3d0d1839	0.03444693
217	0x3b2a3265	0.002596998
218	0x3d588402	0.052860267
219	0xbc223e48	-0.009902544
220	0x3cf34799	0.029697226
221	0xbcbe0177	-0.023194058
222	0xbd0483c2	-0.032352217
223	0xbc896611	-0.016772302
224	0x3cabe059	0.020981
225	0x3b169882	0.0022979085
226	0xbd8b9ed4	-0.068174034
227	0x3d2acc4a	0.04169873
228	0x3c9e3187	0.019310726
229	0x3cac52b6	0.021035533
230	0xbc4bfdfe	-0.012450693
231	0x3d6b7c97	0.057491865
232	0x3d9a6be7	0.07540112
233	0xbd79976b	-0.06093542
234	0x3d7d3fb1	0.06182832
235	0x3d6634d1	0.056202713
236	0x3d3ea4e9	0.04654399
237	0x3d7f34b2	0.062306114
238	0xbd9d6275	-0.07684795
239	0xbd32ebc7	-0.043681886
240	0xbc2b6931	-0.010462091
241	0x3ca3e3db	0.02000611
242	0xbd4cbbbb	-0.04998372
243	0xbcc905ea	-0.024538953
244	0x3cf74266	0.030183028
245	0x3d8944ec	0.06702599
246	0xbd0b63b4	-0.03403063
247	0xbdae734a	-0.085180834
248	0x3d4c5168	0.049882323
249	0x3d41db03	0.047328006
250	0xbd6ddff9	-0.058074925
251	0xbcf46ee3	-0.029838031
252	0x3d326510	0.043553412
253	0xbdc33f0f	-0.09533512
254	0xbdbd2aa3	-0.09236648
255	0x3c2857ca	0.010274837

conv.3.bias f4 [32]
0	0x3d36762d	0.044546295
1	0xbd2b42a5	-0.041811604
2	0x3d362f62	0.04447878
3	0xbdaa6da4	-0.083216935
4	0xbd92a315	-0.07160012
5	0x3d1dd064	0.038528815
6	0xbdd378cd	-0.10325775
7	0x3c5f05cc	0.013612222
8	0xbd1151b5	-0.035478313
9	0x3db68ee5	0.08913974
10	0x3d27af63	0.040938746
11	0xbc41944a	-0.01181514
12	0xbdc2b58f	-0.09507286
13	0xbcf6323c	-0.03005325
14	0x3d9c2447	0.07624107
15	0x3d102423	0.035190713
16	0xbd9f1995	-0.07768551
17	0x3a5ecfe5	0.00084996066
18	0x3cac2fe6	0.021018934
19	0xbdaa645c	-0.08319923
20	0xbda1faca	-0.07909162
21	0xbde589e6	-0.11207943
22	0x3d533f6d	0.05157416
23	0xbd37f13c	-0.044907793
24	0xbdbd2685	-0.09235863
25	0xbd26aae4	-0.040690318
26	0x3d84a653	0.06477036
27	0xbcbfde20	-0.023421347
28	0x3d009ba3	0.031398427
29	0x3cc96d06	0.02458812
30	0xbc8cdb89	-0.017194526
31	0xbd4858e6	-0.048912905

fc.0.weight f4 [128, 128]
0	0x3d699512	0.05702693
1	0xbc5c3b0d	-0.013441813
2	0xbca3ac64	-0.019979663
3	0x3cae16dc	0.021251135
4	0xbd944d57	-0.07241314
5	0xbdc42c08	-0.09578711
6	0xbddc8808	-0.107681334
7	0xbd796e44	-0.060896173
8	0x3d072ce0	0.03300178
9	0xbb843e80	-0.004035771
10	0x3d16f2b5	0.036852557
11	0xbda64ae5	-0.08119754
12	0xbd5b98f4	-0.053612664
13	0x3d9f5cc3	0.07781365
14	0xbd9adf40	-0.07562113
15	0x3d853ad7	0.065053634
16	0x39820b00	0.00024803728
17	0xbce211fe	-0.02759647
18	0xbd3a9e7a	-0.04556129
19	0xbda70f52	-0.08157219
20	0xbd19efb6	-0.03758212
21	0xbc73ce39	-0.01488071
22	0x3c81418d	0.015778327
23	0xbc85face	-0.016354945
24	0x3d12b8bc	0.035820708
25	0x3d06568e	0.03279739
26	0x3cfd3dcc	0.030913256
27	0x3d54bf86	0.051940463
28	0xbdd0ed2f	-0.10201489
29	0xbd86a6f5	-0.06574813
30	0xbd96681b	-0.07344075
31	0xbd9dea88	-0.07710749
32	0xbd03a5a3	-0.032140385
33	0xbd3deace	-0.046366505
34	0x3d83f9ff	0.06444167
35	0xbbcf3ca0	-0.0063243657
36	0x3d668d46	0.056287073
37	0x3d218f02	0.039443024
38	0xba371b00	-0.00069849193
39	0x3db4df0d	0.08831606
40	0xbba52fb8	-0.005041089
41	0xbd5358f6	-0.05159851
42	0xbcb83ef8	-0.022490963
43	0xbd394ac5	-0.04523732
44	0xbdc775f8	-0.09739298
45	0x3cbc3466	0.022974204
46	0xbc58cf3d	-0.013233003
47	0xbce70756	-0.02820174
48	0x3b7d44e0	0.003864579
49	0x3d152394	0.036410883
50	0xbdb38524	-0.08765629
51	0x3c970094	0.018432893
52	0xbd91f338	-0.071264684
53	0x3b74b520	0.0037339404
54	0x3cdfe76c	0.02733203
55	0xbd62819e	-0.055299394
56	0x3c6bb52c	0.014386456
57	0xbd6efc95	-0.05834635
58	0xbd52bb5d	-0.051448215
59	0xbd80afc5	-0.062835254
60	0xbdc7d253	-0.09756913
61	0xbd39a01c	-0.045318708
62	0xbd7f4c1f	-0.062328454
63	0x3d81eb05	0.063436545
64	0xbda2ddd5	-0.07952467
65	0x3d3ef58f	0.0466209
66	0x3d09c998	0.03363952
67	0xbd5102c5	-0.05102803
68	0xbd2aeb88	-0.041728526
69	0x3c92cd5d	0.01792019
70	0x3d5641ea	0.052308954
71	0x3cb2c702	0.02182341
72	0xbab58a1d	-0.0013850365
73	0x3d3f9250	0.046770394
74	0xbd1872d6	-0.03721889
75	0xbd118c76	-0.035534345
76	0x3cfba54c	0.030718468
77	0xbdb472d9	-0.08810968
78	0xbd07d24f	-0.03315955
79	0xbd7cd3a9	-0.061725292
80	0x3b915bb0	0.004435979
81	0x3d20eabc	0.03928636
82	0xbd076f94	-0.033065394
83	0xbcd279bf	-0.025692819
84	0x3d077492	0.033070154
85	0xbccdf4c8	-0.025141135
86	0xbd724000	-0.059143066
87	0xbcd1c440	-0.025606275
88	0xbd958a4c	-0.07301769
89	0xbd8e54ac	-0.06949744
90	0xbc2cee8a	-0.010554919
91	0xbdc7194f	-0.09721624
92	0xbd6cf229	-0.05784813
93	0xbd200260	-0.039064765
94	0x3d843c1b	0.06456777
95	0xbd469b9b	-0.04848824
96	0xbd8dbbf6	-0.06920616
97	0xbd6d31c4	-0.05790879
98	0x3d9873bd	0.0744395
99	0x3d9f9e53	0.0779387
100	0xbdc26a40	-0.09492922
101	0xbd96469c	-0.073376864
102	0xbdac110c	-0.08401689
103	0x3c3405e9	0.010987737
104	0xbd889291	-0.0666858
105	0xbc5dc8dc	-0.013536658
106	0xbc17a6c2	-0.009256067
107	0xbda869d5	-0.08223311
108	0x3d86345b	0.06552955
109	0xbd8f0794	-0.06983867
110	0xbd1b82e0	-0.03796661
111	0xbd5f822a	-0.054567493
112	0xbba4df37	-0.005031492
113	0x3d148ceb	0.036267202
114	0x3d976009	0.07391364
115	0xbc28f964	-0.010313366
116	0xbdd50595	-0.10401455
117	0xbd95324c	-0.07284984
118	0x3a7541c4	0.0009355808
119	0xbbc64dcc	-0.0060517546
120	0x3d89114b	0.066927515
121	0x3d9fac7f	0.07796573
122	0xbd818464	-0.0632408
123	0xbcbd6d9c	-0.023123555
124	0xbcb22648	-0.02174677
125	0xbdc72725	-0.09724263
126	0xbd9d7817	-0.07688921
127	0x3d5bee87	0.053694274
128	0xbd9a15a3	-0.07523658
129	0x3bf9c610	0.007622488
130	0xbda03e8d	-0.078244306
131	0x3b9cbdc0	0.004783362
132	0x3d292326	0.041293286
133	0x3cee423c	0.029084317
134	0xbd2f4cc3	-0.042797815
135	0xbd1f1d46	-0.038846277
136	0x3d8eac11	0.06966413
137	0xbda87b1c	-0.08226606
138	0xbd830977	-0.0639829
139	0x3d808a51	0.06276382
140	0xbd9bfd07	-0.076166205
141	0xbc86b5e4	-0.016444154
142	0xbd8d2ddb	-0.06893512
143	0xbce46eba	-0.02788483
144	0x3da2f44f	0.079567544
145	0x3d756566	0.059911154
146	0x3ba32950	0.00497929
147	0xbdb3a02a	-0.08770783
148	0xbc67c730	-0.014146611
149	0xbd7e682e	-0.062111072
150	0xbda418ec	-0.08012566
151	0xbd4412f8	-0.047869653
152	0xbd1ffbbf	-0.039058443
153	0xbd36a5e1	-0.04459179
154	0x3c2277d0	0.009916261
155	0xbd9bafc4	-0.07601884
156	0xbdb472c8	-0.08810955
157	0xbc6929f8	-0.014231198
158	0x3d99cbc9	0.07509572
159	0x3d45dd86	0.048306964
160	0x3d070f4a	0.032973565
161	0x3d3ef9de	0.04662501
162	0x3d747d26	0.059689663
163	0xbd0def5e	-0.034652106
164	0xbd7d181e	-0.061790578
165	0xbd062a9e	-0.032755487
166	0xbd1ef695	-0.038809378
167	0x3d8fd543	0.07023098
168	0x3d54fad2	0.051997013
169	0xbd8418ce	-0.064500436
170	0x3bab3060	0.0052242726
171	0x3d0377f6	0.032096826
172	0xbc8b1540	-0.016977906
173	0x3d9c9bad	0.0764688
174	0x3d12405a	0.0357059
175	0x3b994970	0.004677944
176	0xbd0cb5a2	-0.034352906
177	0xbdabd713	-0.083906315
178	0x3cf26f0c	0.029593967
179	0xbd99af92	-0.075041905
180	0xbcfa9c0a	-0.030591983
181	0x3bfe7990	0.007765956
182	0x3c917abc	0.01775872
183	0xba9ce280	-0.0011969358
184	0xbda43199	-0.080172725
185	0xbd5a25db	-0.053258758
186	0xbd6b7562	-0.05748499
187	0x3da127db	0.0786893
188	0x3d03f65e	0.032217376
189	0xbcbb80f4	-0.022888638
190	0x3cbf99f8	0.023388848
191	0x3d343366	0.04399433
192	0x3c470ca0	0.012149006
193	0xbce5acf8	-0.02803658
194	0x3d89debf	0.067319386
195	0x3a10f800	0.0005530119
196	0x3d1af496	0.03783091
197	0xbd944811	-0.07240308
198	0x3c169680	0.009191155
199	0xbd323c1f	-0.043514367
200	0xbdb3d760	-0.08781314
201	0xbd1c187b	-0.038109284
202	0xbd5b53c2	-0.053546675
203	0x3d9f5ebd	0.07781742
204	0xbcaada84	-0.02085615
205	0x3d601896	0.054710947
206	0x3d9a8bd5	0.07546202
207	0xbd1d91a5	-0.038468976
208	0xbcc69498	-0.024240777
209	0xbd45b9a7	-0.048272755
210	0x3d5fe39e	0.054660432
211	0x3db180fd	0.08667181
212	0xbb1258a0	-0.0022330657
213	0xbdabffdf	-0.08398413
214	0xbd39610a	-0.04525856
215	0x3af99c40	0.0019043759
216	0xbd79a929	-0.06095234
217	0x3c868d74	0.016424872
218	0x3d4b9a76	0.049707852
219	0x3d075252	0.03303749
220	0x3c9cb87c	0.019130938
221	0xbd85b9f6	-0.0652961
222	0xbbe80b00	-0.0070813894
223	0x3c70bb98	0.014693163
224	0x3c3f27e8	0.011667229
225	0xbda36ca5	-0.07979707
226	0x3c090640	0.0083633065
227	0x3cf22028	0.029556349
228	0x3d458936	0.048226558
229	0xbd4abca4	-0.049496308
230	0xbd53998f	-0.051660117
231	0xbd678adf	-0.056528922
232	0xbd90ea35	-0.070759214
233	0xbd383c60	-0.044979453
234	0x3ca51654	0.020152248
235	0xbd116d1e	-0.035504453
236	0xbd4fd842	-0.05074335
237	0xbce17da8	-0.027525738
238	0xbd4622d3	-0.048373055
239	0xbd138008	-0.036010772
240	0xbd80e8dc	-0.062944144
241	0xbd186fb5	-0.037215907
242	0x3b9c8820	0.0047769696
243	0x3b2fd2e0	0.0026828572
244	0x3c1cb1d8	0.009563886
245	0x3d813801	0.0630951
246	0xbd1b61e8	-0.037935168
247	0xbd89277c	-0.06696984
248	0xbcf34416	-0.029695552
249	0xbcdd06ee	-0.026980843
250	0xbdab54a7	-0.083657555
251	0x3da248f1	0.07924069
252	0xbd2cae43	-0.042158376
253	0x3d93b479	0.07212157
254	0x3cffcf30	0.031226724
255	0xbd31e541	-0.043431524

fc.0.bias f4 [128]
0	0xbda72c88	-0.081627905
1	0xbd17fd53	-0.037106823
2	0x3d5f3687	0.05449536
3	0xbcf0054f	-0.029299406
4	0x3d52d020	0.051468015
5	0x3d11d1c7	0.03560045
6	0xbd4337ae	-0.047660522
7	0xbda15baa	-0.07878812
8	0x3d4ee3ab	0.05051009
9	0x3c56d521	0.013112337
10	0xbc714ec4	-0.014728252
11	0x3dc05bb3	0.0939249
12	0x3ca798b4	0.020458557
13	0xbdc23cee	-0.09484278
14	0x3d00ea78	0.031473607
15	0xb9ece328	-0.00045182672
16	0xbd85edb6	-0.065394804
17	0xbc41228b	-0.011788021
18	0x3c917169	0.017754273
19	0xbd83ca67	-0.064350896
20	0xbd63beea	-0.05560199
21	0xbd261e73	-0.040556382
22	0xbd99ac16	-0.07503526
23	0xbd9e5d40	-0.0773263
24	0x3c8cc131	0.017181965
25	0xbd16432d	-0.036685158
26	0x396a2b85	0.00022332191
27	0xbdc1943c	-0.094521016
28	0xbc073b13	-0.0082538305
29	0x3d2e9e81	0.04263163
30	0xbdabce8f	-0.08389007
31	0x3cf26d25	0.02959306
32	0xbd3fd70e	-0.04683595
33	0x3d1f327e	0.038866512
34	0xbc8986cc	-0.016787909
35	0xbdc27679	-0.09495253
36	0xbc0dd26d	-0.008656126
37	0xbdaa5b43	-0.08318188
38	0x3db30904	0.08741954
39	0xbd90dd91	-0.070735104
40	0xbd2a2244	-0.041536584
41	0x3d730158	0.059327453
42	0xbd1c1a7c	-0.038111195
43	0xbd5dcca6	-0.054150246
44	0x3cc786d1	0.024356278
45	0x3d4c8683	0.049932968
46	0x3c52a378	0.012856357
47	0x3dcde5d4	0.10053602
48	0xbd9da213	-0.07696929
49	0xbc0dc5cc	-0.0086531155
50	0xbdb77e18	-0.08959597
51	0x3a55b571	0.0008152342
52	0xbdd2a483	-0.10285284
53	0x3c3044fd	0.010758636
54	0x3d1a55fb	0.037679654
55	0x3ce1e51d	0.02757507
56	0xbd5ac286	-0.05340817
57	0xbda85bdc	-0.08220646
58	0x3d7afbde	0.061275356
59	0x3d947f48	0.072508395
60	0xbd7c4808	-0.06159213
61	0xbd988828	-0.07447845
62	0xbdac8c44	-0.08425191
63	0xbd745003	-0.059646618
64	0xbd4ae235	-0.049532134
65	0x3d123c98	0.035702318
66	0xbdade1af	-0.08490311
67	0xbc922b1b	-0.01784282
68	0xbdc2161e	-0.09476875
69	0x3d8199ee	0.06328188
70	0x3cf1074c	0.029422425
71	0xbc86f6bf	-0.01647508
72	0xbdab3418	-0.083595455
73	0xbdbdff2a	-0.09277184
74	0xbd5ccdd6	-0.053907238
75	0x3d4fbf89	0.05071977
76	0xbd618b6f	-0.055064615
77	0xbbe9f0f4	-0.0071393196
78	0x3df2af15	0.118498005
79	0x3d1ae9f0	0.037820756
80	0xbdbdba79	-0.092640825
81	0x3c25c5bc	0.010117944
82	0xbd66ddaf	-0.056363758
83	0x3c964f74	0.018348433
84	0x3c16652b	0.009179394
85	0xbd16dcfe	-0.03683185
86	0xbd6e866f	-0.058233675
87	0xbd1cff08	-0.038329154
88	0x3ce00f77	0.027351124
89	0x3d8d52bf	0.06900548
90	0xbddc15ab	-0.1074632
91	0x3c3998ce	0.011327935
92	0xbd9242ab	-0.07141622
93	0xbd979a64	-0.074024945
94	0xbc08baba	-0.0083453
95	0xbd672167	-0.05642834
96	0xbd34d3ef	-0.044147428
97	0xbd153d30	-0.036435306
98	0xbcfffe59	-0.031249212
99	0x3d8e62e0	0.06952453
100	0xbdab90c6	-0.08377223
101	0x3c11aa79	0.0088907415
102	0xbc00facd	-0.007872296
103	0x3ce3131f	0.027719079
104	0xbd84ab76	-0.06478016
105	0xbc0078d8	-0.007841311
106	0x3ce5ea17	0.028065724
107	0xbc06b3b5	-0.008221556
108	0xbdc2a5fd	-0.09504316
109	0xbd7f0683	-0.06226207
110	0x3caead4e	0.021322872
111	0x3ccc5ae7	0.02494569
112	0x3d10484f	0.03522521
113	0x3cebc142	0.028778676
114	0xbdb1ffbc	-0.086913556
115	0x3d81112b	0.06302103
116	0x3d466cd9	0.04844365
117	0x3d142067	0.036163714
118	0xbd8185ce	-0.06324349
119	0xbce2daa9	-0.027692156
120	0x3d53fdce	0.05175572
121	0x3c3399a6	0.010961926
122	0xbda666db	-0.08125087
123	0xbce335c8	-0.027735606
124	0x3da23199	0.07919616
125	0x3e007b4a	0.12547031
126	0xbced6553	-0.02897898
127	0xbccbb007	-0.02486421

fc.2.weight f4 [64, 128]
0	0x3ce07d5b	0.027403524
1	0x3c92deb4	0.017928459
2	0xbcac9c94	-0.021070756
3	0xbcaa32a4	-0.0207761
4	0xbd8893e8	-0.06668836
5	0x3d89a6ba	0.06721254
6	0x3d7e42ef	0.06207555
7	0xbb9d7f33	-0.004806423
8	0x3d6fcc2c	0.058544323
9	0xbcf37bbc	-0.029722087
10	0x3d1fb5a9	0.038991604
11	0xbcdd3112	-0.027000938
12	0x3cc23a8f	0.023709564
13	0xbb14f742	-0.0022730385
14	0x3bd0cdcd	0.0063721896
15	0x3cca6258	0.024705097
16	0x3bb4c6c2	0.005516858
17	0x3c6e9b74	0.01456343
18	0x3d6d2e08	0.057905227
19	0x3ba4f05b	0.0050335354
20	0xbab6f879	-0.0013959549
21	0x3cc429ee	0.023945775
22	0xbc725aff	-0.014792203
23	0xbd32e33a	-0.04367373
24	0x3d3e8717	0.04651555
25	0xbbe2f739	-0.006926444
26	0x3d2d9b20	0.042384267
27	0xbcec9a0b	-0.028882047
28	0xbbda5507	-0.006662968
29	0x3db48541	0.08814479
30	0xbd042c01	-0.032268528
31	0xbda365ac	-0.07978377
32	0x3dc1e246	0.09466986
33	0xbd381ac0	-0.044947386
34	0xbd2e7c4a	-0.042599
35	0xbcfc0a2a	-0.030766565
36	0x3d5e13f3	0.054218244
37	0xbd9b1bce	-0.07573663
38	0x3d6f41f5	0.05841251
39	0xbb94df2e	-0.0045432067
40	0x3d8bf9a8	0.068347275
41	0xbd461307	-0.04835799
42	0xbd6c57a8	-0.057700783
43	0x3affc9d3	0.0019515104
44	0x3d248255	0.040163357
45	0xbc805094	-0.015663423
46	0x3dadd59c	0.084880084
47	0x3d286841	0.04111505
48	0x3d868a83	0.06569388
49	0x3d8ca072	0.0686654
50	0xbd0522fe	-0.032504074
51	0xbd30ed70	-0.043195188
52	0x39c60adc	0.00037773594
53	0xbd48cae7	-0.049021628
54	0x3d970dd3	0.07375684
55	0x3d67e254	0.056612328
56	0xbc33618b	-0.010948549
57	0xbaf72b1e	-0.0018857454
58	0x3dabecb9	0.08394761
59	0x3d1accef	0.037793096
60	0x3d547c9d	0.051876653
61	0xbd83e884	-0.06440833
62	0x3cbd4af6	0.023107033
63	0x3d9f6552	0.07782997
64	0xbda5764b	-0.08079203
65	0xbd4cb0e8	-0.0499734
66	0x3d5a9310	0.053362906
67	0x3d8bde94	0.06829563
68	0xbd2fc64a	-0.042913713
69	0xbd93fffb	-0.07226559
70	0xbc771435	-0.015080501
71	0xbd66a1e0	-0.05630672
72	0x3c128dc7	0.008944935
73	0x3d47052e	0.048588924
74	0x3bbcbe65	0.0057600015
75	0xbd6788fa	-0.056527115
76	0xbcdf1cb4	-0.027235366
77	0x3ce9012f	0.028442947
78	0x3da3702d	0.0798038
79	0xbda19377	-0.07889455
80	0xbda1551d	-0.07877562
81	0xbd8fe57d	-0.07026193
82	0xbd88e5be	-0.06684445
83	0x3d3be261	0.04587019
84	0xbd889b42	-0.06670238
85	0x3d79d315	0.06099232
86	0xbb94cada	-0.0045407834
87	0xbcf793de	-0.030221876
88	0x3d4d1567	0.05006924
89	0xbd3ded92	-0.046369143
90	0x3c5d8677	0.013520828
91	0x3d821b68	0.063528836
92	0x3da2f41c	0.079567164
93	0x3b64d5cd	0.0034917474
94	0x3c413591	0.011792556
95	0xbc751279	-0.0149580175
96	0x3d55413a	0.052064158
97	0x3d61a296	0.055086695
98	0x3d6c4fc1	0.057693247
99	0xbd4f5e6d	-0.05062716
100	0xbd44165b	-0.047872882
101	0xbdac79b1	-0.08421648
102	0x3d0b404c	0.033996865
103	0xbbb480d9	-0.005508524
104	0xbb8480ac	-0.004043659
105	0xbd4203a3	-0.04736675
106	0xbc568bcb	-0.013094853
107	0xbb5966f1	-0.003317293
108	0xbd1c968f	-0.03822952
109	0xbd3aa0ee	-0.04556363
110	0x3cf560fd	0.029953474
111	0xbd8b0611	-0.067882665
112	0xbd61cbe8	-0.0551261
113	0x3db01fd7	0.08599823
114	0xbde74ae4	-0.11293581
115	0xbd7ed4ef	-0.062214788
116	0x3d22ae07	0.039716747
117	0xbc944a34	-0.018101789
118	0xbd1006fa	-0.035162903
119	0xbd7bfa3d	-0.061517943
120	0x3d74ef7d	0.059798706
121	0x3d96c389	0.07361514
122	0xbd003e11	-0.03130919
123	0x3bbe64fe	0.005810379
124	0xbd822459	-0.06354589
125	0x3cb66371	0.022264214
126	0x3c892a09	0.016743677
127	0x3d4e6ff1	0.050399724
128	0x3db3a81b	0.08772298
129	0xbba28000	-0.0049591064
130	0xbce59113	-0.028023278
131	0xbce24208	-0.027619377
132	0xbd6bb3ac	-0.057544395
133	0x3da4f24d	0.08054028
134	0xbc35f38b	-0.011105428
135	0x3d6f54da	0.05843053
136	0x3d723cce	0.05914002
137	0xbbcee68c	-0.0063141044
138	0x3c326ff0	0.010890946
139	0xbc9012f3	-0.01758716
140	0xbd6b2827	-0.05741134
141	0xbdab8922	-0.083757654
142	0x3d39b93f	0.04534268
143	0x3d61376e	0.054984502
144	0xbd9639e1	-0.07335258
145	0xbb4f1060	-0.0031595454
146	0x3d416b72	0.04722161
147	0xbd6e6ada	-0.05820737
148	0x3da0a2bf	0.07843541
149	0x3cdd0ddc	0.026984148
150	0xbd656693	-0.056006026
151	0xbccdf9b7	-0.025143487
152	0x3d32140b	0.043476146
153	0x3d524682	0.051336773
154	0x3d067c9c	0.03283368
155	0xbda9e389	-0.08295352
156	0x3d4e5e03	0.050382625
157	0xbd8a6aea	-0.067586735
158	0x3b9bd8bb	0.004756061
159	0x3c6ead70	0.014567718
160	0xbd550c50	-0.052013695
161	0x3d1a3522	0.037648328
162	0x3db9c14c	0.090700716
163	0xbc3795c0	-0.011205137
164	0x3d0d7863	0.034538638
165	0x3d9286c1	0.071546085
166	0xbb77d217	-0.0037814432
167	0x3cf7f3fc	0.030267708
168	0xbd8cda1a	-0.06877537
169	0xbbff7750	-0.0077962056
170	0xbd8b4fe1	-0.06802345
171	0x3cd9ed24	0.026602335
172	0xbbc39a20	-0.005969301
173	0xbd50b6fb	-0.050955754
174	0xbda01bb5	-0.07817785
175	0xbdab6588	-0.08368975
176	0xbbf9f940	-0.00762859
177	0x3d99d36d	0.075110294
178	0xbd25d802	-0.040489204
179	0x3c1e7d50	0.0096734315
180	0xbd1d995d	-0.038476337
181	0x3bde3a70	0.0067818686
182	0x3d0ee4aa	0.03488604
183	0x3d71e8a6	0.05905976
184	0xbd99526c	-0.07486424
185	0x3a52a900	0.0008036047
186	0x3cc28cec	0.023748837
187	0xbcefa3da	-0.029252935
188	0xbd43a903	-0.047768604
189	0xbc610768	-0.013734676
190	0xbdaf7c91	-0.08568681
191	0xbd8781a4	-0.06616524
192	0xbd6e2b3b	-0.058146697
193	0x3d807f9f	0.06274342
194	0x3bfebec8	0.0077742077
195	0x3d5be617	0.053686228
196	0xbdb387e7	-0.08766156
197	0x3cc7d9cc	0.024395846
198	0xbcf7cdfd	-0.03024959
199	0x3da2b7ab	0.07945188
200	0xbd249941	-0.040185217
201	0x3b97af60	0.0046290606
202	0xbd8f94ee	-0.07010828
203	0x3d112e94	0.03544481
204	0xbcc758fc	-0.024334423
205	0x3cf2fc7c	0.02966141
206	0x3d8b330d	0.067968465
207	0xbd5cbf2b	-0.05389325
208	0x3d5f7194	0.054551676
209	0x3cdb4a81	0.026768925
210	0x3d74f2ea	0.059801973
211	0x3ac9f54c	0.0015408187
212	0x3cb4a53b	0.022051444
213	0xbb45d62d	-0.0030187473
214	0xbb86e280	-0.0041163564
215	0xbdac8648	-0.084240496
216	0xbda4c6c3	-0.08045723
217	0xbc96f9d8	-0.018429682
218	0x3d8a2657	0.06745594
219	0xbd88923a	-0.066685155
220	0x3db323e3	0.08747079
221	0x3bc0b7d0	0.005881287
222	0xbd539c96	-0.051663004
223	0x3d8c85cd	0.06861458
224	0xbdb2b4f8	-0.08725923
225	0xbd1c1c07	-0.038112666
226	0x3d724565	0.05914821
227	0xbd11f416	-0.03563317
228	0x3d49652e	0.049168758
229	0xbcc13318	-0.023583934
230	0xbd57c912	-0.05268199
231	0xbbc347c6	-0.005959484
232	0xbce7f9b2	-0.028317306
233	0x3d92d33f	0.07169198
234	0xbda78860	-0.08180308
235	0xbc5c1248	-0.013432093
236	0xbda9343a	-0.082619146
237	0xbc09fbe8	-0.008421876
238	0xbdb2d272	-0.087315455
239	0xbc0e1890	-0.008672848
240	0x3d11d316	0.035601698
241	0xbd249744	-0.04018332
242	0x3be722d0	0.0070537105
243	0xbdb7ecb0	-0.089806914
244	0x3d4f555f	0.050618526
245	0xbd28b8f1	-0.041192
246	0x3d266aba	0.040629126
247	0x3d305e2e	0.043058567
248	0xbd9d5ca2	-0.07683684
249	0xbd958644	-0.07301
250	0xbd73d10b	-0.05952553
251	0xbd7af264	-0.061266318
252	0xbda169f2	-0.078815356
253	0x3d57257a	0.052525975
254	0xbd13c8b3	-0.036080074
255	0x3d0c32b0	0.034228027

fc.2.bias f4 [64]
0	0x3dd8ca82	0.105855
1	0xbdb66c2a	-0.089073494
2	0xbda5acd9	-0.08089609
3	0x3df28356	0.118414566
4	0x3ce2831d	0.02765041
5	0xbd07a95f	-0.03312051
6	0xbb3a7198	-0.0028449055
7	0x3d945cea	0.072442845
8	0xbd9f1205	-0.07767109
9	0x3d842d28	0.06453925
10	0x3deb6f8c	0.11495885
11	0xbceaf873	-0.028682923
12	0x3db9ec65	0.09078292
13	0xbda9be70	-0.08288276
14	0xbc2ee7be	-0.010675369
15	0xbd1f3dfb	-0.03887747
16	0x3e205d01	0.15660478
17	0x3cc1dfd4	0.0236663
18	0x3ca6e4f2	0.020372842
19	0xbcebbeca	-0.028777499
20	0xbb3e7b8f	-0.0029065346
21	0xbc8c8a20	-0.017155707
22	0xbd878b31	-0.066183455
23	0xbd5fa91a	-0.054604627
24	0x3e0ea547	0.13930236
25	0x39e535e1	0.00043718427
26	0x3c9a42d3	0.018830692
27	0x3d49d02e	0.0492708
28	0xbc94e3bc	-0.018174998
29	0xbd84453c	-0.06458518
30	0x3d8ac0c8	0.06775051
31	0xbcffba35	-0.03121672
32	0x3def7bf3	0.11693563
33	0x3e1b25b8	0.15151107
34	0x3ae51b01	0.0017479361
35	0x3d3b32f7	0.0457029
36	0xbc920eac	-0.017829262
37	0x3e2b0039	0.16699304
38	0x3a737f2a	0.0009288663
39	0x3e19722e	0.14984962
40	0x3c88adae	0.01668438
41	0xbda78d42	-0.0818124
42	0xbdac7567	-0.0842083
43	0xbd38444f	-0.04498702
44	0xbd847b1b	-0.06468793
45	0xbc8f5537	-0.017496688
46	0xbcc7ab0c	-0.024373554
47	0x3d09050d	0.033452082
48	0x3e1022af	0.1407573
49	0xbd76df3a	-0.06027148
50	0x3d64cf59	0.055861805
51	0x3e0fd18f	0.14044784
52	0xbd260783	-0.040534507
53	0xbbce0cf9	-0.0062881676
54	0xbd4b2d2c	-0.049603626
55	0xbd1820c3	-0.03714062
56	0xbd85e43a	-0.065376714
57	0x3caa4788	0.020786062
58	0xbc46178e	-0.012090577
59	0x3d9c5824	0.07633999
60	0xbd34e2ad	-0.044161487
61	0x3dccdd63	0.10003164
62	0x3cd18ac9	0.025578873
63	0xbccf77df	-0.025325714

fc.4.weight f4 [1, 64]
0	0x3dfa7057	0.122284584
1	0x3d744ac3	0.05964161
2	0x3d35f2a4	0.044420853
3	0x3dbd6a68	0.09248811
4	0x3d22bc60	0.03973043
5	0xbcf28853	-0.02960602
6	0xbd0a96c2	-0.03383518
7	0x3d443337	0.047900405
8	0x3c825b8b	0.015912792
9	0x3cd07d6f	0.025450436
10	0x3dae8f19	0.085233875
11	0xbcc61806	-0.024181377
12	0x3d1f22a7	0.038851406
13	0xbe2e24c1	-0.17006208
14	0xbd8abb90	-0.06774056
15	0xbd089a36	-0.033350192
16	0x3d9d942f	0.076942794
17	0xbd4a9e77	-0.04946753
18	0x3d7d1449	0.061786924
19	0xbd747808	-0.059684783
20	0xbdd4b812	-0.10386671
21	0xbdc0455b	-0.093882285
22	0xbc3df54b	-0.011594127
23	0x3c0e9df2	0.008704649
24	0x3ddc9568	0.107706845
25	0xbdd352b1	-0.103185065
26	0xbdc2aee2	-0.095060125
27	0x3b9f5a3d	0.004863052
28	0x3d53de53	0.051725697
29	0xbda5b988	-0.08092028
30	0x3d8240b4	0.063599974
31	0xbdd79a17	-0.10527437
32	0x3db88361	0.090094335
33	0x3e0c2dee	0.13689396
34	0xbdbb4b9c	-0.09145281
35	0x3cf180de	0.029480394
36	0xbc61d166	-0.013782835
37	0x3e1b2fab	0.15154903
38	0xbc9246a1	-0.017855944
39	0x3daf5bfa	0.08562465
40	0xbd84a381	-0.064764984
41	0xbdbce4e4	-0.09223345
42	0x3dc60207	0.096683554
43	0xbd38fef8	-0.045165032
44	0xbc9c5138	-0.019081697
45	0xbdab08d9	-0.08351297
46	0xbde06a7c	-0.1095781
47	0x3d263e4f	0.040586766
48	0x3d9dd5f2	0.077068225
49	0xb9855189	-0.00025428485
50	0x3da8af26	0.08236532
51	0x3de786eb	0.113050304
52	0xbddc867d	-0.10767839
53	0xbd0acd1b	-0.03388701
54	0xbbdecb22	-0.0067991177
55	0xbb6577e7	-0.0035014094
56	0xbc842799	-0.016132163
57	0xbda53534	-0.08066788
58	0x3c8fd5ae	0.017557945
59	0x3db69740	0.089155674
60	0xbcba67b3	-0.022754526
61	0x3d3da7d5	0.046302635
62	0xbd067cd3	-0.032833885
63	0x3d9be650	0.07612288

exp_avg f4 [16, 2, 3, 3]
0	0x37123238	8.713971e-06
1	0xb8477f53	-4.7563877e-05
2	0xb897a687	-7.231259e-05
3	0xb815b6fc	-3.5694786e-05
4	0xb819770f	-3.6588925e-05
5	0xb8972d78	-7.20871e-05
6	0x381e18c6	3.7693208e-05
7	0xb77e7fdb	-1.5169348e-05
8	0xb784d9fc	-1.5837133e-05
9	0x36f47b89	7.286148e-06
10	0x3607bf37	2.022787e-06
11	0x35d49c79	1.584077e-06
12	0x37075d05	8.068285e-06
13	0x362797a5	2.4973208e-06
14	0x3639713d	2.7633062e-06
15	0x36f85036	7.4003137e-06
16	0x360437c1	1.9701986e-06
17	0x3656c11d	3.2000892e-06
18	0xb79f5a8d	-1.8996443e-05
19	0xb85c3021	-5.249691e-05
20	0xb7dd90ca	-2.6412676e-05
21	0xb8be7c9f	-9.0831185e-05
22	0xb85f82fe	-5.328934e-05
23	0xb7bc1f80	-2.2426015e-05
24	0xb8422d09	-4.6295147e-05
25	0xb942b320	-0.00018568011
26	0xb67acd7c	-3.737251e-06
27	0xb7876a83	-1.6142852e-05
28	0xb758a7b7	-1.2913652e-05
29	0xb734814e	-1.0758942e-05
30	0xb7537d94	-1.26058185e-05
31	0xb715ff27	-8.940499e-06
32	0xb6da2b16	-6.501922e-06
33	0xb752b357	-1.2558731e-05
34	0xb7157f44	-8.910723e-06
35	0xb6db3a47	-6.533493e-06
36	0x37237832	9.743542e-06
37	0xb79b8852	-1.8540919e-05
38	0xb71da7bf	-9.396986e-06
39	0xb8b4cfab	-8.62175e-05
40	0xb7e40a60	-2.718455e-05
41	0x37b09592	2.1050484e-05
42	0xb8b522ae	-8.637212e-05
43	0xb9088b95	-0.00013021969
44	0xb8a22b8e	-7.732875e-05
45	0x351760ab	5.6392554e-07
46	0xb524e2e3	-6.1424925e-07
47	0xb5a87f15	-1.2553961e-06
48	0x36cb503f	6.0592133e-06
49	0x36ab2ec7	5.1016427e-06
50	0x36908a83	4.3076593e-06
51	0x36c4bfb5	5.863573e-06
52	0x36a5d655	4.9423347e-06
53	0x369b7a92	4.633629e-06
54	0xb717ae36	-9.040863e-06
55	0xb892f252	-7.006958e-05
56	0xb884090c	-6.2959356e-05
57	0xb7051420	-7.9321035e-06
58	0xb6d63cd0	-6.3847765e-06
59	0xb836abb3	-4.355209e-05
60	0x38024f4b	3.1068263e-05
61	0x379005c5	1.7168824e-05
62	0x378197fd	1.5448773e-05
63	0x3518d190	5.6929366e-07
64	0xb5cc36b3	-1.5215104e-06
65	0xb5143f25	-5.5226184e-07
66	0x36415dad	2.8813768e-06
67	0x3527e31b	6.254283e-07
68	0x35a4fa36	1.2291773e-06
69	0x36c0ea61	5.749331e-06
70	0x368ea178	4.250727e-06
71	0x369ff6a9	4.7672843e-06
72	0xb7ba3365	-2.219686e-05
73	0xb7dba326	-2.6182806e-05
74	0x372ec9e9	1.0418219e-05
75	0xb7146f7c	-8.847444e-06
76	0xb83b1900	-4.4607557e-05
77	0xb71bccd0	-9.286407e-06
78	0x37217803	9.62429e-06
79	0xb731054f	-1.0551258e-05
80	0x3796a524	1.7958293e-05
81	0x36f6d974	7.356686e-06
82	0x370e7f43	8.49349e-06
83	0x37239217	9.749571e-06
84	0x36c892db	5.9775607e-06
85	0x36baa95b	5.5629475e-06
86	0x36dcec46	6.584017e-06
87	0x3717decd	9.052176e-06
88	0x370c7f48	8.374285e-06
89	0x3708b14f	8.147515e-06
90	0xb687d9ff	-4.0486916e-06
91	0x361b91bf	2.3181635e-06
92	0xb4e84337	-4.3262273e-07
93	0xb7fcde76	-3.0144332e-05
94	0xb6427b39	-2.8979978e-06
95	0x366a472d	3.4910147e-06
96	0xb7192328	-9.127696e-06
97	0xb782aae5	-1.5576787e-05
98	0x36683643	3.4602278e-06
99	0xb5866e96	-1.0015963e-06
100	0xb58a59eb	-1.0307971e-06
101	0xb5817b27	-9.647091e-07
102	0xb514295c	-5.519448e-07
103	0x349eea4a	2.960026e-07
104	0x346d5d8b	2.2106376e-07
105	0xb46dd1f6	-2.2148728e-07
106	0x35282a08	6.264604e-07
107	0x34596a03	2.0248267e-07
108	0xb8bc302c	-8.973511e-05
109	0xb7d858c7	-2.5790547e-05
110	0xb85d6a65	-5.2789594e-05
111	0xb8c48de6	-9.372439e-05
112	0xb6f2ab58	-7.232109e-06
113	0xb8927eed	-6.985464e-05
114	0x37cf01ea	2.4677214e-05
115	0x3891b584	6.947949e-05
116	0xb5d1b51e	-1.5624425e-06
117	0xb6b37c05	-5.3490535e-06
118	0xb6aee041	-5.2117107e-06
119	0xb64dcf2e	-3.0667975e-06
120	0xb6aa0fdd	-5.0682415e-06
121	0xb6a4d9f8	-4.912956e-06
122	0xb63985f9	-2.764513e-06
123	0xb4f856b4	-4.6256685e-07
124	0xb4903887	-2.686322e-07
125	0x356288fb	8.4390894e-07
126	0xb78c82de	-1.675024e-05
127	0x36b5082f	5.395173e-06
128	0xb7607228	-1.33780195e-05
129	0x37aca65d	2.0581467e-05
130	0x37e328f2	2.7079575e-05
131	0x384bd64a	4.8598544e-05
132	0x365ca9e2	3.288144e-06
133	0xb627feac	-2.5033178e-06
134	0xb5213c55	-6.006497e-07
135	0x34078d48	1.2624253e-07
136	0xb59a0eaa	-1.1478162e-06
137	0xb6177f92	-2.257501e-06
138	0x353ac14b	6.957168e-07
139	0xb5814672	-9.631751e-07
140	0xb60b1b76	-2.0728598e-06
141	0xb6a39efe	-4.8762877e-06
142	0xb6d7a851	-6.427094e-06
143	0xb6d7bc35	-6.4294095e-06
144	0x36d3fe60	6.317903e-06
145	0xb7ceae40	-2.4638255e-05
146	0xb80b9214	-3.327623e-05
147	0x3768ba21	1.3871614e-05
148	0x350557d7	4.9674185e-07
149	0x36d33f7b	6.29568e-06
150	0xb7b27fa3	-2.1278689e-05
151	0x3593218f	1.096212e-06
152	0xb78ccf89	-1.6785942e-05
153	0x35fbd05d	1.8761599e-06
154	0x363abbcc	2.7825472e-06
155	0x35e502ce	1.7062646e-06
156	0x35fbd060	1.8761602e-06
157	0x363abbca	2.7825467e-06
158	0x35e502ca	1.7062641e-06
159	0x36165e94	2.2406794e-06
160	0x36113b93	2.164136e-06
161	0x35b8e2c0	1.3775061e-06
162	0x3643e05b	2.9187856e-06
163	0x378e9bb2	1.700022e-05
164	0xb74ec973	-1.232546e-05
165	0xb6698db0	-3.4802179e-06
166	0xb7e8f89e	-2.7772327e-05
167	0xb54f7f1f	-7.7298495e-07
168	0xb914cc63	-0.0001419052
169	0xb82daf01	-4.14094e-05
170	0xb91f62ab	-0.00015200178
171	0xb6e9be5d	-6.9661023e-06
172	0xb6d179c8	-6.2428626e-06
173	0xb6b847c3	-5.4919815e-06
174	0xb6d228e9	-6.2632503e-06
175	0xb6b42268	-5.3684234e-06
176	0xb6a6bef4	-4.9694154e-06
177	0xb6c4ce7e	-5.865294e-06
178	0xb6aeae62	-5.205905e-06
179	0xb6b1ed17	-5.302612e-06
180	0x3651a52e	3.1239574e-06
181	0xb6e76284	-6.895805e-06
182	0xb61cf264	-2.3386901e-06
183	0xb7c9c329	-2.4051946e-05
184	0xb8b59f0e	-8.660379e-05
185	0xb71af5f8	-9.236384e-06
186	0xb8df0233	-0.00010633878
187	0xb7993ccf	-1.8267338e-05
188	0xb86cfca0	-5.650206e-05
189	0xb75960db	-1.2956759e-05
190	0xb7ac9b3b	-2.0576283e-05
191	0xb79c35eb	-1.8621757e-05
192	0xb79f94b5	-1.9023524e-05
193	0xb7df83ed	-2.6645104e-05
194	0xb7c5d576	-2.358363e-05
195	0xb7a5e66d	-1.9776833e-05
196	0xb7e5d5a5	-2.7398413e-05
197	0xb7c862ae	-2.388781e-05
198	0x37843d19	1.5764077e-05
199	0xb5eb3c34	-1.7526386e-06
200	0x37944a77	1.767765e-05
201	0x37d0b8d2	2.4881596e-05
202	0xb72eb94f	-1.0414354e-05
203	0xb83f1b2f	-4.5563265e-05
204	0xb65cbf3e	-3.2893872e-06
205	0xb61f5049	-2.3739578e-06
206	0xb7266684	-9.91824e-06
207	0x36ee803a	7.1078803e-06
208	0x36c369e9	5.8237824e-06
209	0x36ac22d3	5.1300535e-06
210	0x33743aad	5.6864042e-08
211	0xb5b59b9c	-1.3530839e-06
212	0xb5db1d37	-1.6325274e-06
213	0xb5855d49	-9.936422e-07
214	0xb630aba5	-2.6325954e-06
215	0xb64a8273	-3.0176277e-06
216	0x366cd875	3.5292735e-06
217	0x37706026	1.4327501e-05
218	0x367d5773	3.775084e-06
219	0xb4ee5a07	-4.4396458e-07
220	0x35921893	1.0885e-06
221	0xb5047987	-4.935068e-07
222	0x33ffb7a1	1.1907765e-07
223	0x360e8d82	2.1242017e-06
224	0x35671541	8.6085134e-07
225	0x35bf476e	1.4251398e-06
226	0x35bf476e	1.4251398e-06
227	0x36193476	2.2829313e-06
228	0x35fce83d	1.8843053e-06
229	0x35fce83e	1.8843054e-06
230	0x3638f714	2.7561955e-06
231	0x3607a52f	2.0212717e-06
232	0x3607a52e	2.0212715e-06
233	0x3638e13e	2.7549245e-06
234	0xb60562cf	-1.9876059e-06
235	0x362b1f15	2.5499078e-06
236	0xb72217da	-9.661506e-06
237	0x36c73581	5.936891e-06
238	0xb89cd82f	-7.478927e-05
239	0xb7b05512	-2.1020449e-05
240	0x386c08d5	5.627501e-05
241	0x385a2a89	5.2014864e-05
242	0x37184872	9.0767735e-06
243	0x36d854a6	6.447156e-06
244	0x36c660bc	5.912121e-06
245	0xb322acba	-3.7875658e-08
246	0x36ccac30	6.099719e-06
247	0x36dc4f41	6.5657373e-06
248	0x35e06ddc	1.6721274e-06
249	0x36e2a920	6.7550136e-06
250	0x36f24c34	7.2210332e-06
251	0x365ca17a	3.2876546e-06
252	0x371f8c10	9.509749e-06
253	0x3821feef	3.8622817e-05
254	0x36a7a8a9	4.9966225e-06
255	0x36863205	3.9993342e-06

exp_avg_sq f4 [16, 2, 3, 3]
0	0x32d97af1	2.5318032e-08
1	0x34e680e5	4.2934622e-07
2	0x355ddd65	8.2651087e-07
3	0x34f2b700	4.5209163e-07
4	0x35fef96d	1.8997067e-06
5	0x354357ac	7.277074e-07
6	0x358c892e	1.0470737e-06
7	0x35d1196d	1.5579113e-06
8	0x3352b160	4.9055757e-08
9	0x32adced8	2.0233912e-08
10	0x3309b514	3.2062488e-08
11	0x32fd93d2	2.9520297e-08
12	0x32c65d53	2.3092673e-08
13	0x331c3cba	3.637681e-08
14	0x33101ee4	3.3555708e-08
15	0x32a346e3	1.9007933e-08
16	0x33035b8f	3.0584086e-08
17	0x32f19605	2.8124314e-08
18	0x338f5f1e	6.676258e-08
19	0x35009d49	4.7912596e-07
20	0x344caca2	1.9061784e-07
21	0x3686231f	3.9976e-06
22	0x359a68c6	1.1504387e-06
23	0x363edeea	2.844196e-06
24	0x35ca843c	1.5088658e-06
25	0x370afdca	8.284531e-06
26	0x34551dc7	1.9848004e-07
27	0x3387e56d	6.32816e-08
28	0x338c5176	6.534076e-08
29	0x3368b23b	5.417881e-08
30	0x33d2c012	9.8138244e-08
31	0x33d526eb	9.9256646e-08
32	0x33b2eae6	8.331499e-08
33	0x33bf67fb	8.9130445e-08
34	0x33c29f87	9.062847e-08
35	0x33a24a71	7.557254e-08
36	0x35141065	5.5158154e-07
37	0x33f43d61	1.13733e-07
38	0x328c9266	1.636472e-08
39	0x35ae4d2b	1.2986469e-06
40	0x34e8ec44	4.3385273e-07
41	0x35febeb8	1.8979981e-06
42	0x35312858	6.5996346e-07
43	0x3649d99c	3.0078e-06
44	0x359bf838	1.1620641e-06
45	0x327671d4	1.4344966e-08
46	0x32856efa	1.5533704e-08
47	0x327b86a6	1.4640738e-08
48	0x32ac8a99	2.0086462e-08
49	0x32b646fc	2.1219869e-08
50	0x32ab3d2c	1.9934838e-08
51	0x3293ac37	1.7191367e-08
52	0x329ca60f	1.8236305e-08
53	0x3294356c	1.7253761e-08
54	0x31d569dd	6.211151e-09
55	0x3503128c	4.882829e-07
56	0x35452443	7.3440987e-07
57	0x32bac548	2.1742963e-08
58	0x331eaff2	3.6947263e-08
59	0x341939da	1.4270282e-07
60	0x34e75f1d	4.3096307e-07
61	0x335998f4	5.066336e-08
62	0x34e95512	4.346153e-07
63	0x320fde13	8.374189e-09
64	0x321a7268	8.989993e-09
65	0x320dfa57	8.264201e-09
66	0x3212b440	8.539303e-09
67	0x3219c9bf	8.951644e-09
68	0x320f146a	8.328337e-09
69	0x31ee1d62	6.930052e-09
70	0x31c93659	5.8560485e-09
71	0x31bd1237	5.5026947e-09
72	0x3330099b	4.098693e-08
73	0x342afcb6	1.592442e-07
74	0x32b2e914	2.0827919e-08
75	0x3276f7e4	1.4375448e-08
76	0x347775c5	2.3046512e-07
77	0x33349c4a	4.205166e-08
78	0x31288002	2.4519982e-09
79	0x31906cb8	4.2033115e-09
80	0x32658913	1.3360721e-08
81	0x30ae6b15	1.2690601e-09
82	0x30fbb73c	1.8314732e-09
83	0x30eb2827	1.7109912e-09
84	0x30bb4b56	1.3627452e-09
85	0x310577d2	1.9422157e-09
86	0x3101c59e	1.8884303e-09
87	0x30b740a3	1.3333373e-09
88	0x310c8c94	2.045259e-09
89	0x311e51ce	2.3038527e-09
90	0x32ef162a	2.7833341e-08
91	0x3055402b	7.7580137e-10
92	0x30ba0ad6	1.3536361e-09
93	0x3492d00b	2.734599e-07
94	0x2fa0d844	2.9257496e-10
95	0x31710bc8	3.5076813e-09
96	0x33f39b62	1.1343833e-07
97	0x333a4f23	4.3378474e-08
98	0x2f25eb7e	1.5090326e-10
99	0x2fd6c6ca	3.906762e-10
100	0x3079f47e	9.0933117e-10
101	0x304d9f59	7.480501e-10
102	0x2fb6cd11	3.3251316e-10
103	0x3035d825	6.6154576e-10
104	0x300a8446	5.039208e-10
105	0x2f81b465	2.359314e-10
106	0x3008b705	4.97366e-10
107	0x2ffd04f6	4.6023957e-10
108	0x353e86cb	7.0976665e-07
109	0x34837530	2.4485917e-07
110	0x34019474	1.2068068e-07
111	0x35e5d90f	1.7125002e-06
112	0x34bd1f26	3.5226657e-07
113	0x34da5d28	4.0673444e-07
114	0x3252707c	1.2249185e-08
115	0x34175ea2	1.4097398e-07
116	0x332bc6be	3.9994795e-08
117	0x314150ae	2.8131057e-09
118	0x313e5fcc	2.7703093e-09
119	0x3145b291	2.8768776e-09
120	0x31353797	2.6370566e-09
121	0x31349d6f	2.6282938e-09
122	0x313906e3	2.6924958e-09
123	0x315ecd66	3.2422007e-09
124	0x317641a0	3.5835015e-09
125	0x3121dadc	2.355299e-09
126	0x34cb9ac1	3.7924295e-07
127	0x3223a24b	9.52475e-09
128	0x342a4721	1.585836e-07
129	0x34104016	1.343436e-07
130	0x3399e1c7	7.1656864e-08
131	0x3425d90c	1.5445784e-07
132	0x305efb30	8.112009e-10
133	0x2fc157d3	3.5168898e-10
134	0x32011cf1	7.515369e-09
135	0x311a06e5	2.2413869e-09
136	0x310ae09e	2.0209323e-09
137	0x312d181d	2.518852e-09
138	0x31174e03	2.2017737e-09
139	0x3106a3cc	1.9592674e-09
140	0x3126ebf0	2.4290294e-09
141	0x30d3f7dd	1.5422718e-09
142	0x30c81a6c	1.4559425e-09
143	0x30d88297	1.5753184e-09
144	0x349a1e67	2.8706856e-07
145	0x35b97749	1.3818291e-06
146	0x354a577d	7.5378176e-07
147	0x3243943e	1.13842e-08
148	0x31e45917	6.6458017e-09
149	0x33553f1f	4.9650335e-08
150	0x33f0096d	1.11775854e-07
151	0x32f4d64c	2.850279e-08
152	0x34216717	1.5031797e-07
153	0x3231118b	1.0306745e-08
154	0x32572ccd	1.2524834e-08
155	0x324f2fdf	1.205987e-08
156	0x3231118b	1.0306745e-08
157	0x32572ccd	1.2524834e-08
158	0x324f2fdf	1.205987e-08
159	0x32159116	8.70593e-09
160	0x323693a7	1.06273665e-08
161	0x322f53e1	1.02054125e-08
162	0x33b413d2	8.3855085e-08
163	0x35c19760	1.4423676e-06
164	0x3310370f	3.3577688e-08
165	0x34876143	2.5216477e-07
166	0x3498795e	2.8400513e-07
167	0x33121c4e	3.4019017e-08
168	0x36b7e743	5.4807474e-06
169	0x35a24fa9	1.2093125e-06
170	0x36f0614a	7.1638833e-06
171	0x334cf4b2	4.772e-08
172	0x33538f91	4.925784e-08
173	0x3328cdbf	3.9302673e-08
174	0x33523d67	4.895028e-08
175	0x33572f56	5.010164e-08
176	0x332b8a70	3.993995e-08
177	0x3351be7e	4.8834856e-08
178	0x335a1b68	5.0782006e-08
179	0x332c378b	4.0097387e-08
180	0x315a6343	3.17796e-09
181	0x33081d6f	3.1691737e-08
182	0x31acec6d	5.0327373e-09
183	0x33ed7e07	1.1059097e-07
184	0x361a3033	2.2975844e-06
185	0x3309d627	3.209257e-08
186	0x352b154a	6.3733444e-07
187	0x3319af9e	3.578281e-08
188	0x334e7334	4.806789e-08
189	0x32040660	7.684861e-09
190	0x323003e8	1.02454365e-08
191	0x31cf2f30	6.0298575e-09
192	0x33003e42	2.9858946e-08
193	0x33239feb	3.809684e-08
194	0x32bd36a2	2.202734e-08
195	0x32f58e7b	2.8586546e-08
196	0x331d58f8	3.6635328e-08
197	0x32b4ecec	2.1062498e-08
198	0x31a89aee	4.907057e-09
199	0x30ae2d5b	1.2673057e-09
200	0x32474a62	1.1600237e-08
201	0x34755433	2.2848035e-07
202	0x3387aa11	6.317362e-08
203	0x343f1e34	1.7799249e-07
204	0x33084667	3.1728998e-08
205	0x314e595b	3.0027738e-09
206	0x3184b846	3.862655e-09
207	0x30de3dab	1.6170153e-09
208	0x311924a9	2.228527e-09
209	0x312485a0	2.3941098e-09
210	0x30b48fe0	1.3137615e-09
211	0x309159e0	1.0575683e-09
212	0x30870717	9.824558e-10
213	0x30a2323b	1.1801328e-09
214	0x308d1aa8	1.0266676e-09
215	0x308b94b8	1.015585e-09
216	0x314ecd88	3.0093776e-09
217	0x3202c407	7.611567e-09
218	0x314ca0af	2.9777245e-09
219	0x33ed2c5a	1.104424e-07
220	0x2eb15d23	8.0655725e-11
221	0x2f5635cc	1.9482299e-10
222	0x330e92d1	3.319548e-08
223	0x302f2897	6.372231e-10
224	0x30db2eb6	1.5947623e-09
225	0x3058ecf2	7.891706e-10
226	0x30584fb7	7.8693624e-10
227	0x3034eeb7	6.582285e-10
228	0x3059eaf4	7.927803e-10
229	0x3059b1fd	7.9197077e-10
230	0x3039f094	6.764449e-10
231	0x3049b031	7.3373757e-10
232	0x30497c54	7.3300055e-10
233	0x30346c41	6.5637457e-10
234	0x32e3c751	2.6516917e-08
235	0x31b0c87e	5.1450675e-09
236	0x31928e8d	4.2653654e-09
237	0x32005499	7.469816e-09
238	0x34120432	1.3598836e-07
239	0x332d11ad	4.0295777e-08
240	0x33aed0e8	8.140506e-08
241	0x33f0e81f	1.12180935e-07
242	0x33184f01	3.546211e-08
243	0x307a2c66	9.1012564e-10
244	0x306804c7	8.44079e-10
245	0x3025fe66	6.038817e-10
246	0x30b317ef	1.3030766e-09
247	0x30cb81bb	1.4807066e-09
248	0x3071b1ec	8.792813e-10
249	0x3084d078	9.663514e-10
250	0x309c0ec9	1.1354696e-09
251	0x303f0ed2	6.9506456e-10
252	0x336460af	5.317332e-08
253	0x327fd381	1.4891044e-08
254	0x317c1f87	3.6688748e-09
255	0x3233c986	1.0464992e-08
