output/cnn/blue-1/checkpoints/epoch_33.pt (torch, 60234 bytes, 27 tensors)

conv.0.weight f4 [8, 2, 3, 3]
0.3799589 1.2502992 -0.005585165 0.38443443 0.28674948 -0.106991135 -0.25540018 -0.030609684
2.228689 -1.3438292 -0.3326069 0.8631089 0.31199268 0.5748873 -0.21961454 0.37849155
-0.10818372 -0.5643458 -0.28500172 0.4832139 0.023023298 -0.07771108 -0.2361737 3.8866515
0.061407045 0.24298128 0.48661682 1.4435718 0.10235423 -0.335119 -0.96704775 -0.095962204
-3.1077168 -0.21521784 0.10787011 -0.8779235 -1.8712288 -1.5113577 -0.43401426 1.2721533
-0.024471905 0.41677257 0.56755567 0.29951057 0.4107956 -0.4747534 -0.29670691 0.24630877
0.54911757 -0.137421 0.2540805 -0.6732753 -0.7427584 -0.24138089 -0.48746878 -0.7622743
-0.07677966 -0.61871153 -2.4452963 -1.4211117 0.33498102 -0.15957211 -2.8879297 0.21427493
-0.732169 -0.72426754 -2.247451 -0.111045085 0.43001813 -0.3614454 -0.3139159 0.6984644
1.2617732 0.73996747 -0.128566 -0.13461219 -1.2089834 -0.8890797 -0.42550212 -0.07357817
-2.033436 0.23980318 2.239597 0.879436 -0.01059196 -0.94932014 -0.33572268 -0.19903275
-0.2800455 -0.36533222 1.5964928 0.16096741 0.06585203 0.3593135 0.38577446 0.76632804
-1.3971689 -1.9131365 0.1974043 -0.44868422 -0.90722233 -0.80873686 -0.3581957 0.91542894
0.7885207 -0.9892463 1.0963907 0.038985558 -0.30931067 -0.9506438 -0.43816915 -1.1757044
0.5654175 -2.3551848 0.22114637 -1.1189502 -0.97445995 0.6698818 -0.055407874 -0.39198235
1.0534432 0.4325137 0.22783406 -0.023580272 0.56412953 -0.47250614 -0.5061989 1.9039264
0.7969463 0.26458332 0.76865643 0.53170246 0.27030703 0.25513065 0.077180274 -1.8464072
-2.0148108 -1.9977553 1.240874 -0.69500566 1.7482839 -0.3770524 0.58498555 0.08346633
00000000: f989 c23e ce09 a03f c303 b7bb 97d4 c43e
00000010: d4d0 923e 2b1e dbbd d0c3 82be 29c1 fabc
00000020: d7a2 0e40 9802 acbf 744b aabe b4f4 5c3f
00000030: 81bd 9f3e d02b 133f a2e2 60be a5c9 c13e
00000040: 6d8f ddbd f778 10bf bfeb 91be d067 f73e
00000050: 5b9b bc3c fd26 9fbd 85d7 71be e6be 7840
00000060: f485 7b3d 16d0 783e d725 f93e f6c6 b83f
00000070: 189f d13d b894 abbe 7190 77bf d587 c4bd
00000080: d5e4 46c0 1162 5cbe 01eb dc3d 98bf 60bf
00000090: 6d84 efbf 2b74 c1bf 1e37 debe ebd5 a23f
000000a0: 4e79 c8bc 3763 d53e 544b 113f 7359 993e
000000b0: cd53 d23e e112 f3be f8e9 97be 5e38 7c3e
000000c0: f892 0c3f 17b8 0cbe d716 823e c55b 2cbf
000000d0: 6a25 3ebf 8d2c 77be 8295 f9be 6924 43bf
000000e0: a83e 9dbd e163 1ebf bc7f 1cc0 fde6 b5bf
000000f0: a282 ab3e df66 23be d7d3 38c0 e36a 5b3e
00000100: 6d6f 3bbf 9969 39bf 3dd6 0fc0 9b6b e3bd
00000110: 562b dc3e 5f0f b9be 96b9 a0be 90ce 323f
00000120: c981 a13f 826e 3d3f cea6 03be c7d7 09be
00000130: f8bf 9abf ba9a 63bf 6adb d9be 27b0 96bd
00000140: d123 02c0 f78e 753e 8f55 0f40 b822 613f
00000150: e689 2dbc a506 73bf d8e3 abbe 3ecf 4bbe
00000160: 2062 8fbe d30c bbbe e059 cc3f a4d4 243e
00000170: 6edd 863d f0f7 b73e 3b84 c53e 132e 443f
00000180: 6ed6 b2bf a8e1 f4bf 5a24 4a3e f0b9 e5be
00000190: b93f 68bf 6109 4fbf 6d65 b7be 8d59 6a3f
000001a0: 7edc 493f 3f3f 7dbf 8856 8c3f 52af 1f3d
000001b0: f85d 9ebe 645d 73bf b557 e0be 7b7d 96bf
000001c0: 34bf 103f 59bb 16c0 3274 623e c339 8fbf
000001d0: 3576 79bf 607d 2b3f 5ef3 62bd e9b1 c8be
000001e0: 3ad7 863f 7072 dd3e 554d 693e 6a2b c1bc
000001f0: cb6a 103f 53ec f1be 4096 01bf dcb3 f33f
00000200: ac04 4c3f 7777 873e abc6 443f a71d 083f
00000210: af65 8a3e 7ca0 823e b110 9e3d 1257 ecbf
00000220: a9f2 00c0 72b6 ffbf f6d4 9e3f e4eb 31bf
00000230: c4c7 df3f 030d c1be 9dc1 153f 65f0 aa3d

conv.0.bias f4 [8]
1.9134337 0.78659827 -0.40597507 -0.20283532 -0.6619545 -0.9809421 0.92698294 0.93121946
00000000: 65eb f43f 815e 493f f7db cfbe 10b4 4fbe
00000010: da75 29bf 051f 7bbf c14e 6d3f 6664 6e3f

conv.4.weight f4 [16, 8, 3, 3]
0.47665846 -1.3205365 0.12622172 -0.39937854 -1.0844985 -0.8151284 -0.19527051 -0.12743416
-0.35774994 0.5534013 -0.91789645 0.45992422 -1.1099261 0.44123748 -1.0811814 0.21048808
0.51902723 -0.4037875 0.7114483 -1.9410195 -0.08288215 0.07752261 -1.1146921 0.5599924
-0.40461606 -0.24184774 -1.2500056 1.3398068 -0.39961663 -0.5811683 0.91459477 2.4370036
0.42622218 0.15447125 -0.45599374 -0.69820213 0.639421 0.911106 0.77812606 0.70282924
0.32949635 2.4072516 -0.09786651 0.07648191 -1.0135293 -0.07464772 0.8314077 0.39263126
-0.9251746 0.30049562 1.2103064 -0.01972762 -1.8242087 -1.3567467 0.9355382 -1.1029985
0.90297896 -0.019431015 0.37837926 -0.28238103 -0.35355085 1.0032996 0.5178093 -1.3646995
-1.2000631 -1.3821143 0.7898044 0.8140656 -0.061094254 -0.30391225 0.91857153 -0.75414574
0.8394584 -0.722263 0.81201833 -0.022192309 0.052808244 0.29909167 0.63403165 -0.12758692
-0.31091622 -1.0239125 2.298622 0.7693897 -0.298187 1.3232043 0.060557745 -0.6658815
-0.15371558 -0.085610636 -1.9601822 0.003113976 -0.5769632 0.6781147 0.0056309574 0.30983603
-0.24627833 -0.36211604 -0.5287106 0.21388991 -0.8721575 0.89502305 -0.44097042 -0.8383861
1.7743949 0.18289256 -1.1829057 -0.33276737 -2.0533879 0.7798278 0.39735588 1.2160963
-1.466228 -0.76241183 1.232119 -0.210997 -0.13481835 -1.1397356 0.94472283 1.1667182
0.5097505 0.31105706 0.9363151 0.15610471 1.057272 -0.5691978 -1.1065204 2.259798
0.6464948 1.3183569 1.8656799 -0.89672506 -0.36662027 -0.2297795 0.014684206 -0.99431133
0.38842246 0.05968957 0.3649846 0.71154696 1.268778 0.42197606 -0.06365826 0.12117675
1.1624013 -0.7678003 0.38886473 0.641244 -0.38297158 -0.38749468 0.38112476 1.1937737
0.24002977 -0.27343062 -1.8874997 -1.9063696 -0.7075879 0.12110473 0.9479286 0.10018078
-0.53633165 -0.045254596 0.7709947 2.4611404 2.0899394 1.4495401 0.97654396 -0.6869275
0.69261944 -0.46044636 -0.80913 -0.42732993 0.393417 1.6182193 -0.5477676 0.17680717
0.65914017 -0.7679833 0.68050015 0.9676044 -2.1927419 0.15353109 0.8940226 -0.20163456
0.24082163 -0.67814904 0.9854398 -0.44945225 0.43251798 0.5046697 -0.753325 0.044703867
0.038244925 -0.24895376 -0.06350361 0.74924695 1.2045691 0.254463 -0.091404535 -0.40306157
1.8502392 -1.6457323 1.0801219 1.6300437 -0.8938132 -0.75784975 0.11610226 0.017971994
1.0745088 0.095386684 0.22959983 0.7976659 -0.5690374 -0.54202443 0.03483844 0.7581638
0.0141394315 -0.6964329 0.3813544 -0.018694421 0.43067583 -1.9809159 0.040520914 -0.3210593
0.055305503 0.065099426 0.7333406 0.14732781 -0.12757532 1.0057592 0.27290666 0.84399104
0.29800993 0.66459835 -0.49609366 -0.4840603 -0.10691829 0.6427853 0.46883562 -0.21434167
-0.9494861 0.60697854 -1.3901856 0.58069134 -0.8622927 -0.32634708 -0.8872731 -3.4318864
-0.11733158 2.7911394 0.8120121 -0.8516305 1.573098 -0.3686561 -0.91246194 -0.23508812
00000000: 940c f43e 5707 a9bf 4440 013e 587b ccbe
00000010: d9d0 8abf 41ac 50bf fef4 47be 1a7e 02be
00000020: 002b b7be b5ab 0d3f 43fb 6abf 307b eb3e
00000030: 0f12 8ebf e1e9 e13e 2764 8abf 308a 573e
00000040: f8de 043f 3cbd cebe 7a21 363f 5473 f8bf
00000050: 1ebe a9bd 2dc4 9e3d 3bae 8ebf a95b 0f3f
00000060: d629 cfbe efa6 77be 2f00 a0bf ca7e ab3f
00000070: 8d9a ccbe 72c7 14bf e222 6a3f def7 1b40
00000080: cb39 da3e b62d 1e3e 0378 e9be 60bd 32bf
00000090: 18b1 233f 3e3e 693f 4533 473f 9eec 333f
000000a0: bfb3 a83e 6910 1a40 3d6e c8bd 8ca2 9c3d
000000b0: 54bb 81bf e7e0 98bd 23d7 543f f706 c93e
000000c0: 3ed8 6cbf 90da 993e 52eb 9a3f d19b a1bc
000000d0: ac7f e9bf e0a9 adbf 6e7f 6f3f 0e2f 8dbf
000000e0: a129 673f cb2d 9fbc edba c13e 3f94 90be
000000f0: 9e04 b5be 1f6c 803f 268f 043f 79ae aebf
00000100: ab9b 99bf 1fe9 b0bf 9f30 4a3f 9a66 503f
00000110: f83d 7abd 639a 9bbe 8127 6b3f b20f 41bf
00000120: bfe6 563f 3ae6 38bf 6fe0 4f3f a5cc b5bc
00000130: 754d 583d 8b22 993e e64f 223f 25a6 02be
00000140: 6930 9fbe 910f 83bf 9f1c 1340 b9f6 443f
00000150: f7ab 98be c25e a93f 660b 783d 3677 2abf
00000160: 9e67 1dbe a154 afbd 40e7 fabf d913 4c3b
00000170: dcb3 13bf ed98 2d3f e583 b83b d4a2 9e3e
00000180: 6330 7cbe 4667 b9be 9459 07bf f505 5b3e
00000190: b745 5fbf 3b20 653f e0c6 e1be 79a0 56bf
000001a0: 5f1f e33f 3048 3b3e 7469 97bf 7c60 aabe
000001b0: b56a 03c0 cba2 473f 3b72 cb3e 0ba9 9b3f
000001c0: 5cad bbbf 6c2d 43bf 13b6 9d3f 990f 58be
000001d0: d20d 0abe dbe2 91bf 5bd9 713f 0657 953f
000001e0: 027f 023f df42 9f3e 59b2 6f3f ead9 1f3e
000001f0: b054 873f f2b6 11bf 76a2 8dbf 88a0 1040
00000200: af80 253f ebbf a83f 99ce ee3f c68f 65bf
00000210: a7b5 bbbe 514b 6bbe 0696 703c 308b 7ebf
00000220: 4fdf c63e 0d7d 743d 43df ba3e f127 363f
00000230: 5167 a23f 3f0d d83e 435f 82bd 842b f83d
00000240: 91c9 943f 8f8e 44bf 4719 c73e 9128 243f
00000250: da14 c4be b465 c6be c922 c33e 94cd 983f
00000260: 5dca 753e 19ff 8bbe 9799 f1bf eb03 f4bf
00000270: 7b24 35bf c205 f83d 73ab 723f 952b cd3d
00000280: 084d 09bf e25c 39bd e95f 453f 5383 1d40
00000290: 91c1 0540 888a b93f c9fe 793f 7bda 2fbf
000002a0: 824f 313f a0bf ebbe 2523 4fbf fdca dabe
000002b0: f46d c93e cf21 cf3f 7f3a 0cbf f00c 353e
000002c0: 69bd 283f 8e9a 44bf 4235 2e3f ecb4 773f
000002d0: e255 0cc0 4137 1d3e aade 643f 4a79 4ebe
000002e0: f299 763e 2d9b 2dbf c845 7c3f 9b1e e6be
000002f0: ff72 dd3e 0932 013f e8d9 40bf 671b 373d
00000300: b6a6 1c3d bced 7ebe 2e0e 82bd a6ce 3f3f
00000310: 522f 9a3f f948 823e 4d32 bbbd 165e cebe
00000320: a3d4 ec3f 5ba7 d2bf 6f41 8a3f 46a5 d03f
00000330: f1d0 64bf 7102 42bf 06c7 ed3d 013a 933c
00000340: 8189 893f 185a c33d 381c 6b3e d533 4c3f
00000350: 6fac 11bf 1dc2 0abf c1b2 0e3d 0617 423f
00000360: 13a9 673c 6d49 32bf e240 c33e 0b25 99bc
00000370: 8b81 dc3e a78e fdbf 42f9 253d e261 a4be
00000380: 0688 623d d952 853d 36bc 3b3f 1add 163e
00000390: 1ba3 02be b8bc 803f 6cba 8b3e cc0f 583f
000003a0: c294 983e 1e23 2a3f fdff fdbe c0d6 f7be
000003b0: faf7 dabd 948d 243f 390b f03e 627c 5bbe
000003c0: 8511 73bf f262 1b3f 9af1 b1bf 30a8 143f
000003d0: 37bf 5cbf f716 a7be 5424 63bf 07a4 5bc0
000003e0: 8a4b f0bd 07a2 3240 06e0 4f3f 7504 5abf
000003f0: 465b c93f 7ec0 bcbe 1b97 69bf f1ba 70be

conv.4.bias f4 [16]
-0.16082397 -0.24150749 -1.6182982 -0.085094295 0.753069 -1.2085457 0.801966 -0.3570452
0.1630227 0.09389244 -2.2242815 1.8726078 -0.11502958 -0.30544284 0.18477325 2.1499417
00000000: 0aaf 24be bd4d 77be 6524 cfbf eb45 aebd
00000010: 21c9 403f a0b1 9abf a54d 4d3f a1ce b6be
00000020: 6cef 263e ae4a c03d a15a 0ec0 9db1 ef3f
00000030: a194 ebbd 0163 9cbe 3335 3d3e a598 0940

fc.0.weight f4 [32, 64]
-0.536017 -0.9944824 1.0072396 2.3568 -0.8223609 -0.30205157 1.155934 0.99596876
1.5696797 2.5365374 -0.4160062 0.83709264 0.37981415 1.8610649 1.4461393 -0.70295405
0.49827355 -1.0534797 0.96573776 1.5616395 1.2387679 0.20804885 -0.3080003 1.6260264
1.6763275 2.8500276 -0.69497514 -0.27138817 1.9728305 4.5889187 -0.047176976 0.299519
-1.5300121 -0.7668835 1.4196547 1.247736 2.8687127 0.41170445 0.25122708 0.013055546
0.61991125 0.3382254 0.5370351 2.5821834 -1.4444559 2.0526545 1.4566302 1.7950014
1.8390137 1.5347 -0.34269392 0.89978945 -1.1474981 -0.78798383 1.3579601 1.6035507
-1.404052 -0.20679785 0.8331783 0.1977871 2.8923993 3.692104 0.0008240767 -0.032431126
-0.1224536 -0.17601255 -0.018558126 -0.10652058 -0.12588476 -0.037952896 -0.0018966451 -0.14350516
0.02444337 -0.09594594 -0.039545458 -0.034506314 0.011489491 -0.06816393 -0.15852667 -0.17807858
0.0035596306 -0.18423307 -0.062801786 0.15983081 0.014256624 0.03026404 -0.0598545 -0.00771618
0.03436837 -0.076997444 0.0041164276 -0.08859426 -0.13494833 0.04511076 0.17957693 -0.008682265
0.16058111 -0.0472563 -0.030733343 -0.03582893 0.008173586 -0.1368327 -0.06267119 -0.14831999
0.033641193 0.011990646 0.013293835 -0.013898033 0.047355328 -0.07426731 -0.17939518 -0.069419146
0.06032615 -0.111561954 -0.08265756 -0.054868963 -0.1702611 0.021003636 -0.12779449 -0.01162733
0.02124476 -0.02096876 -0.16855459 0.009554526 -0.15703365 -0.07665646 0.0014690497 -0.13805
1.0771819 1.4161038 0.34617275 -0.83326554 2.1117804 1.4915016 -0.27829677 -0.46711874
-0.498434 -1.0953356 0.91173637 -0.21733665 0.80735517 -0.71096176 -0.608458 1.405533
0.7930346 1.4941654 0.16357042 -0.17016014 -0.019877397 0.9994296 1.1845089 -0.49809083
-0.6343129 -2.1347334 1.4730508 1.0125092 -0.6774787 -2.4068155 0.60848546 0.518067
1.98031 1.3025601 -0.51530117 -0.5161553 -1.9374623 0.63477314 0.32306927 0.93513757
0.6442926 1.0609703 0.13097757 -1.484142 0.9407649 -0.6321674 -0.46791232 -1.2990644
-0.90961796 0.033969823 0.9515596 0.112213075 1.3640883 1.0622596 -0.19966158 -0.46566835
2.2752392 1.2002146 0.5383673 0.41463897 -2.3511114 -2.373583 0.38129562 0.95215225
1.0059863 1.4689949 0.11229116 -0.82222086 1.8749334 1.6855848 -0.49095285 -0.5096244
-0.4642336 -1.0512812 0.8858321 -0.4884716 0.5517993 -0.7400376 -0.6434036 1.4758528
0.866387 1.5121398 0.0047520576 -0.42279723 -0.11367378 1.0294756 1.3166784 -0.694611
-0.6346854 -2.0215626 1.4067467 0.9390499 -0.85104036 -2.222274 0.6161476 0.4630972
1.9227642 1.5563701 -0.48668793 -0.5749349 -1.9439594 0.6820833 0.345419 0.904777
0.73638886 1.2127227 0.16261232 -1.5756943 1.2593653 -0.60048413 -0.36703932 -1.2351118
-0.6935846 0.041743953 0.9099571 -0.02751659 1.2918614 1.1275588 -0.19023629 -0.36260992
2.2345946 1.0502249 0.7072383 0.5718327 -2.1739674 -1.9919511 0.23784621 0.7787953
00000000: 6938 09bf 6696 7ebf 3aed 803f d0d5 1640
00000010: 3e86 52bf 81a6 9abe a5f5 933f cff7 7e3f
00000020: 44eb c83f a156 2240 c4fe d4be b44b 563f
00000030: 0077 c23e 6037 ee3f 181b b93f ccf4 33bf
00000040: b61d ff3e 6cd8 86bf 973a 773f cee3 c73f
00000050: f28f 9e3f c20a 553e 37b2 9dbe a221 d03f
00000060: e691 d63f da66 3640 e4e9 31bf 64f3 8abe
00000070: b685 fc3f 6cd8 9240 a53c 41bd 8e5a 993e
00000080: 70d7 c3bf 7a52 44bf 3fb7 b53f d0b5 9f3f
00000090: fd98 3740 edca d23e d6a0 803e eee6 553c
000000a0: 81b2 1e3f e12b ad3e 227b 093f 7e42 2540
000000b0: eee3 b8bf b15e 0340 dc72 ba3f 9bc2 e53f
000000c0: cd64 eb3f 0d71 c43f 9475 afbe 9a58 663f
000000d0: 38e1 92bf 4fb9 49bf a3d1 ad3f 2641 cd3f
000000e0: fab7 b3bf d1c2 53be 2c4b 553f b488 4a3e
000000f0: 121d 3940 6f4b 6c40 da06 583a 80d6 04bd
00000100: f4c8 fabd a23c 34be 3607 98bc 7627 dabd
00000110: efe7 00be 7f74 1bbd d998 f8ba 04f3 12be
00000120: 763d c83c 4e7f c4bd 6bfa 21bd 7e56 0dbd
00000130: 6b3e 3c3c 8899 8bbd d154 22be 3b5a 36be
00000140: b148 693b 98a7 3cbe 399e 80bd b0aa 233e
00000150: 9d94 693c 4bec f73c fe29 75bd 02d8 fcbb
00000160: d9c5 0c3d d6b0 9dbd 19e3 863b e870 b5bd
00000170: e52f 0abe 0fc6 383d 04e3 373e 0f40 0ebc
00000180: 606f 243e d28f 41bd 7ec4 fbbc 5bc1 12bd
00000190: 81ea 053c df1d 0cbe c159 80bd 32e1 17be
000001a0: 59cb 093d 6a74 443c 63ce 593c 93b4 63bc
000001b0: a9f7 413d 7619 98bd 5fb3 37be a02b 8ebd
000001c0: 8e18 773d 987a e4bd 5e48 a9bd 47be 60bd
000001d0: ed58 2ebe d10f ac3c 8fdc 02be 8f80 3ebc
000001e0: 7e09 ae3c adc6 abbc 9399 2cbe 968a 1c3c
000001f0: 6ecd 20be 10fe 9cbd 218d c03a fb5c 0dbe
00000200: 19e1 893f e442 b53f 8e3d b13e e450 55bf
00000210: 6927 0740 86e9 be3f ea7c 8ebe 302a efbe
00000220: be32 ffbe f533 8cbf 8e67 693f 808d 5ebe
00000230: d4ae 4e3f 9701 36bf e7c3 1bbf 81e8 b33f
00000240: 5104 4b3f d040 bf3f 017f 273e 763e 2ebe
00000250: ecd5 a2bc 9eda 7f3f fd9d 973f c305 ffbe
00000260: 5562 22bf 799f 08c0 ee8c bc3f e799 813f
00000270: 3e6f 2dbf 4409 1ac0 b4c5 1b3f 0aa0 043f
00000280: cc7a fd3f 4aba a63f c7ea 03bf c122 04bf
00000290: c4fe f7bf 7e80 223f 5669 a53e 2d65 6f3f
000002a0: 5cf0 243f e0cd 873f fc1e 063e 5df8 bdbf
000002b0: f8d5 703f b9d5 21bf 3492 efbe be47 a6bf
000002c0: b9dc 68bf f123 0b3d 6999 733f f8cf e53d
000002d0: 729a ae3f 1ff8 873f 1674 4cbe 156c eebe
000002e0: 859d 1140 a2a0 993f 70d2 093f 8f4b d43e
000002f0: 9c78 16c0 c9e8 17c0 2e39 c33e 40c0 733f
00000300: 29c4 803f 0608 bc3f e8f8 e53d 117d 52bf
00000310: d1fd ef3f 3ec1 d73f 2c5e fbbe bf76 02bf
00000320: 07b0 edbe 6290 86bf e4c5 623f f318 fabe
00000330: b842 0d3f 1b73 3dbf 19b6 24bf bfe8 bc3f
00000340: 8acb 5d3f cc8d c13f 26b7 9b3b e178 d8be
00000350: cccd e8bd dbc5 833f eb88 a83f 07d2 31bf
00000360: be7a 22bf 4861 01c0 4710 b43f 9365 703f
00000370: c8dd 59bf bd39 0ec0 d9bb 1d3f 141b ed3e
00000380: 231d f63f 2337 c73f 292f f9be ef2e 13bf
00000390: a9d3 f8bf 039d 2e3f c2da b03e 779f 673f
000003a0: fb83 3c3f 7f3a 9b3f d883 263e 5ab0 c9bf
000003b0: e232 a13f 54b9 19bf 94ec bbbe 2518 9ebf
000003c0: c38e 31bf b5fb 2a3d f3f2 683f 796a e1bc
000003d0: b75b a53f d953 903f 4dcd 42be 02a8 b9be
000003e0: 9903 0f40 c56d 863f 920d 353f a163 123f
000003f0: 4822 0bc0 41f8 febf f58d 733e 215f 473f

fc.0.bias f4 [32]
1.499183 0.008526588 -0.34338465 -0.33753663 -0.39841682 0.40458798 -0.1347683 -0.5899697
-0.4554235 -0.12709391 -0.4140492 -0.5565707 1.4799616 -0.12503293 -0.426541 -0.24523868
-0.63464236 0.017949285 -0.17103183 -0.48228237 -0.6047945 -0.4682694 -0.15009739 1.4769086
-0.07867126 -0.28187248 -0.14861655 -0.18644452 -0.36581215 -0.13693668 -0.45923233 0.022670317
00000000: 3be5 bf3f 1ab3 0b3c 1dd0 afbe 9ad1 acbe
00000010: 4afd cbbe 2826 cf3e b400 0abe 4108 17bf
00000020: 452d e9be e824 02be 42fe d3be 6b7b 0ebf
00000030: 626f bd3f a208 00be 9563 dabe d91f 7bbe
00000040: ec77 22bf 610a 933c f822 2fbe b7ed f6be
00000050: d0d3 1abf 02c1 efbe 21b3 19be 570b bd3f
00000060: 661e a1bd 9751 90be f02e 18be 50eb 3ebe
00000070: bb4b bbbe 2139 0cbe 8020 ebbe 1ab7 b93c

fc.2.weight f4 [16, 32]
0.049873162 0.015944958 0.11649217 -0.014885932 -0.22908017 -0.08453799 -0.068530984 -0.13713613
0.072989374 -0.03678088 -0.15552847 -0.075561926 -0.2133577 0.033956036 -0.07185357 -0.07633881
0.08534156 -0.09114827 0.14781575 -0.16183601 -0.14595276 -0.19431938 0.058213115 -0.09688591
-0.117110774 0.03518367 -0.029385224 0.006243691 0.059382826 -0.11140392 0.012351602 -0.16779886
2.0492504 0.14139672 -0.8500283 -0.8413337 -0.35778996 1.1800358 -0.073329 -1.1761155
-0.13849382 -0.12053402 -0.5649946 -0.75856376 2.392851 0.085551225 -1.0015922 -0.7729017
-1.1479009 0.0866846 -0.14657034 -0.75423574 -0.8589082 -0.52006257 0.051836375 1.0026364
0.058360696 0.19952191 -0.068483554 -0.13969986 -0.7267108 0.07284968 -1.6504596 0.10486473
1.9869592 0.039431915 -0.626784 -0.9564203 -0.30204806 1.2140453 -0.028214917 -1.5088207
-0.0613454 -0.17368954 -0.7484326 -1.0362306 1.8719593 0.08514701 -1.2841535 -0.8386269
-1.1146538 0.011663228 -0.08186028 -0.6720122 -0.91978747 -0.57578546 0.08618585 0.7484868
-0.14581242 -0.026820673 -0.012563854 -0.08986759 -0.6456581 0.16390921 -1.8958088 -0.15609556
-0.096400484 0.07960265 0.003501359 -0.08377405 0.12643547 -0.055398744 0.030774873 -0.07344183
-0.056800835 0.020767441 0.07736132 -0.0050370097 -0.22110355 -0.082224675 -0.007289061 0.06383502
-0.065724224 0.09061477 0.07407005 0.032919344 0.08119432 -0.20105964 0.15793468 -0.22121051
0.04547237 -0.040699665 0.085234925 0.09141106 -0.17765754 0.019822374 -0.10800522 -0.09193388
0.03202577 -0.16584273 -0.00502735 -0.119031996 -0.092812896 -0.08039786 0.09262306 -0.19404794
-0.117525935 -0.006469354 -0.20170543 -0.23765954 -0.09245778 -0.06563275 0.06754082 -0.025569327
0.16822666 0.18434224 -0.028268438 -0.029395735 -0.04991969 0.21184605 -0.12389384 -0.02467406
-0.059750535 0.069699645 0.14460574 -0.2332382 -0.102807075 0.074040815 -0.03847596 -0.044998914
-0.3076441 0.1290624 -0.39227185 -0.42606413 -0.43376067 -0.44030204 -0.104014434 -0.47284684
-0.21685022 -0.048347265 -0.23577912 -0.20116942 -0.33027127 -0.09760386 -0.16091783 -0.20703995
-0.21702711 -0.15105575 -0.14000788 -0.236843 -0.3201357 -0.1533747 -0.16161282 -0.3421298
-0.028961033 -0.47561747 -0.14532474 -0.073350474 -0.42487118 -0.08437906 -0.21960694 0.059562683
-0.9749387 0.10249744 1.5281183 1.2100772 1.4408185 1.7293487 0.102048285 1.8795333
1.3053832 0.04181875 1.4287914 1.4364444 -0.9508803 0.030896291 1.3811069 1.5456393
1.7501844 0.07031881 0.11891924 1.3439631 1.6760708 1.3782005 -0.058762696 0.8712914
0.04020912 1.2811342 -0.13368852 -0.017400393 1.3689752 -0.08481919 2.164636 0.11454874
0.07257935 0.12102934 -0.014178368 -0.1551073 -0.23898853 -0.14951165 0.13976401 0.004835823
-0.20587884 0.051999614 0.06879792 -0.14874926 -0.26481873 -0.1874013 -0.029211363 -0.038253445
-0.02180027 -0.084494464 -0.09073393 -0.026276128 -0.15938766 -0.24497095 0.15365975 -0.09968355
0.06501229 -0.38152492 0.025326729 -0.21303001 -0.14101358 -0.019969344 -0.15232003 -0.0979784
00000000: cd47 4c3d 009f 823c 7293 ee3d 20e4 73bc
00000010: fe93 6abe 4122 adbd f959 8cbd 6a6d 0cbe
00000020: 747b 953d 8ca7 16bd db42 1fbe 36c0 9abd
00000030: 717a 5abe 7c15 0b3d f727 93bd 8657 9cbd
00000040: 8ec7 ae3d f2ab babd 035d 173e 57b8 25be
00000050: a474 15be a9fb 46be e070 6e3d 1f6c c6bd
00000060: c6d7 efbd c11c 103d 48b9 f0bc e097 cc3b
00000070: 683b 733d bd27 e4bd 605e 4a3c 77d3 2bbe
00000080: eb26 0340 4dca 103e 749b 59bf a561 57bf
00000090: 3f30 b7be 6a0b 973f 842d 96bd f48a 96bf
000000a0: 53d1 0dbe 8ada f6bd 7ca3 10bf 3c31 42bf
000000b0: 7924 1940 7b35 af3d 2c34 80bf e3dc 45bf
000000c0: 6bee 92bf b287 b13d 8916 16be 9815 41bf
000000d0: 68e1 5bbf d222 05bf 6152 543d 6456 803f
000000e0: a00b 6f3d 794f 4c3e 1b41 8cbd 7b0d 0fbe
000000f0: b809 3abf 3732 953d 4342 d3bf 52c3 d63d
00000100: ae54 fe3f 5c83 213d eb74 20bf f6d7 74bf
00000110: 0ba6 9abe d665 9b3f f822 e7bc 0921 c1bf
00000120: 5045 7bbd acdb 31be 4799 3fbf 34a3 84bf
00000130: 5d9c ef3f 8e61 ae3d 245f a4bf 41b0 56bf
00000140: faac 8ebf 2017 3f3c 5da6 a7bd fe08 2cbf
00000150: 3177 6bbf ad66 13bf 3582 b03d d59c 3f3f
00000160: da4f 15be 07b7 dbbc a0d8 4dbc 800c b8bd
00000170: d949 25bf d1d7 273e dda9 f2bf 84d7 1fbe
00000180: 9e6d c5bd b706 a33d 0e77 653b bb91 abbd
00000190: 4d78 013e cbe9 62bd 961b fc3c ac68 96bd
000001a0: fea7 68bd 7b20 aa3c 9d6f 9e3d 800d a5bb
000001b0: f868 62be 6965 a8bd 13d9 eebb efbb 823d
000001c0: 6c9a 86bd 3d94 b93d 0ab2 973d 6fd6 063d
000001d0: 3549 a63d 94e2 4dbe a1b9 213e 0285 62be
000001e0: 3c41 3a3d b1b4 26bd a68f ae3d b935 bb3d
000001f0: dceb 35be 8862 a23c d731 ddbd d447 bcbd
00000200: 742d 033d add2 29be 78bc a4bb 0cc7 f3bd
00000210: b014 bebd a2a7 a4bd 29b1 bd3d 81b4 46be
00000220: 70b1 f0bd e0fc d3bb de8b 4ebe 065d 73be
00000230: 815a bdbd 776a 86bd d752 8a3d c476 d1bc
00000240: 9c43 2c3e 36c4 3c3e 3693 e7bc 53cf f0bc
00000250: 9778 4cbd 2cee 583e 0ebc fdbd 4121 cabc
00000260: fabc 74bd b0be 8e3d 8713 143e ffd5 6ebe
00000270: 848c d2bd b6a2 973d f898 1dbd c850 38bd
00000280: 8783 9dbe ef28 043e dbd7 c8be 1425 dabe
00000290: e115 debe 456f e1be 8505 d5bd fb18 f2be
000002a0: fc0d 5ebe c807 46bd 1570 71be 5bff 4dbe
000002b0: 5119 a9be 88e4 c7bd a5c7 24be 4802 54be
000002c0: 5b3c 5ebe 5cae 1abe 3a5e 0fbe f986 72be
000002d0: d4e8 a3be 420e 1dbe d57d 25be a32b afbe
000002e0: b03f edbc 2284 f3be 02d0 14be c638 96bd
000002f0: b788 d9be eece acbd a4e0 60be 00f8 733d
00000300: 9595 79bf 2eea d13d 6199 c33f cfe3 9a3f
00000310: be6c b83f 4c5b dd3f b1fe d03d 8c94 f03f
00000320: cc16 a73f 234a 2b3d a3e2 b63f 69dd b73f
00000330: e46c 73bf 381a fd3c 1cc8 b03f 82d7 c53f
00000340: 0b06 e03f 4f03 903d ee8b f33d fc06 ac3f
00000350: 7d89 d63f e068 b03f 27b1 70bd f40c 5f3f
00000360: 51b2 243d 35fc a33f a5e5 08be 458b 8ebc
00000370: 943a af3f afb5 adbd 6589 0a40 8898 ea3d
00000380: 7ba4 943d 3bde f73d 634c 68bc 73d4 1ebe
00000390: 69b9 74be 9519 19be 4c1e 0f3e d375 9e3b
000003a0: e7d1 52be 8cfd 543d ede5 8c3d ba51 18be
000003b0: 5296 87be 20e6 3fbe ab4c efbc a5af 1cbd
000003c0: 7b96 b2bc 6f0b adbd b6d2 b9bd 0941 d7bc
000003d0: 8536 23be aad9 7abe fb58 1d3e e426 ccbd
000003e0: 2a25 853d 3c57 c3be 007a cf3c 8a24 5abe
000003f0: dd65 10be c096 a3bc c8f9 1bbe e6a8 c8bd

fc.2.bias f4 [16]
-0.20761515 1.7859949 1.4948344 -0.0048455386 0.08860878 -0.3979629 -0.18143605 -0.32248843
1.8484292 0.046902265 -0.0070925206 -0.27064523 -0.02729151 -0.016278103 1.7999594 -0.09718232
00000000: 1199 54be 7b9b e43f bc56 bf3f 53c7 9ebb
00000010: 8578 b53d cbc1 cbbe 5fca 39be 341d a5be
00000020: 5499 ec3f 971c 403d 6068 e8bb 0392 8abe
00000030: 7292 dfbc a859 85bc 1265 e63f 8607 c7bd

output.weight f4 [1, 16]
0.1526233 2.5747747 2.0896869 0.05893155 -0.30111656 0.23624025 -1.5693554 0.012523542
2.1963077 0.18363772 -0.08975297 -1.6814758 0.06649983 -1.6420512 2.0460987 0.029187758
00000000: 4849 1c3e 1cc9 2440 6ebd 0540 3562 713d
00000010: f32b 9abe f7e8 713e a3e0 c8bf 8b2f 4d3c
00000020: 4e90 0c40 870b 3c3e 68d0 b7bd 993a d7bf
00000030: 1031 883d bc2e d2bf 48f3 0240 2a1b ef3c

exp_avg f4 [8, 2, 3, 3]
8840.285 1322.5957 -1822.2806 660.20355 474.4184 -8050.0474 -2835.0552 -558.50934
-3436.538 673.52405 389.4875 498.50598 485.166 0.00024735444 144.2313 123.30132
-268.1179 24.811066 -610.0393 -1890.4623 -8554.327 7513.685 15168.006 100.01569
5499.6084 7780.491 -790.3853 941.4785 1238.76 1226.4288 -206.23705 -0.00039619324
-17.600548 -473.39774 -293.07028 -341.66083 -1764.6925 -69.923515 -3441.3682 -7581.168
-9940.788 6345.996 -2642.4282 -9613.21 12526.923 1020.10266 657.09106 1543.1553
318.43973 -0.0005795913 1053.0476 797.2328 434.36667 1400.1615 14097.49 -5749.8975
-16488.13 -6229.891 2586.1235 -4939.24 1687.1213 8377.834 315.7696 1564.871
1540.8892 -303.83676 374.6018 0.00115431 -1467.5422 482.50388 10.412826 -1535.5653
6059.6704 -6709.8584 -11246.05 -9894.175 1845.8677 -4673.7754 -2461.8372 -2776.181
4581.21 -315.4238 -172.1102 672.2969 -181.69904 0.00022779305 847.2238 84.335686
-2.4548194 672.26276 8280.803 -1216.4 9346.297 223.1899 -2971.5198 3160.3948
2311.9236 7284.6875 1149.278 -192.59381 513.2829 -81.72251 -815.86633 0.00011109129
-633.02637 -297.70258 484.54074 -172.49962 14637.612 -4586.6577 -1171.2013 2350.7363
7411.967 240.59288 13150.7705 4980.7217 2258.0708 2112.2266 1596.7458 898.3392
1195.8822 0.00027597073 -139.55737 1428.734 499.7762 431.05078 -2403.4658 -6137.2734
-11112.241 1290.9001 23486.043 12737.843 -399.2661 1840.6589 11137.048 1673.2625
1323.611 1953.6924 232.01286 0.00013256267 629.8568 -501.4439 -883.0367 -295.48224
00000000: 2421 0a46 1053 a544 fbc8 e3c4 070d 2544
00000010: 8e35 ed43 6190 fbc5 e230 31c5 99a0 0bc4
00000020: 9cc8 56c5 8a61 2844 66be c243 c440 f943
00000030: 3f95 f243 5aaf 8139 363b 1043 479a f642
00000040: 170f 86c3 107d c641 8482 18c4 cb4e ecc4
00000050: 4fa9 05c6 7bcd ea45 0600 6d46 0908 c842
00000060: dedc ab45 ee23 f345 a998 45c4 a05e 6b44
00000070: 52d8 9a44 b94d 9944 af3c 4ec3 28b8 cfb9
00000080: eccd 8cc1 e9b2 ecc3 ff88 92c3 96d4 aac3
00000090: 2996 dcc4 d7d8 8bc2 e415 57c5 58e9 ecc5
000000a0: 2753 1bc6 f84f c645 da26 25c5 d734 16c6
000000b0: b1bb 4346 9206 7f44 d445 2444 f8e4 c044
000000c0: 4938 9f43 b7ef 17ba 86a1 8344 e64e 4744
000000d0: ef2e d943 2b05 af44 f645 5c46 2eaf b3c5
000000e0: 43d0 80c6 21af c2c5 faa1 2145 ec59 9ac5
000000f0: e2e3 d244 56e7 0246 82e2 9d43 df9b c344
00000100: 749c c044 1beb 97c3 084d bb43 374c 973a
00000110: 5a71 b7c4 7f40 f143 ef9a 2641 17f2 bfc4
00000120: 5d5d bd45 deae d1c5 33b8 2fc6 b398 1ac6
00000130: c4bb e644 340e 92c5 65dd 19c5 e582 2dc5
00000140: ae29 8f45 3fb6 9dc3 361c 2cc3 0013 2844
00000150: f4b2 35c3 bbdb 6e39 53ce 5344 dfab a842
00000160: c31b 1dc0 d110 2844 3663 0146 cd0c 98c4
00000170: 3009 1246 9d30 5f43 51b8 39c5 5186 4545
00000180: c77e 1045 80a5 e345 e5a8 8f44 0498 40c3
00000190: 1b52 0044 ed71 a3c2 72f7 4bc4 aff9 e838
000001a0: b041 1ec4 eed9 94c3 3745 f243 e77f 2cc3
000001b0: 73b6 6446 4355 8fc5 7166 92c4 c8eb 1245
000001c0: bc9f e745 c797 7043 157b 4d46 c6a5 9b45
000001d0: 2221 0d45 a003 0445 de97 c744 b595 6044
000001e0: 3b7c 9544 2ab0 9039 b08e 0bc3 7d97 b244
000001f0: 5be3 f943 8086 d743 7437 16c5 30ca bfc5
00000200: f7a0 2dc6 ce5c a144 167c b746 5f07 4746
00000210: 10a2 c7c3 1615 e644 3104 2e46 6628 d144
00000220: 8d73 a544 2836 f444 4b03 6843 8500 0b39
00000230: d676 1d44 d2b8 fac3 59c2 5cc4 babd 93c3

exp_avg_sq f4 [8, 2, 3, 3]
5.650339e+08 1.6486007e+09 4.2155542e+08 9.4214074e+08 6.545722e+08 4.8651206e+08 1.1106173e+09 9.8378906e+08
6.536097e+08 5.408415e+06 5.092235e+06 5.364416e+06 3.3388505e+06 6.3609383e-07 1.7723669e+06 6.1859885e+06
3.1124092e+06 4.824135e+06 9.0983085e+08 1.902178e+09 9.610278e+08 7.9530835e+08 8.366006e+08 4.6892276e+07
4.7837514e+08 5.295869e+08 4.1994246e+08 1.7555012e+07 2.1009506e+07 2.0856328e+07 2.5791952e+06 7.0440706e-07
1.8237882e+06 1.5277361e+07 1.2206434e+07 1.485971e+07 1.5114141e+09 1.9133843e+09 2.0457917e+09 3.7912074e+09
1.8863036e+09 2.452859e+09 8.739835e+09 8.1814943e+09 7.4188406e+09 3.179891e+08 3.8901853e+08 3.1784867e+08
1.1081787e+07 7.636265e-06 1.0083093e+07 2.6391468e+07 1.0874464e+07 2.369213e+07 1.9578108e+09 1.0891745e+09
2.6679741e+09 7.972785e+08 9.684793e+07 2.0291702e+08 5.082242e+09 3.2091372e+09 6.18487e+07 8.711681e+07
1.1073293e+08 5.5742388e+07 8.2494725e+06 8.782924e-06 2.3428026e+07 3.7490268e+07 6.0308084e+07 9.527046e+07
1.2848063e+09 1.3149897e+09 8.4753075e+08 1.0540324e+09 3.138939e+08 5.533771e+08 5.9567174e+08 1.6476367e+09
2.2976571e+08 7.0600035e+06 864325.56 6.8824335e+06 7.203e+06 1.5218078e-06 6.1425175e+06 3.073394e+07
1.8086026e+07 2.5558512e+07 1.0186239e+09 6.9484646e+08 7.795095e+08 9.396686e+08 1.06566074e+09 1.4482222e+09
3.0701546e+08 3.6210662e+08 1.0355199e+09 1.4036763e+07 1.1632759e+07 1.2310907e+07 1.0834401e+07 8.984959e-07
5.792233e+06 1.0355521e+07 5.6209725e+06 7.6240885e+06 1.7688646e+09 8.5194746e+08 7.730401e+08 4.7824752e+08
3.3563343e+09 2.1764451e+08 2.0635565e+09 4.3785238e+08 3.494716e+08 5.6521624e+07 7.02675e+07 2.960255e+07
8.512848e+06 4.237433e-06 3.5868236e+07 2.8568432e+07 2.9844414e+07 7.188053e+07 6.1803795e+08 1.0778973e+09
1.44683e+09 1.3477504e+09 3.1838513e+09 1.6025321e+09 2.827223e+09 2.7044687e+09 2.3333893e+09 5.6576332e+07
6.759407e+07 6.3473716e+07 6.558367e+06 1.7426752e-06 4.222487e+06 9.919545e+06 7.3823015e+06 8.768657e+06
00000000: efb6 064e 4d87 c44e 6703 c94d b59f 604e
00000010: eb0f 1c4e aefc e74d 5a65 844e b88d 6a4e
00000020: 2cd5 1b4e 3e0d a54a 1667 9b4a 80b5 a34a
00000030: 8ac9 4b4a 09c0 2a35 775a d849 09c8 bc4a
00000040: 65f7 3d4a 8e38 934a abeb 584e dec1 e24e
00000050: 7b20 654e c59d 3d4e 0c76 474e 3de1 324c
00000060: 671b e44d d786 fc4d 823e c84d 22ef 854b
00000070: 314a a04b 041f 9f4b ed6b 1d4a 7c16 3d35
00000080: 62a1 de49 311d 694b 6241 3a4b bebd 624b
00000090: b32c b44e db17 e44e 9ce0 f34e 3cf9 614f
000000a0: 6bdd e04e a833 124f d33b 0250 d9d3 f34f
000000b0: 4319 dd4f 07a1 974d 9d7f b94d e38f 974d
000000c0: 3b18 294b 821d 0037 15db 194b d659 c94b
000000d0: 60ee 254b b1c1 b44b a563 e94e f8d6 814e
000000e0: 0e06 1f4f 0516 3e4e 07b9 b84c 4a84 414d
000000f0: 6e76 974f 8c47 3f4f 1fef 6b4c 8129 a64c
00000100: d034 d34c eda3 544c 01c1 fb4a 5f5a 1337
00000110: ddbd b24b 9703 0f4c 9d0e 664c c8b6 b54c
00000120: 2d29 994e 4dc2 9c4e 2c11 4a4e 084d 7b4e
00000130: 20ad 954d 75ef 034e eb04 0e4e e269 c44e
00000140: 251f 5b4d 4774 d74a 5904 5349 0309 d24a
00000150: 70d1 db4a eb40 cc35 6b74 bb4a 3a7b ea4b
00000160: 45fc 894b f8fe c24b dedb 724e 10aa 254e
00000170: 7cd9 394e d208 604e c512 7e4e 3ca4 ac4e
00000180: 7965 924d 78aa ac4d 1ee3 764e 1b2f 564b
00000190: 7780 314b 7bd9 3b4b e151 254b 2b30 7135
000001a0: d2c3 b04a 4103 1e4b d989 ab4a 31ab e84a
000001b0: 77dd d24e bf1e 4b4e a04e 384e d30b e44d
000001c0: 990d 484f de8f 4f4d bffe f54e c7c8 d04d
000001d0: 1ca4 a64d e69c 574c 4e06 864c 7bd9 e14b
000001e0: 50e5 014b 462f 8e36 93d3 084c b8f5 d94b
000001f0: dfb1 e34b ea19 894c 0b5a 134e d17e 804e
00000200: bf79 ac4e 14aa a04e b7c5 3d4f 6609 bf4e
00000210: 0084 284f eb32 214f b214 0b4f 53d2 574c
00000220: ebec 804c 0d22 724c 3e25 c84a dde5 e935
00000230: 2edc 804a 395c 174b 3b4a e14a 91cc 054b

exp_avg f4 [8]
-0.0002556259 -0.00018021234 -0.00020939406 -0.00024117426 0.0011936488 -0.00023560548 9.716884e-05 -0.0002901781
00000000: 8705 86b9 62f7 3cb9 ca90 5bb9 b9e3 7cb9
00000010: 3574 9c3a dd0c 77b9 20c7 cb38 0c23 98b9

exp_avg_sq f4 [8]
1.6484148e-06 1.355299e-06 8.019655e-06 6.8421564e-06 3.356074e-06 2.1057415e-06 5.0357653e-06 3.149674e-06
00000000: 1a3f dd35 b8e7 b535 288c 0637 ad95 e536
00000010: ea38 6136 5d50 0d36 e5f8 a836 fd5e 5336

exp_avg f4 [16, 8, 3, 3]
2708.5122 3281.7761 -330.15414 864.65125 -2674.6492 -806.8401 -2828.3755 -4599.907
-160.20358 1112.6093 -705.34186 -1142.1791 957.5606 714.4115 -360.74792 1006.90625
-1122.7251 1535.6301 1150.8086 979.22534 -1313.1594 1054.1227 1940.0999 -588.3269
3524.0396 -579.6671 -2593.6372 1762.9951 1793.9215 8.125174 -575.465 230.74191
-2666.963 -235.70226 178.3091 -2254.931 1992.019 2489.3284 413.78357 2685.5413
626.65704 -2099.963 -1699.7676 -949.0081 350.28925 2520.593 2808.0156 -147.59396
2130.0244 -552.3182 -1794.7852 2091.1582 947.9567 1204.3451 2764.3628 1980.528
-1612.9426 987.62555 -70.32134 -3085.9072 -1652.4318 -1239.8789 -2448.1838 522.65063
2748.733 -1394.0149 3463.2268 -847.3834 -292.00592 -691.97565 3048.5818 1313.4851
1659.8219 677.20715 -161.02748 883.1041 -1091.9272 -1912.5454 -9918.698 -901.52985
535.2633 259.97415 4841.764 967.68677 3041.6794 -4532.1475 -2563.0938 -5391.7974
1496.4476 1177.5283 -638.61224 727.61005 1914.7798 11.299157 -145.27214 -717.43243
-3428.6223 -1055.3082 3126.303 -2210.2869 -732.0167 -35.5355 -2224.8752 284.21207
929.85583 -929.3021 110.16964 650.41815 187.80614 294.37793 2093.1152 -2058.4873
30.554003 3256.9736 -519.6865 -1274.1115 1076.021 9.134626 2464.9722 2364.7212
162.10416 271.63742 -1023.9975 -2554.2253 913.82666 1256.3455 -1621.7544 -918.05023
-526.3597 -1753.3695 -228.54823 1057.5758 -2328.507 -539.956 554.5999 1407.2974
3133.8206 2731.598 1215.221 -3372.9116 133.43008 -2845.434 -1728.8948 2178.3433
-6120.1353 -1436.9064 -1510.8777 2281.3738 -450.2528 1308.9526 1833.0676 6040.343
2566.543 -2688.6409 -2193.2925 6240.473 -239.97226 1955.1003 -202.14975 2562.3745
-2170.5693 1802.7612 -4615.1724 -1992.5984 -282.17755 748.47217 -34.285007 2812.2515
-817.89246 -2548.5464 -2918.1533 195.70605 -400.2557 595.0951 -896.7202 -654.7364
-1076.9796 836.5482 1299.8196 79.377266 1130.7719 -1257.2806 143.37354 -5252.069
-6018.0757 -778.5459 3803.82 4427.389 1936.0981 -1682.4304 -1052.499 844.99945
-4218.226 -3831.9487 1350.7611 4483.226 2468.0427 2454.514 129.80595 1132.8552
909.05383 -1036.1642 -1143.2036 -873.1699 758.6261 2937.3333 1325.2732 -3012.1316
-2818.128 912.0538 -6122.6714 1140.45 -891.2052 1468.706 2765.2224 3455.7935
2316.3267 5490.7812 3240.9778 3533.5208 2982.7363 2270.0598 1821.9131 -3534.1008
-4365.1646 4353.654 4605.303 -918.13214 1408.1654 5258.481 2785.5955 -2079.109
-4119.2324 -2694.916 2429.5881 2957.1704 2009.7572 -1449.1871 1071.8115 298.19092
-1097.9794 -1379.4615 -764.8369 -221.53354 -784.0816 1251.661 -157.52887 10.201546
-132.06458 -1776.1259 -1131.8635 98.328026 105.67963 -364.18 602.0453 -1207.9683
00000000: 3248 2945 6b1c 4d45 bb13 a5c3 ae29 5844
00000010: 632a 27c5 c4b5 49c4 02c6 30c5 42bf 8fc5
00000020: 1e34 20c3 7f13 8b44 e155 30c4 bbc5 8ec4
00000030: e163 6f44 569a 3244 bc5f b4c3 00ba 7b44
00000040: 3457 8cc4 2af4 bf44 e0d9 8f44 6cce 7444
00000050: 1a25 a4c4 edc3 8344 3283 f244 ec14 13c4
00000060: a240 5c45 b2ea 10c4 321a 22c5 d85f dc44
00000070: 7d3d e044 b600 0241 c3dd 0fc4 eebd 6643
00000080: 68af 26c5 c7b3 6bc3 214f 3243 e5ee 0cc5
00000090: 9c00 f944 4195 1b45 4ce4 ce43 a9d8 2745
000000a0: 0daa 1c44 683f 03c5 9078 d4c4 8540 6dc4
000000b0: 0625 af43 7d89 1d45 4080 2f45 0e98 13c3
000000c0: 6420 0545 5d14 0ac4 2059 e0c4 88b2 0245
000000d0: 3bfd 6c44 0b8b 9644 cec5 2c45 e590 f744
000000e0: 2a9e c9c4 09e8 7644 87a4 8cc2 84de 40c5
000000f0: d18d cec4 20fc 9ac4 f102 19c5 a4a9 0244
00000100: bacb 2b45 7a40 aec4 a173 5845 8ad8 53c4
00000110: c200 92c3 71fe 2cc4 4f89 3e45 862f a444
00000120: 4d7a cf44 424d 2944 0907 21c3 aac6 5c44
00000130: ac7d 88c4 7411 efc4 cbfa 1ac6 e961 61c4
00000140: dad0 0544 b1fc 8143 1d4e 9745 f4eb 7144
00000150: df1a 3e45 2ea1 8dc5 8031 20c5 617e a8c5
00000160: 530e bb44 e830 9344 2fa7 1fc4 0be7 3544
00000170: f458 ef44 59c9 3441 ab45 11c3 ad5b 33c4
00000180: f549 56c5 dde9 83c4 d964 4345 9724 0ac5
00000190: 1201 37c4 5a24 0ec2 010e 0bc5 251b 8e43
000001a0: c676 6844 5653 68c4 db56 dc42 c39a 2244
000001b0: 5fce 3b43 6030 9343 d8d1 0245 cca7 00c5
000001c0: 996e f441 948f 4b45 f0eb 01c4 9143 9fc4
000001d0: ac80 8644 6e27 1241 8e0f 1a45 8acb 1345
000001e0: aa1a 2243 97d1 8743 d7ff 7fc4 9ba3 1fc5
000001f0: e874 6444 0e0b 9d44 24b8 cac4 3783 65c4
00000200: 0597 03c4 d32b dbc4 598c 64c3 6d32 8444
00000210: 1d88 11c5 2ffd 06c4 65a6 0a44 84e9 af44
00000220: 21dd 4345 91b9 2a45 12e7 9744 96ce 52c5
00000230: 1a6e 0543 f2d6 31c5 a21c d8c4 7e25 0845
00000240: 1541 bfc5 019d b3c4 16dc bcc4 fb95 0e45
00000250: 5c20 e1c3 7c9e a344 2a22 e544 bec2 bc45
00000260: b068 2045 410a 28c5 ae14 09c5 c903 c345
00000270: e6f8 6fc3 3663 f444 5626 4ac3 fe25 2045
00000280: 1ca9 07c5 5c58 e144 6139 90c5 2613 f9c4
00000290: ba16 8dc3 381e 3b44 d923 09c2 06c4 2f45
000002a0: 1e79 4cc4 be48 1fc5 7462 36c5 c0b4 4343
000002b0: bb20 c8c3 16c6 1444 182e 60c4 21af 23c4
000002c0: 599f 86c4 1623 5144 3a7a a244 29c1 9e42
000002d0: b358 8d44 fb28 9dc4 a05f 0f43 8d20 a4c5
000002e0: 9b10 bcc5 f0a2 42c4 1fbd 6d45 1d5b 8a45
000002f0: 2403 f244 c64d d2c4 f88f 83c4 f73f 5344
00000300: cfd1 83c5 2e7f 6fc5 5bd8 a844 cf19 8c45
00000310: af40 1a45 3968 1945 53ce 0143 5e9b 8d44
00000320: 7243 6344 4185 81c4 84e6 8ec4 e04a 5ac4
00000330: 12a8 3d44 5595 3745 bea8 a544 1b42 3cc5
00000340: 0c22 30c5 7103 6444 5f55 bfc5 668e 8e44
00000350: 22cd 5ec4 9896 b744 8fd3 2c45 b2fc 5745
00000360: 3ac5 1045 4096 ab45 a58f 4a45 55d8 5c45
00000370: c86b 3a45 f5e0 0d45 38bd e344 9de1 5cc5
00000380: 5169 88c5 3b0d 8845 6dea 8f45 7588 65c4
00000390: 4b05 b044 d953 a445 8719 2e45 bef1 01c5
000003a0: dcb9 80c5 a86e 28c5 69d9 1745 bad2 3845
000003b0: 3b38 fb44 fd25 b5c4 f8f9 8544 7018 9543
000003c0: 573f 89c4 c56e acc4 9035 3fc4 9688 5dc3
000003d0: 3905 44c4 2775 9c44 6487 1dc3 8839 2341
000003e0: 8810 04c3 0704 dec4 a27b 8dc4 f3a7 c442
000003f0: f85b d342 0a17 b6c3 e682 1644 fcfe 96c4

exp_avg_sq f4 [16, 8, 3, 3]
2.3524691e+08 1.8376936e+08 1.06327976e+08 3.574914e+08 2.0206675e+08 9.1984376e+07 3.0862618e+08 2.0047936e+08
2.588717e+08 1.8667734e+08 8.739578e+07 9.2788104e+07 2.8448477e+08 2.4077395e+08 9.625512e+07 3.221071e+08
2.0731483e+08 1.4978568e+08 1.0454232e+08 9.7668456e+07 7.3328584e+07 2.1790917e+08 1.1406499e+08 1.2279541e+08
1.986236e+08 1.5901942e+08 1.9788712e+08 8.2590344e+07 8.4920296e+07 3.6897484e+07 2.7278744e+07 1.874385e+07
6.6453348e+07 1.4376646e+08 1.2142761e+08 9.36473e+07 7.811315e+07 8.347595e+07 5.354493e+07 7.5185304e+07
6.0623184e+07 1.1824029e+08 8.5007864e+07 6.7012012e+07 1.1559297e+08 5.903288e+07 4.901015e+07 2.715946e+07
9.888005e+07 1.0632585e+08 1.0453497e+08 4.050371e+08 2.2861075e+08 1.27569496e+08 1.0666428e+08 8.807938e+07
5.9614624e+07 3.3343606e+07 2.7854148e+07 9.014822e+07 1.2367558e+08 1.1312536e+08 1.1544416e+08 7.934272e+07
6.210355e+07 5.3980908e+07 2.9464803e+08 2.267896e+08 1.3532742e+08 7.324221e+08 3.1671795e+08 1.3529536e+08
1.7440582e+08 1.2641981e+08 1.0311125e+08 2.0713998e+08 1.8733352e+08 1.562937e+08 2.4657894e+08 3.782697e+08
3.476786e+08 1.0007689e+08 1.5026878e+08 9.841887e+07 2.8098662e+08 1.9146638e+08 2.3910547e+08 1.3471858e+08
2.5635302e+08 2.1260709e+08 7.806899e+07 5.1981972e+07 5.444747e+07 6.711768e+07 8.424915e+07 8.006734e+07
8.621016e+07 1.0571119e+08 1.9900749e+08 3.7199924e+07 2.3048922e+07 2.0129242e+07 3.598188e+07 2.3167908e+07
5.070434e+07 6.531226e+07 5.1210172e+07 7.109911e+07 2.745316e+07 3.2754522e+07 5.750791e+07 5.5745104e+07
4.3704732e+07 6.3272556e+07 9.929657e+07 7.079814e+07 9.848758e+07 2.3825234e+07 2.5664264e+07 6.0961852e+07
9.916395e+07 1.2673845e+08 1.0062409e+08 6.6859104e+07 7.263416e+07 8.2430824e+07 3.7392396e+07 3.242418e+07
3.366214e+07 5.1480868e+07 3.9824216e+07 4.7416428e+07 6.3565176e+07 5.594411e+07 8.19196e+07 5.9887904e+07
7.449951e+07 6.6333076e+07 2.1021626e+08 2.4252218e+08 1.9880102e+08 1.5240437e+08 1.7456778e+08 1.7511971e+08
1.1810557e+08 9.630931e+07 1.504551e+08 1.9952458e+08 4.7252438e+08 6.3706944e+08 5.9393024e+08 2.557855e+08
2.0732413e+08 2.0671082e+08 7.728003e+07 6.6317276e+07 2.4473917e+08 4.8645456e+08 6.514915e+08 3.3769322e+08
3.3181245e+08 5.562043e+08 7.374917e+07 1.126783e+08 6.789803e+07 6.872049e+07 2.7985085e+08 2.8761328e+08
3.5079638e+08 2.9765744e+08 1.9090802e+08 3.1588276e+07 3.0062426e+07 1.2573069e+07 7.383421e+07 3.3802124e+07
8.419077e+07 6.6463764e+07 7.70784e+07 2.094884e+08 5.135604e+07 7.394326e+07 5.810316e+07 7.605701e+07
4.9861784e+07 6.2316764e+07 6.2108764e+07 9.954236e+07 1.00673256e+08 5.11632e+07 8.997945e+07 4.954398e+07
4.5682696e+07 1.0260194e+08 8.172585e+07 7.446707e+07 2.6463013e+08 3.9744694e+08 4.499953e+07 2.9752634e+07
3.056355e+07 9.781766e+07 3.6238616e+07 9.014219e+07 1.02223016e+08 8.695618e+07 2.4619685e+08 8.531591e+07
1.16012424e+08 5.3606236e+07 1.5924027e+08 3.343354e+08 3.075221e+08 1.4067733e+08 3.038812e+08 6.152163e+08
1.6284658e+08 9.056212e+07 1.5208102e+08 2.788813e+08 1.4097126e+08 1.29179416e+08 1.1152664e+08 1.1098229e+08
8.350967e+07 1.4956178e+08 1.1946757e+08 1.0845519e+08 2.4653648e+08 1.425193e+08 1.8772806e+08 1.6672386e+08
1.3149833e+08 6.3737384e+07 1.3385679e+08 7.584934e+07 8.071694e+07 1.09958584e+08 9.173762e+07 9.868265e+07
4.5807504e+07 5.4315772e+07 3.2670646e+07 2.1050814e+07 4.5364136e+07 2.669155e+07 3.730375e+07 1.662281e+07
2.0906576e+07 4.1735544e+07 3.7491348e+07 1.9618556e+07 3.1552056e+07 4.8087412e+07 2.6236698e+07 1.24701784e+08
00000000: 5459 604d 9141 2f4d f5cd ca4c 1677 aa4d
00000010: b4b4 404d 3f72 af4c 182a 934d 2831 3f4d
00000020: 19e1 764d 8607 324d b8b1 a64c b1fa b04c
00000030: 25a7 874d b49e 654d 9297 b74c b797 994d
00000040: f9b5 454d c5d8 0e4d 0e66 c74c ad49 ba4c
00000050: f9dc 8b4c 7bd0 4f4d cc8f d94c b236 ea4c
00000060: 176c 3d4d 1aa7 174d 49b8 3c4d 5187 9d4c
00000070: fdf8 a14c b3c0 0c4c cc1e d04b 1501 8f4b
00000080: d97f 7d4c 3c1b 094d d39a e74c 389e b24c
00000090: 30fd 944c be37 9f4c f841 4c4c 9367 8f4c
000000a0: 5442 674c 8486 e14c bf23 a24c 6ba1 7f4c
000000b0: e179 dc4c 4c31 614c 7af5 3a4c d235 cf4b
000000c0: 4699 bc4c ebcc ca4c 7762 c74c 0123 c14d
000000d0: 2c05 5a4d cb51 f34c 2b72 cb4c 82ff a74c
000000e0: 6869 634c 3b64 fe4b a282 d44b b0f1 ab4c
000000f0: 78e4 eb4c fec4 d74c 3831 dc4c 9055 974c
00000100: 00e8 6c4c bbeb 4d4c c77f 8c4d 8e48 584d
00000110: ec0e 014d 7f9f 2e4e dc05 974d 1807 014d
00000120: 8c53 264d 6c20 f14c 4aab c44c 498b 454d
00000130: b9a7 324d a40d 154d f027 6b4d 805f b44d
00000140: 3cc9 a54d abe1 be4c b74e 0f4d 17b8 bb4c
00000150: 20fc 854d b998 364d 5c07 644d 477a 004d
00000160: 307a 744d 07c2 4a4d a0e7 944c a54b 464c
00000170: 5cb3 4f4c 4e04 804c 48b1 a04c 62b7 984c
00000180: ce6e a44c cba0 c94c d0c9 3d4d 0de8 0d4c
00000190: 6dd9 af4b ed92 994b 8e42 094c d2c1 b04b
000001a0: f56b 414c 8125 794c ef59 434c 5d9c 874c
000001b0: 7473 d14b ade5 f94b 1260 5b4c 94a6 544c
000001c0: 67b8 264c 9b5d 714c a764 bd4c 6809 874c
000001d0: a4d9 bb4c a9c5 b54b 84cd c34b 0f8d 684c
000001e0: e623 bd4c 02bc f14c dbec bf4c 180c 7f4c
000001f0: e689 8a4c 6d39 9d4c 03a4 0e4c 7a60 f74b
00000200: 2f69 004c 4962 444c d6ea 174c 1be1 344c
00000210: 5e7b 724c ec68 554c ce3f 9c4c 4874 644c
00000220: b718 8e4c 650a 7d4c 547a 484d 8449 674d
00000230: 6897 3d4d 1958 114d 167b 264d d601 274d
00000240: bc44 e14c 08b2 b74c 347c 0f4d 0e48 3e4d
00000250: 3351 e14d a2e3 174e a09a 0d4e a2ef 734d
00000260: 3eb8 454d 8222 454d 6466 934c f7fa 7c4c
00000270: c666 694d a9f5 e74d e353 1b4e 5106 a14d
00000280: 7338 9e4d 049c 044e 56aa 8c4c b4ea d64c
00000290: 5681 814c ed12 834c 7b71 854d 0b25 894d
000002a0: d345 a74d 23ef 8d4d 6710 364d daff f04b
000002b0: ad5b e54b 8dd9 3f4b dcd3 8c4c e3f1 004c
000002c0: c694 a04c 058a 7d4c f003 934c a1c8 474d
000002d0: 62e8 434c 1c09 8d4c 5ea5 5d4c 3611 914c
000002e0: 2635 3e4c 37b8 6d4c 17ed 6c4c abdc bd4c
000002f0: dd04 c04c 102c 434c 479f ab4c cbfe 3c4c
00000300: 0244 2e4c 9ab2 c34c 33e1 9b4c e008 8e4c
00000310: f75e 7c4d 7984 bd4d daa8 2b4c 9dfe e24b
00000320: 6f2e e94b 8892 ba4c 463d 0a4c beee ab4c
00000330: 95f9 c24c 12db a54c a7ca 6a4d 29ba a24c
00000340: b146 dd4c d77d 4c4c 05dd 174d 6d6c 9f4d
00000350: 52a3 924d 0d29 064d e0e6 904d d3ad 124e
00000360: 774d 1b4d c9bb ac4c 2809 114d 21fb 844d
00000370: d070 064d e363 f64c 5eb8 d44c 92ae d34c
00000380: 3548 9f4c 1ba2 0e4d c6dd e34c a3dc ce4c
00000390: 921d 6b4d c0ea 074d 0c08 334d 1100 1f4d
000003a0: 2bd0 fa4c 8a23 734c c34f ff4c d0ab 904c
000003b0: 92f4 994c b7ba d14c c2f9 ae4c e338 bc4c
000003c0: e4bd 2e4c bf32 4f4c db41 f94b df9a a04b
000003d0: ea0c 2d4c efa3 cb4b 724d 0e4c daa4 7d4b
000003e0: 2881 9f4b 5e35 1f4c a504 0f4c 7ead 954b
000003f0: 1cb9 f04b 5d70 374c 8d2b c84b 8bd9 ed4c

exp_avg f4 [16]
-0.00025132849 -0.00021515018 0.00024786824 -0.000105100255 0.00030722836 -0.0006493163 8.640527e-05 -5.7046523e-06
-0.00049857463 0.00029298104 0.00032804854 -0.0011744816 0.00010019614 0.0012048646 -0.00039970284 7.888455e-05
00000000: bdc4 83b9 f099 61b9 50f4 8139 4569 dcb8
00000010: 7e13 a139 e136 2aba 7a34 b538 976a bfb6
00000020: c7b2 02ba 409b 9939 eefd ab39 10f1 99ba
00000030: 6520 d238 8cec 9d3a 358f d1b9 d26e a538

exp_avg_sq f4 [16]
2.5336349e-06 1.8781155e-06 3.269748e-06 1.6122148e-06 2.9541538e-06 1.5127031e-06 5.7983757e-06 1.6436529e-06
3.414871e-06 4.661207e-06 3.111736e-06 9.9792305e-06 6.9069614e-07 4.1585313e-06 6.569961e-06 8.3341433e-07
00000000: 8407 2a36 8f13 fc35 d86d 5b36 4763 d835
00000010: fa3f 4636 1508 cb35 ab8f c236 7c9b dc35
00000020: 092b 6536 7767 9c36 38d3 5036 786c 2737
00000030: 4768 3935 8389 8b36 8973 dc36 ccb7 5f35
