output/mlp/red/checkpoints/epoch_42.pt (torch, 113546 bytes, 27 tensors)

input.0.weight f4 [50, 13]
00000000: f97e 45be 58e1 2ebe d871 873d 4fb1 49be
00000010: 418d e73d 3fbf 993e d55c 603e 5806 9cbd
00000020: 3dbe 2f3e 80fe 79bd ca09 4dbe 3a47 553c
00000030: 2a28 5f3d 25ed cd3d bee7 8bbd c1e6 71be
00000040: a7fb 3dbe cc9d e53d fdf3 1dbe dae6 73be
00000050: 8b37 b73d e161 f0bd 7446 0dbd f576 14bd
00000060: 9520 e3be 2e99 0d3e 2cb3 9a3e d836 ee3d
00000070: d4f7 a3be dbae 33be 7bac 3f3e fe9a 5bbe
00000080: 379f 213e ea69 043e d414 91be ef1b 34be
00000090: dab8 23bd 805b 9d3d a5b7 11bd d505 053e
000000a0: 8bc0 7cbe 2a1c 1b3d d182 8a3d 577c 5ebe
000000b0: 7dc7 243d 8de4 73be 7760 0f3e 5874 2abd
000000c0: 191d 43be c59d 20bd 8604 dbbe 74f9 48be
000000d0: a467 b0bd 8731 293e c92d 77bc 53be d0bd
000000e0: 7d03 19bd 8d98 303e 3450 0d3e e630 28be
000000f0: fb2d da3b 1b11 85bd 69b7 6c3c 3eb9 683d
00000100: 1d57 19be 0e77 fb3d 7f39 e8bd 4fac 3b3e
00000110: 06f8 4a3e bb7e 833d c213 60be 6701 e03d
00000120: 2ed4 6bbe f70a 41be ce93 7abe c3d6 943d
00000130: b8b6 bdba 9403 683d d5c6 4e3e acb9 ff3d
00000140: df1c 08be 1ed4 e03d 78cf 163e ae1c 34be
00000150: ec5c 9d3d d39a 68bd ab80 123e 88e2 91be
00000160: 770c d33d 55f3 1ebe a1f2 4cbe 2364 85bd
00000170: 3178 3d3e fbc3 603d 8e75 543e 8d12 07be
00000180: c998 aabd 87f6 873d 0402 39be 967c 7ebd
00000190: 2716 123e b00c cabb 15aa cabe ff0b 213e
000001a0: 808e 03be f7b6 9ebe 9410 a93e 201d 3d3d
000001b0: c514 933e 86f6 adbd b868 3cbe 4211 9a3e
000001c0: e5c3 93be 8388 823d ddae 26be 30c9 973e
000001d0: 141d 073e a5ed 70be 29ec 9ebd 6529 4f3e
000001e0: d7e4 8abe 4ec7 883e 814c 6bbe fbed bebd
000001f0: d43d d7bd 33a9 4fbe 7f7b db3d 9666 f4bd
00000200: 51bf 6cbe 38ec a7bd c5c3 d6bd f9ea c63c
00000210: d866 29be 5a96 2dbe 32c5 8f3d eb09 b93d
00000220: 089d ab3e 7f03 253e 02f3 8c3e 3ee9 3c3e
00000230: bdaa 3c3e 7c4f 9b3d 7afd 84bd 1f2d 703e
00000240: fb1e f1bd bda9 b4bd 5f3f bbbe 1fc0 103e
00000250: 6c24 e93c 8e05 00be 1639 6b3e f92b 3cbe
00000260: 6c79 933e c1d8 803d effa 683d 001d ad3d
00000270: a13d 80be 9941 08be 3177 7a3e 9cbe e7bd
00000280: 8c48 0a3e c23a 6d3e 748d a53e c0dd c6be
00000290: 0c62 993c 458e 70be 34d1 883d ef64 b33c
000002a0: 1a7a 423e 848a 0e3e ec3c 80be be55 ed3d
000002b0: d88e 57bd 99ea d6bd 342b 9ebe ba04 393e
000002c0: 963a 523e 04ef 943d b64d 93bd f57e 643e
000002d0: e13e 9b3a 0322 153e 7013 8a3e 0f5d 873e
000002e0: 52a2 343e f7f7 5dbe cae7 ad3d 0a7f 193c
000002f0: dc95 e7bd 857f 79bc 14d7 bc3e 9d34 473e
00000300: 48ff a63e 47bc e23c 5f74 ecbd 66b5 fe3d
00000310: d8d5 953c ed0a 1e3c 8f25 d5bd 4fe7 0cbe
00000320: 7d6a 423e dfdc 603e fad7 c0be dc1a 15be
00000330: 4876 e5bd 6b63 47be 1a4a 2c3b e8fc 183e
00000340: 2ef5 2e3e 2718 8cbe 7e9d 843d a077 243d
00000350: 0538 22bd 48e5 663e d335 7a3e 2ad6 4f3e
00000360: 02cd 333e 95b7 bd3d 9ae4 f7bd b8e3 b13c
00000370: be37 72be ea7a 2e3e 4242 853e 4c73 aebe
00000380: 3bd2 7b3e a1be 85be e0a8 8c3d ae77 c63e
00000390: 7424 8a3e be58 4f3e efe7 363e 1482 883e
000003a0: dcc7 643c d62b 0abe fa51 913e 1b0a 523e
000003b0: 8174 59bd 4700 103d e8ae 973e 0f7b 5b3e
000003c0: 2f3b bf3d 990a 973e 96e3 4fbe da40 d9bc
000003d0: 7e85 9ebe 6c3f a13d 3408 eb3d 4a77 0fbe
000003e0: 9bd4 cb3d 2abf 73be f6d9 38be a93f e73c
000003f0: d80a e73d 2a94 e9bd 06cb 023d 12de 463c
-0.19286717 -0.1707815 0.06613511 -0.19696544 0.11306239 0.30028722 0.21910413 -0.076183975
0.17162414 -0.061033726 -0.20023265 0.01301747 0.054481663 0.10054997 -0.06831311 -0.23623182
-0.18553029 0.11211738 -0.15425105 -0.23818532 0.08946141 -0.11737419 -0.034491017 -0.03624626
-0.44360796 0.13827965 0.30214822 0.11631554 -0.32025015 -0.17547171 0.1871814 -0.21445844
0.15783392 0.12931028 -0.28336203 -0.17588781 -0.03997121 0.07683468 -0.035575528 0.12990506
-0.24682824 0.037868656 0.067632325 -0.2172712 0.04022931 -0.23817654 0.14001642 -0.04161486
-0.19054069 -0.03921296 -0.4277689 -0.19626409 -0.08613518 0.165228 -0.0150866 -0.101925515
-0.037356842 0.17245694 0.13800126 -0.16424903 0.0066583133 -0.06497403 0.014448025 0.056817286
-0.14974637 0.12278567 -0.113390915 0.1832745 0.19821176 0.06420656 -0.21882537 0.109377675
-0.23030159 -0.18851839 -0.24470446 0.07267525 -0.001447401 0.056644037 0.20193036 0.12486586
-0.13292263 0.10977958 0.1472758 -0.17589065 0.07683739 -0.056788277 0.14306895 -0.28493142
0.10305112 -0.15522511 -0.2001443 -0.0651324 0.1850288 0.0548744 0.20747969 -0.1319067
-0.08329923 0.06638818 -0.18067175 -0.062130533 0.14266263 -0.0061660632 -0.39582887 0.15727232
-0.12847328 -0.30998966 0.3302046 0.046170354 0.28726783 -0.08494286 -0.18399322 0.30091292
-0.28860393 0.06373694 -0.16277643 0.2964568 0.13194686 -0.23528154 -0.07759888 0.20230635
-0.27127716 0.26714557 -0.22978403 -0.09322735 -0.1050984 -0.20279388 0.107169144 -0.11933629
-0.23119856 -0.08199352 -0.10486559 0.024281966 -0.16543138 -0.16951886 0.07020034 0.09035095
0.33518243 0.16114615 0.2752915 0.1844835 0.18424506 0.0758352 -0.06493659 0.23454712
-0.11773487 -0.088214375 -0.36571786 0.14135788 0.02845975 -0.12502119 0.22970995 -0.18376149
0.28803575 0.062913425 0.056879934 0.08452797 -0.2504702 -0.13306274 0.2445953 -0.11315653
0.13504237 0.23166946 0.32334483 -0.38841057 0.01872351 -0.23491772 0.06680527 0.021898715
0.1899189 0.13920027 -0.2504648 0.1158862 -0.05262646 -0.10493965 -0.30892336 0.1806821
0.20530161 0.07272151 -0.071925566 0.22314055 0.0011844301 0.14563756 0.26967955 0.26438186
0.17640045 -0.21676622 0.08491476 0.009368667 -0.1130788 -0.015228157 0.36882842 0.19453664
0.3261664 0.027677668 -0.115456335 0.12436943 0.018290445 0.00964616 -0.10407554 -0.13760112
0.18985935 0.21959256 -0.37664777 -0.14561027 -0.11204201 -0.19471519 0.0026289285 0.14940226
0.17085716 -0.27362177 0.06475352 0.040153146 -0.039604206 0.22548401 0.24434595 0.20296541
0.17558673 0.09263531 -0.12104149 0.02171503 -0.23654076 0.17039075 0.26027113 -0.3407234
0.24591915 -0.26122 0.06868148 0.38763183 0.26980937 0.20248696 0.17861913 0.26661742
0.013963666 -0.13493285 0.28382856 0.20511667 -0.053089622 0.035156514 0.2962563 0.21433662
0.0933746 0.29500273 -0.20301661 -0.026520181 -0.3096122 0.07873425 0.11476174 -0.14010349
0.09952661 -0.23803392 -0.18051895 0.028228598 0.11281365 -0.11405213 0.0319319 0.012137907

input.0.bias f4 [50]
00000000: 852c 79be 3325 52bc ce0f 59be 8ce4 90bd
00000010: a810 dcbd 704b e93d cfc0 8c3e 1f8e 783d
00000020: b943 10be e2fa b23d 6862 0bbe c8d6 433c
00000030: 4420 2a3e a233 efbd deea cbbc da7d 743e
00000040: 8b51 8bbe 5fae 723d cac8 293e c3c7 44be
00000050: ea50 813e a2b6 6dbe 62ab 22be 0348 49bd
00000060: 9175 7fbe d2fc 22bb 75ff 2abe 84b0 49bd
00000070: fdd4 3ebe ced9 863d e74a 61be 6d57 1bbe
00000080: 93b2 81bd c977 053e 8d3d 6c3e 1672 cc3d
00000090: da37 853e 1b78 a03c 99ee 193e 4809 1dbd
000000a0: 40fc 303e f0cc ee3d dd10 453e fc8d 753e
000000b0: cc71 38bd a33f 84be 541a 53bd d3c8 06bd
000000c0: eea1 12be 1a49 783e
-0.24333389 -0.012826252 -0.21197435 -0.07074842 -0.107453644 0.11391342 0.2749085 0.060682412
-0.14088334 0.08739258 -0.13611758 0.011953063 0.16613871 -0.1167977 -0.024892267 0.23876134
-0.2721065 0.059248324 0.16580501 -0.19216828 0.25257045 -0.232142 -0.1588569 -0.04914094
-0.24947192 -0.002486993 -0.16699012 -0.049240604 -0.18635936 0.06584512 -0.22001229 -0.15170069
-0.063328885 0.13033976 0.23070355 0.09982698 0.26019174 0.01958852 0.15032424 -0.03833893
0.17283726 0.116601825 0.19244714 0.23979944 -0.0450304 -0.258298 -0.05153878 -0.032906365
-0.14319584 0.24246636

hidden.0.weight f4 [50, 50]
00000000: 7eac e5bc 16c1 a2bd 02a3 aabd f70c 82bd
00000010: 4c7b 7b3d 1b24 c1bc 840c 98bd 0783 f73d
00000020: b11f 723d d0f6 e83d d0c5 26be 18bc cd3d
00000030: 2a59 35be 56c2 2c3d 743b aabd 5b99 31bd
00000040: 9bbd 323c a2d8 8bbc b367 afbd bacb ccbd
00000050: 1917 95bd dd07 b83c dfd7 b8bd adb6 8cbc
00000060: e71d f9bd ccc1 c2bb 5550 62bc 52d6 a43d
00000070: e1c0 9c3d 9e68 5fbd 0655 213d 2355 6eb9
00000080: 17d3 1b3b b82d 3bbe 0c98 c33d 6d69 bbbd
00000090: cd28 b2bd 23b1 99bd 4edd dc3d 19dc 9cbc
000000a0: b045 953d 10da 94bc 362a eabd e709 f13b
000000b0: 77ca efbd 566c 0c3e 71a9 243d 6be7 4fbd
000000c0: 0a0b 05be 9153 eabc 1d49 dbbd 4e5c 3bbd
000000d0: 7f5c 9bbd 9ce8 b03c 48c7 7c3d 6bb6 b6bc
000000e0: ed4f afbd 553a c33d 1406 03be 7dc8 b4bd
000000f0: 6462 f73b f4c2 943c ab16 debd c3fb 55bd
00000100: 90c3 09be a477 f0bd 8ee9 b6bd 34cd 343d
00000110: 88c5 8abd a4a8 9dbd 50c3 833d e0e9 63bd
00000120: 95dc 3abb 2efd 3d3d dce0 6a3d c980 a9bd
00000130: 7914 e9bd 58a3 bf3d 6278 11be 0c2f 26be
00000140: 83b0 cd3c 65fd 33bd 9c72 38bd 6cf1 eebb
00000150: 134a bfba 8d9c af3d aeb5 753c a6bd 743d
00000160: 5819 903d 824b 063c ddad 05be c3b1 e7bc
00000170: 79e8 d5bd 820f 933d d8f7 60bc 4463 963d
00000180: b8f5 693d 5070 8f3d e610 0cbd 1b52 c6bd
00000190: 9b1a 1f3e 874e 763d 837b 993d fc90 0ebe
000001a0: 1438 14bd dfac 953d 2efa 2f3d ec22 003e
000001b0: 6e0b 903d 454a 51bc 9cb8 bf3d 24c5 803d
000001c0: 4d4e af3c 3ccc b23d 8800 c33a 0f5b 0a3c
000001d0: 9321 1a3e 852f 543d e5f2 ad3d a709 043e
000001e0: cb32 e43d 2d78 a4bd f069 5fbd 5f04 573c
000001f0: 99e3 213e 0c61 183e 3364 f03d 46ba b03c
00000200: dcef 833d e42c 833d 471c 9c3d ed11 b53d
00000210: 44e8 8ebc 939e c03d a908 f13d 70a7 de3b
00000220: d665 fcbd ccb8 1dbd c4f4 1a3e cf22 1b3d
00000230: f1ad bebd e4d2 a73d af46 8d3d 1415 383d
00000240: 2432 193e b8a8 b03d 4b6a bf3d 4e8b 13bd
00000250: f199 5f3c e4aa 3abd e565 84bd 6b81 05be
00000260: 488f fb3c 1858 06be 5c49 03be dfb3 96bd
00000270: f498 5abc 6a0e 24bd 1e37 fdbd ea43 3e3e
00000280: f92a fd3b 2429 02be daba 9abd 4d69 4ebe
00000290: 2507 21be 7d5e f53c b90d ffbb d1ca 42be
000002a0: 33de efbd b1a7 5dbc 5d77 0fbe 4447 57bd
000002b0: 8349 29be 27f1 0c3e 040b 5a3c 6322 223d
000002c0: 206e bc3d 18b3 503d 6e6f 32be dc4f 38be
000002d0: 4635 b7bd 3f02 18be cdb6 cfbd 2ff7 bdbd
000002e0: 708d 50bd 6e15 663d f973 8abc c8fa ccbc
000002f0: 9652 ec3c 1911 43bd 7d58 22bd 2c00 443c
00000300: 9fb2 b8bd 3b8e 0cbe 82f5 a03d 3eed 06be
00000310: 5716 9ebd 7dae 0dbe 94c0 37be 3c30 90bd
00000320: c097 1fbe a617 05bd 9e52 f9bd 4417 09bc
00000330: ce15 913c 42a4 653d 6830 8bbd ddd3 9fbc
00000340: 39da 6cbc 783e 443c a240 40be 3907 42bd
00000350: 5220 383d 387b bc3a 3ce7 883d 921e 01bd
00000360: 3b8b 15be a82c 8dbd da4f 6abd 068c 883c
00000370: 675c febc 27b9 ed3d 4e00 89bc 82fd 88bd
00000380: 9693 87bd c182 593d ff94 893d a06f b6bd
00000390: 94ee 37be 300e 0c3d 18dd 96bd 550b 663d
000003a0: 4d7d 453e 05c7 fc3b aaf4 e6bb afa9 e83c
000003b0: f2a3 eabc 3299 08be 0a10 793d 92e7 6f3d
000003c0: 7d2d fa3c eef0 4bbb 7aaf 113c a63f fdbd
000003d0: d40c 293a 1687 3bbd 3311 05be 0830 56bd
000003e0: c440 643d a649 ea3d 8fe8 0abe 36c9 cdbc
000003f0: a9b4 52bd 03b9 06bd 983a 843d 2b4d 35be
-0.028036352 -0.079469845 -0.083318725 -0.06350129 0.061396882 -0.023576787 -0.07424262 0.12085538
0.059112255 0.11375201 -0.16286397 0.10045642 -0.17709795 0.04217752 -0.08312121 -0.04335914
0.010909463 -0.017071072 -0.08564701 -0.09999795 -0.07279796 0.022464687 -0.09025549 -0.01717695
-0.121639065 -0.0059435125 -0.013813098 0.08048691 0.07653976 -0.05454313 0.039387725 -0.00022729165
0.0023776942 -0.18279159 0.09550485 -0.09150968 -0.086991884 -0.07504489 0.10784398 -0.01914792
0.072886825 -0.018170387 -0.11433832 0.007355917 -0.11708539 0.13713202 0.040200654 -0.050757807
-0.12992492 -0.0286043 -0.107073046 -0.045742325 -0.075860016 0.021595292 0.061713487 -0.02230378
-0.085601665 0.0953261 -0.12795287 -0.088273026 0.007549571 0.018159367 -0.10844167 -0.05224205
-0.13453507 -0.1174157 -0.08931266 0.04414101 -0.06775957 -0.07698181 0.06433737 -0.055642962
-0.0028512825 0.04638403 0.05734335 -0.08276517 -0.11380858 0.09357327 -0.14206079 -0.16228884
0.025108581 -0.043942828 -0.045031175 -0.0072919633 -0.0014594219 0.085747816 0.014996929 0.059751175
0.07036084 0.008196713 -0.13054605 -0.028283006 -0.10444731 0.07180692 -0.013730966 0.07343152
0.0571191 0.07003844 -0.034195803 -0.09683629 0.15537493 0.060133483 0.07494261 -0.13922495
-0.036186293 0.07308363 0.0429632 0.12513322 0.0703343 -0.012774055 0.09361383 0.062876016
0.021399641 0.08730361 0.0014877478 0.008444562 0.1505187 0.05180313 0.08493594 0.12894307
0.111425005 -0.08030734 -0.05454439 0.013123601 0.15809478 0.1488077 0.117378615 0.021573197
0.06442234 0.064050466 0.07622581 0.0884131 -0.017444737 0.09405246 0.1176923 0.0067948624
-0.12324111 -0.038506314 0.15132433 0.037874993 -0.093105204 0.08194521 0.068982475 0.044941977
0.14960533 0.086259305 0.09346446 -0.036021523 0.013647542 -0.04557313 -0.06464747 -0.1303765
0.03070797 -0.13119543 -0.12820953 -0.073585264 -0.013342131 -0.04005281 -0.123640284 0.18580595
0.00772607 -0.12711006 -0.0755517 -0.20157357 -0.15725382 0.029952282 -0.0077836183 -0.19022681
-0.11712303 -0.01352875 -0.14010377 -0.0525582 -0.16531949 0.13763867 0.01330829 0.039583575
0.09200692 0.050952047 -0.1742532 -0.17999214 -0.08945708 -0.14844607 -0.10142288 -0.09275662
-0.050916135 0.05617278 -0.016901003 -0.025021926 0.028847974 -0.047623727 -0.03963517 0.011962932
-0.09018444 -0.13726132 0.07859327 -0.13176438 -0.07719105 -0.13836093 -0.17944556 -0.0704045
-0.15585232 -0.032493256 -0.12173961 -0.008367363 0.017710593 0.05606485 -0.06796342 -0.019510204
-0.014456325 0.011977784 -0.18774655 -0.04737017 0.044952698 0.0014379984 0.066847295 -0.031523295
-0.14603893 -0.06893283 -0.05720506 0.01666833 -0.03104992 0.11607581 -0.016723778 -0.06688978
-0.06619947 0.053103212 0.06717872 -0.089080095 -0.17962104 0.034193218 -0.07366389 0.05616315
0.1928608 0.0077141547 -0.007048209 0.028401224 -0.028642628 -0.1333969 0.06080631 0.058570452
0.030539269 -0.0031118947 0.0088919345 -0.123656556 0.000644875 -0.045783125 -0.12994842 -0.0522919
0.055725828 0.114398286 -0.13565277 -0.025120359 -0.051441822 -0.032891285 0.06456488 -0.17705218

hidden.0.bias f4 [50]
00000000: cf78 d43c fdc9 19bc faa0 9dbb cf5a 88bd
00000010: 867b c9bd b296 8abd 014a b73d c2ce 003d
00000020: 0bfd 4c3e 2532 3dbc 57f5 49bd 7386 c7bd
00000030: 9cb4 9fbd 91f5 02be 8152 99bd 053d 673d
00000040: 0767 fdbd 7e10 353e 7a9d 87bd 15ea 883d
00000050: 9c46 4fbc ae31 90bd cf05 853d aa5c 173e
00000060: 2bd8 453e 5db2 ef3c d85d 35bd 7a60 9dbd
00000070: 297c b9bb d295 b13d c815 d8bd 2738 813e
00000080: 551e 963d 27c5 293e 34e7 20bd b62d d4bd
00000090: e2e4 313d ee96 c9bc e1b1 e8bd 896f a4bd
000000a0: db3b 2b3e 6ebf abbd bfda 503e 7645 e0bd
000000b0: 268e 83bd 7863 c2bd 7609 893d 1d46 2bbd
000000c0: 7253 b73d 3421 38bd
0.025936512 -0.009386537 -0.0048104497 -0.06657945 -0.09838013 -0.06767024 0.08949662 0.03144718
0.20018403 -0.0115476 -0.04930624 -0.09742441 -0.077981204 -0.12788989 -0.074864395 0.056454677
-0.123731665 0.17682073 -0.06621833 0.066852726 -0.012651112 -0.07040726 0.064952485 0.14781442
0.19320743 0.029259855 -0.04427895 -0.07684417 -0.005660553 0.08671154 -0.105510294 0.25238153
0.07330004 0.16579114 -0.039282992 -0.10360281 0.04343117 -0.024608102 -0.11362053 -0.08029086
0.16722052 -0.08386122 0.20395945 -0.109507486 -0.06423597 -0.094916284 0.06691258 -0.041814912
0.08951463 -0.04495354

hidden.3.weight f4 [50, 50]
00000000: 0be3 eabd a7fd d2bc db3e d73d bc6a 0a3e
00000010: 1690 90bb 0317 eebd 1680 af3d 0630 d7bc
00000020: 562b 38bd 9255 b5bd e407 873d 90cb 963c
00000030: 7850 bd3c 7e96 65bd 4987 c33c 734a d4bd
00000040: 5717 c43d 736d 2cbe 7218 c13d e025 9cbc
00000050: 5521 dcbc 0291 7cbd d2da d63d 91fa 7e3c
00000060: 17c8 07be 88ab 5f3d 3ded ec3d b044 ed3c
00000070: 0357 ac3c 0e50 78bd ca17 abbc 9ccf a03d
00000080: 99be 95bc 828e cbbd 4f3b 3d3e 91ec 353d
00000090: a816 ad3d 24c9 ef3d a44e 213d 53b1 60bd
000000a0: 6632 b5bd f612 e43d 25e5 b1bd 42ef be3d
000000b0: 12c9 9d3d a365 2d3e 0610 413d 13cc c3ba
000000c0: 8525 a13c 417d e7bb becd 48bc e178 fdbd
000000d0: 6e71 003d aaf6 f03d cb1c 3c3d a2ec a5bd
000000e0: 6057 143c 821e 0dbe 3cec 47be 9333 033e
000000f0: 5518 da3d 5256 73bd 0b92 a0bc 5154 1bbd
00000100: c9f8 c03d 5237 56be 326c 4c3c 60cb 8abd
00000110: 01e2 d6b9 a8c9 87bd e1b3 693d 656c b4ba
00000120: b239 8fbc 7f14 75be 21cd 42bd 7d04 65bd
00000130: 5dd4 15be b19b 043e 4d58 9bbc 7f4b 4bbe
00000140: f822 e6bc 4a65 56be 9586 56bd 7a27 88be
00000150: 7e28 063e f149 833d c05d 89be e993 cabd
00000160: b322 b43d e809 993c df9a 3abe 057c 82be
00000170: 4564 eebd d873 863d ddbf 173e 9523 29bd
00000180: e97d 20bd 0e34 01bb d32b 403c b2bf f03d
00000190: 6ac7 34be bc05 c83d ff47 58be 2bce 343d
000001a0: fc63 4a3d c291 1abd 9543 04be d30c 40bd
000001b0: e3ba 65be 5206 00be c886 973d d0f8 edbd
000001c0: 7b7a 17be 8565 bebc c9cb 433d d3a8 5bbe
000001d0: 42d3 fcbb e919 06be 0fdd fabc 1bea 0dbe
000001e0: d5a5 983d 938b 503d 1c2a 45be 238a c4be
000001f0: 1822 babd 2433 03be 1a8e f8be 7481 f2bc
00000200: 9758 36be 89c2 1fbe e540 d0bd 87f1 88be
00000210: 3e7b 1d3b 4ff1 0bbe 48d8 e3bd ab68 bcbd
00000220: a60a 71be be51 75be c829 a4bd 905c 3bbd
00000230: f2f0 96be dcca acbe fa65 89be a9a9 be3d
00000240: 123f e53d 9130 ffbd cba0 8abd 7b9c 84bd
00000250: 5fb1 9cbd 9124 633c 17d4 3f3e c888 b03c
00000260: b51c 173e ad75 bfbd 999c e4bc 5c0a afbd
00000270: ac13 053e 2dba 143e dcad f33d 7f09 d23d
00000280: 3da7 1cbd 859a 1d3e 5fe9 183c 45e6 b43d
00000290: 37ca f23d f705 d8bc 0ed2 d3bb 6adb de3d
000002a0: 0851 8f3d d1be 043d e4c4 35bd d086 69bd
000002b0: 6310 5e3d 74d2 fb3d 7063 233e 9db8 ec3d
000002c0: a03f 503e 5cf0 bb3d 598e a43d 2b15 e93c
000002d0: a855 253d c8e1 193e ca52 eb3d 2c22 2e3e
000002e0: b545 c63c ce93 e73d f5cd ff3d 985d 6c3e
000002f0: e83c bb3d c84b 75bd 3e70 973d 333b 3d3e
00000300: d38a fc3d 7a94 1c3d a7d0 15bd 210b 11bc
00000310: f3e7 1b3d 5d4e 843c a7f5 3ebc 935f 3e3d
00000320: 620d dc3d 48da 8cbd 1529 5fbd 45aa 3e3d
00000330: f63b a53d 8d33 07be 40e2 1b3d 1d7d eb3c
00000340: 91cf d73d c3b0 1dbd 552a 74bd 137d 183d
00000350: 7de8 a83d b75d c43c 0455 963d 7827 143e
00000360: 933f 9b3d b198 a8ba f3dc cbbd 6cee 7b3d
00000370: 2b32 11bd 2047 cdbd a599 c8bd 4d10 a23d
00000380: 74dc 3cbb 463f aebd 0436 9abd cd13 df3c
00000390: 3081 753d 2b92 0dbd baef 9d3c c0c9 d43c
000003a0: 9546 d83d d5b6 243e 7ca7 18be f141 683c
000003b0: b3d1 22bd 2671 23be a827 603d cff4 933d
000003c0: 69fc c83c 9f96 353d 7f57 c13d dc33 adbd
000003d0: c61e c1bb ada5 09be becf cd3d 6f6e c9bd
000003e0: 94bd c7bd 26ac fdbb fbda 55be 839d c4bd
000003f0: 78b1 08be e110 ffbc 9bd2 1fbd 8080 0dbe
-0.11469086 -0.025755716 0.105100356 0.13517278 -0.0044117076 -0.11625483 0.08569352 -0.026268017
-0.044963203 -0.08854212 0.06593302 0.018407613 0.02310966 -0.056051724 0.02386822 -0.103657626
0.09574764 -0.16838627 0.09428491 -0.019061029 -0.026871363 -0.061661728 0.104909554 0.015562669
-0.13259922 0.054606944 0.11568687 0.028963417 0.021037584 -0.06062322 -0.020885367 0.07852098
-0.01827936 -0.099392906 0.18479656 0.04441506 0.08451587 0.117082864 0.03938164 -0.05485661
-0.08847503 0.11136429 -0.08686284 0.093229786 0.07704367 0.16933303 0.04713442 -0.0014938138
0.019671211 -0.007064492 -0.012256084 -0.123765714 0.031358175 0.117657974 0.045925897 -0.08101775
0.009054035 -0.13781169 -0.1952371 0.12812643 0.10649172 -0.059408493 -0.019600889 -0.037922207
0.09422452 -0.2091954 0.012476968 -0.06777072 -0.00040985647 -0.0663026 0.05705631 -0.0013765214
-0.017483566 -0.239336 -0.047558907 -0.055912483 -0.14631791 0.12950017 -0.018963004 -0.19853018
-0.028092846 -0.20937076 -0.05237444 -0.26592618 0.13101384 0.064105876 -0.26829338 -0.09891493
0.08795681 0.018681481 -0.18223141 -0.25485244 -0.11640219 0.06565064 0.14819284 -0.0412937
-0.039182577 -0.0019714865 0.0117291985 0.11755313 -0.17654195 0.09766719 -0.21121214 0.04414193
0.04941176 -0.03773666 -0.12916405 -0.04688723 -0.22434573 -0.12502411 0.07398754 -0.11619723
-0.14792816 -0.023241768 0.047801767 -0.2145112 -0.0077156136 -0.13095821 -0.030622987 -0.13858835
0.07453505 0.05091436 -0.19254345 -0.3838664 -0.09088534 -0.12812477 -0.48545915 -0.029602744
-0.17807232 -0.15601553 -0.10168628 -0.2674677 0.0024029757 -0.1366627 -0.11125237 -0.09199651
-0.23539218 -0.23956963 -0.08015782 -0.04574257 -0.29480702 -0.3374852 -0.26835614 0.09309704
0.1119367 -0.12460435 -0.0676895 -0.06475159 -0.07651018 0.013863699 0.1873325 0.021549597
0.14757045 -0.09348617 -0.027906703 -0.08546898 0.12995785 0.14524145 0.118983954 0.102557175
-0.03824543 0.15390976 0.009332984 0.08832983 0.11854976 -0.026370032 -0.0064642495 0.10881694
0.06997877 0.03240854 -0.044377223 -0.057013333 0.054214846 0.12296 0.15955901 0.1155865
0.20336771 0.09176704 0.08034963 0.028452476 0.04036489 0.15027535 0.114904 0.17005223
0.02420316 0.113074884 0.12490455 0.23082578 0.09142476 -0.059886724 0.073944554 0.18479614
0.12331166 0.038227536 -0.03657594 -0.008852751 0.038063 0.016150648 -0.011655248 0.046477865
0.1074474 -0.06877571 -0.05448254 0.0465491 0.08068077 -0.13203259 0.038057566 0.028746182
0.10537637 -0.03849865 -0.059610683 0.037228655 0.082474686 0.023970468 0.07340434 0.14468181
0.07580485 -0.0012862888 -0.09954252 0.061506674 -0.035448235 -0.10023332 -0.0979493 0.079132654
-0.0028817924 -0.08508162 -0.07529834 0.027231121 0.059937656 -0.034563225 0.01927935 0.025975108
0.105603375 0.1608537 -0.1490764 0.014175878 -0.039750766 -0.15961131 0.05472532 0.07224428
0.024534421 0.044333097 0.09440517 -0.08457157 -0.005893561 -0.13442107 0.10049389 -0.09835517
-0.09752956 -0.007741469 -0.20884316 -0.096003555 -0.13348949 -0.031135978 -0.03901921 -0.1381855

hidden.3.bias f4 [50]
00000000: dc62 823d 2056 3abe c89e a7bd 2ff7 31bc
00000010: 83f7 b0bc 0a00 48be c20d ab3b dc99 23be
00000020: 0242 b13c e2fb a7be 7721 343e 38db 97bc
00000030: 93cb edbd da38 df3d 8a69 bebd 3828 42be
00000040: ef61 b4be c3d5 79be 7cec 893a aa60 92be
00000050: 92b6 09be eeee 08be 1b20 1fbe 8658 97be
00000060: ea90 d53c 5a97 223d 6f70 e7bc fb8b 9e3d
00000070: ba46 babe de06 debd cdf9 b93d 587c bcbd
00000080: 27b1 59be f609 08be 2be4 013d e83a 39be
00000090: 7816 36be 40e7 e33c 793b 03be 0d68 1d3e
000000a0: c892 12be 7863 2ebe 21ba 85be ddbc 55be
000000b0: af7c bcbe a683 2fbd 8e59 0e3e 0029 e53d
000000c0: 3633 103e 0765 31bd
0.06366512 -0.18196917 -0.08184582 -0.010862156 -0.021602398 -0.19531265 0.005220146 -0.15976661
0.02163792 -0.3280936 0.17590891 -0.018537149 -0.11611094 0.108995155 -0.09297474 -0.18960655
-0.35230967 -0.2439795 0.0010522748 -0.28589374 -0.13448551 -0.13372394 -0.15539591 -0.29559726
0.026070077 0.03969512 -0.028251855 0.07741543 -0.36382085 -0.108411536 0.09080849 -0.09203404
-0.21258985 -0.1328505 0.03171174 -0.18088877 -0.17782009 0.02782023 -0.12815656 0.15371723
-0.14313805 -0.17030132 -0.26118568 -0.20872827 -0.36813876 -0.04285016 0.1390135 0.11189461
0.14082035 -0.043309238

hidden.6.weight f4 [50, 50]
00000000: c77f dfbd 0cd1 80bd 757a b13d b2a2 43be
00000010: 7eca 21bd 5796 0e3c 8ed7 573c adc1 5bbb
00000020: 20cf 1dbe b6be ff3d 21fa 07be 2a08 ed3c
00000030: 8e92 4ebc 967a 713d e704 d43c 6ee1 1a3d
00000040: c0df 1d3c 316a 023e 1c3d c33c ac76 64bd
00000050: aa8a 59bd 807d ad3c 1ac5 823b 8a28 17be
00000060: 49a1 543d 5ccc 94bd 7738 0d3a 06c5 67be
00000070: 77b8 b0bd dc14 09be 9ffe e7bd 331d 163b
00000080: e4fb bb3d a3b2 3b3d 94e7 67bc e80a 013e
00000090: 635d 09be 3d4e 04be 5e7d 263c 56d0 febd
000000a0: 4ff5 a83d 3c75 9f3d 7bb7 41be 8910 a23d
000000b0: 09e9 c93d 6d09 30be 7ad1 133b f874 01bd
000000c0: 12a3 5dbc 8fab abbd 221a 2c3e 0975 0fbd
000000d0: 5197 7c3d d4b3 683e 881d 403e b0ee d6bc
000000e0: 6786 243e 6f9d 203d 7146 503d efc9 36bc
000000f0: ad6a fe3d f8e8 793e adcd f63d 11df f33d
00000100: 2fa4 273e 73e2 393e 0528 073e 4c6b 32bc
00000110: 1453 3c3e 1a32 9fbd 44ef b4bd c3b1 14be
00000120: 5947 173e f8de 883d 0671 5dbd a2a1 713e
00000130: e543 213e 3547 42bd c177 153c 9f65 0bbe
00000140: 9c79 7a3e a822 353c f16a 1d3e e076 813d
00000150: 8a60 a73d 9638 b0bd 1e5c 153e b230 853e
00000160: 44e6 e93d d6f9 0f3e 3b04 bb3d fa13 fe3a
00000170: 439e 2ebd 53c1 d83c cf45 e43c 1b90 743e
00000180: 383a 113e fe37 2d3e 6227 713e 4e36 ba3d
00000190: b999 ebbd b936 f8bc 9577 693d 820d e6bd
000001a0: 0c78 413c ceaf e5bd 58ce 02be 9e35 de3c
000001b0: b85d e7bc e004 38bd e288 dabd a798 173d
000001c0: f442 eb3c b4d2 bebd 6afd 6e3c 5143 59bc
000001d0: 6479 393d c71b a2bd 2b4a e2bd 3dff 1c3d
000001e0: 2ab5 06bd 6b66 1e3d 0b79 ee3a d8ab fcbc
000001f0: fa1b d2bd f11e 99bd 759c c1bd 4303 f2bd
00000200: 3ed4 923d 9764 e8bd 9459 be3b 38e5 f2bc
00000210: 7b65 22be dca2 17bd ac59 f1bc d98d 26be
00000220: 19d4 0d3e 9769 c8bd 4303 ef3c 13b2 f0bd
00000230: 3f2e b2bd 9bfc 643d 326d 063d 7c72 8a3d
00000240: 1ff9 103d 6670 a83d 0a71 19bd 11e5 363d
00000250: baa2 01be 197c 95bd 021c c4bd 45ab 013d
00000260: af43 b33d f0c6 49be 12ab db3c baef ae3d
00000270: 85f1 9bbd 3335 b9bd 2f82 b03c cadd cb3d
00000280: 145f afbd f981 a2bd 4328 fe3c 0d31 2cbd
00000290: 5f94 82bc 33c0 9e3d 0c94 dabc 1ae8 54bd
000002a0: 4c7c 0f3d 98cb 05bd e32f 36be 4136 d6bd
000002b0: a8e4 c83c 730f e3bd dcf4 a9bd 4942 0fbe
000002c0: c776 5cbd 6a6d 2cbe cebf 1dbd e97f 163c
000002d0: ce29 9bbd 5e41 3fbe d024 293c ec24 53bd
000002e0: 41c0 d9bc e0cf 853c 0ea4 05be 8676 b33c
000002f0: 0245 73bd ecc8 19be d796 28be 347b 7fbd
00000300: 9d9f d53c 31bb c13c 09d7 d1bd 69a0 323c
00000310: 6d7d c3bc e938 b43c d3e2 123d d6b5 0ebe
00000320: 1a2a 1bbd 40aa bd3d 308d b3bd c421 59be
00000330: 06de a1b9 8c59 bfbc 27ac 0abe fad3 6fbd
00000340: af98 2fbc 230c b7bd 454e 99bd f2ae 40bd
00000350: d918 a13b cd1b 6d3c 8d2b 723b 67af 78bd
00000360: 6c7e c3bd effc 963b 98ef e7bd 8161 ccbc
00000370: 4579 e43d a4e6 ec3d e4e8 5ebc 27b2 113c
00000380: 3ea7 883d 1e5d 823d f680 b2bd 2288 eb3d
00000390: 4556 01bc 0609 e03b b18b 05be f640 14bd
000003a0: 0941 9f3d c833 633d 79f8 323c db51 f5bc
000003b0: 37c1 68bd d64d 4f3d e616 debd 53b3 9ebc
000003c0: dfdf ecbd 9577 eebd f6ef 963d ea0c 36bc
000003d0: ff58 a63c 930d c1bb 8ef3 a3b9 8d3f 26be
000003e0: df0f b4bd 89a4 1fbe 4707 5c3e 9a6c 4dbd
000003f0: c13d ac3d 38bf 773e 451a 2b3e 307b f63d
-0.109130435 -0.062898725 0.08665935 -0.19105032 -0.039499752 0.008702836 0.013173951 -0.0033532188
-0.15411043 0.12487547 -0.1327901 0.028934557 -0.012608184 0.058954798 0.025881244 0.037812643
0.009635866 0.12735821 0.02383285 -0.055777237 -0.053110756 0.021178007 0.0039907815 -0.14761558
0.051911626 -0.07265541 0.0005387137 -0.22633752 -0.08628934 -0.13386863 -0.11327862 0.0022905588
0.09178904 0.045824658 -0.014154334 0.12601817 -0.1341453 -0.1292047 0.010161726 -0.12442081
0.08249914 0.077860326 -0.18917648 0.0791331 0.09858901 -0.17191096 0.0022555278 -0.03160569
-0.0135276485 -0.083823316 0.16806844 -0.035023723 0.061667744 0.22724849 0.18761265 -0.026236862
0.16066895 0.03921264 0.05084843 -0.011156543 0.124226905 0.24405277 0.12050948 0.11907781
0.16371225 0.1815279 0.1319886 -0.010889839 0.18391067 -0.07773228 -0.08834699 -0.14520936
0.1477331 0.06683153 -0.054062866 0.23596814 0.15748556 -0.04743119 0.00912279 -0.13612984
0.24460453 0.011055626 0.15372826 0.06321502 0.0817271 -0.08604543 0.14585921 0.26013714
0.11420873 0.14060149 0.09131666 0.0019384616 -0.0426314 0.026459372 0.027865319 0.23883097
0.14182365 0.1691589 0.2355018 0.09092389 -0.1150393 -0.030299531 0.056998808 -0.11233045
0.011808407 -0.11215173 -0.12774026 0.027125176 -0.02824293 -0.044926524 -0.106706396 0.037010815
0.02871845 -0.09317532 0.014586786 -0.013260678 0.045281783 -0.07915454 -0.11049303 0.03832935
-0.032887615 0.038671892 0.0018194033 -0.03084366 -0.10259242 -0.07476605 -0.0945367 -0.118170284
0.07169388 -0.11347311 0.0058090184 -0.029650316 -0.15859024 -0.03702055 -0.029461704 -0.16265048
0.1385044 -0.09785765 0.02917636 -0.11752715 -0.08700227 0.055904966 0.03281898 0.067601174
0.03539383 0.08224563 -0.037461318 0.04465205 -0.12659732 -0.072990604 -0.095756546 0.031657476
0.08753144 -0.19704795 0.026814971 0.08541818 -0.076144256 -0.0904335 0.021546451 0.09954412
-0.085630566 -0.079349466 0.031025058 -0.042038966 -0.01593989 0.07751503 -0.026681922 -0.05197916
0.035030648 -0.032664865 -0.17791705 -0.10459567 0.024523094 -0.11086931 -0.08298656 -0.1399013
-0.053824212 -0.16838613 -0.038512997 0.00918577 -0.07576333 -0.1867728 0.010323718 -0.051548883
-0.026580932 0.016334474 -0.13050863 0.021907102 -0.059391983 -0.15018052 -0.16463791 -0.062373355
0.026077086 0.02364883 -0.10246093 0.010902503 -0.023863519 0.021999793 0.035860848 -0.13936552
-0.037881948 0.09260988 -0.08767164 -0.21204287 -0.00030873733 -0.023358129 -0.13542233 -0.058551766
-0.010717555 -0.08937862 -0.07485632 -0.04704184 0.004916292 0.01447196 0.0036952228 -0.06071415
-0.095455974 0.0046077888 -0.11324996 -0.024948837 0.11155943 0.11567429 -0.01360533 0.0088925725
0.06672524 0.06365417 -0.087160036 0.11500575 -0.007894103 0.006837013 -0.1304157 -0.036194764
0.07776076 0.055469304 0.010923498 -0.029946258 -0.05682489 0.05061134 -0.10844211 -0.019372618
-0.115661375 -0.11643902 0.07369988 -0.011111477 0.020306109 -0.0058915108 -0.00031271245 -0.1623518
-0.0879209 -0.15590109 0.21487151 -0.0501524 0.08410216 0.24194038 0.1670924 0.12035215

hidden.6.bias f4 [50]
00000000: 5539 89bd 58e4 053d 10f9 0bbd 4339 21be
00000010: f08f a3bd 145c 4f3d 53a5 debd 8271 01bd
00000020: 5e16 c1bd bdd4 cbbd 6b9e 9cbd 40cb d1bd
00000030: 02fb bcbb 24e5 36bd cf7d fdbc b867 8439
00000040: 9a61 7c3d dc70 06bd cef4 3d3e 5790 e53d
00000050: 0283 b4bd fefa b33d 6fc7 ecbd 5643 1fbe
00000060: b6b2 c23d dbc1 7f3d e2ee 49bd 9bcf 3cbc
00000070: a88e 16be 6cb7 11be b6b3 eebd 6aa9 653e
00000080: f43b 4a3d 9085 1f3d dcd9 673b 2d18 663e
00000090: a6d7 07be 2ceb cdbd 563d 4dbc 3282 103d
000000a0: 39d7 51be cfee 3c3e 3c13 e0bd afbd 90bd
000000b0: 38a1 6fbd a9a9 633e fcfe 303e 859a d03d
000000c0: 774a 85bd 9e05 143e
-0.06700388 0.03268847 -0.03417307 -0.157445 -0.07986438 0.050624922 -0.10871377 -0.03160239
-0.09428094 -0.09952686 -0.07647403 -0.10243845 -0.005767227 -0.04465212 -0.03094378 0.00025254278
0.061616518 -0.032822475 0.18550417 0.11209171 -0.0881405 0.08788107 -0.115614764 -0.1555303
0.09506743 0.062440734 -0.049300082 -0.011524106 -0.14702857 -0.14230126 -0.11655371 0.22427908
0.049373582 0.038945735 0.0035377657 0.2247016 -0.13265857 -0.10054621 -0.012526831 0.035280414
-0.20492257 0.18450473 -0.10941169 -0.07067429 -0.05850336 0.22232689 0.17284769 0.10185722
-0.06508344 0.14455268

output.weight f4 [1, 50]
00000000: 343a 023d 080a 6ec0 24a7 703d 82c5 193c
00000010: fdf9 f7bc 7bd4 69c0 e853 6cbd 871d a23d
00000020: 6839 a6bc 0d8d 933b 43d7 93bb 7804 cabd
00000030: 3cc1 63bb 36ad e3bc eb0c 86bd 9f52 dd3d
00000040: 6d8b 6ac0 8f32 8b3d 792b 68c0 880d 69c0
00000050: aa0f d5bd b3aa 96bd 3906 233d bf94 033e
00000060: 048e 6ac0 a1bb 50c0 945f 36bb d17d 343c
00000070: db4a bf3c f3b9 913c bea5 833d 808b 6ac0
00000080: 9ead c13d b3b0 0bbd 7207 e6bd 1c1e 6cc0
00000090: 687b 8f3d ce2d 5cbd 8957 fb3d 584b 803d
000000a0: 42b6 2ebd 02e2 65c0 dc6b 053d 8f10 8b3d
000000b0: 5183 553d b77c 63c0 6069 67c0 7ba6 6ac0
000000c0: 384c 9f3c b56a 64c0
0.031793788 -3.7193623 0.058753148 0.009385468 -0.03027057 -3.6535938 -0.057697207 0.07915788
-0.020291045 0.0045028985 -0.004511745 -0.098641336 -0.0034752628 -0.027792554 -0.06545433 0.10806774
-3.6647599 0.06796753 -3.6276534 -3.641451 -0.10403378 -0.07356777 0.039800856 0.12849711
-3.664918 -3.261452 -0.0027827965 0.011016325 0.023351124 0.017788863 0.06428097 -3.6647644
0.09456943 -0.03410406 -0.11231889 -3.6893377 0.0700596 -0.05375462 0.122725554 0.06264371
-0.042654283 -3.5919194 0.032573566 0.06790268 0.052127186 -3.554487 -3.6158066 -3.6664112
0.019445524 -3.5690129

exp_avg f4 [50, 13]
00000000: a45a b236 8f17 4c3b f9b2 5b3b 4ea5 813a
00000010: 1ff4 303a 50e5 532e bd11 863a 976d 1e3a
00000020: f576 07ba e11b 543a 74e9 a738 9585 42bc
00000030: da03 e7a5 ee8b bc38 c303 abbb 3906 a639
00000040: c856 9739 9c34 a1b9 83d3 19ad 5c05 be38
00000050: 5710 8a39 d126 9d38 9b8a 6d39 d2c7 4939
00000060: d6e9 36be abe0 aaa7 df59 a038 c2ff c539
00000070: daea 5a39 c3d8 6f3a f8c4 6eb9 2900 68ae
00000080: 7076 a6b9 f690 1aba 3088 0a39 b9eb 2939
00000090: 1230 eeb8 e796 f1bb 7975 4028 85a2 8038
000000a0: 7c68 abbb 1087 df3a b69a 4e3b 0f2c c4b7
000000b0: 84bc c4ac 68ec 0c3a 485f adb9 41b1 c139
000000c0: 73c6 4c39 ec40 3639 8767 753e 0784 2fa8
000000d0: a5a0 44b6 b788 c2b8 757f 4fbb e0ed 5d3a
000000e0: 83c9 b938 6e98 aa2d 6e72 4e3a 1993 2cb9
000000f0: 7f8b f1b9 87b9 9c38 778b b739 67ee 0cbc
00000100: 5fa8 9ca6 a3ac 2db5 1742 7239 7596 4f3b
00000110: d055 5e39 c533 c739 138d 462e 3bed b338
00000120: 39e2 113a 84d7 b939 0932 5839 eebc 1b3a
00000130: 0847 58bc 27fe d8a8 0fff ac37 73bb cd39
00000140: 9371 9739 1253 003a 1039 00ba 9b45 822c
00000150: 130a 2dba 2544 a6b9 e1ce b539 7bef 8eb9
00000160: 020e 6aba 9aad 6bbe 8602 3aa8 5e52 83b6
00000170: 6a9d 78b9 788b 79b9 98ef 583b 2bb2 0738
00000180: c401 5eac 165e 0fba 0498 22ba 9e82 0d39
00000190: 2392 31ba d7b0 3eba 2f46 1fbd 1712 9aa6
000001a0: 1475 9cb6 3047 8639 2dfc 2fbb fb75 96bb
000001b0: e9c9 be39 f0cc 4d2e dea6 5fba 55e0 cc39
000001c0: 689c 5cb9 6855 1039 eb12 b638 29e1 4f3c
000001d0: a0a8 cea6 1ec1 7236 1618 a7bb 4147 0c3b
000001e0: ed2d e239 ef25 f239 ee80 a92b 5adc a737
000001f0: 4023 1c3a 2b93 1939 aa74 0139 be5e 9339
00000200: 36a5 7f3e 57d6 caa5 fd82 3bb8 5501 47b9
00000210: 343d aeb9 b7c7 313a 39bb e2b9 0e7b 63ac
00000220: bc65 4bb9 7dcd 03ba b8c4 0d3b 5b53 98b8
00000230: 34f0 9fb9 a3cc e2bb 5b93 a6a6 a724 c4b8
00000240: 24b6 e9b9 4687 17b9 d68a 8939 8a1e 4b3a
00000250: d032 f2ab 3cd7 5d38 1ff5 fc38 e277 c4b9
00000260: 99fc e2b9 fa13 b638 b30f 10bc 7904 c2a8
00000270: a060 2f36 3aaf 4b3b d876 8dbb 9085 153a
00000280: cd77 133a 79d8 f3ad d8ac ea39 55e8 89b9
00000290: 2e4d 9bba db62 e9b9 817c 2dba fb58 4dbc
000002a0: 98c9 fa24 c7e0 ecb7 bf1d 0abb f6b5 bdbb
000002b0: d5db 4bbb 7d95 8d38 d005 f2ac e033 3db9
000002c0: fa55 c739 8050 95ba 08c3 98b9 fd2f 97b9
000002d0: 9a78 63bc 8bb2 a2a8 9de7 67b8 0d41 c438
000002e0: f96c f83a df0c c439 7266 d9b9 c043 13ad
000002f0: 74be 6e38 36e0 1c3a 6fe5 8137 2b15 a0b9
00000300: aa23 c9b9 1b50 3bbc abf6 b1a7 c0a2 bcb8
00000310: 347c ecb8 0007 63bb fb50 8eb8 0217 4938
00000320: c4b2 eead a485 acb9 3bb0 9439 977d f2b7
00000330: 067e bfb7 3fb9 d138 601b 5dbc 2109 06a8
00000340: 266e c8b8 73ff 7f3a e658 993a 76ab 2ab9
00000350: 6d88 4839 4bae b12e 7c3b 273a 9fee 893a
00000360: 9171 d63a c6d3 fb3a 2e5f 163a c032 2cbc
00000370: d8ae bf27 f56a af38 e1a2 9fb9 fe2a 49b7
00000380: c3f7 0fbb 207d fab7 5129 b0ad 57c0 5ab8
00000390: 6e4f 9ab9 395a 20bb d84f 4fba f516 1739
000003a0: 48bf 52bc 90b7 08a8 c58f 84b6 8c50 8f39
000003b0: 3fd1 86ba 2575 39bb e33d 36b8 5431 f5ae
000003c0: 5525 bfba e867 85ba 2979 3f38 497f 1cb9
000003d0: 541a bc38 e6ec 0fbc 0261 9ea8 9cf5 9e36
000003e0: 076d 0f39 45d4 e039 de6c a839 f270 5ab9
000003f0: c1a3 902c ee95 3139 b692 27ba 5c6d e33a
5.3153653e-06 0.0031141972 0.0033523424 0.0009891184 0.0006750244 4.8179516e-11 0.0010228675 0.0006043552
-0.0005167567 0.00080913125 8.0066646e-05 -0.011872669 -4.0074722e-16 8.9906025e-05 -0.0052189543 0.00031666624
0.0002886562 -0.0003074751 -8.744008e-12 9.060904e-05 0.00026333585 7.4935735e-05 0.00022653716 0.00019243293
-0.17862639 -4.7428064e-15 7.646134e-05 0.00037765322 0.00020877589 0.00091494265 -0.00022770825 -5.2750835e-11
-0.0003175023 -0.00058962347 0.0001321144 0.0001620491 -0.00011357678 -0.0073727253 1.0683614e-14 6.133787e-05
-0.0052309614 0.0017053802 0.003152532 -2.3385537e-05 -5.5915845e-12 0.00053758034 -0.0003306812 0.00036943893
0.00019528884 0.00017381058 0.23965274 -9.74308e-15 -2.9299783e-06 -9.276106e-05 -0.0031661664 0.0008465927
8.859022e-05 1.9394455e-11 0.0007875328 -0.00016457996 -0.00046071035 7.473217e-05 0.0003500839 -0.008601761
-1.0870312e-15 -6.469874e-07 0.00023103539 0.0031675373 0.00021203537 0.0003799481 4.5145287e-11 8.579573e-05
0.0005565021 0.0003544652 0.00020618005 0.00059409335 -0.013200529 -2.4091038e-14 2.0622769e-05 0.00039240308
0.00028885584 0.0004895191 -0.00048913155 3.70255e-12 -0.00066009274 -0.0003171276 0.00034677147 -0.00027262777
-0.0008928479 -0.23015442 -1.0325621e-14 -3.913693e-06 -0.00023709764 -0.00023798447 0.0033101793 3.235244e-05
-3.1549078e-12 -0.0005469037 -0.00062024617 0.00013495467 -0.000677379 -0.0007274276 -0.03888529 -1.06908e-15
-4.662792e-06 0.0002561151 -0.002685319 -0.004591701 0.0003639006 4.6793625e-11 -0.000853164 0.00039077052
-0.00021039101 0.00013764726 8.68196e-05 0.01268796 -1.4339827e-15 3.617322e-06 -0.005099307 0.0021404775
0.00043140296 0.000461861 1.2043957e-12 2.001056e-05 0.00059561804 0.00014646041 0.0001234586 0.00028108613
0.24965367 -3.5186657e-16 -4.4706267e-05 -0.00018978615 -0.00033233466 0.0006781774 -0.0004324557 -3.232695e-12
-0.00019397488 -0.00050278736 0.0021632146 -7.263451e-05 -0.00030505809 -0.0069213673 -1.1558505e-15 -9.352835e-05
-0.00044576928 -0.00014450875 0.00026234117 0.0007748386 -1.7209238e-12 5.289096e-05 0.00012061954 -0.00037473353
-0.0004329428 8.682157e-05 -0.0087928055 -2.1540266e-14 2.6133275e-06 0.0031079785 -0.004317146 0.0005703801
0.00056254567 -2.7722035e-11 0.00044760737 -0.00026303777 -0.0011848563 -0.00044514876 -0.0006617979 -0.012533422
1.0876173e-16 -2.8238062e-05 -0.002107486 -0.0057895137 -0.0031106372 6.751248e-05 -6.878699e-12 -0.0001804377
0.00038020295 -0.0011391789 -0.0002913701 -0.00028836718 -0.013883734 -1.8063044e-14 -5.52904e-05 9.358125e-05
0.0018953375 0.00037393623 -0.00041465793 -8.371026e-12 5.6920995e-05 0.0005984338 1.5484837e-05 -0.0003053335
-0.0003836428 -0.011432673 -4.9394807e-15 -8.994853e-05 -0.000112764916 -0.0034641623 -6.7861714e-05 4.7943562e-05
-2.7136855e-11 -0.00032905967 0.00028360062 -2.890713e-05 -2.2827659e-05 0.000100004014 -0.013495296 -7.440474e-15
-9.55726e-05 0.0009765543 0.0011699467 -0.00016276338 0.00019124309 8.079989e-11 0.00063794083 0.0010523385
0.001636075 0.0019212894 0.0005736229 -0.010510147 5.3202715e-15 8.3645726e-05 -0.00030448198 -1.19905435e-05
-0.0021967746 -2.9860588e-05 -2.0027232e-11 -5.215438e-05 -0.0002943235 -0.002446784 -0.0007908321 0.00014409034
-0.012862988 -7.58932e-15 -3.9506435e-06 0.00027335098 -0.0010285749 -0.0028298583 -4.3449818e-05 -1.11500725e-10
-0.0014583269 -0.0010178061 4.5650788e-05 -0.00014924737 8.9694426e-05 -0.008784508 -1.7583594e-14 4.7373596e-06
0.00013678159 0.00042882763 0.0003212457 -0.00020832176 4.1109065e-12 0.00016935889 -0.0006392406 0.0017351317

exp_avg_sq f4 [50, 13]
00000000: ee56 9236 b0d0 733a e183 a939 9109 c038
00000010: 4047 3539 6b92 2721 515e 883b cd06 053a
00000020: 8378 093b c374 653a 196a 0d38 6ec1 493e
00000030: 45a6 3b15 a30c aa38 47c4 b83b d8d7 e837
00000040: db1d 0139 590d d739 d07e 3c21 3793 573b
00000050: 260f 0f3a 131d fc3a 612c 203a c1e9 5f39
00000060: efec e23d 2b93 8f17 2adc 3237 6513 fc37
00000070: 3cb2 b936 c2b5 8638 e25d 9938 3f57 0323
00000080: 9d87 fb39 d6c7 0a3a d176 ca38 47e5 9a38
00000090: b73a 0f39 b782 9e3b f9d6 e015 391c bf38
000000a0: 9ce1 c83b 7e96 7539 5af1 b83c a8fe cf36
000000b0: a63a 4921 789b f43a 30a9 153b 8246 5739
000000c0: ad44 2039 347c 4f39 b3c4 893d ddec 9817
000000d0: 184a 0336 6dd9 2d38 e5f7 f738 9299 de38
000000e0: 35c3 c437 414b 2f22 1a7b 4a3a 8671 e93a
000000f0: a3e0 ef3a 26ed 7e39 1a71 2539 342d a63b
00000100: b913 2014 958a 2337 a7bf 1339 0da7 4d39
00000110: 7fc3 7539 bc25 a939 07fc 4121 29c6 c73a
00000120: 757a 293a 2207 5f39 bfb6 8d38 49c2 7438
00000130: d4d9 8a3d 4575 a216 fbfa 7d37 71b1 ad37
00000140: 97f1 dd37 4dd6 953b 02e4 9739 f7f0 8420
00000150: 0937 7a3a 3fa6 963a 94da 703b 8d88 8d39
00000160: 0f2a f139 3386 753d 4e69 b116 651f 9c36
00000170: 0634 9d38 6f98 9838 b81c 3a3c bb70 eb36
00000180: 66ac 9320 b384 9c3a f219 323b 1d1f dd3a
00000190: 5ab6 173b fdb8 6739 9c33 253d 407c 5a14
000001a0: 6a21 bf35 dbd3 e039 17c2 1f3a cfb3 213c
000001b0: 759c ba39 74f6 fb23 5af9 f539 192a b03a
000001c0: f5e1 8239 b9c9 393a 9567 cf38 22c9 f93b
000001d0: 6896 3d13 a262 cf36 43ec 813b 737f 0c3a
000001e0: 09f3 fc38 19cd 7739 8033 cf1e aece 073a
000001f0: 72aa 333b e216 313a 54ca 7b3b 1bca 8439
00000200: 26cc 4b3d 8e09 6c12 f262 de36 edaf 3b39
00000210: bb98 a038 451f 0539 ff53 1239 cf17 9721
00000220: 6c83 ce3a 42a2 f83a 0445 953b 315c 123b
00000230: 4a52 da39 4c96 af3b 6795 c914 2cb7 a837
00000240: 8968 353a 0c71 c438 4cf3 9038 bdc3 7339
00000250: 22bf 3023 5281 2e3a db8d 5d3a 5076 8a39
00000260: beba 993a a79f 2839 e5e6 c73b 5f15 3316
00000270: f969 0435 8023 163b 99e7 0b3a 3d15 e338
00000280: a26f 9b38 6a76 9d23 c2dd ae3b 4197 ad39
00000290: 7763 8b39 9d8a 1c3a ac86 4738 990c 943e
000002a0: 64ee bb13 f388 b836 639f fc39 498e 653a
000002b0: dd1f e639 9a90 3a37 59c8 bb21 f89f a33a
000002c0: 7890 183a 539f 283a be52 9639 bf89 0e39
000002d0: 12b6 d43c 6071 db15 7fdb 0a38 8fff 5138
000002e0: 6672 3839 eedc a738 e982 543a 39ed 2822
000002f0: 95a4 583a 5697 a13a 3fe0 333b 737e 1f3b
00000300: 3a69 d739 a6e3 2f3c 96c1 9e16 00e2 f036
00000310: d576 1638 b8d4 c739 4b6a e638 611a c236
00000320: 3d1e 8022 c3e8 fc3a 09c0 a93a 43eb b039
00000330: fcb0 5239 9f9f 8438 01a3 233d f68a d016
00000340: 7e92 4637 578d 1739 3b55 5738 7090 c93a
00000350: 1231 0238 26e0 9323 d68f 273b 3608 b33a
00000360: 0727 c33a 74cd ee3a ddda c538 6f8b cd3d
00000370: 83ff b016 0f30 5437 a25f a937 b272 0a38
00000380: dc76 223b a49a d136 9f3f c023 8124 883b
00000390: 4e2a 883a 8cd8 8c3a 67a8 983a 81d8 af39
000003a0: ebd8 0f3e cbbc 3c16 f42f f936 d384 ec37
000003b0: 9d36 ce39 93c7 103c 692f b038 54cb 8a21
000003c0: 44d8 813a 755c 8239 2744 da38 6eb4 8a39
000003d0: 8bb3 d237 4f5d 983b cf98 5816 39cf bf34
000003e0: 0fda be37 1bbb 0637 8463 8a38 af06 1138
000003f0: 059d f420 83c4 d539 2c9d 6739 1dac 5f3a
4.361259e-06 0.0009300811 0.0003233245 9.157055e-05 0.00017288048 5.6775583e-19 0.004161634 0.0005074561
0.0020976372 0.00087530556 3.371583e-05 0.19702694 3.7895513e-26 8.1085855e-05 0.0056386325 2.7757065e-05
0.0001231352 0.0004101794 6.386471e-19 0.0032894143 0.00054572744 0.0019234739 0.00061101286 0.00021354017
0.11080348 9.278309e-25 1.0660888e-05 3.0049772e-05 5.534179e-06 6.423473e-05 7.3130956e-05 7.119999e-18
0.0004797549 0.000529406 9.654242e-05 7.3859985e-05 0.00013659416 0.00483736 9.0812047e-26 9.1128466e-05
0.0061304104 0.00023421083 0.022576023 6.1987266e-06 6.817907e-19 0.0018662056 0.002283644 0.00020530264
0.00015284373 0.00019787328 0.067269705 9.882562e-25 1.956365e-06 4.1448908e-05 0.00011824052 0.000106143896
2.3455921e-05 2.3756762e-18 0.0007724032 0.0017810322 0.00183012 0.00024311672 0.0001577776 0.0050713066
8.081825e-27 9.747823e-06 0.00014090409 0.00019612555 0.00023437849 0.00032262306 6.57245e-19 0.0015241551
0.0006465086 0.00021269594 6.757443e-05 5.8355075e-05 0.06779829 2.624652e-25 1.5138411e-05 2.0705835e-05
2.6457752e-05 0.004572666 0.00028970843 2.2521127e-19 0.0009544944 0.0011493637 0.0036751376 0.00026995354
0.00045998438 0.059942435 2.866235e-25 4.652817e-06 7.4960335e-05 7.276318e-05 0.011359386 7.0166693e-06
2.5016852e-19 0.0011941403 0.002717611 0.0016870234 0.0023149461 0.0002209879 0.04033242 1.1030691e-26
1.4240334e-06 0.00042882454 0.00060942903 0.00986953 0.00035593254 2.7317851e-17 0.00046915823 0.001344028
0.00024963883 0.0007087249 9.889823e-05 0.007622854 2.392931e-27 6.180563e-06 0.003964932 0.00053595676
0.00012061565 0.0002363216 2.1938277e-20 0.0005180639 0.0027414826 0.0006755424 0.0038420158 0.00025327582
0.049755238 7.4480247e-28 6.6276343e-06 0.00017899247 7.657843e-05 0.00012695517 0.00013954936 1.023846e-18
0.001575572 0.0018969255 0.0045553464 0.0022332782 0.0004164151 0.005358493 2.0354742e-26 2.0112457e-05
0.0006920179 9.367065e-05 6.911773e-05 0.00023247204 9.581453e-18 0.00066568435 0.0008451619 0.0002640956
0.0011728627 0.00016081204 0.006100523 1.4466248e-25 4.932804e-07 0.0022909343 0.000533694 0.000108281594
7.411769e-05 1.7072124e-17 0.005336494 0.00033109824 0.00026586253 0.0005971583 4.757072e-05 0.2891586
4.7440508e-27 5.4995703e-06 0.00048183938 0.0008756859 0.0004389276 1.1120132e-05 1.2724644e-18 0.0012483587
0.00058198674 0.00064324326 0.00028671877 0.0001359349 0.025965724 8.863227e-26 3.3106186e-05 5.006749e-05
0.00017590224 8.004332e-05 0.00081066653 2.289383e-18 0.0008264271 0.0012328427 0.0027446894 0.0024336844
0.00041086396 0.010735428 2.5648447e-25 7.1788672e-06 3.5873458e-05 0.00038114726 0.00010987053 5.7847215e-06
3.4726486e-18 0.0019295443 0.0012950908 0.0003374462 0.00020093092 6.323982e-05 0.039950375 3.369191e-25
1.18358275e-05 0.00014453135 5.133937e-05 0.0015378129 3.1040116e-05 1.6032702e-17 0.002556791 0.0013659063
0.001488895 0.0018219189 9.4344585e-05 0.100363605 2.8595584e-25 1.2647374e-05 2.0190902e-05 3.3008582e-05
0.0024790084 6.246688e-06 2.0843626e-17 0.004154742 0.0010388584 0.0010745688 0.0011646867 0.0003353991
0.14047591 1.5246092e-25 7.4263608e-06 2.8195243e-05 0.00039332072 0.008836645 8.401165e-05 9.405064e-19
0.0009906371 0.00024864418 0.000104077444 0.00026455842 2.5117557e-05 0.004649795 1.7496559e-25 3.5727297e-07
2.2751306e-05 8.030586e-06 6.598889e-05 3.457692e-05 4.1439115e-19 0.00040772939 0.00022088428 0.0008532422

exp_avg f4 [50]
00000000: 0071 9a27 cf41 ab28 8e2d a926 eacc e627
00000010: 7a14 e025 012e 5b28 2774 62a7 8de7 be26
00000020: 83b5 eaa8 d9d6 5627 4f8e 3127 0a32 c526
00000030: faad 6e26 b232 ff27 bbeb 3827 868c 01a8
00000040: 239e 0ba7 4a7b 1ca5 666c eda7 02ed 1f27
00000050: 20e7 2328 04cd 1327 0e22 30a6 0b1a f626
00000060: 61da 8d27 bc43 5027 6071 1127 5d1c d926
00000070: ab5a 0029 ef67 2727 049c 3b27 b7ba fda7
00000080: e9c3 b126 873c b526 4255 1fa9 e1b7 6f25
00000090: 31d0 0a27 8758 1aa8 07a7 0a27 ef8e 8428
000000a0: ea8e 8da9 5013 c226 a01b e726 2de2 92a6
000000b0: 06c6 be26 d621 3c28 3e3b afa8 7e29 d926
000000c0: bd55 2427 35f8 ad28
4.28661e-15 1.9013354e-14 1.1739078e-15 6.4059992e-15 3.887168e-16 1.2166918e-14 -3.1426767e-15 1.324666e-15
-2.6057937e-14 2.9814935e-15 2.464083e-15 1.3683184e-15 8.280862e-16 7.083168e-15 2.566292e-15 -7.19141e-15
-1.9375851e-15 -1.3572615e-16 -6.589824e-15 2.2194165e-15 9.098435e-15 2.0511487e-15 -6.110842e-16 1.7076738e-15
3.937213e-15 2.8902518e-15 2.0184253e-15 1.5065088e-15 2.850035e-14 2.3232248e-15 2.603604e-15 -7.0424043e-15
1.2334944e-15 1.2575804e-15 -3.537904e-14 2.0792246e-16 1.9264208e-15 -8.567914e-15 1.9241893e-15 1.4716931e-14
-6.2864495e-14 1.3466689e-15 1.6036333e-15 -1.019209e-15 1.3237573e-15 1.04434334e-14 -1.9454595e-14 1.5068646e-15
2.280605e-15 1.9314501e-14

exp_avg_sq f4 [50]
00000000: feed db15 fe5f a117 dbc1 eb16 f829 ad17
00000010: cb20 1715 b344 fe16 9401 0517 f051 0b15
00000020: 8638 b414 e0b7 4a13 d149 5115 2037 8616
00000030: 28f0 4914 d828 3916 3471 c016 be04 9217
00000040: 57d1 0318 c3a7 9317 6981 9216 aca5 1f13
00000050: 8e15 8116 b426 9a13 4ecd 4f15 cbc8 6f13
00000060: e68d 3617 cb6b da15 3ce0 eb15 b7f4 0315
00000070: aa97 8e16 1ccd b212 19a8 ec12 417a a016
00000080: 4e8f 2914 554a 7e13 6ba3 9016 996a 0d15
00000090: 296b e513 970d 8517 8941 6313 e206 0417
000000a0: a639 4616 e088 aa13 c8aa 4614 1177 7617
000000b0: b1cc c512 0269 4f16 0c2a 7116 4795 6c13
000000c0: d1c2 c316 aff7 4d17
8.882888e-26 1.0428613e-24 3.8088638e-25 1.1190457e-24 3.0520076e-26 4.1079269e-25 4.297661e-25 2.8135464e-26
1.819765e-26 2.5586642e-27 4.2265445e-26 2.1683656e-25 1.0195269e-26 1.4957069e-25 3.1090714e-25 9.436226e-25
1.7037043e-24 9.542001e-25 2.3669241e-25 2.0150304e-27 2.0854677e-25 3.891323e-27 4.1965274e-26 3.026504e-27
5.8986473e-25 8.8219566e-26 9.5269524e-26 2.6648285e-26 2.303705e-25 1.1283943e-27 1.4935133e-27 2.5926547e-25
8.5605814e-27 3.2095956e-27 2.3367586e-25 2.8558814e-26 5.7913395e-27 8.598354e-25 2.868374e-27 4.266019e-25
1.6012503e-25 4.3049002e-27 1.0030126e-26 7.963717e-25 1.2482908e-27 1.6754461e-25 1.9481093e-25 2.9860987e-27
3.1626896e-25 6.6551693e-25
