output/mlp/red/checkpoints/epoch_23.pt (torch, 113226 bytes, 27 tensors)

input.0.weight f4 [50, 13]
00000000: 6a77 f2bd 63e5 47be 1ca3 e83c 97de 56be
00000010: 6bef bf3d d63d 963e b2d4 193e 5083 11bd
00000020: 7dd2 2d3e 6865 0cbd dac4 24be 60d5 e7bd
00000030: 0228 5f3d 7d03 613e 4476 85bd 2345 2cbe
00000040: 0300 debd 3cf0 203e 4dcb 18be ea8e 5abe
00000050: 70e4 1d3e f65c 1bbe de39 acbc 7eba 383b
00000060: 136d 85be d59a 0d3e 44cc 8d3e f86c a73d
00000070: 8158 93be 94e4 26be 4a1f 2c3e 95e6 50be
00000080: e0e0 073e 50a3 db3d 534a 8fbe 8852 94bd
00000090: 3dfc a93b 97bf 0a3e eab1 11bd 0676 3a3e
000000a0: 383e 78be 2dc0 943c 78c1 883d c83e 56be
000000b0: 6500 333d eb6b 2ebe 99e2 3b3e 3187 b6bd
000000c0: 68d5 8abe e778 3b3c aeae 6abe e6f8 48be
000000d0: 9612 aebd 6191 f33d 48ed 24be 47ed 85bd
000000e0: c285 d13c 4de1 473e 787a 073e a5ac 33be
000000f0: d8c8 803c 552d 55bd b289 df3c 215f 023e
00000100: 1e57 19be a22b 3e3e 0e7b b9bd b63d 703e
00000110: 7c09 733e 80e1 213e 19b1 5fbe 60ff a63d
00000120: e0a2 41be 5b6e 2bbe 66f0 6fbe 9c19 a23d
00000130: b195 25be c6ff 673d d877 763e b54f ae3d
00000140: 7e0b fcba 6b78 ee3d 1376 143e 90c7 34be
00000150: f364 f83d b321 f6bd 42bb 363e 3677 63be
00000160: 1a36 173e d22e 1fbe c5f3 4cbe 0968 26bc
00000170: 7295 663e f92f 1b3d 438d 593e 6c5c 19be
00000180: efd8 b4bd 45ba 053e b90e 73be 02bf d63c
00000190: 2934 223e 9331 6ebc f32a 97be 090c 213e
000001a0: e69b 1ebe e6a5 8fbe c3db 883e 9207 1dbd
000001b0: 31f6 5e3e 2d5b d8bd fbd1 65be 8af5 583e
000001c0: 30a5 4abe c48d 0ebc 8a0a 41be bdac a23e
000001d0: f11c 073e f2f2 7cbe 0afb 54bd a61f 7c3e
000001e0: 11b3 2ebe 19dd 8d3e ab8f 6cbe fd51 b8bc
000001f0: 0838 4abe 3dd9 4cbe 66a2 c73d 0f46 c9bd
00000200: 28ea 3bbe 6eec a7bd b552 0dbe cb47 0abd
00000210: e1fa 82be 13f8 8ebd c15e 973d b15b c33d
00000220: 118a 8e3e 4632 4a3e c2f1 713e dadc 3b3e
00000230: 7e55 3b3e 07a0 143e 9efd 84bd c344 273e
00000240: 9719 69bd 9ea6 62bd fb81 95be c6c2 3a3e
00000250: 971b 843c 7204 29be 10dd 1b3e ffe7 03be
00000260: 4d6e 803e 391c 9abb 37c8 813d 341b ad3d
00000270: 4608 71be e8fb 00be 93bc 663e 7825 01be
00000280: b4e8 403e abee 5f3e d570 653e 026b a9be
00000290: 49d4 ae3b b3c8 32be 2d7b d73c be26 6fbd
000002a0: 067a 423e 0bc6 353e 064b 53be 81b9 053e
000002b0: 057c e03c f938 33bd 7df0 a3be b453 3c3e
000002c0: a948 543e 345a 813d a825 7fbd 1c17 673e
000002d0: b8c1 01bd dd21 153e 5c7f 463e 4d61 693e
000002e0: fabd 1d3e ae78 53be 8d87 d3bd a313 8b3b
000002f0: 4b75 16be 3bcb 503d 1248 9b3e 0667 053e
00000300: 506b 8b3e cd81 5e3b 5177 ecbd b442 873d
00000310: 5f12 e83c da4a 0bbe 8afc 973d a9dc 05be
00000320: 43bc 4d3e 6990 243e 1b24 cabe 981d 35be
00000330: 5053 44bd b92b 38be 1ed2 d13b 54fc 183e
00000340: 3efa 383e d3ca 70be 1c05 223d 303b b8bd
00000350: f9c5 4d3d ee10 673e 263c 3a3e d79a 543e
00000360: 7391 5d3e 5a19 013e a55c acbd 0f6f d539
00000370: d636 72be e882 383e cbc6 6d3e ced7 53be
00000380: b2c8 093e 1ed0 74be 03ca 813d a83c 953e
00000390: ee5e 843e 43d9 5a3e ad3c 123e 778f 673e
000003a0: 0f6c 673d 222e 0abe 7c93 7f3e e8f2 dc3d
000003b0: 6afa d5bd a796 b63c ccf5 913e 75ad 563e
000003c0: fb30 bb3d 513e 7b3e 7ce8 82be 2eb6 9c3c
000003d0: 6fbb 7ebe 0d82 433e 3f04 eb3d 58cf 1abe
000003e0: 74b5 373d 9348 8ebe b2aa 18be 2525 a93b
000003f0: 1f0c de3d aebc f0bd f7e1 2e3d 0635 203c
-0.11839183 -0.19521098 0.02839809 -0.20983349 0.09371837 0.29344052 0.15022543 -0.03552562
0.16974826 -0.034276396 -0.16090718 -0.11319995 0.054481514 0.21973987 -0.06516698 -0.16823249
-0.10839846 0.15716642 -0.14921303 -0.2134358 0.15419173 -0.1517218 -0.021023687 0.002818733
-0.2605978 0.13828595 0.27694905 0.08175081 -0.2877846 -0.16298133 0.16808811 -0.2040046
0.13269377 0.10724509 -0.27986392 -0.07242304 0.00518754 0.13549648 -0.035570063 0.18209085
-0.24242485 0.018158043 0.06677526 -0.20922387 0.043701548 -0.17033355 0.18348159 -0.089125045
-0.2711594 0.0114424 -0.22918198 -0.19626197 -0.08499639 0.11892963 -0.1610614 -0.06539398
0.025576476 0.19519539 0.13230312 -0.17546327 0.01572077 -0.052045185 0.027287338 0.12731601
-0.14974639 0.18571332 -0.09056674 0.23461041 0.23734087 0.15808678 -0.21844901 0.08154178
-0.18909788 -0.16741316 -0.23431548 0.07915041 -0.16170384 0.05664041 0.24069154 0.08511297
-0.0019229499 0.11644062 0.14498167 -0.17654252 0.121286295 -0.12018146 0.1784487 -0.22213444
0.14766732 -0.15545204 -0.20014866 -0.01015664 0.22517946 0.037887547 0.21245293 -0.14976662
-0.08830439 0.13059337 -0.23736085 0.026214126 0.1584021 -0.014538187 -0.29524955 0.15727247
-0.15489158 -0.28056258 0.26730165 -0.038337298 0.21773602 -0.105642654 -0.22443382 0.21187416
-0.19789577 -0.008700792 -0.18851677 0.31772414 0.13194634 -0.24702051 -0.051997222 0.24621448
-0.17060496 0.27707747 -0.2310168 -0.022500033 -0.19747937 -0.20004745 0.09747772 -0.09827816
-0.18351042 -0.08199392 -0.13801081 -0.033759873 -0.2558203 -0.0698091 0.0739112 0.09538973
0.2783971 0.1974574 0.2362738 0.18345967 0.18294331 0.1451417 -0.06493686 0.16334824
-0.05690917 -0.05533468 -0.2920073 0.18238363 0.016126437 -0.16505602 0.15221047 -0.12881468
0.25084153 -0.0047030714 0.06337016 0.08452454 -0.23538312 -0.12596095 0.22532873 -0.1261195
0.18838769 0.21868388 0.22406323 -0.33089453 0.005335365 -0.17459373 0.026303852 -0.058386557
0.18991861 0.17751329 -0.20634088 0.13059045 0.027402887 -0.043755505 -0.32019415 0.18391305
0.20730843 0.06316033 -0.06229177 0.2256741 -0.031678885 0.14563699 0.19384521 0.22791024
0.15404502 -0.20651504 -0.10328589 0.0042442842 -0.14693181 0.050975066 0.30328423 0.13027582
0.2723031 0.003395188 -0.11546195 0.066045195 0.028329073 -0.13602772 0.07421215 -0.13072456
0.20091347 0.16070713 -0.3948067 -0.1768707 -0.047931015 -0.17985429 0.0064032217 0.14940006
0.1806421 -0.23514871 0.039555654 -0.08995664 0.05023763 0.22565052 0.18187007 0.20762192
0.21637516 0.12607327 -0.08416108 0.0004070927 -0.23653731 0.18018687 0.23220365 -0.20687792
0.13455465 -0.23907515 0.06337359 0.2914784 0.25853676 0.21371941 0.14280958 0.22613321
0.056499537 -0.13494161 0.24958605 0.10788518 -0.10448153 0.022288634 0.2850784 0.20964606
0.09140202 0.2453549 -0.25567997 0.019129839 -0.24876188 0.19092579 0.11475419 -0.15118158
0.04485078 -0.27789745 -0.14908865 0.0051618987 0.10842156 -0.11754738 0.042695966 0.009778267

input.0.bias f4 [50]
00000000: b42c 79be 051a 52bc f50e 59be 12e5 90bd
00000010: d510 dcbd 7c49 e93d 3ec0 8c3e 498e 783d
00000020: f043 10be 9afa b23d 7962 0bbe 84ca 433c
00000030: 8820 2a3e 6e33 efbd 57f4 cbbc ff7d 743e
00000040: 1851 8bbe 97a3 723d 94c6 293e e8c7 44be
00000050: 6050 813e b3b6 6dbe 75ab 22be 3c48 49bd
00000060: 5373 7fbe cf0a 23bb c3ff 2abe e0af 49bd
00000070: 5cd5 3ebe b2d9 863d 024b 61be 8955 1bbe
00000080: 32b3 81bd a677 053e fb3f 6c3e 3a72 cc3d
00000090: c637 853e 5d75 a03c 73ee 193e 3304 1dbd
000000a0: c6fb 303e 0dcd ee3d 9e10 453e 3d91 753e
000000b0: 2172 38bd bb3f 84be 4b1b 53bd 94c9 06bd
000000c0: 45a0 12be 1248 783e
-0.24333459 -0.012823586 -0.21197112 -0.07074942 -0.10745398 0.11390969 0.2749042 0.06068257
-0.14088416 0.08739205 -0.13611783 0.011950139 0.16613972 -0.11679731 -0.024896784 0.23876189
-0.27210307 0.059238043 0.16579658 -0.19216883 0.25256634 -0.23214225 -0.15885718 -0.049141154
-0.24946336 -0.0024878269 -0.16699128 -0.049239993 -0.18636078 0.06584491 -0.2200127 -0.15169348
-0.06333007 0.13033924 0.23071282 0.099827245 0.26019114 0.019587213 0.15032367 -0.038334083
0.17283544 0.11660204 0.1924462 0.23981185 -0.045030717 -0.25829872 -0.0515397 -0.032907084
-0.1431895 0.24246243

hidden.0.weight f4 [50, 50]
00000000: 35e5 b3bb 9441 fcbd e83d d3bd 0ed2 c9bd
00000010: 55d8 643d b09d 49bd b3fe 16be 50ca 103d
00000020: cbaa 423d 4cfd 323d a963 20be 9e71 b73d
00000030: 518c 3dbe d25f ab3d 65fb 4dbd 0ca5 93bd
00000040: 9e56 d53c c692 80bc b02b b7bd 2967 b5bd
00000050: 8922 b7bd cb41 703b 1585 02be 51ea 9ebd
00000060: b129 e6bd 9cb5 01bc c70a 36bd 9e77 cb3d
00000070: 142e af3d 093f 4abd 6e84 503d 4a96 39bc
00000080: 17d4 b5bd fdb7 20be 9ea6 963d 9d8c b8bd
00000090: d950 23be 496b 94bd 1b1c b53d 3bec 433c
000000a0: 9463 6f3d fccc f0bc 57cc 1dbe 99fd 1a3d
000000b0: bb6d 07be 3330 d03d 31c8 283d f136 15bd
000000c0: df18 1dbe 3992 66bd 7253 f5bd ef70 c6bc
000000d0: 2225 abbd 87ee 863d b58d 3b3d 3acf 8abc
000000e0: 7f78 cdbd 1e8a c63d 0572 12be 0c67 e9bd
000000f0: 11fc babb 0aa4 c93b 6c71 fbbd 0932 52bd
00000100: 2db0 25be c198 0ebe eb59 c7bd 3021 1d3d
00000110: 5d74 9bbd ee30 c4bd ccec 7e3d faaf 99bd
00000120: 9a56 f53c bf9d 853d 6486 0e3d 26e7 babd
00000130: afab d7bd a615 df3d eceb 1abe 8c1d 27be
00000140: e3d2 ac3c 3616 3dbd c151 3bbc 035d 66ba
00000150: 8692 17bc eb3b a63d ba61 053c c4bb 853d
00000160: e826 5e3d 0a25 f1bb ab2b 12be 0692 51bd
00000170: 1d24 01be 6d73 783d 7c8e 93bc cd46 9f3d
00000180: 96df 0d3d b3b5 803d 3ade 12bd 2a5b d3bd
00000190: b80e 0d3e 0dcf 0b3e 08e4 303d 9fad 8abd
000001a0: 84b1 7fbd 903a aa3d e15f 553d 432a 2c3e
000001b0: 416a 283d 360c 2d3b 79e3 a93d 896c 243d
000001c0: b051 25bc e841 b33d 5238 70bc 68c5 8fbc
000001d0: 1b1a 083e 5375 293d d457 823d 0e7e 053e
000001e0: db72 cd3d 452f 95bd 8a08 923b 3ee6 963d
000001f0: b71c 1e3e d809 0d3e 7a43 ec3d e26a 9d3c
00000200: 5e66 5f3d 4028 223d dd3f 8e3d 7b2d 833d
00000210: 1489 173d 47d3 943d c3a5 d93d bdb3 d9bb
00000220: 3f29 a5bd bcdc 643c 8159 173e ef04 963c
00000230: 5985 9ebd bc92 853d 1b00 813d 6deb 133d
00000240: 5583 fa3d c426 953d 55fb 8b3d b284 4abd
00000250: 1cf7 113c 4155 88bd 6ccd 9cbd 1798 30be
00000260: c3c8 983c 08c9 2dbe eae7 09be 381f babd
00000270: d747 b6bd f0d9 cbbd efa2 16be 1e10 b73d
00000280: d858 233b 5e18 0cbe fa50 cebd e5e9 3abe
00000290: 7b7b 2bbe 4d9d 633b 7508 5ebc 7c98 46be
000002a0: f737 ffbd c408 b0bc 0a93 0ebe 9b15 f0bd
000002b0: 1045 51be 97ce 933d 3874 3a3b 5b8a f03c
000002c0: 2ff8 953d 2381 833d c529 39be d645 35be
000002d0: 8d76 bfbd 7a9e 24be ba96 14be 52fa bcbd
000002e0: 817e 7ebd 58ff 713d c1d4 d1bd a328 6cbd
000002f0: ef29 0e3b d87a 4dbd 6cb8 54bd 02d5 39bb
00000300: 3571 00be 076d 04be cfc5 913d f119 11be
00000310: 9e6e c3bd a099 21be b5e1 3cbe b14b c6bd
00000320: 97c4 20be 39a0 b1bd 6f30 dbbd 66fd 64bd
00000330: 12b7 973c 903b 563d 9579 06be 5076 c0bd
00000340: 25ce 60bc ba1a 8ebd a829 2dbe 5762 d5bc
00000350: 1112 d83c 0580 283d 73f0 8d3d a758 3dbd
00000360: bbbb 09be 3d0e 3bbd 0283 4cbd 5b26 fc3c
00000370: c293 a2bc 7bd0 5c3d b29f 5dbd 011e 08be
00000380: 22c7 47bd 8a77 883d 252f ab3d 516b 89bd
00000390: 354b 29be 2a7c 423d e970 73bd af33 843d
000003a0: 42ba dc3d 6dcd 783c 1626 11bc 6242 533d
000003b0: 9ee9 f5bd 104f 2abe b501 2f3d abff 983d
000003c0: c63c 1d3d 5571 423b 5025 413a 8b7e d5bd
000003d0: 73bb c03c 453f 34bd 8fc1 ffbd 8cfa 6dbd
000003e0: 8094 9f3d a1e0 ec3d 1c94 11be fa07 86bd
000003f0: 7aaa 81bd 3215 8ebd 3618 803d b622 42be
-0.00548997 -0.123171955 -0.10314542 -0.09854518 0.055870373 -0.04922265 -0.14745598 0.03534919
0.047526162 0.043698594 -0.15663017 0.08957218 -0.18510558 0.08367886 -0.050288577 -0.072092146
0.026042279 -0.015694987 -0.089438796 -0.08857567 -0.08942134 0.003666031 -0.1274608 -0.07759536
-0.11238421 -0.007916834 -0.04444387 0.099349245 0.085537106 -0.04937652 0.050907545 -0.011327336
-0.088783436 -0.15695186 0.073559985 -0.09011195 -0.1594881 -0.072470255 0.08843251 0.011958177
0.058444574 -0.02939462 -0.1540998 0.037839506 -0.13225453 0.10165443 0.041206542 -0.03642935
-0.15341519 -0.056291793 -0.119788066 -0.024223773 -0.08356692 0.06588464 0.04578944 -0.016944516
-0.100327484 0.096943125 -0.14301307 -0.11396608 -0.005706318 0.006153588 -0.12277493 -0.05131725
-0.16180487 -0.13925458 -0.09733947 0.03836173 -0.07590554 -0.09579645 0.062237546 -0.07504268
0.029948521 0.06524228 0.034796134 -0.09126119 -0.10530793 0.10892801 -0.1512906 -0.16319865
0.021096652 -0.04616376 -0.011433066 -0.00087876635 -0.0092512425 0.08116897 0.008140976 0.06529954
0.054236323 -0.0073591517 -0.1427447 -0.05116465 -0.12611432 0.060656954 -0.018012278 0.07777176
0.034637056 0.062846564 -0.035856463 -0.103201225 0.13775146 0.13653202 0.043186218 -0.06771397
-0.06242515 0.08311951 0.05209339 0.16812997 0.041116957 0.0026404983 0.0829534 0.04014257
-0.010090277 0.08752805 -0.014661865 -0.017550185 0.13291208 0.041371655 0.06364408 0.13036367
0.100316726 -0.072844066 0.0044565843 0.07368134 0.15440641 0.13773286 0.11536308 0.019216005
0.054540984 0.039589167 0.06945775 0.06405159 0.036995962 0.072668605 0.1062732 -0.006643741
-0.08064508 0.013968643 0.14780237 0.0183129 -0.07740278 0.06522128 0.06298848 0.03611319
0.12232081 0.072827846 0.06835047 -0.049442954 0.008909013 -0.06656886 -0.076563686 -0.17245518
0.018650418 -0.16971219 -0.13467374 -0.09087986 -0.08900421 -0.09953678 -0.14710592 0.08938621
0.0024924781 -0.1368117 -0.10074039 -0.18253286 -0.16746323 0.003473121 -0.013551821 -0.19394106
-0.12461846 -0.021488555 -0.13923278 -0.11722871 -0.20436502 0.07217138 0.002845062 0.029362848
0.07322728 0.06421115 -0.1808234 -0.17702422 -0.09348784 -0.16076079 -0.14510623 -0.09227432
-0.062132362 0.059081405 -0.10245658 -0.05765594 0.0021692475 -0.05016598 -0.05193369 -0.0028355722
-0.12543185 -0.12932216 0.07117807 -0.14170052 -0.09542583 -0.1578126 -0.18445475 -0.09682406
-0.15699993 -0.08673138 -0.10702597 -0.055905722 0.018519912 0.052302897 -0.13132317 -0.09397566
-0.013721024 -0.069386914 -0.16910422 -0.026047869 0.026375802 0.041137714 0.06930628 -0.046227124
-0.1345052 -0.045667876 -0.049929626 0.030780008 -0.019845847 0.05390976 -0.054107375 -0.13292696
-0.048773892 0.06663425 0.083586015 -0.06709922 -0.16532595 0.047481693 -0.05943385 0.0645517
0.10777713 0.015185696 -0.008859178 0.05157698 -0.120074496 -0.16631722 0.042726237 0.0747064
0.038388036 0.0029669602 0.0007367926 -0.10424527 0.023526883 -0.04400565 -0.1248809 -0.05810027
0.07791996 0.11566282 -0.14216655 -0.0654449 -0.06331344 -0.069376364 0.06254618 -0.18958554

hidden.0.bias f4 [50]
00000000: d499 b83c f628 0f3b 4b8e 683c 1dcc 8abd
00000010: 3d55 d7bd d654 8fbd c526 d33d e423 003d
00000020: 8c07 293e a62c 21bb c474 16bd e988 b5bd
00000030: 4b55 49bd 69e7 07be e1d5 a6bd c521 853d
00000040: ceea fdbd c921 193e 7c0b c9bd 4960 be3d
00000050: ddd6 883a 2d00 99bd 455e 9f3d fa49 1a3e
00000060: c717 203e bac6 533d e48b c2bb 66c1 1abe
00000070: 48c6 a439 b2cd c73d aebd cbbd 0bf2 653e
00000080: f555 5a3d 4959 023e d06b c3bd 0309 c8bd
00000090: adcc 543d bffb 6f39 d146 c2bd 6fe9 0cbd
000000a0: 2214 1e3e 5d47 8ebd 1a66 323e 5fc8 ffbd
000000b0: 72b2 d7bd a584 98bd db02 ac3d 8399 94bc
000000c0: 84bf c63d fafd 69bb
0.022534288 0.0021844483 0.014194082 -0.06777213 -0.10514305 -0.06998603 0.10310129 0.031284228
0.16506785 -0.0024593263 -0.03673245 -0.08864004 -0.049153607 -0.1327187 -0.08146263 0.06500582
-0.12398301 0.14954294 -0.098166436 0.09295709 0.0010440011 -0.07470737 0.07781652 0.15067282
0.1563407 0.051703192 -0.0059370864 -0.15112838 0.0003142825 0.0975603 -0.09948288 0.22455613
0.05330463 0.12729372 -0.09542048 -0.09767344 0.051953007 0.00022886599 -0.094861634 -0.034402307
0.15437368 -0.06947205 0.17421761 -0.1248939 -0.105320826 -0.07447175 0.08398982 -0.018139606
0.097044975 -0.003570436

hidden.3.weight f4 [50, 50]
00000000: 193e c4bd 033a d1bc f2bf e03d bc6a 0a3e
00000010: ee7e 0fbc 0317 eebd d819 a23d efad 1b3c
00000020: 8de2 95bb ecca bbbd e002 863d 8d75 0b3c
00000030: b644 fd3c eb90 d4bd af4f 3f3d 5f3d 9fbd
00000040: c618 383d 2355 03be 7462 a53d 5faf cf3c
00000050: c1fb e6bc 4ffb cabd cdcf e23d b3ac 2e3d
00000060: 7538 b1bd 574c be3c ec02 ff3d da33 52bb
00000070: 0c04 b93c 39c9 4ebd fb39 3abc c497 d33d
00000080: 9fc4 033d 2fdb 7ebd 496e 063e 4ef8 6a3d
00000090: 6f4e d43d 44e2 003e a065 593d 4661 ebbd
000000a0: 35d6 97bd 43b8 ef3d 276a 3abd 39c8 a43c
000000b0: 53ff 833d f729 103e 102f 803d e288 3dbd
000000c0: 2276 823d f08f 86bc e2a7 f33c 5d9d 1bbe
000000d0: 65f1 a63d aaf6 f03d 109d 473d a2ec a5bd
000000e0: cf46 b63c 3a49 77bd 22f9 19be 666e fe3d
000000f0: 3f3f dc3d c095 acbc f0bd eabb 982c 93bd
00000100: 304f c13d 58a5 09be 89b2 3d3d bae4 213c
00000110: 30ce a5bd ea72 4ebd f69b 693d 415c e9bc
00000120: 30f5 de3c f08e 41be aa02 073d 284a a6bd
00000130: 7aa7 bdbd f6e3 da3c 878f a6bc 60d2 30be
00000140: 77e1 ec3a 692a 48be d5b2 c53c 1249 3dbe
00000150: 7b6a 7f3d 918f 4a3d ffec 48be 0cf9 1bbd
00000160: b7de 4d3d 422e 453d 114c 07be ee9c 44be
00000170: 4116 4cbd a699 4abc 35c8 603d 4277 0bbe
00000180: fd59 bdbc f390 ec3b db7b ad3d 1d92 e53d
00000190: a6cb f0bd 1a88 c63d 1e54 18be 2bce 343d
000001a0: 41f5 623d c291 1abd 9519 8fbd 9206 083d
000001b0: 9f98 22be a6bd 01be 86b7 983d c33d 84bd
000001c0: 259d 07be 51b7 56bd d687 553d 928f 15be
000001d0: 1686 b53b afe9 7abd f52b 90bd 1e39 b7bd
000001e0: abd6 993d 1ad6 683d 818e 13be 83c8 a9be
000001f0: ce2b 98bc 3467 b7bd 3417 d6be 009c 98bd
00000200: 51a2 3cbe 8eb0 07be 97cc 56bd 80d4 59be
00000210: 1a3b 903d 6111 86bd 6d2f 00be f96b 2bbd
00000220: fcf2 24be ad5d 2dbe f00c c0bd 6660 89bc
00000230: eaab 79be 12ee 8abe 9cc3 50be abb5 783d
00000240: 79ee a13d 9c3b 1fbe a92b 10bd 19d9 8abd
00000250: 86b1 20bc dca2 a53c 1c75 3b3e 7930 c33c
00000260: e7bb 023e ad75 bfbd f544 18bd 5c0a afbd
00000270: 7bd7 da3d 8dbf ec3d f5c1 d33d e450 e03d
00000280: d57c 92bd 56b3 103e 701d 87bc cb87 1f3d
00000290: 8eda 043e ef55 2dbd db1c 60bd 6b63 be3d
000002a0: 0f51 20bc f3de d13c 4511 97bd f187 083c
000002b0: da3a fb3c aeee e03d b013 173e a7f6 d23d
000002c0: 0929 3f3e d3ed 18bd 458c ad3d 47b4 18bb
000002d0: acbc e53c 1f21 033e d8dd bd3d 021e 1b3e
000002e0: 7387 2b3d 225c dc3d 0102 de3d f1ff 5a3e
000002f0: 1fe0 083e aa40 d3bd ede2 433d b4c1 283e
00000300: 109b d33d d0ac 923c addc 25be 2054 7a3d
00000310: ab2a d93c c72e 673c 626d c3bc fe42 d5bb
00000320: e37f 063e 4efc 93bd e15d 14bd 45aa 3e3d
00000330: 066d 4a3d 8d33 07be 3447 2e3d 52fd 1f3d
00000340: f1bd c73d 1223 0fbd e15e 97bd f6b5 8f3d
00000350: 0474 a03d 1259 233d 7d53 8e3d 52d2 143e
00000360: 01c2 3e3d eb1a 42bc 6747 e5bd 7c35 453d
00000370: 87a1 26bd e0a8 7bbd 412d 90bd c789 cf3d
00000380: 89e3 30bc 266d 9ebd 664a 5bbd e6c6 083c
00000390: 7c07 893d a568 6cbc 05d6 2a3d 2d11 353d
000003a0: 46cb c73d 5fd0 1d3e 0d65 d6bd 17e1 133c
000003b0: 9313 c4bc e458 11be d229 683d eb91 c13d
000003c0: bbcc 3d3d c3a5 983d 6b82 ac3d dffd f5bc
000003d0: 5a76 e8bc d4b7 b0bd 5dce d53d dac3 c4bd
000003e0: 1868 d3bd 684d 313c 0891 1ebe fac7 fdbd
000003f0: f11a 95bd e110 ffbc b8f1 03bd 8080 0dbe
-0.09582157 -0.025540357 0.10974111 0.13517278 -0.00875829 -0.11625483 0.079150856 0.009501918
-0.004574126 -0.09169564 0.06543517 0.008511913 0.030916553 -0.103792034 0.04670685 -0.077753775
0.0449455 -0.12825446 0.08075419 0.025352178 -0.028196217 -0.099112146 0.11074791 0.042645168
-0.086533464 0.023229761 0.12451729 -0.0032074363 0.022584938 -0.05048487 -0.011366363 0.10331681
0.032169934 -0.06222075 0.13128008 0.057365708 0.103665225 0.12586313 0.053075433 -0.11493163
-0.074139036 0.11705067 -0.04551139 0.020115005 0.064451836 0.14078508 0.062589765 -0.04627312
0.06370188 -0.016426057 0.029743139 -0.15196748 0.08151511 0.117657974 0.04873377 -0.08101775
0.022250561 -0.06037257 -0.15036443 0.124234006 0.10754251 -0.0210675 -0.0071637556 -0.0718624
0.09438932 -0.1344198 0.046312843 0.009881193 -0.08095968 -0.05040256 0.0570335 -0.028486373
0.027216524 -0.18902183 0.032961525 -0.08119613 -0.09260459 0.026720028 -0.020332111 -0.17267752
0.0018072565 -0.19547428 0.024133125 -0.18484905 0.062357407 0.04945332 -0.19621657 -0.038079306
0.050261226 0.048139818 -0.13212611 -0.19200489 -0.04982591 -0.012365734 0.054878432 -0.13619712
-0.023114199 0.0072194277 0.08470889 0.112095095 -0.11757593 0.09693928 -0.14875838 0.04414193
0.055409674 -0.03773666 -0.06987301 0.03320939 -0.15878533 -0.12670001 0.07456879 -0.064570926
-0.1324354 -0.052420918 0.052131496 -0.14605549 0.005539666 -0.061258014 -0.07039634 -0.08946441
0.07511648 0.05684481 -0.1440983 -0.3316079 -0.018575575 -0.08955231 -0.41814578 -0.0745163
-0.18421294 -0.13250944 -0.052441206 -0.21272469 0.07042523 -0.065462835 -0.12518091 -0.041851018
-0.16108316 -0.16930266 -0.09377468 -0.0167696 -0.24381986 -0.27134758 -0.20387119 0.060720127
0.07906813 -0.15550083 -0.035197888 -0.06779689 -0.00980795 0.020219259 0.18306392 0.023826825
0.12766992 -0.09348617 -0.037175138 -0.08546898 0.10685631 0.11559973 0.10339729 0.10952929
-0.07152716 0.14130911 -0.01649353 0.03894786 0.12973997 -0.04231828 -0.05471502 0.09296306
-0.009784951 0.025619006 -0.07376341 0.008333192 0.030667711 0.109830245 0.14753604 0.103009515
0.18667997 -0.03733618 0.0847402 -0.0023300813 0.028044067 0.12805603 0.09270829 0.15148166
0.04187722 0.107597604 0.10840226 0.21386696 0.13366745 -0.10315068 0.047823835 0.16480142
0.1033231 0.017904669 -0.16197462 0.061115384 0.026509603 0.014110274 -0.023855869 -0.00650823
0.13134722 -0.07225858 -0.036222342 0.0465491 0.04942038 -0.13203259 0.042548373 0.039059944
0.09753025 -0.034945555 -0.073911436 0.07017128 0.07834628 0.039879866 0.06949518 0.14533356
0.046571735 -0.011847238 -0.111952595 0.04814671 -0.04068139 -0.06144035 -0.070398815 0.10133701
-0.010796436 -0.07735662 -0.05353775 0.008348202 0.06690881 -0.014429246 0.04170801 0.044205833
0.09755568 0.15411519 -0.10468493 0.009025834 -0.023935115 -0.14194065 0.056680508 0.0945166
0.046337824 0.074534915 0.08423313 -0.030028282 -0.028376747 -0.086288124 0.10439751 -0.09607668
-0.10322589 0.010821678 -0.15485013 -0.12391658 -0.07280529 -0.031135978 -0.032212943 -0.1381855

hidden.3.bias f4 [50]
00000000: 1083 9a3d a445 15be 6dc9 adb9 a2ac 10bd
00000010: a78f d8bb 10e9 08be b484 ca3a c78a fbbd
00000020: 26fd 623d dac8 81be a5ef 223e 902d 5cbc
00000030: 10e8 fabd f426 e03d 3643 b1bd 538c 10be
00000040: f16d 8ebe f6b6 36be 2f18 48bc f870 58be
00000050: 45e5 45bd f8d7 5dbd c0c8 83bd d266 47be
00000060: 7bd1 863d 4486 013d a5fb 23bd 224a 1b3d
00000070: 4553 94be ee3c 88bb 0b7f 8a3d b618 99bd
00000080: 7e76 08be c50f 53bd e3ba 0f3d 3d1a e0bd
00000090: b6a4 d0bd 9bd7 e13b 3178 51bd 8ef6 1b3e
000000a0: a06c 11be 5569 c2bd a340 66be e43f 1ebe
000000b0: 4015 97be b9bc 25bd dbfd f73d b8b2 d43d
000000c0: bf93 033e 7d1d 77bc
0.075445294 -0.14577347 -0.00033147205 -0.035320885 -0.0066089216 -0.13370156 0.0015450926 -0.12282329
0.055417202 -0.2534855 0.1591173 -0.013438597 -0.12251294 0.1094493 -0.086553976 -0.1411603
-0.27818254 -0.17843232 -0.012212797 -0.21136844 -0.04831435 -0.054161042 -0.064347744 -0.19472817
0.06582924 0.031622186 -0.04003491 0.037912495 -0.2896978 -0.004157654 0.06762513 -0.07475416
-0.13326451 -0.05152871 0.03509034 -0.109425046 -0.10187666 0.0068921573 -0.051140014 0.15230772
-0.14201593 -0.09492747 -0.22485594 -0.1545406 -0.295084 -0.040463183 0.12108966 0.103856504
0.1284933 -0.015082714

hidden.6.weight f4 [50, 50]
00000000: 634b cdbd 7321 e8bb acd7 e93d cd99 3bbe
00000010: bf15 a4bc ca02 a53d 322f e73c 5726 6e3d
00000020: 11aa 0dbe b6be ff3d 28d2 fabd dec7 273d
00000030: 3ce0 f23b fbd2 a93d 784e 223d a1eb f33c
00000040: c0df 1d3c 316a 023e 47bb 113d ac76 64bd
00000050: f2da 1ebd 9824 e33c 7e08 043d a61a d2bd
00000060: 474c 6b3d af3b 54bd 0d9b 843c 222a 1dbe
00000070: 77b8 b0bd 6911 cabd 58dd d2bd c5d9 7d3c
00000080: d86e c63d 08d6 543d 2e07 9c39 1e12 f73d
00000090: 635d 09be 120e eabd 5e7d 263c 4f52 d4bd
000000a0: 4675 be3d 3c75 9f3d 5fcb f5bd 8ab9 a13d
000000b0: 09e9 c93d 3cb7 24be d539 b03c 5564 3ebc
000000c0: e7bd c7ba bda0 9bbd c562 0c3e a852 19bb
000000d0: 1113 f63c 760e 493e 8558 203e b564 02bc
000000e0: 1ba6 023e 0773 9f3d 60af 7e3c efc9 36bc
000000f0: 619a b23d 23e3 4b3e 822a 9e3d 3211 b03d
00000100: 2588 063e 1483 3e3e 0528 073e 4c6b 32bc
00000110: a915 203e 1a32 9fbd 474b 68bd 5735 e9bd
00000120: 00c8 ed3d 3f30 b23d fb67 41bd bef6 543e
00000130: 9ec4 df3d 3a4a 8f3d c177 153c 90a0 9dbd
00000140: ce10 5a3e 50d3 92bc ac17 fa3d 0539 573d
00000150: a395 633d 6642 cbbd 1e5c 153e e9e3 673e
00000160: 44e6 e93d bc29 de3d 99aa 363d fa13 fe3a
00000170: af75 c1ba dba8 043d cf45 e43c 5cc0 5f3e
00000180: 74c8 d93d c4c4 0b3e 3f19 523e ff5b 583d
00000190: 0140 dbbd ca01 763d d081 b53d cb5a cebd
000001a0: 9055 073d b0f1 4dbd ca6e dbbd 73b6 f13d
000001b0: 014c 04bd e004 38bd 9d7b c9bd 0025 193d
000001c0: 3301 2f3d f10f 91bd d184 fd3c d82e c2bc
000001d0: 6479 393d c71b a2bd e74e d2bd 3dff 1c3d
000001e0: 9f65 6dbb 88e0 5a3d 7efe 083d dab3 0c3d
000001f0: 6350 a4bd 1d0f 3abd dc3e b1bd 0590 653d
00000200: 3ed4 923d 9021 53bd 652a a73c 026e b3bc
00000210: 4ada 02be ade7 dd3a f784 98bc 4875 0abe
00000220: 19d4 0d3e a560 a4bd 4303 ef3c 6302 cbbd
00000230: fc13 82bd 9bfc 643d aeb2 043e c3f9 943d
00000240: 1ff9 103d fd9b cd3d 7ad1 a2bc 670f 853d
00000250: 3163 eabd ffb5 3ebd f8c9 b1bd 56a0 a23d
00000260: a80b 653d 8e04 41be f5ba 3e3d 516d ed3d
00000270: c08f 5cbd 7c74 08bd 0dda 0c3d cadd cb3d
00000280: 3341 9dbd edce aebd f1e6 1c3d 2e3a 9bbc
00000290: bf6d c9bb e278 243d 0c94 dabc 1ae8 54bd
000002a0: fc3d 4a3d 98cb 05bd 61f9 16be 207e 98bd
000002b0: 4eb2 e8bb bfd2 95bd a0d6 8abd 2870 e9bd
000002c0: 4739 74bd 6d82 30bd cebf 1dbd 12cb 8b3d
000002d0: 937b 80bd c50a 33be 7c48 3bbc 2ae5 fdbc
000002e0: 27de 0cbc 5d8e c7bc 0ea4 05be f7cf 1c3d
000002f0: 0245 73bd 49b2 04be 3340 22be 347b 7fbd
00000300: d545 b73d d3b6 eb3c 09d7 d1bd d49c 043d
00000310: 2dd2 9dbb d377 303d b1e3 413d 1fb8 16be
00000320: 6799 ddbc 1666 873d 5390 65bd d269 4fbe
00000330: 10a0 983c 73ba 39bd d26b 04be 07ae b5bd
00000340: e039 25bd 230c b7bd 58a6 83bd 56c8 02bd
00000350: f6f4 353c 809d e53c 2e7c 8f3c 3d0d 55bd
00000360: 6c7e c3bd effc 963b 9c9d c3bd 8161 ccbc
00000370: 7316 a63d d835 b63d f5a6 933c 233e 01bc
00000380: 4c09 a43d 4209 a23d b521 91bd ba34 37bb
00000390: 4556 01bc 8749 3dbd d2ed f9bd 33a0 8ebc
000003a0: 4a25 df3d a6fe 843d cb0b e83c c3fc 9a3b
000003b0: 37c1 68bd 367a 7f3d e616 debd d952 d1bb
000003c0: 6644 d4bd 9577 eebd 700b 103d c25f 5abc
000003d0: ff58 a63c 1a33 4e3c 36a0 103c 63c1 1cbe
000003e0: d0f3 9cbd 8f46 fbbd 4440 353e 4ebf f0bd
000003f0: 91ef 563d 8f90 533e c118 0f3e e202 613d
-0.100241445 -0.0070840656 0.11418089 -0.18320389 -0.0200299 0.080571726 0.028220747 0.058142032
-0.13834406 0.12487547 -0.122471154 0.040962093 0.0074119847 0.082921945 0.039625615 0.029775443
0.009635866 0.12735821 0.035578992 -0.055777237 -0.03878302 0.02772741 0.03223466 -0.10258989
0.05744579 -0.05181473 0.016187215 -0.15348104 -0.08628934 -0.09866602 -0.10296124 0.015493815
0.096891105 0.05196193 0.00029759988 0.120640025 -0.1341453 -0.11428465 0.010161726 -0.103672616
0.09299712 0.077860326 -0.120016806 0.07896717 0.09858901 -0.16085523 0.021511951 -0.011620601
-0.001523909 -0.07599018 0.13709553 -0.0023395214 0.030038388 0.19634423 0.15658768 -0.007958581
0.12758677 0.077856116 0.015544742 -0.011156543 0.08720852 0.19910865 0.077229515 0.0859703
0.13137873 0.1860469 0.1319886 -0.010889839 0.15633263 -0.07773228 -0.056712415 -0.11387127
0.116104126 0.087006085 -0.047218304 0.2079725 0.109261736 0.069965795 0.00912279 -0.076966405
0.21295473 -0.017923027 0.12211546 0.052544612 0.055562627 -0.09924774 0.14585921 0.22645535
0.11420873 0.10847804 0.04459629 0.0019384616 -0.0014759804 0.032387596 0.027865319 0.21850723
0.106339365 0.13649279 0.20517443 0.05282211 -0.10705567 0.0600603 0.088626504 -0.10075911
0.033040583 -0.05027932 -0.10714491 0.118023776 -0.032299045 -0.044926524 -0.098380305 0.0373888
0.042725753 -0.07083119 0.03094712 -0.023703977 0.045281783 -0.07915454 -0.10268956 0.03832935
-0.00362239 0.053436786 0.033445828 0.034351207 -0.08023145 -0.04542457 -0.086545676 0.05604555
0.07169388 -0.05154568 0.020405957 -0.021903042 -0.12778583 0.0016930007 -0.01861809 -0.13521302
0.1385044 -0.08026246 0.02917636 -0.099125646 -0.06351468 0.055904966 0.12958786 0.07274201
0.03539383 0.10039518 -0.019875277 0.064970784 -0.114447005 -0.046560284 -0.086811006 0.07940738
0.05591932 -0.18849394 0.046565015 0.11593116 -0.05384803 -0.033314213 0.034387637 0.09954412
-0.076784514 -0.08535562 0.03830618 -0.01894864 -0.006147116 0.040154345 -0.026681922 -0.05197916
0.04937552 -0.032664865 -0.14743568 -0.074459314 -0.0071013337 -0.07315587 -0.06779218 -0.11398345
-0.059624936 -0.043093134 -0.038512997 0.06825842 -0.0627357 -0.17484577 -0.011430856 -0.030993063
-0.008597887 -0.024359876 -0.13050863 0.03828427 -0.059391983 -0.12958635 -0.15844803 -0.062373355
0.08948866 0.0287737 -0.10246093 0.032376125 -0.0048163147 0.043083023 0.047336284 -0.14718674
-0.027050687 0.06611268 -0.05604584 -0.20255211 0.018631011 -0.045343827 -0.12931755 -0.08871084
-0.040338397 -0.08937862 -0.06428212 -0.031929336 0.0111057665 0.028029203 0.017515268 -0.052014578
-0.095455974 0.0046077888 -0.09551546 -0.024948837 0.081097506 0.08896989 0.018023947 -0.00788835
0.08009586 0.07911922 -0.07086507 -0.0027955011 -0.007894103 -0.0462127 -0.12203564 -0.017410373
0.10895784 0.06493883 0.028325936 0.0047298386 -0.05682489 0.06237241 -0.10844211 -0.00638805
-0.103646085 -0.11643902 0.035167158 -0.0133284945 0.020306109 0.012585426 0.00882726 -0.15308146
-0.07663691 -0.12269317 0.17700297 -0.117552385 0.052474562 0.20660613 0.13974287 0.05493439

hidden.6.bias f4 [50]
00000000: fdd5 56bd fc22 76ba 436f 9bbc 3e06 12be
00000010: c429 8cbd a74e 6f3c 3b08 c6bd f407 8fbc
00000020: 15d8 9fbd ff3e b5bd b0a7 77bd 87a0 b9bd
00000030: 4f54 0b3c c32a f3bc ab58 91bc 27cd 613c
00000040: 65ba e43c fee8 93bc 7be2 173e 2c64 9f3d
00000050: 1bbd 91bd 46c6 d13d 5c60 d0bd bc41 0fbe
00000060: d746 713d b32c 593d 2ebf 11bd 7f0d 453b
00000070: a97c 05be f932 04be 36e7 d0bd a4ee 3f3e
00000080: 3e59 823d c8ae 5c3d 2c9c 993c 7860 413e
00000090: d1ae efbd 56ef b5bd 702b 673a c968 4c3d
000000a0: 666b 42be 6a98 1a3e e8e6 c6bd 5854 69bd
000000b0: 4c2e 3bbd af1b 3f3e a0be 093e 1eb9 883d
000000c0: fc3c 4dbd 9ac8 e13d
-0.05245017 -0.00093893684 -0.018973952 -0.14260194 -0.06843904 0.0146061545 -0.096695386 -0.017459847
-0.07804886 -0.08849906 -0.060462654 -0.09063821 0.008503987 -0.029683476 -0.017742475 0.013781822
0.027920911 -0.018055435 0.14832489 0.07782778 -0.07116147 0.10242896 -0.10174629 -0.1398992
0.05890545 0.053021144 -0.035582714 0.0030067859 -0.13035835 -0.1291007 -0.1020035 0.18743378
0.06364678 0.053877622 0.018751226 0.18884456 -0.117032655 -0.0888354 0.00088184234 0.04990462
-0.18986282 0.15097204 -0.097120106 -0.056965202 -0.04569845 0.18662904 0.13451624 0.06675933
-0.050106987 0.1102459

output.weight f4 [1, 50]
00000000: 343a 023d 4c09 33c0 24a7 703d 82c5 193c
00000010: c94d 13bc 339e 2ec0 25d2 d2bc 871d a23d
00000020: 6839 a6bc 9e32 133d 43d7 93bb 7cab a5bd
00000030: 3bf3 083d 36ad e3bc eb0c 86bd 0a12 f93d
00000040: c46a 2fc0 8f32 8b3d 7af8 2cc0 a0e2 2dc0
00000050: aa0f d5bd b3aa 96bd 3906 233d bf94 033e
00000060: 5669 2fc0 eb5b 22c0 4ce2 eb3c d17d 343c
00000070: db4a bf3c 5b8f d73c bea5 833d aa69 2fc0
00000080: 34d3 003e 91bd f6bc 7b10 9fbd e40a 31c0
00000090: 687b 8f3d 6802 b1bc 8957 fb3d 67d8 8a3d
000000a0: 42b6 2ebd b487 2ac0 6d7f 543d 3c54 ba3d
000000b0: 8680 ba3d 560a 28c0 c328 2cc0 6487 2fc0
000000c0: 384c 9f3c 4704 29c0
0.031793788 -2.7974424 0.058753148 0.009385468 -0.008990713 -2.7284057 -0.02573497 0.07915788
-0.020291045 0.035936944 -0.004511745 -0.08089349 0.033435088 -0.027792554 -0.06545433 0.12161644
-2.7408915 0.06796753 -2.7026658 -2.716957 -0.10403378 -0.07356777 0.039800856 0.12849711
-2.7408042 -2.5368602 0.02879443 0.011016325 0.023351124 0.026313474 0.06428097 -2.7408242
0.12580568 -0.03011969 -0.07766815 -2.7662897 0.0700596 -0.021607593 0.122725554 0.06779557
-0.042654283 -2.6645327 0.051879335 0.09098098 0.09106545 -2.6256309 -2.689988 -2.7426386
0.019445524 -2.640886

exp_avg f4 [50, 13]
00000000: f887 3cb8 baa9 3039 c4ab 123a f4d7 1cb7
00000010: 77ac 7bb8 2930 a5ab 5e02 dbba 647d e6b8
00000020: 1636 36ba 23ec 2d38 29ec b138 03d2 0eb8
00000030: 5e29 2725 ad43 f838 3491 f2b9 bbe4 b538
00000040: 82f8 bfb8 3000 8539 8828 7e2b 9591 15b8
00000050: a026 913a bc89 89b9 41c0 98b8 69a0 3a39
00000060: b0a2 9638 8240 d522 0a64 8e38 3ee0 bd37
00000070: baed 7ab9 7b95 9438 9791 90b9 81f6 792a
00000080: 3fa8 9bbb 4a46 f5ba ee98 0bba c51f 07b9
00000090: 3307 b2ba 9625 8eba 6983 f225 4ef1 a3b8
000000a0: f4d2 043a e99e bc39 6811 c0b7 c6d8 55b7
000000b0: e854 0fab b001 11b9 b57c afba 2b1e adb7
000000c0: f4b1 a7b7 5c5f 3fb8 8d8b 57b9 d03b 4ba2
000000d0: 732b d5b8 d9c2 07b8 5f2d 51b9 0634 9eb8
000000e0: 6223 2d38 774e 632b ee06 013b 35e8 98b8
000000f0: a43a 9139 23fe 9637 900f 1c3a a39c 61b9
00000100: 05d0 2fa5 cb22 4bb9 a23c 4fb9 ff14 39ba
00000110: de08 9237 43de df39 c4d2 0bac 7a4d ce3a
00000120: 81fe ceb5 753f beb9 74ff b139 fada 5839
00000130: ad60 7e38 03b5 eda4 27d3 1fb9 ffa8 62b8
00000140: 4a79 fbb7 ec71 bd38 9767 aa38 d31e 0bac
00000150: c084 8d3a f347 feb8 bc40 c1b7 09c3 1239
00000160: 97a6 0a39 80d5 4138 943e a4a4 3332 9bb8
00000170: d43d 6437 6622 2b39 895b c0b8 fa4f c4b7
00000180: 5df5 95aa b524 513a 9b8e 0e38 e1fa d3b9
00000190: 2a52 5939 3627 6eb8 27ef a2b7 cd89 fba4
000001a0: d498 be36 1225 ca39 579f 89b9 c51f 9eb8
000001b0: 5bec 2b37 95dd 9aaa 85e1 24b8 7994 043a
000001c0: a73d d938 e634 7a38 44b2 8fb7 42a5 1a39
000001d0: 4f7e ee22 8718 b938 2986 b13a 4c81 c439
000001e0: 7a43 1339 9a1b 3db9 39bc 6caa e4d7 beb9
000001f0: cdc4 adb9 d3ea 593a cb1d 07bb 6a5d 0039
00000200: 80d2 6fb9 820f ed23 b825 d0b8 732a 31b9
00000210: 0f54 2339 ed3c 0b39 35fe 7a39 560d 892b
00000220: 76ff f23a ebf6 b93a 486f 9e3a 1be2 8f3a
00000230: 80ce bd3a 0a8d 5d3a d51c 03a5 a363 b1b9
00000240: 05db 6039 aa95 55b8 0f6e 1138 c6f7 d5b8
00000250: e02e 5bac 8f3c cbb8 0de0 42ba 3f8d abb9
00000260: 143f 29ba d45f 04ba fd43 11b9 189a 5a23
00000270: b8c5 10b8 72e4 2b3a 572d 063a ef7e 1638
00000280: b4ef f9b9 3d08 26ac 425a 86bb ec43 f7b6
00000290: 02ed d9ba 70c4 2bb9 ae05 68b9 ad4e 94b8
000002a0: 8ae6 b925 836c a6b7 03ae 01ba 2ce3 4db9
000002b0: a42a 2fb6 4a49 1439 c37a 892b 0ac2 673b
000002c0: 875b 943a f956 b93a ba40 323a eb59 8c3a
000002d0: 87bd 533a 0fcc ada5 b656 c4b8 d129 9e38
000002e0: 4ef3 82b8 199f bbb8 2ee7 3c39 ada5 a1ab
000002f0: d424 abb8 9717 ec39 e328 543a 4c3f 263a
00000300: a014 f839 fdfc 8239 5649 6823 78c7 0838
00000310: e77c 7cb7 319c 3bb8 b719 e237 4970 8b37
00000320: 04e5 1e2c f77f 903b 2e8d b4b7 565f 91b9
00000330: fe8e b539 4a3b 82b9 64aa d3b9 2513 eea5
00000340: a3ca 68b7 65c6 79b4 8e38 beb8 861f 8ab9
00000350: c732 cbb8 d5e3 4a2a 13ee 09ba 5f62 91b9
00000360: 4a0a a0ba 0eca 9db9 6020 da38 228c 43b9
00000370: 4c00 5b24 1d53 cfb9 6618 b7b6 6ba4 8eb9
00000380: 92bf 9339 620c 3e36 20aa e8ac b21a c4bb
00000390: b644 1dbb 9529 32bb b78c 1bbb ce86 30bb
000003a0: 2569 a8ba 7fd5 1426 9357 97b9 b6bb ad37
000003b0: 38ac 16b9 d523 013a dddd 9fb9 5329 6bac
000003c0: 2528 17bb 30ba a1ba 4807 58b9 38bf a3b9
000003d0: 8c1d c638 7add e0b9 e26c 4b25 8590 deb8
000003e0: 8446 db37 04b8 0b39 8528 35b9 7935 fa39
000003f0: 0781 b5aa 0531 b039 9ebc e339 1c4e 343b
-4.4949324e-05 0.00016847896 0.0005595053 -9.348605e-06 -6.0003684e-05 -1.1737322e-12 -0.001670908 -0.000109906105
-0.00069508085 4.1466334e-05 8.484006e-05 -3.4051027e-05 1.4498957e-16 0.00011838167 -0.00046266022 8.673357e-05
-9.153878e-05 0.00025367877 9.0295176e-13 -3.5659952e-05 0.0011074133 -0.00026233296 -7.283735e-05 0.000177981
7.18286e-05 5.7802066e-18 6.7897214e-05 2.2634977e-05 -0.00023930418 7.085033e-05 -0.00027574293 2.2201166e-13
-0.004750281 -0.0018712964 -0.00053252175 -0.00012886438 -0.0013582468 -0.0010844942 4.2069355e-16 -7.817392e-05
0.0005066835 0.00035976552 -2.2896289e-05 -1.2746261e-05 -5.0921637e-13 -0.00013828906 -0.0013388606 -2.0637255e-05
-1.9990817e-05 -4.562676e-05 -0.00020555985 -2.7543295e-18 -0.000101647245 -3.2367974e-05 -0.00019948695 -7.543717e-05
4.1279367e-05 8.075549e-13 0.0019687968 -7.291177e-05 0.00027700246 1.7999735e-05 0.0005953247 -0.00021516024
-1.524931e-16 -0.0001937255 -0.00019763646 -0.00070603186 1.7408685e-05 0.00042699472 -1.9870086e-12 0.0015739643
-1.5422266e-06 -0.00036286903 0.00033950398 0.0002068094 6.0648355e-05 -1.0308901e-16 -0.00015242082 -5.403999e-05
-2.9978011e-05 9.033442e-05 8.125527e-05 -1.97702e-12 0.0010797009 -0.000121250654 -2.3037537e-05 0.00013996301
0.00013222765 4.6213623e-05 -7.1229674e-17 -7.400326e-05 1.36042545e-05 0.00016320645 -9.172323e-05 -2.3402263e-05
-2.6637972e-13 0.0007978187 3.398825e-05 -0.00040431976 0.00020725341 -5.678014e-05 -1.9423269e-05 -1.0908734e-16
5.680233e-06 0.00038556062 -0.00026249394 -7.5399446e-05 1.0247425e-05 -2.750965e-13 -3.931068e-05 0.00050575245
0.0001035885 5.965391e-05 -1.712994e-05 0.00014748148 6.4643764e-18 8.826056e-05 0.0013544011 0.00037480367
0.0001404415 -0.00018034727 -2.1026314e-13 -0.00036400475 -0.0003314376 0.00083128846 -0.0020617123 0.0001224183
-0.00022871234 2.570216e-17 -9.9252386e-05 -0.00016895849 0.00015576206 0.0001327877 0.00023936557 9.738137e-13
0.0018539268 0.0014187967 0.0012087608 0.0010977419 0.0014481097 0.00084514974 -1.1372207e-16 -0.00033834306
0.00021443896 -5.0922543e-05 3.4673194e-05 -0.00010202783 -3.1147793e-12 -9.691074e-05 -0.0007433899 -0.00032720898
-0.0006456238 -0.000504968 -0.00013853605 1.1850434e-17 -3.4516415e-05 0.00065571733 0.00051184505 3.5881003e-05
-0.00047671574 -2.3594592e-12 -0.004100115 -7.369081e-06 -0.001662642 -0.0001638101 -0.0002212736 -7.0718444e-05
3.2248604e-16 -1.9839272e-05 -0.0004946889 -0.00019634952 -2.6101852e-06 0.00014141682 9.768509e-13 0.003536346
0.0011318781 0.00141403 0.0006799806 0.001070795 0.0008077253 -3.0148992e-16 -9.3621595e-05 7.541816e-05
-6.244202e-05 -8.946489e-05 0.00018015198 -1.1485722e-12 -8.160775e-05 0.00045031004 0.0008093251 0.00063418294
0.00047317613 0.00024984023 1.2592275e-17 3.2610697e-05 -1.5049452e-05 -4.472974e-05 2.6953274e-05 1.6622378e-05
2.258028e-12 0.004409786 -2.1523414e-05 -0.00027727586 0.00034629548 -0.00024839706 -0.00040372007 -4.1299392e-16
-1.3875458e-05 -2.3262108e-07 -9.07044e-05 -0.00026344898 -9.689252e-05 1.8020249e-13 -0.0005261611 -0.00027729847
-0.0012210098 -0.00030095916 0.0001040108 -0.00018648853 4.7488307e-17 -0.0003954404 -5.4566653e-06 -0.00027206852
0.00028180756 2.8319414e-06 -6.6127243e-12 -0.0059846276 -0.0023997254 -0.002718543 -0.0023734996 -0.0026935819
-0.0012848718 5.1637156e-16 -0.00028866212 2.0710617e-05 -0.00014369271 0.0004926299 -0.00030492144 -3.3418448e-12
-0.00230647 -0.0012338813 -0.00020602078 -0.00031232252 9.446879e-05 -0.00042889622 1.7644334e-16 -0.00010612704
2.613967e-05 0.00013324624 -0.000172766 0.00047723556 -3.224159e-13 0.00033605858 0.00043437345 0.0027512377

exp_avg_sq f4 [50, 13]
00000000: 2f78 ca35 b832 4338 76d5 0539 e6ed 8538
00000010: c1fe 0e39 492c 5f22 6b02 073b 5966 cb38
00000020: 994d fe3a 67e9 083a 400e e737 a0c4 da39
00000030: d3ab 4717 1bd2 f738 eac2 8f39 b556 4537
00000040: 6d77 5738 270d f739 ce23 c121 ea64 233a
00000050: da3a 173c 24a7 ae3a 3e11 d53a 73d1 6d39
00000060: 5653 4c39 c365 261a cb69 6d38 5cd8 3539
00000070: ec71 2637 2071 5e38 ad7e a238 ef63 0a24
00000080: f97d 813b 2b5c 853b 5eaf 4f3a d954 1d3a
00000090: 3b81 103b b4c0 b43b f8de e418 16db 1239
000000a0: ff88 5639 21f7 e139 dd9f d839 b637 e238
000000b0: e967 e021 8148 a139 c670 bb3b 40e7 e439
000000c0: b96b 9938 fcb6 5a38 e585 1139 6bd5 b619
000000d0: 3124 8137 32a3 8239 c0c9 9537 b256 3d39
000000e0: a480 e439 3c32 8524 b89b 203c b631 2a39
000000f0: 90dd f03a 5db7 2c3a 6341 153b 7324 af3c
00000100: c87a 6117 1b8f fe38 baaf f938 e079 063a
00000110: 896a e339 c5fd df39 d089 1822 6b15 183b
00000120: b608 6838 2927 2f3a 12f7 7039 9839 383a
00000130: 7787 8739 400f 0c1a 7d76 bb37 1fe0 8438
00000140: 545b dc38 9db3 2639 e911 4139 cb45 6821
00000150: 7dca 0e3b 9bd8 4939 b195 643b 7e06 9039
00000160: 662f ef3a fdef 1a3a b7ea c318 096f f536
00000170: 5702 1839 db67 1c39 ba73 e338 aee8 f636
00000180: e27c 4621 4fc2 9f3a e89c bf38 387b b13a
00000190: 48f7 943b e682 c539 2462 0839 f665 3d17
000001a0: e9bc 7b36 eeb4 5c38 67fc 5339 6231 1939
000001b0: 54ab 1439 f221 fa23 80cf 7639 51a9 4b3b
000001c0: ebb1 0f3a 3ddf 943a f861 a038 be5d 823b
000001d0: e4a7 3216 da83 9337 d012 1f39 35b5 6239
000001e0: 4fbf 0c39 905f 4539 3430 261f 9738 6439
000001f0: 9aac 2238 d932 bb3a fc22 7c3b 8d3f 4939
00000200: c202 fe38 215c e615 98f8 1437 daaf 7e38
00000210: 822d d636 da6c 5838 a0f4 5a38 e035 e723
00000220: f9ca 063b a7cb ce3a ec87 1b3b daf2 813b
00000230: 67c4 a33a 8eee 333b 8feb 3b17 d6a6 8138
00000240: 31a5 a539 d31c 3638 c831 e638 7180 9639
00000250: 9e04 e921 ceac 053a d0b7 043c 05e7 903a
00000260: e5de 793c bded 4c3b b814 863b a525 be18
00000270: 0a88 6f35 054c 5838 66d7 8838 c6bd 8c38
00000280: 0857 9638 4863 2222 2f51 873a c6c6 d837
00000290: 1167 043a 5062 dd38 0d7d 8639 1f5c 3439
000002a0: 5332 5417 cc31 2138 577e 2038 4983 0739
000002b0: fe67 2c39 218b 8d37 701f 1a22 b911 c53a
000002c0: d998 6a3b 5fc9 103b f58a 063a c69b 433a
000002d0: 2c30 153a 83aa ad18 6131 9238 fa5e 9239
000002e0: b5d4 2a39 fee3 5a38 d844 5538 fdfe 6721
000002f0: 58fa 2f39 d70a 5e3a 46d8 a63b 1225 dd3b
00000300: b2a5 8e3b fd9e 983b 25f1 8c19 3ca0 0038
00000310: 5e89 1139 8c4c 1937 8fca a839 47fb 4a38
00000320: b959 3624 8896 233b 7921 e037 3a7a 263a
00000330: c9af b639 2024 a038 c012 2d3a df8c d918
00000340: fc49 3d38 e887 3338 fe83 bd38 a00e 9138
00000350: 43e9 b438 37e2 9c23 d517 573b f0db a03b
00000360: e157 6b3b 0acf 9f3b c9fe 4c39 441e 8c3b
00000370: 411e ac19 3ea6 ab37 0c4b cd38 caa4 6937
00000380: b8c6 1939 f8e0 a037 732f b624 2aab 3a3b
00000390: 238f 693b cbc9 3c3b e0c1 ca3b 004d 273b
000003a0: 088c 5f3b 816c 8417 4990 9438 58b4 3a38
000003b0: 89fc 5f37 8d75 0139 5ea8 f138 7a88 f723
000003c0: 6cef 823b d3ca 633b fa6a 513a 03b3 813a
000003d0: 355b 3b38 2e72 df3b d13a 3b19 3ae8 2737
000003e0: 4d1b 2739 af86 0637 272a ef38 723d 0839
000003f0: 874c 8020 6247 6639 8285 893a a490 103b
1.5085151e-06 4.653886e-05 0.00012763389 6.386246e-05 0.00013637079 3.024558e-18 0.0020600806 9.698858e-05
0.0019401788 0.0005222768 2.7543982e-05 0.00041726697 6.451724e-25 0.00011817013 0.00027420308 1.1762303e-05
5.137122e-05 0.0004712131 1.3087666e-18 0.0006232994 0.00923034 0.0013324958 0.0016255749 0.00022680107
0.00019486001 3.4410198e-23 5.660373e-05 0.00017342105 9.9208955e-06 5.303428e-05 7.748357e-05 3.0008627e-17
0.0039517847 0.004069825 0.0007922555 0.0006001718 0.0022049684 0.005516136 5.916176e-24 0.00014005261
0.00020459665 0.0004309947 0.00041317838 0.00010786897 1.5206335e-18 0.00030762333 0.0057202308 0.00043659844
7.3156734e-05 5.2145668e-05 0.00013878157 1.8904558e-23 1.5394851e-05 0.00024917122 1.7856131e-05 0.00018056741
0.00043583394 5.7764656e-17 0.009802751 0.00016230982 0.0018376578 0.00065886026 0.002277457 0.021379685
7.2856393e-25 0.00012138319 0.00011905977 0.0005129855 0.0004337619 0.00042722948 2.0672799e-18 0.0023206125
5.5321223e-05 0.00066815555 0.00022980224 0.0007027625 0.00025850136 2.896364e-23 2.2347313e-05 6.335996e-05
0.00010507429 0.00015897905 0.00018412586 7.869703e-19 0.0021788173 0.00019249546 0.0034879262 0.00027470657
0.0018248379 0.0005910395 5.064332e-24 7.314495e-06 0.00014496721 0.00014916009 0.00010845759 7.358459e-06
6.725029e-19 0.0012188646 9.136816e-05 0.001354075 0.00454608 0.00037672295 0.00013006531 6.1197886e-25
3.7511875e-06 5.262059e-05 0.00020216555 0.00014609614 0.00014178205 2.711943e-17 0.00023537688 0.0031076262
0.0005481529 0.0011358034 7.6476426e-05 0.00397846 1.4431702e-25 1.7585164e-05 0.0001517043 0.00021620544
0.00013422708 0.00018822984 3.519174e-20 0.00021764856 3.8784558e-05 0.0014282122 0.0038473 0.00019192528
0.000121121775 9.3041614e-26 8.879368e-06 6.0722094e-05 6.382995e-06 5.159979e-05 5.2203075e-05 2.5067887e-17
0.0020567758 0.0015777246 0.0023732139 0.0039657177 0.0012494446 0.0027455422 6.0720276e-25 6.182275e-05
0.0003159433 4.3419026e-05 0.00010976527 0.00028705926 1.5789916e-18 0.0005099297 0.008100465 0.0011055177
0.015250896 0.0031269633 0.0040918253 4.915186e-24 8.92324e-07 5.156921e-05 6.5251064e-05 6.711068e-05
7.168768e-05 2.2007653e-18 0.0010323877 2.5841768e-05 0.00050507585 0.00010556413 0.00025651642 0.00017200455
6.8564413e-25 3.843177e-05 3.8264636e-05 0.00012923511 0.00016441938 1.6873297e-05 2.0887535e-18 0.0015035189
0.003579667 0.0022092683 0.00051324005 0.0007461872 0.0005691077 4.4891625e-24 6.97102e-05 0.00027918053
0.00016291703 5.2187585e-05 5.0847273e-05 7.860332e-19 0.00016782561 0.0008470243 0.0050917 0.006748804
0.0043532485 0.0046576248 1.4573058e-23 3.0666808e-05 0.00013879451 9.137333e-06 0.00032194375 4.8394573e-05
3.9540957e-17 0.002496155 2.6718468e-05 0.00063506106 0.00034844715 7.636123e-05 0.000660222 5.623543e-24
4.5130015e-05 4.28035e-05 9.036808e-05 6.916863e-05 8.626517e-05 1.700936e-17 0.0032820601 0.004909031
0.0035910534 0.004876976 0.00019549871 0.004276069 1.7796603e-23 2.0462201e-05 9.78914e-05 1.392625e-05
0.00014665246 1.9178246e-05 7.90103e-17 0.002848337 0.0035638295 0.0028806801 0.0061876625 0.0025528073
0.0034110565 8.55769e-25 7.084065e-05 4.4513814e-05 1.3350634e-05 0.0001234619 0.00011523136 2.6837594e-17
0.0039958265 0.0034758344 0.0007988658 0.0009895269 4.4669217e-05 0.006819031 9.679551e-24 1.0008045e-05
0.00015936531 8.018381e-06 0.000114042596 0.00012992861 2.1734685e-19 0.00021961101 0.0010492059 0.0022058869

exp_avg f4 [50]
00000000: de87 1ca5 e6df 6427 d99b 8226 3510 70a7
00000010: 92e3 4226 e06b 8ca6 b299 cca6 27da 34a6
00000020: 77fc eda5 9af4 e4a5 c131 85a6 54e2 8ca7
00000030: 2dd1 b8a6 1d59 2826 37ff 53a7 a753 05a7
00000040: a547 7ca7 b34e 1ba7 dce1 62a7 ff1a 9325
00000050: 6d83 2d26 18c4 4aa6 ff67 39a5 f150 b6a6
00000060: 8861 d927 2408 9a25 13c4 03a7 a75b 03a5
00000070: b3c1 42a5 ec27 2e24 6d85 81a5 6fd2 5e26
00000080: 21f9 0ca6 4289 daa5 f9e8 a227 a47c 89a6
00000090: 5b1e e3a4 b4f0 5b27 b626 06a5 8d75 47a6
000000a0: 2564 7727 ff58 6d26 8cc6 5526 4d89 0c28
000000b0: 0f9a 8625 1979 6ba7 0ace 2127 22dd 92a6
000000c0: e425 d127 4b5d 7aa7
-1.3576877e-16 3.1762732e-15 9.062805e-16 -3.3315477e-15 6.7615686e-16 -9.743691e-16 -1.4197003e-15 -6.2745697e-16
-4.1284023e-16 -3.9717444e-16 -9.242215e-16 -3.910319e-15 -1.2824262e-15 5.840748e-16 -2.9420485e-15 -1.8502806e-15
-3.5010864e-15 -2.1553234e-15 -3.148624e-15 2.5518728e-16 6.019955e-16 -7.0348585e-16 -1.6081427e-16 -1.2650726e-15
6.0335343e-15 2.6720258e-16 -1.8286194e-15 -1.1393492e-16 -1.6892446e-16 3.776405e-17 -2.2468346e-16 7.7306913e-16
-4.890989e-16 -3.790998e-16 4.521662e-15 -9.540069e-16 -9.849698e-17 3.052284e-15 -1.1635763e-16 -6.9201305e-16
3.4332424e-15 8.2346505e-16 7.41683e-16 7.8013335e-15 2.334969e-16 -3.2678449e-15 2.2454932e-15 -1.0190723e-15
5.8050234e-15 -3.4745044e-15

exp_avg_sq f4 [50]
00000000: 4831 6c17 538d 2c1a c58d 1119 8b16 d119
00000010: d16e a717 da9d 171a 8c54 1719 72c0 6c17
00000020: d66c 4b16 9216 0816 d1f4 6117 9671 0619
00000030: 4584 bb17 879d bb18 eab4 9919 b551 f618
00000040: 31ce bd19 7fb6 a418 cb6d 8519 e54f d215
00000050: 2e9e 0619 d622 4d17 2ba6 cc17 cb76 cc15
00000060: 0e3b 4f18 73a4 3b17 ef3f 0c17 c5ef 4d16
00000070: 0944 1e16 d0bd 9615 3eff be15 fc57 2419
00000080: 303b 6c16 e498 1616 3dc5 0b18 b9da 9117
00000090: f140 2916 deaa 8119 b422 1c16 e008 3619
000000a0: 3e01 7619 b445 c815 dcb6 0417 44fb 6319
000000b0: 67ef 8b15 21ab 8218 9fc4 4018 e5f4 4316
000000c0: 80c0 fd18 6683 201a
7.6317914e-25 3.5682927e-23 7.5249544e-24 2.1619199e-23 1.0820096e-24 3.135358e-23 7.823591e-24 7.6498613e-25
1.6432552e-25 1.0993114e-25 7.3010423e-25 6.950576e-24 1.2117981e-24 4.849743e-24 1.58929e-23 6.3672013e-24
1.9625422e-23 4.257728e-24 1.3796223e-23 8.4944376e-26 6.959582e-24 6.628304e-25 1.3225138e-24 8.2582366e-26
2.6783938e-24 6.0630523e-25 4.5317135e-25 1.6635426e-25 1.2784606e-25 6.088399e-26 7.714309e-26 8.4963696e-24
1.9082604e-25 1.2165147e-25 1.8064909e-24 9.425619e-25 1.3672203e-25 1.34073e-23 1.261253e-25 9.410972e-24
1.2718153e-23 8.088933e-26 4.28823e-25 1.1786368e-23 5.6519363e-26 3.377701e-24 2.4914687e-24 1.582925e-25
6.5593343e-24 3.3193367e-23
