output/cnn/red-2/checkpoints/epoch_22.pt (torch, 66282 bytes, 39 tensors)

conv.0.weight f4 [8, 2, 3, 3]
00000000: ca52 a33f ceff 243f a3b2 a83f 5387 053d
00000010: 80e9 a53d 46cc 313f d3bf 2bbc 689c ef3c
00000020: 64a8 81bc 6206 7abf ca8a bdbf 0ccb c0bf
00000030: 2095 883f afdc 413e 01ce 303f 1441 363e
00000040: 6912 00bf 0b31 bb3e 6c22 d83d 7ef8 6ebd
00000050: a6c3 1cbd 6879 88bf 9f82 9fbf 0b21 303f
00000060: ee73 c63d 9258 2dbf e62e 09c0 bd27 213f
00000070: c1d5 04bf c3ed dfbe 5d54 93bd 1b5a 4cbe
00000080: 25e7 8a3e d17e aa3e f5f9 19bc 3615 023f
00000090: 23a7 09c0 608d 91bf 619d 60be 91b6 423e
000000a0: df91 513f 40e6 333f 2364 133e 65ed b73e
000000b0: 1799 cf3e 64d1 4bbe c36d 34be 1c5e 8bbe
000000c0: 0122 92be 4fd2 ad3f f42e 4a3d 70ab 5c3b
000000d0: 0a86 58bf 0613 df3d b6bb 8dbf 5872 03bf
000000e0: 5caf 19be 3561 a4bf f127 e3bf 51a9 9dbf
000000f0: df44 3bbf 85ed 4dbe 4c44 4fbe be66 40bf
00000100: 8814 a6bd 8b19 903d 1670 f53e 1e34 6d3f
00000110: 6d24 a1be 43e6 88bc e423 db3e 0b2d 17bf
00000120: e914 883f e944 2dbe c00a 8f3a ac7f f6be
00000130: 78d6 28bf 5151 58bf 42ba 39bf cf63 df3e
00000140: 80a1 92bf a158 a1be 1b0e 56bf adba 653f
00000150: 69b4 423e 35da a13e 0646 d2be 2fae 1c3e
00000160: 6c83 af3d 21d9 8abe 948e 10bf 2876 933f
00000170: efa8 fdbf 7e85 61bf 8acf 87bd 41dc 3e3f
00000180: 638a c7be 566a 273d ddc5 94be 5553 36bf
00000190: 2e1c 793e 0e39 3b3f 353d 1a3e 63e5 1bbd
000001a0: d131 e4be ac0d 1dbf fa41 3fbf b43e 1abd
000001b0: 76f1 92be 4885 18bf 11d0 dabe ee8b f53e
000001c0: c271 89bf b6f6 a53d b8ca f0bf e2f2 bebf
000001d0: 69ae 10bf c4d2 0e3e 9430 483f 4d93 8d3e
000001e0: 064f 2abf 209d a53e 4f1d 0bbf dae8 d83d
000001f0: feae 89be 56db bbbe a490 09be 8e37 c03f
00000200: 4e7f 3bbc 344c ae3f 725c 213f 990a 56bd
00000210: e42f 6e3e 5e23 90be 9170 673e 105e ba3d
00000220: 8d53 67bf 26b1 873d f8db 0abf f284 163f
00000230: 41a9 11bf 8521 79bf 7c02 0fbf 3cea 863e
1.275964 0.64452827 1.3179516 0.03259976 0.08101177 0.6945232 -0.010482746 0.029249385
-0.015827365 -0.9766599 -1.480798 -1.5061965 1.0670509 0.1893184 0.69064337 0.17798263
-0.5002809 0.36560854 0.105534405 -0.05834245 -0.038272522 -1.066205 -1.2461737 0.6880042
0.096900806 -0.6771327 -2.1434875 0.6295126 -0.5188866 -0.43736085 -0.071938254 -0.19956248
0.27129474 0.33299878 -0.009397973 0.50813615 -2.1508262 -1.1371269 -0.21935035 0.19014956
0.81863207 0.7027321 0.14393668 0.35923305 0.40546486 -0.19904095 -0.17619996 -0.27220237
-0.28541568 1.3579806 0.049361184 0.003367152 -0.8457953 0.108923 -1.107291 -0.5134635
-0.150083 -1.2842165 -1.7746564 -1.2317296 -0.73151964 -0.20110138 -0.20240897 -0.7515677
-0.08109385 0.07036122 0.47937077 0.9265765 -0.31473103 -0.01671136 0.4280082 -0.59053105
1.0631381 -0.16920818 0.0010913238 -0.4814428 -0.65952253 -0.8449908 -0.7254983 0.43630835
-1.1455536 -0.3151293 -0.83615273 0.8973797 0.19014134 0.3161179 -0.4106905 0.15300821
0.085699886 -0.2711878 -0.56467557 1.1520433 -1.981718 -0.8809432 -0.06631382 0.7455483
-0.38972768 0.040872894 -0.29057208 -0.71220905 0.24327156 0.73133934 0.15062411 -0.038060557
-0.44569257 -0.61348987 -0.7471005 -0.037657455 -0.28699845 -0.5957837 -0.42736867 0.4795832
-1.0737841 0.08103697 -1.8811865 -1.4917872 -0.5651613 0.13947588 0.78199124 0.27651444
-0.6652683 0.3234644 -0.54341596 0.10591288 -0.2689132 -0.36690778 -0.13434082 1.5016954
-0.011443926 1.3617005 0.63031685 -0.0522562 0.23260456 -0.28151983 0.22601534 0.09099972
-0.90361863 0.06625585 -0.54241896 0.5879661 -0.56898886 -0.9731677 -0.55863166 0.26350582

conv.0.bias f4 [8]
00000000: 2c58 2abf e70f 783e 3b61 913f 25d6 83be
00000010: 52f8 43bd e383 973f dbc2 4d3f 7fb4 523f
-0.6654079 0.24224816 1.1357797 -0.25749317 -0.04784424 1.1837124 0.8037545 0.82306665

conv.4.weight f4 [16, 8, 3, 3]
00000000: e550 32bc f281 373e 90f1 d1bf 1aa7 02bf
00000010: 93a5 243c d6fe 34bf d2f9 49be 19d7 ad3e
00000020: 060b 81bf c449 a63e 4abb 393f 2f40 efbe
00000030: 288a 853e 7b58 a3be df6d 3b3f 0d97 073e
00000040: 623a f0be f02c 13be 65d7 5abf 26b6 9e3e
00000050: a0cd 8ebe 80e5 59bd 3acd 193e f442 b13e
00000060: eb8d d9bf faf4 2ebf 535e 273f 372e a9bf
00000070: c7f5 343e 639c c73e 41c2 8cbe 535a 7abf
00000080: 3fdd 1c3f a07f 8abb 5402 c6bd fdd7 943e
00000090: 7d71 66be fa86 533f 7f14 81bf 53a5 cd3f
000000a0: a249 683f 8da9 bd3f 2582 0d3e b24f 99be
000000b0: efc0 113f 4bc4 1cbf 5005 25be 6753 453f
000000c0: 3b2e 253e 19d7 5d3d 0c14 9f3f 1d99 c6be
000000d0: 17c4 3e3f b47d 103e 237b 823e f196 da3f
000000e0: a244 58bf 8445 3c3f 7ebe 8d3f 3d81 bc3f
000000f0: 7f5e 1dbf 91e4 9dbe be3b 9c3d f4ec 1fbd
00000100: 3c5f 82be c9af 93bf eb4d b53e 5539 a63e
00000110: b85e 003f 96b2 88bf abfd 073f 8f68 f9bd
00000120: 88d5 65be b88a 253f 505e 783f 707c 863e
00000130: f598 6d3f 1cd6 ca3d 7003 7a3f 6358 c7be
00000140: 7947 24bf a2ac 8ebd 46b2 05bf d843 1dbf
00000150: a94b 72bf 4c82 aa3d f3d8 ecbf facd acbe
00000160: 2069 a83e 4f53 c13f 3f2d a73f 5ed1 55be
00000170: 880f 983f e2db 683e a5b7 9abe 3b31 bd3e
00000180: 1d0e cfbd 0e4c 80bf d4aa 79bf c9d4 bdbe
00000190: 59fc 92bf e6be 8d3f ce5c 99be fdf1 ce3d
000001a0: 8bab 173f 22e8 01bf c2f9 77bf 0834 0cbf
000001b0: 3eb4 1dbf 5d38 0dbe 3c34 6c3f 7558 a4bd
000001c0: 90dd b7be 1a28 debe 7784 123d c26d b53e
000001d0: 3d11 5a3f 79c5 973e 08e0 aebf a9c2 e7be
000001e0: fc32 503c 23b7 54bf 6b1b eebe b41c 83be
000001f0: e5b2 f13c 8c79 943f a814 83bf 7fca 27bf
00000200: 49f0 1e3f 2bf3 4abf bee1 ac3e 22dd 8fbf
00000210: 2ec8 873d c888 dbbe 49db 793f a7a4 7e3e
00000220: f2d3 95be 5cb7 b03e e89e 22bf d29c f23d
00000230: 95dc f43e 9c37 9fbe b967 813c 7a8e abbf
00000240: d6eb 34bf bccc f93e eb76 9e3f 8e36 353e
00000250: 4cec a03e 9b39 17bf 0b83 393f 0e80 ce3e
00000260: cf8d 01bf 00ef d3bf c3c0 c03e af70 08bf
00000270: 2aa7 37bf dabf 583f 8a43 233e a087 c63e
00000280: 9191 80bf 6915 5ebf a230 64bf e5a9 35be
00000290: dcd4 a33f bd74 a73f 7dcf 323e b6c4 543f
000002a0: d45f 87be fa4b 06be aebd 0e3d 88cc 6dbf
000002b0: e715 713e 436f 85be 65a5 b43d 3cbb 3140
000002c0: dc74 c7be e317 e4be e059 a53e f6fe eabe
000002d0: 31b2 26bf 3b5e bc3e 40a9 433f 8794 1dbe
000002e0: ef4d 2dbf 1068 d33e 169c 70bf bd86 933e
000002f0: 1c21 b33e 9ac2 eebd d185 cd3f f6d1 1e3e
00000300: f72f ff3e c5be 483f 292d 87be be65 a4be
00000310: 9bec 053f e263 1ebe 1c5f cdbf 7e35 85bf
00000320: c291 35bf e747 2f3c 1838 7c3e 2b87 15be
00000330: d9cb 76be ae67 27bf c447 1a3f 0947 a93f
00000340: 6d4f c3bf fa42 813e c0c8 973f 4ce2 5b3f
00000350: 9be9 693e 7338 89bd 6978 903e 05a4 f13c
00000360: aed1 d43e 5d94 acbe c6dc 5bbf 711c 0a3f
00000370: 86ca 8d3e 8c48 a2be 25b4 6d3e 891b 0a3f
00000380: 7422 81bf abe1 d9bd 2bd8 143f a2b4 c63c
00000390: 52a3 713e 2e9f 4ebe 64ee 97bf 8a9a 3ebf
000003a0: 65a4 67bf 36d2 a63e d09b 9f3e 9b6f dc3c
000003b0: 2817 e13d 16fe dd3e 333d a43d 81dd 583e
000003c0: 875a dd3e 0b06 d4bc 3db5 d1bc 3212 97be
000003d0: 5ceb b6bf ebde 263f e55c 35bf 7076 bdbf
000003e0: 6b15 a33f e5f4 893d a2f9 c8bf 4366 3ebe
000003f0: 046a 43bf 43f1 9a3e 2177 23bf 5c4d 55be
-0.010883545 0.17920664 -1.6401844 -0.51036227 0.010049242 -0.7070135 -0.19724205 0.3395317
-1.0081489 0.32478154 0.72551405 -0.46728656 0.26081967 -0.31903443 0.73214525 0.13241215
-0.46919543 -0.14372611 -0.85484916 0.30998343 -0.27891254 -0.053197384 0.15019694 0.34621394
-1.6996435 -0.68342555 0.653783 -1.3217229 0.17671882 0.389865 -0.27491954 -0.97794074
0.61275095 -0.00422664 -0.09668413 0.29071036 -0.2250423 0.8262783 -1.008438 1.6066078
0.90737355 1.4817368 0.13819177 -0.29943615 0.5693502 -0.6123702 -0.16115308 0.77080387
0.16130917 0.05416021 1.2427993 -0.3878869 0.7451796 0.14110452 0.2548457 1.7077314
-0.84479725 0.7354357 1.1073759 1.472694 -0.61472315 -0.30838445 0.076285824 -0.039044335
-0.25463283 -1.153802 0.3541101 0.32465616 0.5014453 -1.06795 0.5312144 -0.12178146
-0.22444737 0.64664793 0.9701891 0.26266813 0.9281152 0.09904119 0.97661495 -0.3893462
-0.6417156 -0.06966521 -0.5222515 -0.61431646 -0.946467 0.083256334 -1.8503708 -0.33750898
0.32892704 1.5103549 1.3060683 -0.20880648 1.187974 0.22740129 -0.30218235 0.36951622
-0.10110114 -1.002321 -0.9752629 -0.37076405 -1.148326 1.1073883 -0.29953617 0.10104749
0.5924613 -0.5074483 -0.96865475 -0.54766893 -0.6160315 -0.13791032 0.92267203 -0.08024684
-0.35911226 -0.4338997 0.03577086 0.354353 0.85182554 0.29642847 -1.3662119 -0.452657
0.012707468 -0.83091944 -0.46505293 -0.25607836 0.029504249 1.1599593 -1.0240679 -0.6554336
0.62085396 -0.79277295 0.33765978 -1.1239359 0.06629978 -0.42877793 0.9760023 0.24867497
-0.29263264 0.34514892 -0.6352372 0.11846317 0.4782454 -0.31097114 0.01579653 -1.3402855
-0.7067236 0.48789012 1.2380041 0.17696592 0.3143028 -0.59072274 0.7246558 0.40332073
-0.5060701 -1.6557312 0.37647066 -0.5329694 -0.7173945 0.8466774 0.15943733 0.3877535
-1.0044423 -0.8675142 -0.8913671 -0.17740591 1.2799335 1.3082501 0.17461963 0.8311266
-0.264403 -0.1311492 0.03484886 -0.92890215 0.23543511 -0.26061448 0.08820609 2.7770529
-0.38956344 -0.44549474 0.32295132 -0.45897645 -0.6511565 0.36790642 0.7643013 -0.1538869
-0.6769704 0.4129033 -0.9398817 0.28813735 0.34986198 -0.11658211 1.6056463 0.15509781
0.49841282 0.7841609 -0.26401642 -0.32108873 0.52314156 -0.1546779 -1.604465 -1.040695
-0.70925534 0.010698295 0.24630773 -0.14602344 -0.24101199 -0.6539258 0.60265756 1.3224803
-1.5258614 0.25246412 1.1858139 0.85892177 0.2284302 -0.0670022 0.28216866 0.029497156
0.41566223 -0.33706942 -0.8588375 0.5394965 0.27693576 -0.31695974 0.23213251 0.53948265
-1.0088639 -0.10638746 0.58142346 0.024256054 0.23597458 -0.2017791 -1.1869626 -0.7445456
-0.9048522 0.32582253 0.31173563 0.026908686 0.10990745 0.43357915 0.08019485 0.21178247
0.4323313 -0.025881788 -0.025599116 -0.2950607 -1.4290576 0.65183896 -0.7084487 -1.4801769
1.2740911 0.06736163 -1.5701182 -0.18593697 -0.7633364 0.30262193 -0.6385365 -0.20830292

conv.4.bias f4 [16]
00000000: ff55 f0bf cb37 5dbf 494f 2dbf 5b99 a8be
00000010: 4644 733d 24a8 e53f 4e3c 553f b3c8 a5be
00000020: 5d01 6e3d 291f 6fbf f51d 8ebe 0c4b 803e
00000030: b47e 53bf b026 0dbf c6f0 5ebe 46f9 b5be
-1.8776244 -0.8641326 -0.67699105 -0.329295 0.059391282 1.7941937 0.8329514 -0.32379684
0.05810677 -0.9340692 -0.2775723 0.25057256 -0.8261521 -0.5513716 -0.21771535 -0.35541743

fc.0.weight f4 [32, 64]
00000000: 5ae1 9f3c 111d 2c3e 7bc6 643d d950 903f
00000010: af81 593e e5ec f03f 8d6e eebe bad0 de3e
00000020: 6c0d a03f 0473 e6bf 6e18 973e efa2 993e
00000030: d85e 6e3f 9403 0e3f d556 ffbe 13f8 2a3f
00000040: 3c86 67be cb19 5e3f 5b2d 463e a443 783f
00000050: dbca b53f 8f1d 8e3f 415f e4be cc04 d6be
00000060: a2a3 3b3e 1f9b 0440 1c13 73bf 66b6 ed3d
00000070: f89a f23f a2e7 8c3f 5201 cbbe 02df 4cbf
00000080: 9f60 69bf 5ae6 95bf bae4 b13d bc41 583f
00000090: fc69 b93f ecdc 453f b908 a1be 96d9 343e
000000a0: 6f2c a93d aaef cdbf 794e 30be 9e77 793f
000000b0: 3002 a2bf b472 9abf edff a43e 3631 d03e
000000c0: a0da b1be 8b77 253f 0a10 2c40 fbcc 12bd
000000d0: 4d90 4bbf 068e 1ebe 250f 8e3f c978 fb3f
000000e0: fed2 583e bcc4 9abd ce46 353e f3b1 c13f
000000f0: 52d1 bbbf 5fdb 1dbf b5dd 843e 1bbd f43e
00000100: dfaa 0dbd 9a41 aebd f60a bcbd 693b f4bd
00000110: 6053 91bd 6006 ea3b ac6d 2c3d ca7f 29be
00000120: 920b a7bd 2d18 0ebe a14a a7bd 1b3a 06be
00000130: eb79 19be d6cb 00ba a3ee efbd fc76 56bd
00000140: 1f60 343d 2ca9 a8bc d0c4 e23c a49a 2ebe
00000150: 5bb4 c9bd 619d 93bc 18e0 56bd 020a f3bd
00000160: f97d ccbc e287 4fbd d80c 97bd f39c f3bc
00000170: 0609 ceba 85b0 4dbd 76f9 96bd 81a3 18be
00000180: 75a0 ebbd 922d 1fbe 6cdf 22be 3e3e 4a3d
00000190: c58b e0bd b863 253d 7c55 1dbd 08aa 6b3d
000001a0: 806d d73d f7ac a1bb 94b0 d0bd 0b65 35be
000001b0: 9cc7 8dbd 9ad1 38be e648 06be f818 99bd
000001c0: 63e1 2bbe 3841 b8bd 0b86 173d a358 1c3c
000001d0: b3bc 8abd d118 27bd 0d46 f8bd 46ef c5bc
000001e0: 4c2b 4dbd 7480 50bd 6b0f d4bc df5e 2dbd
000001f0: dd0e b7bd 784b e6bd 46f2 433c d2cb 09be
00000200: b8e4 2ebc 68a8 363a 2fa0 893d 23c0 d9bd
00000210: 561a eebd 9ab3 cebd 3c4e 793d 83d4 bfbc
00000220: 4890 563d a7b6 2e3d c4f9 35be acf0 32be
00000230: 4bb0 f9bd 80de 2dbd c768 16bd db9d 84bc
00000240: d19c efbd 9f6b 9cbd bf1a 87bd 8747 0abe
00000250: b580 10be 73d2 15be c3c8 443d 174c 593d
00000260: 0db2 25be bab6 37bd 0d8d 03be 5983 1fbe
00000270: 6bf8 8bbd 44ba 06be ec55 28be ec63 81bd
00000280: 8a02 a0bd 90ef 05bd 2048 403d 2593 33be
00000290: 3fc6 27be 1960 3c3d 96f8 ea3d ecea 0dbc
000002a0: 89f6 14be e420 32be d40b edbc 6035 a6bd
000002b0: 0caf 4cbd 4c37 4a3d 5863 cabd 3833 01be
000002c0: aee2 00bd cb6d 173d bbcc 663d c885 22be
000002d0: 26d9 fbbd 94b0 36be 678c 04be 7a47 51bb
000002e0: e6e2 b0bd ac38 2cbd cc41 01be 8d9c 65bd
000002f0: accb f7bd c424 c9ba 9205 81bd 04ed 693d
00000300: 9ab0 69bd db53 4f3d 0d22 bbbd 9c01 833d
00000310: f17b bfbd b73d 96bd a7ad d5bc 0d97 43bc
00000320: 3c9f d6bd 8c73 273c 4419 1a3e af51 213d
00000330: 252a 26be f8c3 d1bc c8b9 033c 1fb2 1abe
00000340: 0f44 a53b dbdb 18be 03d5 e6bd 2031 9dbd
00000350: 954a 1fbe 2ab0 d13c 6624 823d d00c c4bd
00000360: fb37 b3bc 93a1 22be 4a7a d4bd a45c 02be
00000370: 31d5 2ebc fa2e fdbc 35d6 49bd 24f0 4ebd
00000380: 3be4 133d 36bf acbc 5512 66bd 1ffd 05be
00000390: e976 d8bc e3fd 20be 4aab 6a3d d4a3 803d
000003a0: 4e84 d0bb 6aac 48bd c540 633c c00a 7e3d
000003b0: 8aec e4bd 31da 1ebe b1e5 05be 53f5 0bbe
000003c0: 588f 1bbe 9774 87bd c722 c93b 2d9d 14be
000003d0: a5b7 08be 09f6 19bb 8a3b 71bc 41c4 223d
000003e0: 4169 efbd 7b31 e1bc a719 6bbd 1682 5c3d
000003f0: 197f a7bd ce1c d6bd 51b8 e33d ecf2 ccbd
0.019516636 0.16807963 0.05585335 1.1274673 0.21240877 1.8822294 -0.4656872 0.4351862
1.2504096 -1.800385 0.29510826 0.3000712 0.9311347 0.5547421 -0.49870935 0.6678478
-0.226098 0.86758107 0.19353239 0.9697821 1.4202532 1.110277 -0.44603923 -0.41800535
0.1832414 2.0719678 -0.94951034 0.11607055 1.8953543 1.1008189 -0.39649445 -0.8002778
-0.9116306 -1.1710923 0.08686204 0.844753 1.4485469 0.77290225 -0.31451967 0.17661127
0.08260428 -1.6088765 -0.17217435 0.97448146 -1.2656918 -1.2066255 0.32226506 0.40662545
-0.3473711 0.64635533 2.688479 -0.035840016 -0.7951706 -0.15483865 1.1098372 1.9646236
0.21174237 -0.07557055 0.17702791 1.5132431 -1.4673254 -0.6166286 0.259504 0.47800526
-0.034586783 -0.08508606 -0.09181778 -0.11925394 -0.07095981 0.0071418732 0.04209678 -0.16552654
-0.08156504 -0.1387641 -0.08168531 -0.13108103 -0.14987914 -0.00049131864 -0.11715438 -0.052359566
0.04403698 -0.02058848 0.027681738 -0.17051178 -0.09848853 -0.01801938 -0.052459806 -0.11867143
-0.024962412 -0.050666697 -0.073754966 -0.029737925 -0.0015719242 -0.05021717 -0.073718 -0.14906122
-0.11505214 -0.15544727 -0.15905541 0.049375765 -0.10964159 0.040378302 -0.038411602 0.0575352
0.10518932 -0.004933949 -0.101899296 -0.17714326 -0.06922838 -0.18048707 -0.13113746 -0.074754655
-0.16785197 -0.089968145 0.036993068 0.009542617 -0.06774273 -0.04079515 -0.12122736 -0.024161946
-0.05009012 -0.050903752 -0.025886258 -0.042326804 -0.08938382 -0.11244863 0.011959618 -0.13456658
-0.010674648 0.00069678435 0.06720006 -0.1063235 -0.11626117 -0.1009285 0.060865626 -0.023416763
0.05238369 0.04265466 -0.1777106 -0.17474622 -0.12191828 -0.04244852 -0.036721017 -0.016188553
-0.11699832 -0.076377146 -0.06596898 -0.13503848 -0.14111598 -0.14631061 0.048043024 0.05305108
-0.16181202 -0.044851996 -0.12846775 -0.15577449 -0.06834491 -0.13156992 -0.16439027 -0.06317887
-0.07812984 -0.032699168 0.046943784 -0.175366 -0.16384219 0.045990083 0.11473195 -0.008661967
-0.1454717 -0.1739536 -0.028936304 -0.08115649 -0.049971625 0.04936914 -0.098822296 -0.12617195
-0.03146618 0.03696994 0.05634759 -0.15871346 -0.12297277 -0.17840797 -0.12944184 -0.0031933472
-0.086370274 -0.042046234 -0.12622756 -0.0560575 -0.12099394 -0.001534604 -0.062998906 0.0571108
-0.057053186 0.05061708 -0.09137354 0.06396791 -0.09349812 -0.0733599 -0.02608378 -0.011937869
-0.1047959 0.01022042 0.150487 0.03938454 -0.16227014 -0.02560614 0.008039899 -0.1510701
0.0050435136 -0.14927618 -0.112710975 -0.076753855 -0.15555795 0.025596697 0.06354599 -0.09572756
-0.02187728 -0.15881948 -0.10374887 -0.12730652 -0.010670946 -0.03090619 -0.04927655 -0.050521985
0.03610633 -0.02108727 -0.056169827 -0.1308484 -0.026423888 -0.1572185 0.05729226 0.06281248
-0.006363428 -0.048992552 0.013870423 0.06202197 -0.11177929 -0.15512921 -0.13075902 -0.13667803
-0.151914 -0.066140346 0.006138179 -0.14513083 -0.13351305 -0.0023492596 -0.014723668 0.039737944
-0.116899975 -0.027489414 -0.05739751 0.053834997 -0.08178539 -0.10454713 0.1111914 -0.10007271

fc.0.bias f4 [32]
00000000: 8c08 913e a18e 9dbd 94f3 93bd 221e 23be
00000010: 0bf1 37be 2fb8 8e3e 82bd 07be dff1 173e
00000020: 6b1b ec3c 7808 063f 5ced 253c ed4c b33e
00000030: ec8e eabd 0f3c debc e55e ddbd 5430 29be
00000040: fad4 193d 2cb0 933e 16f1 eebd 5269 d43e
00000050: 88ec 83be d1b1 013b de12 2ebe 81ec 9cbd
00000060: 7336 e6bd b66f debd 24a4 fdbd 9031 c2bd
00000070: 7517 dbbd 8de8 633d a183 b73e 958b 973e
0.28326833 -0.0769322 -0.07224193 -0.15929464 -0.17963044 0.27874896 -0.13255885 0.1483836
0.028821668 0.5235667 0.010127392 0.35019627 -0.114530414 -0.027128248 -0.10809115 -0.16522342
0.037556626 0.28845346 -0.11667077 0.41486603 -0.25766397 0.0019789825 -0.16999385 -0.07662297
-0.11240854 -0.10861151 -0.12384823 -0.094821095 -0.106978334 0.0556417 0.35842612 0.2959868

fc.2.weight f4 [16, 32]
00000000: 17b4 64bf 085f 5d3d f7ce f3bd adc0 9a3c
00000010: b173 ecbc fad8 4f3f a48b 1f3e 7843 16bf
00000020: 6e6f c33d 3e0d 783f 64f5 3d3e c631 843f
00000030: 0015 3ebb 01df 003e 087d f23d 1b46 413e
00000040: 02a0 c73d 3654 53bf 9ca5 203e b9f8 743f
00000050: 6907 3c3e 6baf 0d3d 45e1 38be 2c8b d6bd
00000060: b9ca 57bc 9802 f0bd 416f eb3d 5137 26be
00000070: b7e3 4fbd f3ed 86bd 843b 9a3f b703 55bf
00000080: 74a0 59bd b77a c2bd 6a4a 42bd a2d7 8e3d
00000090: bf93 a53c 8df9 4fbd bb57 283e 65fd c4bd
000000a0: 0f31 10be ad04 813c 8737 1c3d c9c6 e8bc
000000b0: 6093 06be d1b0 043d 80b7 e03b 0788 0f3c
000000c0: 9b85 6e3c a3f2 98bd 49c7 d4bd bf57 30be
000000d0: 086a 163e f820 9dbc 6d5c c3bd 5b10 1abe
000000e0: fae8 973d f8e6 fc3c 716c b8bd 7f65 113d
000000f0: 8a48 c5bc 4899 3b3d d9af f8bd 679c 5ebe
00000100: e069 8cbd 0c32 c6bd 4e80 273e 290f bb3d
00000110: c4a9 d7bd f9b2 873d 008d 4f3a 9b91 c5bd
00000120: 6dd8 b5bd 26b4 d2bd f7d5 b9bc 68a6 1c3d
00000130: 36b4 113d 1502 1dbe 3c94 26bd ff4e 983d
00000140: 6dbe d03d 8d4d cbbd f800 54bd 6e69 d3bc
00000150: 44c9 54bc a3e2 03be 007b ceba ada8 ccbd
00000160: 254c 9cbd a0ea cf3c 4faf 4fbd 4815 09be
00000170: 8712 35be 6a24 0ebe 1774 13be 3edb b1bd
00000180: 84e9 59be 5832 243e c55c dbbd 1d64 51bd
00000190: 4ce2 163c 89f4 8fbc f060 02be a3e7 6fbe
000001a0: d208 a73d 538f 51bd 26a1 8d3d b634 a6bd
000001b0: c8bc dabd 2ba2 d63c 818c 143e 0f64 fdbd
000001c0: 795f 6d3d c191 fd3c 1af0 03be ca18 94bd
000001d0: f479 b23c 26ff 813d 210a 1f3e b28f ceba
000001e0: 6e10 403b 808e a9bb b4cd eb3c 4d03 83bc
000001f0: e257 9b3d ec3b 18be 5f85 5a3c 68a4 53be
00000200: ebc8 44be 64eb 643d 70d6 023c 1b6b 333e
00000210: e8a2 81bd 5df7 99bd 3274 12be 4713 c63d
00000220: 4007 c1bd cb96 36be c7fe 21be dbf6 2a3d
00000230: c6f2 843d 920b b0bc b80d 5d3e 30cc b5bc
00000240: e006 12bd 5c6f 5fbe 96d9 8b3d 3c12 efbd
00000250: ce6d a5bd ee51 ff3d cf36 07be 0c36 423d
00000260: 34e7 45bd c227 fa3d d8af a03c d0fb 6d3c
00000270: e863 de3c 00c5 7cbc 77c5 ffbb f950 32be
00000280: 32ae dc3f 3105 223e a5d1 963d 30b7 f73c
00000290: 6c95 063e 7364 a73f c9f5 3cbd 7c66 d43f
000002a0: 26de 913c cfc3 ec3e 3f04 103e 7ece eb3e
000002b0: 3a74 17bd 7a74 18bd db26 2d3d 82bc b73f
000002c0: bea3 073e 3eb5 e83f 7f53 fbbc 1ef8 b63e
000002d0: 0b6a 73bd d243 613d e6f6 b73d 7bb4 c7bd
000002e0: 0e5a 2cbe 5781 52bc ecb4 743d caaa 13bd
000002f0: 571f 0fbe 24ae dabd a72c 0b3f e693 ce3f
00000300: 2d99 66bf a9dc d73d 1467 dc3c e2be 09bd
00000310: 59cd 6bbd 56c9 143f 03f0 143c 0477 15bf
00000320: 3d8f 843d f6ac 7d3f 002f 0fbe ed63 5f3f
00000330: e059 563d 6ec6 8ebd a523 cb3d f216 303e
00000340: dab7 513d 9f86 7fbf 4e49 e83c 3cf3 8d3f
00000350: e6bd 283e c572 b9bd 7cc3 12bd bb9e 04be
00000360: b545 b93d 87b1 21be 14fd d0bd ec58 b53d
00000370: 61a5 7bbd 7575 20be fb4b 6c3f 71ed 6bbf
00000380: 4231 ac3f 6c47 c7bd 0028 273b 2d4d 0cbd
00000390: 245d 47bd 43e6 443f e198 293e 387d af3f
000003a0: 5872 8f3c 2dae 8fbd 605e 173e 8ecb 113e
000003b0: a9a0 edbd e054 e0bd 69b8 563e a57b 813f
000003c0: bba1 4dbe 50d3 ac3f ec79 4bbe c4c3 55be
000003d0: 7f88 39be 2f70 883e 4a87 e53d 1038 31bd
000003e0: fae0 d43c 4e70 113e cd2b 2ebe 5f88 7f3d
000003f0: 5119 703d ef42 f7bc 69ec 9c3e 1dfe a03f
-0.89337295 0.054045707 -0.1190471 0.018890703 -0.02886376 0.81190455 0.15580612 -0.586967
0.09542738 0.96895206 0.1855064 1.032769 -0.0029004216 0.12585069 0.11840254 0.188744
0.09747316 -0.8255037 0.15688175 0.9569202 0.18362202 0.03459112 -0.18054684 -0.10475764
-0.013170891 -0.11719245 0.114958294 -0.16232039 -0.050754275 -0.06588354 1.2049413 -0.83208793
-0.053131536 -0.09496062 -0.047434248 0.069747224 0.020212052 -0.0507751 0.16439717 -0.09618644
-0.14081214 0.0157493 0.038138893 -0.0284151 -0.13142157 0.032395188 0.0068578124 0.008760459
0.014558221 -0.07468154 -0.10389573 -0.17220972 0.14688885 -0.01918076 -0.09539113 -0.15045302
0.07417484 0.030871853 -0.090050586 0.035497185 -0.02408244 0.045800477 -0.12142915 -0.2173935
-0.068561316 -0.096775144 0.16357538 0.09133751 -0.10530427 0.06625933 0.0007917434 -0.09646913
-0.088791706 -0.10288267 -0.022685034 0.038244635 0.035572253 -0.15332825 -0.04066871 0.07436942
0.10192571 -0.09926901 -0.051758736 -0.025807109 -0.012987439 -0.12879424 -0.001575321 -0.0999311
-0.07631711 0.025380433 -0.050704297 -0.13387024 -0.17682849 -0.13881078 -0.14399754 -0.08684395
-0.21280485 0.1603483 -0.10711054 -0.051120866 0.009209227 -0.017572658 -0.12732291 -0.23428206
0.08155979 -0.051162075 0.06915502 -0.081155226 -0.106805384 0.026200375 0.14506723 -0.123726
0.057952378 0.03095329 -0.1288456 -0.07231291 0.021786667 0.06347494 0.15531208 -0.0015759377
0.0029306668 -0.005174458 0.02878461 -0.015992785 0.07585122 -0.14866608 0.013337462 -0.20668185
-0.19217269 0.05588855 0.007985696 0.17521326 -0.063299 -0.07517884 -0.14302137 0.096716456
-0.09425211 -0.1783096 -0.15819846 0.041739326 0.06491618 -0.021489892 0.21587265 -0.02219209
-0.035651088 -0.21819824 0.068286106 -0.116734 -0.08077584 0.12466799 -0.13204502 0.047414824
-0.048316196 0.122146145 0.019615099 0.014525369 0.027147248 -0.015427828 -0.007805522 -0.17413701
1.724066 0.15822293 0.07364205 0.030238718 0.13142937 1.307753 -0.046132836 1.6593776
0.017806124 0.4624314 0.1406412 0.4605598 -0.036976077 -0.037220456 0.042273384 1.4354403
0.13246056 1.8180311 -0.030679462 0.35736173 -0.059427302 0.05499632 0.08982639 -0.09751221
-0.16831228 -0.01284822 0.059742853 -0.03605155 -0.13976799 -0.10677746 0.5436501 1.6138885
-0.9007748 0.105401345 0.02690462 -0.033629306 -0.05756888 0.58119714 0.009090426 -0.5838473
0.06472633 0.9909204 -0.13982773 0.8726185 0.052331805 -0.06971441 0.09918908 0.17196253
0.051200725 -0.9981479 0.028355267 1.1089854 0.1647869 -0.09055094 -0.03583096 -0.12951176
0.09046499 -0.15790378 -0.10204521 0.08854851 -0.061437014 -0.15669806 0.92303437 -0.9215918
1.3452532 -0.097304195 0.002550602 -0.034253288 -0.04867281 0.7691385 0.16562225 1.3710089
0.017510578 -0.07015643 0.14782095 0.14237806 -0.11602909 -0.109536886 0.20968784 1.0115858
-0.20081227 1.3501987 -0.19870728 -0.2087546 -0.18118475 0.2664809 0.11207445 -0.043266356
0.025986183 0.14202997 -0.17008896 0.062385913 0.058617894 -0.030183284 0.30649117 1.2577549

fc.2.bias f4 [16]
00000000: 022f 183f f45a 77be e770 f2bd 4bdb 8fbb
00000010: 3562 ccbc ff65 223f b686 1d3e 9f84 073f
00000020: 80d5 3f3d 1575 1c3f 615a 323d 1f51 b63e
00000030: 892a cdbc a1ea ad3e 1a53 d1bc 3382 70be
0.5944673 -0.2415579 -0.11837941 -0.0043901554 -0.024949173 0.63436884 0.1538342 0.5293674
0.04683447 0.61116153 0.043543223 0.35608765 -0.025044696 0.3396807 -0.025552321 -0.23487167

fc.4.weight f4 [8, 16]
00000000: 5863 0bbd 00fc 033a c64f 583e 1049 cbbd
00000010: 98f6 0d3e a010 1f3c 8622 3c3e a845 f3bd
00000020: 281e dcbd e087 bdbd 4e47 123e 3281 68be
00000030: e4d0 cb3d c046 dbbc a0d3 49bd a851 45bd
00000040: 673a 0ebe f618 a43d ecfc 31bc 5978 6e3d
00000050: 4693 12be 1b36 84be bf26 38be 8a37 a6be
00000060: 02f1 24bd 3dae a4be be1a d73c 999b 21bd
00000070: 05de 273e fccd 9c3e cf44 90bc 9f36 363d
00000080: da6a dbbc 8c82 adbd 6432 943d 2cd2 85be
00000090: 0392 ec3d 8c38 913f 3103 e6be 9a13 8a3f
000000a0: 2ee8 a3bd 6fb0 f3be 193c c1bb a986 82be
000000b0: 00f1 043e a9c8 9e3f 9009 f4bd eb95 f0bd
000000c0: b56d 633f 97ec 793c bd03 5abe f39c 0ebe
000000d0: 94e2 78be 3d22 953f 0125 953f d384 5d3f
000000e0: 23d5 a5be f30d 3f3f f616 07bc 0f56 853f
000000f0: 13d3 3a3d ede0 5f3f 0925 103d 523d 3abe
00000100: 8488 843d fa72 4cbc 7712 e73d ff11 9ebe
00000110: cc85 0ebe c987 03be 380c 003d 0877 833d
00000120: a549 9abe 11b8 9cbe 09fc b0bd fad7 34be
00000130: 1c19 b7bd 3472 873c 1e39 403e c88c a63d
00000140: 69c8 593d 9053 6d3d 7ce1 0f3e 4487 e03d
00000150: 386c 4c3e 499c 88be fc53 19be c029 f4bb
00000160: 0817 1fbe ead7 d13d f04a 7c3e 1fc6 0bbe
00000170: 8004 7bbe 2c5e 73be b475 82bd 44a6 a73d
00000180: 3c09 66be fc26 1bbe 5557 e4bd e59f 873e
00000190: 4b3c 25be 3420 143d c1aa 953d 57e5 6e3d
000001a0: 19a5 833e 6ada ffbd 38c0 333d ee34 d93d
000001b0: b78b 343e b34e 53be aad4 8dbd 8aee 053e
000001c0: 3722 a03f 1db0 a23d a916 383c 930b 15be
000001d0: bda9 25bd cd44 8c3e 2c15 a23f df8d c53d
000001e0: 8d90 26be fabf c63f 4972 55be 2aa4 a73f
000001f0: 4aa2 febd 58d1 1cbf 259d 7d3e e3fe 0d3b
-0.03403029 0.00050348043 0.21124181 -0.09926045 0.138636 0.009708554 0.18372545 -0.1187852
-0.10747939 -0.09254432 0.14285013 -0.22705534 0.09951952 -0.026767135 -0.049274087 -0.048173577
-0.13889466 0.080125734 -0.010863524 0.05822024 -0.14313993 -0.2582253 -0.1798353 -0.32464248
-0.040268905 -0.32164183 0.026257869 -0.03945503 0.16393287 0.30625904 -0.017610935 0.044485684
-0.02678435 -0.084721655 0.07236174 -0.2613691 0.11551287 1.1345382 -0.4492431 1.0787232
-0.08003269 -0.47595546 -0.005897057 -0.25493363 0.12982559 1.2404987 -0.119158864 -0.117473446
0.88839275 0.015254161 -0.21290489 -0.13927059 -0.24305183 1.1651074 1.1651918 0.865308
-0.32389173 0.7463066 -0.00824522 1.0416888 0.045611452 0.87452585 0.03519157 -0.18187454
0.06471351 -0.012478584 0.11282819 -0.30873105 -0.13918227 -0.12844767 0.031261653 0.06419188
-0.3013431 -0.30609182 -0.08641822 -0.17660514 -0.08940336 0.016533948 0.18771788 0.08132321
0.05316964 0.05794102 0.14050859 0.109633 0.19963157 -0.26681736 -0.14973444 -0.007451266
-0.1553613 0.102462605 0.24637961 -0.13649796 -0.24513435 -0.23766392 -0.06370106 0.081860095
-0.2246446 -0.1515159 -0.1114947 0.26489177 -0.16136281 0.036163524 0.07307959 0.058324184
0.25711897 -0.12492831 0.043884486 0.10605799 0.17631422 -0.2063549 -0.06925328 0.13079277
1.2510442 0.07943747 0.011235871 -0.14555196 -0.04044508 0.2739624 1.2662711 0.096462004
-0.16266079 1.5527337 -0.20844378 1.3096974 -0.12433298 -0.61256933 0.24766977 0.0021666817

fc.4.bias f4 [8]
00000000: ded1 50be 678f 803d e6a3 553f 8cbd 01be
00000010: fff8 d13c cfd2 7cbe f367 493d cf70 3c3f
-0.20392558 0.06277352 0.83453214 -0.12669963 0.025631426 -0.24689792 0.0491714 0.7360963

fc.6.weight f4 [4, 8]
00000000: c073 e23b 8eaa a9be 1604 cc3f 9ab1 cb3e
00000010: d29a 50b9 ab50 17be b9dc 02be 3329 a6be
00000020: e5b4 14be f09e e2bc 8610 813c 976c 8bbe
00000030: e8ba 33bd 003d 8d3e 8f30 1d3e 4cfa d6bc
00000040: 988f 64bd fb99 0fbc ed3e ac3f a941 423f
00000050: f391 4c3d 20fe 0b3c 282f 66bd 8968 1dbf
00000060: 61a7 25be 2663 4fbe 81d8 6ebf ddfb 7e3f
00000070: b0b1 1f3d 8d03 b2bc c7bb 61bd 95bb cc3f
0.006910771 -0.33137935 1.5938747 0.39783937 -0.00019894101 -0.14776866 -0.12779512 -0.32453308
-0.14522131 -0.027663678 0.01575495 -0.27231285 -0.04387942 0.27585602 0.15350555 -0.026242398
-0.055801004 -0.008764739 1.3456703 0.7588144 0.049943876 0.008544475 -0.056197315 -0.61487633
-0.16177131 -0.20252666 -0.9329911 0.9960306 0.038987815 -0.021730209 -0.05511072 1.5994745

fc.6.bias f4 [4]
00000000: a6c3 613f 5196 bbbe e413 6b3f f951 7c3f
0.8818916 -0.3663812 0.91827226 0.9856258

output.weight f4 [1, 4]
00000000: 066e 8d3f 7826 463e 9d65 b63f 6b16 c1bf
1.1049201 0.19350612 1.424976 -1.5084966

exp_avg f4 [8, 2, 3, 3]
00000000: fab9 8cc5 17f5 dc45 734e 4fc6 5c9d 0c46
00000010: 0357 b244 e8c0 b146 c6bd 6ac4 73db 29c6
00000020: d246 14c2 0a47 d142 4e14 eac3 188b 4ec2
00000030: f575 0444 5caf a2b9 e83b b943 f664 82c2
00000040: d7d0 10c4 5db8 9ac3 28e9 6046 e9c5 eac5
00000050: 2b34 bb46 1985 0646 a1dd ffc4 1b96 dc45
00000060: f5e5 9246 5753 8345 43cf 3944 dae1 81c2
00000070: 820a da42 e60e 4144 3761 8ec3 cc82 75ba
00000080: b7cc 9b44 78e9 f944 44c1 0345 ab2c 4545
00000090: b623 d044 525a e944 3abf a2c5 87a3 31c6
000000a0: 2f16 c745 9914 0c45 7f3f 4346 3ea1 02c6
000000b0: ca53 88c4 09a9 9243 8167 2444 ee40 7143
000000c0: 0bd5 adc3 62aa 7d38 168f 42c3 140d 42c4
000000d0: a865 05c4 a64b 4cc4 9e8e 2646 81c4 0ac6
000000e0: 1695 0c47 2906 6bc5 4dd1 42c5 da07 0bc5
000000f0: 8d4b 2045 0308 ecc5 3464 96c5 4104 2e45
00000100: 8d99 eb44 8143 d644 74c7 4e44 f3af 39ba
00000110: 4c45 b244 2519 60c4 c58f d8c4 24dc 2ec3
00000120: a161 8ec5 f44c 8cc6 de69 5b45 2f1b 95c4
00000130: 9b30 b9c4 d0a8 0d45 f6f6 3d45 e18c 79c6
00000140: d2f5 03c6 f0af f3c4 0747 65c4 df36 f6c3
00000150: 32d0 b3c4 77d1 0cb9 7d56 1243 9761 0dc5
00000160: 2aeb 85c4 2793 a3c4 6525 afc5 ec5f d1c5
00000170: 4e1f 55c4 64fe 10c6 56b4 34c5 83a3 1dc5
00000180: af23 ff44 e69e 71c6 3ac5 3546 ea49 bec4
00000190: 5290 38c4 d248 e643 61bb 14c4 cc9a 6239
000001a0: 04b1 8d44 59d0 9b40 d477 0144 7804 9c44
000001b0: c3c5 1bc6 55f2 aec4 1e14 4645 bf37 a246
000001c0: 70af 6745 2162 9846 0457 7a44 dca7 2145
000001d0: 3e98 1245 7268 54c4 2ee7 f1c4 2570 81c4
000001e0: 79b5 0e43 65e9 45ba b7ca ba44 42ae e443
000001f0: 75d2 d944 16e4 1545 c052 0146 c8ee d045
00000200: 0742 4944 f11c 23c6 c887 b646 ed16 0146
00000210: 9d41 5dc6 6bf6 5646 1bef 0ac6 bf80 1c44
00000220: a7f6 0142 c4c4 9643 d8a7 0e44 7082 e5b8
00000230: d3a3 ae43 eafe 1f44 9afd 6c43 6794 6443
-4503.247 7070.636 -13267.612 8999.34 1426.7191 22752.453 -938.9652 -10870.862
-37.06916 104.63875 -468.15863 -51.635834 529.8431 -0.000310297 370.46802 -65.19719
-579.2631 -309.44034 14394.289 -7512.739 23962.084 8609.274 -2046.9259 7058.763
18802.979 4202.4175 743.23846 -64.94112 109.02052 772.2328 -284.7595 -0.00093654986
1246.3973 1999.2959 2108.079 3154.7917 1665.116 1866.8225 -5207.9033 -11368.882
6370.773 2241.2874 12495.874 -8360.311 -1090.6184 293.3206 657.61725 241.25363
-347.6644 6.0478582e-05 -194.55893 -776.20435 -533.5884 -817.182 10659.654 -8881.126
35989.086 -3760.385 -3117.0813 -2224.4907 2564.722 -7553.0015 -4812.5254 2784.2659
1884.7985 1714.1095 827.11646 -0.00070834084 1426.1655 -896.3929 -1732.4928 -174.85992
-4556.2036 -17958.477 3510.6167 -1192.8495 -1481.5189 2266.5508 3039.435 -15971.22
-8445.455 -1949.498 -917.1098 -492.42868 -1438.5061 -0.00013429472 146.33784 -2262.0994
-1071.3489 -1308.5985 -5604.6743 -6699.99 -852.48914 -9279.598 -2891.271 -2522.2195
2041.1151 -15463.725 11633.307 -1522.3098 -738.255 460.5689 -594.9278 0.00021610706
1133.5317 4.869183 517.8723 1248.1396 -9969.44 -1399.5729 3169.2573 20763.873
3706.9648 19505.064 1001.3596 2586.4912 2345.5151 -849.63196 -1935.2244 -1035.5045
142.70888 -0.0007549732 1494.3348 457.3614 1742.5768 2398.2554 8276.6875 6685.8477
805.0317 -10439.235 23363.89 8261.731 -14160.403 13757.6045 -8891.776 626.01166
32.49087 301.53723 570.62256 -0.00010943867 349.27988 639.98303 236.99063 228.5797

exp_avg_sq f4 [8, 2, 3, 3]
00000000: c1e1 d84e a91e 824e f021 b74e 3ce3 914e
00000010: 9570 954e 1f57 ff4e fdd0 f44e 7da7 ef4e
00000020: e628 c24e 1168 8f4b 644f a34b 8b73 954b
00000030: 0a70 5c4a 77ed fe35 26e8 014b a9e1 5d4b
00000040: 3988 104b 4cbe 874b 5b02 d84f 9bff 5e4f
00000050: f738 5d4f 35f7 364e 4086 2f4e a853 8a4f
00000060: f5bf 384f 068e 634e bb1c 704d 15c8 e04c
00000070: 70e9 e64c 7d6c da4c 9ab8 c24a 1d17 ff36
00000080: d1c1 9d4b ee7d 634c bc60 834c 0af5 914c
00000090: 877a 134e a03a 034e c414 284e dd48 c64e
000000a0: 9566 254f 7ab5 d44e df21 9d4f be64 7c4f
000000b0: cb09 8c4f 3576 0c4d 03a2 114d b83e fd4c
000000c0: df0e 924b 8b0b 8936 fb1c 904a 51ce 864b
000000d0: b27e 154b 38ab 6f4b b03e 974d e01e 3d4f
000000e0: 97f5 5b4f e5a1 bf4d e221 5c4d acf0 644d
000000f0: 90da 0f4e 6720 6a4f 64e5 194f 234d 184c
00000100: eeea 184d 7405 164d 5606 014d d77a 5637
00000110: 3f8d 114c caa9 844d ccb2 114d d215 e84c
00000120: 1988 894f df2b f44e 8d8e 244f 6b23 aa4e
00000130: 9905 c14e 2a9d 4e4e e0be 094e 876c 4a4f
00000140: 322b be4d c64c 634b 3559 254b e000 a54b
00000150: 7924 034b cc45 1e36 bd0a 4a4b 7f41 254c
00000160: 22e1 3a4c a523 154c d1fa 394e 3681 e04e
00000170: 5f88 794d 9acd 0e4e 1c09 e54e 6dc0 0f4f
00000180: 22d6 934e 7856 044f 4b85 6c4e c0d1 404c
00000190: 1afa 494b a234 9e4b 58b7 574c 6618 d235
000001a0: bd56 334b cc08 c44c 8d89 614b 06e7 7c4b
000001b0: 3b98 894f 57d2 864f 755e 934f 6ed2 2450
000001c0: 1f54 434e 1fe9 ef4f e907 174d 66b7 804d
000001d0: 42b0 324e 80d8 7e4c af9c b84c 9b83 9c4c
000001e0: 4fe3 c14b a5b8 0a37 1c35 8e4b 3400 ff4c
000001f0: cb99 214d bc0a 1d4d 4e84 9e4e dc13 dc4e
00000200: c6c3 a14e bea0 ef4e 30cf 0a4f 1277 fb4e
00000210: c387 9b4e 9366 5b4e 47af c64e e700 324b
00000220: 7c76 ee4a b122 844b 9278 9f4a c8c8 0136
00000230: e33a 334b 243e f04b f107 cc4b a7d7 b34b
1.8193368e+09 1.0915237e+09 1.5362273e+09 1.2237942e+09 1.2535917e+09 2.1419498e+09 2.0536685e+09 2.0103656e+09
1.6287301e+09 1.8796578e+07 2.1405384e+07 1.9588886e+07 3.6116505e+06 1.8993586e-06 8.513574e+06 1.4541225e+07
9.472057e+06 1.7792152e+07 7.248066e+09 3.7412933e+09 3.711498e+09 7.6741357e+08 7.3620275e+08 4.6414766e+09
3.0995878e+09 9.544339e+08 2.5177592e+08 1.1785028e+08 1.2106432e+08 1.1451697e+08 6.380621e+06 7.602283e-06
2.0677538e+07 5.963564e+07 6.887984e+07 7.65236e+07 6.185702e+08 5.5041434e+08 7.049833e+08 1.663332e+09
2.7749635e+09 1.7843315e+09 5.2724854e+09 4.2344607e+09 4.698904e+09 1.4728482e+08 1.5270712e+08 1.3277331e+08
1.9144126e+07 4.084262e-06 4.7223015e+06 1.7669282e+07 9.797298e+06 1.5706936e+07 3.171835e+08 3.1729172e+09
3.6903053e+09 4.0188227e+08 2.308255e+08 2.4006112e+08 6.033664e+08 3.927992e+09 2.5819474e+09 3.9924876e+07
1.6034582e+08 1.5730874e+08 1.3529226e+08 1.2783995e-05 3.8155516e+07 2.7821498e+08 1.5277587e+08 1.216795e+08
4.614796e+09 2.0482579e+09 2.7608056e+09 1.4272239e+09 1.6191848e+09 8.666016e+08 5.7774694e+08 3.39611e+09
3.9881274e+08 1.4896326e+07 1.0836277e+07 2.1627328e+07 8.594553e+06 2.3584462e-06 1.3241021e+07 4.3320828e+07
4.898932e+07 3.9095956e+07 7.800556e+08 1.8832822e+09 2.61654e+08 5.9895974e+08 1.9212897e+09 2.4117527e+09
1.2401421e+09 2.2202593e+09 9.920396e+08 5.054643e+07 1.3236762e+07 2.0736324e+07 5.6548704e+07 1.565332e-06
1.1753149e+07 1.0277846e+08 1.4780813e+07 1.6574214e+07 4.6169103e+09 4.5238636e+09 4.944882e+09 1.1061017e+10
8.192675e+08 8.050065e+09 1.5836738e+08 2.6993786e+08 7.494739e+08 6.680627e+07 9.678988e+07 8.2058456e+07
2.5413278e+07 8.268432e-06 1.8639416e+07 1.3369386e+08 1.6945067e+08 1.646704e+08 1.3297354e+09 1.8461445e+09
1.356981e+09 2.0101445e+09 2.328834e+09 2.1094423e+09 1.3046829e+09 9.2023315e+08 1.6666879e+09 1.1665639e+07
7.81395e+06 1.7319266e+07 5.225545e+06 1.9339368e-06 1.1746019e+07 3.1489096e+07 2.6742754e+07 2.3572302e+07

exp_avg f4 [8]
00000000: afa0 2bb7 6b05 bfba c4ee 1739 b640 de3a
00000010: ae5e 9fb9 5d63 47ba b1ab 9a3a 5ab8 133a
-1.0229806e-05 -0.0014573758 0.0001448943 0.0016956541 -0.00030397385 -0.0007606054 0.0011800436 0.00056350755

exp_avg_sq f4 [8]
00000000: 06dc 5f36 e1e5 0e37 f28a ae36 7dc2 5b37
00000010: ed65 9d36 80dc 9436 0a9b 3237 84b7 7136
3.335766e-06 8.517382e-06 5.2017795e-06 1.30987e-05 4.6908303e-06 4.4364133e-06 1.0645725e-05 3.6018619e-06

exp_avg f4 [16, 8, 3, 3]
00000000: b55b a943 3652 01c4 4d59 3e44 dcad 81c5
00000010: 77f1 a5c5 1e45 00c4 1f3d a6c3 7410 5ec2
00000020: 0439 c5c4 f912 06c5 35ce e442 ca1d 99c3
00000030: 14ae b6c3 a6ca 9f44 c3de c1c3 91f3 4f44
00000040: a151 6d44 9818 a344 08d3 bec4 4c1e 0cc5
00000050: 47c2 93c4 cc61 17c5 2187 7cc5 6272 5b44
00000060: 1532 fc43 0284 4444 e312 9d44 2d7a 23c5
00000070: b8c0 74c2 9dbe 8ec4 28dc 3f44 3efa f344
00000080: 3a2a 6a44 8ca3 f444 e189 9844 86d6 c244
00000090: ecef 0644 c1f5 42c5 59e2 6d42 5881 2744
000000a0: da83 c541 db64 abc4 1834 3045 ec3b 7245
000000b0: cb2e 9e44 2e1b 8fc4 ed43 6744 ed72 5dc4
000000c0: 469b b6c4 3a83 4145 9d34 9fc4 7e9a 34c5
000000d0: 472e 2e45 042b 7144 4332 9a44 6993 85c4
000000e0: 4229 91c3 27e2 ba44 2bb3 3c44 895b ba43
000000f0: d0f9 0145 a11b 0a45 dd1c a343 0297 5144
00000100: 9043 c2c4 affa 4d42 929c 14c4 abb9 00c6
00000110: 96e9 80c4 92ea 1fc2 440a 58c2 d9bf 3ac3
00000120: cc6b 9fc3 d376 5144 07d7 23c5 753a 0245
00000130: 4228 9344 10b0 17c6 4baf 7545 add3 0045
00000140: 9d9a 9444 4809 cf43 b414 42c5 b2ea c9c4
00000150: 5675 b345 6ece d8c4 4185 bdc5 ec30 7644
00000160: e20f 9443 f74c 8fc4 3f8e 7143 8152 d3c3
00000170: 3c53 52c4 ccd1 0545 2a43 5cc4 ed5c c5c5
00000180: b262 cb44 b39b c644 fc24 c3c2 a914 4744
00000190: cea6 3bc5 b7b6 d8c4 62b6 9b45 5dfb b6c4
000001a0: edde 1cc5 7e2e 9c44 2ae0 2a44 0dc9 0bc5
000001b0: 6f3a 6844 b7ca 09c5 d7b3 1ac5 3c6d 22c4
000001c0: b5c8 32c5 6f30 32c5 ef6e 3345 7af1 3244
000001d0: 417e edc4 8227 9144 dc33 c6c3 f6e4 7fc5
000001e0: e564 8645 5955 1a45 2108 f6c5 132a 14c5
000001f0: 5b47 3545 0332 69c4 12f9 da43 d4a3 50c5
00000200: 0c9b b0c4 d9ee 7545 25a0 64c5 8cf7 4dc5
00000210: d03d da44 9f5d bd43 0dba 6cc5 8ef7 a044
00000220: 0605 e0c4 5e32 f9c4 8ed2 4145 fb02 79c4
00000230: f7ec 08c5 a346 1b43 a4e8 7e45 feec de43
00000240: 132c f444 bac4 3245 3eec 1745 3f94 8dc5
00000250: f682 c445 7b2b d345 5d19 bac5 490c 3845
00000260: 35d1 ba45 0c47 4345 d559 8145 de48 6e45
00000270: 721b 65c4 f845 3c45 4264 5145 49ec 67c5
00000280: 5fa5 79c4 cfc3 8344 b448 0745 5ae1 6a45
00000290: 2d1e 6b45 9629 33c5 7375 9545 3524 7f45
000002a0: 5d57 74c4 a2ad c243 cd8f 3144 1a10 3145
000002b0: c77f 6e45 b318 7545 e411 8c44 cb31 acc4
000002c0: 8ae4 0ec2 97a3 8ec5 fbeb 59c5 df5d 73c4
000002d0: 04ea 2745 3ff4 aa45 10d4 9745 7901 ea42
000002e0: 8c82 dbc4 7ca7 f944 0117 86c5 cb50 02c6
000002f0: 9afa de44 708b 8645 6312 9c45 d03f 9645
00000300: 086e 1dc5 ac63 5745 3a61 8545 8dbe afc4
00000310: 0494 8243 253f e444 b114 4845 68b5 9645
00000320: 9335 8545 1b4c b9c4 369a e8c3 0adf 9944
00000330: 7bab 17c5 4e12 50c5 98dd 2844 5bb6 3945
00000340: 50af 4645 807d 4b45 ecd1 8ac5 4b09 a845
00000350: b00e f745 5b28 b5c4 8986 cdc4 69ae bc45
00000360: 1d74 47c4 e979 9fc4 50f8 8c43 f386 2a45
00000370: 9ae0 5bc5 85dc c5c4 825b 0f45 a626 d7c2
00000380: 0acb ca44 9a4f 9943 76af c0c4 10c5 03c3
00000390: 8f74 1845 1ac5 d2c4 2ff0 5dc4 966f 1045
000003a0: 0c5a c144 c03d c144 f7aa b1c3 b33c 30c4
000003b0: eb1b 25c4 f53a a944 7b81 74c4 11ef 9a44
000003c0: f043 f944 3bea a744 683a 0045 7934 cb44
000003d0: 26e3 b1c4 b2a7 90c2 a456 2145 bab6 12c4
000003e0: 3b89 2d44 e4c7 f844 5c49 8844 4509 6b44
000003f0: 24eb c144 985c 45c5 f1cb 59c2 72b8 a543
338.71646 -517.28455 761.3953 -4149.7324 -5310.183 -513.07996 -332.4775 -55.516068
-1577.7817 -2145.1858 114.40275 -306.23273 -365.36 1278.3328 -387.74033 831.8057
949.27545 1304.7686 -1526.5947 -2241.8936 -1182.0712 -2422.1123 -4040.4456 877.78723
504.39127 786.0626 1256.5902 -2615.636 -61.1882 -1141.9567 767.43994 1951.8201
936.6598 1957.1108 1220.3087 1558.7039 539.7488 -3119.3596 59.471043 670.021
24.68938 -1371.1517 2819.2559 3875.745 1265.4623 -1144.8494 925.06134 -885.7957
-1460.8523 3096.2017 -1273.6442 -2889.6558 2786.8923 964.6721 1233.5707 -1068.6066
-290.32233 1495.0673 754.7995 372.71512 2079.6133 2209.7268 326.2255 838.3595
-1554.1113 51.49481 -594.4464 -8238.417 -1031.2996 -39.979073 -54.010025 -186.7494
-318.84216 837.8566 -2621.4392 2083.6536 1177.258 -9708.016 3930.9558 2061.2297
1188.8317 414.0725 -3105.294 -1615.3342 5742.667 -1734.4509 -6064.6567 984.7644
296.12408 -1146.4052 241.55565 -422.64456 -841.30054 2141.1123 -881.04944 -6315.6157
1627.0842 1588.8656 -97.572235 796.3228 -3002.4253 -1733.7098 4982.798 -1463.8551
-2509.9329 1249.4529 683.50256 -2236.5657 928.913 -2204.6697 -2475.24 -649.7068
-2860.5442 -2851.027 2870.9333 715.7731 -1899.9454 1161.2346 -396.40515 -4094.31
4300.612 2469.3342 -7873.016 -2370.6296 2900.4597 -932.78143 437.94586 -3338.2393
-1412.8452 3934.928 -3658.009 -3295.4717 1745.9316 378.7314 -3787.6282 1287.7361
-1792.157 -1993.574 3101.1597 -996.0466 -2190.8103 155.27592 4078.54 445.8515
1953.3773 2860.2954 2430.7651 -4530.531 6288.37 6757.435 -5955.1704 2944.7678
5978.151 3124.4404 4139.229 3812.5542 -916.42883 3012.373 3350.266 -3710.7678
-998.5839 1054.119 2164.544 3758.0845 3761.886 -2866.599 4782.681 4082.263
-977.36505 389.3565 710.2469 2833.0063 3815.986 3921.5437 1120.5591 -1377.556
-35.723183 -4564.4487 -3486.7488 -973.46674 2686.626 5470.531 4858.508 117.00288
-1756.0796 1997.2339 -4290.8755 -8340.198 1783.8313 4305.4297 4994.2983 4807.9766
-2518.877 3446.2295 4268.1533 -1405.9547 261.15637 1825.9733 3201.2932 4822.676
4262.697 -1482.3783 -465.20477 1230.97 -2426.7175 -3329.144 675.4624 2971.3972
3178.957 3255.8438 -4442.24 5377.1616 7905.836 -1449.2611 -1644.2042 6037.8013
-797.8143 -1275.8097 281.93994 2728.4343 -3518.0376 -1582.8912 2293.7192 -107.575485
1622.345 306.6219 -1541.4832 -131.76978 2439.285 -1686.1594 -887.75287 2310.974
1546.814 1545.9297 -355.33566 -704.9484 -660.4362 1353.8424 -978.02313 1239.4708
1994.123 1343.3197 2051.6504 1625.6398 -1423.0984 -72.32753 2581.415 -586.8551
694.1442 1990.2466 1090.2925 940.14484 1551.3481 -3157.787 -54.44916 331.44098

exp_avg_sq f4 [16, 8, 3, 3]
00000000: f81b 704d e3ff e54c 89f0 9f4b e5ad b14e
00000010: 87f8 764e 2e91 8e4d 370b fc4c 1972 524d
00000020: a952 164d 9dbb f64c 8f17 2b4c 8486 fc4b
00000030: eeeb a64c d9f6 9e4c 1b2f b24c bc8a 854c
00000040: fb4a 144d 5514 ed4c 46b9 994d 7afb 0d4d
00000050: 3fdb 824c 9e7a 8c4d b9bb 674d 160a b64c
00000060: a957 3d4c 03bd d64c 972f cc4c c363 634c
00000070: f536 3e4c 4c19 364c a11f 264c d673 c54c
00000080: c855 a14c 5e13 894c 3a4b f94c b24c d74c
00000090: d2ba 024d d6c6 2a4d ed13 4e4c be1f 2b4d
000000a0: 2365 b64c 511c ab4c f495 974c 8d9a 304d
000000b0: 0d5f 294d 4719 3b4d 6369 824c 88f2 054c
000000c0: d07b 674d 938a 994c 28f1 af4c 77d7 aa4c
000000d0: a507 564d 945e de4c 75af 974c bf8c 854c
000000e0: 1ba3 0b4c ec1a 164c be32 4b4c 9a6d 7f4c
000000f0: 0f50 624c eded f24c c0b6 e84c ff47 e84d
00000100: 0bff 494d ab73 5d4c eacc ac4e d1b3 944e
00000110: 4099 c44d 1dfb 824c 2150 534d c943 2b4d
00000120: 06ae 704c 85ba 3f4d 507c 914d 1c19 3f4d
00000130: ad6c ed4d 267e 924e b993 644d f21b 164d
00000140: d72d 374d 1971 c74c 66ea 894d ccf9 3c4d
00000150: 8c6c dd4c e4fa b44c 20b1 854c 62a2 6e4d
00000160: d7cd f74c 42aa ca4c 4236 d64c 2cd6 9d4d
00000170: a671 c74d 54d8 504d f84f a94c 6ae0 974d
00000180: 9785 aa4c 10ee 274c a7d8 384c 3f56 c64c
00000190: 20e8 934d c51c 134d 04e2 8e4c 3cc9 3a4c
000001a0: 5aab 924c 2ba6 524d d81c 314d 82cb 3b4d
000001b0: c586 ce4c d428 9f4d 21d7 934d bb98 f64c
000001c0: fbbe d64c 4afe 164d 8214 c44d 9908 9b4d
000001d0: 874c 2d4d 090f 264d e240 b64d 4a64 9a4d
000001e0: 2ba5 0c4d 0213 904d 3353 674d 52dd 684d
000001f0: 9cd3 a74c 5be9 c64c 9d18 a74c 1a6b 824d
00000200: 9979 164d 69ca a84c a178 dd4b bf98 8f4c
00000210: ee50 874d 5f54 364d 5591 164d d253 904c
00000220: 055f 464d f1aa ae4d 5cff 0e4d e95d 7c4d
00000230: 1fde a54e 04fe 504d e731 2c4d cc53 0d4d
00000240: 688b 474c b93e df4c 3838 7c4d a7f7 974d
00000250: 2bdc 864d 0200 884d 1321 f94d e1fa 9b4d
00000260: e0c2 534d cf60 604c c336 454d 0ed1 2d4d
00000270: 143b f84c 08c2 164c cc12 074d 4a9c 6d4d
00000280: 31d2 544c 8e14 ab4c 6c39 5e4c dacc ff4c
00000290: eb13 524d 6aa6 964d a6fe ea4c 7f49 f44c
000002a0: f4d5 e84c 8403 324d 553d 814d 1b1f 7d4c
000002b0: 5139 494d 1aab ed4c 19e5 814c e561 434c
000002c0: b4b5 ea4c 9b72 1f4d b952 884c 2bd1 c34c
000002d0: 97bb 8e4c db53 434d e371 4f4d 8e33 8d4d
000002e0: d600 b04c 390b 4b4d 111d 784d aee3 8f4d
000002f0: 8e82 334d ac70 784c 975c 654d 6fc5 6b4d
00000300: 258d 8a4d 253c ee4c 6908 244d d765 9c4d
00000310: e193 164d e7fb 0f4d d31d 634c a7b5 3d4d
00000320: ca43 0b4d 76a6 ca4c 177d 214c 7c00 094d
00000330: 08d2 2d4d 0dc3 a14c 14a9 bf4c a90b 824c
00000340: 199a 854c 2328 344d 6742 ad4d 2f8a 8b4d
00000350: 23e9 844d 8e55 b34d d9f1 a04d 5e11 874d
00000360: 8dcc 884c 2ec5 d74c 6302 874c 6c61 804d
00000370: 3807 304e f452 664e c28c 524c 1f65 ea4c
00000380: 544b ef4c a9bb 9c4c a87a c24c f23f eb4c
00000390: 41fc 984c e0c1 434c 70cc 684c fd13 3c4c
000003a0: 1093 dc4c 5c4e f84c 25e8 ff4c 39cc 854d
000003b0: f951 894d aaae 824c 6bb3 cd4c 28c8 264d
000003c0: a612 a64b 42bc 144c 9ce9 2c4c 8ec7 a14c
000003d0: 4996 b24c 059f e94c dea7 0c4c 3406 1f4c
000003e0: 4be4 b14c 4140 424c 68bd e54c 0c5b 064d
000003f0: 260d ac4c 8906 284d 2a55 f54c 8974 b14c
2.517728e+08 1.2058601e+08 2.0963602e+07 1.4904818e+09 1.03587066e+09 2.989849e+08 1.32143544e+08 2.206683e+08
1.5762498e+08 1.2935908e+08 4.4850748e+07 3.3099016e+07 8.751499e+07 8.334305e+07 9.3419736e+07 7.001443e+07
1.5549637e+08 1.24297896e+08 3.22382e+08 1.4887926e+08 6.8606456e+07 2.9460576e+08 2.4298997e+08 9.544107e+07
4.963498e+07 1.1258473e+08 1.07052216e+08 5.9608844e+07 4.9863636e+07 4.773611e+07 4.3548292e+07 1.0352197e+08
8.458605e+07 7.186712e+07 1.3070178e+08 1.1287899e+08 1.370801e+08 1.7907235e+08 5.4022068e+07 1.7943651e+08
9.5627544e+07 8.971124e+07 7.947459e+07 1.8518242e+08 1.7759867e+08 1.9618725e+08 6.837327e+07 3.5113504e+07
2.427282e+08 8.0499864e+07 9.224429e+07 8.957023e+07 2.2442658e+08 1.1658563e+08 7.9526824e+07 7.001855e+07
3.6605036e+07 3.934917e+07 5.326719e+07 6.695895e+07 5.9326524e+07 1.2736497e+08 1.2200909e+08 4.8712906e+08
2.1180843e+08 5.8052268e+07 1.4495552e+09 1.2474062e+09 4.122972e+08 6.867172e+07 2.2157774e+08 1.7958414e+08
6.309276e+07 2.01042e+08 3.051054e+08 2.0038086e+08 4.979153e+08 1.2288704e+09 2.396804e+08 1.5740086e+08
1.9207717e+08 1.04564936e+08 2.8923e+08 1.9815546e+08 1.1608995e+08 9.488566e+07 7.009306e+07 2.502262e+08
1.29920696e+08 1.0625486e+08 1.1230875e+08 3.3100736e+08 4.1826426e+08 2.1898989e+08 8.876845e+07 3.1850835e+08
8.940255e+07 4.4021824e+07 4.8456348e+07 1.03985656e+08 3.101829e+08 1.5425851e+08 7.491178e+07 4.896485e+07
7.689698e+07 2.2088158e+08 1.857161e+08 1.9691728e+08 1.08279336e+08 3.3378163e+08 3.1004368e+08 1.2928764e+08
1.1258876e+08 1.5832797e+08 4.112098e+08 3.25129e+08 1.817171e+08 1.741252e+08 3.822132e+08 3.2378298e+08
1.4747717e+08 3.021456e+08 2.4256184e+08 2.4417616e+08 8.798947e+07 1.04286936e+08 8.7606504e+07 2.7350714e+08
1.5778446e+08 8.849492e+07 2.9028674e+07 7.528601e+07 2.837785e+08 1.9118642e+08 1.5788168e+08 7.566914e+07
2.0800725e+08 3.663048e+08 1.4994374e+08 2.6462581e+08 1.3913988e+09 2.1914426e+08 1.8055947e+08 1.4819245e+08
5.230941e+07 1.1704468e+08 2.6447142e+08 3.1869872e+08 2.8282198e+08 2.8521274e+08 5.224618e+08 3.2711376e+08
2.2204774e+08 5.8819388e+07 2.0679378e+08 1.8225994e+08 1.3014442e+08 3.952029e+07 1.4163475e+08 2.4915267e+08
5.5789764e+07 8.969534e+07 5.825477e+07 1.3411298e+08 2.2028254e+08 3.1593606e+08 1.2320491e+08 1.2807679e+08
1.2207299e+08 1.8666093e+08 2.7103504e+08 6.6354284e+07 2.1099854e+08 1.2460667e+08 6.8102344e+07 5.1218324e+07
1.2305552e+08 1.6719301e+08 7.1472584e+07 1.02664536e+08 7.483308e+07 2.0481579e+08 2.1752171e+08 2.9612077e+08
9.22764e+07 2.129069e+08 2.601659e+08 3.017579e+08 1.8822986e+08 6.512709e+07 2.4050315e+08 2.4722405e+08
2.9056323e+08 1.2490372e+08 1.7200091e+08 3.2798998e+08 1.5789211e+08 1.5097816e+08 5.9537228e+07 1.9892491e+08
1.4602973e+08 1.0624709e+08 4.2333276e+07 1.436569e+08 1.8226394e+08 8.480983e+07 1.0048528e+08 6.818132e+07
7.0045896e+07 1.8890808e+08 3.6335126e+08 2.9263613e+08 2.7873392e+08 3.7609107e+08 3.3752554e+08 2.832578e+08
7.172209e+07 1.1312574e+08 7.078377e+07 2.6923354e+08 7.383158e+08 9.66049e+08 5.5194376e+07 1.2289049e+08
1.254591e+08 8.2173256e+07 1.0196307e+08 1.2333864e+08 8.020839e+07 5.131661e+07 6.102675e+07 4.930354e+07
1.1564454e+08 1.301839e+08 1.3416887e+08 2.805942e+08 2.8798134e+08 6.851515e+07 1.0784649e+08 1.7488346e+08
2.17675e+07 3.899009e+07 4.5327984e+07 8.481906e+07 9.363105e+07 1.22484776e+08 3.6872056e+07 4.168725e+07
9.326652e+07 5.0921732e+07 1.2044986e+08 1.4088211e+08 9.020446e+07 1.7618754e+08 1.2862498e+08 9.303764e+07

exp_avg f4 [16]
00000000: 48cc 51b9 062f 29ba c1bf 553a 35fe 0339
00000010: bdd6 2038 5728 07b9 8aa2 f6b9 f5c4 25ba
00000020: e7a5 acb7 8622 f839 df4b 8339 30d9 e0b7
00000030: 750e 9d38 6e19 933a dd5a 3d39 7ef4 85ba
-0.00020007894 -0.00064538454 0.0008153879 0.00012587833 3.8346963e-05 -0.00012889631 -0.00047041877 -0.00063235994
-2.0581252e-05 0.00047327968 0.00025042795 -2.6804017e-05 7.489036e-05 0.0011222789 0.00018058294 -0.0010219959

exp_avg_sq f4 [16]
00000000: 1f94 0236 e4d5 9636 f592 a436 a8ad 6f36
00000010: e0da ee35 98b5 bc36 6f04 5636 ab3b dc35
00000020: 340a ca36 2dcd cc36 0b97 2236 ec47 e636
00000030: 46a3 2736 eae4 bd36 bcdb 2236 0425 4837
1.9457727e-06 4.4952485e-06 4.904689e-06 3.5714856e-06 1.7796083e-06 5.623977e-06 3.1891066e-06 1.6408643e-06
6.021257e-06 6.1035594e-06 2.42278e-06 6.862907e-06 2.4979977e-06 5.659288e-06 2.4267783e-06 1.1929547e-05
