output/cnn/red-2/checkpoints/epoch_15.pt (torch, 66154 bytes, 39 tensors)

conv.0.weight f4 [8, 2, 3, 3]
1.0868142 0.4910136 1.0591147 -0.008513835 0.04001185 0.5809943 0.0144758355 0.05786548
-0.0036161134 -0.91003376 -1.4604657 -1.3581753 0.971945 0.029238611 0.84798676 0.17055583
-0.5671117 0.12073921 0.10411333 -0.10399565 -0.042737275 -0.9989193 -1.0284251 0.56045985
0.11378579 -0.5854126 -1.6734804 0.46241784 -0.48954073 -0.38868168 -0.24174842 -0.35196444
0.1902654 0.15666693 0.14216106 0.53822196 -1.7642772 -1.0392174 -0.21100093 0.17401351
0.7010459 0.5835529 0.21088865 0.25672838 0.39178252 -0.17388317 -0.14376666 -0.24182764
-0.1856441 1.4385698 0.18410856 -0.030408548 -0.8217035 0.17177378 -0.95035344 -0.41923463
-0.09957115 -1.0128164 -1.3909637 -1.0080727 -0.6391242 -0.1171817 -0.2602889 -0.55896366
-0.03269404 0.05472515 0.41834572 0.4733411 -0.28891975 0.04674502 0.32563594 -0.37520608
0.9098078 -0.16483834 0.039087147 -0.46617305 -0.5354385 -0.62932277 -0.64555764 0.2685124
-0.95382845 -0.29221606 -0.60006315 0.89648396 0.32183737 0.17248587 -0.399975 0.12564845
0.047333315 -0.19204584 -0.52099484 0.94031376 -1.7027936 -0.7361224 -0.011985299 0.67776924
-0.3703164 0.04047351 -0.2802594 -0.4415031 0.24951674 0.61277497 0.05036175 0.19063255
-0.08494369 -0.54027057 -0.6168825 -0.06681206 -0.271907 -0.44843993 -0.3570451 0.37926218
-1.0062245 0.03625882 -1.582266 -1.2962846 -0.43556848 0.13395637 0.6218035 0.20524465
-0.555287 0.9401384 -0.5155551 0.045788035 -0.14485686 -0.16712087 -0.11693452 1.2695931
0.023378352 1.1704615 0.5564463 -0.101747125 0.19782673 -0.1562038 0.29547298 0.060076244
-0.5815711 0.12674041 -0.40795368 0.30237025 -0.4715627 -0.7908376 -0.44323266 0.0015884655
00000000: ba1c 8b3f 2266 fb3e 1291 873f 9d7d 0bbc
00000010: 77e3 233d 0bbc 143f 0e2c 6d3c 5b04 6d3d
00000020: 51fc 6cbb f9f7 68bf 8af0 babf b0d8 adbf
00000030: 63d1 783f d085 ef3c a915 593f 30a6 2e3e
00000040: 3b2e 11bf 1e46 f73d 5f39 d53d acfb d4bd
00000050: 480d 2fbd 2db9 7fbf 6fa3 83bf 4c7a 0f3f
00000060: 8608 e93d 9add 15bf 9b34 d6bf 08c2 ec3e
00000070: 15a5 fabe 4901 c7be e68c 77be af34 b4be
00000080: efd4 423e 4c6d 203e ab92 113e eac8 093f
00000090: d6d3 e1bf 1305 85bf a110 58be 9930 323e
000000a0: be77 333f b963 153f 32f3 573e e771 833e
000000b0: b897 c83e 6e0e 32be 9137 13be aaa1 77be
000000c0: 7d19 3ebe 0e23 b83f f486 3c3e 591b f9bc
000000d0: 295b 52bf 77e5 2f3e 5d4a 73bf eca5 d6be
000000e0: f6eb cbbd f8a3 81bf 190b b2bf 8708 81bf
000000f0: a59d 23bf f6fc efbd 9644 85be 3e18 0fbf
00000100: 30ea 05bd 7b27 603d 6931 d63e c459 f23e
00000110: 4aed 93be b577 3f3d c1b9 a63e 031b c0be
00000120: 2ae9 683f 62cb 28be d819 203d 3cae eebe
00000130: 7f12 09bf 4c1b 21bf 4443 25bf 757a 893e
00000140: 1a2e 74bf 589d 95be bd9d 19bf f97f 653f
00000150: dec7 a43e 23a0 303e 86c9 ccbe fda9 003e
00000160: 94e0 413d aaa7 44be eb5f 05bf 67b8 703f
00000170: 24f5 d9bf 8572 3cbf fd5d 44bc 4982 2d3f
00000180: 1c9a bdbe 8dc7 253d 297e 8fbe b20c e2be
00000190: 5181 7f3e d2de 1c3f 1f48 4e3d 2e35 433e
000001a0: f5f6 adbd 2c4f 0abf 03ec 1dbf c3d4 88bd
000001b0: 6537 8bbe eb99 e5be 9ece b6be a72e c23e
000001c0: f7cb 80bf 2184 143d b187 cabf a7ec a5bf
000001d0: d502 dfbe dc2b 093e 842e 1f3f a72b 523e
000001e0: 4a27 0ebf e9ac 703f 6bfb 03bf 3c8c 3b3d
000001f0: 5b55 14be bc21 2bbe 5e7b efbd 0782 a23f
00000200: f583 bf3c afd1 953f 4473 0e3f cc60 d0bd
00000210: 1793 4a3e e4f3 1fbe 3c48 973e 8212 763d
00000220: d8e1 14bf 3dc8 013e 4edf d0be 46d0 9a3e
00000230: ab70 f1be 5574 4abf 64ef e2be 0f34 d03a

conv.0.bias f4 [8]
-0.10938659 -0.08942463 0.45399168 0.23770957 -0.40670398 0.7990249 0.6289328 0.6295888
00000000: 1406 e0bd 4324 b7bd 9971 e83e 236a 733e
00000010: 813b d0be e58c 4c3f bd01 213f bb2c 213f

conv.4.weight f4 [16, 8, 3, 3]
-0.0731485 0.061574645 -1.7371043 -0.38995153 0.0009861427 -0.6225122 0.0109153865 0.25483406
-0.91409767 0.24485487 0.46642727 -0.37221056 0.25499323 -0.25673845 0.686758 0.161895
-0.115833856 -0.10704595 -0.6966451 0.17711204 -0.2684211 -0.060082193 0.11052166 0.15348071
-1.2550734 -0.68496513 0.45731804 -0.9636826 -0.10189499 0.15648949 -0.17142993 -0.78310287
0.6613198 0.07763583 -0.028461512 0.33193 -0.26956338 0.5927818 -0.7293453 1.51434
0.7917688 1.1780934 0.084382124 -0.13976353 0.55809575 -0.59834874 -0.15625979 0.80995595
0.13616115 0.018930607 0.9952636 -0.59319085 0.66641265 -0.06471108 0.12910384 1.3153719
-0.61605376 0.5846621 0.7548936 1.1219879 -0.75767493 -0.0929063 0.039289787 -0.042132255
-0.25980753 -1.1636949 0.26176676 0.31283435 0.5056366 -1.0892129 0.30998588 0.029233685
-0.046168655 0.49064088 0.66005933 0.09343273 0.6385883 0.1667781 0.9062079 -0.35983235
-0.44015902 -0.046765193 -0.51636016 -0.43839 -0.7487082 -0.01622275 -1.5701474 -0.22622594
0.3641278 1.3116813 1.2049595 -0.05026032 0.9666035 0.30692762 -0.1661346 0.4717057
-0.031223364 -0.653464 -0.97094184 -0.46938467 -0.95776296 0.8890826 -0.5679407 -0.09513592
0.3265996 -0.33649457 -0.73391443 -0.3717335 -0.65892416 -0.19308002 0.84878564 -0.187299
-0.22948147 -0.5664966 0.12365873 0.35543233 0.8514076 0.3873583 -1.1363938 -0.3068432
0.010790549 -0.52281296 -0.38809422 -0.3056279 -0.06228582 1.2171594 -0.86104256 -0.6679803
0.49981785 -0.8234249 0.3143631 -0.7712971 -0.059628904 -0.38852397 0.8540291 0.14026718
-0.13981493 0.4569987 -0.5015475 0.020433249 0.4160635 -0.26811874 -0.18279041 -1.2827011
-0.6926562 0.3568608 1.0170306 0.25193155 0.25538102 -0.52425283 0.62120783 0.3145905
-0.5417383 -1.2517434 0.33492464 -0.26127973 -0.49504152 0.8121318 0.19455521 0.2603651
-0.7863767 -0.70805436 -0.99435866 -0.12465804 1.0937151 1.0795889 0.23131046 0.74547416
-0.2925814 -0.19981803 0.044724774 -0.7354577 0.3312117 -0.10195254 -0.013127121 2.3195422
-0.24811661 -0.19911936 0.3030824 -0.328948 -0.6754305 0.26116335 0.57830477 -0.036341455
-0.52074033 0.08932828 -0.8443046 0.19062491 0.37763184 -0.3224033 1.4245143 0.30751035
0.45224512 0.53199285 -0.1431867 -0.18830451 0.45965266 -0.07195583 -1.3112721 -0.7240813
-0.61043966 0.048354704 0.28226897 -0.24824622 -0.24139935 -0.46643224 0.53963643 0.8693181
-1.4259363 0.3470634 1.2113973 0.78146565 -0.021289889 0.00415217 0.38257858 0.06486613
0.30323324 -0.43486795 -0.8934084 0.43710923 0.17731412 -0.27887246 0.3095136 0.52257186
-0.7608533 -0.23482817 0.22578435 -0.09566993 0.19984314 -0.10016064 -0.9883414 -0.5151624
-0.9798467 0.07184456 0.37450257 0.045010306 0.03602942 0.3971908 -0.044577606 0.30788273
0.20678341 0.11866494 -0.05146969 -0.31358412 -1.2096647 0.694807 -0.6372498 -0.95308626
1.1395998 -0.10802675 -1.2731752 -0.16669992 -0.53745574 0.3055784 -0.47840452 -0.08681568
00000000: e1ce 95bd b235 7c3d 6f59 debf baa7 c7be
00000010: 7541 813a f65c 1fbf 73d6 323c 9c79 823e
00000020: 4e02 6abf 3cbb 7a3e 8ecf ee3e 6292 bebe
00000030: 798e 823e 3973 83be 5fcf 2f3f cec7 253e
00000040: 4d3a edbd e83a dbbd 5557 32bf dc5c 353e
00000050: 7e6e 89be bf18 76bd 2e59 e23d 0c2a 1d3e
00000060: 3fa6 a0bf e059 2fbf 9725 ea3e e7b3 76bf
00000070: 52ae d0bd c83e 203e 548b 2fbe 6e79 48bf
00000080: 414c 293f 89ff 9e3d 1e28 e9bc bbf2 a93e
00000090: 3604 8abe 8cc0 173f 60b6 3abf e5d5 c13f
000000a0: 5cb1 4a3f c4cb 963f 89d0 ac3d 2c1e 0fbe
000000b0: 5ddf 0e3f 622d 19bf 9102 20be 4659 4f3f
000000c0: d46d 0b3e 5c14 9b3c 98c9 7e3f 5bdb 17bf
000000d0: 059a 2a3f 3e87 84bd cc33 043e 1b5e a83f
000000e0: b3b5 1dbf 6aac 153f b540 413f 4d9d 8f3f
000000f0: fcf6 41bf a945 bebd 54ee 203d df92 2cbd
00000100: 7e05 85be f4f3 94bf 4b06 863e d32b a03e
00000110: 6671 013f 546b 8bbf 78b6 9e3e 7b7b ef3c
00000120: 581b 3dbd 4835 fb3e a6f9 283f a959 bf3d
00000130: 867a 233f e1c7 2a3e 3efd 673f f23b b8be
00000140: 865c e1be dc8c 3fbd 2e30 04bf a774 e0be
00000150: 57ab 3fbf 93e5 84bc 97fa c8bf c6a7 67be
00000160: f66e ba3e 2ce5 a73f 1d3c 9a3f c4dd 4dbd
00000170: 5473 773f 9e25 9d3e 301f 2abe 6983 f13e
00000180: 24c8 ffbc 6b49 27bf a58f 78bf 3053 f0be
00000190: f42f 75bf eb9a 633f 9064 11bf 9fd6 c2bd
000001a0: 1038 a73e 0449 acbe d1e1 3bbf da53 bebe
000001b0: 41af 28bf c5b6 45be 044a 593f 4fcb 3fbe
000001c0: 31fd 6abe ec05 11bf ca40 fd3d 3afb b53e
000001d0: d9f5 593f d453 c63e 5a75 91bf 8d1a 9dbe
000001e0: d8ca 303c 12d7 05bf 49b4 c6be 437b 9cbe
000001f0: 6a1f 7fbd e1cb 9b3f 496d 5cbf c200 2bbf
00000200: 20e8 ff3e f9cb 52bf 33f4 a03e ba73 45bf
00000210: 703d 74bd 9dec c6be a7a1 5a3f 33a2 0f3e
00000220: a52b 0fbe bcfb e93e 6b65 00bf a163 a73c
00000230: 4606 d53e dc46 89be 692d 3bbe 8d2f a4bf
00000240: eb51 31bf 75b6 b63e 0f2e 823f 2cfd 803e
00000250: 4dc1 823e 6f35 06bf 7a07 1f3f 0212 a13e
00000260: 5caf 0abf 2139 a0bf 3e7b ab3e 75c6 85be
00000270: 1576 fdbe dfe7 4f3f 7b39 473e 934e 853e
00000280: fc4f 49bf 0d43 35bf 4a8e 7ebf b74c ffbd
00000290: dbfe 8b3f f82f 8a3f a6dc 6c3e 65d7 3e3f
000002a0: 3bcd 95be 199d 4cbe 5331 373d f546 3cbf
000002b0: 9494 a93e 7ecc d0bd 2313 57bc 6173 1440
000002c0: 4812 7ebe f2e5 4bbe 9e2d 9b3e df6b a8be
000002d0: 03e9 2cbf 34b7 853e c80b 143f c7da 14bd
000002e0: 3d4f 05bf bff1 b63d 5924 58bf 2d33 433e
000002f0: f658 c13e 0c12 a5be 7c56 b63f ff71 9d3e
00000300: ac8c e73e af30 083f 899f 12be e6d2 40be
00000310: 9857 eb3e 945d 93bd c4d7 a7bf 645d 39bf
00000320: c645 1cbf 950f 463d 8f85 903e 4234 7ebe
00000330: 6431 77be 35d0 eebe 9d25 0a3f a28b 5e3f
00000340: 1585 b6bf 4bb2 b13e 110f 9b3f 220e 483f
00000350: 2268 aebc ed0e 883b 57e1 c33e 89d8 843d
00000360: 6341 9b3e 03a7 debe 6ab6 64bf c8cc df3e
00000370: d591 353e 5fc8 8ebe 9178 9e3e 45c7 053f
00000380: 48c7 42bf cc76 70be 0334 673e 99ee c3bd
00000390: aea3 4c3e 0621 cdbd f103 7dbf afe1 03bf
000003a0: 3cd7 7abf 3e23 933d cdbe bf3e ba5c 383d
000003b0: 9693 133d 985c cb3e 0297 36bd cea2 9d3e
000003c0: 08bf 533e 9b06 f33d e2d1 52bd 198e a0be
000003d0: 4bd6 9abf dfde 313f ce22 23bf 76fd 73bf
000003e0: 68de 913f 213d ddbd 68f7 a2bf 62b3 2abe
000003f0: b396 09bf c674 9c3e 70f1 f4be 6bcc b1bd

conv.4.bias f4 [16]
-1.2685468 -0.35569942 -0.42956582 -0.6467204 0.16358204 1.0167333 0.43180835 -1.1097685
-0.23083569 -0.7673749 -0.26386088 -0.38963145 -0.92504394 -0.6790873 0.052053627 -0.49081194
00000000: be5f a2bf 3c1e b6be 0df0 dbbe 788f 25bf
00000010: 0d82 273e 5124 823f fc15 dd3e e50c 8ebf
00000020: 3160 6cbe ae72 44bf c618 87be c67d c7be
00000030: aecf 6cbf aad8 2dbf 2f36 553d b44b fbbe

fc.0.weight f4 [32, 64]
0.009343905 0.05781156 0.08478014 1.0657911 0.19740294 1.70447 -0.49528104 0.4008735
1.1467128 -1.5839057 0.26919848 0.30862424 0.86139894 0.6305578 -0.44922602 0.6478912
-0.14325407 0.94909143 0.16754396 0.8750321 1.3301255 1.1503394 -0.36893147 -0.2941296
0.25289762 1.9983019 -0.7934387 0.1980784 1.9201785 1.1278148 -0.3848232 -0.58164066
-0.8657139 -1.053996 0.15067676 0.88467604 1.3804672 0.7577152 -0.1924951 0.17038274
0.21279426 -1.4512066 -0.0030741286 0.85693437 -1.151493 -1.4022282 0.37357914 0.42722863
-0.3999229 0.617283 2.444767 0.04874881 -0.7575019 -0.16095948 1.068685 1.7828066
0.27549383 0.028318169 0.19797677 1.3117827 -1.3201953 -0.48102513 0.3137977 0.5807116
-0.034586783 -0.08508606 -0.09181778 -0.11925394 -0.07095981 0.0071418732 0.04209678 -0.16552654
-0.08156504 -0.1387641 -0.08168531 -0.13108103 -0.14987914 -0.00049131864 -0.11715438 -0.052359566
0.04403698 -0.02058848 0.027681738 -0.17051178 -0.09848853 -0.01801938 -0.052459806 -0.11867143
-0.024962412 -0.050666697 -0.073754966 -0.029737925 -0.0015719242 -0.05021717 -0.073718 -0.14906122
-0.11505214 -0.15544727 -0.15905541 0.049375765 -0.10964159 0.040378302 -0.038411602 0.0575352
0.10518932 -0.004933949 -0.101899296 -0.17714326 -0.06922838 -0.18048707 -0.13113746 -0.074754655
-0.16785197 -0.089968145 0.036993068 0.009542617 -0.06774273 -0.04079515 -0.12122736 -0.024161946
-0.05009012 -0.050903752 -0.025886258 -0.042326804 -0.08938382 -0.11244863 0.011959618 -0.13456658
-0.010674648 0.00069678435 0.06720006 -0.1063235 -0.11626117 -0.1009285 0.060865626 -0.023416763
0.05238369 0.04265466 -0.1777106 -0.17474622 -0.12191828 -0.04244852 -0.036721017 -0.016188553
-0.11699832 -0.076377146 -0.06596898 -0.13503848 -0.14111598 -0.14631061 0.048043024 0.05305108
-0.16181202 -0.044851996 -0.12846775 -0.15577449 -0.06834491 -0.13156992 -0.16439027 -0.06317887
-0.07812984 -0.032699168 0.046943784 -0.175366 -0.16384219 0.045990083 0.11473195 -0.008661967
-0.1454717 -0.1739536 -0.028936304 -0.08115649 -0.049971625 0.04936914 -0.098822296 -0.12617195
-0.03146618 0.03696994 0.05634759 -0.15871346 -0.12297277 -0.17840797 -0.12944184 -0.0031933472
-0.086370274 -0.042046234 -0.12622756 -0.0560575 -0.12099394 -0.001534604 -0.062998906 0.0571108
-0.057053186 0.05061708 -0.09137354 0.06396791 -0.09349812 -0.0733599 -0.02608378 -0.011937869
-0.1047959 0.01022042 0.150487 0.03938454 -0.16227014 -0.02560614 0.008039899 -0.1510701
0.0050435136 -0.14927618 -0.112710975 -0.076753855 -0.15555795 0.025596697 0.06354599 -0.09572756
-0.02187728 -0.15881948 -0.10374887 -0.12730652 -0.010670946 -0.03090619 -0.04927655 -0.050521985
0.03610633 -0.02108727 -0.056169827 -0.1308484 -0.026423888 -0.1572185 0.05729226 0.06281248
-0.006363428 -0.048992552 0.013870423 0.06202197 -0.11177929 -0.15512921 -0.13075902 -0.13667803
-0.151914 -0.066140346 0.006138179 -0.14513083 -0.13351305 -0.0023492596 -0.014723668 0.039737944
-0.116899975 -0.027489414 -0.05739751 0.053834997 -0.08178539 -0.10454713 0.1111914 -0.10007271
00000000: 2e17 193c d0cb 6c3d 36a1 ad3d d86b 883f
00000010: ff23 4a3e 132c da3f 7a95 fdbe 4b3f cd3e
00000020: 7cc7 923f 6cbd cabf 62d4 893e ff03 9e3e
00000030: a484 5c3f 3c6c 213f f400 e6be 33dc 253f
00000040: 32b1 12be a8f7 723f a590 2b3e 1b02 603f
00000050: 8d41 aa3f 523e 933f 96e4 bcbe 2898 96be
00000060: cc7b 813e 5bc8 ff3f cc1e 4bbf 10d5 4a3e
00000070: 69c8 f53f 3c5c 903f 8c07 c5be 67e6 14bf
00000080: 6d9f 5dbf 57e9 86bf 024b 1a3e 217a 623f
00000090: 26b3 b03f a0f9 413f 6f1d 45be d078 2e3e
000000a0: bde6 593e 23c1 b9bf 5277 49bb 0d60 5b3f
000000b0: 1f64 93bf 377c b3bf c445 bf3e b6bd da3e
000000c0: b2c2 ccbe 4206 1e3f 1077 1c40 d5ac 473d
000000d0: a5eb 41bf 90d2 24be acca 883f 0233 e43f
000000e0: 870d 8d3e 81fb e73c 6cba 4a3e 7fe8 a73f
000000f0: 29fc a8bf ed48 f6be 18aa a03e 84a9 143f
00000100: dfaa 0dbd 9a41 aebd f60a bcbd 693b f4bd
00000110: 6053 91bd 6006 ea3b ac6d 2c3d ca7f 29be
00000120: 920b a7bd 2d18 0ebe a14a a7bd 1b3a 06be
00000130: eb79 19be d6cb 00ba a3ee efbd fc76 56bd
00000140: 1f60 343d 2ca9 a8bc d0c4 e23c a49a 2ebe
00000150: 5bb4 c9bd 619d 93bc 18e0 56bd 020a f3bd
00000160: f97d ccbc e287 4fbd d80c 97bd f39c f3bc
00000170: 0609 ceba 85b0 4dbd 76f9 96bd 81a3 18be
00000180: 75a0 ebbd 922d 1fbe 6cdf 22be 3e3e 4a3d
00000190: c58b e0bd b863 253d 7c55 1dbd 08aa 6b3d
000001a0: 806d d73d f7ac a1bb 94b0 d0bd 0b65 35be
000001b0: 9cc7 8dbd 9ad1 38be e648 06be f818 99bd
000001c0: 63e1 2bbe 3841 b8bd 0b86 173d a358 1c3c
000001d0: b3bc 8abd d118 27bd 0d46 f8bd 46ef c5bc
000001e0: 4c2b 4dbd 7480 50bd 6b0f d4bc df5e 2dbd
000001f0: dd0e b7bd 784b e6bd 46f2 433c d2cb 09be
00000200: b8e4 2ebc 68a8 363a 2fa0 893d 23c0 d9bd
00000210: 561a eebd 9ab3 cebd 3c4e 793d 83d4 bfbc
00000220: 4890 563d a7b6 2e3d c4f9 35be acf0 32be
00000230: 4bb0 f9bd 80de 2dbd c768 16bd db9d 84bc
00000240: d19c efbd 9f6b 9cbd bf1a 87bd 8747 0abe
00000250: b580 10be 73d2 15be c3c8 443d 174c 593d
00000260: 0db2 25be bab6 37bd 0d8d 03be 5983 1fbe
00000270: 6bf8 8bbd 44ba 06be ec55 28be ec63 81bd
00000280: 8a02 a0bd 90ef 05bd 2048 403d 2593 33be
00000290: 3fc6 27be 1960 3c3d 96f8 ea3d ecea 0dbc
000002a0: 89f6 14be e420 32be d40b edbc 6035 a6bd
000002b0: 0caf 4cbd 4c37 4a3d 5863 cabd 3833 01be
000002c0: aee2 00bd cb6d 173d bbcc 663d c885 22be
000002d0: 26d9 fbbd 94b0 36be 678c 04be 7a47 51bb
000002e0: e6e2 b0bd ac38 2cbd cc41 01be 8d9c 65bd
000002f0: accb f7bd c424 c9ba 9205 81bd 04ed 693d
00000300: 9ab0 69bd db53 4f3d 0d22 bbbd 9c01 833d
00000310: f17b bfbd b73d 96bd a7ad d5bc 0d97 43bc
00000320: 3c9f d6bd 8c73 273c 4419 1a3e af51 213d
00000330: 252a 26be f8c3 d1bc c8b9 033c 1fb2 1abe
00000340: 0f44 a53b dbdb 18be 03d5 e6bd 2031 9dbd
00000350: 954a 1fbe 2ab0 d13c 6624 823d d00c c4bd
00000360: fb37 b3bc 93a1 22be 4a7a d4bd a45c 02be
00000370: 31d5 2ebc fa2e fdbc 35d6 49bd 24f0 4ebd
00000380: 3be4 133d 36bf acbc 5512 66bd 1ffd 05be
00000390: e976 d8bc e3fd 20be 4aab 6a3d d4a3 803d
000003a0: 4e84 d0bb 6aac 48bd c540 633c c00a 7e3d
000003b0: 8aec e4bd 31da 1ebe b1e5 05be 53f5 0bbe
000003c0: 588f 1bbe 9774 87bd c722 c93b 2d9d 14be
000003d0: a5b7 08be 09f6 19bb 8a3b 71bc 41c4 223d
000003e0: 4169 efbd 7b31 e1bc a719 6bbd 1682 5c3d
000003f0: 197f a7bd ce1c d6bd 51b8 e33d ecf2 ccbd

fc.0.bias f4 [32]
0.3180475 -0.0769322 -0.07224193 -0.15929464 -0.17963044 0.5033774 -0.13255885 0.18492258
0.028821668 0.56101865 0.010127392 0.39666662 -0.114530414 -0.027128248 -0.10809115 -0.02009632
0.037556626 0.32512337 -0.11667077 0.44297844 -0.25766397 0.0019789825 -0.16999385 -0.07662297
-0.11240854 -0.10861151 -0.12384823 -0.094821095 -0.106978334 0.0556417 0.40025607 0.32546395
00000000: 1fd7 a23e a18e 9dbd 94f3 93bd 221e 23be
00000010: 0bf1 37be 57dd 003f 82bd 07be 585c 3d3e
00000020: 6b1b ec3c eb9e 0f3f 5ced 253c e317 cb3e
00000030: ec8e eabd 0f3c debc e55e ddbd 0aa1 a4bc
00000040: fad4 193d 9276 a63e 16f1 eebd 12ce e23e
00000050: 88ec 83be d1b1 013b de12 2ebe 81ec 9cbd
00000060: 7336 e6bd b66f debd 24a4 fdbd 9031 c2bd
00000070: 7517 dbbd 8de8 633d 5dee cc3e 36a3 a63e

fc.2.weight f4 [16, 32]
-0.9186347 0.054045707 -0.1190471 0.018890703 -0.02886376 0.7863651 0.15580612 -0.6266396
0.09542738 0.9291027 0.1855064 0.99169296 -0.0029004216 0.12585069 0.11840254 0.13147107
0.09747316 -0.8493708 0.15688175 0.9149602 0.18362202 0.03459112 -0.18054684 -0.10475764
-0.013170891 -0.11719245 0.114958294 -0.16232039 -0.050754275 -0.06588354 1.1649978 -0.86833346
-0.053131536 -0.09496062 -0.047434248 0.069747224 0.020212052 -0.0507751 0.16439717 -0.09618644
-0.14081214 0.0157493 0.038138893 -0.0284151 -0.13142157 0.032395188 0.0068578124 0.008760459
0.014558221 -0.07468154 -0.10389573 -0.17220972 0.14688885 -0.01918076 -0.09539113 -0.15045302
0.07417484 0.030871853 -0.090050586 0.035497185 -0.02408244 0.045800477 -0.12142915 -0.2173935
-0.068561316 -0.096775144 0.16357538 0.09133751 -0.10530427 0.06625933 0.0007917434 -0.09646913
-0.088791706 -0.10288267 -0.022685034 0.038244635 0.035572253 -0.15332825 -0.04066871 0.07436942
0.10192571 -0.09926901 -0.051758736 -0.025807109 -0.012987439 -0.12879424 -0.001575321 -0.0999311
-0.07631711 0.025380433 -0.050704297 -0.13387024 -0.17682849 -0.13881078 -0.14399754 -0.08684395
-0.21280485 0.1603483 -0.10711054 -0.051120866 0.009209227 -0.017572658 -0.12732291 -0.23428206
0.08155979 -0.051162075 0.06915502 -0.081155226 -0.106805384 0.026200375 0.14506723 -0.123726
0.057952378 0.03095329 -0.1288456 -0.07231291 0.021786667 0.06347494 0.15531208 -0.0015759377
0.0029306668 -0.005174458 0.02878461 -0.015992785 0.07585122 -0.14866608 0.013337462 -0.20668185
-0.19217269 0.05588855 0.007985696 0.17521326 -0.063299 -0.07517884 -0.14302137 0.096716456
-0.09425211 -0.1783096 -0.15819846 0.041739326 0.06491618 -0.021489892 0.21587265 -0.02219209
-0.035651088 -0.21819824 0.068286106 -0.116734 -0.08077584 0.12466799 -0.13204502 0.047414824
-0.048316196 0.122146145 0.019615099 0.014525369 0.027147248 -0.015427828 -0.007805522 -0.17413701
1.6642253 0.15822293 0.07364205 0.030238718 0.13142937 1.1679144 -0.046132836 1.6101823
0.017806124 0.50795394 0.1406412 0.50404155 -0.036976077 -0.037220456 0.042273384 1.1695715
0.13246056 1.7730646 -0.030679462 0.4153862 -0.059427302 0.05499632 0.08982639 -0.09751221
-0.16831228 -0.01284822 0.059742853 -0.03605155 -0.13976799 -0.10677746 0.58440924 1.5813583
-0.9711326 0.105401345 0.02690462 -0.033629306 -0.05756888 0.4795584 0.009090426 -0.670483
0.06472633 0.9644764 -0.13982773 0.8478302 0.052331805 -0.06971441 0.09918908 -0.035887945
0.051200725 -1.0556117 0.028355267 1.0884739 0.1647869 -0.09055094 -0.03583096 -0.12951176
0.09046499 -0.15790378 -0.10204521 0.08854851 -0.061437014 -0.15669806 0.9016603 -0.98162854
1.287557 -0.097304195 0.002550602 -0.034253288 -0.04867281 0.65184104 0.16562225 1.3241197
0.017510578 -0.02242407 0.14782095 0.18819492 -0.11602909 -0.109536886 0.20968784 0.7770732
-0.20081227 1.30555 -0.19870728 -0.14881568 -0.18118475 0.2664809 0.11207445 -0.043266356
0.025986183 0.14202997 -0.17008896 0.062385913 0.058617894 -0.030183284 0.34959042 1.2250913
00000000: a52b 6bbf 085f 5d3d f7ce f3bd adc0 9a3c
00000010: b173 ecbc 394f 493f a48b 1f3e 746b 20bf
00000020: 6e6f c33d add9 6d3f 64f5 3d3e 97df 7d3f
00000030: 0015 3ebb 01df 003e 087d f23d 5aa0 063e
00000040: 02a0 c73d 5d70 59bf 9ca5 203e d53a 6a3f
00000050: 6907 3c3e 6baf 0d3d 45e1 38be 2c8b d6bd
00000060: b9ca 57bc 9802 f0bd 416f eb3d 5137 26be
00000070: b7e3 4fbd f3ed 86bd a61e 953f 1a4b 5ebf
00000080: 74a0 59bd b77a c2bd 6a4a 42bd a2d7 8e3d
00000090: bf93 a53c 8df9 4fbd bb57 283e 65fd c4bd
000000a0: 0f31 10be ad04 813c 8737 1c3d c9c6 e8bc
000000b0: 6093 06be d1b0 043d 80b7 e03b 0788 0f3c
000000c0: 9b85 6e3c a3f2 98bd 49c7 d4bd bf57 30be
000000d0: 086a 163e f820 9dbc 6d5c c3bd 5b10 1abe
000000e0: fae8 973d f8e6 fc3c 716c b8bd 7f65 113d
000000f0: 8a48 c5bc 4899 3b3d d9af f8bd 679c 5ebe
00000100: e069 8cbd 0c32 c6bd 4e80 273e 290f bb3d
00000110: c4a9 d7bd f9b2 873d 008d 4f3a 9b91 c5bd
00000120: 6dd8 b5bd 26b4 d2bd f7d5 b9bc 68a6 1c3d
00000130: 36b4 113d 1502 1dbe 3c94 26bd ff4e 983d
00000140: 6dbe d03d 8d4d cbbd f800 54bd 6e69 d3bc
00000150: 44c9 54bc a3e2 03be 007b ceba ada8 ccbd
00000160: 254c 9cbd a0ea cf3c 4faf 4fbd 4815 09be
00000170: 8712 35be 6a24 0ebe 1774 13be 3edb b1bd
00000180: 84e9 59be 5832 243e c55c dbbd 1d64 51bd
00000190: 4ce2 163c 89f4 8fbc f060 02be a3e7 6fbe
000001a0: d208 a73d 538f 51bd 26a1 8d3d b634 a6bd
000001b0: c8bc dabd 2ba2 d63c 818c 143e 0f64 fdbd
000001c0: 795f 6d3d c191 fd3c 1af0 03be ca18 94bd
000001d0: f479 b23c 26ff 813d 210a 1f3e b28f ceba
000001e0: 6e10 403b 808e a9bb b4cd eb3c 4d03 83bc
000001f0: e257 9b3d ec3b 18be 5f85 5a3c 68a4 53be
00000200: ebc8 44be 64eb 643d 70d6 023c 1b6b 333e
00000210: e8a2 81bd 5df7 99bd 3274 12be 4713 c63d
00000220: 4007 c1bd cb96 36be c7fe 21be dbf6 2a3d
00000230: c6f2 843d 920b b0bc b80d 5d3e 30cc b5bc
00000240: e006 12bd 5c6f 5fbe 96d9 8b3d 3c12 efbd
00000250: ce6d a5bd ee51 ff3d cf36 07be 0c36 423d
00000260: 34e7 45bd c227 fa3d d8af a03c d0fb 6d3c
00000270: e863 de3c 00c5 7cbc 77c5 ffbb f950 32be
00000280: 5605 d53f 3105 223e a5d1 963d 30b7 f73c
00000290: 6c95 063e 387e 953f c9f5 3cbd 741a ce3f
000002a0: 26de 913c 4509 023f 3f04 103e de08 013f
000002b0: 3a74 17bd 7a74 18bd db26 2d3d 85b4 953f
000002c0: bea3 073e c8f3 e23f 7f53 fbbc 80ad d43e
000002d0: 0b6a 73bd d243 613d e6f6 b73d 7bb4 c7bd
000002e0: 0e5a 2cbe 5781 52bc ecb4 743d caaa 13bd
000002f0: 571f 0fbe 24ae dabd d89b 153f f369 ca3f
00000300: 259c 78bf a9dc d73d 1467 dc3c e2be 09bd
00000310: 59cd 6bbd ae88 f53e 03f0 143c c6a4 2bbf
00000320: 3d8f 843d ede7 763f 002f 0fbe 660b 593f
00000330: e059 563d 6ec6 8ebd a523 cb3d 3dff 12bd
00000340: dab7 513d 491e 87bf 4e49 e83c 1d53 8b3f
00000350: e6bd 283e c572 b9bd 7cc3 12bd bb9e 04be
00000360: b545 b93d 87b1 21be 14fd d0bd ec58 b53d
00000370: 61a5 7bbd 7575 20be 36d3 663f 024c 7bbf
00000380: abce a43f 6c47 c7bd 0028 273b 2d4d 0cbd
00000390: 245d 47bd 0edf 263f e198 293e c17c a93f
000003a0: 5872 8f3c afb2 b7bc 605e 173e 2bb6 403e
000003b0: a9a0 edbd e054 e0bd 69b8 563e 45ee 463f
000003c0: bba1 4dbe 431c a73f ec79 4bbe 2363 18be
000003d0: 7f88 39be 2f70 883e 4a87 e53d 1038 31bd
000003e0: fae0 d43c 4e70 113e cd2b 2ebe 5f88 7f3d
000003f0: 5119 703d ef42 f7bc 84fd b23e cbcf 9c3f

fc.2.bias f4 [16]
0.5582 -0.2415579 -0.11837941 -0.0043901554 -0.024949173 0.7169537 0.17347434 0.60476923
0.04683447 0.5469337 0.043543223 0.36690208 -0.025044696 0.3533083 -0.025552321 -0.23487167
00000000: 32e6 0e3f f45a 77be e770 f2bd 4bdb 8fbb
00000010: 3562 ccbc 478a 373f 42a3 313e 28d2 1a3f
00000020: 80d5 3f3d d903 0c3f 615a 323d 97da bb3e
00000030: 892a cdbc d3e4 b43e 1a53 d1bc 3382 70be

fc.4.weight f4 [8, 16]
-0.03403029 0.00050348043 0.21124181 -0.09926045 0.138636 0.009708554 0.18372545 -0.1187852
-0.10747939 -0.09254432 0.14285013 -0.22705534 0.09951952 -0.026767135 -0.049274087 -0.048173577
-0.13889466 0.080125734 -0.010863524 0.05822024 -0.14313993 -0.2582253 -0.1798353 -0.32464248
-0.040268905 -0.32164183 0.026257869 -0.03945503 0.16393287 0.30625904 -0.017610935 0.044485684
-0.11185379 -0.084721655 0.07236174 -0.2613691 0.11551287 1.0709388 -0.5944224 1.0171429
-0.08003269 -0.55474895 -0.005897057 -0.36165342 0.12982559 1.1666665 -0.119158864 -0.117473446
0.9616568 0.015254161 -0.21290489 -0.13927059 -0.24305183 1.3035276 1.0659351 0.9941968
-0.32389173 0.8598157 -0.00824522 1.0314189 0.045611452 0.8990074 0.03519157 -0.18187454
0.06471351 -0.012478584 0.11282819 -0.30873105 -0.13918227 -0.12844767 0.031261653 0.06419188
-0.3013431 -0.30609182 -0.08641822 -0.17660514 -0.08940336 0.016533948 0.18771788 0.08132321
0.05316964 0.05794102 0.14050859 0.109633 0.19963157 -0.26681736 -0.14973444 -0.007451266
-0.1553613 0.102462605 0.24637961 -0.13649796 -0.24513435 -0.23766392 -0.06370106 0.081860095
-0.2246446 -0.1515159 -0.1114947 0.26489177 -0.16136281 0.036163524 0.07307959 0.058324184
0.25711897 -0.12492831 0.043884486 0.10605799 0.17631422 -0.2063549 -0.06925328 0.13079277
1.2009721 0.07943747 0.011235871 -0.14555196 -0.04044508 0.2638124 1.234879 0.09050739
-0.16266079 1.4961945 -0.20844378 1.2625202 -0.12433298 -0.6376053 0.24766977 0.0021666817
00000000: 5863 0bbd 00fc 033a c64f 583e 1049 cbbd
00000010: 98f6 0d3e a010 1f3c 8622 3c3e a845 f3bd
00000020: 281e dcbd e087 bdbd 4e47 123e 3281 68be
00000030: e4d0 cb3d c046 dbbc a0d3 49bd a851 45bd
00000040: 673a 0ebe f618 a43d ecfc 31bc 5978 6e3d
00000050: 4693 12be 1b36 84be bf26 38be 8a37 a6be
00000060: 02f1 24bd 3dae a4be be1a d73c 999b 21bd
00000070: 05de 273e fccd 9c3e cf44 90bc 9f36 363d
00000080: 9a13 e5bd 8c82 adbd 6432 943d 2cd2 85be
00000090: 0392 ec3d 8614 893f 112c 18bf bd31 823f
000000a0: 2ee8 a3bd 0704 0ebf 193c c1bb a32a b9be
000000b0: 00f1 043e 5455 953f 9009 f4bd eb95 f0bd
000000c0: 242f 763f 97ec 793c bd03 5abe f39c 0ebe
000000d0: 94e2 78be fed9 a63f 9070 883f ae83 7e3f
000000e0: 23d5 a5be e21c 5c3f f616 07bc 8905 843f
000000f0: 13d3 3a3d 5925 663f 0925 103d 523d 3abe
00000100: 8488 843d fa72 4cbc 7712 e73d ff11 9ebe
00000110: cc85 0ebe c987 03be 380c 003d 0877 833d
00000120: a549 9abe 11b8 9cbe 09fc b0bd fad7 34be
00000130: 1c19 b7bd 3472 873c 1e39 403e c88c a63d
00000140: 69c8 593d 9053 6d3d 7ce1 0f3e 4487 e03d
00000150: 386c 4c3e 499c 88be fc53 19be c029 f4bb
00000160: 0817 1fbe ead7 d13d f04a 7c3e 1fc6 0bbe
00000170: 8004 7bbe 2c5e 73be b475 82bd 44a6 a73d
00000180: 3c09 66be fc26 1bbe 5557 e4bd e59f 873e
00000190: 4b3c 25be 3420 143d c1aa 953d 57e5 6e3d
000001a0: 19a5 833e 6ada ffbd 38c0 333d ee34 d93d
000001b0: b78b 343e b34e 53be aad4 8dbd 8aee 053e
000001c0: 74b9 993f 1db0 a23d a916 383c 930b 15be
000001d0: bda9 25bd 6b12 873e 8410 9e3f f05b b93d
000001e0: 8d90 26be 4d83 bf3f 4972 55be 439a a13f
000001f0: 4aa2 febd 1a3a 23bf 259d 7d3e e3fe 0d3b

fc.4.bias f4 [8]
-0.20392558 0.06277352 0.8391126 0.6084792 0.025631426 -0.24689792 0.0491714 0.70122457
00000000: ded1 50be 678f 803d 15d0 563f 4bc5 1b3f
00000010: fff8 d13c cfd2 7cbe f367 493d 7483 333f

fc.6.weight f4 [4, 8]
0.006910771 -0.33137935 1.5644735 0.36790472 -0.00019894101 -0.14776866 -0.12779512 -0.33306322
-0.14522131 -0.027663678 0.01575495 -0.27231285 -0.04387942 0.27585602 0.15350555 -0.026242398
-0.055801004 -0.008764739 1.3076296 0.7144668 0.049943876 0.008544475 -0.056197315 -0.64138347
-0.16177131 -0.20252666 -0.97996736 0.9735011 0.038987815 -0.021730209 -0.05511072 1.5346198
00000000: c073 e23b 8eaa a9be ab40 c83f 025e bc3e
00000010: d29a 50b9 ab50 17be b9dc 02be 4387 aabe
00000020: e5b4 14be f09e e2bc 8610 813c 976c 8bbe
00000030: e8ba 33bd 003d 8d3e 8f30 1d3e 4cfa d6bc
00000040: 988f 64bd fb99 0fbc 6860 a73f 4ce7 363f
00000050: f391 4c3d 20fe 0b3c 282f 66bd b531 24bf
00000060: 61a7 25be 2663 4fbe 24df 7abf 5e37 793f
00000070: b0b1 1f3d 8d03 b2bc c7bb 61bd 6c6e c43f

fc.6.bias f4 [4]
0.90926784 -0.3663812 0.9334237 0.93584114
00000000: c7c5 683f 5196 bbbe dbf4 6e3f 4993 6f3f

output.weight f4 [1, 4]
1.1159482 0.19350612 1.4272784 -1.4847107
00000000: 64d7 8e3f 7826 463e 0fb1 b63f 000b bebf

exp_avg f4 [8, 2, 3, 3]
-1725.0946 4531.062 -1146.5654 1108.7548 6595.654 -6662.52 -11799.58 2819.8455
-22062.488 -563.21094 -1038.3925 916.2591 370.1903 -3.3074666e-05 1933.9932 217.68446
-67.55626 1903.2998 25603.398 12890.316 -16884.465 3129.0278 12019.477 27072.072
25602.977 -3776.4766 3091.9683 3777.6365 3522.087 1930.556 965.7265 -0.0005252956
-1481.0787 -1108.6434 -2247.0156 -3199.4 -7726.9653 -7532.957 3122.081 12181.492
-8273.526 -1986.1995 -27700.857 -21547.451 -19373.242 -4659.1855 -4230.634 -4180.862
-571.29504 -0.00043368744 -6.5636687 4.6550207 997.9857 1044.0201 5134.6616 -2179.0334
-20996.865 9309.89 629.0942 34.535095 -11027.46 -44189.664 -3266.1545 -2582.7444
4194.793 3078.663 -6945.7046 -0.0018667651 730.4829 -10837.606 -7323.283 -4278.724
-6446.077 -14266.846 15957.72 -8886.342 1308.2328 12927.227 5613.4653 38010.758
197.57063 -181.02043 -278.387 -1493.3668 -231.01616 -5.9096415e-05 -650.88574 -1884.362
-1678.7844 -1511.7308 -9869.73 -18281.584 -8960.002 -7203.077 -23580.31 -14069.518
15829.401 -15352.839 -653.488 -1235.3069 2683.4702 1213.3898 -3979.5469 0.0002197062
-1236.4816 -4558.7085 -1051.4191 -1957.6523 8469.594 44804.28 5322.548 65806.805
2662.2231 29396.984 6792.9634 -2565.4114 -6001.3315 1929.8833 2099.9797 2134.577
504.996 0.00052898 138.07373 -4098.7627 -6337.2695 -5942.987 -7211.4897 21192.104
7932.511 -20926.47 -10412.882 -8847.825 -9766.535 3884.055 -831.4258 819.99225
1284.2244 464.63577 -503.90225 8.532544e-05 -768.9799 -1769.1713 -1337.5681 -1779.864
00000000: 07a3 d7c4 7f98 8d45 1852 8fc4 2798 8a44
00000010: 3b1d ce45 2934 d0c5 525e 38c6 873d 3045
00000020: fa5c acc6 80cd 0cc4 8fcc 81c4 9510 6544
00000030: 5c18 b943 a7b9 0ab8 c8bf f144 39af 5943
00000040: ce1c 87c2 98e9 ed44 cc06 c846 4469 4946
00000050: eee8 83c6 7290 4345 e8cd 3b46 2580 d346
00000060: f405 c846 a007 6cc5 7e3f 4145 2f1a 6c45
00000070: 6421 5c45 cb51 f144 7f6e 7144 feb3 09ba
00000080: 8522 b9c4 9794 8ac4 4070 0cc5 66f6 47c5
00000090: b977 f1c5 a867 ebc5 4c21 4345 f855 3e46
000000a0: 1b46 01c6 6246 f8c4 b769 d8c6 e756 a8c6
000000b0: 7c5a 97c6 7c99 91c5 1235 84c5 e5a6 82c5
000000c0: e2d2 0ec4 8b60 e3b9 9309 d2c0 eef5 9440
000000d0: 167f 7944 a580 8244 4b75 a045 8930 08c5
000000e0: bb09 a4c6 8f77 1146 0746 1d44 f023 0a42
000000f0: d74d 2cc6 aa9d 2cc7 7922 4cc5 e96b 21c5
00000100: 5816 8345 9c6a 4045 a30d d9c5 3eae f4ba
00000110: e89e 3644 6d56 29c6 44da e4c5 cbb5 85c5
00000120: 9e70 c9c5 62eb 5ec6 e156 7946 5ed9 0ac6
00000130: 7387 a344 e8fc 4946 b96b af45 c27a 1447
00000140: 1592 4543 3b05 35c3 8931 8bc3 bdab bac4
00000150: 2304 67c3 4bde 77b8 b0b8 22c4 968b ebc4
00000160: 1ad9 d1c4 63f7 bcc4 ec36 1ac6 2bd3 8ec6
00000170: 0200 0cc6 9e18 e1c5 9f38 b8c6 12d6 5bc6
00000180: 9b55 7746 5be3 6fc6 3b5f 23c4 d269 9ac4
00000190: 86b7 2745 79ac 9744 c0b8 78c5 ef60 6639
000001a0: 698f 9ac4 ab75 8ec5 696d 83c4 e0b4 f4c4
000001b0: 6056 0446 4804 2f47 6254 a645 6787 8047
000001c0: 9263 2645 f8a9 e546 b547 d445 9556 20c5
000001d0: a78a bbc5 443c f144 ad3f 0345 3b69 0545
000001e0: 7d7f fc43 3fab 0a3a e012 0a43 1a16 80c5
000001f0: 280a c6c5 e5b7 b9c5 eb5b e1c5 3590 a546
00000200: 17e4 f745 f17c a3c6 87b3 22c6 4d3f 0ac6
00000210: 249a 18c6 e1c0 7245 40db 4fc4 81ff 4c44
00000220: 2e87 a044 6151 e843 7df3 fbc3 bff0 b238
00000230: b73e 40c4 7b25 ddc4 2e32 a7c4 a67b dec4

exp_avg_sq f4 [8, 2, 3, 3]
2.3558907e+09 1.5701457e+09 2.0140927e+09 1.7386461e+09 1.5944365e+09 2.965837e+09 3.037392e+09 3.0295004e+09
2.3905533e+09 3.7037824e+07 4.4583252e+07 3.691461e+07 6.0343675e+06 2.9038808e-06 1.1668331e+07 2.3068486e+07
1.4524021e+07 2.764557e+07 9.966704e+09 5.239185e+09 5.7831316e+09 9.985144e+08 9.508268e+08 7.3276134e+09
4.6928773e+09 1.5278779e+09 3.417807e+08 1.9348186e+08 2.1275526e+08 1.9380712e+08 1.1297589e+07 1.1879596e-05
3.3870996e+07 8.720034e+07 9.925822e+07 1.1025738e+08 7.5909e+08 6.334176e+08 9.5771565e+08 2.097217e+09
3.3742776e+09 2.372059e+09 7.374441e+09 5.9871355e+09 6.743092e+09 2.356985e+08 2.4957563e+08 2.15112e+08
2.322026e+07 5.4629677e-06 6.960498e+06 2.0899238e+07 1.177451e+07 2.111148e+07 4.9334013e+08 5.13814e+09
5.313206e+09 6.2424224e+08 4.1899562e+08 4.116719e+08 9.704865e+08 6.267644e+09 3.5886408e+09 7.093604e+07
2.5621949e+08 2.472697e+08 2.2043347e+08 2.5551708e-05 6.2007336e+07 4.4738285e+08 2.3435808e+08 1.8756232e+08
7.1709665e+09 3.3384218e+09 4.026642e+09 2.0419489e+09 3.0626934e+09 1.4694249e+09 8.780931e+08 4.4710794e+09
6.1904154e+08 2.330687e+07 1.6453263e+07 2.9459788e+07 1.2338493e+07 3.5297207e-06 1.8705608e+07 7.188892e+07
8.272393e+07 6.3659652e+07 1.1845048e+09 2.8080548e+09 4.03575e+08 8.8632646e+08 3.0776438e+09 3.6647967e+09
1.6440504e+09 3.1749192e+09 1.5815334e+09 8.2577096e+07 1.946307e+07 2.9355676e+07 9.451441e+07 2.352236e-06
1.3930265e+07 1.6879142e+08 2.2713094e+07 2.1830924e+07 6.1345715e+09 6.6143826e+09 7.533076e+09 1.5152244e+10
9.7903597e+08 1.1279929e+10 2.4431933e+08 3.560156e+08 1.1138228e+09 9.918821e+07 1.5912947e+08 1.3558437e+08
4.070168e+07 1.2963544e-05 2.569174e+07 2.2836243e+08 2.735675e+08 2.5486085e+08 1.7370327e+09 2.3854454e+09
1.8206199e+09 2.787738e+09 3.0483773e+09 2.709531e+09 1.8044545e+09 1.410945e+09 2.390373e+09 1.6845718e+07
1.0386063e+07 2.4565894e+07 7.772964e+06 2.968315e-06 1.7135578e+07 4.8699324e+07 4.2688428e+07 3.4003736e+07
00000000: 0a6c 0c4f 0b2d bb4e 3b19 f04e 4543 cf4e
00000010: 5712 be4e 15c7 304f ec0a 354f 8292 344f
00000020: f37c 0e4f c049 0d4c 5512 2a4c 6cd1 0c4c
00000030: 7f27 b84a 4be0 4236 6b0b 324b a3ff af4b
00000040: 759e 5d4b 41eb d24b f583 1450 cf23 9c4f
00000050: cb59 ac4f 7c10 6e4e ddb1 624e 4161 da4f
00000060: d0db 8b4f 2223 b64e 47f9 a24d c884 384d
00000070: 34e6 4a4d 31d4 384d 3563 2c4b 7a4e 4737
00000080: 2535 014c 4a52 a64c ee51 bd4c 9c4c d24c
00000090: 2dfb 344e be04 174e 5356 644e fc01 fa4e
000000a0: 641f 494f bf62 0d4f 85c6 db4f 386e b24f
000000b0: b6f5 c84f 94c7 604d 8d03 6e4d 9425 4d4d
000000c0: 1228 b14b 894e b736 e46a d44a d372 9f4b
000000d0: 2eaa 334b 5c11 a14b 2f3e eb4d e620 994f
000000e0: 8b58 9e4f b9d4 144e edca c74d eb4c c44d
000000f0: cc61 674e 54ca ba4f 50e6 554f bd4c 874c
00000100: 9659 744d 94d0 6b4d c438 524d e057 d637
00000110: 0a8a 6c4c 2a54 d54d 5480 5f4d 95df 324d
00000120: 22b6 d54f 46fc 464f ae01 704f 566b f34e
00000130: fe8c 364f 4a2b af4e 8d5a 514e a13f 854f
00000140: 4c97 134e 3bd1 b14b 8f0e 7b4b a6c2 e04b
00000150: 3d45 3c4b 24e0 6c36 64b6 8e4b 031e 894c
00000160: 8bc8 9d4c a1d7 724c 3834 8d4e 845f 274f
00000170: 8770 c04d 1351 534e 1e71 374f 5c70 5a4f
00000180: 70fc c34e 6c3d 3d4f 9288 bc4e d980 9d4c
00000190: cf7d 944b 4ef7 df4b 9d45 b44c 1bdb 1d36
000001a0: 198f 544b d8f8 204d 8349 ad4b 868e a64b
000001b0: 11d3 b64f bc1f c54f cf80 e04f 39c9 6150
000001c0: 9d6b 694e 8415 2850 4600 694d f0c2 a94d
000001d0: 2dc7 844e be2f bd4c f8c1 174d a74d 014d
000001e0: bc43 1b4c ff7d 5937 2e03 c44b 8cc8 594d
000001f0: 7872 824d e30d 734d 0812 cf4e 022f 0e4f
00000200: e908 d94e 8229 264f 8cb2 354f 2980 214f
00000210: 951b d74e a032 a84e 337a 0e4f cb85 804b
00000220: 8f7a 1e4b 436c bb4b 4836 ed4a 4333 4736
00000230: edbb 824b efc5 394c ebd7 224c c6b6 014c

exp_avg f4 [8]
0.00020405915 -0.0009841403 -4.3879143e-05 -0.0011652855 -0.00018191419 -0.00012755238 0.000358559 -0.00030008887
00000000: b6f8 5539 45fe 80ba df0a 38b8 7ebc 98ba
00000010: 38c0 3eb9 95bf 05b9 f9fc bb39 3f55 9db9

exp_avg_sq f4 [8]
4.642312e-06 1.3013813e-05 6.8702984e-06 2.025326e-05 6.4554415e-06 6.7774236e-06 1.5918376e-05 5.2456935e-06
00000000: 28c5 9b36 e755 5a37 6a87 e636 8be5 a937
00000010: d29b d836 a069 e336 7488 8537 2a04 b036

exp_avg f4 [16, 8, 3, 3]
8947.53 3880.1301 -643.7695 8427.862 9682.54 5575.043 -3057.1343 -4842.566
-4743.7056 3338.5835 1244.0292 -1392.4119 -1186.7941 1184.6782 -782.8638 -2033.6592
-3327.2297 -4309.224 5136.684 1511.1088 1406.2584 2835.3594 4942.115 842.68774
-1463.3098 -3481.5034 -3764.7502 -99.61961 -598.13336 1095.1078 -2142.7725 -3436.8145
-2455.1724 -2132.3806 -3169.3687 -3326.929 5683.1895 1276.2794 590.3516 -245.77661
597.2058 -1117.963 -4139.122 -5227.8125 -5186.7505 3484.4175 1263.7936 -1451.2582
2249.9878 124.96811 462.83475 -644.7236 -4281.142 -3230.0042 1646.3634 799.4396
-27.350647 1395.616 -1173.0312 -2919.6992 -2153.1099 -2543.4805 -3561.4548 6702.24
6865.358 -2631.8196 14308.192 7286.7705 1625.8555 -2922.6243 -5054.9365 -3729.6099
-1220.6052 -11349.994 -7735.1895 9047.488 -5812.197 -8530.681 7567.46 4152.9385
-2191.981 -3295.4302 -8306.204 -4678.4976 5726.5703 -5732.3677 -2571.462 5504.9585
2738.1797 702.0444 -691.3358 -6698.896 -5761.7417 5256.28 550.20184 -8805.209
5357.3086 -3146.9355 -1107.1613 -3437.2039 -5548.273 -2716.5142 4130.286 -4473.9307
-1447.5747 7406.164 5727.1626 3181.8394 -2784.578 -10911.422 -7932.7847 5138.055
1514.707 -5414.565 10494.645 8520.534 -1039.0281 -1942.9021 -7873.8037 -5632.2646
3635.442 -5760.1216 -3831.179 4526.631 1009.63727 -2529.3704 -1464.6069 -6957.928
-6944.3975 3427.4229 -2431.279 -3792.4065 6515.9453 4556.6616 787.8119 -2200.8152
-6109.2104 -8662.68 -848.46533 3757.118 -8818.483 3468.53 3072.8516 -3885.8801
2769.9175 5026.1055 5566.6147 -4289.1943 1271.9614 1623.0911 -11998.431 -2982.5715
8627.641 -1745.7103 4054.5896 2766.8525 -911.30853 294.54803 6024.636 -5762.482
1115.9048 3449.322 675.97327 4010.0232 4403.9473 -9017.564 -2825.6523 3668.9163
-2485.991 -318.76147 4278.6523 -1883.5586 4498.8657 1817.3148 -4143.781 1282.6113
4577.033 -6305.77 2610.809 -1245.8661 92.68854 2300.6238 8658.4795 -3926.2942
1776.0886 2760.1228 -8236.142 -4035.7979 5267.5283 939.4568 3550.9187 3565.7275
-3154.1897 -2219.8523 4759.7583 -3441.7695 -1666.1669 5519.4673 -1705.9437 3207.0476
3450.6653 -2756.3318 1249.0681 4976.939 -4103.081 2748.6436 2044.7847 2160.7788
3528.2415 2592.6353 585.9645 -8972.313 4565.944 -747.015 -7580.2217 6796.302
-5087.753 -5550.633 271.41406 -2859.0962 -2408.4946 -4921.3135 106.60648 -1395.1763
-1837.8217 -4497.7354 -2126.9849 -3754.3804 -6381.934 -28.481634 849.0008 -722.82806
2544.5312 3167.7341 -3986.0837 -3032.952 -3196.9224 -2987.3967 1408.7827 -3447.4275
-1465.705 -48.260426 -850.116 -3258.4768 892.5954 -3406.6826 -3108.469 1849.2886
984.5721 -908.0038 3682.4019 4344.0737 -3669.8306 -4158.507 -4076.2034 -787.0193
00000000: 1fce 0b46 1582 7245 3ff1 20c4 73af 0346
00000010: 294a 1746 5838 ae45 2612 3fc5 8754 97c5
00000020: a53d 94c5 56a9 5045 ef80 9b44 2e0d aec4
00000030: 6959 94c4 b415 9444 48b7 43c4 1835 fec4
00000040: adf3 4fc5 cba9 86c5 7985 a045 7be3 bc44
00000050: 45c8 af44 c035 3145 ec70 9a45 04ac 5244
00000060: eae9 b6c4 0e98 59c5 014c 6bc5 3e3d c7c2
00000070: 8988 15c4 73e3 8844 5cec 05c5 08cd 56c5
00000080: c272 19c5 1746 05c5 e615 46c5 ddee 4fc5
00000090: 8499 b145 f188 9f44 8196 1344 d0c6 75c3
000000a0: 2c4d 1544 d1be 8bc4 fa58 81c5 805e a3c5
000000b0: 0116 a2c5 aec6 5945 65f9 9d44 4368 b5c4
000000c0: ce9f 0c45 acef f942 d96a e743 4f2e 21c4
000000d0: 23c9 85c5 11e0 49c5 a1cb cd44 22dc 4744
000000e0: 20ce dac1 b673 ae44 00a1 92c4 307b 36c5
000000f0: c291 06c5 b0f7 1ec5 4797 5ec5 ec71 d145
00000100: dd8a d645 1d7d 24c5 c590 5f46 2ab6 e345
00000110: 603b cb44 fda9 36c5 7ef7 9dc5 c219 69c5
00000120: 5e93 98c4 fa57 31c6 84b9 f1c5 f45d 0d46
00000130: 93a1 b5c5 b94a 05c6 ae7b ec45 82c7 8145
00000140: b2ff 08c5 e2f6 4dc5 d1c8 01c6 fb33 92c5
00000150: 90f4 b245 f122 b3c5 64b7 20c5 ab07 ac45
00000160: e022 2b45 d782 2f44 7ed5 2cc4 2b57 d1c5
00000170: ef0d b4c5 3d42 a445 eb8c 0944 d694 09c6
00000180: 786a a745 f8ae 44c5 2965 8ac4 43d3 56c5
00000190: 2f62 adc5 3ac8 29c5 4a12 8145 72cf 8bc5
000001a0: 64f2 b4c4 5071 e745 4df9 b245 6edd 4645
000001b0: 3f09 2ec5 b07d 2ac6 47e6 f7c5 7190 a045
000001c0: a056 bd44 8534 a9c5 94fa 2346 2322 0546
000001d0: e6e0 81c4 dedc f2c4 6e0e f6c5 1e02 b0c5
000001e0: 1237 6345 f900 b4c5 dd72 6fc5 0c75 8d45
000001f0: c968 7c44 ed15 1ec5 6c13 b7c4 6d6f d9c5
00000200: 2e03 d9c5 c436 5645 77f4 17c5 8106 6dc5
00000210: 909f cb45 4b65 8e45 f6f3 4444 0b8d 09c5
00000220: afe9 bec5 b85a 07c6 c81d 54c4 e3d1 6a45
00000230: efc9 09c6 7bc8 5845 a00d 4045 15de 72c5
00000240: ae1e 2d45 d810 9d45 ebf4 ad45 8e09 86c5
00000250: c4fe 9e44 eae2 ca44 b979 3bc6 2569 3ac5
00000260: 90ce 0646 bb36 dac4 6f69 7d45 a4ed 2c45
00000270: bfd3 63c4 2646 9343 1745 bc45 db13 b4c5
00000280: f47c 8b44 2795 5745 4afe 2844 5fa0 7a45
00000290: 949f 8945 42e6 0cc6 709a 30c5 a94e 6545
000002a0: db5f 1bc5 7861 9fc3 38b5 8545 e071 ebc4
000002b0: ed96 8c45 132a e344 3f7e 81c5 9053 a044
000002c0: 4408 8f45 290e c5c5 f22c 2345 b7bb 9bc4
000002d0: 8860 b942 fbc9 0f45 eb49 0746 b564 75c5
000002e0: d602 de44 f781 2c45 91b0 00c6 c43c 7cc5
000002f0: 3a9c a445 3cdd 6a44 b3ee 5d45 a4db 5e45
00000300: 0923 45c5 a3bd 0ac5 11be 9445 501c 57c5
00000310: 5745 d0c4 bd7b ac45 333e d5c4 c370 4845
00000320: a5aa 5745 4f45 2cc5 2e22 9c44 8387 9b45
00000330: a638 80c5 4cca 2b45 1c99 ff44 760c 0745
00000340: dd83 5c45 2a0a 2245 ba7d 1244 4131 0cc6
00000350: 8daf 8e45 f6c0 3ac4 c6e1 ecc5 6a62 d445
00000360: 06fe 9ec5 1075 adc5 00b5 8743 8ab1 32c5
00000370: ea87 16c5 82ca 99c5 8536 d542 a465 aec4
00000380: 4bba e5c4 e28d 8cc5 c2ef 04c5 16a6 6ac5
00000390: 796f c7c5 63da e3c1 0d40 5444 ffb4 34c4
000003a0: 8008 1f45 bffb 4545 5721 79c5 3b8f 3dc5
000003b0: c2ce 47c5 59b6 3ac5 0c19 b044 d776 57c5
000003c0: 8f36 b7c4 ad0a 41c2 6d87 54c4 a1a7 4bc5
000003d0: 1b26 5f44 ecea 54c5 8147 42c5 3c29 e744
000003e0: 9d24 7644 3e00 63c4 6e26 6645 97c0 8745
000003f0: 4a5d 65c5 0ef4 81c5 41c3 7ec5 3cc1 44c4

exp_avg_sq f4 [16, 8, 3, 3]
3.0078208e+08 1.6246574e+08 2.2849768e+07 1.8384284e+09 1.3139192e+09 4.3178906e+08 1.4657016e+08 2.6538776e+08
1.8350488e+08 1.5528915e+08 6.135016e+07 4.8254292e+07 1.16306136e+08 9.988347e+07 1.1856726e+08 9.675095e+07
1.9679061e+08 1.4670915e+08 4.2885037e+08 2.2289402e+08 1.0073065e+08 3.2043926e+08 3.010412e+08 1.2911858e+08
6.6315556e+07 1.3561891e+08 1.33134616e+08 7.469702e+07 6.1530484e+07 6.735663e+07 6.160832e+07 1.2799054e+08
1.0299469e+08 9.335768e+07 1.5626515e+08 1.3546291e+08 1.613814e+08 2.2042704e+08 7.674613e+07 2.2390075e+08
1.30393944e+08 1.0778711e+08 1.0626127e+08 2.296649e+08 2.0327232e+08 2.2457445e+08 8.647905e+07 4.413589e+07
3.0207075e+08 1.0443309e+08 1.0776906e+08 1.0407249e+08 2.7863846e+08 1.30748184e+08 9.1775976e+07 8.109414e+07
4.886259e+07 4.296486e+07 6.571325e+07 7.569817e+07 8.404982e+07 1.5935677e+08 1.4683595e+08 6.076021e+08
3.0576858e+08 7.9731624e+07 1.7189183e+09 1.5855395e+09 5.863266e+08 8.105181e+07 2.4277053e+08 2.2162085e+08
7.772705e+07 2.2204525e+08 3.1960416e+08 2.1207475e+08 5.497629e+08 1.3563304e+09 2.4503813e+08 1.5587912e+08
1.9147026e+08 1.10934344e+08 2.8691472e+08 2.0939642e+08 1.3903906e+08 1.1144901e+08 8.149954e+07 2.648044e+08
1.3651573e+08 1.1558272e+08 1.1086935e+08 3.438599e+08 4.3989142e+08 2.3304797e+08 9.1315896e+07 3.5492982e+08
9.304974e+07 4.097663e+07 4.8952496e+07 1.0399679e+08 2.9248058e+08 1.6305213e+08 8.678026e+07 4.897858e+07
7.8503256e+07 2.3896707e+08 1.9106426e+08 2.0129024e+08 1.0545767e+08 3.0262144e+08 3.1822272e+08 1.4250859e+08
1.22836824e+08 1.6633976e+08 4.7909622e+08 3.1352102e+08 1.9781331e+08 1.7857536e+08 3.7690243e+08 3.1759603e+08
1.6451755e+08 3.3563504e+08 2.6179018e+08 2.3771781e+08 9.0011384e+07 1.0686686e+08 8.579696e+07 2.6299086e+08
1.6949394e+08 1.008479e+08 2.8991976e+07 7.463279e+07 2.987878e+08 1.9079126e+08 1.636364e+08 7.948619e+07
2.4779824e+08 4.1159725e+08 1.6162038e+08 2.750374e+08 1.4773375e+09 2.158919e+08 1.6893397e+08 1.4516723e+08
6.305052e+07 1.4031624e+08 3.1020048e+08 4.0378726e+08 3.4427635e+08 3.226507e+08 5.805663e+08 3.5566266e+08
2.8122006e+08 7.721924e+07 2.5635704e+08 2.2702427e+08 1.6919731e+08 4.9846044e+07 1.7650798e+08 2.9968726e+08
7.513643e+07 1.1733484e+08 7.241085e+07 1.6197818e+08 2.4738214e+08 3.6015504e+08 1.455414e+08 1.5032058e+08
1.4445162e+08 2.5352256e+08 3.4634605e+08 8.687497e+07 2.5752789e+08 1.5075995e+08 8.455008e+07 6.5111056e+07
1.6124366e+08 2.1591062e+08 9.631643e+07 1.3934192e+08 9.365683e+07 2.4885867e+08 2.5881987e+08 3.9399968e+08
1.262098e+08 2.604826e+08 3.5049606e+08 3.4715494e+08 2.4284707e+08 7.774024e+07 2.8201578e+08 2.8443446e+08
3.4922022e+08 1.4726272e+08 2.0554048e+08 3.7459923e+08 1.8514206e+08 1.9510848e+08 7.679377e+07 2.3891654e+08
1.7023234e+08 1.3499128e+08 4.8059416e+07 1.7900048e+08 2.2648018e+08 1.0139297e+08 1.30683736e+08 7.990753e+07
7.867201e+07 2.1805549e+08 3.9725376e+08 3.3586237e+08 3.2238938e+08 4.3114595e+08 3.9270662e+08 3.843272e+08
7.567241e+07 1.0474857e+08 7.1660696e+07 2.7754675e+08 8.383327e+08 1.0364774e+09 6.6807676e+07 1.4753176e+08
1.5345755e+08 8.480355e+07 1.2278664e+08 1.4937069e+08 7.446684e+07 5.6978024e+07 6.523028e+07 6.75181e+07
1.3156228e+08 1.3987418e+08 1.3720208e+08 3.104221e+08 3.0162006e+08 6.7533496e+07 1.19791896e+08 2.1779603e+08
2.8648862e+07 4.1753068e+07 4.619497e+07 8.3232296e+07 1.2093537e+08 1.549205e+08 3.7242344e+07 4.2242052e+07
1.03727e+08 6.915301e+07 1.383844e+08 1.7018482e+08 8.743006e+07 1.973548e+08 1.4704834e+08 8.889503e+07
00000000: 906c 8f4d 7df0 1a4d 7454 ae4b 6228 db4e
00000010: a2a1 9c4e a0e4 cd4d bbc7 0b4d ef17 7d4d
00000020: ff00 2f4d 6418 144d 4408 6a4c 5513 384c
00000030: 1bd6 dd4c 3a83 be4c 2c26 e24c ad89 b84c
00000040: 95ac 3b4d aae9 0b4d e67d cc4d 7c91 544d
00000050: e320 c04c 1fcc 984d 328c 8f4d 2e46 f64c
00000060: 49f9 7c4c 1656 014d 23ef fd4c 2879 8e4c
00000070: 5db8 6a4c fb78 804c 6004 6b4c 621f f44c
00000080: 6072 c44c ce10 b24c ac06 154d 0030 014d
00000090: c2e7 194d 3237 524d b261 924c 4587 554d
000000a0: ebb4 f84c 6d96 cd4c 63ad ca4c 8806 5b4d
000000b0: 08db 414d bf2b 564d 19f2 a44c 745d 284c
000000c0: df09 904d b830 c74c 9c8d cd4c a580 c64c
000000d0: 7cdd 844d e361 f94c 7d0c af4c c0ac 9a4c
000000e0: 6065 3a4c dfe5 234c 18ad 7a4c ff61 904c
000000f0: f44f a04c 76f9 174d 9f08 0c4d 17dd 104e
00000100: 44cd 914d 7513 984c 39e9 cc4e d302 bd4e
00000110: 89ca 0b4e 1498 9a4c 2686 674d a75a 534d
00000120: a940 944c 44c2 534d 2e66 984d 1040 4a4d
00000130: dd12 034e ebaf a14e c3af 694d 6da8 144d
00000140: ab99 364d 2997 d34c c5cf 884d 2cb2 474d
00000150: 1599 044d 7692 d44c b272 9b4c 8389 7c4d
00000160: 0931 024d e074 dc4c 6d77 d34c 16f7 a34d
00000170: afc1 d14d 7a40 5e4d d72b ae4c 653e a94d
00000180: 727a b14c 3e50 1c4c 2cbd 3a4c af5b c64c
00000190: 3277 8b4d a67f 1b4d 2c85 a54c a5d6 3a4c
000001a0: abbb 954c 92e5 634d 8c36 364d 20f7 3f4d
000001b0: 0125 c94c 184d 904d 8cbd 974d 23e8 074d
000001c0: eb4a ea4c 4ba2 1e4d 6d73 e44d 9c7f 954d
000001d0: 44a6 3c4d 804d 2a4d 99b8 b34d 0c71 974d
000001e0: 6be5 1c4d 130b a04d 9ea9 794d 93b4 624d
000001f0: dfae ab4c 16d5 cb4c 0ca5 a34c c1ce 7a4d
00000200: 5ba4 214d 245a c04c f430 dd4b cb59 8e4c
00000210: 1f79 8e4d e6f3 354d 4b0e 1c4d 9e9b 974c
00000220: 9e51 6c4d ce43 c44d 1a22 1a4d e725 834d
00000230: c31c b04e fce3 4d4d a51b 214d 3871 0a4d
00000240: c684 704c e5d0 054d 45ea 934d 708a c04d
00000250: ec29 a44d 12da 994d f46a 0a4e da97 a94d
00000260: 9f18 864d b548 934c 2b7b 744d d981 584d
00000270: f05b 214d c725 3e4c c554 284d ebe6 8e4d
00000280: b64f 8f4c 67cc df4c dc1c 8a4c 7479 1a4d
00000290: 08ec 6b4d 3dbc ab4d 92cc 0a4d 5c5b 0f4d
000002a0: 82c2 094d 28c7 714d 9226 a54d 6bb3 a54c
000002b0: 0599 754d a1c6 0f4d 3844 a14c 0461 784c
000002c0: 21c6 194d 8ee8 4d4d 82b5 b74c 06e3 044d
000002d0: e0a2 b24c 8354 6d4d 72d4 764d aadf bb4d
000002e0: e1b9 f04c 626a 784d 2a21 a74d 5089 a54d
000002f0: d698 674d 1a47 944c c179 864d 01a1 874d
00000300: 6c85 a64d d070 0c4d c804 444d 729f b24d
00000310: b390 304d e811 3a4d f578 924c 3cd9 634d
00000320: a158 224d dbbc 004d 0655 374c 4ab5 2a4d
00000330: 03fd 574d 4964 c14c 6b42 f94c 5969 984c
00000340: 110e 964c 34f4 4f4d e46c bd4d d326 a04d
00000350: 2cba 994d 1f96 cd4d d241 bb4d f142 b74d
00000360: 6b55 904c c3ca c74c 93ae 884c 3858 844d
00000370: c4df 474e 8f1d 774e dfd9 7e4c 7fb2 0c4d
00000380: 3959 124d fcbf a14c 6a32 ea4c 7473 0e4d
00000390: c308 8e4c 9a5a 594c 72d5 784c d2c7 804c
000003a0: 65ef fa4c f864 054d 9ad8 024d 5305 944d
000003b0: dbd2 8f4d 57cf 804c 237c e44c dcb4 4f4d
000003c0: cf92 da4b 7b46 1f4c 4638 304c c5c0 9e4c
000003d0: 79aa e64c 63be 134d 7a11 0e4c 0124 214c
000003e0: f3d7 c54c 1ee6 834c 41f9 034d 074d 224d
000003f0: 76c2 a64c 5336 3c4d 793c 0c4d c78d a94c

exp_avg f4 [16]
-0.00014817878 7.16362e-06 0.00013170352 0.00056387135 -4.6094727e-05 -0.0009788388 -0.0008030739 -0.0006379256
0.0003100192 -0.00070025056 -0.0001604728 7.8655066e-05 -0.00017781147 0.0014400389 -0.00027915277 -0.0004189824
00000000: 7060 1bb9 075f f036 e519 0a39 c4d0 133a
00000010: d655 41b8 614c 80ba 6185 52ba 763a 27ba
00000020: 138a a239 0591 37ba 9744 28b9 9ef3 a438
00000030: e772 3ab9 b0bf bc3a 405b 92b9 deaa dbb9

exp_avg_sq f4 [16]
2.2781655e-06 4.4149656e-06 6.220408e-06 4.526311e-06 2.2097622e-06 8.632163e-06 3.7529705e-06 2.0510683e-06
6.656203e-06 7.065579e-06 3.4825766e-06 1.0557351e-05 3.0180688e-06 6.1394258e-06 2.566999e-06 1.4974441e-05
00000000: 96e2 1836 4424 9436 e6b8 d036 b7e0 9736
00000010: 6d4b 1436 dcd2 1037 8bdb 7b36 16a5 0936
00000020: 5958 df36 dd14 ed36 36b6 6936 7a1f 3137
00000030: 078a 4a36 4401 ce36 b544 2c36 bc3a 7b37
