output/cnn/blue-2/checkpoints/epoch_3.pt (torch, 65582 bytes, 39 tensors)

conv.0.weight f4 [8, 2, 3, 3]
000000 9f 7c 4e be 05 80 d4 bd 6c bf 0a be fa d9 93 bf
       -0.20164727 -0.1037598 -0.13549584 -1.1550896
000010 49 9d 48 3e b3 7b 2c bf 93 f9 0c be 2d 89 52 be
       0.1959125 -0.6737625 -0.1376708 -0.20560141
000020 8f e7 9e 3e 9c 7f b7 3d a9 29 44 3e 79 85 a6 3e
       0.3103604 0.089598864 0.19156517 0.32523707
000030 e8 c8 b4 3e b4 88 9e 3d bc d3 28 3d 03 39 5e 3d
       0.3530953 0.07740918 0.04121755 0.05425359
000040 48 28 72 be 61 1f 84 be 49 75 b7 be 61 6c 13 3f
       -0.23648179 -0.2580519 -0.3583167 0.5758725
000050 4f 5e 38 be 1c ff 5c 3e 95 82 30 3e 54 08 05 bf
       -0.18004726 0.21581692 0.17237313 -0.5196583
000060 9d c2 28 3e 60 e0 31 3e d7 05 11 3f 59 ba 05 be
       0.16480489 0.17370749 0.56649536 -0.13059367
000070 aa 02 bd be 74 f1 1d 3d 30 48 34 be c4 c5 cc be
       -0.36916095 0.038560346 -0.17605662 -0.39994633
000080 1a 2d d6 3d b4 b7 ad 3e c0 23 67 3e 56 73 be 3e
       0.10457821 0.33929217 0.22572231 0.3719737
000090 8f 3a 48 3f f4 2d dd 3e c7 59 b2 3e c6 7a ec bd
       0.78214353 0.43199122 0.3483412 -0.11546855
0000a0 d0 1f 41 bc d5 e9 6a 3e 61 f9 a6 3d f9 ad 96 3d
       -0.01178737 0.22940762 0.08153034 0.073574014
0000b0 22 6a ce 3d ae 60 01 bf 56 2c 69 bf 4a 11 38 bf
       0.10078837 -0.50538146 -0.91083276 -0.7190138
0000c0 e4 29 fe 3e b5 04 04 be 3c e5 b3 3e 69 15 b7 bd
       0.49641335 -0.1289242 0.3513583 -0.089396305
0000d0 fc 7c 07 bd 53 55 64 3d d2 2f 93 be d5 cc 23 be
       -0.03307818 0.055745434 -0.28747422 -0.15996106
0000e0 26 ce 19 be b2 0d 81 3e 19 c3 1e bf 89 76 e7 be
       -0.15020046 0.2520576 -0.62016445 -0.45207623
0000f0 b6 84 53 bf b2 0f 08 be 85 bc 48 3e 9c 36 3a 3d
       -0.82624376 -0.13287237 0.19603164 0.045462236
000100 87 af e6 3c 0b c5 05 be 8d 27 8b 3e c2 00 04 3f
       0.02815987 -0.13063447 0.27178612 0.51563656
000110 44 c4 0c bd e6 43 99 3e 87 e6 d5 3e 1e eb aa 3e
       -0.03436686 0.29934615 0.4177744 0.33382505
000120 47 68 0d bf 45 a1 49 be a5 0b f1 be 71 74 44 bb
       -0.5523724 -0.19690426 -0.47079197 -0.002997663
000130 41 13 b1 3e e2 d7 12 3f d3 b2 be 3d 85 f6 06 3e
       0.34585002 0.5736066 0.09311452 0.13179977
000140 11 5e b1 3e b3 24 38 be 5b c4 c8 be a8 83 fc be
       0.3464208 -0.1798275 -0.39212307 -0.49319196
000150 d8 7c e0 be a5 f5 b8 be 1a 10 36 3d 50 f6 5b be
       -0.43845248 -0.36124912 0.04444895 -0.2148068
000160 61 84 92 be 78 52 c1 bd 8a 47 ea be 56 c6 45 3e
       -0.28616622 -0.09439558 -0.45757705 0.1931394
000170 bc 8e d0 3e 09 1e 2b bf ee 4b ae be 9c 58 39 bf
       0.40733898 -0.66842705 -0.34042305 -0.7240083
000180 c5 c4 90 be d7 77 16 be 33 f7 e4 be 3f f0 9b 3c
       -0.28275123 -0.14694153 -0.44719848 0.019035457
000190 23 fa c9 be c3 94 be be ee 2b 20 be 31 ff 4b 3f
       -0.39448652 -0.3722287 -0.15641758 0.79686266
0001a0 41 a9 94 bd 44 62 84 be 74 4c 4a bd 25 0b 83 3e
       -0.07258845 -0.2585622 -0.049389318 0.2559444
0001b0 d4 33 9a bd 10 46 16 bd 19 1c b4 3e a1 b5 74 3e
       -0.07529417 -0.03668791 0.35177687 0.23897411
0001c0 ef 5f a7 3e 20 2f 80 3d fb 69 6a 3f 4c d4 10 3e
       0.3269038 0.062589884 0.91567963 0.14143485
0001d0 25 54 75 3c f6 b0 d8 bd 69 72 4d 3e 71 d0 0c bd
       0.014973675 -0.105806276 0.20063175 -0.034378473
0001e0 3e 45 1f bc f9 02 8b be b5 f5 58 bc 21 59 b8 3b
       -0.0097210985 -0.27150705 -0.013242175 0.0056258594
0001f0 07 2d 8c 3c ef 02 4f be f9 fb 6e 3c 6e 4c f4 bc
       0.017111314 -0.20215963 0.014586442 -0.0298216
000200 5f 7c 67 3d 96 1f 5a 3f 36 06 32 be 59 94 ad 3d
       0.056515094 0.85204446 -0.17385182 0.08475561
000210 3a 77 36 be c0 bb 24 bf 25 93 c6 be 76 2e 6d be
       -0.17818919 -0.64348984 -0.38784137 -0.23162255
000220 e8 40 5e 3e e5 8a 30 3e 2b 97 11 bf 9b 76 1f 3f
       0.21704447 0.17240484 -0.5687129 0.6229035
000230 a5 11 82 3d 86 4b 13 bf 1e 3f 8c 3e 44 e9 2b be
       0.06351022 -0.57537115 0.27391905 -0.16788203

conv.0.bias f4 [8]
000000 f1 1a c1 3d 33 a8 52 3d 1c 7b 51 bf 6d 71 3e 3f
       0.09428967 0.05142994 -0.81828475 0.74391824
000010 fe c6 5a 3e d1 ed 92 be 2c d9 26 be 09 9b 5d 3f
       0.21364972 -0.28697065 -0.16293782 0.8656469

conv.4.weight f4 [16, 8, 3, 3]
000000 a6 a0 2e bb 47 b3 dd be d7 05 14 3f e3 0e d9 3e
       -0.0026646047 -0.4330084 0.5782141 0.4239417
000010 9f 07 80 be 5e a8 dc 3e 9a f2 3c 3e 73 6e af bd
       -0.25005814 0.43097204 0.1845192 -0.085659884
000020 4f f2 10 be 84 23 71 be cb 01 88 be 78 e0 22 be
       -0.14154933 -0.23548704 -0.26563868 -0.1590594
000030 e3 30 17 bd 68 70 88 3e 9c af 80 3e 9c 79 35 3e
       -0.036911856 0.2664826 0.2513398 0.17722172
000040 f9 4f 98 3e 3e f1 b2 3e 33 20 79 3e f9 a3 94 3e
       0.29748514 0.34949678 0.2432869 0.2903135
000050 b4 d0 9a 3e 77 92 12 be 0a 65 0d be 01 cf a9 bc
       0.30237353 -0.14313684 -0.13808075 -0.02072859
000060 90 fa 81 3e c9 ea d4 3e 78 f6 63 3e b9 9d a1 be
       0.25386477 0.41585377 0.22261989 -0.31565645
000070 57 bd 1e bc ef cc 2c 3e b5 3f b0 3d 09 db 32 be
       -0.009688697 0.16875051 0.08605901 -0.17466368
000080 26 ce 0b 3f 70 d1 90 3e 01 8c 81 be 05 f7 f4 bd
       0.5461143 0.28284788 -0.25302127 -0.11961178
000090 e6 14 68 3f 5b d4 06 3f b6 c1 14 3f 4f 7f 84 bc
       0.9065689 0.5266778 0.5810808 -0.016173987
0000a0 47 17 a4 bd 34 8f f1 3d e4 9c 90 3e 83 92 63 3e
       -0.08012252 0.11794892 0.28244698 0.22223859
0000b0 9e 17 bf 3e bd 42 23 be 19 2b 94 be f4 03 30 bf
       0.37322706 -0.15943427 -0.2893913 -0.6875603
0000c0 c7 ef 27 3e d8 0c f9 bd 23 e8 d4 3d f0 75 cb bd
       0.16400062 -0.12160653 0.10395839 -0.09934604
0000d0 b5 2e d5 bd c2 64 8b 3e 88 7f 2b 3e b2 29 ac 3d
       -0.10409299 0.2722531 0.16747868 0.0840639
0000e0 87 60 05 3e 8b 9c 0f be 21 cd e0 3d 42 6e 54 3e
       0.13025104 -0.1402456 0.10976625 0.20745185
0000f0 b8 e5 f9 be 43 b4 89 3f d1 10 c1 3e 46 15 1e 3e
       -0.48808074 1.0758137 0.37708142 0.15437803
000100 3f 21 d4 be 9f e8 a2 be 3e 13 2a 3e ca ac df 3e
       -0.41431615 -0.318181 0.16608903 0.43686515
000110 89 0a 98 3e 26 c3 ce 3d 5f 68 a0 3e c5 c1 62 3e
       0.29695538 0.10095815 0.3132963 0.2214423
000120 8b 62 3b be 47 5e 70 3c c5 9f cc bb 26 28 ee 3e
       -0.1829931 0.014670915 -0.006244632 0.46515006
000130 a1 5b bb 3f 58 9f 5e 3e 57 d7 94 3d e7 60 b1 be
       1.4637338 0.21740472 0.07267635 -0.34644243
000140 fe 96 11 bf bd 16 de bc 29 cb d7 be db f8 e3 bc
       -0.5687102 -0.027110452 -0.42147186 -0.027828624
000150 2a 0a 8a 3e d5 c6 d4 bc 76 02 20 3e 71 04 e3 be
       0.2696088 -0.025973717 0.15625939 -0.44339326
000160 7f 3f 25 be dd 7b f8 be 92 0e e8 be eb 01 04 be
       -0.16137503 -0.48532 -0.45323616 -0.12891357
000170 91 2b 99 3d ec cb c4 bd 1a 7f 93 3d 9b 66 fc be
       0.07479013 -0.096092075 0.07201977 -0.49297032
000180 3e 05 44 3e 8c 58 3f 3c 93 92 d2 be 4d f8 6e 3b
       0.19142625 0.011678826 -0.41127452 0.0036463917
000190 69 45 85 be 8a cf 03 bf 85 dc 18 3f eb e8 6b 3f
       -0.26029518 -0.51488554 0.59711486 0.9215228
0001a0 c8 7a f9 bd 95 bc 8b bd 37 1b 0f 3e f6 c1 bb be
       -0.12181622 -0.068230785 0.13975225 -0.36671418
0001b0 77 bb bb be 03 35 4c bf c7 65 a6 3e 90 4a 12 3e
       -0.36666462 -0.7976839 0.32499525 0.14286256
0001c0 15 8f 03 bf 95 c5 48 3c 61 11 f7 3b 2d 7e 4e be
       -0.513902 0.0122541385 0.0075399135 -0.2016532
0001d0 a2 44 08 be a6 42 6f be f8 dc 00 be 6b 8f 99 be
       -0.13307431 -0.23365268 -0.12584293 -0.29992232
0001e0 da 23 ce 3e 7c 74 27 3f 6f f1 c4 3e 50 18 96 be
       0.40261728 0.65412116 0.3846545 -0.29315424
0001f0 f9 c3 54 bf 64 68 bf bd d3 33 84 be 3d 70 8e bc
       -0.8311153 -0.09346083 -0.2582079 -0.017387504
000200 d1 5a 39 3e 0e a6 c4 3e b4 26 19 3e 46 ac 54 bd
       0.1810105 0.3840794 0.1495617 -0.051922105
000210 15 4e 54 bf 18 b9 d9 3c db 34 74 3e 78 1b 01 3d
       -0.82931644 0.026577517 0.23848288 0.031520337
000220 26 ef cc bd ce 0c a6 3b ae 00 86 bd 01 45 27 3e
       -0.100065514 0.0050674444 -0.065430984 0.16334917
000230 e0 0b a1 be 33 bb 74 be 02 b2 e1 be 23 43 c5 bd
       -0.31454372 -0.23899536 -0.44081122 -0.09631946
000240 df 56 90 be 82 70 d0 3d 86 04 4e be 07 3f c2 3c
       -0.28191277 0.10177709 -0.20118913 0.023711694
000250 a3 e6 c9 bc d8 10 61 3e 1e 4f dd bd 3c 04 71 bc
       -0.024646109 0.21979082 -0.10806106 -0.014710482
000260 97 3b d2 3e b6 48 aa bd ae bc 88 be 73 7d e6 3c
       0.41061088 -0.0831465 -0.2670645 0.02813599
000270 ab ca b0 be b6 87 19 be ca a4 fd be dc f8 23 be
       -0.34529623 -0.14993176 -0.49539787 -0.16012901
000280 ac e6 f8 3c 40 a7 80 be 00 9c 9f 3e b6 92 95 be
       0.03038343 -0.25127602 0.31173706 -0.29213494
000290 27 22 73 be 94 5e da 3e 91 81 86 bb e8 79 98 3e
       -0.23743497 0.42650282 -0.004104801 0.29780507
0002a0 16 0c 11 bf 3e 90 8c 3e 3a 81 c8 be b3 ea a0 be
       -0.56659067 0.27453798 -0.39161092 -0.3142906
0002b0 fe 23 2c 3e 91 bc 9a 3e 70 88 76 be 14 06 c5 3d
       0.16810605 0.3022199 -0.24075484 0.096203
0002c0 09 0c 8b bd ca 28 9f bd 17 bf 59 3e c2 5e 7d 3e
       -0.06789405 -0.07771452 0.21264301 0.24743178
0002d0 24 1a 0a 3e c0 98 bd be 5b 1e c6 3d 26 31 a1 3e
       0.13486534 -0.37030602 0.096737586 0.3148281
0002e0 c5 7c a0 bf 44 3e 8b 3e 45 e2 f8 bd fa a3 c8 3e
       -1.2538077 0.27195942 -0.121525325 0.39187604
0002f0 3d 63 e0 be 73 18 25 be 10 a9 a2 bd 9d e1 d0 bd
       -0.43825713 -0.16122608 -0.07942402 -0.10199282
000300 1a aa c4 bd a2 9a cd 3c 01 c5 b9 3e 2d ce 08 bf
       -0.09602757 0.025098149 0.36283115 -0.534396
000310 82 24 d6 3d 43 2c fb bd c6 bd 1f bf 9c 76 ec 3d
       0.10456182 -0.12264302 -0.62398946 0.115460604
000320 eb f1 13 bf ab f9 3c be 48 aa 12 3f 3d cc 06 be
       -0.5779101 -0.18454616 0.5729108 -0.13163848
000330 fd ab f4 3e 2e ab 05 be 44 71 95 be cf 91 e0 be
       0.47787467 -0.13053581 -0.29187977 -0.43861243
000340 e7 73 b8 3e 1e b2 19 3f bd bb 24 be 86 5d a1 be
       0.36025926 0.6003741 -0.16087241 -0.31516665
000350 37 7f 46 bf 39 7e 8d 3e 1a ee 8c 3e 00 4d 61 bd
       -0.77537864 0.27635363 0.27525407 -0.055005074
000360 b9 f6 a1 3d fd eb 2e 3e 6b cc b4 bd a0 40 d1 be
       0.07908387 0.1708221 -0.08828052 -0.40869617
000370 95 55 27 bf 3f 34 c7 be da 98 de be 9f ed df be
       -0.6536496 -0.38907048 -0.4347599 -0.43735978
000380 bd 54 c5 be ac a3 0f be 5a e0 8f be 6e 0b 03 3e
       -0.38541213 -0.1402728 -0.28100854 0.12797329
000390 46 7c 15 3d 22 db 51 3b 1d 24 66 be 7e 21 d3 bc
       0.03649547 0.0032021482 -0.22474714 -0.025772806
0003a0 d6 6d 70 3e 97 54 b3 3e ba 93 d6 3e 56 77 55 3e
       0.23479399 0.35025474 0.4190958 0.20846304
0003b0 25 18 c9 3e 81 f3 19 3d b2 93 d0 3d 14 e9 b0 3e
       0.39276233 0.03758574 0.10184421 0.34552824
0003c0 f1 a4 04 3f a7 c4 54 3d 5a f6 84 3e c5 72 d9 3d
       0.5181418 0.051945355 0.259692 0.10617594
0003d0 87 9d c2 3d 03 27 c6 bc 2e 2e 07 3d cf cc ba be
       0.09502702 -0.024188524 0.033003025 -0.36484382
0003e0 19 14 d2 3c aa a0 a0 be d7 47 a3 be 0c 82 03 bf
       0.025644349 -0.31372577 -0.31890747 -0.5137031
0003f0 68 a7 c5 3e ea a4 a3 bd 8d 17 30 be 35 60 a2 3e
       0.38604283 -0.07990439 -0.17196484 0.31714025

conv.4.bias f4 [16]
000000 8b 61 ff be dc fd f4 3e bc d6 99 bc 2a c4 9f 3e
       -0.49879107 0.4784993 -0.018779151 0.3120435
000010 53 67 a5 be 9c ab 66 be fd a7 f6 3d 80 93 fb 3c
       -0.32305393 -0.22526401 0.1204376 0.030709982
000020 0e b2 18 3e 54 f0 e7 bd 1d 09 f3 bd 3e 4b 17 3f
       0.14911672 -0.11325136 -0.118669726 0.59099185
000030 8d 14 1b bc fd a2 04 bd 77 c2 38 3e 67 5b aa be
       -0.009465349 -0.032382 0.18042932 -0.3327286

fc.0.weight f4 [32, 64]
000000 80 c6 3d 3f 05 38 04 3e e7 59 5f 3d 01 0b 0d 3e
       0.7413101 0.12911995 0.054529097 0.13773729
000010 08 cb d3 be 25 af a6 bd ab 77 95 3e e3 d6 1c 3f
       -0.41365838 -0.08138875 0.29192862 0.6126539
000020 2a e8 00 bf bd 1d d1 3d d7 3e 49 3f 8f c3 75 3e
       -0.50354254 0.1021075 0.7861151 0.24000381
000030 9b a1 38 3f 6c 1d e0 3e 88 5f b6 bd d7 15 59 be
       0.7212159 0.43772447 -0.0890494 -0.21199737
000040 e9 7c cf be 7a 0d 0b bf ec c9 16 3f a2 f2 0f 3f
       -0.40524986 -0.5431744 0.5890186 0.56229603
000050 65 6d ae be 16 a7 1f 3f 84 40 ac ba 8f f5 fa 3d
       -0.34067836 0.6236433 -0.0013141786 0.12253868
000060 56 57 8d be 7b bd de be fd 14 bc 3e 0c 54 90 3e
       -0.27605695 -0.43503937 0.36734763 0.28189123
000070 39 7a c6 3e 4f 64 05 bf 5d 22 68 3b 71 ef 9c 3f
       0.38765123 -0.52106184 0.0035420873 1.2260572
000080 a2 e4 03 3e 0c 4e c4 3d 54 d9 7d be 1a b2 b4 3d
       0.12880185 0.09585199 -0.24789935 0.08823033
000090 72 9e e4 bd 35 b9 05 bd 7a f9 3d be ed f4 0b 3f
       -0.111630335 -0.03264733 -0.18552199 0.546706
0000a0 46 59 20 3f c6 38 47 bf 78 2a 95 3e 4f 50 53 3e
       0.6263622 -0.77821004 0.29133964 0.20636104
0000b0 b9 ca a8 be df 27 5a 3e 86 f6 55 3c 04 e1 22 3f
       -0.32967165 0.21304272 0.013059264 0.63624597
0000c0 27 98 9d be cf 15 90 bd ea fe 9c 3f 1f 34 2a be
       -0.30780146 -0.0703541 1.2265294 -0.16621445
0000d0 ee fc 51 3f e1 a5 2a 3e 06 49 83 be 3d c3 93 3e
       0.82026565 0.1666484 -0.2564165 0.28859892
0000e0 ff fe 04 bf 74 90 d7 bc b2 2c ed 3e 29 99 d5 3e
       -0.51951593 -0.026313998 0.46323162 0.41718414
0000f0 9c ae 02 bf 7b 04 e7 be ca 17 c2 3e 0c 92 22 3f
       -0.5104768 -0.45120606 0.37908775 0.635041
000100 29 8d 29 bf 54 96 39 be 78 1c 59 3e b6 38 2a 3e
       -0.6623102 -0.18123752 0.21202266 0.16623196
000110 f6 90 41 3f 7e 37 da 3e a6 61 39 3c 72 5a eb be
       0.7561182 0.42620462 0.011314785 -0.45967442
000120 ee 8a 19 3f 96 0f 44 be b1 ff 37 bf 52 36 04 3d
       0.59977615 -0.1914657 -0.7187453 0.032278366
000130 d2 fd 4d bf 4f 46 8a be 40 34 e2 3e 31 06 c9 3e
       -0.80465424 -0.27006766 0.4418049 0.39262536
000140 a2 89 24 3f f4 6d 4b 3f 04 5a 12 bf b9 97 f8 be
       0.6427251 0.7946465 -0.571686 -0.48553255
000150 4e 44 fb 3e 09 34 1d bf 48 c0 5c 3e 5e d5 82 3e
       0.4907555 -0.61407524 0.21557724 0.2555341
000160 7a c4 b9 3e 39 04 08 3f 37 6e 10 bd a0 29 b0 be
       0.36282712 0.53131443 -0.03526136 -0.34406757
000170 7b 1d 69 be f9 f9 48 3f 65 39 31 bb fb f0 9d bf
       -0.22765152 0.7850643 -0.0027042266 -1.2339166
000180 95 9d 0d be f3 e9 34 bc 9a 62 89 3e 30 8b 5c be
       -0.13829644 -0.011042106 0.2683304 -0.21537471
000190 83 8b 6f 3e 4d 4b d1 3e 3a e6 d5 3e 89 f4 1f bf
       0.23393063 0.40877762 0.4177721 -0.62482506
0001a0 bc e5 fb be da 9b 6b 3f d5 b8 5c be ca 3a a1 bd
       -0.4919871 0.92034686 -0.21554883 -0.07872541
0001b0 cb e3 13 3f 69 58 13 3e 7b 8e 9f 3e 6f e7 08 bf
       0.5776946 0.14389195 0.3116339 -0.5347814
0001c0 30 b3 1c 3f f9 76 7e 3e 9d 46 8f bf 0a 74 d6 3e
       0.6121092 0.24850072 -1.1193424 0.41885406
0001d0 10 00 1d bf c0 47 19 3e e4 62 a6 3e 33 ce 7c be
       -0.6132822 0.14968777 0.32497323 -0.24688034
0001e0 42 03 30 3f 6e 96 9e bb d0 2d dd be d9 e2 6a be
       0.6875497 -0.00483971 -0.43199015 -0.22938098
0001f0 7f 93 0f 3f 93 ff 30 3f 15 85 6b be 29 a2 17 bf
       0.56084436 0.69139975 -0.22999986 -0.5923181
000200 a7 74 af bd 68 16 e5 bc e7 97 b8 bc a4 b2 0f be
       -0.085671715 -0.027964786 -0.02253337 -0.1403299
000210 bc 8c d6 bd fb 28 f9 bd c9 73 ec bc 9d 5a af bc
       -0.10476062 -0.121660195 -0.028863804 -0.021405512
000220 ed 02 26 bd 0c 2f 7c bd 7a f1 d3 bd b1 56 1e 3c
       -0.040530134 -0.061568305 -0.103487924 0.0096642235
000230 7a 0a 19 be d4 eb 50 3d 57 c6 1e bd 91 da 92 bd
       -0.14945403 0.051006153 -0.03876337 -0.071705945
000240 32 e2 12 bd 45 4b 1c be f7 e1 76 bc 68 81 d1 3d
       -0.035860248 -0.15263088 -0.015068523 0.102297604
000250 4c 8c 00 be 5b 6a 15 bc ac cf 5c bd c5 b4 66 bc
       -0.12553519 -0.009119595 -0.05390899 -0.014081185
000260 1e 3a 28 3c 19 74 d2 bd 30 c6 33 be b6 62 f0 3d
       0.0102677625 -0.1027605 -0.17556071 0.117375776
000270 a7 94 6c bd a5 22 0f be bd 31 00 be 2e a8 1b bd
       -0.057758953 -0.1397806 -0.12518974 -0.038002186
000280 a4 35 3c be 31 a4 26 3e be 0c f2 3c 1a 94 b5 3d
       -0.18379837 0.16273572 0.029547092 0.08866139
000290 10 8d a3 3d 65 d9 92 bd 13 87 cc bd ba 01 03 3d
       0.0798589 -0.07170371 -0.09986701 0.03198407
0002a0 20 1b 30 bd 67 ca 2c bc e1 fb 03 bc b3 de e8 bd
       -0.04299462 -0.010546303 -0.008055658 -0.113706015
0002b0 2c 75 ae bd de d9 8c bd d6 a3 3b be 88 18 be bc
       -0.085184425 -0.06877492 -0.18324217 -0.023205057
0002c0 4a bf 09 bd 9b b0 85 bd f7 68 1d be 78 ba dc bc
       -0.033629693 -0.065278254 -0.15372072 -0.026944384
0002d0 9d 67 37 bd 39 25 52 3d 0b 59 9b 3c 4f d3 03 bd
       -0.044776548 0.05130503 0.018963357 -0.03218394
0002e0 f0 73 25 3d 5a d2 f2 bd 14 e3 da bc c0 61 f1 3c
       0.04039377 -0.118565276 -0.026719607 0.029465556
0002f0 ac 8f 6b 3d 4f 0e b8 bd 4e 1a 63 bd 86 58 09 be
       0.057510063 -0.08987104 -0.055445008 -0.13412675
000300 f2 ae d8 bd 61 f8 04 be 65 2e 5a bd 4b d7 88 bc
       -0.10580243 -0.12985374 -0.0532669 -0.016704222
000310 29 38 76 bd f3 40 02 be 38 2d be bc bb 5e 5e 3d
       -0.060112152 -0.12720089 -0.023214921 0.05428956
000320 12 13 a4 bd c1 d9 80 3d 90 59 f6 3c 65 11 92 bd
       -0.0801145 0.06291533 0.030072004 -0.07132224
000330 37 a2 c0 bd 68 4a 1b be 5e db 80 bd fa fe ec bd
       -0.0940594 -0.15165102 -0.06291841 -0.115720704
000340 3e 96 0b be 59 de 00 be 0b 22 65 3d 9e fa 22 bd
       -0.13631532 -0.12584819 0.05594067 -0.03978979
000350 cf 0e b9 bd 5f 85 81 3d 14 21 e7 bd 0e c5 0d be
       -0.09036028 0.06324267 -0.11285606 -0.13844702
000360 77 2d 1c be 27 b2 93 bd eb 39 72 3d ef 6a 1d bd
       -0.15251718 -0.07211714 0.059137266 -0.038432058
000370 e2 70 12 be ae d3 1a be 93 93 ee 3b 21 b6 e0 bd
       -0.14300874 -0.15119812 0.007280776 -0.10972238
000380 f1 6a 0d be 45 40 07 be c4 9a 35 be 00 3d 1e 3d
       -0.13810326 -0.1320811 -0.1773482 0.038632393
000390 16 a7 bb bd fd bf 61 bd 7c 44 13 bd ae e9 18 be
       -0.091627285 -0.055114735 -0.035953984 -0.14932892
0003a0 3b 54 0d be 01 a5 2c 3d 48 17 12 3d ce 8b e8 3c
       -0.13801663 0.042149547 0.035666734 0.028386977
0003b0 3f 74 99 bd 50 5a 31 3d b6 88 f4 bd 5d 50 36 be
       -0.07492875 0.04329902 -0.11940138 -0.17804094
0003c0 5e 03 18 be 8a dd d8 bd 98 29 24 be a7 a8 97 3c
       -0.14845034 -0.1058913 -0.16031492 0.018513037
0003d0 cf 61 42 bd 10 ac 6b 3d 57 17 ab bc a8 02 73 bc
       -0.04745656 0.05753714 -0.020885153 -0.014832176
0003e0 d1 11 06 be 95 0f 95 3c 43 9c ad 3b ff b4 d2 bd
       -0.13092734 0.018195907 0.005298169 -0.102884285
0003f0 b3 28 d4 3a 8c 78 f1 3c 08 27 5f 3c dc ea ec bd
       0.0016186446 0.029476427 0.013620146 -0.11568233

fc.0.bias f4 [32]
000000 1e af a3 3e 08 58 60 bd 3f 31 46 be 4b 88 b4 3c
       0.3196954 -0.054771453 -0.19354723 0.022037646
000010 d2 de db 3d 42 a2 aa 3e 01 38 1d be ec 9a d5 3d
       0.10735859 0.33326918 -0.15353395 0.1042994
000020 d5 23 22 3d 9e e6 b6 bd 7e e6 86 bd b9 90 10 3d
       0.039584953 -0.089307055 -0.06586932 0.03529427
000030 7d 66 2f be 21 27 86 3d 1e 6f ae 3c 79 46 16 3e
       -0.1712894 0.06550432 0.02129322 0.1467532
000040 dd 61 e0 3d ed 8e 0c 3e c0 99 1a 3e 5b d9 bc 3e
       0.10956166 0.13726397 0.15097713 0.3688458
000050 fc 38 1a be 0c ee 43 3d de 26 f5 bc 42 d1 df bc
       -0.150608 0.04783444 -0.02992576 -0.027321462
000060 dc 3e 43 bd 8b d2 64 3d c2 32 d4 bd c8 e4 9e 3e
       -0.04766737 0.055864852 -0.10361244 0.3103392
000070 f1 45 fe bd cb 13 06 be ac 88 ae bd 56 fa a3 3e
       -0.12415684 -0.13093488 -0.08522162 0.3202693

fc.2.weight f4 [16, 32]
000000 87 e3 27 be aa e9 88 3c a5 04 20 bd 15 ce 6a be
       -0.16395389 0.016712982 -0.03906693 -0.22930177
000010 26 7e c1 3d 02 1f cf bd 0b d9 12 3d e0 13 6b 3d
       0.09447889 -0.10113336 0.03585152 0.057392
000020 97 af 32 be 10 94 e3 38 26 82 0a be f9 86 0c 3d
       -0.17449795 0.00010851782 -0.1352621 0.034308407
000030 dd fc ea bd 54 da f1 bd 26 29 9a bd 43 aa 60 bc
       -0.11474011 -0.11809221 -0.0752738 -0.013712469
000040 89 84 8b bc 05 d6 d2 bd 78 8b c3 3d 18 4e 25 be
       -0.017030971 -0.10294727 0.09548086 -0.16143072
000050 8f 3c b3 bc b7 57 0f 3e 5e e1 5f bd 9a 35 43 bd
       -0.021879463 0.13998304 -0.054658286 -0.04765854
000060 fa 68 45 be 40 95 4c be 7b 82 d6 3b bc 22 19 be
       -0.19278327 -0.1997881 0.006546316 -0.14954656
000070 f6 1b 1b be fa 86 d4 3d 1e d5 2c be 45 3c 9e 3d
       -0.15147385 0.10377307 -0.16878173 0.07726339
000080 9b 7e f6 bd ef d7 30 be a5 10 8e 3b 5b e6 d8 3d
       -0.12035867 -0.17269872 0.0043354803 0.10590812
000090 bc 8a 20 be 7e a5 e9 3d 6b bd 60 bd c5 d3 17 be
       -0.15677923 0.11408518 -0.054868143 -0.14826877
0000a0 50 49 8c bd 74 cf 60 3e 68 8d 08 be 01 2d 8b bd
       -0.06849921 0.21954137 -0.13335192 -0.06795693
0000b0 10 81 e6 3d f0 f9 f1 bd a1 3e 22 3c 0a 5e 7b be
       0.112550855 -0.1181525 0.009902627 -0.24547592
0000c0 6f 84 85 bd 7e f7 bb bd c6 7a 4c bd ba 3a b9 bc
       -0.065194 -0.09178065 -0.049921773 -0.02261101
0000d0 41 00 c9 3d 20 a2 85 3c ed f7 15 be 44 fb 22 be
       0.098145016 0.016312659 -0.14645357 -0.15916163
0000e0 29 e6 a5 bc a3 e1 18 3d 48 9b 27 3e cd 95 a0 bd
       -0.02025135 0.03732456 0.16367829 -0.07841072
0000f0 3c 98 65 3c 55 04 b3 3d 90 1c 3e 3c 14 00 03 bd
       0.014013346 0.08741061 0.0116034895 -0.031982496
000100 a2 32 42 bf b1 82 f6 3e 49 a3 30 3e 32 54 df 3d
       -0.7585851 0.48146585 0.17249788 0.10904731
000110 14 62 4b bf 22 91 41 bf 9f 6d 1e be 6c ad 3d 3f
       -0.7944653 -0.7561208 -0.15471505 0.74092746
000120 33 bb 1d 3f 81 03 81 3d 61 44 e0 3d d4 06 18 3f
       0.6161377 0.062994964 0.10950542 0.5938542
000130 f1 ac 9a bd 43 0a f3 3e 64 3f 60 3d 39 06 1d 3f
       -0.07552517 0.47468767 0.054747954 0.6133762
000140 63 49 4c 3f b5 b8 02 3f 69 d5 af 3e 9f 79 45 bf
       0.7979948 0.5106309 0.34342507 -0.77138704
000150 50 ee 54 3c f1 4f 6f 3d 58 7f 87 3c 67 80 1e 3e
       0.012996271 0.058425847 0.016540214 0.15478669
000160 46 31 d0 bd de fb 2b be 5d 81 80 3d 06 db 20 bf
       -0.10165648 -0.16795298 0.06274674 -0.62834203
000170 d0 48 c3 bc a9 20 d4 bd a7 9d 24 3e 44 a1 37 bf
       -0.02383843 -0.10357792 0.16075765 -0.71730447
000180 c2 09 43 bf 8c dc 00 3f 21 33 8c bd 2a 0a 43 3d
       -0.76186764 0.5033653 -0.068456896 0.047617115
000190 c3 6b 2f bf 93 aa 1b bf fe 00 e9 bd 2a 7d 37 3f
       -0.68523806 -0.6080715 -0.11377142 0.7167536
0001a0 db ba fb 3e 70 a0 99 bd a8 7d 57 3c 5e 24 d4 3e
       0.49165997 -0.07501304 0.013152517 0.41433996
0001b0 4d 5d 27 bc 1c 48 f8 3e 3c 02 0c bd 02 0a 2d 3f
       -0.010215116 0.48492515 -0.03418182 0.67593396
0001c0 90 0b 47 3f 5d 32 fe 3e 3b 75 b7 3e 06 06 53 bf
       0.7775202 0.496478 0.35831627 -0.82431066
0001d0 43 2d 3e 3e 43 77 8f bd a7 67 61 bd e4 2a 70 3e
       0.18571953 -0.07005169 -0.05503049 0.23453861
0001e0 3a 0a 50 be 26 cb 29 bd 39 6c 88 3d 0e 66 46 bf
       -0.20316401 -0.041453503 0.06661267 -0.77499473
0001f0 4a 1c d9 3d 5e 76 17 3d a0 2e 29 3c 6a ef f3 be
       0.10601099 0.036978118 0.010326058 -0.47643596
000200 d4 d1 10 bf 1d b4 14 3f 10 37 25 3e 58 27 95 3d
       -0.5657017 0.5808733 0.16134286 0.07282895
000210 8c b3 30 bf 00 d3 3c bf 2a a7 86 3c 45 de 39 3f
       -0.69023967 -0.7375946 0.016437132 0.7260478
000220 9a c1 2c 3f 28 ff e8 3d c2 e1 16 3e 83 a8 de 3e
       0.6748291 0.11376792 0.14734557 0.4348794
000230 02 b7 e0 3d 50 c3 37 3f 6e ed b3 bd cb 18 b3 3e
       0.10972406 0.717824 -0.087855205 0.34979853
000240 bc 5d 29 3f 44 94 ff 3e 55 41 31 3f 5f 36 3d bf
       0.6615865 0.49917805 0.69240314 -0.7391109
000250 4c 1e 0f 3e 8d 40 bf 3d 54 90 ee bc c8 14 90 3e
       0.13976401 0.09338484 -0.029121555 0.28140855
000260 b0 15 95 bd 1f 14 69 bd a9 f5 bc 3c cc 79 41 bf
       -0.07279527 -0.056903955 0.023066359 -0.7557647
000270 5e 80 ba bd de c5 00 be 90 69 20 be 25 23 1a bf
       -0.09106515 -0.1257548 -0.15665269 -0.60209876
000280 89 f1 54 be 3b 9e 18 be e3 66 02 be 51 5c ed 3d
       -0.20795263 -0.1490411 -0.1273456 0.115898736
000290 7a 51 e8 3d 4f 8a 1f 3d d2 20 27 3e 1e 23 f9 bd
       0.113436654 0.03895026 0.16321114 -0.12164901
0002a0 2b b3 d2 bb 1a 62 62 3c 86 8e c8 bc 11 3f 4e be
       -0.00643005 0.013817335 -0.024482023 -0.20141245
0002b0 fc 87 42 be 37 8e 13 be 44 2a 33 bd 56 56 ca bc
       -0.18997186 -0.1440972 -0.04374148 -0.024699371
0002c0 64 90 0f bd 0d 4f 47 be 6b 24 16 be 83 62 3d be
       -0.03504981 -0.19463749 -0.1466233 -0.1849461
0002d0 bd 00 c3 3c 78 67 8b 3c 30 98 bb 3d 14 8e 5c be
       0.023804063 0.017017111 0.09159887 -0.21538574
0002e0 0a 0e 1f 3d ec 26 cd 3d 32 2c e3 bd 6b b7 0d be
       0.038831748 0.100171894 -0.11092414 -0.138395
0002f0 3d d3 2d be e2 8e 49 3d 85 f5 22 be 67 42 d4 3c
       -0.16975112 0.04920853 -0.15913971 0.02591057
000300 f0 46 46 bf df 42 44 3f df 65 03 3e c7 39 68 3d
       -0.7745199 0.7666454 0.1283183 0.056695726
000310 45 c4 43 bf b2 69 5d bf 40 37 d1 3b f9 92 1d 3f
       -0.7647136 -0.86489403 0.00638476 0.6155239
000320 bb a2 27 3f a6 59 68 3e 45 5a 3e be d4 f1 c4 3e
       0.6548268 0.22690448 -0.18589123 0.3846575
000330 41 13 bc bc 17 1e 2c 3f 55 10 27 3e eb ee e6 3e
       -0.0229584 0.67233413 0.16314824 0.45104155
000340 9e 8a 40 3f 83 46 89 3e 4e fb 1a 3f 6e db 1c bf
       0.75211513 0.2681161 0.6053971 -0.61272323
000350 df a1 a8 3d e8 8e 19 be 90 5c ed 3c ae 9a 55 3e
       0.082339995 -0.1499592 0.028974801 0.20859787
000360 4c 8b 25 bd 78 5f 1c bd 01 ef 1a 3e 42 b7 09 bf
       -0.040416047 -0.038176984 0.15130235 -0.53795254
000370 11 64 23 be c1 20 ac bd b2 f2 e7 3d 15 8c 4d bf
       -0.15956141 -0.08404685 0.11325587 -0.80291873
000380 2c b1 29 bf 48 eb 0f 3f c7 0f 1b 3e 3c 7e 0c bd
       -0.6628597 0.56218386 0.15142737 -0.034300074
000390 8d bb 15 bf 4d e6 2d bf 64 4a 03 3d 8f 0c 14 3f
       -0.58489305 -0.67929536 0.032053366 0.5783166
0003a0 c7 c9 b2 3e d9 fd 35 be 04 4d 73 3d 0a b9 c9 3e
       0.3491957 -0.17772616 0.05939962 0.39398986
0003b0 ee fa 5d bd 36 ce 20 3f 30 26 99 bd 3a e2 1c 3f
       -0.054194383 0.6281465 -0.07477987 0.61282694
0003c0 39 26 3e 3f de 92 b2 3e 78 a7 13 3f e4 71 37 bf
       0.74277073 0.34877676 0.5767741 -0.7165816
0003d0 77 ef 04 bc 41 98 75 3d 4f 80 1d 3e b7 39 95 3e
       -0.0081137335 0.059959654 0.15380977 0.29145595
0003e0 72 95 26 be e6 4d bd 3d 1f e9 eb bd d5 81 e2 be
       -0.16267946 0.092433736 -0.11519074 -0.4423968
0003f0 86 b4 ac bd 3e 47 c7 bd ba 4e cf bd 22 ae 45 bf
       -0.084328696 -0.09730385 -0.10122438 -0.7721883

fc.2.bias f4 [16]
000000 4a 71 44 bd b7 01 33 bd 6e 27 9b 3e 0a 2f 9d 3e
       -0.047959603 -0.043702807 0.3030352 0.3069995
000010 9b 10 d1 3c 32 c8 ec 3d 90 c7 97 bd 38 8d 7b 3e
       0.025520613 0.11561622 -0.074111104 0.2456559
000020 4f ae 58 bd 90 e8 ba bc 41 9e a6 3e 7d 06 89 3e
       -0.05290061 -0.022815973 0.32542613 0.26762763
000030 40 94 c7 bc ed 3c ea bd e7 ab f7 bc b7 a2 08 bd
       -0.024362683 -0.11437402 -0.030233337 -0.033358302

fc.4.weight f4 [8, 16]
000000 3e 74 6c be 42 94 64 be 7c c0 66 be 1d d4 56 be
       -0.23091218 -0.22322181 -0.22534364 -0.20979352
000010 a1 a1 30 3d 8e c5 3d 3e 8f 14 5b be 7c 99 fa 3c
       0.04312289 0.18532392 -0.21394561 0.030590765
000020 40 2b 7d be b0 29 1e bd 09 21 88 bd 4c 17 a6 bb
       -0.2472353 -0.038613975 -0.06646926 -0.005068695
000030 9c 4a 8a be 6e 05 3e be 8b b2 42 3d 40 25 01 3d
       -0.27010047 -0.18556759 0.047533553 0.031529665
000040 9d f1 5e be 42 cb 2c be dc 8f 47 3f cf 31 5b 3f
       -0.21771856 -0.16874412 0.77953887 0.85622877
000050 dd cd 58 3f d8 e8 0e 3e b5 28 1d 3f 78 2d 0d 3f
       0.8468912 0.1395601 0.6139024 0.55147505
000060 e3 d9 12 3e 27 14 64 3f ce e8 41 bf 7c b9 43 bf
       0.1434093 0.8909325 -0.75745857 -0.764549
000070 3b 14 3a be 34 f5 c6 bd ed 75 45 3f 37 7c ba bd
       -0.1817178 -0.097147375 0.77133065 -0.09105723
000080 76 4c 27 be 78 df 2b 3e c0 47 16 3e 98 69 ad bd
       -0.16337761 0.16784465 0.14675808 -0.08467406
000090 3c 3d d6 bd 08 7c fe bd 30 8a 04 be 64 2f cf bd
       -0.10460898 -0.12426001 -0.1294334 -0.10116461
0000a0 0c 5f 60 be 00 46 72 ba e8 88 7e be d4 46 2c be
       -0.21911258 -0.0009241998 -0.24856913 -0.16823894
0000b0 10 50 d8 3c 70 65 50 3e 88 91 13 be 20 30 c2 bd
       0.026405364 0.20351195 -0.14410985 -0.09481835
0000c0 64 94 e4 bd 0e c0 62 3e 13 39 5c be fa 89 0f be
       -0.11161116 0.22143576 -0.21506147 -0.14017478
0000d0 14 c2 c6 3c 82 8e 3e 3e 72 8d 99 be 74 34 72 3d
       0.024262466 0.1860905 -0.29990727 0.059132054
0000e0 16 37 50 3e b0 35 cb bb 08 4c d5 3e 7c ce 70 3e
       0.20333514 -0.0062014684 0.4165957 0.23516268
0000f0 50 e3 94 3d 84 c4 00 3e 9b 8e f4 bd e4 21 64 be
       0.07269919 0.12574965 -0.11941262 -0.22278553
000100 0a 28 30 bd f8 1b 6c 3e 18 95 1d 3e df 96 27 be
       -0.043006934 0.23057544 0.15388906 -0.16366147
000110 ac 54 57 be 1f b1 03 bc 18 a6 74 bd d4 78 4c be
       -0.21028394 -0.008037834 -0.05972871 -0.19967967
000120 e0 c4 27 3e 9c 65 be be 4e ec 95 bd 00 c5 16 be
       0.16383696 -0.37186897 -0.07320462 -0.14723587
000130 f0 a6 f5 3d c8 26 ae bd 2b 8b f5 bd 8c ce 6f 3e
       0.119947314 -0.08503491 -0.11989435 0.23418635
000140 06 ee 42 3e 25 79 bc bd 2b 09 6e 3f ce 80 4a 3f
       0.19036111 -0.09202794 0.9298274 0.7910279
000150 26 9a 5c 3f 87 f0 f0 bd 87 7a 74 3f 0b 9a 65 3f
       0.8617271 -0.11764627 0.9549946 0.89688176
000160 56 e8 1a be e5 69 53 3f b9 ca 05 bf ef 5f 4b bf
       -0.15127692 0.8258346 -0.52262455 -0.7944326
000170 9a 65 98 3c 80 53 db 3d 6a d4 0e 3f d1 a0 37 be
       0.018603135 0.10709286 0.5579287 -0.1793244
000180 44 a9 1c 3e 8a 2c 83 be db d5 c1 bd 76 2c 18 3d
       0.15298945 -0.25619918 -0.09464618 0.037151776
000190 20 04 0d be 20 e2 9a 3c e6 63 be 3d 2b db df bd
       -0.13771105 0.018906653 0.09296398 -0.10930475
0001a0 a8 63 e0 bd 02 c1 49 bd 93 48 ea bd a2 42 36 3d
       -0.10956508 -0.049256332 -0.11439624 0.04449714
0001b0 ce e4 96 3d 88 a9 37 bd 83 bf 54 be c0 ab 09 bc
       0.0736786 -0.044839412 -0.20776181 -0.008402765
0001c0 40 0b 00 be 98 d0 65 be 2a 08 4f 3f 92 1a 36 3f
       -0.12504292 -0.22442853 0.8087183 0.71134293
0001d0 c1 4f 16 3f 18 ed b2 3d ae 92 d6 3e 8e e8 3c 3f
       0.58715445 0.08736628 0.41908783 0.7379235
0001e0 00 82 2d 3d fb cf cd 3e 83 61 22 bf 74 2e dd be
       0.042360306 0.4019774 -0.6343004 -0.43199503
0001f0 ee 3f 45 3e 70 7c d9 bc 05 0c 04 3f d0 f6 00 3e
       0.19262668 -0.026548594 0.5158084 0.12594151

fc.4.bias f4 [8]
000000 89 e0 6c be c9 d4 95 3e f8 b1 0f be 20 9a 74 39
       -0.23132528 0.29263905 -0.14032733 0.0002332707
000010 aa b9 89 be 4a 9c a0 3e 43 da 9d be c0 fd 0c be
       -0.26899463 0.3136924 -0.30830583 -0.13768673

fc.6.weight f4 [4, 8]
000000 12 bb ce be 56 1b 5d 3f 08 d9 2b 3d d3 5a 64 be
       -0.40377098 0.86369836 0.041955024 -0.22300272
000010 52 92 f6 3c bd 83 83 3f 01 83 4f 3e f2 41 24 3f
       0.030099068 1.0274578 0.20264818 0.64163125
000020 48 4e bf bd 05 7d 56 3f 22 cd 29 be e2 40 41 be
       -0.09341103 0.83784515 -0.16582158 -0.18872407
000030 d2 50 e4 3d 0f 23 4d 3f cd d4 14 be 13 2d 4d 3f
       0.11148228 0.8013162 -0.14534302 0.801469
000040 84 53 89 bd a0 42 75 3f 9e 6e 39 be be 27 76 be
       -0.067053825 0.95804787 -0.18108603 -0.24038598
000050 e8 0e 92 bd 44 4c 37 3f cb 82 fe bd a7 09 39 3f
       -0.071317494 0.7160075 -0.124272905 0.72280353
000060 bc dc 8d 3d 20 45 1b 3c 69 8e ad 3e e0 1e e2 bd
       0.06926867 0.00947693 0.33897713 -0.11041045
000070 f8 7e de 3d 70 35 b2 bc a0 7a bb bd 24 f0 82 be
       0.10864061 -0.021753997 -0.09154248 -0.25573838

fc.6.bias f4 [4]
000000 c5 84 44 3e d9 d2 76 3e 39 18 c1 3c 13 ee 52 be
       0.19191273 0.2410387 0.02357112 -0.2059863

output.weight f4 [1, 4]
000000 3d cc 6e bf 7f b6 7f bf 70 c7 99 bf d0 6e ea 3d
       -0.9328039 -0.9988784 -1.2013988 0.11446917

exp_avg f4 [8, 2, 3, 3]
000000 7a 73 6b c6 e1 f7 10 c6 dc 27 de c5 ee b6 c7 43
       -15068.869 -9277.97 -7108.9824 399.42914
000010 5e 71 33 c7 72 ef 4e c4 e9 ca e1 c6 9e 7b 9f c6
       -45937.367 -827.74133 -28901.455 -20413.809
000020 66 5d c2 c6 a7 ee 0c 45 5f d8 0d 45 17 78 f8 44
       -24878.7 2254.9158 2269.5232 1987.7528
000030 43 5c 83 c2 de f6 81 39 a6 c4 4f c3 ac 45 08 c5
       -65.6802 0.00024788728 -207.76816 -2180.3545
000040 f0 ed df c4 59 0c 9e c4 55 a5 01 c6 04 6a 93 c6
       -1791.4355 -1264.3859 -8297.333 -18869.008
000050 05 bf 9f c6 ea cb 18 46 bb c3 9e c4 58 60 e7 c5
       -20447.51 9778.979 -1270.1166 -7404.043
000060 23 a9 8d c6 5b 36 a7 c5 28 4e ab 44 71 65 7b 42
       -18132.568 -5350.7944 1370.4424 62.849064
000070 1d ad a0 c2 36 ce 85 c4 1d d7 ae 42 2f 77 22 39
       -80.33811 -1070.4441 87.42014 0.00015493923
000080 cc ab 74 c4 77 d1 fa 43 1a 46 9c 43 8c 8f 2a c4
       -978.6843 501.63644 312.54767 -682.2429
000090 4d 7f 81 c6 bd b2 77 45 ca 82 e7 44 0e 8f 54 c6
       -16575.65 3963.1711 1852.0872 -13603.764
0000a0 bf 1f 4b c6 6d 6e 86 c6 35 95 3c 46 b2 4e 08 47
       -12999.937 -17207.213 12069.302 34894.695
0000b0 e6 d9 74 46 1f 5b 29 c5 a3 98 24 c5 85 d8 08 c5
       15670.475 -2709.695 -2633.5398 -2189.5325
0000c0 0a ce 8d 42 80 80 0e 3a 02 4a e5 43 58 f7 2a 44
       70.90242 0.0005436018 458.5782 683.86475
0000d0 22 84 17 44 a8 c0 71 44 6a 1a db 45 84 fa 83 c6
       606.0646 967.01025 7011.302 -16893.258
0000e0 de 21 12 c6 47 c1 20 c6 8d 25 08 c3 f3 42 e7 44
       -9352.467 -10288.319 -136.14668 1850.0922
0000f0 43 11 e9 45 29 6f 13 c6 71 db c4 46 59 95 6a 45
       7458.1577 -9435.79 25197.72 3753.3342
000100 4a 06 d8 44 8c c2 f1 44 15 14 b1 44 c0 3a b2 ba
       1728.1965 1934.0796 1416.6276 -0.0013597831
000110 10 b1 d4 c2 11 ea 77 c2 c3 73 42 c4 f7 4e 86 c4
       -106.345825 -61.97858 -777.8088 -1074.4677
000120 5c b7 58 c5 b4 7c 13 c6 4f 6e c4 c5 ea 66 00 c5
       -3467.46 -9439.176 -6285.7886 -2054.4321
000130 20 e8 b2 46 66 3d 97 c6 4a cc 98 c6 9d e2 57 c6
       22900.062 -19358.7 -19558.145 -13816.653
000140 70 e5 cc c5 45 d7 8b 43 8f 56 ad 43 65 12 b2 43
       -6556.6797 279.6818 346.67624 356.1437
000150 fd 1d a5 c4 92 c9 fa 38 9d 6d 2b 42 70 16 ea c4
       -1320.9371 0.00011958474 42.857044 -1872.7012
000160 51 19 69 c3 56 28 ad c3 b0 12 10 46 26 b4 9a c4
       -233.09889 -346.31512 9220.672 -1237.6296
000170 8f ac 8d c6 69 05 e9 45 61 7e 2d c6 ad 21 2c 43
       -18134.28 7456.6763 -11103.595 172.13155
000180 66 dc 06 45 59 a5 c0 c6 cf 5b ac c6 55 3b e0 44
       2157.775 -24658.674 -22061.904 1793.8541
000190 b5 05 19 45 b1 2c c2 44 e3 96 db c3 87 f9 a8 b9
       2448.3567 1553.3966 -439.1788 -0.0003222937
0001a0 69 af 15 c4 c9 d6 c2 c4 cf 2f 93 c4 0e dc b8 c4
       -598.7408 -1558.712 -1177.494 -1478.8767
0001b0 08 97 96 c5 bd 6f 7e c5 d9 0c 67 46 31 4e 84 46
       -4818.879 -4070.9836 14787.212 16935.096
0001c0 c4 df 98 46 e0 b3 69 46 aa f0 a9 c6 47 03 b7 45
       19567.883 14956.969 -21752.332 5856.4097
0001d0 50 91 0a 46 a7 ac 92 44 7a 2e 34 44 74 13 d5 c3
       8868.328 1173.3954 720.7262 -426.15198
0001e0 9a c5 fa 43 9d 1a 0f 39 78 28 94 c4 8a 66 d0 42
       501.54376 0.00013647457 -1185.2646 104.20027
0001f0 b8 89 cc c3 cf 1f bf c4 83 f0 92 c6 1a 38 5e c6
       -409.07593 -1528.994 -18808.256 -14222.025
000200 60 e9 ab 43 77 d4 d6 c5 85 15 c6 44 72 ec 14 47
       343.82324 -6874.558 1584.6725 38124.445
000210 23 2e dc 45 8a 65 f7 c5 02 a4 92 44 98 a9 aa 44
       7045.767 -7916.6924 1173.1252 1365.2998
000220 c4 04 70 c3 2a 05 63 43 5d 7f ac 44 f5 69 b5 b8
       -240.01862 227.02017 1379.9801 -8.6504886e-05
000230 a5 bb 9a 43 c2 29 da 44 b0 4b bb 43 b1 c4 4c 44
       309.46597 1745.3049 374.5913 819.0733

exp_avg_sq f4 [8, 2, 3, 3]
000000 35 eb 1d 4f b1 62 11 4f 86 c4 0a 4f c0 1e ac 4d
       2.6494374e+09 2.4391642e+09 2.3281352e+09 3.6096205e+08
000010 55 69 de 4f b5 56 ae 4d c4 45 6b 4f 12 f0 55 4f
       7.46289e+09 3.6561475e+08 3.947218e+09 3.5892803e+09
000020 90 bb b2 4f 52 f2 84 4c f4 58 ad 4c 1b 51 2d 4c
       5.997273e+09 6.970229e+07 9.0884e+07 4.5433964e+07
000030 d9 f3 0f 4b 06 29 00 37 53 d6 d6 4b 5e 8a 57 4c
       9.434073e+06 7.638946e-06 2.8159142e+07 5.650265e+07
000040 41 a2 2c 4c 5d 90 9e 4c 58 62 1d 4e d3 c9 c1 4e
       4.5254916e+07 8.313316e+07 6.60117e+08 1.6256147e+09
000050 72 3d 4d 4e a4 a4 f7 4e b4 1b f5 4e 04 a2 64 4e
       8.6083904e+08 2.0773811e+09 2.0561167e+09 9.589558e+08
000060 11 48 d2 4e aa cf f1 4e 12 01 df 4e 24 ff 07 4b
       1.7639692e+09 2.0284593e+09 1.8706947e+09 8.912676e+06
000070 15 ad ed 4a cb 7b 3a 4b 4d 6c ab 4a 46 a4 93 35
       7.7881705e+06 1.2221387e+07 5.6171905e+06 1.1000163e-06
000080 68 6e 72 4a b3 b1 55 4b 1c c2 06 4b e5 45 fb 4a
       3.971994e+06 1.4004659e+07 8.831516e+06 8.2337145e+06
000090 c7 af ff 4e f5 01 39 4f 94 45 2b 4f cb 00 c3 4e
       2.1448549e+09 3.1039132e+09 2.8734638e+09 1.6358045e+09
0000a0 0a 45 12 4f ad 78 84 4f cb 93 0c 4f d8 bf 5d 4f
       2.453998e+09 4.445002e+09 2.358496e+09 3.7203374e+09
0000b0 87 9e 1d 4f 4c 81 01 4d a3 ae 10 4d 89 8b de 4c
       2.6444122e+09 1.357959e+08 1.5171026e+08 1.16677704e+08
0000c0 2f da 14 4a ff c2 76 36 15 97 11 4b fe b9 65 4b
       2.4387958e+06 3.677036e-06 9.541397e+06 1.5055358e+07
0000d0 a8 e7 23 4b d9 69 90 4b ca 98 a3 4e b6 df 30 4f
       1.0741672e+07 1.8928562e+07 1.3723497e+09 2.9674511e+09
0000e0 bb 22 15 4f 83 d1 d0 4f 67 8f 10 4e 17 b4 86 4e
       2.5020813e+09 7.006783e+09 6.063293e+08 1.1299747e+09
0000f0 1c b4 09 4e b9 c6 34 4f 8d 4c 89 4f 51 94 86 4c
       5.7757056e+08 3.0329224e+09 4.606991e+09 7.0558344e+07
000100 81 7d 90 4c 51 cf 6b 4c 22 32 cb 4a 1c 70 a0 36
       7.5754504e+07 6.1816132e+07 6.658321e+06 4.781423e-06
000110 af 5c 15 4b aa a0 ad 4b 06 98 8c 4b 5a 8e d7 4b
       9.788591e+06 2.2757716e+07 1.8427916e+07 2.8253364e+07
000120 fa d6 02 4e e7 c1 8a 4e 56 6e dc 4d 26 34 01 4f
       5.487817e+08 1.1639817e+09 4.622773e+08 2.1676785e+09
000130 e4 34 5a 4f b2 90 40 4f 43 87 61 4f 59 37 5d 4f
       3.6608993e+09 3.2307082e+09 3.783738e+09 3.711392e+09
000140 2f 6b 86 4f 99 b8 bd 4c 09 7d 09 4d a1 d8 ef 4c
       4.5103427e+09 9.946849e+07 1.4416706e+08 1.2574849e+08
000150 ba 70 bb 4b 57 46 55 36 c7 58 c3 4a 20 6c cd 4b
       2.456818e+07 3.1780417e-06 6.4011235e+06 2.692512e+07
000160 2b 1e 8d 4a 3e ab 1f 4b aa 99 1b 4e 71 dc 59 4f
       4.6241495e+06 1.0464062e+07 6.5263475e+08 3.6551027e+09
000170 f2 b8 83 4f d1 62 75 4e 79 9a a0 4e 7a de d3 4d
       4.419872e+09 1.0292235e+09 1.347239e+09 4.443216e+08
000180 23 4c d6 4e f9 f1 61 4f 31 ad 27 4e f5 c3 3e 4c
       1.797657e+09 3.7907315e+09 7.0328634e+08 5.000802e+07
000190 77 2f 98 4c eb 55 90 4c 62 f6 4c 4b d8 3a aa 36
       7.9788984e+07 7.567343e+07 1.3432418e+07 5.073245e-06
0001a0 3d cf ff 4a ad 5e 08 4c bb 73 91 4b 13 74 a5 4b
       8.3823665e+06 3.5748532e+07 1.9064694e+07 2.168631e+07
0001b0 49 bd 8c 4e 8f c5 96 4e d3 8c 53 4f 37 81 07 4f
       1.1806076e+09 1.2647648e+09 3.5492216e+09 2.2733924e+09
0001c0 f9 02 5b 4f 00 3f 22 4f 19 65 89 4e 74 3d 11 4f
       3.674405e+09 2.7220378e+09 1.1525521e+09 2.4367237e+09
0001d0 33 29 fe 4e b7 52 c3 4a 87 b6 83 4a a3 c3 4e 4b
       2.1320564e+09 6.4003475e+06 4.3159715e+06 1.3550499e+07
0001e0 7c fd 02 4a 54 24 62 35 03 4a 13 4b 89 96 d8 4a
       2.146143e+06 8.4244425e-07 9.652739e+06 7.0971565e+06
0001f0 9b e6 e9 4a fa ad 36 4b 5f 25 90 4e 84 96 ba 4e
       7.6644615e+06 1.197209e+07 1.2091841e+09 1.5652132e+09
000200 48 97 96 4e 16 04 9f 4e 77 54 9b 4e 23 33 10 4f
       1.2632484e+09 1.3339226e+09 1.303002e+09 2.4192704e+09
000210 80 16 26 4e 91 30 2f 4e 64 c6 85 4e c4 93 d8 4b
       6.966231e+08 7.347989e+08 1.1221857e+09 2.8387208e+07
000220 16 72 e0 4b 18 f8 f1 4b 0e b4 02 4b 8f 7b a6 35
       2.941854e+07 3.1715376e+07 8.565774e+06 1.2403924e-06
000230 1b d8 b3 4a 23 20 62 4b 4a 5b 17 4b 37 b2 56 4b
       5.8931335e+06 1.4819363e+07 9.919306e+06 1.4070327e+07

exp_avg f4 [8]
000000 09 86 b0 38 37 ef 87 ba fc 9e 0e b9 66 a1 87 ba
       8.4173e-05 -0.0010370974 -0.00013601402 -0.0010347783
000010 ec fb a8 ba d5 a6 58 ba 3b b5 b4 39 0e cc 8a 39
       -0.0012892461 -0.0008264606 0.00034467303 0.00026473444

exp_avg_sq f4 [8]
000000 d7 3d ee 36 c7 f8 10 36 47 29 b4 36 ba 53 c2 36
       7.100152e-06 2.160248e-06 5.3692233e-06 5.7913976e-06
000010 2a 70 cd 36 ea b6 df 36 aa 42 4e 36 a1 d9 5e 36
       6.1225337e-06 6.667212e-06 3.0735196e-06 3.3207255e-06

exp_avg f4 [16, 8, 3, 3]
000000 24 b1 21 44 cc 7b 84 44 1e 24 bf 44 88 d7 5b c5
       646.7678 1059.8687 1529.1287 -3517.4707
000010 72 19 40 c4 26 60 df c4 4d 84 d4 c4 67 91 71 c4
       -768.3976 -1787.0046 -1700.1344 -966.2719
000020 25 57 14 c5 de 8f 8c 45 1a 06 7c 45 26 61 3b 45
       -2373.4465 4497.9834 4032.3813 2998.0718
000030 0d a7 5f 44 17 66 5f 45 7e 77 23 45 90 91 64 c5
       894.61017 3574.3806 2615.4683 -3657.0977
000040 72 bf 89 c4 2a b2 25 44 05 c0 3b 45 5a cb 55 c3
       -1101.9827 662.7838 3004.0012 -213.79434
000050 23 31 0b c5 43 f3 81 45 ee ab a9 45 cd 29 7c 45
       -2227.071 4158.4077 5429.491 4034.6125
000060 15 28 1e 45 4d be c9 44 1f aa bc 44 93 b5 bb 44
       2530.5051 1613.9469 1509.3163 1501.6742
000070 9c b0 b8 44 94 1a 7b 43 0a 1f 40 c5 d3 0c ac c4
       1477.519 251.10382 -3073.94 -1376.4008
000080 00 94 f0 c4 ca 15 c4 c4 3c cb 27 c5 10 d2 db c4
       -1924.625 -1568.6809 -2684.7021 -1758.5645
000090 d8 40 07 45 db ba 06 c5 03 32 70 43 ed 7e 82 c4
       2164.0527 -2155.6785 240.19536 -1043.9664
0000a0 03 42 2c 45 a5 06 8e 44 ad 40 54 c4 35 1c 3d 45
       2756.1257 1136.2076 -849.01056 3025.763
0000b0 d3 b2 67 c4 ad bb a2 c4 94 98 fb c4 2a 8f 16 43
       -926.7941 -1301.8649 -2012.7681 150.55923
0000c0 8e 72 9c c3 de 79 81 c3 b0 4e a2 c4 cb d3 b0 c4
       -312.89496 -258.9521 -1298.459 -1414.6185
0000d0 42 97 44 44 10 bf b0 c4 da 39 3d 45 a0 2f 88 45
       786.3634 -1413.9707 3027.6157 4357.953
0000e0 76 84 1e 45 8b 23 4c 45 a2 e3 41 44 67 4e b9 45
       2536.2788 3266.2214 775.55676 5929.8003
0000f0 b8 6d 00 c5 fe 3a 8f c5 22 8e 42 c4 a1 de ed 44
       -2054.8574 -4583.374 -778.2208 1902.9572
000100 f8 b1 b4 c3 b0 68 6c c5 cf 30 b0 43 bd 5c 0e c3
       -361.39038 -3782.543 352.38132 -142.36226
000110 91 2a 75 45 a6 eb c3 44 3b 17 fd 43 0d fb 2a 44
       3922.6604 1567.364 506.1815 683.92267
000120 3f 97 03 c6 d1 94 e6 c5 89 90 15 c5 e0 c6 50 c5
       -8421.812 -7378.602 -2393.0334 -3340.4297
000130 5c 26 10 c4 a8 64 02 45 2d 31 b3 c3 3d 6b 05 46
       -576.59937 2086.291 -358.3842 8538.81
000140 19 e2 99 45 11 4b 84 c5 e0 fb f3 c5 bc f3 b1 c5
       4924.262 -4233.3833 -7807.4844 -5694.467
000150 59 b9 ab c6 5b 26 82 c6 a7 c1 3a c5 40 48 90 c4
       -21980.674 -16659.178 -2988.1033 -1154.2578
000160 4a b9 ad 44 f5 3f 93 42 27 3b 7a c5 a4 a0 25 c6
       1389.7903 73.624916 -4003.697 -10600.16
000170 6e ba 87 c5 d6 45 5e c3 3d a7 18 c5 bf fc bc 43
       -4343.3037 -222.2728 -2442.4524 377.97458
000180 e8 1f 47 c6 10 e4 7a c6 59 85 de 44 16 65 ae c5
       -12743.977 -16057.016 1780.1671 -5580.6357
000190 e6 c8 c9 c5 d2 bc 13 c5 7c 55 be c5 92 b5 55 c3
       -6457.1123 -2363.8013 -6090.6855 -213.70926
0001a0 5a 47 7d 45 05 d3 11 45 ba 20 0e 46 f0 6a 0e 46
       4052.4595 2333.1887 9096.182 9114.734
0001b0 20 5e 0c c6 9d b3 b1 c5 15 97 6f c5 49 02 ef c5
       -8983.531 -5686.4517 -3833.4426 -7648.2856
0001c0 a7 a6 41 c4 c0 15 80 45 c7 ae 0f c6 91 5e 82 c5
       -774.60394 4098.7188 -9195.694 -4171.821
0001d0 81 34 86 44 ab e5 fd c5 81 be bb c5 ab c7 86 c3
       1073.6407 -8124.7085 -6007.813 -269.5599
0001e0 2e 3e b1 43 86 10 34 45 5e 45 82 45 b5 c8 cb c5
       354.48578 2881.0327 4168.671 -6521.0884
0001f0 6f 78 0b 46 b3 e6 65 45 11 b1 f1 c4 e2 87 91 c5
       8926.108 3678.4187 -1933.5333 -4656.9854
000200 4c 93 de c4 c9 b8 6a c6 eb 11 0e c6 b4 77 e3 c4
       -1780.603 -15022.196 -9092.4795 -1819.7407
000210 12 1e 8c c5 e8 0d 14 c6 4c 0b ea 45 24 22 5f c5
       -4483.759 -9475.477 7489.412 -3570.1338
000220 cf a8 2a c6 9b 9b ec c4 4b b2 3a c5 e1 06 8e c5
       -10922.202 -1892.8627 -2987.1433 -4544.86
000230 ed 0c b6 45 69 68 e4 c5 b3 37 ee c5 f8 a2 13 46
       5825.6157 -7309.0513 -7622.9624 9448.742
000240 a4 0d ca c3 8a f5 03 c5 09 73 df c4 24 02 1c c5
       -404.10657 -2111.3462 -1787.5948 -2496.1338
000250 b3 87 6c c4 34 36 81 44 8f ab 8c c2 56 64 b6 45
       -946.1203 1033.6938 -70.335075 5836.542
000260 99 de d9 45 c3 5a a1 c5 88 f0 cb c5 7c 44 0f c6
       6971.8247 -5163.345 -6526.0664 -9169.121
000270 df 45 5f c5 f4 11 ac c5 62 78 d9 43 32 16 61 c3
       -3572.367 -5506.244 434.9405 -225.0867
000280 90 99 20 46 14 8a d1 c4 dd a8 57 c5 3c 33 20 c6
       10278.391 -1676.315 -3450.554 -10252.809
000290 94 ef c9 c5 64 0c 19 c6 d2 f8 c8 c5 03 99 bd c4
       -6461.9473 -9795.098 -6431.1025 -1516.7816
0002a0 6f 5d 39 45 0a d3 df c5 e6 1b cf c5 76 1a 40 c4
       2965.8396 -7162.38 -6627.4873 -768.41345
0002b0 c3 fe 32 c5 fc 0e 55 c5 cb 24 fe c4 55 c0 e9 c4
       -2863.9226 -3408.9365 -2033.1498 -1870.0104
0002c0 7f 2c 71 45 e0 6f 97 43 52 a4 de 45 ab a5 d9 45
       3858.781 302.87402 7124.54 6964.7085
0002d0 4e d3 9d c5 f9 74 a7 c2 c2 f8 76 c5 c1 47 48 c5
       -5050.413 -83.72846 -3951.5474 -3204.4846
0002e0 5d 0b 12 45 f7 61 68 c5 7c 50 63 c3 4f b2 07 46
       2336.7102 -3718.1228 -227.31439 8684.577
0002f0 9a 4c 96 c4 4a a7 7d c4 ae 6f 1f c5 91 b5 bd c4
       -1202.3938 -1014.6139 -2550.98 -1517.674
000300 f8 1f bf c5 14 7f e6 44 2c d8 c7 45 ea 3d 88 44
       -6115.996 1843.9712 6395.0215 1089.9348
000310 ae 40 05 c5 21 3d e2 44 20 35 17 c5 0a 8c 19 c6
       -2132.0425 1809.9103 -2419.3203 -9827.01
000320 ad 18 1b c5 6a 00 cc c4 40 0f 8d c5 bb dd 1b c5
       -2481.5422 -1632.013 -4513.9062 -2493.8582
000330 47 2c 3b 44 f4 a2 98 45 a2 a6 47 46 f5 05 af 43
       748.69183 4884.369 12777.658 350.04654
000340 2e 89 01 c6 3b b3 68 c4 4d 9a 89 c4 b3 73 23 c6
       -8290.295 -930.8005 -1100.8219 -10460.925
000350 51 53 07 46 c5 ba 5b 44 41 b6 3c c5 ec d3 11 46
       8660.829 878.9183 -3019.3909 9332.98
000360 03 d2 00 44 de 2b 21 c4 2b a6 20 44 8b c7 52 43
       515.28143 -644.6854 642.5964 210.77946
000370 71 07 98 c4 36 53 c6 43 66 e0 b3 44 27 13 29 c4
       -1216.2325 396.6501 1439.0125 -676.29926
000380 12 1c 22 43 a6 e2 09 45 59 09 56 45 02 1e da 43
       162.10965 2206.1655 3424.5842 436.23444
000390 4e b2 b2 44 1c ae 45 45 42 3e 4f 45 b5 ed 1f c5
       1429.572 3162.8818 3315.891 -2558.8567
0003a0 76 36 d5 43 8c 93 9a c4 07 6c 0e 44 c4 2c d2 c4
       426.42548 -1236.6108 569.6879 -1681.3989
0003b0 29 71 f2 c2 3b a6 3b 45 ef 79 9d 45 88 c3 35 45
       -121.221016 3002.3894 5039.2417 2908.2207
0003c0 15 8c 3f 44 87 97 5b 45 bd 5f 28 45 30 b7 96 44
       766.1888 3513.4705 2693.9836 1205.7246
0003d0 39 64 a5 c3 41 eb eb 43 6d e2 92 c4 af e9 3d c3
       -330.783 471.83792 -1175.0758 -189.91283
0003e0 f1 89 8e 44 3c 63 12 44 3e 17 6a 43 15 5f 78 c3
       1140.3107 585.55054 234.09079 -248.37141
0003f0 ce 3c a4 43 e7 05 3c 42 12 b9 9c 44 47 89 08 44
       328.47504 47.005764 1253.7834 546.14496
