output/cnn/blue-2/checkpoints/epoch_10.pt (torch, 66090 bytes, 39 tensors)

conv.0.weight f4 [8, 2, 3, 3]
000000 60 1a 25 be b7 05 35 be 94 43 3c be c5 f7 e2 bf
       -0.16123343 -0.17677961 -0.18385154 -1.7731863
000010 0b 32 89 3e 98 b2 5a bf 1c 3d a8 bd f3 76 99 be
       0.26795992 -0.8542876 -0.08214781 -0.29973564
000020 2f 86 0a 3f 75 56 a3 be cc 92 f0 3d 3a 2b 3f 3e
       0.54111 -0.319019 0.11746749 0.18668833
000030 38 8d 4b 3e e0 d9 46 3e 66 f8 63 3e 50 2c 4e 3e
       0.1987809 0.1941905 0.22262725 0.20134091
000040 aa 05 a5 bb ec 8c 9f be e4 3a 12 bf 0c e9 57 3f
       -0.0050360756 -0.31162202 -0.5712111 0.84339976
000050 f6 cf a6 be 14 fd de 3e 79 1d c3 3e df 75 27 bf
       -0.32580537 0.43552458 0.38108423 -0.6541423
000060 d5 68 e8 3c 25 8d 08 3e 86 6c 59 3f cd 11 90 be
       0.0283703 0.13335092 0.8493122 -0.2813858
000070 f5 98 6b be 5b 0f 95 3e 59 c2 9c be 12 bf ca be
       -0.23007567 0.29113278 -0.30617025 -0.395989
000080 1f c8 c4 bd 68 52 5e 3e 85 05 04 3f e4 53 0b 3f
       -0.096084826 0.21711123 0.5157092 0.5442488
000090 44 b3 85 3f 6b 4e 1c 3f 5e 83 00 3f 84 cc b2 be
       1.0445333 0.61057156 0.5020045 -0.34921658
0000a0 05 5c 17 be 54 41 b9 3e 86 5e 1e 3d 19 1b ad bb
       -0.14781196 0.36182654 0.038664363 -0.0052827713
0000b0 7d 09 06 3e 2a 55 2e bf 4e d1 8e bf b2 4d 70 bf
       0.13089557 -0.680987 -1.1157625 -0.93868554
0000c0 98 d6 5b 3f 8e 7d 2d bf 9e 6d bd 3e 23 6f d4 3d
       0.8587432 -0.67769706 0.36997694 0.1037276
0000d0 29 16 0d 3e 8c f5 e0 3b 5e b1 a5 be 41 6c 75 be
       0.13777985 0.006865209 -0.32361883 -0.23967077
0000e0 6f c0 8b be 1b f5 77 3e 30 bd 46 bf 3a b5 3a bf
       -0.27295253 0.24214594 -0.7763243 -0.7293278
0000f0 52 98 bd bf 82 6f fa bd 65 09 9c 3e 1e 04 f7 3d
       -1.481211 -0.122283 0.30475917 0.12061332
000100 cb ab 88 3e 98 56 66 3e f2 23 d1 3e 48 86 81 3f
       0.26693568 0.2249397 0.40847737 1.0119104
000110 d6 8d 4c be 4c c7 d1 3e f8 2d bb 3e 75 59 63 3e
       -0.19975981 0.40972364 0.3655851 0.22202094
000120 6d 7f 81 bf 0b 33 0e bf cc 79 47 bf 49 6c 86 3e
       -1.0117012 -0.55546635 -0.7792022 0.2625449
000130 1f 3e d2 3e d0 ce 29 3f fc b3 1a 3e 3f 07 89 3e
       0.4106302 0.66331196 0.15107721 0.2676334
000140 5a ce 01 3f 39 c4 31 3d be 47 14 bf 7e d0 2a bf
       0.5070549 0.043400023 -0.5792197 -0.66724384
000150 c8 15 85 3d 22 59 08 3f ed a0 66 3e 8b 22 b3 bd
       0.06498295 0.53261006 0.22522326 -0.08746823
000160 d6 f6 12 bf 87 86 8d be d1 23 24 bf 4c ac a1 3e
       -0.5740789 -0.276417 -0.6411715 0.31576765
000170 e0 57 d8 3e db 12 73 bf 64 db 09 bf fb a2 95 bf
       0.42254543 -0.94950646 -0.5385039 -1.1690363
000180 53 bb eb be 7c cd 9a bd c3 fa 1d bf ac 25 c5 3e
       -0.46041355 -0.07558724 -0.61710757 0.38505304
000190 27 b2 d2 be 23 ed 8e be fe 60 43 3e 5d 10 21 3f
       -0.41151544 -0.27915296 0.19079968 0.62915593
0001a0 ae 37 cb bb 9d 0b ce be df 8d a0 be f8 01 c3 3d
       -0.006201706 -0.40243235 -0.3135824 0.0952186
0001b0 cb 72 fd bd 54 5f 2e bd 06 38 e5 3e ae e7 94 3e
       -0.12375411 -0.04257138 0.44769305 0.29083008
0001c0 f0 1b 01 3f 4a 41 2b 3e 8b a7 ba 3f e1 62 17 3e
       0.50433254 0.16724125 1.458238 0.14783813
0001d0 7c b3 68 bb f5 9e 31 bc 0e 8e ce 3e 9c 66 eb 3d
       -0.0035507372 -0.010841121 0.40342754 0.114941806
0001e0 c9 2a 80 be 7c a9 f4 3e 22 e5 e9 bd 78 75 21 be
       -0.25032642 0.47785556 -0.11420657 -0.15767467
0001f0 b2 78 7d 3d 0f 3d 15 be fc 97 29 3d c1 4a 86 bd
       0.061882682 -0.14574073 0.04140471 -0.06557227
000200 c6 b0 c8 3d f4 83 bb 3f a9 21 66 be e0 50 50 3d
       0.09799342 1.4649644 -0.22473778 0.05085838
000210 ad 17 95 bc eb 1b 52 bf 05 24 db be 07 25 e7 bd
       -0.018199766 -0.8207385 -0.42800918 -0.11286359
000220 9a 7e 5a 3e de 20 51 3e b6 79 51 3e de 6f 77 3f
       0.21337357 0.20422694 0.20456585 0.9665507
000230 42 66 8d 3e d8 a4 6e be 61 fe 8b 3e 75 24 35 be
       0.2761708 -0.2330507 0.27342513 -0.17689689

conv.0.bias f4 [8]
000000 19 bb 4e 3f 9d cd 2e 3f b1 9f 42 bf 9f 0f e4 3e
       0.8075424 0.6828249 -0.7602492 0.44543168
000010 49 00 02 3f 63 46 e1 bd 73 06 bb bd 12 12 51 3f
       0.50781685 -0.10999753 -0.091320895 0.816682

conv.4.weight f4 [16, 8, 3, 3]
000000 3a 82 4e be d9 f5 eb be cc f7 31 3f 08 71 6c 3f
       -0.20166865 -0.46086004 0.69518733 0.9235997
000010 67 85 d8 3e d7 45 17 3f 6c 8b 93 3e 81 af fd bd
       0.42289278 0.5909094 0.28817308 -0.1238699
000020 37 91 b4 bd f7 85 98 be a8 dd ce be 35 b8 5a be
       -0.0881676 -0.29789707 -0.40403485 -0.21359332
000030 ad aa 92 bd 56 2d f1 3e 28 57 9a 3e e6 aa 0e 3e
       -0.0716146 0.471049 0.3014462 0.1393238
000040 fb 5d 08 3e 37 53 8b 3e 26 b3 24 3f 28 58 98 3e
       0.133171 0.27211925 0.6433586 0.29754758
000050 a8 7a e5 3e fb 33 ca be 72 12 ef bd 6c f3 ab 3d
       0.44820142 -0.39492783 -0.1167344 0.083960384
000060 5a 53 b8 3e a7 e4 fc 3e dd e0 1c 3e f8 bc ac bf
       0.36001092 0.49393198 0.15320154 -1.3495169
000070 f2 8d 0f 3f b8 06 14 3f a9 03 a4 3e d7 e2 48 bf
       0.56075966 0.5782275 0.32034042 -0.7847113
000080 38 5c 57 3f 34 03 08 3f 14 77 f1 be 7e 04 33 be
       0.8412509 0.5312989 -0.47161162 -0.17482182
000090 36 d7 bd 3f 88 c6 7e 3f 20 fc 61 3f 67 6b 6f be
       1.4831302 0.99521685 0.8827534 -0.23380814
0000a0 74 7f e2 bd 57 7c 4f 3e 86 34 3b bc be 3b 1b 3e
       -0.11059466 0.20262276 -0.011426097 0.15159509
0000b0 16 d7 23 3e 87 17 c5 3b 3d 69 b8 be 5b c9 11 bf
       0.16000018 0.0060147676 -0.3601779 -0.5694787
0000c0 bb b1 2c 3f 2e c5 4f be 27 c1 8d 3e f0 d5 c6 bd
       0.67458695 -0.20290062 0.27686426 -0.09708774
0000d0 3f 19 c2 be 6c 3f 40 bd 8a b6 9f 3d cf 0f 17 bb
       -0.37909886 -0.046935484 0.077984884 -0.0023050194
0000e0 31 f5 f2 3d fd 22 d7 be d9 61 c5 3d 22 ce f6 3d
       0.11863173 -0.4201888 0.096378036 0.120510355
0000f0 a1 62 3c bf 39 c3 bf 3f f1 00 4b 3f 8b 8f 43 3f
       -0.73587996 1.4981452 0.7929831 0.76390904
000100 40 45 2c be 2a 71 b6 be 7f d6 36 3f 1b d0 01 3f
       -0.16823292 -0.35633212 0.71421045 0.5070817
000110 cc 88 92 3e 4f 56 9d 3e 68 a2 3b 3e fa fb 40 bd
       0.28619993 0.3072991 0.18323672 -0.047115304
000120 cb 99 5a be c1 25 c7 bd 20 a4 99 3e 0e ec 83 3f
       -0.2134773 -0.09723998 0.3000803 1.0306413
000130 fb ac d3 3f c0 86 b4 3e fd f7 ba 3d 19 64 bf be
       1.6537164 0.35259056 0.09129331 -0.37381056
000140 fd 27 9b bf 65 47 23 3e 6b c7 e1 be c9 17 ad 3d
       -1.2121578 0.15945204 -0.44097456 0.08451802
000150 0a 1b d9 3e dc 1f 6f be 31 00 20 ba dc 4a d3 be
       0.42403442 -0.23351997 -0.0006103544 -0.4126805
000160 2a ff 63 be 61 ee 12 bf 17 54 24 bf 42 18 75 be
       -0.22265306 -0.5739499 -0.6419081 -0.23935035
000170 d7 1e 07 3e 2f 4d 59 be 45 4d 0d 3e 25 ef 1a bf
       0.13195358 -0.2122085 0.13799007 -0.60521156
000180 6a 02 88 3e 5c 2b a8 be 29 18 f1 be 4f ff c4 bd
       0.26564342 -0.3284558 -0.47088745 -0.09619009
000190 09 bb 57 be 97 5f b4 be 23 a5 51 3f 90 f6 e1 3f
       -0.21067442 -0.3522918 0.81892604 1.765337
0001a0 27 2d c1 3d 5c 49 2e be f2 f8 94 3e a9 f2 18 bf
       0.0943244 -0.17020172 0.2909618 -0.5974527
0001b0 76 6d 4a be 1d 88 78 bf 08 10 b6 3e 07 18 a1 3e
       -0.19768319 -0.9708269 0.35559106 0.31463644
0001c0 f4 19 44 bf c6 9c 41 3b 11 cb 26 be 45 88 8f be
       -0.766021 0.0029542907 -0.16288401 -0.28033653
0001d0 2c 9f ee be 14 11 3b be 44 85 34 3e 7b 29 6f bd
       -0.46605814 -0.18268234 0.17628962 -0.05838917
0001e0 ec b2 e5 3e 93 49 bc 3f 25 83 89 3e de c6 a1 be
       0.4486307 1.4709953 0.26857868 -0.31597036
0001f0 b9 09 86 bf e7 da 6f be 21 b2 ca be 3a a4 ae bc
       -1.0471717 -0.23423348 -0.39589027 -0.021318544
000200 51 43 0f 3f a8 9c df 3e f6 8f 3e 3e 0e ed 22 be
       0.5596209 0.43674207 0.18609604 -0.15910742
000210 92 cc c6 bf ce 6d 2f 3e f8 06 b4 3e 82 9d 3f 3e
       -1.553118 0.17131731 0.35161567 0.18712428
000220 82 1a f7 bd 70 08 82 be fa d9 a8 bc 81 13 26 be
       -0.12065603 -0.25397062 -0.020611752 -0.16218378
000230 41 23 2f bf df 01 15 bf 88 74 d1 be b2 b1 a4 3c
       -0.6841317 -0.5820598 -0.4090922 0.020104263
000240 61 64 19 bf f9 b7 c0 be 8f ac dd be ac 01 27 3d
       -0.5991879 -0.3764036 -0.43295714 0.04077308
000250 ea 94 b2 3e cd 61 1d be 2d 3b d5 be 81 c3 23 3f
       0.34879237 -0.1536934 -0.4164671 0.6397019
000260 ae c6 18 3f 0a bf 31 be 88 fd 2c bf e3 0c 4c 3b
       0.5967816 -0.17358032 -0.6757436 0.003113561
000270 27 76 32 bf ea ed 43 3c 03 41 72 bf d7 66 49 be
       -0.69711536 0.011958579 -0.9463045 -0.19668137
000280 a7 7a cc 3e ea f7 b1 be 86 f7 fb 3b 07 d1 8e be
       0.39937326 -0.34759456 0.007689419 -0.2789385
000290 a8 4a f2 be 4e 95 2f 3f d6 24 02 bd c4 31 04 3f
       -0.47322583 0.68587196 -0.03177341 0.51638436
0002a0 af 32 63 bf 6e 83 c8 3e b3 54 04 bf 9d bd 53 be
       -0.8874921 0.39162773 -0.5169174 -0.206778
0002b0 78 ee bd 3e d4 20 ac 3e b7 f0 46 be 55 68 0c 3e
       0.37096 0.33618796 -0.19427763 0.13711675
0002c0 aa d6 28 3e e9 74 35 3e e2 b2 1d 3e 95 ad ea 3e
       0.16488138 0.17720379 0.1540027 0.45835558
0002d0 40 39 3b 3e 25 bb 0c bf bd 45 e6 3e 4e 6c 48 3f
       0.18283558 -0.5497306 0.4497508 0.7829026
0002e0 77 01 c0 bf c6 0c 3f 3e 65 09 bd be 55 16 14 3f
       -1.5000447 0.18657216 -0.3692123 0.57846576
0002f0 f7 4b 85 bf 14 5c 21 be ff 59 a5 be 81 bf de 3e
       -1.0413808 -0.15757781 -0.32295224 0.4350548
000300 04 b8 82 3e 75 66 72 be fa 4e 7c 3e b2 7d 46 bf
       0.25531018 -0.23671897 0.24639502 -0.77535546
000310 6b 04 24 bd 9b 66 be 3d df 34 8c bf d9 0d 6a 3e
       -0.040043276 0.09296914 -1.0953635 0.22856845
000320 88 de 53 bf ad 0d 18 bf 01 d5 16 3f 39 58 44 bc
       -0.8276143 -0.5939587 0.5891877 -0.011983925
000330 83 72 1b 3f 55 0f 38 3b 94 02 1d be a6 ad 18 bf
       0.60721606 0.002808531 -0.15333015 -0.59639966
000340 44 26 df 3e 2c 45 6b 3f 82 b4 4c bf ec eb 12 bf
       0.43583882 0.9190242 -0.79962933 -0.5739124
000350 e4 8f 7f bf 0f 79 e8 3e d7 ee ea 3e a9 63 5c be
       -0.99828935 0.4540486 0.45885345 -0.21522392
000360 28 ab 98 3e ea 73 80 3e bb cf 42 bf 5c 86 80 bf
       0.29818082 0.25088435 -0.7609822 -1.0041003
000370 d8 d9 86 bf 0f f7 69 3e 3b a1 00 bf 8f 12 22 bf
       -1.0535231 0.22848152 -0.5024602 -0.6330957
000380 c0 d4 f4 be e1 00 7c 3d 6c 64 44 be fe 0f cc 3d
       -0.47818565 0.061524276 -0.19178933 0.09963988
000390 4c 6f 52 3e b1 b6 51 bd 46 75 82 be 6a 5e b6 be
       0.20550269 -0.05119962 -0.25480098 -0.35618907
0003a0 18 3e f1 3d 4a 27 f6 3e 4c 33 22 3f 25 64 8c 3e
       0.117794216 0.4807685 0.6335952 0.27420154
0003b0 26 6a 47 3f 54 bc 31 3d e7 c7 aa 3e 3d 68 fa 3e
       0.77896345 0.043392494 0.33355638 0.48907652
0003c0 86 63 53 3f 01 e8 20 3e a1 ef df 3e c8 d4 f4 3e
       0.82573736 0.15713502 0.4373751 0.4781859
0003d0 22 b3 5d 3e 30 cf fe be 77 5b 47 3e dc c1 70 bf
       0.21650365 -0.49767447 0.19468485 -0.94045806
0003e0 ac 84 2b 3e bf 93 4c bf 84 a1 ca be d6 73 4a bf
       0.16749829 -0.7991294 -0.39576352 -0.79083
0003f0 b4 0f d3 3e 72 61 d1 be f2 8b a5 3d 12 8c 11 3f
       0.41222918 -0.40894657 0.08083333 0.56854355

conv.4.bias f4 [16]
000000 56 88 d9 bd 52 c1 af 3f 97 1e 9a 3d 05 f2 dc 3e
       -0.10621707 1.3730872 0.07525366 0.43153396
000010 45 d5 67 be 68 4f 60 3e 5f 3b f9 be 20 f3 78 be
       -0.2263995 0.21905291 -0.4867811 -0.24311495
000020 d8 88 be bd 0d 49 4e bf 5a b1 b3 be 99 1e 68 3f
       -0.093034446 -0.80580217 -0.35096246 0.9067169
000030 cf bd 10 3f 3b 45 af 3c a2 d6 6b bf 02 a4 1c be
       0.56539625 0.021395316 -0.9212438 -0.15296939

fc.0.weight f4 [32, 64]
000000 7d 81 44 3f fe fa 57 3c c0 fa 04 3e c8 f6 84 3d
       0.76760083 0.0131824 0.12986279 0.06492382
000010 15 91 e8 be b9 77 91 bd de b2 d3 3e 30 3b 42 3f
       -0.4542319 -0.071029134 0.41347402 0.7587156
000020 6a 61 19 bf 50 4d 26 3d 47 16 71 3f 5a 05 c5 3e
       -0.5991427 0.040601075 0.9417462 0.38480645
000030 9f 20 80 3f 38 c9 f2 3e 7f 85 1e bd d7 8e b5 be
       1.0009955 0.47419143 -0.03870153 -0.3546054
000040 cd 74 3e bf 8d 09 1c bf 84 b0 37 3f f6 fc 1e 3f
       -0.74396974 -0.60952073 0.71753716 0.6210474
000050 f1 66 3f bf cf bc 5b 3f d5 6f 9b bd 6b 60 d4 3d
       -0.7476645 0.85834974 -0.0758969 0.10369953
000060 71 da c3 be 4c b4 4c bf f9 fc 97 3e b0 ae 31 3e
       -0.38252595 -0.7996261 0.2968519 0.17351794
000070 4f 18 79 3e c6 df 2b bf d0 b9 3c 3d 0c 84 c2 3f
       0.24325679 -0.67138326 0.046075642 1.5196548
000080 c5 5f 5d 3e d8 95 d0 3d 78 e2 b2 be 38 7e 8d 3e
       0.21618564 0.101848304 -0.34938407 0.2763536
000090 4a 98 82 be a5 95 83 be fc 5e c1 be 61 b7 7c 3f
       -0.25506812 -0.25700107 -0.3776778 0.98717314
0000a0 e8 63 11 3f bd aa 72 bf 06 a3 b3 3e 30 f5 2e 3e
       0.5679307 -0.94791776 0.35085315 0.17085719
0000b0 96 e4 0d bf 77 92 d8 3d b8 ef 4b bb 6f cd 3a 3f
       -0.5542692 0.10574811 -0.0031118225 0.72969717
0000c0 c6 94 04 bf 3c fa be be 2c 89 9a 3f 74 b2 9c be
       -0.5178951 -0.3730029 1.2073112 -0.306049
0000d0 f8 d5 80 3f 20 c1 84 3e b3 11 e0 be 5a 1c b3 3e
       1.0065298 0.25928593 -0.43763503 0.34982568
0000e0 79 6b 20 bf 58 af f5 3c f5 94 d7 3e 94 ef 07 3f
       -0.6266399 0.029990837 0.42105833 0.5309994
0000f0 97 cd 1a bf 72 ad dc be 76 e3 e7 3e e3 75 28 3f
       -0.60469955 -0.43101078 0.45290726 0.6580488
000100 0c ce 64 bf 22 ba 45 be 1a fe e4 3d 2a a3 5f 3e
       -0.893769 -0.19309285 0.111812785 0.21839586
000110 d7 a3 3e 3f 7f b9 d5 3e 1f e4 71 be e5 92 3a bf
       0.7446875 0.41743085 -0.23622178 -0.72880393
000120 ca 7c 2b 3f 68 87 35 be 3e 98 83 bf 3e 15 d6 bd
       0.6698729 -0.17727435 -1.0280836 -0.104532704
000130 d2 70 92 bf 01 ab 93 be 3c f0 a2 3e 22 32 fa 3e
       -1.144068 -0.28841403 0.3182391 0.48866373
000140 63 a6 3b 3f f3 83 81 3f 31 fa 39 bf fe 56 1b bf
       0.7330076 1.0118393 -0.72647387 -0.60679615
000150 39 8d 3f 3f 84 62 60 bf 3f a0 6a 3e e5 74 57 3e
       0.74824864 -0.8765032 0.22912692 0.21040685
000160 10 06 f8 3e 49 b7 58 3f ab 44 81 bc 4b db 9e be
       0.48442125 0.8465467 -0.015779814 -0.31026682
000170 41 f1 06 be c0 c1 5f 3f 7a 34 d8 bd 0c 39 cd bf
       -0.13177969 0.87405014 -0.10556884 -1.6033034
000180 76 4a a8 be 3c b9 fa 3c 99 3e b5 3e 5c 02 09 bf
       -0.3286931 0.030605905 0.3539932 -0.53519225
000190 d3 6a e1 3e 80 d5 0e 3f 2a 83 f8 3e a5 2d 99 bf
       0.44026813 0.55794525 0.4853757 -1.1967055
0001a0 a7 71 fa be 05 e7 92 3f 3c 35 b9 be 5b 55 dc bd
       -0.48914835 1.1476752 -0.36173427 -0.10758468
0001b0 c4 70 40 3f 13 9d 6d 3e 7d 36 aa 3e 74 c4 21 bf
       0.75172067 0.2320445 0.33244696 -0.6319039
0001c0 f1 67 4b 3f 16 e6 f2 3e 63 88 8b bf 82 de 0a 3f
       0.79455477 0.47441167 -1.0900997 0.5424577
0001d0 ab d9 6e bf 93 8c eb 3b 14 af f9 3e 2b d0 bc be
       -0.93300885 0.0071883886 0.48766387 -0.3687757
0001e0 18 d4 4a 3f 1a b1 bb bd e8 d3 d1 be f3 ed d7 be
       0.7922988 -0.09164639 -0.40981984 -0.42173728
0001f0 df 91 12 3f 52 24 34 3f 6d 22 9c be 02 58 33 bf
       0.5725383 0.7036792 -0.30495015 -0.70056164
000200 a7 74 af bd 68 16 e5 bc e7 97 b8 bc a4 b2 0f be
       -0.085671715 -0.027964786 -0.02253337 -0.1403299
000210 bc 8c d6 bd fb 28 f9 bd c9 73 ec bc 9d 5a af bc
       -0.10476062 -0.121660195 -0.028863804 -0.021405512
000220 ed 02 26 bd 0c 2f 7c bd 7a f1 d3 bd b1 56 1e 3c
       -0.040530134 -0.061568305 -0.103487924 0.0096642235
000230 7a 0a 19 be d4 eb 50 3d 57 c6 1e bd 91 da 92 bd
       -0.14945403 0.051006153 -0.03876337 -0.071705945
000240 32 e2 12 bd 45 4b 1c be f7 e1 76 bc 68 81 d1 3d
       -0.035860248 -0.15263088 -0.015068523 0.102297604
000250 4c 8c 00 be 5b 6a 15 bc ac cf 5c bd c5 b4 66 bc
       -0.12553519 -0.009119595 -0.05390899 -0.014081185
000260 1e 3a 28 3c 19 74 d2 bd 30 c6 33 be b6 62 f0 3d
       0.0102677625 -0.1027605 -0.17556071 0.117375776
000270 a7 94 6c bd a5 22 0f be bd 31 00 be 2e a8 1b bd
       -0.057758953 -0.1397806 -0.12518974 -0.038002186
000280 a4 35 3c be 31 a4 26 3e be 0c f2 3c 1a 94 b5 3d
       -0.18379837 0.16273572 0.029547092 0.08866139
000290 10 8d a3 3d 65 d9 92 bd 13 87 cc bd ba 01 03 3d
       0.0798589 -0.07170371 -0.09986701 0.03198407
0002a0 20 1b 30 bd 67 ca 2c bc e1 fb 03 bc b3 de e8 bd
       -0.04299462 -0.010546303 -0.008055658 -0.113706015
0002b0 2c 75 ae bd de d9 8c bd d6 a3 3b be 88 18 be bc
       -0.085184425 -0.06877492 -0.18324217 -0.023205057
0002c0 4a bf 09 bd 9b b0 85 bd f7 68 1d be 78 ba dc bc
       -0.033629693 -0.065278254 -0.15372072 -0.026944384
0002d0 9d 67 37 bd 39 25 52 3d 0b 59 9b 3c 4f d3 03 bd
       -0.044776548 0.05130503 0.018963357 -0.03218394
0002e0 f0 73 25 3d 5a d2 f2 bd 14 e3 da bc c0 61 f1 3c
       0.04039377 -0.118565276 -0.026719607 0.029465556
0002f0 ac 8f 6b 3d 4f 0e b8 bd 4e 1a 63 bd 86 58 09 be
       0.057510063 -0.08987104 -0.055445008 -0.13412675
000300 f2 ae d8 bd 61 f8 04 be 65 2e 5a bd 4b d7 88 bc
       -0.10580243 -0.12985374 -0.0532669 -0.016704222
000310 29 38 76 bd f3 40 02 be 38 2d be bc bb 5e 5e 3d
       -0.060112152 -0.12720089 -0.023214921 0.05428956
000320 12 13 a4 bd c1 d9 80 3d 90 59 f6 3c 65 11 92 bd
       -0.0801145 0.06291533 0.030072004 -0.07132224
000330 37 a2 c0 bd 68 4a 1b be 5e db 80 bd fa fe ec bd
       -0.0940594 -0.15165102 -0.06291841 -0.115720704
000340 3e 96 0b be 59 de 00 be 0b 22 65 3d 9e fa 22 bd
       -0.13631532 -0.12584819 0.05594067 -0.03978979
000350 cf 0e b9 bd 5f 85 81 3d 14 21 e7 bd 0e c5 0d be
       -0.09036028 0.06324267 -0.11285606 -0.13844702
000360 77 2d 1c be 27 b2 93 bd eb 39 72 3d ef 6a 1d bd
       -0.15251718 -0.07211714 0.059137266 -0.038432058
000370 e2 70 12 be ae d3 1a be 93 93 ee 3b 21 b6 e0 bd
       -0.14300874 -0.15119812 0.007280776 -0.10972238
000380 f1 6a 0d be 45 40 07 be c4 9a 35 be 00 3d 1e 3d
       -0.13810326 -0.1320811 -0.1773482 0.038632393
000390 16 a7 bb bd fd bf 61 bd 7c 44 13 bd ae e9 18 be
       -0.091627285 -0.055114735 -0.035953984 -0.14932892
0003a0 3b 54 0d be 01 a5 2c 3d 48 17 12 3d ce 8b e8 3c
       -0.13801663 0.042149547 0.035666734 0.028386977
0003b0 3f 74 99 bd 50 5a 31 3d b6 88 f4 bd 5d 50 36 be
       -0.07492875 0.04329902 -0.11940138 -0.17804094
0003c0 5e 03 18 be 8a dd d8 bd 98 29 24 be a7 a8 97 3c
       -0.14845034 -0.1058913 -0.16031492 0.018513037
0003d0 cf 61 42 bd 10 ac 6b 3d 57 17 ab bc a8 02 73 bc
       -0.04745656 0.05753714 -0.020885153 -0.014832176
0003e0 d1 11 06 be 95 0f 95 3c 43 9c ad 3b ff b4 d2 bd
       -0.13092734 0.018195907 0.005298169 -0.102884285
0003f0 b3 28 d4 3a 8c 78 f1 3c 08 27 5f 3c dc ea ec bd
       0.0016186446 0.029476427 0.013620146 -0.11568233

fc.0.bias f4 [32]
000000 1e 8f a2 3e 77 7a e2 bd 3f 31 46 be 4b 88 b4 3c
       0.31749815 -0.110585146 -0.19354723 0.022037646
000010 01 1d d7 3d 60 17 b1 3e 01 38 1d be e9 f3 46 3d
       0.10503579 0.34588146 -0.15353395 0.048572455
000020 dc 92 f5 bc 9e e6 b6 bd 7e e6 86 bd f4 7b 4a bd
       -0.029977255 -0.089307055 -0.06586932 -0.049434617
000030 7d 66 2f be fc 50 e7 3b 1e 6f ae 3c 54 03 95 3d
       -0.1712894 0.0070592146 0.02129322 0.072760254
000040 37 d7 6f 3d 6b d9 28 3d e7 7a 9a 3d 29 7b b9 3e
       0.058554854 0.04122297 0.07542973 0.36226776
000050 fc 38 1a be 0c ee 43 3d de 26 f5 bc 0b af fc bd
       -0.150608 0.04783444 -0.02992576 -0.12338074
000060 dc 3e 43 bd 8b d2 64 3d c2 32 d4 bd ed 92 94 3e
       -0.04766737 0.055864852 -0.10361244 0.29018345
000070 f1 45 fe bd cb 13 06 be ac 88 ae bd f3 1b 9b 3e
       -0.12415684 -0.13093488 -0.08522162 0.3029476

fc.2.weight f4 [16, 32]
000000 87 e3 27 be aa e9 88 3c a5 04 20 bd 15 ce 6a be
       -0.16395389 0.016712982 -0.03906693 -0.22930177
000010 26 7e c1 3d 02 1f cf bd 0b d9 12 3d e0 13 6b 3d
       0.09447889 -0.10113336 0.03585152 0.057392
000020 97 af 32 be 10 94 e3 38 26 82 0a be f9 86 0c 3d
       -0.17449795 0.00010851782 -0.1352621 0.034308407
000030 dd fc ea bd 54 da f1 bd 26 29 9a bd 43 aa 60 bc
       -0.11474011 -0.11809221 -0.0752738 -0.013712469
000040 89 84 8b bc 05 d6 d2 bd 78 8b c3 3d 18 4e 25 be
       -0.017030971 -0.10294727 0.09548086 -0.16143072
000050 8f 3c b3 bc b7 57 0f 3e 5e e1 5f bd 9a 35 43 bd
       -0.021879463 0.13998304 -0.054658286 -0.04765854
000060 fa 68 45 be 40 95 4c be 7b 82 d6 3b bc 22 19 be
       -0.19278327 -0.1997881 0.006546316 -0.14954656
000070 f6 1b 1b be fa 86 d4 3d 1e d5 2c be 45 3c 9e 3d
       -0.15147385 0.10377307 -0.16878173 0.07726339
000080 9b 7e f6 bd ef d7 30 be a5 10 8e 3b 5b e6 d8 3d
       -0.12035867 -0.17269872 0.0043354803 0.10590812
000090 bc 8a 20 be 7e a5 e9 3d 6b bd 60 bd c5 d3 17 be
       -0.15677923 0.11408518 -0.054868143 -0.14826877
0000a0 50 49 8c bd 74 cf 60 3e 68 8d 08 be 01 2d 8b bd
       -0.06849921 0.21954137 -0.13335192 -0.06795693
0000b0 10 81 e6 3d f0 f9 f1 bd a1 3e 22 3c 0a 5e 7b be
       0.112550855 -0.1181525 0.009902627 -0.24547592
0000c0 6f 84 85 bd 7e f7 bb bd c6 7a 4c bd ba 3a b9 bc
       -0.065194 -0.09178065 -0.049921773 -0.02261101
0000d0 41 00 c9 3d 20 a2 85 3c ed f7 15 be 44 fb 22 be
       0.098145016 0.016312659 -0.14645357 -0.15916163
0000e0 29 e6 a5 bc a3 e1 18 3d 48 9b 27 3e cd 95 a0 bd
       -0.02025135 0.03732456 0.16367829 -0.07841072
0000f0 3c 98 65 3c 55 04 b3 3d 90 1c 3e 3c 14 00 03 bd
       0.014013346 0.08741061 0.0116034895 -0.031982496
000100 4e 49 30 bf 31 78 0b 3f 49 a3 30 3e 32 54 df 3d
       -0.68861854 0.5448027 0.17249788 0.10904731
000110 d3 1b 47 bf 64 5a 36 bf 9f 6d 1e be 27 4f 50 3f
       -0.7777683 -0.71231675 -0.15471505 0.81370777
000120 1d d3 30 3f 81 03 81 3d 61 44 e0 3d d9 fb 23 3f
       0.69072133 0.062994964 0.10950542 0.64056164
000130 f1 ac 9a bd a8 97 0e 3f 64 3f 60 3d ca ca 2c 3f
       -0.07552517 0.5570016 0.054747954 0.6749693
000140 86 c4 60 3f de d8 11 3f 06 41 d3 3e bb c2 37 bf
       0.8779987 0.5697154 0.41260546 -0.7178151
000150 50 ee 54 3c f1 4f 6f 3d 58 7f 87 3c 3c 41 a5 3e
       0.012996271 0.058425847 0.016540214 0.32276332
000160 46 31 d0 bd de fb 2b be 5d 81 80 3d 00 18 5c bf
       -0.10165648 -0.16795298 0.06274674 -0.8597412
000170 d0 48 c3 bc a9 20 d4 bd a7 9d 24 3e 98 9b 2b bf
       -0.02383843 -0.10357792 0.16075765 -0.6703429
000180 7b 88 32 bf 71 57 10 3f 21 33 8c bd 2a 0a 43 3d
       -0.697395 0.56383425 -0.068456896 0.047617115
000190 e5 f3 2b bf 67 c0 11 bf fe 00 e9 bd 00 32 49 3f
       -0.6716903 -0.5693421 -0.11377142 0.7859192
0001a0 e7 21 10 3f 70 a0 99 bd a8 7d 57 3c a2 91 ea 3e
       0.5630173 -0.07501304 0.013152517 0.45814234
0001b0 4d 5d 27 bc 15 65 10 3f 3c 02 0c bd 56 dd 3b 3f
       -0.010215116 0.5640424 -0.03418182 0.73384607
0001c0 cd 89 5a 3f f8 68 0d 3f 6f 57 d9 3e 52 6c 46 bf
       0.8536652 0.55238295 0.4244952 -0.77509034
0001d0 43 2d 3e 3e 43 77 8f bd a7 67 61 bd fe 6e ce 3e
       0.18571953 -0.07005169 -0.05503049 0.40319055
0001e0 3a 0a 50 be 26 cb 29 bd 39 6c 88 3d ba f2 80 bf
       -0.20316401 -0.041453503 0.06661267 -1.0074074
0001f0 4a 1c d9 3d 5e 76 17 3d a0 2e 29 3c 97 57 de be
       0.10601099 0.036978118 0.010326058 -0.434262
000200 7a 2f 01 bf c5 38 24 3f 10 37 25 3e 58 27 95 3d
       -0.5046307 0.64149123 0.16134286 0.07282895
000210 f9 2c 2e bf f0 c9 33 bf 2a a7 86 3c c3 74 4b 3f
       -0.6803737 -0.7023001 0.016437132 0.7947504
000220 12 ea 3e 3f 28 ff e8 3d c2 e1 16 3e b0 e5 f4 3e
       0.7457591 0.11376792 0.14734557 0.47831488
000230 02 b7 e0 3d 0b f4 4b 3f 6e ed b3 bd d4 65 d0 3e
       0.10972406 0.79669255 -0.087855205 0.4070269
000240 7d b3 3c 3f 02 ee 0d 3f b5 19 42 3f 6f 75 31 bf
       0.7371138 0.55441296 0.75820476 -0.69319814
000250 4c 1e 0f 3e 8d 40 bf 3d 54 90 ee bc ec 19 e8 3e
       0.13976401 0.09338484 -0.029121555 0.45332277
000260 b0 15 95 bd 1f 14 69 bd a9 f5 bc 3c d6 f6 7e bf
       -0.07279527 -0.056903955 0.023066359 -0.9959539
000270 5e 80 ba bd de c5 00 be 90 69 20 be 70 25 10 bf
       -0.09106515 -0.1257548 -0.15665269 -0.56307125
000280 89 f1 54 be 3b 9e 18 be e3 66 02 be 51 5c ed 3d
       -0.20795263 -0.1490411 -0.1273456 0.115898736
000290 7a 51 e8 3d 4f 8a 1f 3d d2 20 27 3e 1e 23 f9 bd
       0.113436654 0.03895026 0.16321114 -0.12164901
0002a0 2b b3 d2 bb 1a 62 62 3c 86 8e c8 bc 11 3f 4e be
       -0.00643005 0.013817335 -0.024482023 -0.20141245
0002b0 fc 87 42 be 37 8e 13 be 44 2a 33 bd 56 56 ca bc
       -0.18997186 -0.1440972 -0.04374148 -0.024699371
0002c0 64 90 0f bd 0d 4f 47 be 6b 24 16 be 83 62 3d be
       -0.03504981 -0.19463749 -0.1466233 -0.1849461
0002d0 bd 00 c3 3c 78 67 8b 3c 30 98 bb 3d 14 8e 5c be
       0.023804063 0.017017111 0.09159887 -0.21538574
0002e0 0a 0e 1f 3d ec 26 cd 3d 32 2c e3 bd 6b b7 0d be
       0.038831748 0.100171894 -0.11092414 -0.138395
0002f0 3d d3 2d be e2 8e 49 3d 85 f5 22 be 67 42 d4 3c
       -0.16975112 0.04920853 -0.15913971 0.02591057
000300 1d fb 31 bf 42 fd 52 3f df 65 03 3e c7 39 68 3d
       -0.69523793 0.8241769 0.1283183 0.056695726
000310 fa 62 3b bf 8c cb 4f bf 40 37 d1 3b 8c 52 2f 3f
       -0.731979 -0.8116996 0.00638476 0.6848533
000320 66 fa 39 3f a6 59 68 3e 45 5a 3e be 8f 9a da 3e
       0.726477 0.22690448 -0.18589123 0.42696044
000330 41 13 bc bc 84 30 40 3f 55 10 27 3e e8 aa 02 3f
       -0.0229584 0.7507403 0.16314824 0.5104203
000340 e2 59 54 3f 82 60 a6 3e 03 cd 2b 3f e7 a9 0c bf
       0.8294965 0.32495505 0.671097 -0.5494675
000350 df a1 a8 3d e8 8e 19 be 90 5c ed 3c a5 a2 be 3e
       0.082339995 -0.1499592 0.028974801 0.37233463
000360 4c 8b 25 bd 78 5f 1c bd 01 ef 1a 3e 39 26 43 bf
       -0.040416047 -0.038176984 0.15130235 -0.762302
000370 11 64 23 be c1 20 ac bd b2 f2 e7 3d 60 b9 3e bf
       -0.15956141 -0.08404685 0.11325587 -0.7450161
000380 cd 87 19 bf be 1d 1e 3f c7 0f 1b 3e 3c 7e 0c bd
       -0.5997284 0.6176413 0.15142737 -0.034300074
000390 96 af 12 bf 73 86 24 bf 64 4a 03 3d 07 92 24 3f
       -0.5729917 -0.64267653 0.032053366 0.6428532
0003a0 2b eb d4 3e d9 fd 35 be 04 4d 73 3d 32 e4 dd 3e
       0.4158567 -0.17772616 0.05939962 0.43338162
0003b0 ee fa 5d bd 90 d2 33 3f 30 26 99 bd 74 a1 2a 3f
       -0.054194383 0.7024317 -0.07477987 0.6665261
0003c0 b8 7a 50 3f bc f3 cc 3e 81 55 23 3f 8d 6d 2b bf
       0.81437254 0.40029705 0.63802344 -0.66964036
0003d0 77 ef 04 bc 41 98 75 3d 4f 80 1d 3e f8 e4 e9 3e
       -0.0081137335 0.059959654 0.15380977 0.45682502
0003e0 72 95 26 be e6 4d bd 3d 1f e9 eb bd 14 62 2f bf
       -0.16267946 0.092433736 -0.11519074 -0.6850903
0003f0 86 b4 ac bd 3e 47 c7 bd ba 4e cf bd 36 10 3b bf
       -0.084328696 -0.09730385 -0.10122438 -0.7307161

fc.2.bias f4 [16]
000000 4a 71 44 bd b7 01 33 bd a1 81 9e 3e 0a d1 9d 3e
       -0.047959603 -0.043702807 0.30958274 0.30823547
000010 d0 a9 c4 3c 32 c8 ec 3d ec 81 84 bd 0a ea 78 3e
       0.024006754 0.11561622 -0.06470093 0.24308029
000020 4f ae 58 bd 42 0f d9 bc be cb 9a 3e 93 d9 60 3e
       -0.05290061 -0.026496533 0.30233568 0.21957998
000030 40 94 c7 bc ed 3c ea bd df 4a 29 bd b7 a2 08 bd
       -0.024362683 -0.11437402 -0.04133117 -0.033358302

fc.4.weight f4 [8, 16]
000000 3e 74 6c be 42 94 64 be 7c c0 66 be 1d d4 56 be
       -0.23091218 -0.22322181 -0.22534364 -0.20979352
000010 a1 a1 30 3d 8e c5 3d 3e 8f 14 5b be 7c 99 fa 3c
       0.04312289 0.18532392 -0.21394561 0.030590765
000020 40 2b 7d be b0 29 1e bd 09 21 88 bd 4c 17 a6 bb
       -0.2472353 -0.038613975 -0.06646926 -0.005068695
000030 9c 4a 8a be 6e 05 3e be 8b b2 42 3d 40 25 01 3d
       -0.27010047 -0.18556759 0.047533553 0.031529665
000040 9d f1 5e be 42 cb 2c be 39 24 52 3f a6 c1 65 3f
       -0.21771856 -0.16874412 0.8208652 0.8974861
000050 a7 80 65 3f d8 e8 0e 3e d1 85 27 3f 85 6b 15 3f
       0.8964943 0.1395601 0.6543856 0.58367187
000060 e3 d9 12 3e cb 1c 71 3f 3c 48 0f bf 4e 3a 12 bf
       0.1434093 0.9418456 -0.55969596 -0.57120216
000070 3b 14 3a be 34 f5 c6 bd 6d 71 4f 3f 37 7c ba bd
       -0.1817178 -0.097147375 0.8103245 -0.09105723
000080 76 4c 27 be 78 df 2b 3e c0 47 16 3e 98 69 ad bd
       -0.16337761 0.16784465 0.14675808 -0.08467406
000090 3c 3d d6 bd 08 7c fe bd 30 8a 04 be 64 2f cf bd
       -0.10460898 -0.12426001 -0.1294334 -0.10116461
0000a0 0c 5f 60 be 00 46 72 ba e8 88 7e be d4 46 2c be
       -0.21911258 -0.0009241998 -0.24856913 -0.16823894
0000b0 10 50 d8 3c 70 65 50 3e 88 91 13 be 20 30 c2 bd
       0.026405364 0.20351195 -0.14410985 -0.09481835
0000c0 64 94 e4 bd 0e c0 62 3e 7d 1b 8d be 0f ca 5b be
       -0.11161116 0.22143576 -0.27560034 -0.21463798
0000d0 fa a9 54 bd 82 8e 3e 3e 38 75 ac be 63 63 e5 3b
       -0.051919915 0.1860905 -0.3368318 0.007000373
0000e0 16 37 50 3e 24 d3 a0 bd 83 03 66 3e 10 79 59 3d
       0.20333514 -0.07852772 0.22462277 0.05309397
0000f0 50 e3 94 3d 84 c4 00 3e 17 26 33 be e4 21 64 be
       0.07269919 0.12574965 -0.17494999 -0.22278553
000100 0a 28 30 bd f8 1b 6c 3e 18 95 1d 3e df 96 27 be
       -0.043006934 0.23057544 0.15388906 -0.16366147
000110 ac 54 57 be 1f b1 03 bc 18 a6 74 bd d4 78 4c be
       -0.21028394 -0.008037834 -0.05972871 -0.19967967
000120 e0 c4 27 3e 9c 65 be be 4e ec 95 bd 00 c5 16 be
       0.16383696 -0.37186897 -0.07320462 -0.14723587
000130 f0 a6 f5 3d c8 26 ae bd 2b 8b f5 bd 8c ce 6f 3e
       0.119947314 -0.08503491 -0.11989435 0.23418635
000140 06 ee 42 3e 25 79 bc bd 9a cd 78 3f 4d db 55 3f
       0.19036111 -0.09202794 0.97188723 0.8353775
000150 97 f3 69 3f 87 f0 f0 bd e4 1c 7e 3f 04 98 6d 3f
       0.91387314 -0.11764627 0.99262834 0.9281008
000160 56 e8 1a be d7 f5 60 3f 56 74 93 be 0c d8 0f bf
       -0.15127692 0.8787512 -0.28799695 -0.56189036
000170 9a 65 98 3c 80 53 db 3d a8 cd 18 3f d1 a0 37 be
       0.018603135 0.10709286 0.59688807 -0.1793244
000180 44 a9 1c 3e 8a 2c 83 be db d5 c1 bd 76 2c 18 3d
       0.15298945 -0.25619918 -0.09464618 0.037151776
000190 20 04 0d be 20 e2 9a 3c e6 63 be 3d 2b db df bd
       -0.13771105 0.018906653 0.09296398 -0.10930475
0001a0 a8 63 e0 bd 02 c1 49 bd 93 48 ea bd a2 42 36 3d
       -0.10956508 -0.049256332 -0.11439624 0.04449714
0001b0 ce e4 96 3d 88 a9 37 bd 83 bf 54 be c0 ab 09 bc
       0.0736786 -0.044839412 -0.20776181 -0.008402765
0001c0 40 0b 00 be 98 d0 65 be 5c 93 56 3f a3 05 3e 3f
       -0.12504292 -0.22442853 0.838186 0.7422735
0001d0 08 60 20 3f 18 ed b2 3d b4 07 e4 3e 0f ea 41 3f
       0.6264653 0.08736628 0.44537127 0.7574777
0001e0 00 82 2d 3d 72 88 e2 3e 1d be d1 be a3 b1 56 be
       0.042360306 0.44244725 -0.40965357 -0.209662
0001f0 ee 3f 45 3e 70 7c d9 bc cc 05 0b 3f d0 f6 00 3e
       0.19262668 -0.026548594 0.5430572 0.12594151

fc.4.bias f4 [8]
000000 89 e0 6c be da 01 a2 3e f8 b1 0f be 9e 00 89 be
       -0.23132528 0.31642038 -0.14032733 -0.26758283
000010 aa b9 89 be 70 75 c0 3e 43 da 9d be b5 17 bf bd
       -0.26899463 0.37589598 -0.30830583 -0.09330694

fc.6.weight f4 [4, 8]
000000 12 bb ce be 2c 5d 61 3f 08 d9 2b 3d 60 73 cc bd
       -0.40377098 0.88032794 0.041955024 -0.099829435
000010 52 92 f6 3c 61 cb 86 3f 01 83 4f 3e 54 f3 23 3f
       0.030099068 1.0530816 0.20264818 0.64043164
000020 48 4e bf bd 63 8b 5b 3f 22 cd 29 be 20 d0 c9 bd
       -0.09341103 0.8575956 -0.16582158 -0.0985415
000030 d2 50 e4 3d 84 7b 54 3f cd d4 14 be b4 b0 4d 3f
       0.11148228 0.8300097 -0.14534302 0.8034775
000040 84 53 89 bd 55 69 7c 3f 9e 6e 39 be 04 73 95 bd
       -0.067053825 0.98598224 -0.18108603 -0.07297328
000050 e8 0e 92 bd 38 b4 40 3f cb 82 fe bd 26 ae 3b 3f
       -0.071317494 0.7527499 -0.124272905 0.73312604
000060 bc dc 8d 3d 20 45 1b 3c 69 8e ad 3e e0 1e e2 bd
       0.06926867 0.00947693 0.33897713 -0.11041045
000070 f8 7e de 3d 70 35 b2 bc a0 7a bb bd 24 f0 82 be
       0.10864061 -0.021753997 -0.09154248 -0.25573838

fc.6.bias f4 [4]
000000 e0 1d 87 3e 7f bb 93 3e 9a ae f1 3d 13 ee 52 be
       0.2638998 0.28853986 0.11800881 -0.2059863

output.weight f4 [1, 4]
000000 6f 24 72 bf 32 e0 80 bf 32 bf 9a bf d0 6e ea 3d
       -0.94586843 -1.0068419 -1.2089598 0.11446917

exp_avg f4 [8, 2, 3, 3]
000000 64 3f c5 42 6b 0e 13 46 f2 68 15 46 67 f0 c2 44
       98.62381 9411.6045 9562.236 1559.5126
000010 ae e9 71 c6 ff 5e a9 c5 eb 1e 14 46 d8 52 57 c5
       -15482.42 -5419.8745 9479.7295 -3445.1777
000020 e0 9f f6 45 b8 70 b6 44 ef 4c 98 44 6e 56 aa 44
       7891.9844 1459.5225 1218.4042 1362.7009
000030 05 e5 1f 43 46 93 6f 39 99 12 b6 43 ed 51 a1 42
       159.8946 0.0002284768 364.1453 80.66001
000040 ee 31 81 40 4f b1 1d 44 5c 1a 05 c6 4d ed 7f 45
       4.037345 630.77045 -8518.59 4094.8313
000050 eb db da c4 16 b3 66 c6 98 36 00 c5 59 1f 12 c6
       -1750.8724 -14764.771 -2051.412 -9351.837
000060 89 ed b0 46 4b 8a 61 c5 a9 db 41 c6 73 73 83 43
       22646.768 -3608.6433 -12406.915 262.90195
000070 a4 49 55 44 b7 18 9b 44 1d 72 10 c4 c3 cc e2 37
       853.15063 1240.7723 -577.783 2.7036649e-05
000080 de 85 b4 43 13 79 18 c4 be 93 ee c2 20 9b 3b 43
       361.04584 -609.8918 -119.28856 187.60596
000090 ec 36 8a c5 38 24 3b 46 a1 22 04 45 0b 2e 12 c5
       -4422.865 11977.055 2114.1643 -2338.8777
0000a0 01 e4 ec 45 fe ea 37 c6 d0 b1 34 c6 4a 9b 14 c6
       7580.5005 -11770.748 -11564.453 -9510.822
0000b0 d8 44 96 c1 ad be 5e c3 d0 ae 70 c2 d8 89 98 43
       -18.783615 -222.74483 -60.170715 305.0769
0000c0 09 8e 51 c3 3c 70 14 37 f8 82 ae 43 80 76 1c c4
       -209.55482 8.847619e-06 349.0232 -625.85156
0000d0 15 93 d9 c3 30 47 80 43 33 fd d6 c5 b8 0a 74 44
       -435.14908 256.55615 -6879.65 976.1675
0000e0 fc 3d c7 44 4a 41 37 c6 cf 26 0c 42 dd 29 88 c3
       1593.937 -11728.322 35.0379 -272.32706
0000f0 04 f2 2c c5 e7 a4 6e 45 54 31 38 c6 71 84 a7 c4
       -2767.126 3818.3064 -11788.332 -1340.1388
000100 65 7f c1 c4 00 ac 9b c4 95 10 08 43 d1 b4 43 3a
       -1547.9811 -1245.375 136.06477 0.00074656034
000110 a3 71 ba 43 bc b5 44 44 9d e3 08 44 e6 ed 3f 44
       372.8878 786.8396 547.55646 767.71716
000120 2a 4d 00 c5 3d 68 3b c6 d9 15 17 c5 12 53 c1 c5
       -2052.8228 -11994.06 -2417.3655 -6186.384
000130 78 e9 36 46 1a 5f a3 c6 e8 6e 89 c6 b8 79 9b c5
       11706.367 -20911.55 -17591.453 -4975.215
000140 b3 4e 8e 45 99 5a 79 c4 f8 94 e4 43 44 9a 95 43
       4553.8374 -997.4156 457.16382 299.2052
000150 23 9b 09 c5 c2 44 81 b9 d8 c6 13 c3 3c ff 0b c5
       -2201.696 -0.00024656026 -147.77673 -2239.9521
000160 d5 7d 8d c2 af 85 11 c3 3b 5d 95 45 53 cd 0f c6
       -70.745766 -145.5222 4779.654 -9203.331
000170 62 2b d9 46 a9 9c 1f 46 ed 90 b9 c4 d0 c1 58 44
       27797.691 10215.165 -1484.5289 867.0283
000180 34 d2 56 c5 ac c2 2a 46 58 57 33 c5 80 c7 35 c3
       -3437.1377 10928.668 -2869.459 -181.7793
000190 17 02 52 c3 aa 0d 0b c3 aa 97 5a c3 27 a0 0f ba
       -210.00816 -139.05338 -218.59244 -0.00054788816
0001a0 d7 50 4a c3 de 12 72 42 bc 5b 03 43 49 42 8b c3
       -202.31578 60.518425 131.35834 -278.51785
0001b0 09 72 8c 45 55 19 86 c5 a0 3e ee c5 69 58 8f 45
       4494.2544 -4291.1665 -7623.828 4587.0513
0001c0 bb 7b be 45 f2 c1 b5 c6 1e d9 70 c3 5a f4 2c 46
       6095.4663 -23264.973 -240.84811 11069.088
0001d0 84 05 30 c6 3f 35 8b c3 0d ab a5 c3 27 9e 44 c4
       -11265.379 -278.416 -331.33633 -786.4711
0001e0 84 3f 27 42 ca 20 67 39 c6 5d c4 c3 60 ce 6d c1
       41.812027 0.00022042092 -392.7326 -14.8628845
0001f0 34 fb 79 c2 90 0b e6 c3 b1 a3 c3 44 2e 6f 83 44
       -62.495316 -460.09033 1565.1154 1051.4744
000200 52 b7 ee 45 f6 b1 03 c6 10 e3 24 c4 d3 48 dd 44
       7638.915 -8428.49 -659.54785 1770.2758
000210 18 86 02 45 2e 47 de c5 70 ab 0f c6 26 ba 34 44
       2088.3809 -7112.8975 -9194.859 722.90857
000220 c3 a3 2c 44 e9 eb f4 43 8c c5 8b c1 b0 2f 62 b9
       690.5588 489.84305 -17.471458 -0.00021570805
000230 72 3b a1 c3 31 4d 73 c3 40 e0 73 c3 3c 87 03 c4
       -322.46442 -243.30153 -243.87598 -526.11304

exp_avg_sq f4 [8, 2, 3, 3]
000000 99 2c bd 4e 0b 3d 00 4f 6b 97 bd 4e b6 84 46 4d
       1.5869083e+09 2.1514842e+09 1.5904086e+09 2.0816163e+08
000010 91 50 83 4f ff 49 72 4d 52 3c 1c 4f f1 bd f5 4e
       4.4061906e+09 2.5405848e+08 2.6211988e+09 2.061433e+09
000020 04 9d 69 4f e8 ec 27 4c bf f9 6f 4c 3b 9d 1f 4c
       3.9193815e+09 4.402064e+07 6.2908156e+07 4.18419e+07
000030 13 32 ce 4a 64 af 86 36 09 25 31 4b ef 28 1b 4c
       6.7566175e+06 4.0139294e-06 1.1609353e+07 4.0674236e+07
000040 29 08 ef 4b 73 04 12 4c 7f 94 ad 4d 89 92 d7 4e
       3.1330386e+07 3.827758e+07 3.6402378e+08 1.8083524e+09
000050 8d 82 24 4e 09 af c9 4e 32 80 ce 4e 61 52 13 4e
       6.900048e+08 1.6918458e+09 1.732254e+09 6.179124e+08
000060 54 32 c1 4e e0 67 da 4e 84 d4 c7 4e 5a d7 1b 4b
       1.6206505e+09 1.8321203e+09 1.6762967e+09 1.021321e+07
000070 03 bf db 4a 7c 97 2c 4b 40 f7 9b 4a 75 87 77 35
       7.2006415e+06 1.1310972e+07 5.110688e+06 9.2211786e-07
000080 e2 ab a8 4a 75 72 14 4b e0 5d 93 4a 9f 20 e7 4a
       5.527025e+06 9.728629e+06 4.828912e+06 7.5735835e+06
000090 1c d0 ad 4e d4 39 e4 4e fb 2a d8 4e 01 ec 42 4e
       1.4580485e+09 1.9144975e+09 1.8133477e+09 8.1756166e+08
0000a0 9c 7d 8e 4e 06 50 20 4f 62 e8 c5 4e b7 05 b1 4e
       1.1952983e+09 2.689599e+09 1.6601705e+09 1.4849709e+09
0000b0 55 c6 e1 4e e5 4f 82 4c 52 21 90 4c df 34 65 4c
       1.8939357e+09 6.8321064e+07 7.556571e+07 6.0085116e+07
0000c0 36 9f 91 49 de 41 04 36 ce f2 a4 4a 3a 22 09 4b
       1.1929348e+06 1.9707873e-06 5.405031e+06 8.987194e+06
0000d0 e1 02 cd 4a f9 41 42 4b 5f db 55 4e 97 b3 19 4f
       6.7178085e+06 1.2730873e+07 8.969809e+08 2.5786836e+09
0000e0 d1 af ce 4e 24 2d 8d 4f f8 cd 03 4e 21 e0 f0 4d
       1.7338144e+09 4.7370916e+09 5.528284e+08 5.0515254e+08
0000f0 f1 80 ab 4d d3 a2 33 4f 1e f0 4d 4f 37 ce 26 4c
       3.5966928e+08 3.0137925e+09 3.4550656e+09 4.3727068e+07
000100 54 ed 4c 4c 05 ea 14 4c e7 5a ff 4a 53 f4 7e 36
       5.37204e+07 3.9036948e+07 8.3674755e+06 3.7991165e-06
000110 24 29 21 4b 85 8b c3 4b 17 63 86 4b ed 23 d7 4b
       1.0561828e+07 2.5630474e+07 1.7614382e+07 2.8198874e+07
000120 0c 5f 9c 4d c3 4f 08 4e b5 27 a7 4d 6a 14 d7 4e
       3.2793434e+08 5.7173216e+08 3.5054966e+08 1.8042196e+09
000130 5e 41 0d 4f d3 a9 0e 4f a0 1a 51 4f 76 e6 44 4f
       2.3698714e+09 2.3934943e+09 3.508183e+09 3.3034378e+09
000140 af ff 32 4f 74 da aa 4c 0e 32 f1 4c 47 8c ca 4c
       3.003101e+09 8.957635e+07 1.2645592e+08 1.06193464e+08
000150 5b c3 90 4b 24 d0 23 36 98 d2 b2 4a 20 8e 98 4b
       1.897439e+07 2.4410047e-06 5.85966e+06 1.9995712e+07
000160 fa 68 6c 4a ab be 1a 4b b0 a5 fa 4d 6a c8 31 4f
       3.8733425e+06 1.0141355e+07 5.256453e+08 2.9827016e+09
000170 10 07 70 4f c4 e7 af 4d e6 d1 69 4e 2a 42 6a 4d
       4.0269947e+09 3.6890022e+08 9.807118e+08 2.456378e+08
000180 24 cd 46 4e 39 04 20 4f fa 49 35 4e 49 c1 16 4c
       8.338332e+08 2.6846313e+09 7.6038106e+08 3.9519524e+07
000190 31 93 81 4c 56 ed 81 4c ff b1 97 4b f5 c3 81 36
       6.79346e+07 6.811922e+07 1.9883006e+07 3.867312e-06
0001a0 17 8b 08 4b a5 58 4b 4c 47 29 b4 4b 8b 90 a0 4b
       8.948503e+06 5.3306004e+07 2.3614094e+07 2.1045526e+07
0001b0 21 ce 55 4e 33 cb 51 4e 5e 0d 33 4f b7 7e d1 4e
       8.9676397e+08 8.7993875e+08 3.0039977e+09 1.7573713e+09
0001c0 2a 5b 1f 4f 11 1e ea 4e 68 7d 79 4e 3e e9 00 4f
       2.673552e+09 1.9639195e+09 1.04643635e+09 2.1627694e+09
0001d0 1b 12 da 4e bf 75 a1 4a 36 3f 4d 4a ff ad 10 4b
       1.8293098e+09 5.2907195e+06 3.3627655e+06 9.481727e+06
0001e0 81 a1 06 4a e6 e8 44 35 53 68 c7 4a 43 e4 ab 4a
       2.2057922e+06 7.33546e-07 6.5341855e+06 5.6325455e+06
0001f0 b6 8e a4 4a 64 c2 0f 4b 77 7a a2 4e 11 28 9e 4e
       5.392219e+06 9.421412e+06 1.3629674e+09 1.326713e+09
000200 b1 29 d1 4e 09 0f 8b 4e b2 89 8f 4e 5b c8 fd 4e
       1.7545852e+09 1.1665092e+09 1.204083e+09 2.1288831e+09
000210 29 48 3a 4e fe 6a 76 4e f9 85 a1 4e c3 65 a9 4b
       7.813228e+08 1.03355174e+09 1.3549559e+09 2.220327e+07
000220 f6 10 d9 4b 4f b4 e8 4b 57 a1 f4 4a b8 5f 9a 35
       2.8451308e+07 3.0501022e+07 8.0160435e+06 1.1501752e-06
000230 5b 36 a6 4a ff 89 a0 4b 47 2a 18 4b 54 fa 46 4b
       5.4464455e+06 2.1042174e+07 9.972295e+06 1.3040212e+07

exp_avg f4 [8]
000000 f8 9e 28 b9 41 c3 c7 39 13 88 5f b9 34 67 89 b8
       -0.00016080949 0.00038101713 -0.00021317629 -6.551892e-05
000010 fa 6d 26 38 d6 70 ea 38 98 9d 9f b8 78 d7 19 39
       3.9679908e-05 0.00011179007 -7.611065e-05 0.00014671485

exp_avg_sq f4 [8]
000000 f4 76 95 36 62 55 01 36 59 88 5b 36 21 5a 97 36
       4.454394e-06 1.9272197e-06 3.2712908e-06 4.510643e-06
000010 ec c8 86 36 ee ae ac 36 c2 8a 29 36 ce 3c 53 36
       4.0169016e-06 5.146364e-06 2.526373e-06 3.1476843e-06

exp_avg f4 [16, 8, 3, 3]
000000 c8 3f 39 c4 42 37 99 c4 48 7b c7 c1 59 99 d2 44
       -740.9966 -1225.7268 -24.935196 1684.7921
000010 96 29 b4 44 02 74 de 42 b4 fa 03 44 bf 62 47 44
       1441.2996 111.22658 527.91724 797.5429
000020 b3 df 1a 43 ff e6 84 c4 1f ca 10 c5 3a 7b 7e c3
       154.87383 -1063.2186 -2316.6326 -254.48135
000030 4a 5d 05 45 77 1c d5 44 24 96 01 44 a9 b3 d0 44
       2133.8306 1704.8895 518.34595 1669.6144
000040 47 a6 37 45 01 02 8a c4 ff 85 2f 43 55 c7 ff c3
       2938.3923 -1104.0626 175.52342 -511.55728
000050 25 ce 00 c5 04 24 7b 43 31 cc b5 c4 51 e2 d6 c4
       -2060.884 251.14069 -1454.381 -1719.0724
000060 f1 b4 1b c4 78 4d 1a 45 c9 75 f8 43 02 e1 81 c3
       -622.8272 2468.8418 496.9202 -259.75787
000070 14 f6 2e c4 be d9 02 c4 70 e4 a2 44 43 11 c2 44
       -699.845 -523.4022 1303.1387 1552.5394
000080 6b 00 f9 c3 f0 05 5c c4 c1 81 19 44 56 2f b7 44
       -498.00327 -880.0928 614.0274 1465.4792
000090 e7 59 8f c4 fd c3 15 c5 11 56 bd c4 8a 4b 59 44
       -1146.8094 -2396.2493 -1514.6896 869.1803
0000a0 b0 04 cd 44 13 aa 4f 44 32 95 07 45 77 22 c9 c4
       1640.1465 830.6574 2169.3247 -1609.077
0000b0 06 0b f6 c4 29 7f 03 43 fa 55 b9 43 95 92 3e c4
       -1968.3445 131.49672 370.6717 -762.29034
0000c0 cf 22 27 43 76 3a e8 c4 2b c8 05 c4 6c f1 5c 44
       167.13597 -1857.8269 -535.1276 883.7722
0000d0 1a ad 9b 43 73 79 35 42 90 1f ed c1 6e 9c 9a c4
       311.35236 45.368603 -29.640411 -1236.8884
0000e0 26 e5 31 c5 89 96 fb c4 37 d3 b2 44 41 53 1b 45
       -2846.3218 -2012.7042 1430.6005 2485.2034
0000f0 0e 67 e4 44 ce 57 e7 c0 19 79 b3 44 ea b3 e2 c4
       1827.2205 -7.2294683 1435.7843 -1813.6223
000100 21 4e 66 c4 c4 5d c4 c4 6c c5 44 44 4c b9 eb 44
       -921.22076 -1570.9302 787.0847 1885.7905
000110 40 d0 0c c3 54 cc 88 c4 02 0a 8c 44 2f ad c3 44
       -140.81348 -1094.3853 1120.3127 1565.412
000120 73 01 2b 45 3f 0b 4e 44 04 e9 b5 43 5b d5 2d 44
       2736.0906 824.1757 363.82043 695.3337
000130 72 78 a5 44 e0 65 cc c3 7b 70 e9 c2 c2 1e 3f c5
       1323.7639 -408.7959 -116.71969 -3057.9224
000140 be 0f c2 c4 0b 2a 2e 45 7a 64 24 45 24 27 3f 45
       -1552.492 2786.6277 2630.2798 3058.4463
000150 5f 55 d9 43 c7 10 3d 44 60 37 0f c5 fe fb 53 45
       434.66696 756.26215 -2291.461 3391.7495
000160 d9 c9 04 c5 54 03 dc 44 cf df 98 45 91 ef 23 44
       -2124.6155 1760.104 4891.976 655.7432
000170 db 85 39 43 22 34 02 c3 89 dc 33 45 12 a1 8d c4
       185.52287 -130.20364 2877.7834 -1133.0334
000180 b6 b7 c4 45 dd f3 83 45 bc 17 de 44 8b aa 47 45
       6294.964 4222.483 1776.7417 3194.659
000190 9c 16 83 43 68 3b e2 44 08 12 00 45 c9 c6 85 c4
       262.17664 1809.8564 2049.127 -1070.212
0001a0 09 42 e3 c4 7a ab 2e 42 ac 67 97 c4 2a 0f 29 c5
       -1818.0636 43.667458 -1211.2397 -2704.9478
0001b0 88 63 03 45 e2 57 07 45 18 09 5f 44 33 66 46 45
       2102.2207 2165.4927 892.1421 3174.3875
0001c0 af c8 1c 45 b7 59 20 c4 d6 17 8b 44 66 db f3 c4
       2508.5427 -641.4018 1112.7449 -1950.8562
0001d0 e1 79 2f 45 83 f4 c0 44 ff 17 3c c3 76 6c e6 44
       2807.6174 1543.641 -188.09373 1843.3894
0001e0 23 a6 41 45 9b ea 1f c4 26 75 0a c2 12 a1 a2 44
       3098.3835 -639.6657 -34.614403 1301.0334
0001f0 6f 51 d1 c4 dd dc 8b c4 16 48 1d c4 a1 4b 6e 45
       -1674.5448 -1118.902 -629.12634 3812.7268
000200 2c de 54 43 4a fa 6b 44 10 81 b0 c4 56 da c1 44
       212.86786 943.91077 -1412.0332 1550.823
000210 72 94 8c 44 28 82 05 46 2f 6c 26 c4 76 61 55 45
       1124.6389 8544.539 -665.69037 3414.0913
000220 9c 67 95 45 7a 45 9a c4 c8 58 f9 43 16 6c 2e c5
       4780.951 -1234.1711 498.6936 -2790.7554
000230 df 5d 35 43 56 ff 03 c4 be b3 eb 45 55 64 1d c5
       181.36668 -527.9896 7542.468 -2518.2708
000240 4a 6d 37 44 40 08 83 44 f6 53 c0 44 6f 93 94 43
       733.70764 1048.2578 1538.6238 297.15182
000250 8b 02 77 c4 06 9d c1 c4 f8 40 1a 44 8c 69 c6 43
       -988.03973 -1548.907 617.01514 396.8246
000260 d4 cc f7 44 15 f5 cc 43 60 54 8f 43 0a 5f dd c4
       1982.4009 409.9147 286.65918 -1770.97
000270 01 a4 88 c4 59 a4 a1 c4 4b a3 19 c5 f6 7b a1 44
       -1093.1251 -1293.1359 -2458.2058 1291.8738
000280 cd 8c 5c c5 d8 bb 52 45 32 9e 01 c4 d2 0f 9c c4
       -3528.8 3371.7402 -518.4718 -1248.4944
000290 94 17 64 c5 18 43 5d 43 86 52 c5 43 d5 a1 9c c4
       -3649.4736 221.26208 394.6447 -1253.0573
0002a0 50 45 f6 44 2b 66 4d 45 85 51 82 45 ef 98 12 43
       1970.166 3286.3855 4170.19 146.5974
0002b0 f1 60 95 44 33 59 06 45 2f e8 c1 43 1e 8f 22 c3
       1195.0294 2149.575 387.81393 -162.55905
0002c0 31 8e db c2 e9 6d 0f 44 e9 02 03 45 c9 1d 23 45
       -109.77772 573.71735 2096.182 2609.8616
0002d0 de 26 2e 43 3c 6c 9e c4 e4 f7 bf 43 f2 78 ae c1
       174.15182 -1267.3823 383.93665 -21.809055
0002e0 00 75 49 44 ed c4 ec c4 3e 17 bd 44 ee 16 e2 c3
       805.8281 -1894.1539 1512.7263 -452.17914
0002f0 ac 9b 85 45 75 c7 c1 42 90 79 e9 43 f9 9d 27 44
       4275.459 96.889565 466.9497 670.4683
000300 15 28 76 43 49 70 a8 44 9e 61 93 44 1a c8 cf 41
       246.15657 1347.5089 1179.0505 25.972706
000310 5c 5a 8a 45 e0 ef 1b 45 c9 fd f8 40 73 f3 9e c4
       4427.295 2494.9922 7.7809796 -1271.6078
000320 23 84 20 c4 45 78 20 44 18 bc 9e 44 7e 25 0d c4
       -642.06464 641.8792 1269.8779 -564.5858
000330 68 3a 3c 44 8e 50 7e 44 4b 27 03 c5 6c 3c 27 44
       752.9126 1017.25867 -2098.4558 668.9441
000340 aa 43 d9 44 2e e8 60 c5 d3 b4 03 c4 02 f7 fe c3
       1738.1145 -3598.5112 -526.8254 -509.92975
000350 30 13 b5 c2 6e 35 cf 44 81 9c b7 45 f5 c7 ec 43
       -90.537476 1657.6697 5875.563 473.56216
000360 f0 29 3a c4 ec e4 f9 42 bd a1 41 c3 d1 d4 31 44
       -744.6553 124.94711 -193.63179 711.32526
000370 02 15 14 43 d7 0f 0b c3 29 e6 13 43 9c e3 49 43
       148.08206 -139.06187 147.89906 201.8891
000380 28 1c 1a 44 a0 a6 02 c4 c9 d3 05 43 9e 07 cf c3
       616.43994 -522.6035 133.82729 -414.0595
000390 0e bd 48 44 a1 c9 1d 44 8d d8 ef 43 d9 11 99 42
       802.954 631.15045 479.6918 76.53486
0003a0 3d cc ac c4 35 1f c9 c2 40 d6 3a 44 a4 66 65 44
       -1382.3824 -100.56095 747.34766 917.60376
0003b0 d0 be 0a 44 bd ed 54 44 4d af d9 c3 69 53 1c 43
       554.98145 851.71466 -435.36954 156.32582
0003c0 c5 dd 1a 43 6d 46 98 c3 90 68 cc c3 28 4a 8e c4
       154.86629 -304.5502 -408.8169 -1138.3174
0003d0 db 05 03 c3 4a 6c 19 44 9f 9e 26 44 a0 c2 81 c3
       -131.02287 613.692 666.47845 -259.5205
0003e0 f9 84 7e c3 7d 07 d9 c2 2e 0f cf c3 fb 62 19 44
       -254.51942 -108.514626 -414.1186 613.5466
0003f0 81 81 41 c4 ff 47 d7 c3 9c 5c 0e c4 80 10 89 44
       -774.0235 -430.56247 -569.447 1096.5156
