output/cnn/blue-2/checkpoints/epoch_38.pt (torch, 66602 bytes, 39 tensors)

conv.0.weight f4 [8, 2, 3, 3]
00000000: 5b45 81bd b513 9bbe c09b e2be 5864 41c0
00000010: e87f f03e 4b82 c9bf e4a8 aabd 6b45 f8be
00000020: 350e 983f 36ac 9ebf 3814 103f 70bb 043f
00000030: ce1c de3e b1f9 663f 4138 c13e e393 0f3f
00000040: dc55 fa3e 6ddf 3ebf 2422 7ebf ac35 ce3f
00000050: ab05 e0be 94e9 363f 866d 463f f289 83bf
00000060: 17b7 8a3e 9da9 d23e 39c1 b63f b32e 65bf
00000070: 7629 48bf 5f26 333f b789 a73e 5e67 c4be
00000080: 1b50 15bf 2b72 24bd 475e 0d3f 7904 5f3f
00000090: 5907 0b40 f251 863f e255 783f fdfc b7be
000000a0: aee2 1fbd e9dc 153f bfeb 0e3e 7ce6 923d
000000b0: 1497 5c3e 79dd bcbf 0e60 f4bf 802a d4bf
000000c0: b892 8f3f ef2c d4bd 7774 563f e825 b13e
000000d0: d5d1 bc3e ecfc 103e eb91 20bf 8c7c babe
000000e0: 2661 51bf f6e3 f63e 01d9 c2bf c4f5 bbbf
000000f0: ee7c 2dc0 5517 d1bd 3b8c 143f 92cd 133e
00000100: 2d3b 833e fc28 803f d2dc 4d3f c9bb 29bf
00000110: 61b0 dbbe 6ddf c43e 61ee c53d d40e a73d
00000120: 3ea5 11c0 1492 99bf 7111 d0bf 171e bc3e
00000130: 2c6c 0c3f 84fb 863f 3861 ac3e e174 c53e
00000140: 6ddb 713f c2f8 e33e 1357 80bf 3572 6bbf
00000150: 7b1b 803f aa78 84be 1ac6 9e3f f9bc 6b3e
00000160: 6a60 e9bf 538d c7be 1693 b0bf 3005 073f
00000170: d5f7 2d3f fe59 efbf 4abf 84bf b94e 10c0
00000180: eb03 6dbf 1685 91be 7214 3ebf 653c b53e
00000190: 2e2f 69bf 076b cabe dc3c 803e 67e0 893f
000001a0: 9b96 243e 1050 34bf e1d0 e3be 506c cebe
000001b0: 7b4d a5bd fc5d 7dbe 078f 773f 3986 003f
000001c0: c477 5b3f 392c d53e 11a6 2440 f80d aa3e
000001d0: 7569 63bc 12b2 f7bd 23a1 143f 353b 833e
000001e0: 9244 3dbf 120b 2f3e c089 01bf 01a9 e0be
000001f0: 87e1 3bbe 0f0f bcbe 3165 9dbd 1020 96bd
00000200: 9db2 1c3e fd62 2540 be78 0bbf 827f 303d
00000210: 53fb b83d 9db2 abbf 1356 29bf 779a a3be
00000220: 8cf1 d53d 7b31 f23e e575 123f 03d8 cd3f
00000230: 70aa 913e 47f8 e8be 5cc4 f13e 3615 4ebf
-0.06312057 -0.30288473 -0.44259453 -3.0217495 0.46972585 -1.5742887 -0.083329946 -0.48490462
1.1879336 -1.2396305 0.5628085 0.51848507 0.4338135 0.9022475 0.3773823 0.5608503
0.4889363 -0.7455967 -0.99270844 1.6110129 -0.43754324 0.7145016 0.7751087 -1.0276473
0.2709281 0.4114503 1.4277717 -0.8952438 -0.78188264 0.69980425 0.32722256 -0.38360113
-0.58325356 -0.04014794 0.5522198 0.871162 2.1723235 1.0493758 0.97006047 -0.35935202
-0.039034538 0.5854021 0.13957117 0.07172868 0.21542007 -1.4755088 -1.9091814 -1.657547
1.121665 -0.10360133 0.8377146 0.34599233 0.3687884 0.14158982 -0.62722653 -0.36423147
-0.8178886 0.48220795 -1.5222474 -1.4684377 -2.71075 -0.10209528 0.58026475 0.14433888
0.25631085 1.0012507 0.8041507 -0.6630216 -0.42908004 0.3845171 0.09664608 0.08157125
-2.2757106 -1.1997705 -1.6255323 0.36741707 0.5485256 1.0545506 0.33667922 0.38565734
0.9447544 0.44525725 -1.0026573 -0.9197114 1.0008386 -0.2587331 1.2404206 0.23021306
-1.8232548 -0.3897501 -1.3794887 0.5274229 0.67956287 -1.8699338 -1.0370877 -2.2548048
-0.92584103 -0.2842185 -0.7424995 0.3539764 -0.91087615 -0.3953478 0.25046432 1.0771607
0.16073076 -0.70434666 -0.444953 -0.4031701 -0.08071419 -0.24742883 0.9670262 0.5020481
0.8572962 0.41635302 2.572636 0.33213782 -0.013880123 -0.12094511 0.58058375 0.2563111
-0.73932755 0.17094067 -0.50600815 -0.4387894 -0.1834775 -0.3673024 -0.07685316 -0.07330334
0.1530251 2.5841668 -0.5448111 0.04309035 0.09032311 -1.3413883 -0.66146964 -0.31953785
0.10446462 0.47303376 0.5721114 1.6081547 0.28450346 -0.4550192 0.47220123 -0.80501115

conv.0.bias f4 [8]
00000000: 0332 663e 0f32 8f3f 7c11 6cbf 05b6 d7be
00000010: 45b7 693e 02d4 a3be 9181 743f 3715 d1be
0.22480015 1.1187152 -0.9221418 -0.42131057 0.22823818 -0.31997687 0.955102 -0.40836498

conv.4.weight f4 [16, 8, 3, 3]
00000000: 2fde 21bf 4e67 f5be 21db c03f cf23 0840
00000010: 91f7 543f be41 393f 2d7a b43e ba61 733e
00000020: 20d3 263f c8f8 adbe 23d2 4cbf bb55 55bf
00000030: 68d4 17bf b4c5 873f c9af 693f b0c1 603e
00000040: bf9c 43bf 7e33 533d a154 083f 9aa4 97be
00000050: 0464 303f fc82 75bf a077 94be 723c bf3e
00000060: 91b9 1f3f 0402 063f 7462 153f 4263 49c0
00000070: 43d3 6d3f fcd6 de3f f9b4 913e 2d4c d9bf
00000080: ddf9 ec3e 035c 2e3f 0c6b 69bf 11cb 1dbf
00000090: 4394 1240 6ca6 bf3f f701 d73f f919 08bf
000000a0: a59e 433c 4931 c83e f081 11bf 6f53 bb3e
000000b0: 915c 49be eda7 7b3f 9bd1 2bbf a880 8dbd
000000c0: 44b6 1240 ca43 903e 5f86 38bc c8fc 52bf
000000d0: 00be c0bf 9c67 983e 3964 10bf 5ba1 56be
000000e0: 6a6e 59be 51e2 9abf 3346 a83e 432b 9e3c
000000f0: 3d93 98be 5b04 0d40 1725 873f c08f 1d40
00000100: d537 3bbb 781a 49bf 4916 973f 8ab3 173f
00000110: c1b2 d6be 72d1 ab3e c0e1 7f3e 45b3 fbbd
00000120: 5b90 03bf a1ed 3ebf 7e99 be3f 2e93 f33f
00000130: df15 0240 80ec 143f aee0 4cbe 7b5a 51be
00000140: e029 cabf c8ef 053f 8e75 59bf dec7 803d
00000150: 9708 373f 1efe d7be 2656 55be f84b 52bf
00000160: 9022 f9be 5ad8 48bf 6706 b9bf 9da3 92be
00000170: 6de0 2ebf 7af7 41be 8e97 fcbd d70b eabe
00000180: a9d6 953f 0543 74bf adf5 33bf fa21 cabe
00000190: 17c5 1abf b0f2 0c3f 0923 e73f 22a9 3c40
000001a0: 466d 463f e0d2 d8be 8fbe 853f d840 d7bf
000001b0: 98cf 2fbf a808 92bf 4de2 b03d fb5e 843f
000001c0: 01f4 b1bf 8d70 92bc f263 31bf d180 96bf
000001d0: fdda 27bf 495b fcbe 9d76 dc3e 298a 10be
000001e0: f55f 383f 296a 3b40 c342 ad3e 687e 3dbf
000001f0: 3b7d 8fbf 4dfe eebd 4680 1abf 84c5 153e
00000200: ad8d 5c3f 971a b53e 23ec 7d3e 5fc3 4abd
00000210: d971 22c0 2e9f e63e a947 d53e 5e36 703e
00000220: 017a 8dbe 7bd7 cabe d932 b33e 028f 37bf
00000230: 3b88 92bf 2483 8bbf 8228 16be 519e fbbe
00000240: b457 aebf 09f7 c1bf c430 81bf 3af1 63be
00000250: 8b5b 3f3f 3887 69bf 1bd0 9ebf fb63 d93f
00000260: 4896 923f 696d ddbe e7f5 f3bf 6153 8a3e
00000270: 4cc9 c4bf 583c 0bbd 936b 85bf d0fc 4d3e
00000280: fe25 ce3e 0d68 debd 9d3a 4bbe 9428 3b3e
00000290: 1fd0 67bf 5e20 843f cec7 243d bb3e 333f
000002a0: 8937 c1bf 4691 243f 5164 a5bf dd40 683e
000002b0: 1a95 303f 0298 fe3e 31b7 aa3e d2c2 683e
000002c0: 6223 253e 7c1c 763d fd54 473d ba44 6b3e
000002d0: bac0 ac3f 8772 97bf 9989 733f 9447 2940
000002e0: dab5 97bf ff2a f0bc 8231 93bf 355e a63f
000002f0: 2b25 01c0 b9df a4be 7e43 d0be 0ea3 3f3f
00000300: 4445 5c3f 68de d8be 2ccf 5f3f f4a9 5fbf
00000310: 8245 8fbe 3c78 193f 2506 ebbf 024e ee3e
00000320: b3ee 0cbf b325 b0bf 909b 273f bea5 7c3e
00000330: 8651 4b3f 52d0 a2bc a4bf 4cbe 7f19 d5bd
00000340: 3948 3e3f 0ae9 9b3f c67e bbbf 8dbf a1bf
00000350: b425 d5bf a788 f13e 7e12 3c3f de1a 80be
00000360: fd32 21be d67c a33d 89f6 0cc0 7a03 cdbf
00000370: 3a73 babf 9a79 d43f 957b ccbe 6a8a 9fbf
00000380: 5302 debd f8ea 0e3f db70 fb3e c89c 99bd
00000390: c963 4d3f a673 2fbf c4a9 1cbf fd84 25bf
000003a0: 7445 f03d 48ee e03e 0490 3d3f 908b d53e
000003b0: fd67 ab3f 54ea 1ebe d79a 2d3f dead 993e
000003c0: 10b3 aa3f 31e0 d73e 0524 f93e 57a0 943f
000003d0: c9c0 b53e 56a6 02c0 404a 3d3f 2da8 0dc0
000003e0: 5a83 dd3e 45da efbf 3f43 c93e 5d63 c0bf
000003f0: 4619 453f 2b75 c2bf 5cd0 563e 145d 433e
-0.6322965 -0.47930378 1.5066873 2.1271856 0.83190256 0.7236594 0.35249463 0.23767748
0.651659 -0.33978868 -0.80008143 -0.8333394 -0.5930848 1.0607209 0.9128385 0.21948886
-0.7641105 0.05156278 0.53254133 -0.2961777 0.6890261 -0.9590299 -0.28997517 0.37350804
0.62392527 0.52346826 0.5835335 -3.1466832 0.92900485 1.7409358 0.28458384 -1.6976372
0.4628438 0.6810915 -0.91178966 -0.6163798 2.2902992 1.4972663 1.6797475 -0.5316463
0.011939679 0.39100102 -0.56838894 0.36587092 -0.19664218 0.9830311 -0.6711671 -0.06909305
2.2923746 0.2817672 -0.011262505 -0.82416964 -1.5057983 0.29766548 -0.5640293 -0.2095999
-0.21233526 -1.2100316 0.32866058 0.019307738 -0.29799834 2.2033908 1.0558194 2.4618988
-0.0028567214 -0.78556013 1.1803676 0.5925833 -0.41933253 0.33558232 0.2498846 -0.12290052
-0.51392144 -0.7458134 1.4890592 1.9029291 2.032585 0.5817337 -0.20007583 -0.20444672
-1.5794029 0.52319 -0.84945 0.06288122 0.7149748 -0.42186064 -0.20833644 -0.8214717
-0.48659182 -0.78455126 -1.4455079 -0.28640452 -0.68311197 -0.18942061 -0.12333594 -0.45712158
1.1706134 -0.95414764 -0.70296746 -0.39479047 -0.60456985 0.5505781 1.8057567 2.947823
0.7751049 -0.42348385 1.0448779 -1.6816664 -0.6867614 -1.1408892 0.086369134 1.0341486
-1.3902589 -0.017875934 -0.6929313 -1.1758062 -0.65568525 -0.49288395 0.43059245 -0.14115204
0.7202142 2.9283545 0.33839998 -0.74021006 -1.1210092 -0.11669598 -0.6035198 0.14626127
0.8615368 0.3537185 0.2479711 -0.049502727 -2.5381987 0.4504332 0.41656235 0.2345824
-0.27632144 -0.39617524 0.3499973 -0.7170259 -1.1447824 -1.0899396 -0.1466389 -0.49144223
-1.3620515 -1.5153514 -1.0093007 -0.2225999 0.7474906 -0.9122195 -1.2407259 1.6983637
1.1452112 -0.43247536 -1.9059418 0.27016738 -1.5373931 -0.033993095 -1.0423454 0.20115972
0.4026336 -0.1085969 -0.19846578 0.18277198 -0.9055194 1.0322378 0.04022961 0.70017594
-1.5095073 0.6428417 -1.2921239 0.22680993 0.6897751 0.49725348 0.3334289 0.22730568
0.16126779 0.06008576 0.048665036 0.22975436 1.3496315 -1.1831826 0.9513183 2.6449938
-1.1852372 -0.029317377 -1.1499484 1.29975 -2.0178936 -0.32201937 -0.40676492 0.74858177
0.8604319 -0.42357183 0.87425494 -0.873687 -0.27982718 0.5994909 -1.836125 0.4654389
-0.55051726 -1.3761505 0.65471745 0.246726 0.7942127 -0.019874725 -0.1999498 -0.104052536
0.74328953 1.2180493 -1.4648063 -1.2636582 -1.6652131 0.4717457 0.73465717 -0.25020498
-0.15742107 0.07982795 -2.2025473 -1.6016686 -1.4566414 1.659961 -0.39938036 -1.2464116
-0.10840287 0.55827284 0.4910954 -0.07500607 0.80230385 -0.6853584 -0.6119654 -0.6465605
0.11731997 0.43931794 0.74047875 0.4170804 1.339111 -0.15519077 0.6781439 0.30015463
1.3335896 0.42163232 0.48660293 1.1611432 0.35498646 -2.0414023 0.7394142 -2.2133896
0.43264276 -1.8738486 0.39309117 -1.5030323 0.7699169 -1.5192007 0.2097792 0.19078475

conv.4.bias f4 [16]
00000000: 743c d0bf dbf6 0a40 7bcb c93f c06f 993d
00000010: 1ee1 09c0 d87d aa3e a26c f9bf 2be9 413f
00000020: e9e3 ae3f 4a2a 61bf 3d4c 80bf 8cee 843e
00000030: df7c dd3d 28a1 c13e 98e1 19bf 511b f03d
-1.6268449 2.1713169 1.5765222 0.07492018 -2.154365 0.33299136 -1.9486277 0.7574641
1.3663303 -0.87955153 -1.0023266 0.25963247 0.10814833 0.37818265 -0.60109854 0.1172396

fc.0.weight f4 [32, 64]
00000000: d764 b63f 27c9 16bf d366 b83d e251 8e3e
00000010: 0192 2fbf 9ddc 37be 2347 143f fde5 2c3f
00000020: 10eb 7ebf 351c ed3e 4903 913f acad 243f
00000030: cb73 2e3e ca77 253f 74fa 80be ed69 f4be
00000040: dd05 edbf 57ee ffbf 7eb3 f63e 0d19 613f
00000050: d4e0 1bbf 3602 de3e db5a 37be e967 1abe
00000060: 113a 363e c518 b8bf 3bf5 afbe 8330 a3be
00000070: 32e8 3c3e c0b7 9cbf 8ec4 1f3e b0a9 f83f
00000080: 40c3 363f dda7 79bf 5682 91bf 56f2 8d3e
00000090: fd7f 02bf fd3d fabe 7f4f 10bd 74f2 0b40
000000a0: baad 993f 005a 28c0 819d 133f 7d29 213f
000000b0: ea3a 97bf 179d 813e da76 2b3f 2a4b 5f3f
000000c0: 9ffb 95bf d481 01bf fb4b f63e 9167 eabe
000000d0: 0ed9 eb3f 2d6f 273f 0367 1cbf 5237 633e
000000e0: a27e 47bf 65d8 de3e 4704 503e 0de6 373f
000000f0: 7319 4cbf 07ed a4bf 2c73 ea3e c013 2e3f
00000100: 9fe8 2dbf fab1 85bf 2235 003d 5806 0d3e
00000110: 8dad 313f e65b 15be 4bd5 2cbf 0c38 46bf
00000120: 37e5 473f d01b 59bd 0644 aabf eed1 893d
00000130: 137c e5bf 22a6 033f 950f a03e 0e24 b03f
00000140: 75cd 293f d5a7 d03f a477 7dbf 1919 83bf
00000150: a9d1 0040 701f cdbb 8523 b43e 33dc 483b
00000160: c294 123e f686 b23f a9f0 bfba ba08 80bf
00000170: 56c9 f23e 1256 973f e622 48bf bdfc 2ac0
00000180: b115 cabd e8d2 03bf 0d38 0ebe 39f0 82bf
00000190: 4f88 ff3e 00b8 7f3f 409f a23f 85f7 dfbf
000001a0: 0195 08bf bf43 ad3f 5205 84bf 73fc b03e
000001b0: 2d00 9d3f f3c7 4d3f 99cc da3e f55c 36bf
000001c0: d89c 0e3f 9046 463f 15ce cbbf ab63 393f
000001d0: 9f5f d4bf ad5b d0be c380 893f 28e2 3cbf
000001e0: f359 4b3f 908f 913d 6213 60be 6cc6 01bf
000001f0: f8f5 1e3f 9513 c13f f809 a2bf c5bf 78bf
00000200: a774 afbd 6816 e5bc e797 b8bc a4b2 0fbe
00000210: bc8c d6bd fb28 f9bd c973 ecbc 9d5a afbc
00000220: ed02 26bd 0c2f 7cbd 7af1 d3bd b156 1e3c
00000230: 7a0a 19be d4eb 503d 57c6 1ebd 91da 92bd
00000240: 32e2 12bd 454b 1cbe f7e1 76bc 6881 d13d
00000250: 4c8c 00be 5b6a 15bc accf 5cbd c5b4 66bc
00000260: 1e3a 283c 1974 d2bd 30c6 33be b662 f03d
00000270: a794 6cbd a522 0fbe bd31 00be 2ea8 1bbd
00000280: a435 3cbe 31a4 263e be0c f23c 1a94 b53d
00000290: 108d a33d 65d9 92bd 1387 ccbd ba01 033d
000002a0: 201b 30bd 67ca 2cbc e1fb 03bc b3de e8bd
000002b0: 2c75 aebd ded9 8cbd d6a3 3bbe 8818 bebc
000002c0: 4abf 09bd 9bb0 85bd f768 1dbe 78ba dcbc
000002d0: 9d67 37bd 3925 523d 0b59 9b3c 4fd3 03bd
000002e0: f073 253d 5ad2 f2bd 14e3 dabc c061 f13c
000002f0: ac8f 6b3d 4f0e b8bd 4e1a 63bd 8658 09be
00000300: f2ae d8bd 61f8 04be 652e 5abd 4bd7 88bc
00000310: 2938 76bd f340 02be 382d bebc bb5e 5e3d
00000320: 1213 a4bd c1d9 803d 9059 f63c 6511 92bd
00000330: 37a2 c0bd 684a 1bbe 5edb 80bd fafe ecbd
00000340: 3e96 0bbe 59de 00be 0b22 653d 9efa 22bd
00000350: cf0e b9bd 5f85 813d 1421 e7bd 0ec5 0dbe
00000360: 772d 1cbe 27b2 93bd eb39 723d ef6a 1dbd
00000370: e270 12be aed3 1abe 9393 ee3b 21b6 e0bd
00000380: f16a 0dbe 4540 07be c49a 35be 003d 1e3d
00000390: 16a7 bbbd fdbf 61bd 7c44 13bd aee9 18be
000003a0: 3b54 0dbe 01a5 2c3d 4817 123d ce8b e83c
000003b0: 3f74 99bd 505a 313d b688 f4bd 5d50 36be
000003c0: 5e03 18be 8add d8bd 9829 24be a7a8 973c
000003d0: cf61 42bd 10ac 6b3d 5717 abbc a802 73bc
000003e0: d111 06be 950f 953c 439c ad3b ffb4 d2bd
000003f0: b328 d43a 8c78 f13c 0827 5f3c dcea ecbd
1.4249524 -0.58900684 0.09003987 0.27796847 -0.6858216 -0.17955251 0.57921046 0.67538434
-0.99577427 0.46310583 1.1329128 0.643275 0.17036359 0.6463591 -0.2519108 -0.47737065
-1.8517414 -1.999461 0.48183817 0.8792885 -0.60889935 0.43361062 -0.17905752 -0.15078701
0.17795588 -1.4382559 -0.34366783 -0.3187295 0.1844795 -1.2243576 0.15602323 1.9426785
0.7139168 -0.97521764 -1.13679 0.2772395 -0.50976545 -0.48875418 -0.035232063 2.1866732
1.2006142 -2.6304932 0.57662207 0.6295393 -1.1814854 0.25315163 0.6697823 0.87224066
-1.1717414 -0.50588727 0.48104843 -0.4578214 1.8425615 0.65404016 -0.61094683 0.22189072
-0.779276 0.4352447 0.20314132 0.71835405 -0.7972633 -1.2884835 0.45790994 0.67998886
-0.67933077 -1.0444939 0.03130067 0.13771951 0.6940544 -0.14585838 -0.6751296 -0.7742927
0.7808413 -0.05300504 -1.3302009 0.06729494 -1.792849 0.51425374 0.31261888 1.3761003
0.6632913 1.6301218 -0.9901068 -1.0242034 2.0127966 -0.006259851 0.3518335 0.0030648827
0.14314559 1.3947437 -0.0014643866 -1.0002663 0.47419232 1.1823142 -0.7817825 -2.671676
-0.098674186 -0.5149369 -0.13888569 -1.022956 0.49908683 0.99890137 1.2704849 -1.7497412
-0.5335236 1.35363 -1.0314124 0.34567603 1.2265679 0.80383223 0.4273422 -0.7123559
0.55708075 0.7745142 -1.5922266 0.72417706 -1.6591681 -0.40694943 1.074242 -0.7378259
0.79434127 0.071074605 -0.21882394 -0.5069339 0.6209407 1.5084101 -1.2659292 -0.9716762
-0.085671715 -0.027964786 -0.02253337 -0.1403299 -0.10476062 -0.121660195 -0.028863804 -0.021405512
-0.040530134 -0.061568305 -0.103487924 0.0096642235 -0.14945403 0.051006153 -0.03876337 -0.071705945
-0.035860248 -0.15263088 -0.015068523 0.102297604 -0.12553519 -0.009119595 -0.05390899 -0.014081185
0.0102677625 -0.1027605 -0.17556071 0.117375776 -0.057758953 -0.1397806 -0.12518974 -0.038002186
-0.18379837 0.16273572 0.029547092 0.08866139 0.0798589 -0.07170371 -0.09986701 0.03198407
-0.04299462 -0.010546303 -0.008055658 -0.113706015 -0.085184425 -0.06877492 -0.18324217 -0.023205057
-0.033629693 -0.065278254 -0.15372072 -0.026944384 -0.044776548 0.05130503 0.018963357 -0.03218394
0.04039377 -0.118565276 -0.026719607 0.029465556 0.057510063 -0.08987104 -0.055445008 -0.13412675
-0.10580243 -0.12985374 -0.0532669 -0.016704222 -0.060112152 -0.12720089 -0.023214921 0.05428956
-0.0801145 0.06291533 0.030072004 -0.07132224 -0.0940594 -0.15165102 -0.06291841 -0.115720704
-0.13631532 -0.12584819 0.05594067 -0.03978979 -0.09036028 0.06324267 -0.11285606 -0.13844702
-0.15251718 -0.07211714 0.059137266 -0.038432058 -0.14300874 -0.15119812 0.007280776 -0.10972238
-0.13810326 -0.1320811 -0.1773482 0.038632393 -0.091627285 -0.055114735 -0.035953984 -0.14932892
-0.13801663 0.042149547 0.035666734 0.028386977 -0.07492875 0.04329902 -0.11940138 -0.17804094
-0.14845034 -0.1058913 -0.16031492 0.018513037 -0.04745656 0.05753714 -0.020885153 -0.014832176
-0.13092734 0.018195907 0.005298169 -0.102884285 0.0016186446 0.029476427 0.013620146 -0.11568233

fc.0.bias f4 [32]
00000000: 8793 9f3e 59d6 0cbe 3f31 46be 4b88 b43c
00000010: 9820 ea3d 1c0b 903e 0138 1dbe 9af2 3a3d
00000020: bd76 01bd 9ee6 b6bd 7ee6 86bd 8e6a c2bd
00000030: 7d66 2fbe ddf5 aebd 1e6f ae3c 88a5 9d3c
00000040: 2fb3 c33d 4bba 693c 9b2d 823d ecd3 bd3e
00000050: fc38 1abe 0cee 433d de26 f5bc 5af8 1bbe
00000060: dc3e 43bd 8bd2 643d c232 d4bd 042b bc3e
00000070: f145 febd cb13 06be ac88 aebd a446 b33e
0.31167242 -0.13753642 -0.19354723 0.022037646 0.11431998 0.28133476 -0.15353395 0.04564152
-0.03160738 -0.089307055 -0.06586932 -0.0949298 -0.1712894 -0.085429884 0.02129322 0.01924397
0.09555661 0.014265607 0.06356355 0.37075746 -0.150608 0.04783444 -0.02992576 -0.15231457
-0.04766737 0.055864852 -0.10361244 0.36751568 -0.12415684 -0.13093488 -0.08522162 0.35014832

fc.2.weight f4 [16, 32]
00000000: bf94 f6be 7e0e 9abe a504 20bd 15ce 6abe
00000010: 3432 0ebe 7f57 c3be 0bd9 123d 079c 60be
00000020: 0996 e6be 1094 e338 2682 0abe f111 91be
00000030: ddfc eabd 9119 dfbe 2629 9abd f345 95be
00000040: 7189 94be dbf6 c1be c3ee 39be 094a f5be
00000050: 8f3c b3bc b757 0f3e 5ee1 5fbd 4c08 bbbe
00000060: fa68 45be 4095 4cbe 7b82 d63b 4134 efbe
00000070: f61b 1bbe fa86 d43d 1ed5 2cbe 2d9a 44be
00000080: 7283 cfbe efd7 30be a510 8e3b 5be6 d83d
00000090: bc8a 20be 16ac b93d 6bbd 60bd 2cce cebe
000000a0: 11ab 32bf 74cf 603e 688d 08be 012d 8bbd
000000b0: 1081 e63d adba 58bf a13e 223c 2255 55be
000000c0: 622f 32be 7ef7 bbbd c67a 4cbd 7bb1 d9be
000000d0: 4100 c93d 20a2 853c edf7 15be 44fb 22be
000000e0: 29e6 a5bc a3e1 183d 489b 273e cd95 a0bd
000000f0: 3c98 653c 5504 b33d 901c 3e3c ad17 1abe
00000100: a732 65bf 52bf 3f3f 49a3 303e 3254 df3d
00000110: 6314 fdbf 9b3f b3be 9f6d 1ebe 5856 383f
00000120: f114 1b3f 8103 813d 6144 e03d ce8c 2d3f
00000130: f1ac 9abd c501 c83e 643f 603d 1d53 f73e
00000140: 05c1 5e3f 1729 e13e 8c31 963e 297d 30bf
00000150: 50ee 543c f14f 6f3d 587f 873c bc92 b23f
00000160: 4631 d0bd defb 2bbe 5d81 803d 7d85 11c0
00000170: d048 c3bc a920 d4bd a79d 243e 929e 9dbf
00000180: f6c3 45be 9647 3e3f 2133 8cbd 2a0a 433d
00000190: e412 f3bf 1262 3abe fe00 e9bd 96fe 583f
000001a0: edbf 0c3f 70a0 99bd a87d 573c 8329 ec3e
000001b0: 4d5d 27bc 3aba f53e 3c02 0cbd 4d1f 313f
000001c0: 6f26 7f3f 4b86 f43e d50e b93e 236d 39bf
000001d0: 432d 3e3e 4377 8fbd a767 61bd b18e bc3f
000001e0: 3a0a 50be 26cb 29bd 396c 883d 1923 04c0
000001f0: 4a1c d93d 5e76 173d a02e 293c 3755 00bd
00000200: e530 d4be 8769 523f 1037 253e 5827 953d
00000210: 616c 05c0 a1fe d1be 2aa7 863c 4464 463f
00000220: 970d 323f 28ff e83d c2e1 163e 1403 fb3e
00000230: 02b7 e03d 18ff 2d3f 6eed b3bd 17f3 933e
00000240: 6c7d 4b3f f230 ec3e 69bd 2c3f 5941 3ebf
00000250: 4c1e 0f3e 8d40 bf3d 5490 eebc 5c83 c23f
00000260: b015 95bd 1f14 69bd a9f5 bc3c a268 0cc0
00000270: 5e80 babd dec5 00be 9069 20be 66d3 2fbf
00000280: a7c2 dcbe 3b9e 18be e366 02be 515c ed3d
00000290: 7a51 e83d 1e98 f6bc d220 273e 27ea e0be
000002a0: 0fec a5be 1a62 623c 868e c8bc 113f 4ebe
000002b0: fc87 42be 378e 13be 442a 33bd c546 afbe
000002c0: 739b 42be ba23 03bf 6b24 16be 582e c8be
000002d0: bd00 c33c 7867 8b3c 3098 bb3d 148e 5cbe
000002e0: 0a0e 1f3d ec26 cd3d 322c e3bd 6bb7 0dbe
000002f0: 3dd3 2dbe e28e 493d 85f5 22be 93c0 39be
00000300: a256 a8bf 773e 6c3f df65 033e c739 683d
00000310: 0337 6dbf 2dcb 07bf 4037 d13b 62e2 d93e
00000320: 0e12 123f a659 683e 455a 3ebe 804b d73e
00000330: 4113 bcbc 36a6 c43e 5510 273e 1dbd f33d
00000340: 38ae 2d3f 0764 2d3e 4257 d63e d4d5 67bf
00000350: dfa1 a83d e88e 19be 905c ed3c 5e95 c73f
00000360: 4c8b 25bd 785f 1cbd 01ef 1a3e daf7 e9bf
00000370: 1164 23be c120 acbd b2f2 e73d 9a08 1dc0
00000380: bc91 5dbf 1006 4d3f c70f 1b3e 3c7e 0cbd
00000390: 149d b6bf e912 dcbd 644a 033d 158f 033f
000003a0: f676 aa3e d9fd 35be 044d 733d b776 f33e
000003b0: eefa 5dbd 88e8 f83e 3026 99bd 9568 d93e
000003c0: 08f3 4a3f 37bd 853e 7b59 fa3e 01b0 02bf
000003d0: 77ef 04bc 4198 753d 4f80 1d3e 951e c33f
000003e0: 7295 26be e64d bd3d 1fe9 ebbd 2560 fabf
000003f0: 86b4 acbd 3e47 c7bd ba4e cfbd 8863 cdbf
-0.4816036 -0.30089182 -0.03906693 -0.22930177 -0.13886338 -0.38152692 0.03585152 -0.2193452
-0.45036343 0.00010851782 -0.1352621 -0.28334 -0.11474011 -0.43574193 -0.0752738 -0.2915493
-0.2901111 -0.37883648 -0.18157487 -0.47908047 -0.021879463 0.13998304 -0.054658286 -0.36529768
-0.19278327 -0.1997881 0.006546316 -0.46719554 -0.15147385 0.10377307 -0.16878173 -0.19199438
-0.40529972 -0.17269872 0.0043354803 0.10590812 -0.15677923 0.09066026 -0.054868143 -0.40391672
-0.69792277 0.21954137 -0.13335192 -0.06795693 0.112550855 -0.84659845 0.009902627 -0.20833257
-0.17400888 -0.09178065 -0.049921773 -0.4251822 0.098145016 0.016312659 -0.14645357 -0.15916163
-0.02025135 0.03732456 0.16367829 -0.07841072 0.014013346 0.08741061 0.0116034895 -0.15048094
-0.89530414 0.74901307 0.17249788 0.10904731 -1.9771847 -0.35009465 -0.15471505 0.7200675
0.6057883 0.062994964 0.10950542 0.67792976 -0.07552517 0.3906385 0.054747954 0.48305598
0.87013274 0.43976662 0.29334676 -0.6894098 0.012996271 0.058425847 0.016540214 1.395103
-0.10165648 -0.16795298 0.06274674 -2.2737725 -0.02383843 -0.10357792 0.16075765 -1.2314017
-0.19313034 0.7432798 -0.068456896 0.047617115 -1.899014 -0.18201473 -0.11377142 0.8476347
0.54980356 -0.07501304 0.013152517 0.4612542 -0.010215116 0.47993642 -0.03418182 0.69188386
0.9966802 0.47758707 0.36144128 -0.72432154 0.18571953 -0.07005169 -0.05503049 1.4731046
-0.20316401 -0.041453503 0.06661267 -2.0646422 0.10601099 0.036978118 0.010326058 -0.031331267
-0.41443554 0.8219227 0.16134286 0.07282895 -2.08474 -0.4101458 0.016437132 0.77496743
0.69551986 0.11376792 0.14734557 0.49025786 0.10972406 0.6796737 -0.087855205 0.288964
0.79488254 0.46131092 0.67476517 -0.7431846 0.13976401 0.09338484 -0.029121555 1.5196338
-0.07279527 -0.056903955 0.023066359 -2.1938863 -0.09106515 -0.1257548 -0.15665269 -0.68681943
-0.43117258 -0.1490411 -0.1273456 0.115898736 0.113436654 -0.030101832 0.16321114 -0.43928644
-0.3240666 0.013817335 -0.024482023 -0.20141245 -0.18997186 -0.1440972 -0.04374148 -0.3423368
-0.19004612 -0.5122639 -0.1466233 -0.39097857 0.023804063 0.017017111 0.09159887 -0.21538574
0.038831748 0.100171894 -0.11092414 -0.138395 -0.16975112 0.04920853 -0.15913971 -0.18139867
-1.3151438 0.92282814 0.1283183 0.056695726 -0.92662066 -0.53044397 0.00638476 0.4255553
0.570588 0.22690448 -0.18589123 0.4204979 -0.0229584 0.3840806 0.16314824 0.11901305
0.6784396 0.16932689 0.41863447 -0.9056065 0.082339995 -0.1499592 0.028974801 1.5592458
-0.040416047 -0.038176984 0.15130235 -1.8278763 -0.15956141 -0.08404685 0.11325587 -2.45365
-0.865505 0.80087376 0.15142737 -0.034300074 -1.4266686 -0.10745794 0.032053366 0.513902
0.33293885 -0.17772616 0.05939962 0.4755151 -0.054194383 0.48614907 -0.07477987 0.42462602
0.79277086 0.26120922 0.48896393 -0.5104981 -0.0081137335 0.059959654 0.15380977 1.5243708
-0.16267946 0.092433736 -0.11519074 -1.9560591 -0.084328696 -0.09730385 -0.10122438 -1.6046

fc.2.bias f4 [16]
00000000: f221 a2be 6be9 ebbd 9965 083f 2e2d 333f
00000010: dbfc 993e 9c2c 113c 2256 e83d b37e 013f
00000020: df50 03bd e903 b53e 8753 2d3f 3174 de3e
00000030: 2a74 aabe ed3c eabd abc7 8c3e 9888 b3be
-0.31666523 -0.1151913 0.53280026 0.69990814 0.30075726 0.008860733 0.113445535 0.5058395
-0.032059547 0.35354546 0.6770558 0.43448022 -0.3329175 -0.11437402 0.27496085 -0.3506515

fc.4.weight f4 [8, 16]
00000000: 3e74 6cbe 4294 64be 7cc0 66be 1dd4 56be
00000010: a1a1 303d 8ec5 3d3e 8f14 5bbe 7c99 fa3c
00000020: 402b 7dbe b029 1ebd 0921 88bd 4c17 a6bb
00000030: 9c4a 8abe 6e05 3ebe 8bb2 423d 4025 013d
00000040: bd0e 7e3d fa22 61be b350 593f 8603 6f3f
00000050: 1ceb 6d3f 5e5e a53e 8f7e 323f 0c93 1a3f
00000060: 40ce ed3d 197a 7a3f 4df0 8abf 8fa3 aabf
00000070: c628 0b3e 34f5 c6bd 9a58 5b3f 377c babd
00000080: 764c 27be 78df 2b3e c047 163e 9869 adbd
00000090: 3c3d d6bd 087c febd 308a 04be 642f cfbd
000000a0: 0c5f 60be 0046 72ba e888 7ebe d446 2cbe
000000b0: 1050 d83c 7065 503e 8891 13be 2030 c2bd
000000c0: 13c8 dbbe 72fd 093f 4096 2abf 32a8 82bf
000000d0: f036 25bf b460 2a3b 5087 26bf 9c5c 9ebe
000000e0: 9d8b 053d ecc0 f5be 9435 773f 815e 1c3f
000000f0: 50e3 943d 84c4 003e 958e 14bf 3dbc c13d
00000100: 0a28 30bd f81b 6c3e bf67 29be daa5 80be
00000110: 6305 64be 1fb1 03bc 18a6 74bd d478 4cbe
00000120: fb07 333e 4548 babe 1d2d a3bd 00c5 16be
00000130: f0a6 f53d c826 aebd 2b8b f5bd 8cce 6f3e
00000140: 3bb2 f03e c156 f0bd 555d 7c3f c53a 5c3f
00000150: ecf8 6e3f 51ca 873d 92db 823f 3ff7 6e3f
00000160: d080 29be 6efc 653f 3dff 67bf b97f b0bf
00000170: ca1d ac3e 8053 db3d 0051 213f d1a0 37be
00000180: 44a9 1c3e 8a2c 83be dbd5 c1bd 762c 183d
00000190: 2004 0dbe 20e2 9a3c e663 be3d 2bdb dfbd
000001a0: a863 e0bd 02c1 49bd 9348 eabd a242 363d
000001b0: cee4 963d 88a9 37bd 83bf 54be c0ab 09bc
000001c0: 7ee9 1d3e 6fe9 93be d15e 4a3f db2f 353f
000001d0: 714b 163f a65c cf3e de70 d33e d7a7 333f
000001e0: 5841 1c3d a60f d13e 6464 5abf 59e7 56bf
000001f0: 95a1 023f 707c d9bc 90dd 033f d0f6 003e
-0.23091218 -0.22322181 -0.22534364 -0.20979352 0.04312289 0.18532392 -0.21394561 0.030590765
-0.2472353 -0.038613975 -0.06646926 -0.005068695 -0.27010047 -0.18556759 0.047533553 0.031529665
0.062025774 -0.21985999 0.8488876 0.9336475 0.92936873 0.3229856 0.69724363 0.60380626
0.11611605 0.97842556 -1.0854584 -1.3331164 0.13589773 -0.097147375 0.8568207 -0.09105723
-0.16337761 0.16784465 0.14675808 -0.08467406 -0.10460898 -0.12426001 -0.1294334 -0.10116461
-0.21911258 -0.0009241998 -0.24856913 -0.16823894 0.026405364 0.20351195 -0.14410985 -0.09481835
-0.42926082 0.5390235 -0.66635513 -1.0207579 -0.6453695 0.002599758 -0.6505022 -0.3093003
0.03260385 -0.4799875 0.9656613 0.610817 0.07269919 0.12574965 -0.5803006 0.09459732
-0.043006934 0.23057544 -0.16543482 -0.25126535 -0.2226768 -0.008037834 -0.05972871 -0.19967967
0.17483513 -0.36383262 -0.07967589 -0.14723587 0.119947314 -0.08503491 -0.11989435 0.23418635
0.4701098 -0.11735297 0.98579913 0.86027175 0.93348575 0.06630386 1.0223258 0.9334602
-0.16553044 0.898383 -0.9062384 -1.3788978 0.33616477 0.10709286 0.6301422 -0.1793244
0.15298945 -0.25619918 -0.09464618 0.037151776 -0.13771105 0.018906653 0.09296398 -0.10930475
-0.10956508 -0.049256332 -0.11439624 0.04449714 0.0736786 -0.044839412 -0.20776181 -0.008402765
0.15421101 -0.28889033 0.7905093 0.70776147 0.58708864 0.40500373 0.41297048 0.7017798
0.038148254 0.4083225 -0.85309434 -0.8394676 0.51027805 -0.026548594 0.5150995 0.12594151

fc.4.bias f4 [8]
00000000: 89e0 6cbe d15c 4c3f f8b1 0fbe 86e0 3d3f
00000010: e134 04bf 65d3 563f 43da 9dbe db79 c63e
-0.23132528 0.79829127 -0.14032733 0.7417072 -0.51643187 0.8391631 -0.30830583 0.38764843

fc.6.weight f4 [4, 8]
00000000: 12bb cebe 0d71 5f3f 08d9 2b3d 5a11 6cbf
00000010: 9178 c23e 5adf 873f 0183 4f3e 2078 0a3f
00000020: 484e bfbd 63ab 5c3f 22cd 29be 3e62 58bf
00000030: e185 ee3e 93b4 593f cdd4 14be 0e49 373f
00000040: 8453 89bd a08d 833f 9e6e 39be 2b19 50bf
00000050: 0e06 963e 1171 4f3f cb82 febd d3b7 2e3f
00000060: bcdc 8d3d 2045 1b3c 698e ad3e e01e e2bd
00000070: f87e de3d 7035 b2bc a07a bbbd 24f0 82be
-0.40377098 0.87281877 0.041955024 -0.92213976 0.3798261 1.0615036 0.20264818 0.54089546
-0.09341103 0.86199015 -0.16582158 -0.84524906 0.46586516 0.8504116 -0.14534302 0.7159585
-0.067053825 1.0277596 -0.18108603 -0.81288403 0.29301494 0.810319 -0.124272905 0.68249243
0.06926867 0.00947693 0.33897713 -0.11041045 0.10864061 -0.021753997 -0.09154248 -0.25573838

fc.6.bias f4 [4]
00000000: fbda 353f 4d88 363f 2ddf 213f 13ee 52be
0.7103726 0.7130173 0.63231164 -0.2059863

output.weight f4 [1, 4]
00000000: 480a 6abf b69e 74bf e8e3 94bf d06e ea3d
-0.9142194 -0.95554674 -1.1632051 0.11446917

exp_avg f4 [8, 2, 3, 3]
00000000: a3e5 9845 7b1f 1f40 69d1 b443 ce89 3ac5
00000010: a0b3 85c5 371b b5c4 7760 e545 6b23 7c45
00000020: 4aa6 b3c5 dbc8 7544 7f4d 3e44 1ed5 8844
00000030: 5fcc 5a43 924f 0d3a b24b 2c44 9f7b bfc3
00000040: ee7c f0c3 012a b642 fd87 57c4 8fc3 ca45
00000050: a548 3645 5188 0cc6 e2f2 02c4 35ef 56c5
00000060: c162 6ac5 743b 1bc6 196b 09c5 500c d043
00000070: 83b2 3044 6b89 6544 be95 9dc3 3009 d939
00000080: 9cdc 5e44 b37f 49c3 738f 1343 b559 7844
00000090: 9dd3 37c6 6655 e445 ffc4 3ec5 73b1 2d45
000000a0: 3e9b 6f43 6f65 8bc3 7f3f 8d46 5c98 cfc4
000000b0: 6a6d cc45 97db 57c5 1ce7 5dc5 10ef edc4
000000c0: 0149 b043 2375 3038 84c9 d244 57ad 0041
000000d0: edb8 abc3 770f a644 126b 6b44 42a1 05c6
000000e0: 4747 ce44 5161 4b46 dfe3 8d44 8020 9d43
000000f0: b211 c8c4 432a 71c5 f97a 91c6 a240 a343
00000100: 6ed2 5944 af96 ecc3 6d0d 8ec3 f18e 90b9
00000110: 72ac b0c4 cdf8 29c4 41ce 09c4 5214 d7c4
00000120: 6354 0645 dbb2 28c5 de79 da44 c90a 83c5
00000130: 084e c8c5 bf19 7346 fcf7 9e45 7a88 a4c5
00000140: 3143 1bc6 a1c6 e9c4 e58c dfc4 5e7e 08c5
00000150: 28a8 79c4 ad2e 7339 eba9 bec3 f877 a3c4
00000160: fdc7 a3c3 24f5 24c4 493e 2845 7e24 1045
00000170: b562 4245 45b8 2446 28bd 34c5 1e6f 95c4
00000180: f61a d5c4 cd4d 0944 7eb0 93c6 a22c 3b45
00000190: 1fee 8045 e953 9245 393c 98c4 2a3a 25ba
000001a0: 9905 3244 3de2 11c5 e6f6 acc4 c2d4 30c4
000001b0: 11c5 b5c5 f0de ab45 08aa 0bc6 b993 83c6
000001c0: 61a5 bcc4 0757 15c6 2f38 ca45 526a 2246
000001d0: 0ec6 2b46 931c e742 636c 8844 0fda 2044
000001e0: 506a 7cc4 ae53 2739 b400 d1c3 bd28 2cc4
000001f0: 4ddc b5c2 c093 f4c3 43d3 f944 8a3e 6b45
00000200: 6139 2dc5 d78d a4c5 ea8d b0c5 8561 3246
00000210: 9039 24c5 b4b8 83c5 9708 fec5 457b 8d44
00000220: 9690 d144 5d7f b144 86d2 0dc4 e83a e5b9
00000230: 7838 9943 0595 4544 8ee0 a444 71de c944
4892.7046 2.4862964 361.63602 -2984.6128 -4278.453 -1448.8505 7340.058 4034.2136
-5748.786 983.13837 761.2109 1094.6599 218.79832 0.000539058 689.18274 -382.9658
-480.976 91.08204 -862.1248 6488.445 2916.5403 -8994.079 -523.79504 -3438.9504
-3750.172 -9934.863 -2198.6936 416.0962 706.78925 918.14716 -315.16986 0.0004139631
891.447 -201.49883 147.56035 993.4017 -11764.903 7306.675 -3052.3123 2779.0906
239.60641 -278.79245 18079.748 -1660.7612 6541.677 -3453.7244 -3550.4443 -1903.4707
352.57034 4.2070762e-05 1686.2974 8.042319 -343.44473 1328.4833 941.673 -8552.314
1650.2274 13016.329 1135.121 314.2539 -1600.553 -3858.6414 -18621.486 326.50494
871.28796 -473.17722 -284.1049 -0.0002757232 -1413.3889 -679.8875 -551.2227 -1720.635
2149.2742 -2699.1785 1747.8083 -4193.348 -6409.754 15558.437 5086.998 -5265.0596
-9936.798 -1870.2072 -1788.403 -2183.898 -998.62744 0.00023191674 -381.32748 -1307.749
-327.5624 -659.8303 2691.8928 2306.2808 3110.1692 10542.067 -2891.8223 -1195.4724
-1704.8425 549.21564 -18904.246 2994.7896 4125.765 4682.489 -1217.882 -0.00063029176
712.08746 -2334.14 -1383.7156 -707.32434 -5816.6333 5499.867 -8938.508 -16841.861
-1509.1681 -9557.757 6471.023 10394.58 10993.514 115.55581 1091.3871 643.40717
-1009.66113 0.00015957534 -418.0055 -688.63654 -90.930275 -489.1543 1998.6019 3763.9087
-2771.5862 -5265.73 -5649.7393 11416.38 -2627.5977 -4215.088 -8129.0737 1131.8522
1676.5183 1419.9801 -567.2894 -0.00043722172 306.44116 790.3284 1319.0173 1614.9513

exp_avg_sq f4 [8, 2, 3, 3]
00000000: fe6f ae4d d8e6 b04d 9ec4 384d d0d5 334c
00000010: 5b3d 284e 791b 804c c603 034e 99e1 d14d
00000020: 9a94 414e 4041 c04a b860 104b 64b9 e84a
00000030: 04c8 064a 419e 0035 292c f249 cef0 a34a
00000040: 6415 364a dbc3 534a 82bb 854c a475 ea4d
00000050: d502 2e4d 874e d14d 0690 b84d a2de 094d
00000060: 517a d84d b4ea d24d ed8d ea4d f562 364a
00000070: 8c64 044a 07e6 2f4a cdcd 8e49 a9b0 6e34
00000080: 4bbe b649 68d8 034a 9053 8249 ff97 014a
00000090: 17c0 804d 110d d34d ddcf cd4d e683 4f4d
000000a0: 0243 9e4d be28 1b4e 4bcd c44d 2340 a24d
000000b0: ab18 e64d d6b4 1c4b fb2e 2b4b d359 004b
000000c0: 9f42 8b48 95d9 b834 3a83 a449 362f 124a
000000d0: 22ad e749 979d 444a 5283 824d 0e6f 5b4e
000000e0: d652 b44d 6aee 954e 91a9 da4c eb4d e34c
000000f0: ea15 a14c 9d8a 474e 1184 724e 7bb5 ff4a
00000100: 2b8f 224b 99d7 ff4a dc06 524a dab5 7a35
00000110: ae92 584a e8c2 094b a97e b54a eaca 174b
00000120: cbaa a54c 4cb0 284d bd8d ec4c d1a8 0c4e
00000130: 421b 154e 3c70 384e 3e69 884e f1d2 854e
00000140: ebb7 6f4e 0e02 f84b 423c 214c 6c85 034c
00000150: fb1e 2f4a 9cff 6f35 3f53 b949 db27 6e4a
00000160: 880c 6049 398d 214a f0ff d74c 43aa 3c4e
00000170: bbc0 784e 734e 794c 7053 3c4d e1d2 3a4c
00000180: cf0f 454d e801 374e 2d40 6a4d e352 0f4b
00000190: f8ca 584b 6be8 6b4b 9f23 ce4a 4c77 8335
000001a0: 2d8f 1d4a a6bc 674b cf6c c64a 1ec2 a64a
000001b0: 7354 774d 65c6 6f4d fcf7 664e 242c da4d
000001c0: 8c45 2d4e 9f07 194e cace a04d 72b1 e74d
000001d0: 3ae5 f14d eadd c249 a90e 5249 54e9 ea49
000001e0: 7525 6b49 9b7f 8434 e010 8e49 47f6 ca49
000001f0: d49b a449 1d4f f549 7325 a54d 8ccd d84d
00000200: 7664 394e e154 9d4d e7e9 c94d d400 1e4e
00000210: 39eb 904d 5a82 e74d c51f 0d4e 473d cf4a
00000220: 5124 e44a 92a0 fa4a e153 0d4a 886c a734
00000230: 01a0 e249 84ee e74a 8057 7b4a 9742 9f4a
3.658219e+08 3.7098982e+08 1.9374333e+08 4.714272e+07 7.056483e+08 6.716513e+07 5.4951565e+08 4.4015286e+08
8.1193536e+08 6.299808e+06 9.461944e+06 7.625906e+06 2.208257e+06 4.7914006e-07 1.9838771e+06 5.372007e+06
2.983257e+06 3.4695588e+06 7.011432e+07 4.9169728e+08 1.8246382e+08 4.3894806e+08 3.870558e+08 1.4456682e+08
4.5398685e+08 4.423246e+08 4.9189622e+08 2.9882212e+06 2.169123e+06 2.8819218e+06 1.1698496e+06 2.2229746e-07
1.4970334e+06 2.160154e+06 1.067634e+06 2.1232638e+06 2.7000906e+08 4.426061e+08 4.3161898e+08 2.1759549e+08
3.3189894e+08 6.5078464e+08 4.1272355e+08 3.4026403e+08 4.8254704e+08 1.026991e+07 1.1218683e+07 8.411603e+06
285204.97 3.4430983e-07 1.3476872e+06 2.3950855e+06 1.8978922e+06 3.2213498e+06 2.7370554e+08 9.203721e+08
3.7816595e+08 1.257715e+09 1.14642056e+08 1.1917295e+08 8.445525e+07 8.3693754e+08 1.01718534e+09 8.3790695e+06
1.0653483e+07 8.3834365e+06 3.441079e+06 9.3396886e-07 3.5483315e+06 9.028328e+06 5.9472205e+06 9.947882e+06
8.6857304e+07 1.7688288e+08 1.2402225e+08 5.8996845e+08 6.253979e+08 7.735908e+08 1.1442993e+09 1.122597e+09
1.00545197e+09 3.2506908e+07 4.226689e+07 3.447749e+07 2.8691828e+06 8.94064e-07 1.5181839e+06 3.9019428e+06
917704.5 2.6468622e+06 1.1324608e+08 7.913187e+08 1.0433451e+09 6.5354188e+07 1.9747405e+08 4.8974724e+07
2.0663422e+08 7.6758886e+08 2.4562965e+08 9.392867e+06 1.4207736e+07 1.5460459e+07 6.7547675e+06 9.79498e-07
2.5814512e+06 1.518711e+07 6.5019915e+06 5.464335e+06 2.5934418e+08 2.5142229e+08 9.687529e+08 4.5754074e+08
7.2675405e+08 6.418534e+08 3.3723834e+08 4.8589574e+08 5.0729146e+08 1.5963492e+06 860394.56 1.9243945e+06
963159.3 2.467976e-07 1.163804e+06 1.6626649e+06 1.3484745e+06 2.0095716e+06 3.4633686e+08 4.5466867e+08
7.775922e+08 3.299482e+08 4.2344368e+08 6.627136e+08 3.0391683e+08 4.8550995e+08 5.919174e+08 6.7908195e+06
7.4757525e+06 8.212553e+06 2.3155122e+06 3.118514e-07 1.8565121e+06 7.599938e+06 4.117984e+06 5.2186355e+06

exp_avg f4 [8]
00000000: 1ad8 073a 52af be39 45a3 8339 3b08 e5b9
00000010: 4cb9 8db9 4b78 0eb9 08c1 0038 6f8e 06ba
0.0005182043 0.00036370248 0.00025107912 -0.00043684416 -0.00027031673 -0.00013586988 3.0697352e-05 -0.00051329186

exp_avg_sq f4 [8]
00000000: 0843 4735 594a 1235 0170 4335 268c ac35
00000010: fbcb 9b35 6a01 b335 60e1 4f35 5a36 7535
7.423082e-07 5.449743e-07 7.280615e-07 1.2855787e-06 1.1607766e-06 1.3336951e-06 7.7441473e-07 9.1348704e-07

exp_avg f4 [16, 8, 3, 3]
00000000: d499 6d42 ac9f a544 f285 bbc3 3e0f cd43
00000010: f5c7 8842 437d 7d45 26c5 8a42 9f02 7845
00000020: 4f0a a843 9af7 a7c4 e3e6 a844 96b0 afc4
00000030: b866 00c5 bf3e 86c5 b5d4 3145 fdfd 48c3
00000040: 3e4e c645 6754 0e45 154d 39c5 9e90 09c3
00000050: 7876 cb43 0a60 61c5 fe40 f2c4 456e e544
00000060: 285b 5344 d039 6744 1873 e1c4 fda3 96c3
00000070: 18b7 d143 4432 01c3 adbc 2944 4de4 b043
00000080: c673 8244 7d5b 7543 8dbf 3445 5bdb 19c4
00000090: d45a f8c2 7bad 9444 87e9 5744 a4a0 1fc4
000000a0: 1c26 c2c4 e925 6b44 4f43 7cc4 ad45 c844
000000b0: 57d9 4644 d490 5744 1bab bbc4 dc98 59c4
000000c0: e2a3 c543 b002 0f45 4ad1 ab44 0b53 d144
000000d0: fa1e 0344 86d5 81c4 f235 1ec5 1c98 12c5
000000e0: e7e0 5945 f4c2 85c4 c4e3 d9c4 4c52 09c5
000000f0: 0dd2 19c5 544b 28c5 57e6 1646 dc82 15c5
00000100: 4a0d af44 caca ce45 f5da 26c5 819f 36c5
00000110: 678a 52c5 a772 06c5 2be3 08c5 f4d4 16c3
00000120: 5215 4545 e7fa adc3 1c1b e944 6780 c743
00000130: b119 3bc5 02e1 84c5 369c 6bc5 a693 b2c5
00000140: f92b 50c5 b1aa f745 6616 0245 74ea b845
00000150: a99d c145 ed3a 3f45 245f 79c5 87c3 65c5
00000160: 789e bfc5 f7b2 82c5 ce1d f744 382c ab45
00000170: a33b 5345 ba84 4345 c2e0 d145 8f92 8d44
00000180: 2db6 b2c4 7e86 9342 7461 62c5 2314 6645
00000190: 4e62 8c44 1854 be44 6d74 6bc4 feab 1bc5
000001a0: 4f04 2344 3636 5fc5 a9c3 a4c5 625b 2fc5
000001b0: 9bba c744 3b94 acc3 9eae e9c3 6dbb 9145
000001c0: 1e3e 7744 a624 f5c4 a1ad f9c4 bb91 54c4
000001d0: 2e78 cdc4 03bd 4e45 2b6a 2c44 f38f dec3
000001e0: 54ff c3c4 085d b744 16e7 c6c4 0342 7ec5
000001f0: 70fc 76c5 43b4 04c5 7344 1145 81d8 2246
00000200: 6842 efc3 6274 ca45 8e4c e045 9690 c6c4
00000210: 129c bd44 bf68 33c5 10de 36c6 aedd bb44
00000220: 9fed ab44 cabd 1243 a394 b845 3976 b945
00000230: 1f53 da45 2c01 8645 e06f f543 9a6c d2c5
00000240: cf4e 3b45 b6bb 47c4 347d e5c4 5070 8544
00000250: 7132 f944 b2f2 79c4 6f95 d444 6dbc 8344
00000260: f99f 12c5 8822 5445 2c7c 88c4 77f4 e042
00000270: 7241 1f44 b3af 9345 debd 9f44 3249 8045
00000280: ab4c 8e44 c322 cac5 0eae 0145 43f3 c143
00000290: cb17 6a45 ec5f 9544 8721 4b45 02c1 f3c4
000002a0: 8184 1543 80d1 a344 6d18 4e45 5116 d644
000002b0: fc1d a044 a928 84c4 ff25 ba44 a88e 5b43
000002c0: 9b1d 6c44 6305 0145 90d0 83c3 0807 2fc4
000002d0: baa6 cd44 50f1 8dc4 9e8d c2c2 94d7 a743
000002e0: 7d5d a044 de34 b444 a8ae a744 160a 0145
000002f0: 5e9f 44c4 c631 3543 8b41 adc2 5a22 9145
00000300: 5e59 0e45 138d 5bc4 d5f1 5fc4 3290 3645
00000310: 1cce c3c2 e42c a6c4 c71e b6c3 72be 5a45
00000320: a83d 5544 5fef 5644 98bd 3345 6777 5645
00000330: 2d89 cac4 c3bf 8945 bc2b 9245 5b84 1445
00000340: b5b6 d644 96c4 0fc5 a79a 9fc3 6344 0c43
00000350: bad2 c444 2fb1 8944 27fb 3f45 df01 e545
00000360: 9b66 bec3 f850 a3c1 031e a6c4 9a11 0845
00000370: 8464 d443 b5ed 76c4 0504 3844 686d f942
00000380: 7a84 2e44 cbed 04c5 c5e1 5544 9135 02c5
00000390: 4274 2a45 d729 edc4 1c26 cbc4 6725 2144
000003a0: bfae 8945 3033 f6c3 f57e a3c4 cd1f 6345
000003b0: eb17 cec4 6013 d243 010e 38c5 5753 6fc4
000003c0: 492d cf44 f6f8 9145 c36f 74c3 562b df43
000003d0: 6007 54c4 d7e6 13c4 8c53 9244 315c fe43
000003e0: e9cf 1244 87be 2ec3 79a0 e742 c7c6 4d43
000003f0: d133 9c43 32fc b644 727b 0bc4 c60c a544
59.400223 1324.9897 -375.04645 410.11908 68.39054 4055.8289 69.385056 3968.1638
336.08054 -1343.7375 1351.2152 -1405.5183 -2054.42 -4295.8433 2845.2942 -200.99214
6345.7803 2277.2751 -2964.8176 -137.56491 406.92554 -3606.0024 -1938.031 1835.4459
845.4243 924.9033 -1803.5967 -301.28116 419.43042 -129.19635 678.94806 353.7836
1043.6179 245.35738 2891.972 -615.4274 -124.1774 1189.4213 863.64886 -638.51
-1553.1909 940.59235 -1009.0517 1602.1774 795.39594 862.26294 -1501.347 -870.3884
395.28033 2288.168 1374.5403 1674.5951 524.484 -1038.6726 -2531.3716 -2345.5068
3486.0564 -1070.0923 -1743.1177 -2197.1436 -2461.1282 -2692.708 9657.585 -2392.1787
1400.4153 6617.3486 -2669.6848 -2921.969 -3368.6501 -2151.1658 -2190.198 -150.83185
3153.3325 -347.96017 1864.8472 399.00314 -2993.6057 -4252.126 -3769.7632 -5714.456
-3330.7483 7925.3364 2081.4 5917.3066 6195.7075 3059.6829 -3989.9463 -3676.2205
-6131.8086 -4182.3706 1976.9314 5477.5273 3379.7273 3128.2954 6716.0947 1132.58
-1429.693 73.76268 -3622.0908 3681.2585 1123.072 1522.6279 -941.81915 -2490.7495
652.0673 -3571.3882 -5272.4575 -2805.7114 1597.8314 -345.15805 -467.3642 4663.428
988.9706 -1961.1453 -1997.4259 -850.27704 -1643.7556 3307.8132 689.6589 -445.1246
-1567.979 1466.9072 -1591.2214 -4068.1257 -3951.7773 -2123.2664 2324.278 10422.126
-478.5188 6478.548 7177.5693 -1588.5183 1516.8772 -2870.5466 -11703.516 1502.9275
1375.4257 146.74136 5906.5796 5934.778 6986.39 4288.1465 490.87402 -6733.575
2996.9255 -798.933 -1835.9126 1067.5098 1993.5763 -999.7921 1700.6698 1053.8883
-2345.9983 3394.1582 -1091.8804 112.47747 637.0226 4725.9624 1277.9333 4105.1494
1138.3959 -6468.345 2074.8784 387.90048 3745.487 1194.9976 3250.0955 -1950.0315
149.5176 1310.5469 3297.5266 1712.6974 1280.937 -1057.2706 1489.1874 219.55725
944.4626 2064.3367 -263.6294 -700.10986 1645.2102 -1135.541 -97.276596 335.6842
1282.9215 1441.6521 1341.458 2064.6304 -786.4901 181.19443 -86.62801 4644.294
2277.5854 -878.2043 -895.7786 2921.0122 -97.90256 -1329.4028 -364.24045 3499.9028
852.9634 859.7402 2875.8496 3431.4626 -1620.2867 4407.97 4677.467 2376.2722
1717.7096 -2300.2866 -319.20822 140.26714 1574.5852 1101.537 3071.697 7328.234
-380.8016 -20.414536 -1328.9379 2177.1 424.78528 -987.7142 736.0628 124.713684
698.06995 -2126.862 855.52765 -2083.348 2727.266 -1897.3075 -1625.1909 644.5844
4405.8433 -492.3999 -1307.9674 3633.9875 -1648.7474 420.15137 -2944.8752 -957.3022
1657.4152 4671.12 -244.43657 446.33856 -848.11523 -591.6069 1170.6108 508.72025
587.2486 -174.74425 115.81342 205.77647 312.40482 1463.8811 -557.92883 1320.3992

exp_avg_sq f4 [16, 8, 3, 3]
00000000: 9cd4 cd4a 6b8b d94a 217e b44a 84a2 0e4b
00000010: 52a5 cb4a 08c7 1a4b bc64 184c b9c2 fb4b
00000020: e0db 1b4c f366 b84b a3b8 b94b f7e4 434b
00000030: b07f 1c4c 13b7 7e4c 079e 1b4c 0c68 f64b
00000040: 8b81 5a4c f82c 9f4c 11da 8c4b a25f a34b
00000050: 4278 124c 2e20 2c4c ffe4 794c a523 524c
00000060: ed4f 694c ccf3 774c 6b83 4c4c 2bc1 f24a
00000070: 889c ac4a 0399 b24a 92ed 1b4b c405 f84a
00000080: 5775 464b 2cbf ef4b daa6 c94b c1de ed4b
00000090: 793a 104b 460c 164b 21d6 334b e38b c04b
000000a0: 5fb2 094c 3033 af4b 8bde 014c 0938 1c4c
000000b0: c2b0 3e4c 095d f34a 660b ae4a fb29 af4a
000000c0: ea0e 374b 7c74 044b e70b 444b e245 704b
000000d0: 7bd7 114b edec 784b 5331 e34b 3de5 1a4c
000000e0: 3314 144c ec80 524c c621 9e4c 07dd 9c4c
000000f0: f6aa 064c 7c59 3d4c 3a3d c34c 0849 bf4b
00000100: 9aaa ec4b 9354 464c dc1a 124c cf9d 724c
00000110: 02ae 824c 8f83 104c 7e94 6e4c 7cd8 334c
00000120: 3751 a84c 4a83 bf4c 29a4 ea4b 7959 e44b
00000130: 4765 7a4b aab6 114c b251 2f4c c958 f34c
00000140: e875 814c 9bb5 5b4d 5cce 0c4d b800 904c
00000150: daf2 914d 5a66 2d4d 640f 844c 5843 864c
00000160: c693 c34c 2113 a94c e3a1 8c4c bb1d bb4c
00000170: c88e 164c ad3d a54d 5091 ab4d 724c d74c
00000180: 0a22 254d a087 e24c 0c84 8b4c c409 8d4c
00000190: 405a ce4c 9275 d94b cfdc e94b ca78 a14b
000001a0: 07ed 2c4c 305f 3a4c b0d3 0a4d 343e 994c
000001b0: 5f33 c24c 38bf b54c 40ec 094c dc89 0d4d
000001c0: 546c 7f4c e14c 0d4c 534c 0e4c 5558 754c
000001d0: ca91 3f4c 4308 324c 72ff 904c 5604 7f4b
000001e0: 940d f54b 6d47 ac4b a560 1d4c e7c5 334c
000001f0: 2362 ed4c ab71 9f4c b354 7e4d 2630 854d
00000200: f582 904c 7c1b 1c4e d2d6 8c4d e9fd 4b4c
00000210: ee3a 0f4c 3b1e 074d 053e 1a4d 4649 e84c
00000220: 66ba 044d d85c 574c 3b81 b74d 7543 8a4d
00000230: 4c48 4a4c a92f 8a4c 4ba8 e94c 84ee ab4c
00000240: 3192 1c4b 5b12 884b b224 964b 1962 a74b
00000250: 1c32 154b 81d8 424b f961 3a4b a720 ef4b
00000260: f8df 184c bcd4 414b 5a20 ad4b c4db 6b4c
00000270: 05aa b64b 168b 564c 4319 1a4c 0517 4e4c
00000280: 84ab 5a4c d051 a44c 5549 184b efa8 9e4b
00000290: f595 254c 9623 8e4b fe7d 3d4c fda9 8c4c
000002a0: 3ae3 224c 3387 334d f576 a94c 4681 224b
000002b0: fca1 b74b 31b5 904b eea8 854b 1646 d34a
000002c0: 5230 824b d06b 354b e568 f54b 1467 1d4c
000002d0: 7f3f f84a 3462 914b 9d67 d84b 4ba8 b74b
000002e0: b3ef b34b cb6a c64b 17c5 d44b b571 0b4c
000002f0: e85f 224c 6811 1c4b 55eb b64b 20a6 754b
00000300: 32d7 844b 2390 d34a 24f3 914b 9753 7d4b
00000310: 9407 a74b 02ea dc4b 70f0 d44a 7725 244c
00000320: dba7 324c f297 504b 5ba8 8a4c e668 504c
00000330: de6b d44c 0783 3c4c 1189 ed4c d5d3 2e4b
00000340: 323b 254c 57e7 724c 27f8 394b 2d5c 2b4c
00000350: bd0e ec4b 5999 984c 219c b24c 9768 b94c
00000360: 1596 d64a 39e3 964a 6ac2 8a4a 7dbf b34a
00000370: 863d a74a cf01 054b a20c 074b aaae ee4a
00000380: 97cf 264b e0f2 a64b fd59 854b 5285 214b
00000390: 9088 a64b a34d ad4b efb3 974b 0002 f04b
000003a0: e985 ef4b 35e5 1a4c 729d b84b 4542 8e4b
000003b0: 9799 8d4b 6445 be4b 142a 104c 9b11 c74b
000003c0: bfc7 e44b 5e2e 104c 066e 304c d666 b14a
000003d0: 11ce b94a 723b a94a dee3 b14a 07e7 7f4a
000003e0: 411d ec4a b247 d24a d2fd ed4a 1112 014b
000003f0: fa93 334b 47bd 1a4b bccb e24a c87b 164b
6.744654e+06 7.1285015e+06 5.9143845e+06 9.347716e+06 6.673065e+06 1.0143496e+07 3.994904e+07 3.299877e+07
4.085747e+07 2.4169958e+07 2.4342854e+07 1.2838135e+07 4.1025216e+07 6.6772044e+07 4.079414e+07 3.2296984e+07
5.7280044e+07 8.345389e+07 1.846173e+07 2.14137e+07 3.839617e+07 4.512172e+07 6.5508348e+07 5.508674e+07
6.1161396e+07 6.4999216e+07 5.3611948e+07 7.9545815e+06 5.656132e+06 5.8522895e+06 1.0218898e+07 8.127202e+06
1.3006167e+07 3.1424088e+07 2.64309e+07 3.1178114e+07 9.452153e+06 9.833542e+06 1.1785761e+07 2.5237446e+07
3.609638e+07 2.2963808e+07 3.404446e+07 4.0951844e+07 4.998836e+07 7.9745325e+06 5.703091e+06 5.7397735e+06
1.1996906e+07 8.680572e+06 1.2848103e+07 1.574653e+07 9.557883e+06 1.6313581e+07 2.9778598e+07 4.0604916e+07
3.8817996e+07 5.5182256e+07 8.290667e+07 8.224159e+07 3.530236e+07 4.963685e+07 1.0236155e+08 2.5072144e+07
3.102034e+07 5.1991116e+07 3.830053e+07 6.3600444e+07 6.851381e+07 3.7883452e+07 6.254233e+07 4.7145456e+07
8.824671e+07 1.0040789e+08 3.0754898e+07 2.9930226e+07 1.6409927e+07 3.819793e+07 4.5958856e+07 1.27583816e+08
6.787462e+07 2.30382e+08 1.4764589e+08 7.549894e+07 3.0607648e+08 1.8182288e+08 6.923754e+07 7.039251e+07
1.025388e+08 8.864385e+07 7.3731864e+07 9.8102744e+07 3.946781e+07 3.4653533e+08 3.598034e+08 1.1287848e+08
1.7315446e+08 1.1876685e+08 7.314646e+07 7.394461e+07 1.0818816e+08 2.850282e+07 3.065283e+07 2.1164436e+07
4.5331484e+07 4.8856256e+07 1.4557056e+08 8.034346e+07 1.0181708e+08 9.528774e+07 3.615565e+07 1.4841389e+08
6.695765e+07 3.7041028e+07 3.7302604e+07 6.4315732e+07 5.021879e+07 4.6670092e+07 7.602062e+07 1.671279e+07
3.2119592e+07 2.2580954e+07 4.1255572e+07 4.7126428e+07 1.2445724e+08 8.3594584e+07 2.6668523e+08 2.7931565e+08
7.576567e+07 6.547617e+08 2.953611e+08 5.3475236e+07 3.7546936e+07 1.4168158e+08 1.6173474e+08 1.2178488e+08
1.3917552e+08 5.645603e+07 3.8483747e+08 2.8995958e+08 5.302712e+07 7.244935e+07 1.2250377e+08 9.014173e+07
1.0261041e+07 1.783519e+07 1.9679588e+07 2.193925e+07 9.777692e+06 1.2769409e+07 1.2214777e+07 3.1342926e+07
4.007523e+07 1.2702908e+07 2.269202e+07 6.182888e+07 2.3942154e+07 5.624124e+07 4.0396044e+07 5.4025236e+07
5.7323024e+07 8.615078e+07 9.980245e+06 2.079587e+07 4.3407316e+07 1.8630444e+07 4.967423e+07 7.3748456e+07
4.270001e+07 1.8824888e+08 8.8848296e+07 1.0649926e+07 2.4069112e+07 1.8967138e+07 1.7519068e+07 6.923019e+06
1.70641e+07 1.1889616e+07 3.2166346e+07 4.126216e+07 8.1345915e+06 1.905572e+07 2.8364602e+07 2.4072342e+07
2.3584614e+07 2.6006934e+07 2.7888174e+07 3.6554452e+07 4.2565536e+07 1.0228072e+07 2.3975594e+07 1.6098848e+07
1.7411684e+07 6.9324975e+06 1.9129928e+07 1.6602007e+07 2.1892904e+07 2.8955652e+07 6.977592e+06 4.302998e+07
4.6833516e+07 1.3670386e+07 7.2696536e+07 5.463337e+07 1.1136997e+08 4.9417244e+07 1.2453697e+08 1.1457493e+07
4.3314376e+07 6.367574e+07 1.2187687e+07 4.4921012e+07 3.0940538e+07 8.000583e+07 9.3643016e+07 9.720748e+07
7.0315625e+06 4.9442845e+06 4.546869e+06 5.8899825e+06 5.480131e+06 8.716751e+06 8.850594e+06 7.821141e+06
1.0932119e+07 2.1882304e+07 1.747865e+07 1.0585426e+07 2.1827872e+07 2.2715206e+07 1.9883998e+07 3.1458304e+07
3.139477e+07 4.0604884e+07 2.419786e+07 1.8646154e+07 1.855979e+07 2.4939208e+07 3.7791824e+07 2.6092342e+07
2.9986686e+07 3.7796216e+07 4.625001e+07 5.813099e+06 6.0884565e+06 5.545401e+06 5.829103e+06 4.1927058e+06
7.7369925e+06 6.890457e+06 7.798505e+06 8.458769e+06 1.1768826e+07 1.0140999e+07 7.431646e+06 9.862088e+06

exp_avg f4 [16]
00000000: 025e 8e39 fade 583a e431 0f39 3b23 0639
00000010: ea84 8cb9 802e 81b8 5299 313a 2481 88b8
00000020: 9e1b 9c39 c933 7eb9 f0aa e5b8 5b57 4238
00000030: 0619 0d3a 6992 17b8 c668 e838 4956 6539
0.00027154392 0.0008272972 0.00013656128 0.0001279236 -0.0002680191 -6.159861e-05 0.00067748607 -6.50904e-05
0.00029775215 -0.00024242619 -0.000109514105 4.633456e-05 0.0005382452 -3.613756e-05 0.00011082138 0.00021871286

exp_avg_sq f4 [16]
00000000: 490e 3735 c87a 9535 c7d1 1935 cada 9534
00000010: 87d6 4835 491c c834 6b49 5b35 1a8f bf34
00000020: 1858 1435 027a 8435 2e1f 2a35 70c5 f234
00000030: 2eb9 0935 8841 1d35 a554 b135 00ce 4635
6.81936e-07 1.1137099e-06 5.730221e-07 2.7912603e-07 7.4817984e-07 3.7273483e-07 8.1690695e-07 3.5680642e-07
5.526249e-07 9.870275e-07 6.337531e-07 4.5219667e-07 5.130595e-07 5.858242e-07 1.3212162e-06 7.406052e-07
