output/images/blue/checkpoints/epoch_5.pt (torch, 74138 bytes, 59 tensors)

conv.0.weight f4 [8, 2, 3, 3]
0	0xbc55410f	-0.013015999
1	0x3db64576	0.08899967
2	0x3e58ed48	0.21184266
3	0x3e064fca	0.13116375
4	0x3e45a772	0.19302157
5	0xbc6e0222	-0.014526876
6	0x3e431705	0.1905175
7	0x3e2bf3a0	0.16792154
8	0x3e775d04	0.24156576
9	0x3b77faaa	0.0037838616
10	0xbde10872	-0.10987939
11	0xbddb5a28	-0.10710555
12	0x3dca119c	0.0986664
13	0xbe60ee3c	-0.21965879
14	0x3e62f3f8	0.22163379
15	0xbe118eb0	-0.14214587
16	0xbdb4e6ef	-0.088331096
17	0xbb9203ec	-0.004456034
18	0xbdfac4c6	-0.12244563
19	0x3dc28847	0.09498649
20	0xbd946b4b	-0.07247027
21	0x3e261800	0.16220093
22	0xbe620d44	-0.22075373
23	0xbdea9886	-0.11454873
24	0x3df92f76	0.121672556
25	0xbe22e5ee	-0.15908024
26	0x3dadb4af	0.08481728
27	0xbd6d6fb5	-0.05796786
28	0x3d829e88	0.06377894
29	0xbe174b43	-0.14774804
30	0x3dc97edb	0.09838649
31	0x3e4ec794	0.2019332
32	0xbc0d88e1	-0.0086385915
33	0xbdf9fdc4	-0.12206605
34	0xbe512c1c	-0.20426983
35	0x3e507822	0.20358327
36	0xbe19b0e4	-0.15008885
37	0xbaab49af	-0.0013068224
38	0xbcb9d755	-0.022685686
39	0xbe5c68ba	-0.21524325
40	0xbc8583dd	-0.016298229
41	0x3e0f5645	0.13997753
42	0xbe6b28ea	-0.22964826
43	0x3e357f2b	0.17724292
44	0x3d947563	0.07248952
45	0x3dd15513	0.10221305
46	0xbe03a6c8	-0.12856591
47	0xbe3bf0d2	-0.18353584
48	0x3e0e74c1	0.13911726
49	0x3ccf0141	0.025269153
50	0x3e2a7dc7	0.16649543
51	0x3db9f803	0.090805076
52	0x3e47892c	0.1948592
53	0xbcd122a3	-0.025529211
54	0x3e4aba3c	0.19797605
55	0x3de4fe07	0.11181264
56	0xbe2652de	-0.16242549
57	0xbe43bde3	-0.19115405
58	0x3da86f8d	0.082244016
59	0xbc8f1a72	-0.017468665
60	0x3d146932	0.036233135
61	0xbe4720da	-0.19446126
62	0x3d03c957	0.032174435
63	0xbe565da3	-0.20934157
64	0x3e0781a0	0.13233042
65	0xbde97baa	-0.1140054
66	0x3d1ecc5b	0.038769107
67	0xbe1c4af1	-0.15262963
68	0xbdd9ed99	-0.10641021
69	0x3d166d55	0.03672536
70	0x3e4cd5e0	0.20003462
71	0x3d44efb2	0.048080154
72	0x3dfe80f7	0.12426942
73	0xbcc8424b	-0.024445673
74	0x3e5babc9	0.2145225
75	0xbd259da8	-0.040433556
76	0x3e46f746	0.19430265
77	0xbd305891	-0.043053214
78	0xbb280886	-0.0025639846
79	0xbda72acd	-0.081624605
80	0xbe4dd296	-0.20099863
81	0x3e0417ea	0.12899747
82	0xbe4ae6ae	-0.1981456
83	0x3d4495c5	0.047994394
84	0x3e238e56	0.15972266
85	0x3e41ebee	0.18937656
86	0x3db6f5ac	0.08933577
87	0x3e248b70	0.16068816
88	0xbe1852b9	-0.14875306
89	0xbd40af2d	-0.04704206
90	0xbd18e293	-0.037325453
91	0xbcdf6333	-0.027268982
92	0x3df072c2	0.11740638
93	0xbdd79c27	-0.105278306
94	0xbd8d0d15	-0.06887261
95	0xbe4a1db8	-0.197379
96	0x3e424ea2	0.18975309
97	0x3e108703	0.14114003
98	0x3e3983ce	0.18116686
99	0x3e209350	0.15681195
100	0x3bf11d3d	0.007358222
101	0xbe20ea0c	-0.15714282
102	0xbe80e2d0	-0.25173044
103	0x3d8ac23d	0.06775329
104	0xbe6f1f7c	-0.23351854
105	0xbd28f226	-0.041246556
106	0xbca86155	-0.020554224
107	0xbe20d223	-0.15705161
108	0x3e13e45f	0.14442585
109	0x3d78d6ef	0.06075185
110	0x3da6ad79	0.08138556
111	0xbe3b97ea	-0.1831967
112	0x3e1d4a53	0.15360384
113	0xbe1d90fe	-0.15387341
114	0xbe092ef1	-0.13396813
115	0xbc2a0358	-0.010376774
116	0xbda6b119	-0.081392474
117	0xbe3bc143	-0.18335442
118	0xbdbb360f	-0.0914117
119	0xbda7d909	-0.08195693
120	0x3e50292b	0.20328204
121	0xbe2ef638	-0.17086112
122	0x3d96f4fd	0.073709466
123	0xbd3cd48c	-0.046101138
124	0xbdf01084	-0.117219
125	0x3e26c7cc	0.16287154
126	0xbcfef75f	-0.031123815
127	0xbd9881ff	-0.0744667
128	0x3e64e56d	0.22353144
129	0x3cd6f6bd	0.0262407
130	0x3e221956	0.15829977
131	0xbe39d7b4	-0.1814869
132	0xbdb520cb	-0.088441454
133	0xbe2f05bd	-0.17092033
134	0xbe20d94f	-0.15707897
135	0xbe2c1d0d	-0.16807957
136	0xbe2b26b0	-0.16713977
137	0x3e6d0fea	0.23150602
138	0xbe06cc3a	-0.13163844
139	0x3e3358c0	0.17514324
140	0x3e29bbc6	0.16575536
141	0xbe03dfae	-0.12878296
142	0x3e19ebd2	0.15031365
143	0xbde7501d	-0.11294577

conv.0.bias f4 [8]
0	0x3d875412	0.06607832
1	0xbd024d32	-0.0318119
2	0x3d376770	0.04477638
3	0xbdc25080	-0.094880104
4	0x3db47aa1	0.08812452
5	0xbe168b65	-0.14701612
6	0xbe49c842	-0.19705299
7	0x3dac430a	0.08411224

conv.1.weight f4 [8]
0	0x3f819881	1.0124665
1	0x3f757114	0.9587567
2	0x3f7d95cb	0.9905669
3	0x3f81a967	1.0129822
4	0x3f81904b	1.012216
5	0x3f8019b8	1.0007849
6	0x3f8528b3	1.0403045
7	0x3f7c04db	0.9844491

conv.1.bias f4 [8]
0	0xbbfea428	-0.007771034
1	0xbc4f0b30	-0.012636945
2	0x3c18c27c	0.009323712
3	0xbbb99a29	-0.0056641293
4	0x3c60a512	0.013711231
5	0xbbebc055	-0.0071945586
6	0xbb140e45	-0.0022591513
7	0xbc550691	-0.013002054

conv.1.running_mean f4 [8]
0	0x3fe3165e	1.7741201
1	0xbed6ede9	-0.41978386
2	0xbd9e9eb0	-0.07745111
3	0xbeb7cfcb	-0.3590072
4	0x3ed1a307	0.40944692
5	0xbe4b6bef	-0.19865392
6	0xbf106b1b	-0.5641343
7	0xbec3abe1	-0.3821707

conv.1.running_var f4 [8]
0	0x4051f641	3.2806551
1	0x3f9fab3f	1.2474135
2	0x3fad4eef	1.3539714
3	0x3f9183f4	1.1368394
4	0x3fbefe2a	1.4921315
5	0x3ff309fc	1.8987422
6	0x3f9c78d5	1.2224375
7	0x3fdd2cd4	1.7279305

conv.4.weight f4 [16, 8, 3, 3]
0	0x3d796c09	0.060894046
1	0x3d13d742	0.036093958
2	0xbd807caa	-0.06273778
3	0xbd4df583	-0.050282966
4	0xbb88e057	-0.004177134
5	0x3df314f1	0.11869229
6	0x3d93a8d3	0.07209935
7	0xbdf907cf	-0.121596925
8	0x3acb2d16	0.0015501108
9	0xbc93fcfb	-0.018064966
10	0xbde295da	-0.11063738
11	0x3d9f616f	0.07782256
12	0x3d92a80a	0.07160957
13	0xbda8f257	-0.08249348
14	0x3d0899f8	0.03334996
15	0xbdb06d17	-0.08614557
16	0x3d93199e	0.071826205
17	0x3bdb172f	0.0066861133
18	0x3ddc2379	0.10748953
19	0xbdb55f22	-0.08856036
20	0x3cb6eb18	0.022328898
21	0x3db815a2	0.08988501
22	0xbcdc8df7	-0.026923163
23	0xbdd700bd	-0.10498188
24	0xbda81dc9	-0.08208806
25	0xbd2365ee	-0.03989213
26	0xbdb350fa	-0.087556794
27	0xbd21cd61	-0.039502505
28	0xbe02ec7a	-0.12785521
29	0xbd69a8d7	-0.057045784
30	0xbdcbd83c	-0.09953353
31	0x3d769126	0.060197018
32	0x3bfad223	0.007654445
33	0xbda2c087	-0.07946878
34	0x3dc19fd0	0.0945431
35	0xbdf628db	-0.12019511
36	0x3cc4c048	0.024017468
37	0xbd42a1be	-0.04751753
38	0xbda02bee	-0.07820879
39	0x3d9a4093	0.07531848
40	0x3de5469d	0.11195109
41	0x3cad86d7	0.02118246
42	0x3dbccfac	0.09219298
43	0xbdeb5390	-0.11490548
44	0x3d82f7d4	0.06394926
45	0x3d82e085	0.0639048
46	0xbd860f1d	-0.065458514
47	0xbdc8f007	-0.098114066
48	0x3b9228c1	0.0044604247
49	0x3c80175b	0.015636137
50	0xbd9da78f	-0.07697975
51	0x3c5bf96a	0.013426164
52	0x3d5475c3	0.05187012
53	0x3c4c6dfc	0.012477394
54	0xbd49b714	-0.049246863
55	0xbd732d5e	-0.059369437
56	0xbc6e7bc7	-0.014555878
57	0xbd8aeb32	-0.06783141
58	0xbd7d2fba	-0.061813094
59	0xbdb7c337	-0.08972781
60	0xbd4fe4d6	-0.050755344
61	0x3d48948f	0.0489698
62	0xbde8b1d8	-0.11362046
63	0xbd2b71cb	-0.04185657
64	0x3c4816e7	0.012212492
65	0x3d9e301c	0.0772402
66	0xbd51b7d9	-0.05120072
67	0xbb17fc8c	-0.00231913
68	0x3df026c2	0.117261425
69	0x3bf8dfee	0.007595054
70	0x3c333cbb	0.010939772
71	0xbc74cd8d	-0.014941585
72	0x3d19c542	0.037541635
73	0xbb984e4b	-0.004648005
74	0x3d1c750c	0.038197562
75	0x3c8ae9aa	0.016957123
76	0x3d19a025	0.03750624
77	0x3d6b6a7d	0.057474602
78	0xbcb53f4f	-0.022124914
79	0xbdd0caa4	-0.10194901
80	0xbd1bea7e	-0.038065426
81	0x3cd5349f	0.026026068
82	0x3dd91b05	0.10600857
83	0xbaa9d3c3	-0.0012956787
84	0x3db199ee	0.08671938
85	0xbd5c4273	-0.05377431
86	0xbda8ae25	-0.082363404
87	0x3d64971f	0.055808183
88	0x3dc142b5	0.094365515
89	0x3da33067	0.079682164
90	0xbd4d7aca	-0.05016593
91	0xbda6a084	-0.08136085
92	0x3d50dddf	0.050992843
93	0x3b88b0a5	0.0041714483
94	0x3d0d2242	0.0344565
95	0x3cdf44b9	0.02725445
96	0x3d24a594	0.04019697
97	0xbdc25b24	-0.0949004
98	0xbd048d90	-0.032361567
99	0xbd34e49b	-0.044163328
100	0x3d1678c9	0.036736283
101	0xbd6d518e	-0.057939105
102	0x3df4e535	0.1195778
103	0xbd82016b	-0.06347927
104	0x3de5f1d8	0.11227769
105	0xbd5e1361	-0.0542177
106	0xbc4402cb	-0.0119635565
107	0x3c8121b0	0.015763134
108	0x3dce7293	0.10080447
109	0xbd476a12	-0.04868514
110	0xbd2ffb57	-0.042964306
111	0xbcf7f0e4	-0.030266233
112	0x3dbdbaa1	0.09264112
113	0xbd48c42e	-0.049015217
114	0x3d048aac	0.03235881
115	0x3d3355e2	0.043783076
116	0x3c86cf4d	0.01645627
117	0x3df668f9	0.12031741
118	0xbca68bea	-0.020330388
119	0x3d6ebb61	0.058284167
120	0x3c102dcd	0.008799982
121	0xbd98d94e	-0.074633226
122	0xbd76747e	-0.06016969
123	0x3af8cbf8	0.0018981686
124	0xbd1b98c8	-0.0379875
125	0x3cbc0678	0.022952303
126	0x3d95768f	0.07298004
127	0xbd182f41	-0.03715444
128	0x3dda609c	0.10662958
129	0x3dfaec3e	0.12252091
130	0x3e23496c	0.15945977
131	0x3d2bbcf3	0.041928243
132	0xbc9e4fbb	-0.019325128
133	0xbd82872d	-0.06373439
134	0x3d1b2b16	0.037882887
135	0xbd4c9445	-0.04994609
136	0x3d4ccd3c	0.050000414
137	0xbd8c4f5a	-0.068510726
138	0x3dc607bb	0.09669443
139	0x3cd0fcf7	0.025511248
140	0x3dc9bbc2	0.09850265
141	0xbbb60c86	-0.005555692
142	0xbdb047c0	-0.08607435
143	0x3d80b15e	0.0628383
144	0xbd24d995	-0.040246565
145	0xbcfab599	-0.03060417
146	0xbdb3e5d5	-0.08784071
147	0x3d7b68c4	0.06137921
148	0x3d3ef020	0.04661572
149	0xbd3a4804	-0.045478836
150	0xbe090c64	-0.13383633
151	0xbc5460b9	-0.012962514
152	0xbdc24372	-0.094855204
153	0x3d8c48c7	0.06849819
154	0x3d7227da	0.059120037
155	0xbdb2fbb0	-0.08739412
156	0xbbe02d0c	-0.0068413075
157	0x3cfe8b10	0.03107217
158	0xbd70c992	-0.058785982
159	0x3cc825df	0.02443212
160	0xbc0876ee	-0.008329136
161	0x3dd504a2	0.10401274
162	0xbdb01256	-0.08597247
163	0x3ddc34af	0.10752236
164	0xbdb457ef	-0.088058345
165	0x3d835b9f	0.0641396
166	0x3dc31ecb	0.09527358
167	0xbcd9fd7e	-0.026610132
168	0xbc14d36d	-0.009083611
169	0xbbecbf00	-0.0072249174
170	0x3da1c0be	0.07898091
171	0x3d1b4d92	0.037915774
172	0x3d8eeed3	0.06979146
173	0xbd98562f	-0.07438313
174	0x3dcc91a0	0.09988713
175	0xbd6145e8	-0.05499831
176	0xbd7ba898	-0.06144008
177	0x3cf6047d	0.030031437
178	0x3db4f6c2	0.08836128
179	0x3c600357	0.013672671
180	0xbdfa52bc	-0.122228116
181	0x3dd4adc3	0.10384705
182	0x3df64a34	0.12025872
183	0xbd4ee37f	-0.050509926
184	0x3ca63806	0.020290386
185	0x3d06914c	0.03285341
186	0x3dd1d3c1	0.10245467
187	0xbbce32d8	-0.006292682
188	0x3e03da68	0.12876284
189	0x3d5626c1	0.052283052
190	0x3db35f8d	0.08758459
191	0x3c0b0226	0.008484399
192	0x3ca88c78	0.020574793
193	0xbd45eaad	-0.048319507
194	0x3d1cbd57	0.038266506
195	0xbda92c3f	-0.082603924
196	0x3d13a81f	0.036049005
197	0xbdfc6e10	-0.1232568
198	0xbdc475da	-0.09592791
199	0x3d53a72c	0.0516731
200	0xbd44f4c4	-0.04808499
201	0xbd45bfe9	-0.048278723
202	0x3c15a099	0.009132528
203	0x3b931e51	0.004489698
204	0x3def8d89	0.116969176
205	0x3dd5c1a5	0.104373254
206	0x3db44320	0.088018656
207	0xbcddb442	-0.027063493
208	0xbd68d08b	-0.056839507
209	0x3db76446	0.089546725
210	0x3dca1820	0.09867883
211	0x3d8bf96f	0.06834685
212	0xbd622c14	-0.055217817
213	0x3d71cbf7	0.059032407
214	0x3dc65231	0.096836455
215	0x3b8d1cb9	0.0043064025
216	0x3de44914	0.11146751
217	0xbd250a5b	-0.04029308
218	0x3da304f4	0.07959929
219	0x3cfb05f8	0.030642495
220	0xbc53c8ce	-0.012926294
221	0xbc8e1a06	-0.017346393
222	0xbddd4c00	-0.108055115
223	0x3dc6f74d	0.09715138
224	0xbc90cdb2	-0.017676208
225	0xbc91622c	-0.017747007
226	0x3d22b47f	0.039722916
227	0xbda769b3	-0.081744574
228	0xbd681821	-0.056663636
229	0x3c014f9f	0.007892518
230	0xbce36273	-0.027756905
231	0xbdad48f8	-0.08461183
232	0x3ccd61be	0.025071021
233	0x3c011d28	0.007880487
234	0xbd901c7f	-0.07036685
235	0xbda5ad7d	-0.08089731
236	0xbd61ac55	-0.05509599
237	0xbb3dae02	-0.0028942828
238	0x3d9edc6c	0.07756886
239	0xbd770d6f	-0.060315546
240	0xbd89fd65	-0.06737784
241	0x3d29ca8d	0.041452933
242	0xbc576b9c	-0.013148215
243	0x3db16e8b	0.086636625
244	0x3d076e2f	0.033064064
245	0x3d941fe1	0.07232643
246	0x3dcf2231	0.10113943
247	0x3e002514	0.12514144
248	0x3d10cc2c	0.035350963
249	0x3cb40bf3	0.021978354
250	0xbbcdbead	-0.006278834
251	0xbcb532af	-0.022118894
252	0x3c13d40f	0.009022727
253	0xbca41f24	-0.02003438
254	0xbd479324	-0.04872431
255	0xbd96bdcc	-0.0736042

conv.4.bias f4 [16]
0	0xbcae18fd	-0.02125215
1	0x3d656b60	0.056010604
2	0x3da8a18f	0.0823394
3	0x3c4ba985	0.012430553
4	0xbb4754d2	-0.0030415547
5	0x3d3f9352	0.046771355
6	0xbdac866e	-0.08424078
7	0xbdbe1bea	-0.09282668
8	0xba9c460e	-0.0011922733
9	0x3db4707a	0.08810516
10	0x3d99f13e	0.075167164
11	0xbd71fd7c	-0.059079632
12	0x3d895390	0.067053914
13	0x3dd94b2a	0.106100395
14	0x3de6ced7	0.1126992
15	0xbd235ce1	-0.039883498

conv.5.weight f4 [16]
0	0x3f757202	0.9587709
1	0x3f823102	1.0171206
2	0x3f832a22	1.0247233
3	0x3f8d3c5c	1.1034045
4	0x3f73bdfd	0.95211774
5	0x3f70f2cd	0.94120485
6	0x3f7a0617	0.9766554
7	0x3f7ca9a8	0.98696375
8	0x3f73e68d	0.9527367
9	0x3f76d078	0.9641185
10	0x3f8280d1	1.0195562
11	0x3f7f7d60	0.9980068
12	0x3f8351a3	1.0259289
13	0x3f865194	1.0493646
14	0x3f821101	1.0161439
15	0x3f7bda02	0.9837953

conv.5.bias f4 [16]
0	0xbb60ac4a	-0.003428238
1	0x3be7babc	0.007071821
2	0xbc2c7a29	-0.010527172
3	0x3c7c24c4	0.015389625
4	0xbcf9c9e8	-0.030491784
5	0xbbe67844	-0.0070333797
6	0x3c7d0ca4	0.015444908
7	0xbc96ba59	-0.018399404
8	0x3c36ebc9	0.011164614
9	0xbce744d8	-0.02823107
10	0x3c98733f	0.018609641
11	0x3d18aba6	0.03727307
12	0x3d2780a7	0.040894177
13	0xbbfb9817	-0.0076780426
14	0x3c23ac5e	0.009989826
15	0xbc2163f5	-0.009850492

conv.5.running_mean f4 [16]
0	0xbeee7da6	-0.46580237
1	0x3f2364c8	0.63825655
2	0x3f337915	0.7010663
3	0x3ee57d0e	0.44821972
4	0xbf2f5569	-0.684897
5	0xbd85561f	-0.06510567
6	0xbe44bf15	-0.19213517
7	0x3f3bfa0e	0.7342843
8	0xbf5d92eb	-0.86552304
9	0x3f37fa81	0.71866614
10	0x3eab5723	0.33464918
11	0x3f412d57	0.7545981
12	0x3f8a4037	1.0800847
13	0x3e2cb45b	0.16865675
14	0x3ef0cf33	0.4703308
15	0xbf321f97	-0.6957945

conv.5.running_var f4 [16]
0	0x3e1c176b	0.15243308
1	0x3ea8df7b	0.32983002
2	0x3e7c72aa	0.24653116
3	0x3e43d308	0.19123471
4	0x3f1c1452	0.60968506
5	0x3e6dab4e	0.23209879
6	0x3e079a91	0.13242556
7	0x3eca5f8a	0.39526016
8	0x3e7094c2	0.23494247
9	0x3f014a7b	0.50504273
10	0x3e64d3d4	0.22346431
11	0x3e7d946e	0.24763653
12	0x3e76761a	0.2406849
13	0x3e234257	0.15943275
14	0x3e36292e	0.17789146
15	0x3e9d008b	0.30664477

fc.0.weight f4 [32, 64]
0	0xbdd28444	-0.10279134
1	0xbcaceafd	-0.021108145
2	0xbd0001e6	-0.03125181
3	0xbda9ac49	-0.08284814
4	0x3da86d54	0.08223978
5	0x3d8280cb	0.063722216
6	0x3dcb3ec4	0.09924081
7	0xbdbffb1a	-0.09374066
8	0xbdadb86c	-0.08482441
9	0xbdc73623	-0.09727123
10	0xbdd7e072	-0.105408564
11	0xbc79615b	-0.015220965
12	0xbdb8433d	-0.089972
13	0xbc0fc350	-0.0087745935
14	0x3d82bccf	0.06383669
15	0x3cdf707f	0.027275322
16	0x3cb8497d	0.02249598
17	0x3ca37489	0.01995303
18	0xbc5c1fe7	-0.0134353405
19	0x3dccdb13	0.100027226
20	0xbddbd8c4	-0.10734704
21	0xbc8305af	-0.015993921
22	0x3d69fe49	0.05712727
23	0xbdd9dc70	-0.10637748
24	0x3d6f8547	0.058476713
25	0x3d88cfb4	0.06680241
26	0xbc441416	-0.0119676795
27	0x3df565df	0.11982321
28	0x3daf03f0	0.08545673
29	0x3d03d06f	0.0321812
30	0x3d7ff25f	0.062487002
31	0x3db20631	0.08692587
32	0x3ca63334	0.020288087
33	0x3dc244d7	0.094857864
34	0xbddd04b8	-0.10791916
35	0x3d1d9a68	0.03847733
36	0xbde1bd49	-0.110224314
37	0x3d6700d2	0.056397267
38	0x3dc6fb8f	0.0971595
39	0xbd38020f	-0.04492384
40	0xbdcefc0e	-0.10106669
41	0xbdba96ef	-0.091108195
42	0x3c3efa90	0.011656418
43	0x3dbadcef	0.09124171
44	0x3d49ca44	0.04926516
45	0x3dbe2366	0.092840955
46	0xbda07bd3	-0.078361176
47	0x3d42f9f6	0.047601663
48	0xbac4ef5e	-0.001502495
49	0x3cc08939	0.023502933
50	0xbdd1dc12	-0.10247053
51	0x3c60df91	0.013725177
52	0x3c4d3bc1	0.0125264535
53	0x3d00f739	0.03148577
54	0xbc5c3add	-0.0134417685
55	0x3d6f1856	0.058372818
56	0x3d65f8ad	0.05614536
57	0xbdcb238a	-0.09918888
58	0x3db7975d	0.08964417
59	0xbdbd1534	-0.0923256
60	0x3d4d58fd	0.050133694
61	0xbd026b0a	-0.03184036
62	0x3d481083	0.04884387
63	0xbd1d3709	-0.038382564
64	0x3d5d21d0	0.053987324
65	0xbdaa7a57	-0.08324116
66	0xbcec1bdb	-0.028821876
67	0x3bf0bd9d	0.0073468224
68	0xbd9d32d6	-0.07675712
69	0xbe036522	-0.12831548
70	0x3c6aed90	0.014338866
71	0xbdcc9b17	-0.099905185
72	0xbddf77f6	-0.109115526
73	0x3d3dadad	0.04630821
74	0x3e064932	0.1311386
75	0x3db0ba1e	0.08629249
76	0xbdb3719b	-0.08761903
77	0xbc9a1255	-0.01880757
78	0xbd1150e7	-0.035477545
79	0x3e1a7315	0.15082963
80	0x3c9b4142	0.018952016
81	0xbd55537b	-0.052081566
82	0xbd123d7c	-0.035703167
83	0xbc58c0c4	-0.013229553
84	0xbd416d34	-0.047223285
85	0xbca94e49	-0.020667212
86	0x3db3ba79	0.08775801
87	0x3d3be3d3	0.045871567
88	0x3d6a9c96	0.05727824
89	0x3dc462a9	0.095891304
90	0x3c267016	0.010158559
91	0xbdc26def	-0.094936244
92	0x3d6bc78f	0.05756336
93	0x3c2b13b0	0.010441706
94	0x3d5111b5	0.051042277
95	0xbde2ce1e	-0.1107447
96	0x3d87a4b4	0.066232115
97	0xbd009605	-0.03139307
98	0x3d41dee8	0.04733172
99	0x3ddba6bb	0.10725161
100	0xbe03ba4b	-0.12864034
101	0xbb88ae83	-0.004171194
102	0x3d601f5c	0.054717407
103	0x3db8b984	0.09019759
104	0x3dc73925	0.09727696
105	0xbda34c3c	-0.07973525
106	0x3c9d714c	0.019219063
107	0xbdb193df	-0.08670782
108	0xbdc96bf8	-0.098350465
109	0x3ddd9f33	0.108213805
110	0x3c3de37f	0.011589884
111	0xbc6516f9	-0.013982528
112	0xbd5ebefa	-0.05438135
113	0x3d902de5	0.07040004
114	0xbdb61afe	-0.08891867
115	0x3d6ceb32	0.057841487
116	0xbdaf2dd0	-0.0855366
117	0xbde5ae6d	-0.1121491
118	0xbe11644c	-0.14198416
119	0x3dc13eac	0.09435782
120	0x3ca9b619	0.020716714
121	0xbdaac005	-0.08337406
122	0x3ccd4d66	0.02506132
123	0xbdb012d2	-0.0859734
124	0x3d87912f	0.066194884
125	0x3dc17e4a	0.09447916
126	0xbda71551	-0.08158363
127	0xbda5a064	-0.08087233
128	0xbd426de1	-0.04746807
129	0xbdef9eb0	-0.11700189
130	0xbdbac363	-0.09119298
131	0x3cf28963	0.029606527
132	0x3c7bc2f8	0.015366308
133	0x3d035c81	0.03207064
134	0x3cc4b71d	0.024013096
135	0x3dcc4879	0.099747606
136	0xbe17938d	-0.1480238
137	0xbcd6ad95	-0.026205817
138	0xbd5f1c69	-0.054470453
139	0x3c218a6d	0.009859663
140	0x3c15e3e1	0.009148569
141	0xbd9653d4	-0.07340208
142	0x3b2c5fe0	0.0026302263
143	0xbdbbedbd	-0.09176204
144	0x3dae8685	0.08521751
145	0x3da36baf	0.079795234
146	0xbd0b9872	-0.03408093
147	0xbd8c9a6b	-0.068653904
148	0xbde4efdb	-0.11178561
149	0xbd7c18aa	-0.06154696
150	0xbb5cb783	-0.0033678717
151	0x3db33450	0.08750212
152	0x3d8f3205	0.06991962
153	0xbdf4aaca	-0.11946638
154	0xbd65c1e9	-0.05609313
155	0xbc6a84a3	-0.01431385
156	0x3d5ff742	0.054679163
157	0x3da6367a	0.08115859
158	0x3e0529ab	0.13004176
159	0xbd4c0c16	-0.049816214
160	0xbd5de5ef	-0.05417436
161	0xbc893b60	-0.016751945
162	0x3d8a1599	0.06742401
163	0xbc91f951	-0.017819079
164	0xbd51aac3	-0.05118824
165	0xbce5fc19	-0.028074311
166	0x3da319dc	0.07963917
167	0xbd8a033c	-0.06738898
168	0xbd0c49ef	-0.034250196
169	0xbd999f7a	-0.07501121
170	0x3d60e5d4	0.05490668
171	0xbd93aec6	-0.0721107
172	0xbbe204ba	-0.006897536
173	0x3cc12647	0.023577822
174	0x3dd57cd3	0.10424199
175	0x3d252115	0.040314753
176	0xbdda01c9	-0.10644872
177	0x3d87347c	0.066018075
178	0x3c23fc4f	0.0100088855
179	0x3cd7ab7e	0.026326891
180	0xbdeed10f	-0.116609685
181	0x3cdf0a31	0.02722654
182	0x3ce33a90	0.027737886
183	0x3d93b673	0.07212534
184	0xba952c73	-0.0011381045
185	0x3cd25fe3	0.025680488
186	0x3e0640c4	0.13110644
187	0x3c1d2df6	0.0095934775
188	0x3d451ae5	0.04812135
189	0x3dc0d038	0.094147146
190	0x3dbe15da	0.092815116
191	0xbc9de76b	-0.019275388
192	0xbd942370	-0.07233322
193	0x3cf03afe	0.029325005
194	0xbde16234	-0.11005059
195	0x3ced038b	0.028932353
196	0x3d786e57	0.060652103
197	0xbd9ce35a	-0.07660551
198	0xbcb76640	-0.022387624
199	0xba350e90	-0.0006906772
200	0x3da31a3d	0.07963989
201	0x3c77d73d	0.015127
202	0x3e2938e5	0.1652561
203	0x3c3799d1	0.011206106
204	0x3db65cd6	0.08904426
205	0x3d9260df	0.07147383
206	0xbcbed329	-0.023294048
207	0x3e071fc5	0.13195713
208	0xbd1fc53f	-0.039006468
209	0xba9dc0cd	-0.0012035609
210	0x3d45b347	0.048266675
211	0x3daee7b4	0.085402876
212	0x3d03442b	0.032047432
213	0x3cff5816	0.031169932
214	0x3d0bd248	0.034136087
215	0x3cbeaa34	0.023274519
216	0x3d02cbbf	0.03193259
217	0x3c960fda	0.018318105
218	0xbbd6b243	-0.006552012
219	0xbcc591d9	-0.024117397
220	0x3c1b1c65	0.009467219
221	0x3c9af680	0.018916368
222	0xbbc55e16	-0.006023179
223	0xbdc7b8e8	-0.09752065
224	0x3d6927a5	0.056922574
225	0xbdb414f1	-0.08793057
226	0x3c2807f3	0.0102558015
227	0x3d86de9f	0.0658543
228	0x3c3b6f32	0.011440085
229	0xbd95c81b	-0.07313558
230	0x3d9f77e3	0.077865385
231	0x3dc6e8a0	0.097123384
232	0x3c779d08	0.015113123
233	0xbd3e84b6	-0.04651328
234	0x3d15a9f3	0.03653903
235	0xbc9b2687	-0.01893927
236	0x3d3d5348	0.046222
237	0x3ca7c1c7	0.020478142
238	0xbd4c6459	-0.049900386
239	0xbcdbdeff	-0.026839731
240	0x3d1afd1e	0.037839048
241	0x3dd7a705	0.10529903
242	0xbc87f235	-0.016594985
243	0x3b7d685d	0.0038666942
244	0xbe0931d7	-0.13397919
245	0xbd5b1c0e	-0.053493552
246	0xbdb7d72f	-0.0897659
247	0x3d8cd3b9	0.068763204
248	0xbdfc1dc7	-0.12310367
249	0x3cf0a0bb	0.029373517
250	0x3dd9ce5a	0.106350616
251	0xbd993b85	-0.074820556
252	0x3df016a7	0.117230706
253	0xbd9d092b	-0.07667764
254	0xbd20d300	-0.039263725
255	0xbd800c0c	-0.06252298

fc.0.bias f4 [32]
0	0x3ddb4a8d	0.10707579
1	0xbd3210aa	-0.043472923
2	0xbdce8eab	-0.100858055
3	0x3ded1ce2	0.115777746
4	0xbdba4ec2	-0.09097053
5	0xbdb5f5fb	-0.08884808
6	0x3d4c8f3a	0.04994128
7	0x3d2bf379	0.04198024
8	0xbd81acab	-0.06331762
9	0xbd0c63e2	-0.034274943
10	0xbd403250	-0.04692298
11	0x3d86a15f	0.06573748
12	0x3df427f7	0.11921685
13	0x3db4ea43	0.088337444
14	0xbcd7daec	-0.026349507
15	0xbd0d2b83	-0.034465324
16	0xbd9dc64b	-0.07703837
17	0x3db8aa1b	0.0901682
18	0x3d05e018	0.032684416
19	0x3de1d133	0.1102623
20	0xbdeb2e82	-0.1148348
21	0x3d9e4227	0.07727461
22	0xbd9ab14f	-0.0755335
23	0xbd8a2dc6	-0.06747012
24	0xbd9410df	-0.072297804
25	0x3cb7bc72	0.022428725
26	0xbdc13ab3	-0.09435024
27	0xbda2c3c1	-0.07947493
28	0xbc9ed366	-0.019387912
29	0xbbea7693	-0.0071552484
30	0x3b9e107d	0.004823743
31	0x3d9544f1	0.0728854

fc.1.weight f4 [32]
0	0x3f6c52d4	0.92313886
1	0x3f8146bc	1.0099711
2	0x3f6d003f	0.925785
3	0x3f772f38	0.96556425
4	0x3f86e80d	1.0539566
5	0x3f7d79e0	0.9901409
6	0x3f878be0	1.0589561
7	0x3f86167d	1.0475613
8	0x3f82d97e	1.0222623
9	0x3f86e22f	1.0537776
10	0x3f7d7ac1	0.9901543
11	0x3f746fee	0.9548329
12	0x3f809d17	1.004794
13	0x3f885cf3	1.0653366
14	0x3f854932	1.0412962
15	0x3f82d091	1.02199
16	0x3f6ecb78	0.9327922
17	0x3f830ac8	1.0237665
18	0x3f825e30	1.0184994
19	0x3f8e9ed5	1.1142222
20	0x3f74f2ca	0.95682967
21	0x3f82296b	1.016889
22	0x3f85664f	1.0421847
23	0x3f81a308	1.0127878
24	0x3f82d36c	1.0220771
25	0x3f773a2f	0.96573156
26	0x3f85c954	1.0452065
27	0x3f730c38	0.9494052
28	0x3f7cf7cd	0.98815614
29	0x3f835d2a	1.0262806
30	0x3f71f540	0.94514847
31	0x3f8482ff	1.0352477

fc.1.bias f4 [32]
0	0xbd5bd0de	-0.05366599
1	0x3d00103b	0.03126548
2	0xbceeb57b	-0.029139271
3	0xbd1f4691	-0.038885657
4	0x3d670313	0.056399416
5	0x3c92577d	0.017863983
6	0x3cae4dfb	0.021277418
7	0x3d8a4116	0.067506954
8	0x3c7e673f	0.0155275455
9	0x3d3f91e1	0.04676998
10	0xbb990c65	-0.004670667
11	0xbcd3b7c2	-0.025844458
12	0x3d1e2d81	0.038617615
13	0x3d025051	0.031814877
14	0x3d442310	0.047885
15	0x3c2c3585	0.010510807
16	0xbd2e8e64	-0.042616263
17	0x3cf021ca	0.029312987
18	0x3ce58286	0.02801634
19	0x3dff757c	0.1247358
20	0xbb80a52c	-0.00392594
21	0x3c924cc0	0.017858863
22	0x3c8b43f9	0.017000185
23	0x3d1bceac	0.038038895
24	0x3cc9513d	0.02457487
25	0xbd1c9ea2	-0.03823722
26	0x3d0de296	0.034639917
27	0xbd52ef08	-0.05149749
28	0x3abe8250	0.0014534686
29	0xbb9cc257	-0.0047839093
30	0xbd0175e4	-0.03160657
31	0x3d4ab983	0.049493324

fc.1.running_mean f4 [32]
0	0x3eebbdc5	0.4604322
1	0x3dced7e6	0.10099773
2	0x3efd0f86	0.49425906
3	0x3f5a233d	0.8521002
4	0x3f9ca2e7	1.2237214
5	0xbf956de4	-1.1674161
6	0xc0023f1f	-2.0351026
7	0xbf9bab14	-1.2161584
8	0x3f9fa44d	1.2472016
9	0xbfe0c60f	-1.7560443
10	0x3f5e7f87	0.8691334
11	0x3c81b428	0.015832976
12	0x3f41eb71	0.7574988
13	0xbff03785	-1.8766943
14	0x3f8e5e5b	1.1122545
15	0x3ece5f5c	0.40307128
16	0xbffbec8a	-1.9681561
17	0x3f456d71	0.7712012
18	0xbedf3e24	-0.43602097
19	0xbf48efcb	-0.78490895
20	0x3e3c2342	0.18372825
21	0xbf907398	-1.1285276
22	0xbed7ac81	-0.42123798
23	0xbf9182d4	-1.136805
24	0xbfbb685b	-1.4641222
25	0x3f648bca	0.892758
26	0xbd670055	-0.0563968
27	0xbfbeac05	-1.4896246
28	0x3eed6759	0.4636791
29	0x3ee30fe5	0.44348064
30	0x3f21b1ea	0.631621
31	0x3f3111ce	0.6916779

fc.1.running_var f4 [32]
0	0x3e0d2365	0.13783033
1	0x3e2bd939	0.16782083
2	0x3e18f9b5	0.14939006
3	0x3e36cf0e	0.17852423
4	0x3ed039af	0.4066901
5	0x3e840fec	0.25793397
6	0x3f086c65	0.53290397
7	0x3f11ce6b	0.56955594
8	0x3e85abd4	0.26107657
9	0x3ecd49a4	0.40095246
10	0x3e69ab14	0.22819167
11	0x3e3bae8b	0.18328302
12	0x3ea1c832	0.3159805
13	0x3ec9b62b	0.39396796
14	0x3e839095	0.25696245
15	0x3e21aef7	0.157894
16	0x3eba1429	0.36343506
17	0x3e80ee20	0.25181675
18	0x3eae9113	0.34095058
19	0x3e9c9036	0.30578774
20	0x3e24d62c	0.16097325
21	0x3ebeab5b	0.3724011
22	0x3ea98118	0.33106303
23	0x3ef5e583	0.48026666
24	0x3e54250f	0.20717262
25	0x3e9b99d8	0.3039081
26	0x3ec812f2	0.39076954
27	0x3ea701c3	0.32618532
28	0x3e834814	0.2564093
29	0x3e4cc89f	0.19998406
30	0x3e6b7f61	0.2299781
31	0x3e77bd90	0.24193406

fc.3.weight f4 [16, 32]
0	0xbcb1507a	-0.02164482
1	0xbd93fc5a	-0.072258666
2	0xbd96ad94	-0.07357326
3	0x3bc35003	0.005960466
4	0x3c6bece0	0.014399737
5	0xbd0b03ed	-0.03393929
6	0x3d292cda	0.04130254
7	0xbd11362d	-0.035452057
8	0x3de903b7	0.11377662
9	0x3daa246f	0.083077304
10	0xbd5671f0	-0.052354753
11	0x3e105616	0.14095339
12	0xbe09a448	-0.13441575
13	0x3d98bf06	0.0745831
14	0x3ce02efa	0.02736615
15	0xbd28684c	-0.04111509
16	0x3e41dcc8	0.18931878
17	0xbc5ba5d5	-0.013406237
18	0x3db3b762	0.08775212
19	0x3dc95685	0.098309554
20	0xbb9ce34d	-0.0047878386
21	0x3d9d43fe	0.07678984
22	0xbccf5f59	-0.02531402
23	0xbdd73421	-0.1050799
24	0x3dbd7cef	0.09252345
25	0x3d4d0062	0.050049193
26	0x3d86f90f	0.06590473
27	0x3e268426	0.16261348
28	0xbd4dc1e9	-0.050233755
29	0xbe12e77e	-0.1434612
30	0x3dea979c	0.114546984
31	0xbe029414	-0.127518
32	0xbd7b2077	-0.061310258
33	0xbe035a0f	-0.12827323
34	0xbc862f51	-0.016379984
35	0xbe244e4c	-0.16045493
36	0x3d820bb0	0.063498855
37	0x3e08d9cd	0.13364334
38	0x3dfdcdfb	0.12392803
39	0xbd9e1fcc	-0.077209085
40	0xbe08a19a	-0.13342896
41	0x3dd469c3	0.10371735
42	0xbc11f5be	-0.008908687
43	0xbd0042b9	-0.03131363
44	0x3d67a1db	0.05655084
45	0x3dc527af	0.0962671
46	0xbc640039	-0.013916069
47	0xbe511ce1	-0.20421173
48	0x3cc85749	0.024455683
49	0x3e313217	0.17304264
50	0xbd599b34	-0.05312653
51	0x3db5b698	0.088727176
52	0x3d820b0a	0.06349762
53	0x3e23d3f3	0.15998821
54	0x3e09c1ee	0.13452885
55	0x3e05df33	0.13073425
56	0xbd1fb01b	-0.038986307
57	0xbd254aa7	-0.040354397
58	0x3e27ee22	0.16399434
59	0xbcbe704a	-0.023246903
60	0xbe1687ad	-0.14700194
61	0xbcee0fd3	-0.02906028
62	0x3d8e9572	0.06962098
63	0xbd788b50	-0.060679734
64	0xbdcf250c	-0.10114488
65	0x3d8e3078	0.069428384
66	0xbd8cc90e	-0.06874286
67	0xbe125bde	-0.14292857
68	0xbdda5d08	-0.106622756
69	0x3d0bd10b	0.034134906
70	0x3da4402b	0.080200516
71	0x3dedf85f	0.11619639
72	0x3e027cf7	0.12742983
73	0xbc5091d5	-0.012730082
74	0xbda512d8	-0.08060235
75	0xbd6d8989	-0.057992492
76	0xbd0abf8a	-0.033874072
77	0x3e16e068	0.14734042
78	0xbb4ee9cf	-0.0031572466
79	0x3da2fa64	0.079579145
80	0xbdb1d1de	-0.08682607
81	0xbe1fab61	-0.1559272
82	0x3e31d4ec	0.1736638
83	0x3e5745f2	0.21022776
84	0xbdd27f10	-0.102781415
85	0x3df1d8f3	0.11808958
86	0xbd54a946	-0.051919244
87	0x3df1f6b7	0.11814635
88	0x3e55d0d6	0.20880446
89	0xbc62cb81	-0.013842464
90	0x3e406631	0.18788983
91	0x3dcb2dbf	0.09920835
92	0x3d047826	0.032341145
93	0xbdb454c4	-0.0880523
94	0x3dc9ef85	0.09860138
95	0x3d8bbc9f	0.06823086
96	0x39ce3078	0.00039327494
97	0xbd9239be	-0.0713992
98	0x3de2ca76	0.110737726
99	0x3d23f029	0.040023956
100	0xbba169eb	-0.0049259565
101	0x3e271ef4	0.16320401
102	0xbb9bb8ef	-0.0047522704
103	0xbdbbdba4	-0.091727525
104	0xbd73fb7a	-0.059566
105	0x3d5d8fa4	0.054092064
106	0x3d989218	0.0744974
107	0x3e03f715	0.12887223
108	0xbb41c152	-0.002956469
109	0x3ddffb75	0.109366335
110	0xbd9b1cdd	-0.075738646
111	0x3d70d52b	0.058797043
112	0x3df3b3bc	0.11899516
113	0x3e0e541f	0.13899277
114	0xbe19875d	-0.14993043
115	0xbe006dca	-0.12541881
116	0xbb65e846	-0.0035081073
117	0xbdd75061	-0.10513378
118	0x3e1f8470	0.15577865
119	0x3d931573	0.071818255
120	0x3dfab580	0.1224165
121	0xbdc809d4	-0.097674996
122	0x3d155a2c	0.036462948
123	0x3e1d83af	0.15382265
124	0xbd8b1421	-0.06790949
125	0x3dccb354	0.099951416
126	0xbdd4edc3	-0.10396912
127	0x3d93a98a	0.072100714
128	0xbd0b8bde	-0.034068935
129	0x3d563423	0.052295815
130	0xbd7f5663	-0.062338244
131	0xbdef1be3	-0.11675241
132	0xbdffcd46	-0.12490325
133	0x3c858d8d	0.016302848
134	0xbdb886f6	-0.09010117
135	0xbe4aa63b	-0.19789974
136	0x3d29f8a4	0.041496888
137	0xbe6187d0	-0.22024465
138	0x3b86459f	0.004097655
139	0xbdb76d5d	-0.08956406
140	0x3d0749c2	0.033029325
141	0xbe3d45d6	-0.18483672
142	0x3e1130b4	0.14178735
143	0x3dbe4598	0.09290618
144	0x3d4122ae	0.047152214
145	0xbe3e90a9	-0.18609871
146	0xbe0c5e21	-0.13707782
147	0xbddc7f68	-0.10766488
148	0x3dfcb0c5	0.123384036
149	0x3dcabd25	0.09899358
150	0xbe6dee95	-0.23235543
151	0xbe169081	-0.14703561
152	0xbdb1492b	-0.08656534
153	0x3db819d6	0.08989303
154	0xbdf02c54	-0.11727205
155	0x3a50e3b0	0.00079684984
156	0xbce7ac24	-0.028280325
157	0xbd91f326	-0.07126455
158	0x3d97d8b8	0.07414383
159	0x3e27d0e2	0.16388276
160	0xbd8a7bda	-0.06761904
161	0xbe3badf6	-0.1832808
162	0x3cc5775f	0.024104772
163	0x3cb9ab60	0.022664726
164	0xbe459f22	-0.19298986
165	0xbd8b76de	-0.068097815
166	0xbdb3b646	-0.08775
167	0xbc3a755e	-0.011380522
168	0x3cb6f3ee	0.022333112
169	0xbe2b948b	-0.16755883
170	0x3aa321cf	0.0012445989
171	0xbe237335	-0.15961917
172	0x3e1be247	0.15223037
173	0xbd61db77	-0.05514094
174	0xbe08498b	-0.13309304
175	0xbe3422f0	-0.17591453
176	0x3d985f81	0.07440091
177	0xbd6014c8	-0.05470732
178	0xbe2349ac	-0.15946072
179	0x3d91b901	0.07115365
180	0xbe0b3513	-0.13594465
181	0xbe30a0c2	-0.17248824
182	0xbdaf1eef	-0.08550822
183	0x3e2f45a1	0.17116405
184	0x3b4dcae5	0.0031401452
185	0xbe2ce148	-0.16882813
186	0x3e07dc0f	0.1326754
187	0xbdc3655b	-0.095408164
188	0xbe25fb00	-0.1620903
189	0xbd4b07a1	-0.049567822
190	0x3dbf0b58	0.093283355
191	0xbdd0fa54	-0.10203996
192	0x3c4d0a4f	0.012514665
193	0x3d111e24	0.035429135
194	0xbd638ace	-0.055552296
195	0x3e0e6c2e	0.13908455
196	0xbb5b1feb	-0.0033435773
197	0xbde9a67f	-0.1140871
198	0xbe20053d	-0.15626998
199	0xbdb71870	-0.08940208
200	0xbd801a7a	-0.0625505
201	0x3d4f9f32	0.05068893
202	0xbda8d8b8	-0.08244461
203	0x3e399515	0.18123277
204	0xbb8d26b9	-0.0043075946
205	0xbcb7a6e6	-0.02241845
206	0x3da6b72c	0.08140406
207	0x3d949c04	0.0725632
208	0x3c26dbe0	0.010184258
209	0x3dec42a8	0.11536151
210	0xbddaabe6	-0.10677318
211	0xbc13f32b	-0.009030144
212	0xbdd9f250	-0.106419206
213	0xbe251c53	-0.16124086
214	0x3dcd2d4e	0.10018407
215	0xbe248671	-0.1606691
216	0x3e29d56f	0.16585325
217	0xbda65871	-0.081223376
218	0xbd87d003	-0.06631472
219	0x3d5f12ca	0.054461278
220	0x3d217ccd	0.03942566
221	0x3df16f20	0.117887735
222	0x3d85b207	0.06528097
223	0x3cc0ee92	0.02355126
224	0x3d4e6eb8	0.05039856
225	0x3e1e638d	0.15467663
226	0x3dd7133e	0.10501717
227	0xbc67e60d	-0.0141539695
228	0x3e56e77e	0.20986745
229	0x3da39424	0.0798724
230	0xbe139d48	-0.14415467
231	0xbe278494	-0.16359168
232	0xbcd52922	-0.02602059
233	0x3cc586ea	0.024112184
234	0xbdc0aa2c	-0.09407458
235	0xbdbb89af	-0.091571204
236	0xbda32e47	-0.07967811
237	0x3cbee4d0	0.023302466
238	0xbd5c1920	-0.0537349
239	0xbe10a3ae	-0.14124939
240	0x3d5e3588	0.05425027
241	0x3d519438	0.051166743
242	0x3e569936	0.20956883
243	0xbe49074a	-0.19631687
244	0xbd0e197c	-0.034692273
245	0xbdd98c28	-0.10622436
246	0xbcb72b06	-0.022359382
247	0xbdcc5d83	-0.099787734
248	0xbdecba53	-0.11558976
249	0x3cc05fc5	0.023483166
250	0xbe27288e	-0.16324064
251	0xbc885ac0	-0.016644835
252	0x3d156ac2	0.036478765
253	0xbd2adeeb	-0.041716497
254	0xbd987562	-0.07444264
255	0xbddd0cfa	-0.10793491

fc.3.bias f4 [16]
0	0xbda4ecad	-0.08052955
1	0x3b972a1c	0.004613174
2	0xbda778d1	-0.08177341
3	0x3e0c559f	0.13704537
4	0x3de782ad	0.11304221
5	0x3cf30c18	0.029668853
6	0x3bb05498	0.005381178
7	0xbe163994	-0.14670402
8	0x3e0d1615	0.13777955
9	0x3e123095	0.14276345
10	0xbe03e82e	-0.12881538
11	0xbe2181f7	-0.15772234
12	0xbd82c391	-0.063849576
13	0xbcd85668	-0.02640839
14	0xbdd4e066	-0.10394363
15	0x3d1c4473	0.038151216

fc.4.weight f4 [16]
0	0x3f745780	0.95446014
1	0x3f7100e9	0.94142014
2	0x3f72fe2a	0.94919074
3	0x3f73601b	0.9506852
4	0x3f844adb	1.0335344
5	0x3f865f87	1.0497903
6	0x3f83c3f2	1.0294173
7	0x3f84c022	1.0371134
8	0x3f83d35f	1.029888
9	0x3f72181c	0.9456804
10	0x3f723fe0	0.94628716
11	0x3f73e014	0.9526379
12	0x3f83d7ea	1.0300267
13	0x3f830473	1.0235733
14	0x3f709b63	0.939871
15	0x3f6ff387	0.9373097

fc.4.bias f4 [16]
0	0xbd5ed1d7	-0.054399338
1	0xbd72e8c9	-0.059304032
2	0xbd799b73	-0.060939264
3	0xbd698853	-0.057014775
4	0x3d9fb01e	0.077972636
5	0x3dcaeb58	0.099081695
6	0x3d8d4181	0.068972595
7	0x3da029a8	0.07820445
8	0x3d97a8c6	0.07405238
9	0xbd65c410	-0.056095183
10	0xbd5ceb57	-0.053935375
11	0xbd6b6a28	-0.057474285
12	0x3d95c8e2	0.07313706
13	0x3d9fcdea	0.07802947
14	0xbd71a177	-0.058991875
15	0xbd5a591c	-0.053307638

fc.4.running_mean f4 [16]
0	0x3de82725	0.11335591
1	0x3e45c129	0.19311966
2	0x3eae34d5	0.34024683
3	0x3ed243fa	0.41067487
4	0xbeea0fd9	-0.45715216
5	0xbf2f7ac8	-0.68546724
6	0xbcca1709	-0.024669187
7	0xbf014fb5	-0.5051225
8	0x3e0331bf	0.12811945
9	0xbd5b297e	-0.053506367
10	0xbe8e6292	-0.27809578
11	0x3da01b01	0.078176506
12	0x3eb73c17	0.35788032
13	0x3db46088	0.088074744
14	0xbef042ae	-0.46925873
15	0x3e866f6a	0.26256877

fc.4.running_var f4 [16]
0	0x3e46a16a	0.19397512
1	0x3f2b6898	0.6695647
2	0x3eeb2c46	0.45932215
3	0x3dc2111a	0.09475918
4	0x3f17cb61	0.59294707
5	0x3ea4259e	0.3205995
6	0x3ec012a1	0.37514213
7	0x3e545c6d	0.20738383
8	0x3f17fe9e	0.5937289
9	0x3e39dedf	0.18151425
10	0x3e746a73	0.23868732
11	0x3e9c60d5	0.30542627
12	0x3f047dcc	0.5175445
13	0x3f19200d	0.5981453
14	0x3e86f8c4	0.26361668
15	0x3e5aae64	0.21355587

output.weight f4 [1, 16]
0	0xbd0c6cae	-0.034283333
1	0xbe3cae04	-0.18425757
2	0xbe063297	-0.13105236
3	0xbcce6d9f	-0.025198756
4	0x3e3798ed	0.1792943
5	0x3d9f8a40	0.07790041
6	0x3e5c0743	0.21487145
7	0x3db60186	0.08887009
8	0x3e8014c7	0.25015852
9	0xbcdfb4c2	-0.027307872
10	0xbd999399	-0.07498855
11	0xbe048b20	-0.12943697
12	0x3e1e9938	0.15488136
13	0x3e5ce929	0.21573319
14	0xbda0b40e	-0.07846843
15	0xbdd353ea	-0.1031874

exp_avg f4 [8, 2, 3, 3]
0	0xb9dc50e9	-0.00042021953
1	0x38e5f387	0.000109649314
2	0xb9a62397	-0.00031688504
3	0xb9c36014	-0.00037264882
4	0x398e9cbc	0.00027201127
5	0xb97573cc	-0.00023408158
6	0xb8c7e83e	-9.532318e-05
7	0x39d3320b	0.0004028234
8	0xb90bceb8	-0.00013333082
9	0xb8b2757d	-8.509585e-05
10	0xb8aacd97	-8.144526e-05
11	0xb8a96bb5	-8.07861e-05
12	0xb89519d8	-7.1096874e-05
13	0xb88efbc5	-6.8179834e-05
14	0xb889aeaf	-6.5652064e-05
15	0xb88914ed	-6.536567e-05
16	0xb883afd2	-6.279316e-05
17	0xb87e335d	-6.0606155e-05
18	0xb93e2a31	-0.0001813553
19	0xba3218fe	-0.0006793885
20	0x39838d1e	0.00025091408
21	0xb9922f0d	-0.00027882346
22	0xb8248196	-3.9221333e-05
23	0xb91d1178	-0.00014979194
24	0x39c8d0bc	0.00038302492
25	0x38d4c429	0.000101454854
26	0x3a1b63b5	0.0005927638
27	0x38b5cd43	8.6689855e-05
28	0x38ae2fd2	8.305874e-05
29	0x38dac469	0.00010431634
30	0x382e3274	4.153182e-05
31	0x38228524	3.8747807e-05
32	0x3899c80f	7.332872e-05
33	0x381a13e7	3.6734997e-05
34	0x381e6ddd	3.7772454e-05
35	0x3891d2da	6.953413e-05
36	0xb9d23da0	-0.00040100235
37	0xba1e6e26	-0.0006043635
38	0xba4bf7ab	-0.0007780741
39	0x39dc5804	0.00042027247
40	0x390c1e7c	0.00013362797
41	0x393e198f	0.00018129333
42	0x39d4622a	0.0004050893
43	0xb81e9b6f	-3.7814894e-05
44	0x391db251	0.00015039115
45	0x38ed025c	0.0001130148
46	0x38fbe5b8	0.00012011401
47	0x388cc8c3	6.713115e-05
48	0x392257b1	0.00015482192
49	0x392aff24	0.0001630751
50	0x38f42899	0.000116423886
51	0x393a9a4e	0.00017795825
52	0x3935ddbb	0.00017344106
53	0x39052afa	0.00012699878
54	0xb980cf4f	-0.0002456852
55	0xb932bbd9	-0.00017045382
56	0xb9e591a7	-0.00043786803
57	0x3990e1c2	0.00027634023
58	0x3a87ce54	0.0010361173
59	0x3aae6ef6	0.0013308215
60	0xb975e56f	-0.00023450491
61	0x3919eea2	0.00014680115
62	0x391ad5b1	0.0001476619
63	0xb7c5699a	-2.3533405e-05
64	0xb854d093	-5.073899e-05
65	0xb89997b1	-7.323863e-05
66	0x36b70940	5.454902e-06
67	0xb77a39c7	-1.49146135e-05
68	0xb835b22b	-4.3319695e-05
69	0x382519d5	3.9363124e-05
70	0x379aebe5	1.8468078e-05
71	0xb834e48b	-4.312819e-05
72	0xb989a970	-0.00026256917
73	0xba6e2c12	-0.00090855465
74	0xb8d2301e	-0.00010022543
75	0xb98c0f38	-0.0002671422
76	0xb9135027	-0.00014048872
77	0x375d40fb	1.3187756e-05
78	0xb910ac5a	-0.00013797116
79	0xb8ee87fb	-0.00011374053
80	0xb92f68c6	-0.00016728332
81	0x37c11134	2.3015404e-05
82	0x37e47b12	2.7237027e-05
83	0x38909a36	6.895179e-05
84	0x371a083d	9.181033e-06
85	0x372d7297	1.0338284e-05
86	0x385b6c0a	5.2314288e-05
87	0x38e0b86d	0.00010715504
88	0x38e1d3ef	0.00010768312
89	0x38ebb0f1	0.00011238631
90	0xb9353911	-0.00017282764
91	0xb9a65a17	-0.0003172911
92	0x395dbff6	0.00021147713
93	0x39e4ba68	0.00043626432
94	0xb9774d84	-0.00023584632
95	0xb6b41141	-5.3664266e-06
96	0xb8d227e4	-0.000100210105
97	0xba5eb465	-0.0008495509
98	0x39c11858	0.00036829966
99	0xb8f1c3c6	-0.00011528241
100	0xb8a8caab	-8.048614e-05
101	0xb88e2b0b	-6.779105e-05
102	0xb8fe7733	-0.000121338664
103	0xb8bc6718	-8.983741e-05
104	0xb8a16a60	-7.696892e-05
105	0xb8fc58a3	-0.00012032806
106	0xb90150c8	-0.00012332492
107	0xb8e434b2	-0.000108817025
108	0xba50d874	-0.00079668243
109	0x39d354a8	0.0004030813
110	0xbab02e97	-0.0013441619
111	0xba59791b	-0.0008295939
112	0xb8d6de21	-0.0001024569
113	0x39a676b2	0.00031750422
114	0xb8710f6b	-5.7473237e-05
115	0xba53a8ec	-0.00080741826
116	0xba03609d	-0.000501165
117	0xb9448c1d	-0.00018744213
118	0xb96c7674	-0.00022550841
119	0xb9458bef	-0.00018839513
120	0xb92faedb	-0.0001675444
121	0xb95377fb	-0.00020167224
122	0xb94ebd85	-0.00019716292
123	0x3795258f	1.7779674e-05
124	0x370df5e5	8.461507e-06
125	0xb7ca860f	-2.4142702e-05
126	0x39588ee1	0.00020652592
127	0x395e567c	0.00021203788
128	0x39395e91	0.00017678204
129	0xba0ff211	-0.0005491088
130	0xba143399	-0.00056534406
131	0xb924cc75	-0.00015716425
132	0xb95ff4c0	-0.00021358114
133	0xb965393f	-0.00021860468
134	0xb83bb8a3	-4.475623e-05
135	0xb76edc56	-1.4237206e-05
136	0xb80318f6	-3.125608e-05
137	0xb81c5202	-3.7269674e-05
138	0xb7aa422f	-2.0296398e-05
139	0xb807a188	-3.2336946e-05
140	0xb79d40bb	-1.8746001e-05
141	0xb7cb057f	-2.4202045e-05
142	0xb7eb4c1c	-2.8049624e-05
143	0xb7a73db7	-1.993669e-05

exp_avg_sq f4 [8, 2, 3, 3]
0	0x3767a77a	1.3807667e-05
1	0x3778b7f0	1.4824778e-05
2	0x37b40528	2.1460073e-05
3	0x381b8114	3.7075093e-05
4	0x37e8a05f	2.7731234e-05
5	0x3793b64f	1.760866e-05
6	0x382d4b95	4.1316805e-05
7	0x37d36cbf	2.5203799e-05
8	0x37da92db	2.605601e-05
9	0x3506bc89	5.0193245e-07
10	0x34ffa506	4.7617522e-07
11	0x350b29a7	5.184215e-07
12	0x351dfb82	5.885305e-07
13	0x3517eca1	5.6596224e-07
14	0x351f8b2e	5.943465e-07
15	0x35318bb5	6.614094e-07
16	0x352bacb2	6.395377e-07
17	0x3533f810	6.7043675e-07
18	0x376fec7d	1.4300572e-05
19	0x38807b50	6.1264844e-05
20	0x3815fdf6	3.5760888e-05
21	0x391e0666	0.00015070438
22	0x38661ab2	5.4861135e-05
23	0x38150048	3.552463e-05
24	0x3892a9c1	6.993442e-05
25	0x3853f20e	5.053175e-05
26	0x391926db	0.00014605692
27	0x362078e3	2.3912223e-06
28	0x35f791cf	1.844537e-06
29	0x35da89b8	1.6282347e-06
30	0x360cde07	2.0990863e-06
31	0x35d5c9a4	1.5928422e-06
32	0x35cc141e	1.5205039e-06
33	0x360ceefa	2.1000728e-06
34	0x35f20f3a	1.8034837e-06
35	0x35e34627	1.6933235e-06
36	0x37e4753a	2.7234306e-05
37	0x38913aca	6.925089e-05
38	0x38020fef	3.1009255e-05
39	0x380e7593	3.3964938e-05
40	0x38367313	4.3499353e-05
41	0x38a0285b	7.636911e-05
42	0x3805fecc	3.194697e-05
43	0x38e01886	0.0001068572
44	0x388e0fe8	6.7740504e-05
45	0x35e36d7c	1.6944682e-06
46	0x35b4967d	1.3454843e-06
47	0x35cc5519	1.5223951e-06
48	0x360f8493	2.1385829e-06
49	0x35d0a03a	1.554384e-06
50	0x35d1e503	1.5638365e-06
51	0x36169426	2.2437976e-06
52	0x35dd57d2	1.6491342e-06
53	0x35d12a12	1.5583958e-06
54	0x38e60896	0.00010968854
55	0x38aba064	8.1837905e-05
56	0x3859337b	5.1784777e-05
57	0x385d95a3	5.2829866e-05
58	0x390f7175	0.00013679809
59	0x38a74d29	7.977553e-05
60	0x396197b9	0.00021514193
61	0x38212ab6	3.842517e-05
62	0x38df0ff4	0.0001063644
63	0x36312bf7	2.6400646e-06
64	0x3646c023	2.9616137e-06
65	0x36487c5a	2.9874705e-06
66	0x3622d3c1	2.4263138e-06
67	0x3624b08b	2.4540666e-06
68	0x36350403	2.6973437e-06
69	0x3611e207	2.173825e-06
70	0x361f89ea	2.3773123e-06
71	0x3618254d	2.2671477e-06
72	0x386f8e22	5.7114412e-05
73	0x3831db61	4.24044e-05
74	0x385efe7c	5.316593e-05
75	0x3867f9ea	5.5307442e-05
76	0x38e1292c	0.00010736505
77	0x38d0ebb8	9.962119e-05
78	0x38023fa3	3.105368e-05
79	0x37c7707c	2.3775028e-05
80	0x37ee20b7	2.8387045e-05
81	0x36038ddc	1.9603094e-06
82	0x35fd65f9	1.8879647e-06
83	0x360d9b89	2.110117e-06
84	0x36050e10	1.982673e-06
85	0x3600129c	1.9084318e-06
86	0x360b3a9e	2.0746734e-06
87	0x35c50dbc	1.4681641e-06
88	0x35b4295b	1.3423081e-06
89	0x35bd30f0	1.409584e-06
90	0x37edb96a	2.8338942e-05
91	0x37f1cb90	2.882423e-05
92	0x388bcd65	6.666294e-05
93	0x379fd214	1.9052102e-05
94	0x381e7d71	3.7786962e-05
95	0x37ba2688	2.219087e-05
96	0x387a5415	5.9682952e-05
97	0x38a4efee	7.86482e-05
98	0x384621c6	4.7238333e-05
99	0x3570d2a2	8.971348e-07
100	0x356e7e34	8.884556e-07
101	0x3589912f	1.0249549e-06
102	0x358030e3	9.550971e-07
103	0x35764b5d	9.175181e-07
104	0x3582bb4e	9.740268e-07
105	0x358412da	9.840253e-07
106	0x3579e89c	9.309822e-07
107	0x3585bae7	9.963668e-07
108	0x3881292c	6.158868e-05
109	0x3862e162	5.4092503e-05
110	0x3884336f	6.303831e-05
111	0x3844d46f	4.6927886e-05
112	0x39085ff4	0.00013005716
113	0x385f5ef6	5.3255782e-05
114	0x376bdc59	1.4058395e-05
115	0x38273b29	3.9871e-05
116	0x381efdfd	3.790668e-05
117	0x363130bd	2.6403425e-06
118	0x36214a2c	2.4034043e-06
119	0x360832a2	2.0295051e-06
120	0x3621b21d	2.4094545e-06
121	0x36119692	2.1694327e-06
122	0x35fde43a	1.8916392e-06
123	0x35c1be5a	1.443502e-06
124	0x35ba94bf	1.3901371e-06
125	0x35a1a3e6	1.2043135e-06
126	0x380f1cb3	3.4120585e-05
127	0x381c23d6	3.7226673e-05
128	0x37e8aff0	2.7738482e-05
129	0x389aaa2d	7.37499e-05
130	0x3869f728	5.578171e-05
131	0x3806f0e2	3.217243e-05
132	0x37ccfaf1	2.4435549e-05
133	0x376a7613	1.3974978e-05
134	0x37c01cb5	2.2901551e-05
135	0x358952d6	1.0231404e-06
136	0x35ac6972	1.2845687e-06
137	0x359ddf51	1.1762405e-06
138	0x3568cd50	8.6725504e-07
139	0x358e4e16	1.060255e-06
140	0x3596e466	1.1242344e-06
141	0x355fdb6c	8.3393275e-07
142	0x357ce396	9.4208497e-07
143	0x35907bd0	1.076487e-06

exp_avg f4 [8]
0	0x2d2d73b6	9.8596045e-12
1	0xacfc96dd	-7.17902e-12
2	0x2d68084f	1.3189518e-11
3	0x2e2c399e	3.9159447e-11
4	0x2d7276e5	1.3782507e-11
5	0xad6bf5f3	-1.3412815e-11
6	0xae84cb03	-6.038727e-11
7	0xac0642d0	-1.9079634e-12

exp_avg_sq f4 [8]
0	0x1f9386b9	6.24798e-20
1	0x20ea9d54	3.9745253e-19
2	0x20e14316	3.8160876e-19
3	0x21476fb6	6.757167e-19
4	0x20cc836c	3.4645912e-19
5	0x20b8facd	3.1336778e-19
6	0x20e84ea7	3.9354377e-19
7	0x20939e30	2.5007448e-19

exp_avg f4 [8]
0	0xb720a0d5	-9.57419e-06
1	0xb832e9ec	-4.2656364e-05
2	0x3973d557	0.00023253761
3	0x39386d9d	0.00017588442
4	0x374466d1	1.1706449e-05
5	0xb90cecda	-0.00013439675
6	0xb8a4fba5	-7.867002e-05
7	0xb92433e3	-0.00015659588

exp_avg_sq f4 [8]
0	0x3687ce8c	4.0473587e-06
1	0x36ee14dc	7.095381e-06
2	0x36e2ae1b	6.7555934e-06
3	0x36c297b6	5.799312e-06
4	0x36b4102c	5.3663007e-06
5	0x36d9f372	6.4954447e-06
6	0x368c98f3	4.1901308e-06
7	0x36885212	4.06267e-06

exp_avg f4 [8]
0	0x38c70bc6	9.4912524e-05
1	0xb7ee9bf5	-2.8444434e-05
2	0x38248e35	3.9233088e-05
3	0x36c0ad13	5.7421944e-06
4	0x38aa0958	8.107972e-05
5	0x380dab7f	3.3776738e-05
6	0x35070be1	5.0308705e-07
7	0x385f4ff5	5.324181e-05

exp_avg_sq f4 [8]
0	0x35d82a4d	1.6105565e-06
1	0x35d78a46	1.6058991e-06
2	0x35ec3e37	1.7601477e-06
3	0x35cd2389	1.5284032e-06
4	0x367cd8c2	3.7677096e-06
5	0x35eafa1e	1.7507152e-06
6	0x35e70308	1.7211723e-06
7	0x35c6ee4c	1.4821503e-06
