output/red/bitboards/model.pt (torch, 46289 bytes, 9 tensors)

weight f4 [50, 13]
000000 b8 08 4c 3d 64 80 57 be c0 d7 26 3e 80 f1 8c bb
       0.049813002 -0.21045071 0.1629324 -0.00430125
000010 97 91 6d be 5b fe 17 be ec 2e 1c bd 8a 22 0c 3e
       -0.2320007 -0.14843123 -0.038130686 0.1368505
000020 00 55 9d 3c b0 71 20 3e e2 09 0d 3e de ef 28 be
       0.01920557 0.15668368 0.13773301 -0.16497752
000030 1f 81 b2 40 20 6c 33 be 8e d7 ed bd 0d 40 8d 3e
       5.578262 -0.17521715 -0.116133794 0.2758793
000040 9e f0 00 3e 24 30 b0 3d 68 01 7c 3f 00 7d 05 bd
       0.12591788 0.08602932 0.98439646 -0.032589912
000050 48 88 bb 3d 20 e4 34 bc de 98 21 be 1c ac 58 3e
       0.09156853 -0.011040717 -0.1578097 0.21159405
000060 23 77 0a be a7 4b 9d 40 20 17 4d 3d c6 ac 44 3e
       -0.1352201 4.915485 0.05007088 0.19206533
000070 22 b2 90 bd a7 50 8d 3e d0 8f 63 be 23 0c 9d 3d
       -0.07065226 0.27600595 -0.22222829 0.076683305
000080 20 ff 00 3d 64 1e e4 3d 8c 33 6d bd a0 be ac bc
       0.031493306 0.11138609 -0.057910487 -0.02108699
000090 40 09 78 bc 64 ea 56 bd 8f ba 88 40 9e 58 12 3e
       -0.015138924 -0.052469626 4.2727733 0.14291617
0000a0 11 a3 8d 3e 36 81 08 be 63 b6 81 3e 1b 07 67 be
       0.27663472 -0.1333054 0.25334463 -0.22561304
0000b0 4d 54 59 3d 2c a6 c8 3d f8 d0 38 be 7a 1a 1c be
       0.05305891 0.0979732 -0.18048465 -0.15244475
0000c0 56 c4 64 be ac 28 60 bd 50 9c a4 3c 37 92 b7 c0
       -0.22340521 -0.054726288 0.020094067 -5.7365985
0000d0 08 a2 0a 3e e2 5b b2 bd 0c 2b 62 bd e6 01 d1 bd
       0.13538373 -0.087089315 -0.055216834 -0.1020544
0000e0 49 02 19 be bb 83 1e 3e 6e 64 3b be 14 02 25 3e
       -0.14942278 0.15479939 -0.1830003 0.16114074
0000f0 b0 d8 c6 3c 70 26 99 3d 20 82 2b 3d 80 7b 06 bb
       0.024273247 0.074780345 0.041872144 -0.002052039
000100 a8 ea 96 40 c0 a3 57 3c 54 55 11 be a5 6e 02 be
       4.7161446 0.0131616 -0.14192706 -0.1273752
000110 b4 c4 28 bd 64 d0 4f 3e a4 07 05 c0 0c f4 3a bd
       -0.041203216 0.20294338 -2.0785913 -0.045642897
000120 60 00 69 3c 9e 29 0d 3e 8f 6d 84 be ac 24 42 3e
       0.014221281 0.13785407 -0.25864837 0.18959302
000130 69 d4 0c be 80 94 29 3e a8 7e e2 bd ac b6 3d bd
       -0.13752903 0.16560555 -0.11059314 -0.046316788
000140 66 b6 24 3e d6 20 79 3e 78 d6 95 3d aa 25 14 bd
       0.16085204 0.24328932 0.07316297 -0.03616873
000150 58 64 06 3e 70 0e 16 3e 0c 5f 56 3e 92 86 40 3e
       0.13124216 0.14653945 0.20934695 0.18801335
000160 60 af dd 3d cc 71 b6 3d 61 fb 5d 40 10 f5 99 3c
       0.10824466 0.08908424 3.468468 0.018793613
000170 3a 8f 8f bd 28 d2 1c 3d 04 6f 4a be f8 d0 eb bd
       -0.0700974 0.038286358 -0.19768912 -0.11514467
000180 97 8d 88 be 61 5f 13 be 5c 01 76 bd a6 62 67 3e
       -0.26670524 -0.14391853 -0.06005989 0.22596225
000190 22 72 09 3e 4f 35 81 be 80 54 5c bc 42 09 b0 40
       0.13422444 -0.25235984 -0.013447881 5.50113
0001a0 7a c8 16 3e dc f2 79 bd 60 63 16 3d e2 5d 1e be
       0.14724913 -0.061022624 0.036715865 -0.15465501
0001b0 9c 04 ac bd e3 7f 85 3e fc 19 58 3e e4 d7 35 3e
       -0.08399317 0.26074132 0.21103662 0.17758137
0001c0 40 2d a2 bc 60 a2 e1 3c 32 62 64 3e c4 5c bd 3d
       -0.019796968 0.027543247 0.22303084 0.09246209
0001d0 e8 4b c0 40 4d c5 85 3e fb 65 88 3e 7d 13 8d 3e
       6.009266 0.2612709 0.26640305 0.2755393
0001e0 30 84 96 bc dd c1 85 be 36 c3 69 be 22 3b 53 3e
       -0.018373579 -0.26124468 -0.22828373 0.20628026
0001f0 a0 1f ae bc 5b 3f 4e be 14 26 eb 3d 18 47 39 3d
       -0.021255314 -0.20141356 0.11481872 0.045233816
000200 c2 f4 86 be 18 c5 ab c0 18 aa 86 be 80 1d 95 3c
       -0.2635861 -5.3678093 -0.26301646 0.018202543
000210 24 54 02 be e0 10 1b bc ba 65 d7 bd 55 7a 4f be
       -0.1272741 -0.0094644725 -0.1051745 -0.2026151
000220 9a 0e 66 be 2c dc e6 bd 37 a2 8d be fc 13 81 be
       -0.22466508 -0.11272463 -0.27662823 -0.2521056
000230 40 55 b9 3b 58 03 57 3e aa ae bc c0 13 9c 81 3e
       0.0056559145 0.2099737 -5.8963213 0.25314388
000240 20 6e f2 3d e6 5e 6a 3e da 6f a1 bd a0 96 db 3d
       0.11837411 0.22887763 -0.07882662 0.10722089
000250 02 80 7c be 3f 81 02 be ba 6e 7e 3e 0d 58 8a 3e
       -0.24658206 -0.12744616 0.24846926 0.27020302
000260 f0 60 cb bd 52 11 49 be 7c 8d fd 3d 13 4a 9c 40
       -0.09930599 -0.19635513 0.12380502 4.8840423
000270 0a 17 59 be 04 3f 5a be d6 2e c3 bd b8 89 9b 3d
       -0.21200195 -0.21313101 -0.095304176 0.07594627
000280 6a 5e 1c 3e d3 fa 35 be 9c 6f ab 3d 1a 83 7c 3e
       0.15270391 -0.17771463 0.08370897 0.24659386
000290 4e b9 43 3e a0 aa 22 3e 60 8c fa 3c e0 56 9d 3c
       0.19113657 0.15885401 0.030584514 0.019206464
0002a0 3f 6b bb c0 a3 c8 5b be 50 6e a8 3c 9e 35 83 be
       -5.8568416 -0.21463256 0.020560414 -0.25626844
0002b0 06 83 31 3e bf 32 1a be 70 cd 16 3e c4 49 5f 3e
       0.17335138 -0.1505842 0.14726806 0.21805483
0002c0 ac 47 57 3e 7c 89 ef 3d a0 8b 2e 3e 20 bb e1 3c
       0.21023434 0.11696145 0.1704545 0.027555048
0002d0 d0 a8 ca 3d ff 2d b2 40 bb 9e 8d 3e a0 21 10 bc
       0.0989548 5.5681148 0.27660164 -0.008797079
0002e0 8a bd 0d 3e 00 14 0d 3d ba 55 99 bd 06 8e c6 3d
       0.13841835 0.0344429 -0.07487054 0.096950576
0002f0 ce 4d 0a 3e be ed b1 bd 40 0c 7d bd c6 25 56 3e
       0.13506243 -0.08687924 -0.06177926 0.20912847
000300 2f d1 2a be c0 6c ec 3d f2 e5 b8 c0 ea d9 04 3e
       -0.1668136 0.1154418 -5.7780695 0.12973753
000310 f8 0f 96 3d ae af ac bd a6 5b 28 be 46 04 76 3e
       0.073272645 -0.08431946 -0.16441211 0.24025068
000320 de 3e dd bd 98 d0 4b 3d eb 5c 8b 3e f2 69 7d 3e
       -0.108030066 0.049759477 0.27219328 0.24747446
000330 54 a4 53 3e ec 0e 3b bd 88 7d 53 3e ba cb bf c0
       0.20668155 -0.045668527 0.20653355 -5.993619
000340 dd 33 88 3e 50 2a a0 bc f0 1a b6 bc a0 a7 f6 3c
       0.2660207 -0.019551426 -0.022229642 0.030109227
000350 62 78 2a 3e 8d d2 1d 3e 3a 4b 77 3e dc de 65 bd
       0.16647485 0.1541235 0.2414979 -0.05612074
000360 7c 95 d7 3d 98 49 3d 3d 9c 9d 76 be c4 f2 ac 3d
       0.10526559 0.046212763 -0.2408356 0.08444741
000370 4c 5f a3 40 9a 71 69 3e 48 0c 2f bd f2 03 cb bd
       5.105383 0.22797242 -0.04273632 -0.09912862
000380 fa b3 aa bd bc fe c5 3d a3 d0 4b be ea d1 7d 3e
       -0.08335109 0.09667727 -0.19903807 0.24787107
000390 74 d0 55 3e 0c dd ec 3d cd d7 85 be 38 6d 75 3d
       0.208803 0.11565599 -0.26141205 0.059918612
0003a0 60 12 35 3e 6f 87 a2 c0 a2 88 67 3e 82 ff 45 be
       0.17682791 -5.0790324 0.22610715 -0.1933575
0003b0 3a 68 40 be 8e 2a 63 3e e0 7a 6a be 0d 5a 89 be
       -0.1878976 0.22184202 -0.22898436 -0.26826516
0003c0 1f 0e 8b 3e 76 0d 45 3e 03 0b 1f be 9c a9 4e 3e
       0.2715921 0.19243416 -0.15531544 0.20181888
0003d0 f4 1f f7 bd cc 4a 9e 3d f9 1e ba c0 c9 de 87 3e
       -0.120666414 0.0772911 -5.816281 0.2653716
0003e0 dd b7 64 be da 56 42 3e 9c cb c6 bd 12 a7 7a 3e
       -0.22335763 0.18978444 -0.09706804 0.24477795
0003f0 48 02 db bd 6a c0 05 3e 16 4f 51 3e 66 b8 3a be
       -0.106937945 0.13061681 0.20440325 -0.18234405

bias f4 [50]
000000 3b b2 c0 40 53 16 bb 40 8d 18 b0 40 42 d8 bf c0
       6.0217566 5.846475 5.502997 -5.9951487
000010 1e d2 a6 40 91 52 40 3f c9 28 73 40 d2 f0 bf 40
       5.213149 0.75125986 3.7993643 5.998147
000020 7f a7 c9 40 6e b1 b4 c0 08 a7 c9 c0 1b de b1 40
       6.3016963 -5.646659 -6.3016396 5.5583625
000030 9c f8 cb c0 a6 47 bb 40 b1 1e c3 c0 08 eb c5 c0
       -6.374098 5.852496 -6.0974965 -6.1849403
000040 f5 6f b8 40 19 55 bc c0 e4 ae c3 c0 e7 d6 ad 40
       5.7636666 -5.885388 -6.115099 5.432483
000050 b8 73 c8 c0 9a f6 c6 c0 f5 74 a0 40 72 a7 bc 40
       -6.264126 -6.2176027 5.014277 5.89544
000060 d1 d7 b5 c0 a7 42 a0 40 4e 5c 8e 3f d4 2c 85 40
       -5.682595 5.0081363 1.1121919 4.161722
000070 07 ad be 40 db 06 2f bf a5 f7 b2 c0 d9 6f c6 c0
       5.9586215 -0.68369836 -5.59273 -6.2011533
000080 d4 26 c4 c0 2d 65 be c0 50 7f b4 c0 8b 7a c0 c0
       -6.1297398 -5.9498506 -5.640541 -6.014959
000090 69 bf b7 40 42 d4 c7 c0 9e 09 bf 40 95 55 b4 c0
       5.7421155 -6.2446604 5.969924 -5.635447
0000a0 52 b8 97 3f 76 0f ba 40 d0 7d ba c0 1b a7 ff 3f
       1.1853125 5.8143873 -5.827858 1.9972872
0000b0 61 6b a5 c0 42 8b c3 40 14 ff 99 c0 fb e9 b8 40
       -5.169358 6.1107492 -4.8123875 5.778562
0000c0 7e 54 c4 c0 17 85 c7 c0
       -6.135314 -6.2349963

weight f4 [50, 50]
000000 f0 5e 5d 3d 60 ee e2 bd 4b 3d 01 3e f6 5a 43 bd
       0.054045618 -0.11080623 0.12621038 -0.04769417
000010 e0 95 dd bc d0 dc 34 3c e6 4c cb bd 38 e8 a1 3d
       -0.027049005 0.011038974 -0.099267766 0.0790562
000020 ab 3a b3 bd 1a 47 a1 3d ae 39 92 3d 1a e6 81 bd
       -0.087514244 0.0787489 0.07139908 -0.063427165
000030 81 35 0f be 78 84 ca bc 80 d0 48 bc df 47 0a be
       -0.13985254 -0.02472137 -0.0122567415 -0.13503979
000040 20 8d dd 3d 28 db 4f 3d de 96 73 bd b4 aa 59 bd
       0.10817933 0.050746113 -0.05947005 -0.05314131
000050 bd 8e ed bd a0 e2 c9 bd fa 90 b9 3d eb a8 08 be
       -0.11599491 -0.098576784 0.09060855 -0.13345687
000060 50 90 2b 3c ea 79 c1 3d 89 33 c7 bd 0e f2 a0 bd
       0.0104714185 0.094470814 -0.097266264 -0.07858668
000070 ea 51 ec 3d be 5f ea 3d ae df d0 bd 5e 61 16 bd
       0.11539061 0.114440426 -0.101989135 -0.03671395
000080 72 cc ef 3d d8 84 b3 3c 37 96 ee bd f4 a3 a8 3d
       0.11708917 0.02191393 -0.11649745 0.082343966
000090 6e bd 1a bd 68 e3 9c 3c a5 e3 06 3e 1e a0 b7 bd
       -0.03777831 0.019151405 0.13172777 -0.08966087
0000a0 be 5b d5 3d 03 3e e5 bd ee 87 ad 3d 10 a6 2c bd
       0.10417889 -0.111934684 0.08473192 -0.042150557
0000b0 72 20 9a 3d 84 ff 33 bd c7 5a f7 bd 00 20 46 bb
       0.0752572 -0.04394485 -0.12077861 -0.0030231476
0000c0 f0 7c 40 3d f6 76 ac 3d 3b e8 8d bd 90 35 ce 3c
       0.04699415 0.084211275 -0.0692906 0.025172025
0000d0 a0 31 85 3d f4 ad 87 bd 60 67 11 bd 50 b4 b8 bd
       0.06503606 -0.06624976 -0.035498977 -0.09018767
0000e0 32 33 f2 3d 5e 63 c1 bd 50 7b 84 3c 97 90 0c 3e
       0.11826171 -0.09442781 0.016172081 0.13727032
0000f0 29 4a 00 be 0c ef d9 3d b6 e5 84 bd 06 3d ff 3d
       -0.1252829 0.10641298 -0.064891264 0.12462811
000100 55 50 9b bd 80 02 32 bb d0 49 99 3d 70 e3 5a 3d
       -0.075836815 -0.0027162135 0.07484782 0.053439558
000110 40 3f ed 3c 20 69 7d bd 90 8a 2e bc 80 ce 40 3b
       0.028960824 -0.061867833 -0.010653153 0.0029419959
000120 9a 53 56 bd a2 a5 62 bd 82 67 a9 3d a8 18 96 3c
       -0.052325822 -0.05533374 0.08271696 0.018322304
000130 48 a3 13 bd 90 a8 e9 3c 00 07 5d 3c e0 8d 0d 3d
       -0.03604439 0.02852276 0.013490438 0.03455913
000140 80 f0 ea 3c 70 b9 77 bd fa 3a fb 3d 9d d3 ec bd
       0.028679132 -0.06047958 0.12267108 -0.115637995
000150 a0 3b 4c 3c d2 b6 b1 bd fc 88 30 3d 0c 72 5f 3d
       0.012465388 -0.08677448 0.04309939 0.054552123
000160 40 a5 43 3b 26 9f e0 3d f0 04 5f 3d e0 6f 7c bc
       0.0029853135 0.10967855 0.05444807 -0.015407532
000170 fa 2b f6 bd 20 ff a8 bc c4 09 d9 bc 25 48 04 be
       -0.120201066 -0.020629466 -0.026493914 -0.12918146
000180 cc eb 0a 3d e2 44 7f bd 1c 6c 2f bd 00 2b 4b 3b
       0.03391628 -0.06232155 -0.04282771 0.0031000972
000190 88 0a 99 3d 00 95 cf 3b 56 7f 88 bd d0 43 02 be
       0.07472712 0.006334901 -0.066649124 -0.12721181
0001a0 52 c8 39 bd 72 25 b4 3d 78 96 a4 3d b0 d5 7b bd
       -0.045357056 0.087962046 0.08036512 -0.061483085
0001b0 c0 99 9e 3d 40 02 ae 3c e0 ee 93 3c 8e 88 c2 3d
       0.07744169 0.021241307 0.01805824 0.09498702
0001c0 40 f8 7b 3d c8 d1 ae bd 5a 75 d2 bd cc 72 ae 3d
       0.061516047 -0.08536106 -0.10276289 0.085179895
0001d0 46 ec 51 bd 1a 57 e8 3d 90 5d 04 be d0 ce 0a bc
       -0.05125072 0.11344738 -0.12926316 -0.0084721595
0001e0 98 64 a5 3c cc 64 61 3d 50 69 43 bc db 67 9a bd
       0.020189568 0.055027768 -0.011926964 -0.0753934
0001f0 ee ba 90 bd 15 a2 90 bd a4 9e 44 bd bf 09 b1 bd
       -0.07066904 -0.07062165 -0.048002854 -0.08644437
000200 1e 6f b2 bd 8a 97 a1 3d 60 6a e4 bc bc f4 ca 3d
       -0.087126 0.07890232 -0.027882755 0.09909961
000210 f6 9e a6 3d 9a 91 34 bd 7e d4 09 bd 3e c1 e9 3d
       0.08135788 -0.04408417 -0.033649914 0.11413811
000220 7f c7 01 3e 83 5a 00 3e 86 7f ab 3d 88 2c 1d 3d
       0.12673758 0.12534527 0.083739325 0.038372546
000230 0a 80 de 3d ce 6a ab 3d 40 ec 17 3b 0e 17 b1 3d
       0.10864265 0.08369981 0.0023181587 0.086469755
000240 42 18 ef 3d 9a 67 82 3d e7 1b 10 3e 7b e5 8d bd
       0.11674549 0.06367417 0.14073144 -0.069285356
000250 12 cf 0a bd b3 60 80 bd 1e f3 87 3d 0e f4 86 bd
       -0.033888884 -0.06268444 0.06638168 -0.065895185
000260 d9 5e c4 bd da 80 c1 3d 37 62 09 be 3b 58 cd bd
       -0.09588403 0.094484046 -0.13416372 -0.10026594
000270 da a1 fb 3d 64 2d 7e 3d 18 85 a1 3c a1 d0 10 3e
       0.1228673 0.062055007 0.019716784 0.14142086
000280 06 fa fe 3d 70 d6 7e 3d 4a 14 cd 3d a9 3d fa bd
       0.12450032 0.062216222 0.100136355 -0.12218792
000290 6e 1e 31 bd 64 1b 99 3d 48 c8 c5 bc 4c 17 2e 3d
       -0.04324191 0.074759275 -0.024143353 0.042502686
0002a0 ea 2b df 3d 58 75 b7 3d f9 ac c6 bd 10 0b 23 bd
       0.10897048 0.089579284 -0.09700961 -0.039805472
0002b0 d8 af 86 3c be 6f a2 bd 60 f4 d9 3c 4c f2 75 bd
       0.01644127 -0.079314694 0.026605785 -0.060045525
0002c0 26 ce fe 3d 86 09 d7 3d 4e 82 8b bd 68 be e4 bd
       0.124416634 0.10499863 -0.06811963 -0.111691296
0002d0 1a c1 ea 3d 70 6b 46 3d 92 63 e2 3d 03 cd 0d 3e
       0.114626125 0.048442304 0.11054148 0.13847737
0002e0 b8 aa 71 bd 06 2a fe bd ac 11 fa bc 60 88 b4 bb
       -0.0590007 -0.12410359 -0.030526005 -0.005509421
0002f0 a0 60 d8 bb 20 b4 fa 3c c6 c7 bb 3d 06 25 d2 bd
       -0.0066033155 0.030603468 0.09168963 -0.10260968
000300 42 41 b7 3d f0 a0 05 bc f0 75 ba 3d 4c 7d 5c 3d
       0.08947994 -0.008156046 0.09104526 0.05383043
000310 e1 d6 e4 bd f2 ab 9a 3d 98 5f c9 3d 4a 3f f1 3d
       -0.111737974 0.07552327 0.09832686 0.117796496
000320 40 ef e8 3b d8 7c a8 bc f8 e9 7c 3d 80 b3 4e 3d
       0.007108599 -0.020567343 0.061746567 0.050464153
000330 96 9e 0b bd c9 b8 d8 bd a0 6a 19 3c be bc f7 3d
       -0.034086786 -0.1058212 0.0093638 0.120965466
000340 1d c0 03 3e f0 be 3c 3c e4 ac b9 3d c8 1c 93 bd
       0.12866254 0.011520132 0.090661794 -0.07183224
000350 00 24 d7 3b 64 81 d7 3d da aa f4 bd 92 c3 39 bd
       0.006565571 0.10522726 -0.1194665 -0.045352526
000360 2b 4f 0b 3e 00 d5 9a ba 78 b3 b2 bd 5d 21 bb bd
       0.13604419 -0.0011812747 -0.08725637 -0.09137223
000370 70 14 80 bc 40 f0 08 bc c2 dd b5 3d 42 e0 c3 3d
       -0.015634745 -0.008358061 0.088801876 0.09564258
000380 c4 f0 ac bc f8 46 78 3d 30 7e e0 bd 78 ee 73 3d
       -0.0211109 0.060614556 -0.10961568 0.059553593
000390 c4 83 40 3d 06 1d aa 3d e4 d1 90 bc 3a 2c e7 bd
       0.04700066 0.08306317 -0.017678209 -0.112877324
0003a0 80 22 17 bb d0 39 2e 3d 40 27 85 bb 76 60 5c bd
       -0.0023061335 0.042535603 -0.004063517 -0.05380293
0003b0 0c d5 01 3d b0 9f 1c 3c c0 e1 80 bc 73 cc 9b bd
       0.031697318 0.009559557 -0.015732646 -0.07607355
0003c0 2c 2d d0 bd fc 7c c1 3d 9c c7 b5 bd 96 5f 26 bd
       -0.10164866 0.09447667 -0.08875963 -0.0406185
0003d0 3d 36 88 bd 3e f5 91 3d 85 63 02 be 10 53 7c 3c
       -0.0665097 0.07126854 -0.12733276 0.015400663
0003e0 dc ab 99 bc 64 db ea bc 42 c1 f7 3d 10 c2 b8 bd
       -0.018758707 -0.028669067 0.12097408 -0.090213895
0003f0 60 8d 41 bd 7a ce 9a 3d 84 c7 bf bd 18 88 22 3d
       -0.047253966 0.075589135 -0.093642265 0.03968057

bias f4 [50]
000000 fa 2e e9 bf a8 c6 bf c0 41 85 b7 40 50 a2 cb c0
       -1.8217461 -5.993 5.7350163 -6.3635635
000010 0d 60 bd c0 67 a8 c0 40 49 03 a9 c0 f5 de b7 c0
       -5.917975 6.020557 -5.281651 -5.7459664
000020 45 97 6f 40 73 75 c9 40 0a e4 b7 3f eb fb b9 c0
       3.7436078 6.295587 1.4366467 -5.8120017
000030 1f f2 c1 40 4b 08 99 40 51 a8 5f c0 e5 bd cb c0
       6.060806 4.7822623 -3.4946482 -6.3669305
000040 fb e5 bc 40 54 41 c2 c0 77 d6 34 3f 79 95 ca c0
       5.903074 -6.0704746 0.7063975 -6.330746
000050 8a 31 c8 40 6a 8f bb c0 a1 2a c5 c0 1e ec c2 40
       6.2560472 -5.8612566 -6.1614537 6.091323
000060 90 50 af c0 94 01 c7 40 84 1e c6 c0 ae 45 c7 c0
       -5.4785843 6.2189426 -6.191225 -6.227256
000070 22 0d ad 40 25 02 b9 c0 dc d1 c9 40 dd d2 c2 c0
       5.407853 -5.781512 6.3068676 -6.08824
000080 c3 fe 9d c0 42 07 4c c0 9f 5e ee 3f 84 02 c5 c0
       -4.937349 -3.187943 1.8622626 -6.156557
000090 2c f2 8a c0 12 da c7 40 10 7c c2 c0 47 4b a4 40
       -4.342062 6.24537 -6.0776443 5.134189
0000a0 df 0b c6 40 e3 e1 a7 c0 dd 37 cb c0 80 84 c6 40
       6.188949 -5.246324 -6.3505692 6.2036743
0000b0 e7 25 ac 40 dc 62 22 c0 63 dc c0 c0 15 c3 a1 bc
       5.3796268 -2.537284 -6.0269027 -0.019746343
0000c0 ef 18 c4 c0 dd 2c 82 40
       -6.1280437 4.0679765

weight f4 [50, 50]
000000 60 03 df 3b de e6 fa 3d 76 e9 f5 3d 75 8e 82 bd
       0.0068058223 0.12251066 0.1200742 -0.06374828
000010 4c 97 ed bd 83 f1 af bd c4 02 1b bd 9c 8f 98 3d
       -0.11601123 -0.085909866 -0.037844434 0.07449266
000020 42 3b bf bd cc 95 e9 bc f2 2e 3d bd a0 8d cc 3b
       -0.093374744 -0.028513812 -0.04618735 0.006242469
000030 14 0f b7 3d 68 6d f0 bd b0 42 93 3c 17 33 ac bd
       0.08938423 -0.117396176 0.017976135 -0.08408182
000040 fe cb d0 bd 1e da 03 bd 00 84 49 bb e8 8d c1 bd
       -0.101951584 -0.032190435 -0.0030748844 -0.094508946
000050 80 da 1f bb c2 8d c1 3d 80 aa 46 3d eb 84 b8 bd
       -0.002439171 0.09450866 0.048502445 -0.09009727
000060 3c f4 d8 3d 7e f5 a7 bd c8 ea 77 bd 1d 91 c6 bd
       0.10593459 -0.08201121 -0.06052664 -0.09695647
000070 00 4c 18 39 00 7e 93 b9 8b 79 09 3e 2e 05 e9 3d
       0.00014524162 -0.00028131902 0.13425271 0.11377941
000080 10 2f 09 bd 7e 92 3f bd a1 08 0c 3e 48 b9 a1 bd
       -0.033492148 -0.046770565 0.13675167 -0.07896668
000090 36 f8 da 3d 60 bf 00 bc 54 90 5c 3d 94 d0 d8 bd
       0.10691874 -0.007858127 0.05384858 -0.10586658
0000a0 6a 6d 05 bd b0 74 0d 3d e0 a1 a5 bd 58 29 c4 3d
       -0.03257505 0.03453511 -0.08087516 0.09578198
0000b0 e3 c7 10 be db 96 80 bd 30 b6 97 bc 40 33 39 bc
       -0.1413875 -0.062787734 -0.018519491 -0.011303723
0000c0 2b b6 01 3e 68 1d 19 bd 06 bd b9 3d 60 54 04 bc
       0.12667148 -0.03738156 0.090692565 -0.008076757
0000d0 2b 89 06 3e 32 be 09 be a0 35 78 bc c3 72 f1 bd
       0.13138263 -0.1345146 -0.015149504 -0.11789467
0000e0 7e 1e f6 3d 32 a1 e1 bd 4e ad e9 3d aa 58 af 3d
       0.12017535 -0.11017074 0.11410008 0.08561833
0000f0 16 fc 95 bd 96 d8 e7 bd 3a f8 d4 3d 3c 21 c1 3d
       -0.07323472 -0.11320607 0.10398908 0.09430167
000100 54 cd 44 bd 38 55 3d bd 63 7c 01 be f1 54 0f 3e
       -0.04804738 -0.04622385 -0.12645106 0.13997246
000110 8e b7 8c 3d e2 de 28 bd 7c be e0 bc d4 64 d5 bd
       0.06870948 -0.041228183 -0.02743458 -0.10419622
000120 fe 4f 18 bd 42 c1 5d bd 62 34 8e 3d e0 54 3b 3d
       -0.03718566 -0.054139383 0.06943585 0.04573524
000130 70 6b 02 be ba b1 b9 3d c0 e3 54 3b 3e 5b 0a bd
       -0.12736297 0.09067102 0.0032484382 -0.03377842
000140 00 ad 3a 3b c8 a9 83 3d 52 e7 e1 3d 48 a1 33 3d
       0.0028484464 0.064288676 0.11030449 0.04385498
000150 e0 91 18 bd 1c 87 a0 3d 75 31 86 bd 54 84 95 bc
       -0.037248492 0.0783827 -0.06552402 -0.018251576
000160 00 09 66 bb 41 d7 9f bd 7a 29 bb bd d0 3d 33 3d
       -0.003510058 -0.07804728 -0.091387704 0.04376012
000170 c0 90 43 bd cb 1c 9e bd e2 7e 19 bd f0 f0 0f be
       -0.047745466 -0.077203356 -0.03747452 -0.14056754
000180 76 18 06 bd 1a 8d 39 bd c5 d5 08 be c8 b1 b1 bd
       -0.03273817 -0.04530058 -0.13362797 -0.08676487
000190 88 71 4c 3d 58 5e db 3d de b4 02 be 00 ed 10 3d
       0.04991296 0.10711354 -0.12764308 0.03538227
0001a0 48 59 1e 3d df 21 0b 3e f5 ad 10 be 87 e6 d6 bd
       0.038659364 0.1358714 -0.1412886 -0.10493188
0001b0 be 4d 01 be 0a 79 c6 bd 45 2c 08 be c4 3c 68 bd
       -0.12627313 -0.09691055 -0.13298137 -0.056698576
0001c0 c5 b5 0a 3e c1 ff 06 be 44 dd 89 bd a8 59 88 bd
       0.13545902 -0.131835 -0.06731656 -0.066577256
0001d0 d0 44 6b bc d8 01 1f 3d 8a c7 15 bd 50 83 77 3d
       -0.014359668 0.038820118 -0.03656725 0.060427964
0001e0 7c ce d5 bc f9 ba 06 be 62 14 b0 bd 4f 73 85 bd
       -0.026099436 -0.13157262 -0.08597638 -0.06516134
0001f0 d8 13 9a 3c f0 17 d0 3c 84 e5 e9 bd 70 cf c6 3c
       0.01880829 0.02540204 -0.1142073 0.024268836
000200 99 3f 01 3e dd 7c 0a 3e b8 d1 b0 3c 5c ca f6 bd
       0.12621917 0.13524194 0.021584377 -0.12050316
000210 30 35 da bc f2 60 d7 3d c0 fc 43 3c b4 45 2e 3d
       -0.02663669 0.10516538 0.011962116 0.042546943
000220 64 cf a5 bd 4a 50 ed 3d 60 86 43 3c 58 d2 09 be
       -0.08096197 0.115875795 0.011933893 -0.13459146
000230 16 91 ed 3d fa 2d bb bd 40 0e b3 3b a4 87 00 be
       0.115999386 -0.09139629 0.005464345 -0.12551743
000240 b4 44 77 3d fa c9 b5 bd 13 36 00 3e cf 5f 89 bd
       0.060368255 -0.088764146 0.12520628 -0.06707727
000250 10 51 c9 3c 9c 97 cf bc 00 2a 39 ba e9 d8 06 be
       0.024574786 -0.025340848 -0.00070634484 -0.13168682
000260 6c a8 bd bd d0 c2 93 bd 00 3f 0f ba ec 55 dc bd
       -0.092606395 -0.07214892 -0.0005464405 -0.10758576
000270 50 1f 14 bd b0 35 d9 3d 51 83 85 bd 00 ba 22 bb
       -0.036162674 0.10605943 -0.06519187 -0.0024830103
000280 c0 4c a8 3b 16 df 92 bd 3a 6a 9e 3d 44 4c 00 bd
       0.0051361024 -0.071714565 0.07735105 -0.031322733
000290 40 71 dc bd 4c f0 31 3d 50 03 5d bd b8 29 af 3d
       -0.10763788 0.043442056 -0.053958237 0.08552879
0002a0 cc 5a 45 3d 0b 82 e7 bd 8c 10 ca bd 48 d9 66 bd
       0.048182294 -0.113041006 -0.09866437 -0.05635956
0002b0 54 f2 d1 3d c8 9f c9 3d aa 45 af bd 35 56 9e bd
       0.102512985 0.09844929 -0.08558209 -0.077312864
0002c0 66 61 87 3d 78 12 f7 3c 02 4e ed 3d 78 e9 d5 bc
       0.06610374 0.030160174 0.115871444 -0.026112303
0002d0 2a 84 db bd a0 10 3a 3c 6c f3 52 3d 52 4a b4 3d
       -0.10718568 0.011356503 0.051501676 0.08803238
0002e0 3e c6 e4 3d 16 f6 46 bd e3 78 01 3e 77 92 09 3e
       0.11170624 -0.04857453 0.12643771 0.13434778
0002f0 f0 b7 6c bd c8 b5 d5 3c 40 45 23 bb d5 88 00 3e
       -0.057792604 0.026087657 -0.0024913102 0.12552197
000300 64 ba b5 bc 60 ce 60 3d e0 9c 92 bd a0 c9 2f 3c
       -0.022183605 0.054884315 -0.07158828 0.0107292235
000310 2b 21 94 bd f8 01 69 3d 5e 5d 08 bd 34 73 1a bd
       -0.07232889 0.056886643 -0.033292167 -0.037707523
000320 ea 7f 25 bd de 90 4d bd 2a 42 c3 3d 28 4f bf 3d
       -0.04040519 -0.050186984 0.09534104 0.0934127
000330 1c 7d 71 3d a2 07 f1 3d 8c 09 1f bd 58 6c a7 bd
       0.058957204 0.11769034 -0.038827464 -0.08174962
000340 d4 49 9d 3d c8 0b a9 3c a0 dc 30 bc ac 88 8c 3d
       0.07680097 0.0206355 -0.010794789 0.068620056
000350 96 be 93 bd ab fd 0c 3e b4 89 b6 3d 56 5a c3 3d
       -0.07214086 0.13768642 0.089129835 0.095387146
000360 68 d2 c8 3c 08 98 6e 3d 00 c0 2a bb 3e c6 e0 bd
       0.024514392 0.058250457 -0.0026054382 -0.10975312
000370 80 d8 2c bb f0 1d 2e 3d b0 83 2c 3c 46 bf 46 bd
       -0.0026374161 0.04250902 0.010529444 -0.048522256
000380 9c 64 12 bd 5c 80 98 3d e0 a1 af bd 04 67 05 bd
       -0.03574048 0.074463576 -0.08575797 -0.032568946
000390 a4 9b 36 3d 6c 8c 2f 3d 0e 8e 07 be 90 d4 a0 3c
       0.044582024 0.042858526 -0.13237783 0.019632608
0003a0 3a d1 67 bd 3b cb 01 be bf 75 07 be b6 de 8a 3d
       -0.05659602 -0.12675183 -0.1322851 0.0678076
0003b0 30 ec 19 bc 64 e4 93 bd 1c 5d d8 3d a2 67 bb bd
       -0.00939469 -0.072212964 0.10564634 -0.09150626
0003c0 dc 5b 44 3d 40 f1 71 3b 30 c7 7d bc 82 c0 ad bd
       0.047939166 0.0036917478 -0.0154893845 -0.084839836
0003d0 2d 53 0f be 58 3d 50 3d 7d bd 0a 3e e5 df 82 bd
       -0.13996573 0.050839752 0.13548847 -0.06390361
0003e0 90 8b 4f 3c 7f 0d 09 be 18 88 55 bd 4c 57 3b 3d
       0.012667552 -0.13384055 -0.052131742 0.04573755
0003f0 cc ac 54 3d 69 78 02 3e c0 c4 dc bb 9b 1c 02 3e
       0.051922604 0.12741245 -0.0067373216 0.12706225

bias f4 [50]
000000 32 90 bc c0 f0 dd b9 40 01 8d 52 c0 3c 69 c7 c0
       -5.892602 5.808342 -3.2898562 -6.231596
000010 95 9c c5 c0 d3 c4 c6 c0 f6 a8 87 40 02 6f c2 40
       -6.175364 -6.2115264 4.239375 6.0760508
000020 f4 77 c6 c0 9c 44 cc c0 c8 2a 31 c0 3d 1f c5 40
       -6.2021427 -6.383375 -2.7682362 6.1600633
000030 3f 79 c7 40 46 8d b6 40 a1 8f ab 3f cf cb c5 c0
       6.2335505 5.7047453 1.3403207 -6.181129
000040 b5 97 b9 c0 bd 9f c9 c0 a8 0d cc 40 21 bc c3 c0
       -5.799769 -6.3007493 6.376667 -6.116715
000050 6a de b7 40 df 40 c2 c0 3d fa c7 c0 d8 74 83 c0
       5.7459 -6.070419 -6.2492967 -4.108013
000060 03 08 c9 c0 b6 ec 8f c0 26 bc c8 40 a4 bc ba 40
       -6.282228 -4.4976454 6.2729673 5.8355274
000070 3d 16 92 40 72 4a 99 40 55 28 c6 40 9a 9b b3 c0
       4.5652146 4.7903376 6.1924233 -5.6127443
000080 46 4f c6 c0 f4 db c6 40 b7 ee b6 40 6b eb 8e c0
       -6.197177 6.2143497 5.71664 -4.4662375
000090 aa 35 32 c0 35 ae b2 c0 c9 4c c6 c0 57 d2 c5 40
       -2.7845254 -5.5837655 -6.196873 6.1819263
0000a0 4c e4 30 40 b2 db be c0 89 d2 b9 c0 eb f0 97 c0
       2.7639341 -5.9643183 -5.80695 -4.748159
0000b0 d5 1d cd c0 6c 6c 0f c0 ce 0a c6 c0 cd 56 8d c0
       -6.4098916 -2.2409925 -6.188819 -4.416846
0000c0 43 47 c3 c0 0b 4b c0 40
       -6.102449 6.0091605

weight f4 [50, 50]
000000 3c d3 44 3d e8 cf d2 3c 30 a1 c2 3d 60 de 84 bb
       0.04805301 0.025733903 0.095034 -0.0040548295
000010 b8 05 46 3d ba af 83 3d b1 3e 0e 3e 58 a7 a8 3c
       0.048345298 0.064300016 0.13891102 0.020587608
000020 e4 3c cc 3d 80 82 c7 3a 70 8d 18 bc 26 ce f0 bd
       0.099725515 0.0015221387 -0.009311065 -0.1175807
000030 78 7c a3 3d a0 ec 60 bc 88 ec 9f bc 0a b4 e7 3d
       0.07982725 -0.013728291 -0.019521967 0.113136366
000040 90 b0 4d bd d0 12 0f 3d fe 21 da 3d c0 d6 ac bc
       -0.05021721 0.03493005 0.10651015 -0.021098495
000050 b5 ea 03 3e b0 d5 ac bd 00 00 c1 b6 4a 90 de 3d
       0.12882502 -0.08439195 -5.751848e-06 0.10867365
000060 f0 0a 6a 3c 4c ac d5 3d de 16 a9 bd 59 a2 93 bd
       0.014284834 0.10433254 -0.08256315 -0.072087
000070 14 a3 7b bd 00 5f b2 3c 04 68 7c 3d c8 1f e6 bd
       -0.06143482 0.021773815 0.061622635 -0.112365305
000080 e8 ab b7 3c d8 b5 fd bc de f5 7e bd 76 2f 60 bd
       0.022420838 -0.030970499 -0.062246196 -0.054732762
000090 b8 d6 e9 3c f0 57 41 bc d7 b8 00 3e 6c af 15 3d
       0.028544769 -0.011800751 0.12570511 0.03654425
0000a0 c4 60 3d bd 34 81 8f bc 70 bb 54 bd 80 0b 23 3c
       -0.04623486 -0.017517664 -0.051936567 0.009951472
0000b0 68 4c f6 3c 44 19 8f 3d 76 6f 89 3d cf b8 05 be
       0.03006573 0.06987241 0.067107126 -0.1305878
0000c0 1c ea d7 3d f2 24 4f bd 18 86 8e bd ee 06 25 bd
       0.105427 -0.050572343 -0.0695917 -0.04028981
0000d0 fc 1e 57 bd 9b 4d 0f 3e 02 bf d6 bd 19 8b ed bd
       -0.052519783 0.13994448 -0.104856506 -0.115987964
0000e0 00 24 d7 39 64 0b c3 3d a4 7a bc bc b0 ff 44 3d
       0.00041034818 0.09523657 -0.023007698 0.048095405
0000f0 c4 c3 b1 bc 2a 47 dd 3d b4 ad cc 3d ca ce 70 bd
       -0.021699794 0.10804589 0.09994069 -0.05879096
000100 b8 ba ce 3d 66 87 a5 3d a1 61 10 3e 2b f3 df bd
       0.100942075 0.08082466 0.14099742 -0.109350525
000110 99 db 01 3e cc 56 d6 3d 6a 2d 93 3d a0 24 d3 bb
       0.12681426 0.10465774 0.071863964 -0.006443575
000120 20 62 3b bc 8c 71 33 3d c6 1b 3e bd 74 07 03 be
       -0.011436969 0.04380946 -0.046413206 -0.12795812
000130 b4 bc b4 3d 08 c2 9d 3c 42 7d cd 3d ce 02 f3 bd
       0.08825055 0.01925756 0.10033657 -0.11865769
000140 aa a9 aa 3d 98 8a 26 3d 2c 00 db bc 4e ad fc 3d
       0.08333142 0.040659517 -0.02673348 0.12337743
000150 66 34 09 be e0 43 74 3c 18 90 82 3d 40 f4 b8 bd
       -0.13398895 0.014908761 0.0637514 -0.09030962
000160 6d 87 03 3e 70 a4 6c bc 68 c7 a7 bd 00 ea 2c bd
       0.1284463 -0.014443502 -0.081923306 -0.042215347
000170 a4 04 c5 bd 80 89 cd 3b c0 0f b8 3d 53 7e 0e be
       -0.09620026 0.006272495 0.08987379 -0.13915376
000180 bd 08 0d 3e c0 15 43 3c 9e 02 e4 bd de 6b c3 bd
       0.13772865 0.011907041 -0.11133312 -0.095420584
000190 12 b8 62 bd be d6 1c bd d5 b3 85 bd 80 5a ca ba
       -0.055351324 -0.03829073 -0.06528441 -0.0015438348
0001a0 fc 1c ab bd 54 10 60 3d d0 c9 5b bc f0 01 cb 3c
       -0.08355138 0.05470307 -0.013414815 0.024781197
0001b0 41 b1 e5 bd 30 e8 2b 3c d8 1e a4 3c 7e 95 82 bd
       -0.11215449 0.0104923695 0.020034239 -0.063761696
0001c0 70 3b 11 bc 60 ca 3f 3d 74 13 73 3d ee b8 a0 3d
       -0.008864269 0.04682386 0.059344724 0.078477725
0001d0 ac 9a c4 3d b0 09 0f bc f0 b5 24 bc 63 53 00 be
       0.09599814 -0.008730337 -0.010053143 -0.1253181
0001e0 88 45 6c bd d0 45 6f bc f0 5d ab 3c e0 23 9b 3b
       -0.057683498 -0.014604047 0.020918816 0.0047345012
0001f0 7e 30 b5 bd 92 e2 34 bd 07 d8 f3 bd 1e 37 a7 bd
       -0.0884714 -0.044161387 -0.11906438 -0.0816481
000200 a6 e8 e8 3d b5 8e 06 3e a0 ac 7b 3d 0c 1a 3a bd
       0.11372499 0.13140376 0.061443925 -0.045434996
000210 ed ef 09 be e4 45 bd bd 2a 8d b0 3d 8c fa 8d bd
       -0.1347043 -0.09241846 0.08620675 -0.06932554
000220 2a d8 f9 bd 66 a8 f3 3d b8 a5 b7 3c de 48 a6 3d
       -0.12199433 0.11897354 0.022417888 0.08119367
000230 08 e8 e6 3c 81 f6 08 be a4 59 a9 bc 0d cc e7 bd
       0.028186813 -0.13375284 -0.020672627 -0.113182165
000240 c8 d8 2e bd e6 60 df 3d 6b f4 9c bd 9b 68 e6 bd
       -0.042687207 0.10907154 -0.076638065 -0.11250421
000250 bf d8 8b bd 30 0e 83 bc 43 b8 04 be 1c dd c6 3d
       -0.068284504 -0.015997976 -0.12960915 0.09710142
000260 a8 3a b3 3d 06 32 7f bd b7 58 03 3e f8 df 7e 3d
       0.08751422 -0.062303565 0.12826811 0.062225312
000270 ed ee 0d be 00 9d eb bd 9e 59 a6 3d 00 5f 91 3d
       -0.13860674 -0.11504555 0.08122562 0.07098198
000280 90 f1 32 bd 7e 13 de bd b8 af 3b 3d b4 d2 ed bc
       -0.043687403 -0.108435616 0.045821875 -0.029031135
000290 36 07 dc bd 18 5a d7 bd c8 77 97 3d 94 0c 5a 3d
       -0.10743563 -0.10515231 0.07395893 0.05323465
0002a0 72 f7 22 bd e9 ce 0c 3e f8 a5 2f bd 60 20 d6 bb
       -0.039786763 0.13750805 -0.04288289 -0.006534621
0002b0 57 5d ed bd 82 29 8d 3d c0 0b 59 bd a0 54 93 3c
       -0.11590069 0.068926826 -0.05298972 0.017984688
0002c0 66 f0 94 3d 28 5d c2 bc 80 07 83 bc bc 3f c0 bc
       0.07272415 -0.023726061 -0.015994787 -0.02346789
0002d0 66 4b e9 3d 20 84 7e 3c ca b4 cc bd 13 77 9d bd
       0.11391334 0.015534431 -0.0999542 -0.07688727
0002e0 b1 d2 c2 bd c0 19 2e bb 10 fd 0b 3d 30 5f 6f 3d
       -0.095128424 -0.0026565641 0.034176886 0.058440387
0002f0 c7 25 f9 bd 72 8d 9c bd 2c 99 ca bd c0 dc 5e 3c
       -0.121654086 -0.07644166 -0.098924965 0.013602436
000300 93 1f 04 3e 9a 62 6d bd 0d 0d 9b bd 40 68 09 3b
       0.1290267 -0.057955362 -0.075708486 0.002096668
000310 09 68 03 be 8e bd b7 3d f6 f3 c9 3d 42 c3 2f bd
       -0.12832655 0.089717016 0.09860985 -0.04291082
000320 1b 10 ed bd bc 70 0c 3d 89 90 b5 bd 20 26 08 be
       -0.115753375 0.0342872 -0.088654585 -0.13295794
000330 78 fd 8d 3c 80 bd 61 bc d0 b7 ab 3d 00 d6 41 3d
       0.017332777 -0.0137780905 0.08384669 0.047323227
000340 2b c3 af bd 10 7e 21 bc 2e 13 b6 3d d6 c3 fa 3d
       -0.08582147 -0.009856716 0.08890377 0.12244384
000350 b4 87 27 3d dc 95 82 3d 10 84 51 3c 47 96 0f 3e
       0.0409009 0.0637624 0.012787834 0.1402217
000360 8e 15 00 be 60 ef af 3c 4f b7 b8 bd f1 a8 10 3e
       -0.12508222 0.021476448 -0.09019338 0.14126946
000370 7c d1 b1 bd 9e 79 d3 3d 18 d0 f9 3c 14 67 8c bd
       -0.08682534 0.10325931 0.030494735 -0.06855598
000380 60 ec 85 3d 72 ae 0b be d0 d4 4b 3d d7 ac 05 3e
       0.065392256 -0.13640764 0.0497635 0.13054214
000390 60 cf 05 be b2 1b 0f bd 5c 4b e2 bd b2 1b fd 3d
       -0.13067389 -0.03493852 -0.1104953 0.12358798
0003a0 54 9f 48 bd 26 01 ee bd 46 b2 b3 3d 10 21 03 3d
       -0.048980072 -0.11621313 0.08774237 0.032013953
0003b0 d8 48 fe bd db 29 86 bd 7c 64 3a 3d 78 2f d7 bc
       -0.124162376 -0.06550952 0.045505986 -0.026267752
0003c0 48 34 ce bc 04 85 9e 3d da 40 9a 3d 58 c9 88 3c
       -0.025171414 0.077402145 0.07531901 0.01669757
0003d0 0c b3 85 3d 1d 45 cb bd 6c c7 02 bd 00 a9 42 3d
       0.06528291 -0.09925292 -0.031928465 0.047524452
0003e0 0c a0 0f 3d 79 ac 06 be 33 59 f1 bd 16 bc fe bd
       0.035064742 -0.1315173 -0.117845915 -0.12438218
0003f0 f6 8e f3 3d 16 82 bf 3d e0 71 9a 3c b8 d2 bc 3c
       0.11892502 0.09350984 0.018853128 0.023049697

bias f4 [50]
000000 56 57 ce 40 f0 ef cd c0 c8 9a c3 c0 6b c8 ae 40
       6.448161 -6.4355392 -6.112644 5.461965
000010 05 c9 c8 40 95 b4 cc 40 45 80 ca c0 1d 32 cd c0
       6.2745385 6.3970437 -6.328158 -6.4123673
000020 53 76 aa c0 98 99 c8 c0 81 1c bc c0 d9 df cc 40
       -5.326944 -6.268749 -5.8784795 6.402325
000030 b7 96 c0 40 bf 1a cb c0 22 4c cc 40 df 5e 82 c0
       6.018398 -6.347015 6.3842936 -4.074081
000040 65 49 bb c0 b4 4e c6 c0 1a 54 c6 c0 77 3d c9 c0
       -5.8527093 -6.1971073 -6.1977663 -6.288753
000050 0d 62 c8 c0 dc 14 b0 40 21 9a c7 40 f5 aa cb c0
       -6.261969 5.5025463 6.2375646 -6.364619
000060 d2 2c c7 40 6d be c8 c0 af cc cd 40 85 7e a0 40
       6.224221 -6.2732453 6.431236 5.0154443
000070 a9 f3 69 40 54 e5 ca c0 f2 5b cc c0 ff b3 c7 c0
       3.6554968 -6.340494 -6.386224 -6.240722
000080 fe b0 c9 c0 3e 48 a2 c0 6b 21 bb 40 9f 6c 95 c0
       -6.3028555 -5.0713186 5.8478293 -4.6695094
000090 61 07 c9 c0 db e5 68 40 38 bc 31 c0 a1 ba 5b c0
       -6.2821507 3.6390293 -2.777113 -3.433266
0000a0 f0 d0 ca c0 74 5c b4 c0 3c 37 c2 c0 8a cb b9 c0
       -6.338005 -5.636286 -6.0692425 -5.806096
0000b0 59 f9 a9 40 d8 bb c9 40 f3 8d 84 40 90 18 5c bc
       5.311688 6.30418 4.142328 -0.0134335905
0000c0 8c e4 c6 c0 aa 3d c9 40
       -6.215399 6.2887774

weight f4 [1, 50]
000000 2c d1 8e 3d 50 43 1a bd c0 4d 97 bc 5c cb 9b 3d
       0.0697349 -0.03766185 -0.018469691 0.07607147
000010 ce dc c8 3d 14 c4 a8 3d c0 05 40 bd 8d 0c 96 bd
       0.0980774 0.08240524 -0.046880484 -0.073266126
000020 4a d6 00 be c8 b6 76 bd 9f e0 e2 bd dc d7 94 3d
       -0.12581745 -0.060232908 -0.11077999 0.072677344
000030 3e 9e 93 3d 78 36 e0 bd 8c 8d 13 3d bc 3b 2a bd
       0.07207917 -0.10947889 0.03602366 -0.041560873
000040 21 dc 8f bd 80 64 e1 bb 73 37 fe bd 14 e4 a8 bc
       -0.07024408 -0.0068784356 -0.1241292 -0.020616569
000050 fc 60 0a be ae 56 fb 3d e2 ba d9 3d ac 89 83 bd
       -0.13513559 0.12272392 0.10631348 -0.06422743
000060 00 19 6f 3c 69 74 95 bd 6d 6c 0c 3e e8 20 c0 3c
       0.014593363 -0.07297594 0.13713236 0.02345319
000070 f8 2d 3c 3d b8 71 ef bd 5c d1 e9 bd e4 fe da bc
       0.045942277 -0.11691612 -0.11416885 -0.02673287
000080 dc 06 e5 bd d3 38 ad bd 94 3f 1e 3d ee 4b 9c bd
       -0.11182949 -0.08458104 0.03863485 -0.0763167
000090 88 1a 0b be b0 a2 6e 3c db 38 e9 bd e2 a3 95 bd
       -0.1358434 0.014565155 -0.113877974 -0.07306649
0000a0 8f 98 98 bd 00 2a 3f bb 88 19 2f bd fa 94 c5 bd
       -0.07450973 -0.002916932 -0.042748958 -0.09647556
0000b0 90 01 13 3d 4f 39 0e 3e 70 7b 18 3d 70 64 4c bd
       0.035890162 0.13889049 0.037227094 -0.049900472
0000c0 32 f8 0f bd 28 20 8e 3c
       -0.035148807 0.017349318
