output/blue/images/epoch_87.pt (torch, 369546 bytes, 27 tensors)

conv.0.weight f4 [16, 2, 3, 3]
0	0xbe9591cd	-0.292128
1	0xbe815a4d	-0.25264207
2	0xbdd131da	-0.102145866
3	0xbe24e9df	-0.1610484
4	0x3dd5a9b3	0.10432758
5	0x3da2ebe6	0.0795515
6	0xbeacaa4c	-0.33723676
7	0xbc4a4372	-0.012345182
8	0x3db65493	0.0890285
9	0xbda6b2c2	-0.08139564
10	0xbe18748b	-0.14888208
11	0xbcbcad6c	-0.023031913
12	0xbe8ac8fa	-0.27106458
13	0xbe9c35bd	-0.3050975
14	0x3da51ce6	0.080621526
15	0xbe844dde	-0.25840658
16	0xbda59046	-0.080841586
17	0x3d236713	0.03989322
18	0x3de824a8	0.113351166
19	0x3da9b2df	0.0828607
20	0x3e429e76	0.1900576
21	0xbd83d8dd	-0.06437848
22	0xbdc6e371	-0.0971135
23	0xbd9801fe	-0.07422255
24	0xbe903c89	-0.28171185
25	0xbc7707be	-0.0150775295
26	0xbdfa0cb8	-0.12209457
27	0x3df3db62	0.11907078
28	0xbe22dc2a	-0.15904298
29	0xbeb3a114	-0.3508383
30	0xbe120c39	-0.14262475
31	0xbe758ee8	-0.23980296
32	0xbe2fc13f	-0.17163561
33	0x3e0757ff	0.13217162
34	0xbc90cd4c	-0.017676018
35	0x3dde452f	0.108530395
36	0xbdaffefe	-0.08593558
37	0xbe9c8fb9	-0.30578402
38	0xbdaa1aab	-0.08305868
39	0x3d9f1fe1	0.07769752
40	0xbe0b415c	-0.13599151
41	0xbe74fa72	-0.23923662
42	0x3e03317b	0.12811844
43	0xbd9e4133	-0.077272795
44	0xbe10906a	-0.1411759
45	0xbdc472ea	-0.095922306
46	0xbe3b3ce1	-0.18284942
47	0x3dc2d436	0.09513132
48	0x3bfd9d82	0.0077397237
49	0x3d981d1a	0.07427426
50	0xbdf21645	-0.11820654
51	0x3da14d88	0.07876116
52	0xbca62776	-0.020282488
53	0x3bc5a61f	0.006031766
54	0x3dcc4737	0.09974521
55	0xbd5142d2	-0.051089115
56	0xbe776135	-0.24158175
57	0xbe0449ad	-0.1291873
58	0x3e27ff50	0.16405988
59	0xbcaa7fe0	-0.020812929
60	0xbe803ff7	-0.250488
61	0xbe2edb1e	-0.17075774
62	0xbe00d7c3	-0.12582307
63	0xbe9233d9	-0.28555182
64	0xbe953de1	-0.29148772
65	0x3da66033	0.08123817
66	0xbe0bf2c4	-0.13666826
67	0xbe849d59	-0.25901297
68	0xbe01a876	-0.12661919
69	0x3e0233b6	0.12715039
70	0xbc847fc3	-0.016174203
71	0xbe8cfcba	-0.27536565
72	0xbe3fa74f	-0.18716167
73	0x3d576945	0.052590627
74	0xbcf064ac	-0.02934488
75	0x3d5b4a6f	0.053537782
76	0xbb464197	-0.0030251497
77	0x3d4627a9	0.048377667
78	0x3d524b30	0.051341236
79	0xbe26f089	-0.16302694
80	0xbe909fc7	-0.282469
81	0x3e20119a	0.15631714
82	0xbe27130e	-0.16315863
83	0x3cb27225	0.021782944
84	0xbe81b8d3	-0.25336322
85	0x3d909b32	0.07060851
86	0xbe63142e	-0.22175667
87	0x3cd167cb	0.025562188
88	0xbe43d95d	-0.19125886
89	0x3dfb7f74	0.12280169
90	0xbe3a0e3f	-0.18169497
91	0xbdaba661	-0.08381344
92	0xbe685fae	-0.22692749
93	0x3d9cb42d	0.07651553
94	0xbcdf9d09	-0.02729656
95	0x3e08fb5e	0.13377139
96	0xbe04fdc5	-0.1298743
97	0xbeb2499d	-0.34821787
98	0xbe9a108f	-0.30090758
99	0xbd526691	-0.051367346
100	0x3dffd1e6	0.12491207
101	0xbe86e2c7	-0.26344892
102	0xbe3a9993	-0.18222646
103	0xbe2f2625	-0.17104395
104	0x3bcc7420	0.006239429
105	0x3e07c9a6	0.13260517
106	0xbe93c135	-0.28858343
107	0xbda2b3c3	-0.07944443
108	0x3d1db84e	0.038505845
109	0xbd116a1e	-0.03550159
110	0xbe024eed	-0.1272542
111	0xbe5102cd	-0.20411225
112	0x3d534a40	0.051584482
113	0x3d2ddd98	0.042447656
114	0xbe8f7d63	-0.2802535
115	0xbc9e0edc	-0.019294195
116	0xbe840a2a	-0.25789005
117	0xbe51858b	-0.20461099
118	0xbc19e651	-0.009393291
119	0x3c8fd59c	0.017557912
120	0x3dff3137	0.12460559
121	0xbe959ac6	-0.29219645
122	0xbe7002cb	-0.23438565
123	0x3dbf1680	0.093304634
124	0xbe9728c0	-0.29523277
125	0xbe264dd6	-0.1624063
126	0xbc973faf	-0.018462984
127	0xbc548e7c	-0.012973424
128	0x3d809fda	0.06280489
129	0x3d241b8e	0.04006534
130	0xbd78c980	-0.06073904
131	0xbe15b654	-0.14620334
132	0xbe674273	-0.22583942
133	0x3c8eebca	0.017446417
134	0xbc300ab0	-0.010744736
135	0xbd81cf72	-0.06338395
136	0x3e2402b5	0.16016658
137	0x3dc57802	0.0964203
138	0xbdfa8a1d	-0.12233374
139	0xbe8a87aa	-0.27056628
140	0xbd74a590	-0.059728205
141	0xbe6306ae	-0.22170517
142	0xbe74636a	-0.23866048
143	0x3d9db2ce	0.0770012
144	0x3afef7ef	0.0019452552
145	0x3d16cab9	0.036814425
146	0xbe31c0e2	-0.17358735
147	0xbca60014	-0.02026371
148	0xbd89c851	-0.067276604
149	0xbe83771c	-0.2567681
150	0xbe33a11b	-0.17541926
151	0x3de9e573	0.11420717
152	0xbda38f44	-0.0798631
153	0x3e1113f5	0.14167769
154	0xbe492e18	-0.1964649
155	0xbd9b2020	-0.07574487
156	0x3dab5b85	0.08367065
157	0xbe192da5	-0.14958818
158	0xbe3fb5bc	-0.1872167
159	0xbaae674f	-0.0013305935
160	0x3df33609	0.11875541
161	0xbe6a690f	-0.22891639
162	0xbe3d7815	-0.18502839
163	0xbddca3b3	-0.10773411
164	0xbadbd349	-0.0016771342
165	0x3dc62528	0.09675056
166	0xbde19605	-0.11014942
167	0xbe3d4897	-0.18484722
168	0x3d13dbf1	0.036098424
169	0xbe27de12	-0.16393307
170	0xbd4af1fa	-0.049547173
171	0xbdeb4da1	-0.11489416
172	0xbc349dcc	-0.01102395
173	0x3e20c71b	0.15700953
174	0xbcddc23c	-0.027070157
175	0x3da303df	0.07959723
176	0x3e1179d2	0.14206627
177	0x3e2ad8b4	0.16684228
178	0xbccd333d	-0.025048846
179	0x3dd589f2	0.104267016
180	0x3cc125e6	0.023577642
181	0x3ddd16df	0.10795378
182	0xbe063d5d	-0.13109346
183	0x3e109f69	0.1412331
184	0xbd91515e	-0.07095598
185	0xbe16c540	-0.14723682
186	0xbe05035e	-0.12989566
187	0xbda388b9	-0.07985062
188	0xbd0569ca	-0.03257159
189	0xbd6a6757	-0.05722746
190	0x3e1a7316	0.15082964
191	0x3df5742d	0.119850494
192	0x3cae3bbf	0.021268724
193	0xbe4f2295	-0.20228036
194	0x3e2d3b19	0.16917075
195	0xbe487a47	-0.19577895
196	0xbdcdfc63	-0.100579046
197	0xbd16c6da	-0.036810733
198	0xbdea97c4	-0.11454728
199	0xbdefe5d9	-0.11713762
200	0xbe501f0d	-0.20324345
201	0x3d931055	0.071808495
202	0x3a4bca64	0.0007773994
203	0xbe275705	-0.16341789
204	0xbe08fcc8	-0.13377678
205	0xbe80db06	-0.25167102
206	0xbdbd51e5	-0.09244136
207	0xbd3a0162	-0.045411475
208	0xbdfd58e3	-0.123704694
209	0xbe952f78	-0.29137778
210	0x3dfe9b21	0.12431932
211	0xbe81146b	-0.2521089
212	0xba89f214	-0.0010524415
213	0xbe1113e9	-0.14167751
214	0xbe9fd891	-0.31219915
215	0xbd65039e	-0.055911653
216	0xbe457043	-0.19281106
217	0x3da7d7e3	0.08195474
218	0x3e30afb3	0.17254524
219	0xbe537eef	-0.2065389
220	0x3da5ad10	0.0808965
221	0xbe8565d5	-0.26054254
222	0xbdef7e3c	-0.11693999
223	0xbddd5d01	-0.10808755
224	0x3b9ee18e	0.0048486656
225	0xbe721514	-0.23640853
226	0xbdaf4307	-0.08557706
227	0x3c8d04c7	0.017214192
228	0xbe47246a	-0.19447485
229	0xbc678486	-0.014130717
230	0xbe27dd3d	-0.1639299
231	0x3d947519	0.07248897
232	0x3d8cf441	0.06882525
233	0x3c62a6a0	0.013833672
234	0xbe05bde4	-0.13060719
235	0xbe2b241d	-0.16712995
236	0xbe80d662	-0.2516356
237	0xbe5f84e9	-0.21828045
238	0xbcdfd067	-0.027321054
239	0x3e318e2f	0.17339395
240	0xbdce4ffb	-0.10073849
241	0xbe44dd4d	-0.19225045
242	0xbe4c7cf0	-0.19969535
243	0xbe27e370	-0.16395354
244	0xbea3ac6d	-0.31967488
245	0xbc1332c7	-0.008984274
246	0x3d30d37e	0.043170445
247	0x3de56b14	0.11202064
248	0xbe8d0e97	-0.27550194
249	0x3b38fd74	0.0028227242
250	0xbd08c2b3	-0.033388805
251	0x3dbd5fe8	0.09246808
252	0xba9587fc	-0.0011408324
253	0xbc826f57	-0.015922232
254	0x3e219af2	0.15781763
255	0x3dd79d15	0.10528008

conv.0.bias f4 [16]
0	0x3d38f3aa	0.04515425
1	0x3e0a796d	0.13522883
2	0xbe3fc95f	-0.1872916
3	0xbe4c161c	-0.19930309
4	0xbdebccbf	-0.115136616
5	0x3d9b810b	0.07592972
6	0x3c23e1d2	0.01000257
7	0x3cd76761	0.026294412
8	0x3d99021c	0.074711055
9	0xbe257211	-0.16156794
10	0x3d716e03	0.058942806
11	0xbda97721	-0.08274675
12	0xbdaf1417	-0.08548754
13	0x3e019284	0.12653548
14	0xbe074db7	-0.1321324
15	0x3e0e2c7c	0.13884157

conv.3.weight f4 [32, 16, 3, 3]
0	0xbd38b965	-0.04509868
1	0xbd202fa8	-0.03910795
2	0x3be5daff	0.0070146318
3	0xba3d7256	-0.0007226815
4	0xbda320ef	-0.07965266
5	0xbda1e4f7	-0.07905
6	0x3d05e0d0	0.0326851
7	0xbcc28df6	-0.023749333
8	0x3db4de55	0.08831469
9	0x3be578f5	0.0070029446
10	0xbc080761	-0.0083025405
11	0xbdc540ba	-0.09631486
12	0xbb77d19e	-0.003781415
13	0xbdcfe255	-0.10150591
14	0xbdc74a4d	-0.097309686
15	0x3c8254a5	0.015909502
16	0xbc81de54	-0.015853085
17	0x3cb4cf0d	0.022071386
18	0xbd4005a7	-0.04688039
19	0x3d12fe0f	0.03588682
20	0xbd812567	-0.06305962
21	0xbaed2647	-0.0018093073
22	0x3d8bb16f	0.06820952
23	0xbc925b3d	-0.017865771
24	0xbd9bf439	-0.07614941
25	0x3d8c23ed	0.0684279
26	0x3d2024da	0.039097644
27	0xbda30c6b	-0.07961353
28	0xbdbb8d57	-0.09157818
29	0xbe0a7cc7	-0.13524161
30	0x3dd4968c	0.10380277
31	0xbbc4504f	-0.005991019
32	0x3d6a5dff	0.057218548
33	0x3d2c39e6	0.042047404
34	0xbd828e0a	-0.06374748
35	0x3abd6b9a	0.0014451623
36	0xbdc49c9c	-0.09600183
37	0xba6004db	-0.00085456454
38	0x3cfeda08	0.031109825
39	0xbdeb9af1	-0.11504162
40	0x3d3f3d52	0.04668934
41	0x3ce3917b	0.027779331
42	0xbcc55ed7	-0.024093075
43	0x3c57714e	0.013149573
44	0x3d1977ee	0.03746789
45	0x3d231e2b	0.039823692
46	0xbc32915b	-0.010898913
47	0xbd51cf58	-0.05122313
48	0xbdf54457	-0.119759254
49	0xbd2ad9fe	-0.0417118
50	0x3d1198a1	0.03554595
51	0x3c3d91bf	0.011570393
52	0xbdcde399	-0.100531764
53	0x3d50ba19	0.050958727
54	0xbd0cd717	-0.034384813
55	0xbde668ee	-0.112504825
56	0x3c58a3c3	0.013222638
57	0xbd9434ba	-0.07236619
58	0x3c16fd74	0.009215701
59	0xbc830a25	-0.015996048
60	0xbd7e29bb	-0.062051516
61	0x3cd9359f	0.026514826
62	0xbc5c6493	-0.013451713
63	0x3bb86c89	0.005628173
64	0xbbb6400d	-0.0055618347
65	0x3d6d45b8	0.057927817
66	0xbc8202b8	-0.015870437
67	0x3ca1a517	0.019732041
68	0xbdb5516c	-0.088534206
69	0x3c00908c	0.007846963
70	0x3c474848	0.012163229
71	0x3d4e0871	0.05030102
72	0xbd94dbc7	-0.07268482
73	0xbc1edcf9	-0.009696239
74	0xbd570a8e	-0.0525003
75	0x3c9e0204	0.01928807
76	0xbb97703a	-0.0046215327
77	0x3d006bb6	0.03135272
78	0xbdb92057	-0.090393715
79	0xbd97bd06	-0.074091
80	0x3cda6230	0.026658148
81	0xbdb6c31b	-0.08923932
82	0xbd66e21a	-0.05636797
83	0xbd9be6e7	-0.076124005
84	0xbc51be2d	-0.012801689
85	0xbd35cdf1	-0.044385854
86	0x3d284a23	0.041086327
87	0xbb046686	-0.002020271
88	0xbdb5bcb1	-0.08873881
89	0x3d345f95	0.044036467
90	0xbd468e21	-0.04847539
91	0xbdbf645b	-0.09345313
92	0x3ce2116a	0.027596194
93	0xbde864c6	-0.11347346
94	0xbdb72600	-0.08942795
95	0xbdd36fec	-0.10324082
96	0x3d0fbd9f	0.035092946
97	0xbdb3ac9e	-0.087731585
98	0xbd09766d	-0.033560205
99	0xbdc84c98	-0.09780234
100	0xba5bc8e5	-0.00083841226
101	0xbde7426b	-0.11291965
102	0xbdc76102	-0.097353
103	0xbd3b05c8	-0.04565981
104	0xbc824af1	-0.015904875
105	0xbdebac09	-0.115074225
106	0xbc867df1	-0.016417475
107	0x3c55cef4	0.01304983
108	0x3d51cd4a	0.05122117
109	0x3c6e7118	0.014553331
110	0xbdc151a2	-0.09439398
111	0x3d3d09ea	0.046152033
112	0xbd949779	-0.072554536
113	0xbdd4b173	-0.10385408
114	0xbd3de9dd	-0.046365608
115	0x3c9054e6	0.017618608
116	0xbcc62dd3	-0.024191773
117	0xbc96f69a	-0.018428136
118	0xbdc100c5	-0.09423975
119	0x3d5ef8da	0.054436542
120	0x3cde6d35	0.027151683
121	0x3d222db1	0.039594356
122	0xbcd483a4	-0.025941677
123	0xbcabb341	-0.020959498
124	0xbd439f80	-0.047759533
125	0x3ce648dc	0.028110914
126	0xbb2033d2	-0.002444495
127	0xbc605064	-0.013691042
128	0xbd20a81f	-0.039222833
129	0xbd4f9e6d	-0.050688196
130	0x3cb8dd5c	0.02256649
131	0x3cb731fb	0.0223627
132	0xbc4378fb	-0.011930699
133	0xbdd86aee	-0.1056727
134	0xbcaae9c1	-0.020863416
135	0xbdda71c5	-0.10666231
136	0xbc0726ca	-0.008248994
137	0x3d6735dc	0.05644785
138	0xbca8b389	-0.020593422
139	0xbce062b9	-0.027390825
140	0xbcba5ee2	-0.022750322
141	0xbd4ae66c	-0.049536154
142	0xbc130b0e	-0.008974804
143	0xbd95e2e3	-0.07318666
144	0xbc99e4d1	-0.018785866
145	0xbd8ee55b	-0.0697734
146	0xbc424e86	-0.011859542
147	0xbd913322	-0.07089831
148	0x3d6f9961	0.058495883
149	0xbc9a73b2	-0.018853996
150	0xbdd32ec0	-0.10311651
151	0xbc895f1a	-0.01676898
152	0x3a95e51f	0.0011436081
153	0xbd3d8dda	-0.04627786
154	0x3c995c3c	0.018720739
155	0xbda4ee34	-0.08053246
156	0xbdf38d30	-0.11892164
157	0x3c9b88a3	0.018986052
158	0xbdcc7e60	-0.099850416
159	0xbdcdfd55	-0.10058085
160	0xbd81fd21	-0.06347109
161	0xbc778cff	-0.0151093
162	0xbc7ce358	-0.015435062
163	0xbdb2e574	-0.08735171
164	0xba73dbbf	-0.0009302459
165	0xbda2ec4d	-0.07955227
166	0xbc6d561a	-0.01448586
167	0xbb18a897	-0.0023293847
168	0xbda9d0e9	-0.082917996
169	0xbe113f07	-0.141842
170	0xbdab4b32	-0.08363952
171	0xbdd2da2e	-0.10295521
172	0xbc34c122	-0.011032375
173	0xbdc66989	-0.09688098
174	0xbd980d10	-0.074243665
175	0xbd85256b	-0.065012775
176	0xbcaedacb	-0.021344563
177	0xbd376651	-0.04477531
178	0xbd89b911	-0.06724752
179	0xbbe8c22f	-0.0071032266
180	0x3bed8c61	0.0072494005
181	0x3d2b4ea3	0.04182304
182	0x3d20f160	0.039292693
183	0xbdb21234	-0.08694878
184	0xbc349801	-0.011022569
185	0xbcd37c3b	-0.025816074
186	0x3c9e2317	0.019303842
187	0x3cb172f7	0.021661265
188	0xbd96c7e8	-0.07362348
189	0xbd1a7399	-0.0377079
190	0xbdad7d88	-0.08471209
191	0xbd9d7161	-0.07687641
192	0x3c003cde	0.007827012
193	0x3d0bd693	0.03414018
194	0xbd960e36	-0.07326929
195	0xbd4515d5	-0.048116524
196	0x3bb36546	0.005474719
197	0xbca38188	-0.019959226
198	0xbc15bdab	-0.009139459
199	0x3d378aef	0.04481023
200	0xbd487160	-0.048936248
201	0xbda99623	-0.082805894
202	0xbdabbebc	-0.08385989
203	0xbd07ef61	-0.033187274
204	0xbbb03419	-0.0053773043
205	0xbda0db44	-0.078543216
206	0xbd8e2be9	-0.06941969
207	0xbcd6d2d8	-0.026223585
208	0x3c50b64a	0.012738774
209	0xbdafadda	-0.085780814
210	0xbd8ec8b8	-0.06971878
211	0xbd4d123f	-0.05006623
212	0xbdbdd275	-0.09268657
213	0xbc828ba0	-0.015935719
214	0xbde5e888	-0.112259924
215	0xbd988e9e	-0.07449077
216	0xbd8a010b	-0.0673848
217	0x3d37e0bd	0.04489206
218	0x3d16e0b6	0.036835395
219	0xbd806056	-0.062683746
220	0xbd799001	-0.06092835
221	0xbbe4b6c6	-0.006979796
222	0xbd923c9c	-0.071404666
223	0xbe13d06d	-0.14434977
224	0x3b83e9ca	0.0040256726
225	0xbd6d4f8e	-0.057937197
226	0x3d3bc98e	0.045846514
227	0x3bde08c3	0.006775947
228	0xbd3635d0	-0.044484913
229	0xbde57a18	-0.11204928
230	0xbd0a24c4	-0.03372647
231	0xbc9d01f8	-0.019165978
232	0x3c075a6f	0.008261307
233	0xbd87ddd3	-0.066341065
234	0x3b5bc462	0.0033533801
235	0xbdc2f3e1	-0.095191725
236	0x3cbb81e7	0.02288909
237	0xbd678d4c	-0.056531236
238	0xbd52a294	-0.051424578
239	0xbd1788ce	-0.0369957
240	0xbe44e4ff	-0.1922798
241	0xbdfa0f2f	-0.12209927
242	0xbdc8cd64	-0.098048
243	0x3c3b8d4b	0.011447261
244	0x3d5999b6	0.053125106
245	0x3d92776f	0.071516864
246	0x3d11e0ee	0.0356149
247	0xbd89e9e2	-0.06734063
248	0x3dd68aa8	0.10475665
249	0x3c66fc19	0.014098191
250	0x3d41733c	0.047229037
251	0xbdb89d4f	-0.09014379
252	0x3cecd817	0.028911633
253	0xbdca4df1	-0.098781474
254	0xbd9435b0	-0.072368026
255	0xbdcf3c5e	-0.10118936

conv.3.bias f4 [32]
0	0xbd287343	-0.041125547
1	0x3d3e265a	0.046423294
2	0x3b9dedd9	0.0048196134
3	0x3d1b1520	0.037861943
4	0xbcbab507	-0.022791399
5	0x3d23f462	0.040027983
6	0xbd52c2d1	-0.051455323
7	0xbb01177c	-0.0019697836
8	0xbcb7eefe	-0.022452828
9	0xbdb73911	-0.089464314
10	0x3c8bbeb2	0.017058704
11	0xbd6ebec6	-0.058287404
12	0xbc07b583	-0.008283022
13	0x3caf5f6e	0.02140781
14	0x3c9f9fa8	0.01948531
15	0x3cf087c2	0.02936161
16	0xbd36f4ce	-0.044667058
17	0x3ceed6f5	0.029155234
18	0xbd0396be	-0.03212618
19	0xbd016de4	-0.03159894
20	0xbd2ce505	-0.042210598
21	0x3cc9dd8e	0.024641778
22	0xbcd4fc54	-0.025999226
23	0xbd530c74	-0.051525548
24	0xbcac1810	-0.021007568
25	0x3c41e6fe	0.011834858
26	0xbd436ea1	-0.047712926
27	0xbcfe7134	-0.031059839
28	0x3d775f1c	0.060393438
29	0xbce50e37	-0.02796088
30	0xbdc2471a	-0.09486218
31	0xbca89b98	-0.020582005

fc.0.weight f4 [128, 128]
0	0xbd815f69	-0.06317026
1	0x3ca918c2	0.020641688
2	0x3d2a9c8b	0.041653197
3	0xbd6bc245	-0.057558317
4	0x3ce993b8	0.02851282
5	0xbd5322be	-0.051546805
6	0x3b3d9a60	0.0028931126
7	0xbdb6f987	-0.08934312
8	0xbb88ed4b	-0.004178678
9	0xbbcd5cfd	-0.0062671886
10	0xbdaaaa31	-0.08333243
11	0x3ceacafc	0.028661244
12	0xbdef386e	-0.11680685
13	0xbc646450	-0.013939932
14	0xbdceac99	-0.10091514
15	0x3ba51ec0	0.005039066
16	0x3da026e9	0.078199215
17	0x3dbd26a7	0.09235888
18	0xbcbb64a9	-0.022875147
19	0xbdd51e33	-0.10406151
20	0x3c63de80	0.013908029
21	0xbd1ed29a	-0.038775064
22	0xbd9fe660	-0.078076124
23	0x3d2b4a68	0.041819006
24	0x3cccdc6d	0.025007451
25	0xbd672e8c	-0.056440875
26	0xbd82c87a	-0.06385894
27	0x3d090458	0.03345141
28	0x3aa0426f	0.001222683
29	0x3cb5cfc9	0.022193806
30	0x3d94d8b0	0.07267892
31	0x3d971ee4	0.07378939
32	0x3b784fe6	0.003788942
33	0x3c8225b3	0.015887117
34	0xbd9ddd7e	-0.07708262
35	0x3c1a3a01	0.009413243
36	0xbd998def	-0.07497775
37	0xbdc56b1a	-0.096395686
38	0x3cd1d5af	0.025614588
39	0xbd98a40d	-0.07453165
40	0xbd8b78d6	-0.06810157
41	0xbd51f7d5	-0.05126174
42	0xbe1a59bc	-0.15073293
43	0xbe008703	-0.12551503
44	0x3d3f92cc	0.046770856
45	0xbdbabb92	-0.091178074
46	0x3cabeb04	0.020986088
47	0x3d128de7	0.03577986
48	0xbdd009e5	-0.10158137
49	0x3bc7eed4	0.0061014686
50	0xbdbef8d3	-0.09324803
51	0x3d480e80	0.048841953
52	0xbc7fe64a	-0.01561887
53	0xbd657887	-0.056023147
54	0x3cb4362b	0.021998486
55	0x3b917c1b	0.0044398434
56	0xbc6c10c5	-0.014408295
57	0xbc26ba5f	-0.01017627
58	0x3d9f0fb0	0.07766664
59	0x3ca02158	0.01954715
60	0xbd8f90ca	-0.07010038
61	0xbdbc9421	-0.09207941
62	0xbd2a70a8	-0.041611344
63	0xbcb49579	-0.02204393
64	0x3dafcd0f	0.08584034
65	0xbd6475f0	-0.055776536
66	0xbda59ef1	-0.08086956
67	0x3d094157	0.03350958
68	0xbd0a2073	-0.033722352
69	0xbdf852b7	-0.121251516
70	0x3d0b7d74	0.03405519
71	0x3c47f1ab	0.012203614
72	0x3da05f47	0.07830673
73	0xbd00ac30	-0.03141421
74	0xbd414575	-0.04718538
75	0x3da01532	0.07816543
76	0x3ca3b263	0.019982522
77	0x3d926968	0.07149011
78	0x3cef4ba3	0.029210871
79	0xbd1504f1	-0.036381666
80	0x3d3f97ea	0.046775736
81	0xbb74805f	-0.003730796
82	0xbd89ed08	-0.06734663
83	0xbd888551	-0.06666053
84	0x3d63b1a3	0.05558933
85	0x3d581ce8	0.052761942
86	0xbe4c2173	-0.19934635
87	0x3dbec10e	0.09314166
88	0x3cd1ff30	0.025634378
89	0xbd99b8d4	-0.07505956
90	0xbd306ec2	-0.043074377
91	0xbca66f3a	-0.020316709
92	0xbd1749c2	-0.036935575
93	0x3c135ce3	0.008994314
94	0x3bd87f6d	0.006606987
95	0x3c948cfd	0.018133635
96	0x3d9a418c	0.07532033
97	0x3d114758	0.03546843
98	0xbc1fe512	-0.009759204
99	0x3c49d25d	0.012318221
100	0xbd209130	-0.03920096
101	0xbcf42da7	-0.029806925
102	0xbb8bbc08	-0.0042643584
103	0xbc8b6782	-0.01701713
104	0xbd27878b	-0.04090075
105	0x3d1da469	0.038486872
106	0x3d5cd2a9	0.05391184
107	0xbd8b704c	-0.06808528
108	0x3d62ac1a	0.05533991
109	0xba5dff93	-0.00084685645
110	0xbd829425	-0.063759126
111	0xbb27a0a0	-0.0025577918
112	0x3ce38a0c	0.027775787
113	0xbc858087	-0.016296638
114	0x3d6303f6	0.0554237
115	0x3d586e8e	0.05283981
116	0x3d71415a	0.058900215
117	0x3dbaf2ef	0.09128367
118	0x3cb2e7ac	0.021838985
119	0xbcd6838c	-0.026185773
120	0x3d91a11a	0.07110806
121	0x3d80577d	0.06266687
122	0x3d988325	0.07446889
123	0x3d50ba15	0.05095871
124	0xbc6904b5	-0.014222314
125	0x3d7e2858	0.062050194
126	0xbc85a3dc	-0.016313486
127	0xbd74ded9	-0.059782837
128	0xbcff4a64	-0.031163402
129	0xbb62d268	-0.0034610275
130	0x3d608202	0.054811485
131	0x3ccbc946	0.024876248
132	0x3bf93547	0.007605228
133	0x3d260aab	0.040537518
134	0x3c7ad9df	0.015310734
135	0x3d239d42	0.039944895
136	0xbd993053	-0.0747992
137	0xbd161862	-0.036644347
138	0xbd0d194c	-0.034447953
139	0xbd72cdf0	-0.05927843
140	0xbd9a0e7a	-0.075222924
141	0x3d78041f	0.060550805
142	0x3c005b1e	0.007834224
143	0xbd7d9608	-0.06191066
144	0x3c84b08a	0.016197462
145	0xbcc19236	-0.02362929
146	0xbdb6aad7	-0.08919304
147	0xbd224399	-0.039615247
148	0xbd2ea256	-0.042635284
149	0xbc137777	-0.009000651
150	0x3ce04803	0.027378088
151	0xbd91343e	-0.070900425
152	0x3d000c72	0.03126187
153	0xbc925328	-0.017861918
154	0x3cc2d5d8	0.02378361
155	0xbd7aa6f0	-0.06119436
156	0xbd3e7bed	-0.046504904
157	0xbd85cf18	-0.065336406
158	0x3cc7d5f6	0.024394017
159	0x3d9f6216	0.0778238
160	0x3d3c870b	0.046027225
161	0x3c632e53	0.013866025
162	0xbd3ed37a	-0.0465884
163	0xbd2f339b	-0.042773824
164	0xbd850b74	-0.06496325
165	0x3d7426de	0.05960738
166	0x3cc20c82	0.023687605
167	0xbd3eb8ad	-0.04656284
168	0xbd72c753	-0.05927212
169	0xbbefeeb5	-0.0073221573
170	0xbd7deb4b	-0.06199197
171	0xbbf493a1	-0.007463888
172	0xbcef6f36	-0.029227834
173	0xbc6dfd65	-0.014525746
174	0xbb66c371	-0.0035211707
175	0x3b91f5a2	0.0044543305
176	0x3da26962	0.079302564
177	0xbd960d77	-0.07326787
178	0x3c7abbd9	0.015303575
179	0x3daf9c62	0.085747495
180	0xbd702398	-0.058627695
181	0xbb1c722b	-0.002387176
182	0xbd22abd3	-0.039714646
183	0xbbc8046f	-0.006104044
184	0x3c90e78d	0.017688537
185	0xbd83d633	-0.0643734
186	0x3d972e4d	0.07381878
187	0xbd04bbbb	-0.032405596
188	0x3d080006	0.033203147
189	0x3c9225a3	0.017840212
190	0x3cbecea8	0.0232919
191	0x3c17569e	0.00923696
192	0x3d7c4ebe	0.061598532
193	0xbd3bf98f	-0.045892294
194	0xbd8b59cb	-0.06804236
195	0xbd8ed247	-0.06973701
196	0x3d4b1f14	0.049590185
197	0xbd9459e2	-0.07243706
198	0xbc54caa9	-0.012987771
199	0xbc946fb0	-0.018119663
200	0x3d455362	0.048175223
201	0xbd5bb773	-0.053641748
202	0xbbc415ff	-0.0059840675
203	0x3c383d4c	0.011245083
204	0x3d0f7b3b	0.03502963
205	0xbd87b332	-0.06625976
206	0x3c318771	0.010835514
207	0x3d7f62bf	0.06235003
208	0xbc8b2077	-0.016983254
209	0xbd647746	-0.05577781
210	0xbd3e629e	-0.046480767
211	0x3d55bbbd	0.052180994
212	0xbd1e2860	-0.038612723
213	0x3d3167a2	0.043311723
214	0x3d6a6be3	0.057231795
215	0xbc22ecfd	-0.009944198
216	0xbd8c498f	-0.06849968
217	0xbd85dc4f	-0.06536161
218	0x3d2fa331	0.04288024
219	0x3d1ff935	0.03905602
220	0x3d8b48e0	0.06801009
221	0xbc727cda	-0.014800275
222	0x3d8912ca	0.06693037
223	0xbd868b97	-0.065695934
224	0x3d7f2932	0.062295146
225	0xbcfb4c72	-0.0306761
226	0x3d391c82	0.045193203
227	0x3d8345f2	0.064098254
228	0xbc5c1da8	-0.013434805
229	0xbc10850f	-0.008820786
230	0xbcbba190	-0.022904187
231	0x3d206ea3	0.03916801
232	0x3d8b0409	0.06787879
233	0x3cfc6a2e	0.03081235
234	0xbd0c11cc	-0.03419666
235	0xbd8a7067	-0.0675972
236	0x3d3ef89e	0.04662382
237	0xbd93a11e	-0.07208465
238	0x3d5ebb02	0.054377563
239	0xbd350c56	-0.044201218
240	0x3d175e51	0.03695518
241	0xbcfba1b7	-0.03071676
242	0x3d0e62f0	0.034762323
243	0x3dc03a90	0.0938617
244	0x3d2edc25	0.042690415
245	0x3da49799	0.080367275
246	0x3b991ead	0.0046728463
247	0x3bbad5d6	0.0057017608
248	0xbca92442	-0.020647172
249	0xbd6f6696	-0.058447443
250	0xbd32eafc	-0.04368113
251	0xbca1a6b1	-0.019732805
252	0xbd73f667	-0.05956116
253	0x3c6c44b0	0.014420673
254	0x3d607bd3	0.054805588
255	0xba50e4e3	-0.0007968677

fc.0.bias f4 [128]
0	0xbdd1e2f9	-0.1024837
1	0xbdf8d8c2	-0.12150718
2	0xbb9c7778	-0.004774984
3	0xbd94c33e	-0.07263802
4	0x3c297199	0.010342025
5	0x3bcbf6c0	0.0062244833
6	0xbc3dbb58	-0.011580311
7	0xbdf8f1ce	-0.121554956
8	0x3c32a2ba	0.010903055
9	0xbd15f46e	-0.03661006
10	0xbd88ba03	-0.06676104
11	0xbdd73c9d	-0.10509608
12	0x3c501da3	0.012702378
13	0xbe022289	-0.12708487
14	0xbd9722a8	-0.07379657
15	0xbcd822ba	-0.026383746
16	0xbdb8fd98	-0.09032744
17	0xbdd92599	-0.10602874
18	0x3c44d56a	0.0120137725
19	0xbd867bc3	-0.065665744
20	0x3c800299	0.015626239
21	0x3b0569e6	0.002035731
22	0xbda62e26	-0.08114271
23	0xbd3db14c	-0.04631166
24	0xbd3cc598	-0.046086878
25	0xbd8b863e	-0.06812714
26	0xbdb051ab	-0.08609327
27	0xbdb21ccb	-0.08696898
28	0xbd20aa15	-0.039224703
29	0x3cd7db81	0.026349785
30	0xbb2cf36a	-0.0026390203
31	0xbccc4511	-0.024935277
32	0xbc3680e1	-0.011139126
33	0xbc9eabd6	-0.019369047
34	0xbd57371c	-0.05254279
35	0xbd9fa23b	-0.07794615
36	0x3bf8b923	0.0075904294
37	0xbd2b51d9	-0.041826103
38	0xbd8063dd	-0.062690474
39	0x3c51e962	0.01281199
40	0xbd9cac91	-0.07650102
41	0xbdfc3867	-0.123154454
42	0x3b91bae8	0.00444733
43	0xbc8293b0	-0.015939564
44	0xbde2701e	-0.11056541
45	0xbdd325a1	-0.103099115
46	0xba78f18b	-0.0009496442
47	0xbdd93702	-0.10606195
48	0xbdaf074c	-0.08546314
49	0xbd38f6d4	-0.04515727
50	0xbc9fb8b2	-0.01949725
51	0x3c0486e3	0.0080888
52	0xbddd88c3	-0.10817101
53	0xbcba4fbe	-0.022743102
54	0xbc764d8d	-0.015033138
55	0xbddbd1a5	-0.10733346
56	0xbd36c817	-0.044624414
57	0xbd4f3b69	-0.050593767
58	0xbd87898c	-0.06618032
59	0xbd703927	-0.058648255
60	0xbd9cda33	-0.07658806
61	0xbdd3a728	-0.10334617
62	0xbd23804e	-0.039917283
63	0xba476679	-0.0007606517
64	0xbbc9bcaa	-0.0061565237
65	0xbdb5ccc0	-0.088769436
66	0xbcd95c6c	-0.026533328
67	0xbda47caa	-0.0803159
68	0xbdeb946a	-0.11502917
69	0x3be6ada2	0.0070397416
70	0xbb5eaf77	-0.0033979097
71	0x3d148a9e	0.03626501
72	0xbc8e3409	-0.017358797
73	0x3ca1659b	0.01970177
74	0x3b20281c	0.002443797
75	0xbc2845fe	-0.010270594
76	0x3d042b1b	0.03226767
77	0xbc53a131	-0.012916849
78	0x3c7dd592	0.015492814
79	0x3ca5ec97	0.020254416
80	0xbd4a2562	-0.049352057
81	0xbc014545	-0.00789005
82	0xbd3e3dee	-0.04644578
83	0xbdf5aafe	-0.11995505
84	0xbd828279	-0.06372542
85	0xbce72080	-0.02821374
86	0xbdbeefe3	-0.093230985
87	0xbe15b1b7	-0.14618574
88	0xbc9cf1d0	-0.019158274
89	0xbdd067c7	-0.10176044
90	0xbd6e151a	-0.058125593
91	0x3c4162c0	0.011803329
92	0xbe31d003	-0.17364506
93	0xbdcc65e2	-0.0998037
94	0xbdacade5	-0.08431605
95	0xbcf86bbd	-0.030324811
96	0x3b3b6442	0.0028593694
97	0xbdcea0a5	-0.10089234
98	0xbb1327c0	-0.0022454113
99	0xbde33de7	-0.11095791
100	0xbd62d838	-0.055381984
101	0xbdd04c7b	-0.101708375
102	0xbcb9bc84	-0.022672899
103	0x3cd5d830	0.026104063
104	0xbd81e25d	-0.063420035
105	0x3c2fe6a4	0.010736141
106	0xbdd07965	-0.10179404
107	0xbc14cc29	-0.009081879
108	0xbdd4260b	-0.103588186
109	0xbd5e6d5a	-0.054303505
110	0xba9cd27c	-0.0011964585
111	0xbdd23a06	-0.10264973
112	0x3c704229	0.014664211
113	0xbdd0f2b7	-0.10202544
114	0xbc969565	-0.018381784
115	0xbd9894d0	-0.07450259
116	0xbd279f35	-0.040923316
117	0x3d0207ba	0.03174565
118	0xbd7a33f1	-0.06108469
119	0xbd064c3d	-0.03278755
120	0xbc128473	-0.008942711
121	0xbda8222b	-0.08209642
122	0xbc28d208	-0.010303982
123	0xbd231606	-0.039815925
124	0xbdff2830	-0.12458837
125	0xbd80d435	-0.06290475
126	0xbcfab1ea	-0.030602414
127	0xbd3d89c6	-0.04627397

fc.2.weight f4 [64, 128]
0	0xbca4b875	-0.020107487
1	0xbd081cae	-0.033230476
2	0xbd5a2a4f	-0.053263005
3	0xba69f5d7	-0.00089248776
4	0xbcb82a51	-0.022481116
5	0xbd197b08	-0.037470847
6	0xbd3e08e8	-0.046395212
7	0x3d90fa1e	0.07078956
8	0x3d19902f	0.03749102
9	0xbc7987d9	-0.0152301425
10	0x3d181bc5	0.037135858
11	0x3d713120	0.05888474
12	0x3d10c0dc	0.035340175
13	0xbd5dfd46	-0.05419662
14	0x3c85dfb0	0.016342014
15	0x3bfcc280	0.007713616
16	0x389b683e	7.4103926e-05
17	0xbd530b2a	-0.05152432
18	0x3d9209cd	0.071307756
19	0x3cdb57b4	0.026775219
20	0xbd7a59ed	-0.061120916
21	0xbd80dd70	-0.06292236
22	0xbd9f3822	-0.07774378
23	0xbc459819	-0.012060189
24	0xbdb38a4c	-0.087666124
25	0xbdb5de33	-0.08880272
26	0x3cf4ab8a	0.029866952
27	0x3c4f863b	0.01266628
28	0x3d894c45	0.067040004
29	0xbcdcde35	-0.026961425
30	0xbd5dafbe	-0.05412268
31	0xbd26ff02	-0.04077054
32	0x3c5ff893	0.013670105
33	0xbc1338ca	-0.008985708
34	0x3d690706	0.056891464
35	0xbd738d47	-0.059460904
36	0x3d0f65ec	0.03500931
37	0x3d857ce3	0.06517961
38	0xbd7d25a5	-0.06180348
39	0x3d8d7f29	0.069090195
40	0xbd1b563c	-0.037924036
41	0xbd8efade	-0.06981443
42	0xbcd5c9ea	-0.026097257
43	0xbd515705	-0.05110838
44	0xbd8db037	-0.06918376
45	0x3c673278	0.014111154
46	0xbdb841b6	-0.08996908
47	0x3d54cf01	0.051955227
48	0x3d96cc8d	0.07363234
49	0xbccd4c9c	-0.025060944
50	0xbd8c513a	-0.0685143
51	0xbda40e03	-0.08010485
52	0xbdad0137	-0.08447497
53	0xbc9c276c	-0.019061767
54	0xbccb0ac9	-0.024785416
55	0x3d9aad6a	0.07552607
56	0x3d3b8410	0.04578024
57	0x3ceaa5c8	0.028643504
58	0x3d4c0117	0.049805727
59	0xbc5e0b90	-0.013552561
60	0x3d94ab60	0.0725925
61	0x3d05203d	0.032501448
62	0xbda0cd1f	-0.07851624
63	0x3d9f773a	0.077864125
64	0x3d4ce44a	0.0500224
65	0xbd86d456	-0.065834686
66	0xbd829995	-0.0637695
67	0x3d7eb6bc	0.062185988
68	0xbdbd71ab	-0.09250196
69	0xbd7b98da	-0.061425067
70	0xbcba4e06	-0.022742283
71	0xbdb86c9b	-0.0900509
72	0x3c825055	0.015907446
73	0xbc9724c3	-0.018450147
74	0x3d5f7d19	0.05456266
75	0x3c2d4078	0.010574453
76	0xbd241d9e	-0.040067308
77	0x3c9122ec	0.017716847
78	0xbd636ad5	-0.055521805
79	0x3d357bb8	0.04430744
80	0x3cc7df40	0.024398446
81	0x3d14b2b9	0.036303256
82	0x3c1f31f6	0.009716501
83	0xbc64ec2d	-0.013972324
84	0xbd07d55b	-0.033162456
85	0x3d7d15aa	0.06178824
86	0xbc8c4e34	-0.017127134
87	0xbc9858a1	-0.018596949
88	0x3db7256f	0.08942687
89	0xbd301b95	-0.042995054
90	0x3d8806b1	0.06641901
91	0xbd1d6a9e	-0.038431756
92	0x3aa1102c	0.0012288145
93	0xbdb7fa82	-0.089833274
94	0xbc8aa70f	-0.016925363
95	0x3b944fd9	0.00452612
96	0x3d9aa961	0.07551838
97	0xbc625ae8	-0.013815619
98	0x3cf6e390	0.030137807
99	0x3cc3f5ac	0.023920856
100	0xbce04e2c	-0.027381025
101	0xbdbe7399	-0.09299392
102	0xbda6b58f	-0.08140098
103	0xbd341549	-0.04396561
104	0xbd369d73	-0.04458375
105	0xbda48e9d	-0.08035014
106	0xbccfe863	-0.025379365
107	0xbd5d3a31	-0.054010574
108	0x3d04c435	0.03241368
109	0xbda0a5b0	-0.078441024
110	0xbdb32272	-0.08746804
111	0xbd1b6538	-0.037938327
112	0xbca32b43	-0.01991809
113	0xbdac89ae	-0.08424698
114	0xbb8a8d15	-0.004228244
115	0xbce14c8e	-0.027502324
116	0x3d4594ba	0.04823754
117	0xbcace41b	-0.021104863
118	0x3d32e462	0.043674834
119	0xbd8156f3	-0.06315412
120	0x3d906345	0.07050184
121	0x3d8e01ea	0.06933959
122	0xbd2c1abb	-0.04201768
123	0xbdab1e03	-0.08355334
124	0x3d35ad8a	0.044354953
125	0x3c794dac	0.015216272
126	0x3cbf7853	0.023372805
127	0x3cb9d91a	0.02268653
128	0xbdad55fa	-0.08463664
129	0x3d240cd3	0.040051293
130	0xbd37af40	-0.044844866
131	0x3d9b0212	0.07568754
132	0xbd3119ce	-0.0432375
133	0xbd230a0c	-0.039804503
134	0x3d4648fa	0.04840944
135	0x3bc86ec9	0.0061167222
136	0xbdd65a66	-0.10466461
137	0xbc9f5057	-0.019447489
138	0xbe0bc77b	-0.13650315
139	0xbdba0caa	-0.09084447
140	0xbd3ab0a8	-0.04557863
141	0xbd5f1d96	-0.054471575
142	0xbcbd170e	-0.023082282
143	0xbda7b14f	-0.08188116
144	0x3d8ff473	0.07029047
145	0x3cb6147d	0.022226566
146	0x3d4949f2	0.049142785
147	0x3d0920e9	0.03347865
148	0xbcbb61e0	-0.022873819
149	0xbcfde18d	-0.03099134
150	0xbc823b88	-0.015897527
151	0xbd909843	-0.070602916
152	0xbd7f86e7	-0.062384512
153	0x3b3fb77f	0.002925366
154	0xbb7d3dd4	-0.0038641589
155	0x3b84f912	0.004058012
156	0x3d03d71d	0.03218757
157	0xbd037e3c	-0.03210281
158	0x3d31aee1	0.04337967
159	0xbd9328ba	-0.07185502
160	0xbd9f17fe	-0.07768248
161	0xbe01f784	-0.12692076
162	0x3c5ca86b	0.013467888
163	0x3d4d6230	0.050142467
164	0xbd0c31e7	-0.034227278
165	0xbded99c0	-0.11601591
166	0xbdb9e759	-0.09077329
167	0x3d71f83f	0.059074637
168	0x3ccb6e84	0.024832971
169	0xbc9a9001	-0.018867495
170	0x3c41aa9f	0.011820464
171	0xbc71513c	-0.01472884
172	0xbba4ef78	-0.0050334297
173	0xbd0d50d7	-0.034500923
174	0xbd52c1a0	-0.051454186
175	0xbd93ff2f	-0.07226407
176	0x3d6729ac	0.056436226
177	0xbdb94717	-0.090467624
178	0x3da86d20	0.08223939
179	0xbbef5d85	-0.0073048496
180	0x3ca8c785	0.02060295
181	0xbd27bc67	-0.04095116
182	0xbd27793b	-0.0408871
183	0x3d866c4d	0.065636255
184	0xbe11e2ef	-0.14246725
185	0xbd6645c6	-0.056218885
186	0x3c34311a	0.010998035
187	0xbd1d6da1	-0.03843463
188	0xbd3721e1	-0.044710044
189	0xbd8dd464	-0.06925276
190	0x3cc4e946	0.024037015
191	0xbd21de77	-0.0395188
192	0xbd27682a	-0.040870823
193	0xbd151adb	-0.036402564
194	0xbd28dde2	-0.04122723
195	0xbd53cb51	-0.05170757
196	0xbcfa1e27	-0.030531956
197	0xbd632d90	-0.055463374
198	0xbc08829e	-0.008331923
199	0x3b2c0ed5	0.0026253958
200	0xbd35f00c	-0.04441838
201	0xbbbb95ff	-0.005724668
202	0x3d528439	0.05139563
203	0xbd8196fe	-0.063276276
204	0xbd67c5c7	-0.0565851
205	0xbadfa7b4	-0.0017063529
206	0x3d8e0dc8	0.06936222
207	0xbc78e9d2	-0.015192466
208	0xbd3606f4	-0.044440225
209	0xbd215400	-0.03938675
210	0xbda9b888	-0.0828715
211	0xbd9a1cad	-0.07525001
212	0x3dcf5f89	0.10125644
213	0xbd8f49de	-0.06996511
214	0xbd4c0d70	-0.049817502
215	0xbda04dec	-0.078273624
216	0xbd67e0b5	-0.05661078
217	0xbd79cab4	-0.06098433
218	0xbdb89253	-0.09012284
219	0x3d9040c6	0.070436046
220	0xbd840325	-0.06445912
221	0xbd55d766	-0.052207373
222	0x3c95b4b9	0.018274652
223	0xbdbf8b0c	-0.09352693
224	0xbd3f7edc	-0.046751842
225	0xbd654d9a	-0.05598221
226	0xbd42e351	-0.047580067
227	0xbc6eb1b9	-0.01456874
228	0xbb9c2713	-0.0047654
229	0x3d6c5654	0.057699516
230	0xbd006424	-0.0313455
231	0xbc592649	-0.013253757
232	0xbd59c364	-0.053164855
233	0xbd6d0af3	-0.05787177
234	0xbdb13bae	-0.08653961
235	0xbdacef4f	-0.08444082
236	0xbd48fb7f	-0.04906797
237	0x3cf69d06	0.030104171
238	0xbcdb7ac7	-0.026791943
239	0xbd99d821	-0.075119264
240	0xbc717da9	-0.014739432
241	0xbdb0394b	-0.08604678
242	0xbca5e2e7	-0.020249797
243	0x3da7c004	0.08190921
244	0x3d18b02f	0.037277397
245	0xbda78759	-0.081801124
246	0x3d91f2fb	0.07126423
247	0xbd11e866	-0.035622023
248	0xbdb7dbe0	-0.08977485
249	0x3d499345	0.049212713
250	0xbdb2bd03	-0.087274574
251	0xbd200926	-0.039071225
252	0xbd6a7855	-0.057243664
253	0xbc0afe3c	-0.008483466
254	0xbdecb99c	-0.1155884
255	0xbc5ee06c	-0.013603311

fc.2.bias f4 [64]
0	0xbd3029d8	-0.043008655
1	0xbba008bd	-0.004883854
2	0xbc4bdd7b	-0.012442942
3	0xbc8cb9ac	-0.017178379
4	0xbcd10d3d	-0.025519008
5	0xbc9b67df	-0.018970428
6	0xbc3cc050	-0.01152046
7	0x3d855456	0.065102264
8	0xb88e3443	-6.780822e-05
9	0x3d498ef0	0.04920858
10	0xbce84669	-0.028353887
11	0xbd22a80d	-0.039711047
12	0xbdb363a2	-0.08759238
13	0xbc82aa46	-0.015950333
14	0xbd5f272c	-0.054480717
15	0x3df11adb	0.117727004
16	0x3e2878a0	0.16452265
17	0xbdb6a684	-0.08918479
18	0x3d507e1b	0.050901514
19	0x3cb943b3	0.02261529
20	0xbd9dd14d	-0.077059366
21	0xbb35e2ee	-0.002775367
22	0xbdbdc488	-0.09266001
23	0xbc9e0c20	-0.019292891
24	0xbd213bc0	-0.039363623
25	0x3dd6e194	0.10492244
26	0xbd6f2f5c	-0.058394775
27	0xbd326c84	-0.04356052
28	0xbc9513f3	-0.01819799
29	0x3d74d4fc	0.05977343
30	0xbd603e75	-0.054747064
31	0xbc78ab1f	-0.015177517
32	0x3d31bd45	0.043393392
33	0xbb2e5087	-0.002659829
34	0xbd096223	-0.033540856
35	0xb89ea224	-7.564228e-05
36	0x39601925	0.00021371672
37	0xbd656be4	-0.056011096
38	0xbd3575ca	-0.044301786
39	0xbd4475b1	-0.0479638
40	0x3e28fa32	0.16501692
41	0xbce55221	-0.027993264
42	0xbd1feaa2	-0.039042123
43	0x3ca0966d	0.019602979
44	0xbdc5b6e8	-0.09654027
45	0xbcdc8ad1	-0.026921662
46	0xbbfc3274	-0.007696444
47	0xbd0a8562	-0.03381861
48	0xbcd47ea4	-0.025939293
49	0xbd1594c6	-0.036518835
50	0x3e173677	0.1476687
51	0xbd1b6879	-0.03794143
52	0x3bf46b82	0.007459105
53	0xbd8e1889	-0.069382735
54	0xbd1c95c4	-0.038228765
55	0xbca81547	-0.020517958
56	0xbb83e376	-0.004024918
57	0x3d9e815c	0.07739517
58	0xbd9ea954	-0.077471405
59	0x3e106bc9	0.14103617
60	0x3e189a68	0.14902651
61	0xbd8ad985	-0.0677977
62	0xbd79c6b2	-0.060980506
63	0xbd5e8042	-0.054321535

fc.4.weight f4 [1, 64]
0	0x3c1a0c3e	0.009402333
1	0xb7c590af	-2.3551604e-05
2	0xbc7c87d7	-0.015413246
3	0xbd01bc6a	-0.031673826
4	0xbbaed1e7	-0.005335081
5	0x3ca83c71	0.020536633
6	0xbdd26f4b	-0.10275134
7	0x3d5e253f	0.05423474
8	0xb9c927f9	-0.0003836749
9	0x3d7979c2	0.060907133
10	0xbcadc56d	-0.021212304
11	0xbda4bec0	-0.08044195
12	0xbb837a68	-0.0040123947
13	0xbda3a95a	-0.079912856
14	0xbd779016	-0.060440145
15	0x3df1d70c	0.11808595
16	0x3e16a17a	0.14710036
17	0x3c945561	0.018107118
18	0x3d75e290	0.06003052
19	0x3c71e798	0.014764689
20	0xbd8cf5df	-0.06882834
21	0x3b05f457	0.0020439827
22	0x3d9d3e77	0.0767793
23	0xbd363eda	-0.044493534
24	0xbd8c3902	-0.06846811
25	0x3de6ab61	0.11263157
26	0x3a290027	0.0006446861
27	0xbdd84f8a	-0.10562046
28	0xbda9b4b6	-0.08286421
29	0x3d166414	0.036716536
30	0x3d75e6a5	0.060034413
31	0xbd0245d5	-0.03180488
32	0x3cb5c10e	0.022186782
33	0x3b37857c	0.0028003147
34	0xbc871aa6	-0.0164922
35	0xb954bdb4	-0.00020288565
36	0xb95185b2	-0.00019981599
37	0xbd9e78d2	-0.077378884
38	0x3d8b6aff	0.06807517
39	0xbd8cd763	-0.06877019
40	0x3e194fc1	0.1497183
41	0x3d2dcea1	0.042433385
42	0xbd157294	-0.036486223
43	0x3c249d2e	0.01004724
44	0x3d8b4dc0	0.06801939
45	0x3cb88710	0.02252534
46	0x3d3e0d40	0.046399355
47	0xbbd60621	-0.0065314923
48	0xbb7549a6	-0.003742793
49	0xbdbff357	-0.09372585
50	0x3e14d6fe	0.14535138
51	0xbd351f72	-0.04421944
52	0x3c55eabd	0.013056454
53	0xbd9a0067	-0.07519608
54	0xbd89e64f	-0.06733381
55	0xbb94b778	-0.0045384727
56	0x3bd0a667	0.006367493
57	0x3d744109	0.059632335
58	0xbd1703c6	-0.036868833
59	0x3dcaf448	0.09909874
60	0x3df88bcb	0.121360384
61	0x3be6a665	0.0070388787
62	0xbd832b9e	-0.06404804
63	0x3d77b737	0.06047746

exp_avg f4 [16, 2, 3, 3]
0	0xb1cc412f	-5.944592e-09
1	0xb39845bf	-7.090738e-08
2	0xb333d3c1	-4.1869274e-08
3	0xb1da7ce8	-6.3588352e-09
4	0x36b89f1d	5.5021505e-06
5	0x36d2299a	6.2633308e-06
6	0x31662b94	3.3494176e-09
7	0xb5111f84	-5.406257e-07
8	0x34972e80	2.8159775e-07
9	0x34ea6616	4.3660174e-07
10	0x357be261	9.383421e-07
11	0x357b7f63	9.369016e-07
12	0x3561d455	8.4128015e-07
13	0x35af917f	1.3080861e-06
14	0x35af4b5e	1.3060451e-06
15	0x34d70649	4.0051444e-07
16	0x356b3076	8.761484e-07
17	0x3568d9ec	8.6743853e-07
18	0x3613992e	2.199387e-06
19	0x35bce1f0	1.4072848e-06
20	0x36ea1cb1	6.9770836e-06
21	0x368df6ef	4.2308743e-06
22	0x3657a313	3.2132418e-06
23	0x3612a27a	2.185027e-06
24	0x34362fcd	1.696746e-07
25	0x360aac06	2.0663733e-06
26	0xb58126b3	-9.622512e-07
27	0x357edf9d	9.4947774e-07
28	0x35935f3a	1.0980068e-06
29	0x35a4f6c8	1.2290775e-06
30	0x357edf9d	9.4947774e-07
31	0x35935f3a	1.0980068e-06
32	0x35a4f6c8	1.2290775e-06
33	0x35582788	8.0523796e-07
34	0x35726d22	9.0310834e-07
35	0x35869b83	1.0029038e-06
36	0xb3a6e51d	-7.771653e-08
37	0xb19c13d2	-4.542451e-09
38	0x34e51c10	4.2674992e-07
39	0x36572153	3.2056894e-06
40	0x34ba5a89	3.4711073e-07
41	0x3411e994	1.3589153e-07
42	0x36ab5f29	5.1072752e-06
43	0x35d8beb7	1.6148759e-06
44	0x3213db2e	8.606362e-09
45	0x3511fc4a	5.438384e-07
46	0x3511fc4a	5.438384e-07
47	0x3501c5fc	4.834435e-07
48	0x35aa320e	1.2680555e-06
49	0x35aa320e	1.2680555e-06
50	0x35643c49	8.5024345e-07
51	0x35aa0dbf	1.2669988e-06
52	0x35aa0dbf	1.2669988e-06
53	0x3563f3ab	8.4918673e-07
54	0xb503f6ad	-4.9160263e-07
55	0xb5b0a92f	-1.3162261e-06
56	0x32b0743a	2.054195e-08
57	0x344d9b45	1.91486e-07
58	0xb6eea13e	-7.111724e-06
59	0xb474c745	-2.2796765e-07
60	0xb37743e8	-5.757093e-08
61	0xb451759e	-1.950743e-07
62	0xb2ed5db5	-2.7633044e-08
63	0xb5475c0a	-7.426721e-07
64	0xb54da714	-7.661158e-07
65	0xb3ffe72e	-1.1916414e-07
66	0xb54b6d3c	-7.578235e-07
67	0xb55483aa	-7.916775e-07
68	0xb40af9f8	-1.294319e-07
69	0xb513540b	-5.4884066e-07
70	0xb51c6a79	-5.8269467e-07
71	0xb2e4d995	-2.6641638e-08
72	0xb34562d3	-4.5957517e-08
73	0x36ae1b96	5.1888155e-06
74	0x335ccde1	5.1409987e-08
75	0x368722ed	4.0273794e-06
76	0x353a6323	6.943466e-07
77	0x33d89990	1.0086217e-07
78	0x35901291	1.073424e-06
79	0xb19fcafb	-4.6505853e-09
80	0x2f30d15a	1.6081483e-10
81	0x355a9abc	8.1436497e-07
82	0x3553de15	7.89268e-07
83	0x3539b181	6.917617e-07
84	0x35582b0f	8.052893e-07
85	0x35516e65	7.801921e-07
86	0x3537415d	6.826793e-07
87	0x354c9f6d	7.6227917e-07
88	0x354ab026	7.5507194e-07
89	0x35427aeb	7.24495e-07
90	0xb4a3a929	-3.0484196e-07
91	0xb5058f8b	-4.9755243e-07
92	0xb2f1964c	-2.812444e-08
93	0xb63cd658	-2.8138948e-06
94	0xb5429bd9	-7.249742e-07
95	0x36c5e34a	5.8975174e-06
96	0xb25e2d79	-1.293244e-08
97	0xb203d3cc	-7.673361e-09
98	0x33e553fb	1.06789194e-07
99	0x3482175a	2.4231377e-07
100	0x34a90d54	3.14884e-07
101	0x349a3a49	2.8727143e-07
102	0x352ac06d	6.360995e-07
103	0x353db8bb	7.0676805e-07
104	0x35364f35	6.7915545e-07
105	0x354a8fba	7.5460014e-07
106	0x35586e94	8.062718e-07
107	0x355b5624	8.170921e-07
108	0xb5059af0	-4.9771825e-07
109	0x34767742	2.2953921e-07
110	0xb2be6cd5	-2.2168402e-08
111	0xb2aeb77c	-2.0339705e-08
112	0x34c6c6e5	3.702509e-07
113	0xb487a720	-2.526731e-07
114	0x3124dcfd	2.3990758e-09
115	0x34148ce1	1.3834826e-07
116	0xb1584f37	-3.1477165e-09
117	0xb1c2aeb6	-5.6660054e-09
118	0xb1c2aeb6	-5.6660054e-09
119	0xb25c3bda	-1.2819294e-08
120	0x32d77e1b	2.508664e-08
121	0x32d77e1b	2.508664e-08
122	0xb25c3bda	-1.2819294e-08
123	0x32c2a9f1	2.2661853e-08
124	0x32c2a9f1	2.2661853e-08
125	0x2b3dcbc0	6.742905e-13
126	0xb46ce81e	-2.2063657e-07
127	0xb416452a	-1.3995e-07
128	0x35dcd7ae	1.6454048e-06
129	0x359e3ee0	1.1790216e-06
130	0x330cc879	3.277862e-08
131	0x329d0010	1.8277234e-08
132	0xb19da41d	-4.587959e-09
133	0x357b7d7b	9.3687385e-07
134	0x34b4550c	3.3589492e-07
135	0x34441c7c	1.8264285e-07
136	0x3468f12f	2.1694426e-07
137	0x347c86d0	2.3518373e-07
138	0x34441c7c	1.8264285e-07
139	0x3468f12f	2.1694426e-07
140	0x347c86d0	2.3518373e-07
141	0x348189fd	2.4128522e-07
142	0x349d3bde	2.9287088e-07
143	0x349d3bde	2.9287088e-07
144	0x3556eb54	8.006366e-07
145	0x35a43b77	1.2236259e-06
146	0x34a41080	3.0559386e-07
147	0xb47b76ec	-2.341946e-07
148	0x34ff63e2	4.7570126e-07
149	0x31b9d648	5.4085696e-09
150	0x337e2583	5.91731e-08
151	0x3606705f	2.0032965e-06
152	0xb206a276	-7.836766e-09
153	0xb2e147f7	-2.6226173e-08
154	0x331e4dd6	3.6858033e-08
155	0x34905cb2	2.6889535e-07
156	0x3384c72f	6.18296e-08
157	0x34f85d57	4.6261513e-07
158	0x3528e54f	6.2918565e-07
159	0x33676186	5.3872576e-08
160	0x34f417c1	4.5465825e-07
161	0x3526881b	6.203788e-07
162	0x33b58baf	8.4538776e-08
163	0xb4a899f0	-3.1404443e-07
164	0x34dc1c3e	4.0998742e-07
165	0x365178a2	3.1213644e-06
166	0xb51e1717	-5.8893187e-07
167	0x340a0065	1.2852395e-07
168	0x35c56556	1.4707136e-06
169	0xb509e4cb	-5.1369415e-07
170	0x3585ee4d	9.978627e-07
171	0xb5be0992	-1.4158888e-06
172	0xb5c1ebee	-1.4448285e-06
173	0xb5cee30b	-1.5414274e-06
174	0xb5e9bfb7	-1.7415649e-06
175	0xb5ee6800	-1.776265e-06
176	0xb5f1e2df	-1.8021927e-06
177	0xb5f2f9a3	-1.8103059e-06
178	0xb5fb2d37	-1.8714117e-06
179	0xb5fbf9c8	-1.8773653e-06
180	0xb5359ef4	-6.765906e-07
181	0xb66deaaa	-3.5452344e-06
182	0xb3f486bc	-1.13866435e-07
183	0xb69fdebc	-4.764499e-06
184	0x34056e4c	1.2426716e-07
185	0xb470584c	-2.2383864e-07
186	0x3508feaf	5.103456e-07
187	0xb51a5224	-5.7489e-07
188	0x35933a4b	1.0969319e-06
189	0x341b02ee	1.4436566e-07
190	0x35024fd1	4.854492e-07
191	0x34004883	1.1947309e-07
192	0x3452c45f	1.9629213e-07
193	0x3510402e	5.3737574e-07
194	0x3439f290	1.7317711e-07
195	0xb4f13bdc	-4.4933302e-07
196	0x340eaded	1.3288054e-07
197	0xb425379a	-1.538705e-07
198	0x31ffe0c0	7.447028e-09
199	0x305e4040	8.0854434e-10
200	0xaf7be507	-2.2909684e-10
201	0xb4ad95fa	-3.2332883e-07
202	0xb490eb15	-2.6993135e-07
203	0x3290b486	1.6845899e-08
204	0x30c75989	1.4504603e-09
205	0x30939387	1.0737587e-09
206	0x319d7289	4.5823225e-09
207	0x324bc168	1.1860131e-08
208	0x324bc168	1.1860131e-08
209	0xb1910c4e	-4.2214543e-09
210	0x324bc174	1.1860141e-08
211	0x324bc174	1.1860141e-08
212	0xb1910c4e	-4.2214543e-09
213	0x285a87d2	1.2130882e-14
214	0x285a87d2	1.2130882e-14
215	0xa2221704	-2.1967278e-18
216	0x349695fa	2.80488e-07
217	0xb59f6c13	-1.1877877e-06
218	0xb49f5727	-2.967947e-07
219	0xb419720f	-1.429073e-07
220	0xb693ad63	-4.4011263e-06
221	0x33ae85bd	8.126833e-08
222	0x34e81f02	4.323593e-07
223	0xb3d33948	-9.8358726e-08
224	0xb4e7eb81	-4.3198455e-07
225	0xb55dbcea	-8.260382e-07
226	0xb52ef3ad	-6.5174646e-07
227	0x34831f0c	2.442324e-07
228	0xb5440afd	-7.303168e-07
229	0xb5184aa5	-5.6733035e-07
230	0x34c516b1	3.671062e-07
231	0xb555e41e	-7.968064e-07
232	0xb5266486	-6.19861e-07
233	0x3495bf36	2.7892537e-07
234	0xb3622989	-5.26575e-08
235	0xb40d124b	-1.3138303e-07
236	0xb2d85372	-2.5183656e-08
237	0x339b892e	7.242703e-08
238	0xb57fe37f	-9.5325953e-07
239	0x3503f26c	4.9154073e-07
240	0xb4815dc2	-2.409634e-07
241	0x3418c0e2	1.4226273e-07
242	0xb3fde697	-1.18231746e-07
243	0x34dd383f	4.1205382e-07
244	0x34c34c72	3.6377202e-07
245	0x34c34c72	3.6377202e-07
246	0x34a34e00	3.0417868e-07
247	0x3479aba9	2.3252382e-07
248	0x3479c30e	2.3260893e-07
249	0x348e72f6	2.6533206e-07
250	0x3452b989	1.9625271e-07
251	0x3452d0ec	1.963378e-07
252	0xb4c694d8	-3.6988672e-07
253	0xb525a71a	-6.1710455e-07
254	0xb61d45db	-2.3435484e-06
255	0x350a58b0	5.1538063e-07

exp_avg_sq f4 [16, 2, 3, 3]
0	0x2dc572dc	2.2447315e-11
1	0x2d653a8a	1.3030141e-11
2	0x2ee95c4f	1.06120106e-10
3	0x2f80e737	2.3447352e-10
4	0x31cae83e	5.9053766e-09
5	0x317ae008	3.6507135e-09
6	0x2d5f4c3b	1.2693009e-11
7	0x30c65ac6	1.4432195e-09
8	0x31472e66	2.8984686e-09
9	0x2d457ef8	1.1226346e-11
10	0x2e1b0837	3.5250216e-11
11	0x2e1c2872	3.5506216e-11
12	0x2d8856d7	1.5499975e-11
13	0x2e720063	5.5024773e-11
14	0x2e7575f9	5.581133e-11
15	0x2d4fde9a	1.1816015e-11
16	0x2e4f6378	4.7154697e-11
17	0x2e53c903	4.815438e-11
18	0x31801fa2	3.7288865e-09
19	0x312b8571	2.4959628e-09
20	0x31b27708	5.194014e-09
21	0x306961e8	8.490404e-10
22	0x30b5c987	1.3226761e-09
23	0x308a33c6	1.0055536e-09
24	0x2d0b9e37	7.936366e-12
25	0x30d96d6a	1.5819925e-09
26	0x2ee39d17	1.03506696e-10
27	0x2ee38b2e	1.0347488e-10
28	0x2f012afe	1.1747756e-10
29	0x2edecbb2	1.0131575e-10
30	0x2ee6efee	1.0501809e-10
31	0x2f030266	1.1915233e-10
32	0x2edf6fd6	1.0160732e-10
33	0x2e924921	6.6523016e-11
34	0x2e9fda7c	7.2692935e-11
35	0x2e8b0992	6.322688e-11
36	0x2ea1ae12	7.3523534e-11
37	0x2c089a5d	1.9412451e-12
38	0x2cd5cca3	6.0765433e-12
39	0x30df1743	1.6231997e-09
40	0x2e0fa8f0	3.2664482e-11
41	0x2de6d80b	2.6243915e-11
42	0x315f3ef6	3.248656e-09
43	0x2f249feb	1.4972527e-10
44	0x2e18e282	3.4761978e-11
45	0x2e029995	2.9694986e-11
46	0x2e029995	2.9694986e-11
47	0x2dc0d1eb	2.1921095e-11
48	0x2e21f7d0	3.6827263e-11
49	0x2e21f7d0	3.6827263e-11
50	0x2df1fbda	2.7510372e-11
51	0x2dfe40ce	2.8905236e-11
52	0x2dfe40ce	2.8905236e-11
53	0x2dacd2dc	1.9647776e-11
54	0x30ba9ada	1.3577293e-09
55	0x2f16c44c	1.3712159e-10
56	0x2d8e2d5d	1.6163676e-11
57	0x2e9446a2	6.742808e-11
58	0x3168b77e	3.3864747e-09
59	0x300d6a96	5.144697e-10
60	0x2b566846	7.617278e-13
61	0x2dd24832	2.3906297e-11
62	0x2d58dbe9	1.2327008e-11
63	0x2d770316	1.404101e-11
64	0x2d857f59	1.5176903e-11
65	0x2d6f957b	1.36187684e-11
66	0x2d82d9f2	1.4876076e-11
67	0x2d8d7c1a	1.6084956e-11
68	0x2d710205	1.3699712e-11
69	0x2d8df279	1.6137524e-11
70	0x2d98e6d6	1.7382911e-11
71	0x2d90870c	1.6430877e-11
72	0x2caf6053	4.9844933e-12
73	0x307af4d4	9.129739e-10
74	0x2f01b66b	1.179729e-10
75	0x307bf0b5	9.1655333e-10
76	0x2ff66309	4.4817508e-10
77	0x30b36a63	1.3054201e-09
78	0x307713ac	8.988603e-10
79	0x2b09c21f	4.8941575e-13
80	0x2b839c10	9.351426e-13
81	0x2d524bcd	1.1953949e-11
82	0x2d5566c1	1.2130464e-11
83	0x2d21ab4e	9.189828e-12
84	0x2d50af92	1.18624156e-11
85	0x2d53b082	1.2033154e-11
86	0x2d2011ce	9.0989005e-12
87	0x2d3145ca	1.0076781e-11
88	0x2d32d13c	1.0164588e-11
89	0x2d01b73f	7.37349e-12
90	0x2ebc575b	8.5647676e-11
91	0x30a7f5d7	1.2220721e-09
92	0x2e6e4be7	5.418235e-11
93	0x318e650a	4.1442307e-09
94	0x30536080	7.689849e-10
95	0x31b162d7	5.162615e-09
96	0x2f108c5d	1.3146591e-10
97	0x2c23f1d6	2.329794e-12
98	0x2c67c43f	3.2936013e-12
99	0x2e26e903	3.7950986e-11
100	0x2e38ccd2	4.2018673e-11
101	0x2e193098	3.4831332e-11
102	0x2e398cbd	4.218913e-11
103	0x2e4bac12	4.6309685e-11
104	0x2e2258a2	3.6913257e-11
105	0x2e3273f5	4.0575505e-11
106	0x2e4549c4	4.485813e-11
107	0x2e243f5b	3.7345554e-11
108	0x303cac6c	6.863903e-10
109	0x2ed5116a	9.689212e-11
110	0x2e319eb4	4.0386097e-11
111	0x2dbd0682	2.1489702e-11
112	0x30dddad9	1.6142067e-09
113	0x30465a0d	7.215995e-10
114	0x2b2ef036	6.215058e-13
115	0x306f4820	8.705019e-10
116	0x2b244c00	5.8369976e-13
117	0x2cf2e10d	6.9030393e-12
118	0x2d19796d	8.724005e-12
119	0x2d047d27	7.531121e-12
120	0x2d009595	7.3091715e-12
121	0x2d218c3f	9.182931e-12
122	0x2d06c0d5	7.6598354e-12
123	0x2cd4fcab	6.053454e-12
124	0x2d0ba03b	7.9368135e-12
125	0x2cde3ec1	6.3165866e-12
126	0x2f94bb58	2.705416e-10
127	0x3018ffce	5.56608e-10
128	0x30b6bb53	1.3295484e-09
129	0x31031ce8	1.907944e-09
130	0x2ff6de11	4.4904927e-10
131	0x2d237304	9.291016e-12
132	0x2a99f1ae	2.7345959e-13
133	0x3041a208	7.044325e-10
134	0x2fd78644	3.9203674e-10
135	0x2d630809	1.290524e-11
136	0x2db6d649	2.0786166e-11
137	0x2da785f4	1.9045189e-11
138	0x2d62eb8a	1.2898913e-11
139	0x2db6c8b6	2.0780138e-11
140	0x2da7798f	1.9039685e-11
141	0x2d120a1b	8.301383e-12
142	0x2d40d375	1.0960889e-11
143	0x2d3e3471	1.0811894e-11
144	0x2ee46647	1.0386408e-10
145	0x303ceed7	6.8733413e-10
146	0x2de65ae5	2.6188338e-11
147	0x3035879a	6.604012e-10
148	0x2f9fc257	2.9060018e-10
149	0x2c53b2e6	3.0084212e-12
150	0x2d62c896	1.2891152e-11
151	0x3122d492	2.3694935e-09
152	0x2f0278c8	1.1866341e-10
153	0x2de66b87	2.6195724e-11
154	0x2dfbb549	2.8615903e-11
155	0x2db2870d	2.0296232e-11
156	0x2df7e14a	2.8180697e-11
157	0x2e01a20f	2.947514e-11
158	0x2daebc73	1.9865198e-11
159	0x2df22bdf	2.7531697e-11
160	0x2dffd1b7	2.9083276e-11
161	0x2daf328e	1.9917647e-11
162	0x2ce50da0	6.510084e-12
163	0x2f7c2727	2.2933176e-10
164	0x2f810164	2.3465951e-10
165	0x31f4f48b	7.129136e-09
166	0x2f9acc1f	2.8157474e-10
167	0x2e394621	4.2126417e-11
168	0x31b0b706	5.1430815e-09
169	0x2f0f15d3	1.3013528e-10
170	0x305394a8	7.6972606e-10
171	0x2ecec623	9.4029916e-11
172	0x2ec35290	8.8822394e-11
173	0x2ea1426e	7.3332326e-11
174	0x2ed273a0	9.5702335e-11
175	0x2ec13f3d	8.787857e-11
176	0x2ea57fad	7.526011e-11
177	0x2ec37201	8.8878245e-11
178	0x2ebf5ce5	8.702176e-11
179	0x2ea3c9e7	7.448247e-11
180	0x32be376f	2.214412e-08
181	0x3372d3a3	5.65375e-08
182	0x31e79663	6.740082e-09
183	0x33d3f93c	9.8707886e-08
184	0x32bbc3d3	2.1858716e-08
185	0x326623e9	1.3395927e-08
186	0x308dc9d7	1.0316467e-09
187	0x31b0cb17	5.145363e-09
188	0x325fe1ee	1.3031679e-08
189	0x30a103be	1.1715355e-09
190	0x30a181db	1.1751199e-09
191	0x30750e09	8.9150426e-10
192	0x30a2b20f	1.1837659e-09
193	0x30a339c4	1.1876229e-09
194	0x307803cc	9.022727e-10
195	0x300b7381	5.0732046e-10
196	0x30060f44	4.877061e-10
197	0x2fdeab84	4.0503434e-10
198	0x2c349bba	2.5665984e-12
199	0x2d91f406	1.659296e-11
200	0x29da0f47	9.683795e-14
201	0x30820881	9.461162e-10
202	0x2e2797a6	3.8106095e-11
203	0x2b18dde7	5.43092e-13
204	0x2914964c	3.2992963e-14
205	0x2950517f	4.6255964e-14
206	0x2a4e3ea1	1.8318204e-13
207	0x2aa75a12	2.9727658e-13
208	0x2aa75a12	2.9727658e-13
209	0x2a87f0b5	2.4147841e-13
210	0x2ab05db6	3.1328905e-13
211	0x2ab05db6	3.1328905e-13
212	0x2a90ce83	2.5722835e-13
213	0x29d907c6	9.638084e-14
214	0x29d907c6	9.638084e-14
215	0x29ccf37a	9.101656e-14
216	0x2f6cbbfc	2.153086e-10
217	0x31b611ee	5.2989355e-09
218	0x322f513c	1.0204811e-08
219	0x2f893a96	2.4961783e-10
220	0x323e484c	1.1075894e-08
221	0x2ee03c32	1.01970335e-10
222	0x2f1bc8fc	1.4168572e-10
223	0x30324619	6.485564e-10
224	0x31d7e4da	6.283341e-09
225	0x2ed5b2ae	9.7178585e-11
226	0x2f1ebaa9	1.4436331e-10
227	0x2f1ca994	1.4248364e-10
228	0x2ed876ab	9.8436224e-11
229	0x2f1b373c	1.4116791e-10
230	0x2f1edf69	1.4449388e-10
231	0x2e93f5ea	6.728469e-11
232	0x2ecb5dcf	9.248035e-11
233	0x2ed39dce	9.623201e-11
234	0x2e8da17d	6.440624e-11
235	0x2e9964c2	6.9755327e-11
236	0x2d46a321	1.1291219e-11
237	0x2f09fc71	1.2549763e-10
238	0x3066d7cb	8.3980173e-10
239	0x31cde665	5.992478e-09
240	0x2f1c3b2e	1.4209142e-10
241	0x2df31f31	2.7639753e-11
242	0x2d841962	1.5017935e-11
243	0x2e8b4610	6.333434e-11
244	0x2e8e154d	6.461196e-11
245	0x2e8f24cf	6.5094256e-11
246	0x2e54e4ba	4.840637e-11
247	0x2e65d570	5.2258142e-11
248	0x2e9b1375	7.05204e-11
249	0x2e0f6fb2	3.261364e-11
250	0x2e203f95	3.643626e-11
251	0x2e60f537	5.1149498e-11
252	0x30052347	4.843525e-10
253	0x2fca074d	3.6748773e-10
254	0x3101ab05	1.8869184e-09
255	0x31997fd8	4.46742e-09
