output/blue/images/epoch_61.pt (torch, 369546 bytes, 27 tensors)

conv.0.weight f4 [16, 2, 3, 3]
0	0xbe77bd76	-0.24193367
1	0xbe910616	-0.28324956
2	0xbdf0ebd3	-0.1176373
3	0xbde22c76	-0.110436365
4	0x3e10b2bb	0.1413068
5	0x3e03bdef	0.12865423
6	0xbe947706	-0.28997058
7	0x3d22cacf	0.039744195
8	0x3dc112c2	0.09427406
9	0xbc582c50	-0.013194159
10	0xbd9e507e	-0.077301964
11	0x3d511d72	0.051053472
12	0xbe4b9223	-0.19879965
13	0xbe72b8ff	-0.23703383
14	0x3e193d18	0.14964712
15	0xbe463b2a	-0.19358507
16	0xbc9279de	-0.017880376
17	0x3dd01bb1	0.10161532
18	0x3e1301fe	0.14356229
19	0x3dab607d	0.08368013
20	0x3e46d1f8	0.19416034
21	0xbe0c8a3b	-0.13724606
22	0xbda93453	-0.08261933
23	0xbdafa02f	-0.085754745
24	0xbe5dd459	-0.21663035
25	0x3ca6c38d	0.020356918
26	0xbddddf53	-0.10833611
27	0x3e48ef85	0.1962262
28	0xbdb8089b	-0.08986016
29	0xbe8d03e7	-0.2754204
30	0xbd95d713	-0.07316413
31	0xbe37d54c	-0.1795246
32	0xbdd76d24	-0.10518864
33	0x3e404b66	0.18778762
34	0x3cfd3096	0.030906957
35	0x3e24ac8a	0.16081443
36	0xbdc63432	-0.09677924
37	0xbe834dd2	-0.2564531
38	0xbdd40879	-0.103531785
39	0x3d929c6c	0.07158741
40	0xbddec5e3	-0.10877588
41	0xbe405fc9	-0.18786539
42	0x3d954e6d	0.07290349
43	0xbdaeb2e9	-0.08530218
44	0xbe33c593	-0.17555837
45	0xbe0715a9	-0.13191856
46	0xbe601913	-0.21884565
47	0x3d8e6bec	0.06954178
48	0xba28e144	-0.00064422586
49	0x3d86f17e	0.0658903
50	0xbded05cd	-0.11573372
51	0x3d8579e9	0.06517393
52	0xbd0abaef	-0.03386968
53	0x3ad2b34d	0.0016075164
54	0x3dec5e78	0.11541456
55	0xbd1ba416	-0.03799828
56	0xbe5477d1	-0.20748831
57	0xbe34719a	-0.1762146
58	0x3e3a939f	0.18220375
59	0xbc96a2cf	-0.01838818
60	0xbe685dc3	-0.22692017
61	0xbe047e22	-0.12938741
62	0xbdf30ae8	-0.118673146
63	0xbe9090d0	-0.28235483
64	0xbe89986f	-0.2687411
65	0x3ddc4d54	0.10756937
66	0xbe052c6d	-0.13005228
67	0xbe708f32	-0.23492125
68	0xbdcf5c0c	-0.101249784
69	0x3e21751e	0.15767333
70	0x3d0bed1c	0.034161672
71	0xbe63fb7e	-0.22263905
72	0xbe264aa0	-0.16239405
73	0x3dcc7d13	0.099847935
74	0x3b42d4d8	0.0029728916
75	0x3d61c222	0.05511678
76	0x3c50f1f9	0.012753003
77	0x3d3afc94	0.045651034
78	0x3db2a403	0.08722689
79	0xbe46ce1e	-0.19414565
80	0xbe5fa25f	-0.21839283
81	0x3e266d08	0.1625253
82	0xbe14a2ed	-0.14515276
83	0x3cbbbcec	0.022917233
84	0xbe7c51da	-0.24640599
85	0x3db7359c	0.08945772
86	0xbe60ccb5	-0.2195309
87	0x3cb19a58	0.021680042
88	0xbe322bae	-0.17399475
89	0x3dfafeb0	0.12255609
90	0xbe3934be	-0.18086526
91	0xbdab4c00	-0.08364105
92	0xbe5f3acd	-0.21799774
93	0x3dc94792	0.09828104
94	0x3c1aefc9	0.009456583
95	0x3e26a9a0	0.16275644
96	0xbd815b01	-0.06316186
97	0xbe95b350	-0.29238367
98	0xbe632000	-0.22180176
99	0x3c96a770	0.018390387
100	0x3e3d990f	0.18515418
101	0xbe5c4e1b	-0.2151417
102	0xbdcd31cf	-0.10019266
103	0xbdce769a	-0.10081215
104	0x3d886996	0.06660764
105	0x3e57c3f7	0.21070848
106	0xbe601525	-0.21883066
107	0xbc64184e	-0.01392181
108	0x3d9bae77	0.07601636
109	0xbc29d58d	-0.010365856
110	0xbdb43536	-0.08799212
111	0xbe404f6d	-0.18780299
112	0x3e061027	0.13092099
113	0x3ddb98a2	0.10722472
114	0xbe979aea	-0.29610378
115	0x3d0a78c0	0.033806562
116	0xbe83fad8	-0.25777316
117	0xbe26dd62	-0.16295388
118	0x3d0ca700	0.03433895
119	0x3d8697a0	0.06571889
120	0x3e2a3fed	0.16625948
121	0xbe7e79da	-0.2485117
122	0xbe401c42	-0.1876078
123	0x3e0602e4	0.1308704
124	0xbe8302b3	-0.25587997
125	0xbdef9579	-0.116984315
126	0xbd09eee8	-0.033675104
127	0x3c4c08a5	0.012453233
128	0x3d7d2673	0.061804246
129	0x3d73cc58	0.05952105
130	0xbd931300	-0.07181358
131	0xbe02fc62	-0.12791589
132	0xbe4cc256	-0.19996008
133	0x3d24e647	0.040258672
134	0x3ca19b7a	0.019727457
135	0xbccbcf4c	-0.02487912
136	0x3e4cadec	0.19988221
137	0x3e0a1d84	0.13487822
138	0xbdab998b	-0.08378895
139	0xbe6ca38b	-0.23109262
140	0xbcb02783	-0.021503216
141	0xbe4fc7f4	-0.2029112
142	0xbe5d31ad	-0.21600981
143	0x3dc8e8b1	0.09810007
144	0x3d0cc2ed	0.034365583
145	0x3dd78da3	0.10525062
146	0xbe3b2504	-0.18275839
147	0x3cfcffc5	0.03088368
148	0xbd16297e	-0.036660664
149	0xbe5f5cee	-0.21812794
150	0xbe230fb6	-0.15923962
151	0x3e04cee4	0.12969548
152	0xbd3f7941	-0.046746496
153	0x3e1a2280	0.15052223
154	0xbe39f757	-0.18160759
155	0xbd8ca6fa	-0.06867786
156	0x3dbeeec6	0.09322886
157	0xbe096f49	-0.13421358
158	0xbe3f32bb	-0.18671696
159	0x3bbf2ea1	0.005834416
160	0x3dfcfc65	0.12352828
161	0xbe754ee6	-0.23955879
162	0xbe785228	-0.2425009
163	0xbd74127e	-0.059587948
164	0x3c146a6b	0.009058575
165	0x3dea15c5	0.114299335
166	0xbdc6f62b	-0.097149216
167	0xbded4114	-0.11584678
168	0x3d119dba	0.03555081
169	0xbe1da26b	-0.15393989
170	0xbda9da24	-0.0829356
171	0xbde14411	-0.10999311
172	0xbb1bdfe2	-0.0023784568
173	0x3e2556bf	0.16146372
174	0xbd032580	-0.032018185
175	0x3d9cc75a	0.07655211
176	0x3e0a306d	0.13495035
177	0x3e198e9b	0.14995806
178	0xbd2ae8a1	-0.04172576
179	0x3dabc8b0	0.083878875
180	0x3c0483a8	0.00808803
181	0x3db8cd57	0.090235405
182	0xbdd60971	-0.104510196
183	0x3e0e075a	0.13869992
184	0xbd975446	-0.07389121
185	0xbe104817	-0.1409
186	0xbe02c45e	-0.1277022
187	0xbd549935	-0.051903922
188	0x38b6d041	8.7172266e-05
189	0xbde11861	-0.10990978
190	0x3dd49d47	0.10381561
191	0x3d97cc17	0.07411974
192	0xbceeffe5	-0.029174754
193	0xbe7d818d	-0.24756451
194	0x3e01e535	0.12685092
195	0xbe8cec7b	-0.2752417
196	0xbe2ab50c	-0.16670626
197	0xbdda497a	-0.10658546
198	0xbe11e8d6	-0.14248976
199	0xbdecadce	-0.11556588
200	0xbe3b8753	-0.18313341
201	0x3d8f8f4a	0.07009752
202	0xbcc2e5ab	-0.023791155
203	0xbe18031e	-0.14844939
204	0xbe2ed7c0	-0.1707449
205	0xbe523f90	-0.2053206
206	0xbdc82762	-0.09773137
207	0xbc9e08cf	-0.01929131
208	0xbdc7da42	-0.09758426
209	0xbe798d8d	-0.24370404
210	0x3e17886b	0.14798133
211	0xbe69ee2c	-0.22844762
212	0x3d32b4e3	0.04362954
213	0xbdbad57b	-0.091227494
214	0xbe8603f3	-0.26174888
215	0xbbeea877	-0.007283266
216	0xbe11521b	-0.14191477
217	0x3e11a334	0.14222413
218	0x3e0e44cb	0.1389343
219	0xbe3d882c	-0.18508977
220	0x3da6d5ff	0.08146285
221	0xbe8413f1	-0.25796464
222	0xbd143856	-0.03618654
223	0xbdc1745f	-0.09446024
224	0xbcd49694	-0.025950707
225	0xbe591767	-0.21200334
226	0xbdc32f71	-0.09530533
227	0x3c78a005	0.01517487
228	0xbe2bcd53	-0.16777544
229	0xbca09dd2	-0.019606505
230	0xbe279b33	-0.16367798
231	0x3dbc4ed3	0.09194722
232	0x3d7be08e	0.06149345
233	0x3c690350	0.014221981
234	0xbde0b0c4	-0.10971215
235	0xbe440185	-0.19141205
236	0xbe39c0ce	-0.18139955
237	0xbe52bfd9	-0.20580997
238	0xbd9f6315	-0.0778257
239	0x3e29c723	0.16579871
240	0xbc9638ca	-0.018337626
241	0xbe2a030c	-0.16602725
242	0xbe48d423	-0.19612174
243	0xbe12edfe	-0.143486
244	0xbe999a5f	-0.30000588
245	0x3c239999	0.009985351
246	0x3d9f7f36	0.077879354
247	0x3e16d504	0.14729697
248	0xbe73d9fd	-0.23813625
249	0x3c2c9af2	0.010534989
250	0xbcc49870	-0.02399847
251	0x3ddccb7b	0.10780998
252	0xbc45aeb2	-0.012065576
253	0x3cbd549b	0.023111632
254	0x3e19bf8b	0.15014474
255	0x3dd656ff	0.10465812

conv.0.bias f4 [16]
0	0x3dc8fe0b	0.0981408
1	0x3e376a9b	0.1791176
2	0xbe5508e7	-0.20804177
3	0xbe3678b0	-0.17819476
4	0xbdb6e9fa	-0.08931346
5	0x3e1481b5	0.14502604
6	0x3d8cb09d	0.06869624
7	0x3d70e3ee	0.05881112
8	0x3df117c5	0.11772112
9	0xbe246c8c	-0.16057032
10	0x3d8cb090	0.06869614
11	0xbda6429e	-0.08118175
12	0xbd36dc1a	-0.0446435
13	0x3dd53f1f	0.1041243
14	0xbe12eddf	-0.14348553
15	0x3e4273e5	0.18989523

conv.3.weight f4 [32, 16, 3, 3]
0	0xbc067960	-0.008207649
1	0xbcd0cd1d	-0.02548843
2	0xbbc21fea	-0.0059242146
3	0x3cce9fcc	0.025222681
4	0xbd905c51	-0.07048858
5	0xbd6f2216	-0.058382116
6	0x3c41327b	0.011791821
7	0xbd0ce6d1	-0.03439981
8	0x3d84b62b	0.06480058
9	0x3d4d5885	0.050133247
10	0x3c5258f4	0.012838591
11	0xbdbd30ce	-0.092378244
12	0x3c98547f	0.018594978
13	0xbdaa313f	-0.08310174
14	0xbda59219	-0.080845065
15	0xbb4c5b05	-0.0031182182
16	0xbc856d03	-0.016287332
17	0x3a99baee	0.0011728683
18	0xbcdd2f3a	-0.027000058
19	0x3d67be6c	0.056578085
20	0xbd45a365	-0.04825153
21	0x3d0dbd7a	0.034604527
22	0x3d6ef78b	0.058341544
23	0xbaa2d1e0	-0.0012422167
24	0xbd70b9d9	-0.058770988
25	0x3d1ec6f0	0.03876394
26	0xbc697d10	-0.014251009
27	0xbd971601	-0.07377244
28	0xbd6ffbc1	-0.0585897
29	0xbdb64a06	-0.089008376
30	0x3dc0c787	0.09413057
31	0x3c9f322d	0.019433105
32	0x3d783c71	0.060604516
33	0x3d224645	0.039617795
34	0xbcac9631	-0.02106771
35	0x3c2db9f1	0.010603414
36	0xbd82eeb3	-0.063931845
37	0x3c6e5a85	0.014547949
38	0x3d230ad7	0.03980526
39	0xbda9dc62	-0.08293988
40	0x3d81a740	0.063307285
41	0x3cd65429	0.026163178
42	0xbd80726d	-0.06271825
43	0x3c33ce1d	0.010974434
44	0x3cad332a	0.021142561
45	0x3da53d3f	0.080683224
46	0x3c57ad3c	0.013163861
47	0xbd035991	-0.03206784
48	0xbdd2a03b	-0.10284468
49	0xbd1d616a	-0.03842298
50	0x3c905192	0.01761702
51	0x3cf8bb2a	0.030362684
52	0xbda50595	-0.08057705
53	0x3d302853	0.043007206
54	0x3ad8d286	0.0016542233
55	0xbdbacb9c	-0.09120867
56	0x3d056d07	0.03257468
57	0xbd52afe2	-0.051437266
58	0x3cfe6e3d	0.031058425
59	0xbcab9348	-0.020944253
60	0xbda22e36	-0.0791897
61	0x3d3c4165	0.045960803
62	0xbcd07751	-0.02544752
63	0x3d190c33	0.03736515
64	0x3c493d51	0.012282685
65	0x3d89662b	0.0670894
66	0xba30bb8a	-0.00067418127
67	0x3cb464e8	0.022020772
68	0xbd9eb3ca	-0.07749136
69	0xbbc7f315	-0.0061019757
70	0xbc604b75	-0.013689865
71	0x3d5b6edf	0.05357253
72	0xbd79f9ca	-0.061029233
73	0x3cdade71	0.026717396
74	0xbd837f5b	-0.064207755
75	0x3bfa2df9	0.007634875
76	0x3d16c738	0.036811084
77	0x3d55b6a3	0.05217613
78	0xbdad4990	-0.084612966
79	0xbdc1753d	-0.094461896
80	0x3ca7843d	0.020448798
81	0xbd3bd98b	-0.045861762
82	0xbcd58ad4	-0.026067175
83	0xbd591e71	-0.053007547
84	0x3c006e52	0.007838802
85	0xbcb12be9	-0.021627383
86	0x3d47d201	0.04878426
87	0x3bbb7734	0.005720997
88	0xbdb965d0	-0.09052622
89	0x3cc6c3e5	0.024263332
90	0xbd023bb4	-0.03179522
91	0xbd83767c	-0.064190835
92	0x3d3b3a3d	0.045709837
93	0xbda15d7e	-0.0787916
94	0xbd67d6dc	-0.05660139
95	0xbdbff60f	-0.09373104
96	0x3cf26a29	0.029591637
97	0xbda4a1c6	-0.08038668
98	0xbcb597e0	-0.022167146
99	0xbd8579dc	-0.065173835
100	0xbcc2c4e8	-0.023775533
101	0xbdb53b97	-0.088492565
102	0xbd7793a7	-0.060443547
103	0xbd6721e6	-0.056428812
104	0x397e7695	0.00024267503
105	0xbdc37047	-0.095428996
106	0x3ce3e575	0.027819375
107	0xbc1d76b7	-0.009610823
108	0x3daf3587	0.085551314
109	0x3d13086b	0.0358967
110	0xbd9e5329	-0.07730705
111	0x3d9110a9	0.07083256
112	0xbd635e1d	-0.055509675
113	0xbd94dd31	-0.072687514
114	0xbd84e9d4	-0.06489912
115	0x3cd41834	0.025890447
116	0xbc237bdd	-0.009978262
117	0x3cc16b8b	0.02361085
118	0xbdb03f2e	-0.086058006
119	0x3d3619ad	0.04445808
120	0x3ce82fa9	0.028343039
121	0x3cba54f6	0.02274559
122	0xbd773dbd	-0.060361613
123	0x3bf62ac2	0.0075124213
124	0xbd628372	-0.055301137
125	0x3d0af136	0.033921443
126	0x3cdc61af	0.026902048
127	0xbce54580	-0.027987242
128	0xbcb8c178	-0.02255319
129	0xbca1dd57	-0.019758863
130	0x3d110256	0.03540262
131	0x3caa2f8f	0.02077463
132	0x3c974a22	0.018467966
133	0xbdc7d3be	-0.097571835
134	0x3d00bef0	0.031432092
135	0xbd943826	-0.07237272
136	0x3c5708fe	0.0131247025
137	0x3d3e50ef	0.046463903
138	0x3c94537c	0.018106215
139	0xbc16a31c	-0.009194162
140	0xbcdde6af	-0.027087538
141	0xbdaa9b94	-0.083304554
142	0xbd024154	-0.031800583
143	0xbdc2e7e3	-0.09516885
144	0x3d17f7d7	0.037101593
145	0xbd9a299f	-0.0752747
146	0xbc37234e	-0.011177851
147	0xbd31594e	-0.04329806
148	0x3d5b8fb5	0.053603847
149	0xbcdd79f8	-0.027035698
150	0xbda4236f	-0.08014571
151	0xbd0e82c7	-0.034792688
152	0x3c5b4a7c	0.013384458
153	0xbce7cff8	-0.02829741
154	0x3d3a805a	0.04553256
155	0xbd073a47	-0.033014562
156	0xbdb45dbe	-0.088069424
157	0x3c460b49	0.0120876515
158	0xbd90f230	-0.070774436
159	0xbd6472e6	-0.05577364
160	0xbcad9e20	-0.021193564
161	0xbd7f24da	-0.062291004
162	0xbb99e165	-0.0046960586
163	0xbdc293d9	-0.09500856
164	0x3ccf3bfd	0.02529716
165	0xbd58484a	-0.052803315
166	0xbbb043dd	-0.0053791837
167	0x3c6dbda4	0.014510546
168	0xbd90bad5	-0.070668854
169	0xbddce57e	-0.1078596
170	0xbd803b11	-0.06261266
171	0xbdd3b018	-0.103363216
172	0x3af0423b	0.0018330285
173	0xbdba7b7d	-0.09105585
174	0xbd93d517	-0.07218378
175	0xbd27034e	-0.040774636
176	0xbd0acaa7	-0.03388467
177	0xbd2f149f	-0.042744275
178	0xbd5f1992	-0.054467745
179	0xbb40faea	-0.0029446431
180	0x3be9b5bb	0.0071322597
181	0x3d39e5b7	0.04538509
182	0x3d79337f	0.060840126
183	0xbdb1fb63	-0.08690526
184	0xbbc7730e	-0.0060867136
185	0x3abe520b	0.00145203
186	0x3c9ef3bc	0.019403331
187	0x3d32ec09	0.043682132
188	0xbd8274fa	-0.06369968
189	0xbd3da28d	-0.0462976
190	0xbd987b0f	-0.074453466
191	0xbd6dbaf1	-0.05803961
192	0x3d36b8ef	0.04460996
193	0x3d00b8f0	0.03142637
194	0xbd88cfcc	-0.06680259
195	0xbd2a8c8e	-0.04163795
196	0x3ce13a7f	0.027493713
197	0x3c88fb59	0.016721414
198	0xbc2d892e	-0.010591788
199	0x3d6f1a50	0.058374703
200	0xbd2df8cc	-0.0424736
201	0xbd9ea51d	-0.077463366
202	0xbda04495	-0.07825581
203	0xbd5d901a	-0.054092504
204	0xbb61fb7e	-0.0034482176
205	0xbcab5ca6	-0.020918202
206	0xbda28feb	-0.079376064
207	0xbcb9ccbe	-0.022680636
208	0x3cefd3a5	0.029275725
209	0xbd92e0b2	-0.071717635
210	0xbd92faa9	-0.07176716
211	0xbd8094de	-0.06278394
212	0xbd9b2938	-0.07576221
213	0xbca6f6fe	-0.020381447
214	0xbd9be06d	-0.07611165
215	0xbd617fd9	-0.055053566
216	0xbd7e36ec	-0.062064096
217	0x3d7e3284	0.062059894
218	0x3d61549a	0.055012323
219	0xbd53df48	-0.05172661
220	0xbd0ce7e6	-0.034400843
221	0xbb8314ce	-0.004000283
222	0xbd92a2ae	-0.07159935
223	0xbe0d9839	-0.138276
224	0x3d38d852	0.045128174
225	0xbd4e3fe7	-0.05035391
226	0x3d7df3c2	0.062000044
227	0x3c5762fa	0.013146156
228	0xbc2efa5d	-0.010679808
229	0xbd7af5c5	-0.06126954
230	0xbba133ac	-0.00491949
231	0xbb6b0cc0	-0.0035865754
232	0x3cb3ff19	0.021972226
233	0xbd88c4ac	-0.06678137
234	0x3d5598b0	0.052147567
235	0xbdb53f08	-0.08849913
236	0x3d198299	0.037478063
237	0x3ba746f5	0.0051048943
238	0xbc247b1e	-0.010039119
239	0xba847f09	-0.001010866
240	0xbdeac232	-0.11462821
241	0xbde1f003	-0.11032107
242	0xbd906eff	-0.07052421
243	0x3c3b8d4b	0.011447261
244	0x3d40d1bc	0.04707502
245	0x3d8e7606	0.06956105
246	0x3d11e0ee	0.0356149
247	0xbd87abd1	-0.06624568
248	0x3dd642a9	0.10461933
249	0x3c66fc19	0.014098191
250	0x3d41733c	0.047229037
251	0xbdb89d4f	-0.09014379
252	0x3d50303e	0.050827257
253	0xbd96af55	-0.07357661
254	0xbd2d8dfc	-0.042371735
255	0xbdac1566	-0.08402519

conv.3.bias f4 [32]
0	0xbc8f3238	-0.01748
1	0x3dcb1d0c	0.099176496
2	0x3cb0735d	0.021539384
3	0x3d7763ca	0.0603979
4	0xbc574c79	-0.013140791
5	0x3c9e17b7	0.019298417
6	0xbd526399	-0.051364515
7	0xbab57ff4	-0.0013847337
8	0xbd2571b5	-0.040391643
9	0xbdab5668	-0.0836609
10	0x3b057cee	0.0020368653
11	0xbd84d545	-0.064859904
12	0xba284fb0	-0.0006420566
13	0x3d49f1d2	0.049302883
14	0xbc5e5f12	-0.013572471
15	0x3c8c3257	0.017113848
16	0xbd74a957	-0.059731808
17	0x3c3081ec	0.010773163
18	0xbcb91cee	-0.022596803
19	0xbcdee0a4	-0.027206726
20	0xbca31561	-0.019907655
21	0x3d1fd95b	0.039025646
22	0x3afce4a1	0.0019294211
23	0xbd40a308	-0.04703048
24	0xbbc9ac48	-0.0061545707
25	0x3d236183	0.039887916
26	0xbd49f482	-0.049305446
27	0xbd5f138f	-0.054462012
28	0x3d22ec02	0.039775856
29	0xbd9ba1c5	-0.075992145
30	0xbd9edfa9	-0.077575035
31	0x3b6672e7	0.0035163702

fc.0.weight f4 [128, 128]
0	0xbd815f69	-0.06317026
1	0x3d549d37	0.051907744
2	0x3d769a4f	0.060205754
3	0xbbd4103a	-0.006471661
4	0xba9f0e3a	-0.0012134977
5	0xbd5322be	-0.051546805
6	0xbcdaf2e6	-0.026727151
7	0xbdb6f987	-0.08934312
8	0xbb88ed4b	-0.004178678
9	0xba844586	-0.001009152
10	0xbdaaaa31	-0.08333243
11	0x3ceacafc	0.028661244
12	0xbda3acbf	-0.07991933
13	0xbcaa1cf1	-0.020765753
14	0xbc2e8697	-0.010652206
15	0x3c2bcf36	0.010486415
16	0x3cb65101	0.022255423
17	0x3df88922	0.12135531
18	0xbb9bb008	-0.004751209
19	0xbdda670d	-0.106641866
20	0x3d70117c	0.058610424
21	0xbd09b5a6	-0.0336205
22	0xbd13a2db	-0.036043983
23	0x3d9d244e	0.0767294
24	0x3cccdc6d	0.025007451
25	0xbd672e8c	-0.056440875
26	0xbd82c87a	-0.06385894
27	0x3d090458	0.03345141
28	0x3cea58f9	0.028606879
29	0x3cb5cfc9	0.022193806
30	0x3d972856	0.0738074
31	0x3da44297	0.080205135
32	0x3cda6948	0.02666153
33	0x3c8225b3	0.015887117
34	0xbd86dead	-0.06585441
35	0x3b3b3011	0.0028562585
36	0xbd998def	-0.07497775
37	0xbdc56b1a	-0.096395686
38	0x3cd69e97	0.026198668
39	0xbd98a40d	-0.07453165
40	0xbd3839e6	-0.04497709
41	0xbd6db312	-0.058032103
42	0xbd98d422	-0.07462336
43	0xbd9de57f	-0.077097885
44	0x3d3f92cc	0.046770856
45	0xbdbabb92	-0.091178074
46	0x3ca17493	0.019708907
47	0x3d925a73	0.07146158
48	0xbdd009e5	-0.10158137
49	0x3d4e012b	0.050294083
50	0xbdbef8d3	-0.09324803
51	0x3d480e80	0.048841953
52	0xbc5f804b	-0.013641427
53	0xbd63c3d7	-0.05560669
54	0x3cb4362b	0.021998486
55	0x3b917c1b	0.0044398434
56	0xbcc11e72	-0.023574088
57	0xbccc208d	-0.024917865
58	0x3d9bc7c9	0.07606465
59	0x3ca82bc0	0.020528674
60	0xbc97d054	-0.018531956
61	0xbd708d26	-0.05872836
62	0xbc221c94	-0.009894509
63	0xbd20d5aa	-0.039266266
64	0x3dafcd0f	0.08584034
65	0xbd6475f0	-0.055776536
66	0xbda59ef1	-0.08086956
67	0x3d094157	0.03350958
68	0x3c0e02fa	0.008667702
69	0xbd78bb9e	-0.0607258
70	0x3d0b7d74	0.03405519
71	0x3d884724	0.06654194
72	0x3da05f47	0.07830673
73	0xbd00ac30	-0.03141421
74	0xbd414575	-0.04718538
75	0x3da01532	0.07816543
76	0x3ca3b263	0.019982522
77	0x3d8272ef	0.06369578
78	0x3cef4ba3	0.029210871
79	0xbd773f1d	-0.060362924
80	0x3d7b2173	0.061311197
81	0xbc2f87e3	-0.01071355
82	0xbd70dac7	-0.058802392
83	0xbd8b56a5	-0.068036355
84	0x3d63b1a3	0.05558933
85	0x3dac92b7	0.08426421
86	0xbd91b682	-0.07114889
87	0x3d9ede8d	0.07757292
88	0x3cd1ff30	0.025634378
89	0xbd99b8d4	-0.07505956
90	0xbd306ec2	-0.043074377
91	0xbca66f3a	-0.020316709
92	0xbd1749c2	-0.036935575
93	0x3c135ce3	0.008994314
94	0x3bd87f6d	0.006606987
95	0x3c917c7e	0.017759558
96	0x3d9a418c	0.07532033
97	0x3d114758	0.03546843
98	0xbc1fe512	-0.009759204
99	0x3c49d25d	0.012318221
100	0xbd209130	-0.03920096
101	0xbcf42da7	-0.029806925
102	0xbb8bbc08	-0.0042643584
103	0xbc8b6782	-0.01701713
104	0xbcfa2828	-0.030536726
105	0x3cae157b	0.021250477
106	0x3d715dbd	0.058927286
107	0xbd8b704c	-0.06808528
108	0x3d62ac1a	0.05533991
109	0xba5dff93	-0.00084685645
110	0xbd829425	-0.063759126
111	0xbb27a0a0	-0.0025577918
112	0x3ce38a0c	0.027775787
113	0xbc01eafc	-0.00792956
114	0x3d6303f6	0.0554237
115	0x3d586e8e	0.05283981
116	0x3d71415a	0.058900215
117	0x3dbaf2ef	0.09128367
118	0x3cb2e7ac	0.021838985
119	0xbcd6838c	-0.026185773
120	0x3d91a11a	0.07110806
121	0x3d80577d	0.06266687
122	0x3d988325	0.07446889
123	0x3d50ba15	0.05095871
124	0x3c4baab0	0.012430832
125	0x3d726370	0.059176862
126	0xbc85a3dc	-0.016313486
127	0xbd495aa9	-0.049158726
128	0xbcb2f120	-0.021843493
129	0xbb62d268	-0.0034610275
130	0x3d92d3cc	0.07169303
131	0x3d37f61a	0.044912435
132	0x3bf93547	0.007605228
133	0x3d260aab	0.040537518
134	0x3c7ad9df	0.015310734
135	0x3d239d42	0.039944895
136	0xbd993053	-0.0747992
137	0xbd161862	-0.036644347
138	0xbd0d194c	-0.034447953
139	0xbd72cdf0	-0.05927843
140	0xbd9a0e7a	-0.075222924
141	0x3d78041f	0.060550805
142	0x3c005b1e	0.007834224
143	0xbd7d9608	-0.06191066
144	0x3d35b1bd	0.044358958
145	0xbc7e9b73	-0.015539992
146	0xbdb6aad7	-0.08919304
147	0xbd224399	-0.039615247
148	0xbcee4f2b	-0.029090485
149	0x3ad89880	0.0016524941
150	0x3d291b1d	0.041285623
151	0xbd8e3513	-0.06943717
152	0x3d000c72	0.03126187
153	0xbc925328	-0.017861918
154	0x3cc2d5d8	0.02378361
155	0xbd7aa6f0	-0.06119436
156	0xbd3e7bed	-0.046504904
157	0xbd85cf18	-0.065336406
158	0x3cc7d5f6	0.024394017
159	0x3d9f6216	0.0778238
160	0x3d3c870b	0.046027225
161	0x3c632e53	0.013866025
162	0xbd3df773	-0.046378564
163	0xbc68c46e	-0.014206989
164	0xbd850b74	-0.06496325
165	0x3d7426de	0.05960738
166	0x3cc20c82	0.023687605
167	0xbd3eb8ad	-0.04656284
168	0xbd31ffce	-0.043456845
169	0x3c7c01da	0.015381301
170	0xbd24e5d9	-0.040258262
171	0x3ca1c2e6	0.019746255
172	0xbcef6f36	-0.029227834
173	0xbc6dfd65	-0.014525746
174	0xbb66c371	-0.0035211707
175	0x3b91f5a2	0.0044543305
176	0x3da26962	0.079302564
177	0xbd960d77	-0.07326787
178	0x3c7abbd9	0.015303575
179	0x3daf9c62	0.085747495
180	0xbd702398	-0.058627695
181	0xbb1c722b	-0.002387176
182	0xbd22abd3	-0.039714646
183	0xbbc8046f	-0.006104044
184	0x3c90e78d	0.017688537
185	0xbd83d633	-0.0643734
186	0x3d972e4d	0.07381878
187	0xbd04bbbb	-0.032405596
188	0x3d080006	0.033203147
189	0x3c9225a3	0.017840212
190	0x3cbecea8	0.0232919
191	0x3c17569e	0.00923696
192	0x3d7c4ebe	0.061598532
193	0xbd3bf98f	-0.045892294
194	0xbd8b59cb	-0.06804236
195	0xbd8ed247	-0.06973701
196	0x3d7fe4c2	0.06247402
197	0xbd9459e2	-0.07243706
198	0xbc54caa9	-0.012987771
199	0xbc946fb0	-0.018119663
200	0x3d455362	0.048175223
201	0xbd5bb773	-0.053641748
202	0xbbc415ff	-0.0059840675
203	0x3c383d4c	0.011245083
204	0x3d7aa560	0.06119287
205	0xbd798c73	-0.06092496
206	0x3d10f4ad	0.03538959
207	0x3db9e6d1	0.09077228
208	0xbc8b2077	-0.016983254
209	0xbd647746	-0.05577781
210	0xbd3e629e	-0.046480767
211	0x3d55bbbd	0.052180994
212	0xbd1e2860	-0.038612723
213	0x3d3167a2	0.043311723
214	0x3d874867	0.066056065
215	0xbc22ecfd	-0.009944198
216	0xbd8c498f	-0.06849968
217	0xbd85dc4f	-0.06536161
218	0x3d2fa331	0.04288024
219	0x3d1ff935	0.03905602
220	0x3d8b48e0	0.06801009
221	0xbc727cda	-0.014800275
222	0x3d8912ca	0.06693037
223	0xbd868b97	-0.065695934
224	0x3d7f2932	0.062295146
225	0xbcfb4c72	-0.0306761
226	0x3d391c82	0.045193203
227	0x3d8345f2	0.064098254
228	0xbc5c1da8	-0.013434805
229	0xbc10850f	-0.008820786
230	0xbcbba190	-0.022904187
231	0x3d206ea3	0.03916801
232	0x3d94c6d9	0.0726449
233	0x3d1c4371	0.038150255
234	0xbd0c11cc	-0.03419666
235	0xbd8a7067	-0.0675972
236	0x3d3ef89e	0.04662382
237	0xbd93a11e	-0.07208465
238	0x3d5ebb02	0.054377563
239	0xbd350c56	-0.044201218
240	0x3d175e51	0.03695518
241	0xbcfba1b7	-0.03071676
242	0x3d0e62f0	0.034762323
243	0x3dc03a90	0.0938617
244	0x3d2edc25	0.042690415
245	0x3da49799	0.080367275
246	0x3b991ead	0.0046728463
247	0x3bbad5d6	0.0057017608
248	0xbca92442	-0.020647172
249	0xbd6f6696	-0.058447443
250	0xbd32eafc	-0.04368113
251	0xbca1a6b1	-0.019732805
252	0xbd73f667	-0.05956116
253	0x3c6c44b0	0.014420673
254	0x3d607bd3	0.054805588
255	0xba50e4e3	-0.0007968677

fc.0.bias f4 [128]
0	0xbd6e5e9e	-0.058195703
1	0xbdcc25c3	-0.0996814
2	0xbb9c7765	-0.004774975
3	0xbd935b36	-0.071951315
4	0x3cab63b4	0.020921566
5	0x3bcbf700	0.006224513
6	0x3c13380e	0.008985532
7	0xbdf8f1ce	-0.121554956
8	0x3c539bf6	0.012915602
9	0xbc0580e7	-0.0081484085
10	0xbd796931	-0.060891334
11	0xbdd73c9d	-0.10509608
12	0x3c8c98fa	0.017162789
13	0xbdef7ba3	-0.11693504
14	0xbd93f733	-0.07224884
15	0xbcd657ec	-0.026164971
16	0xbdb8fd98	-0.09032744
17	0xbde770ac	-0.11300787
18	0x3ccf54d9	0.025309013
19	0xbd867bc3	-0.065665744
20	0x3c894f56	0.016761463
21	0x3c57c04e	0.013168408
22	0xbd8bc2ef	-0.0682429
23	0xbd05d044	-0.03266932
24	0xbd19fc4a	-0.037594117
25	0xbd8b863e	-0.06812714
26	0xbdae6885	-0.08516029
27	0xbd992124	-0.07477024
28	0xbd20aa15	-0.039224703
29	0x3cd7db81	0.026349785
30	0xbb2cf36a	-0.0026390203
31	0xbc438f30	-0.011935994
32	0xbb9ca765	-0.004780697
33	0xbc7ee863	-0.015558335
34	0xbd573710	-0.052542746
35	0xbd9e24f1	-0.0772189
36	0x3c94848c	0.01812961
37	0xbcbc409a	-0.022980023
38	0xbd7cf4eb	-0.06175701
39	0x3c51e980	0.012812018
40	0xbd9994a0	-0.07499051
41	0xbdfc3867	-0.123154454
42	0x3ba2be99	0.0049665687
43	0x3b883a1b	0.0041573173
44	0xbde2701e	-0.11056541
45	0xbdb960e6	-0.09051685
46	0xbafa9b70	-0.001911981
47	0xbdd93702	-0.10606195
48	0xbdaf074c	-0.08546314
49	0xbd58c490	-0.05292183
50	0xbc9fb8b2	-0.01949725
51	0x3c1b0ea1	0.009463937
52	0xbddd88c3	-0.10817101
53	0xbc3bb8cd	-0.011457634
54	0xbc764d70	-0.015033111
55	0xbddbd1a5	-0.10733346
56	0xbd10bcec	-0.03533642
57	0xbd4f3b69	-0.050593767
58	0xbd87898c	-0.06618032
59	0xbcf9ba1b	-0.03048425
60	0xbd974a78	-0.07387251
61	0xbdd3a728	-0.10334617
62	0xbd23804e	-0.039917283
63	0xba476617	-0.000760646
64	0xbbc9bcaa	-0.0061565237
65	0xbd9e86c2	-0.07740547
66	0xbc85fcab	-0.016355833
67	0xbd558079	-0.052124474
68	0xbdeb946a	-0.11502917
69	0x3b99b1d1	0.004690387
70	0x3ca28675	0.019839505
71	0x3d2ab752	0.041678734
72	0x3b86b6a8	0.00411113
73	0x3c94ea27	0.018178059
74	0x3b70a7d3	0.0036721125
75	0xbc2845fe	-0.010270594
76	0x3d0a9c5b	0.03384052
77	0xbc5184aa	-0.012787977
78	0x3c754c56	0.014971813
79	0x3d2aca2f	0.041696724
80	0xbd69fb6e	-0.057124548
81	0xbae61c52	-0.0017556048
82	0xbcc1f35a	-0.02367561
83	0xbdf5aafe	-0.11995505
84	0xbd828279	-0.06372542
85	0xbce88b84	-0.028386839
86	0xbddd67ae	-0.10810791
87	0xbdba9046	-0.09109549
88	0xbc9cf1d0	-0.019158274
89	0xbdc965c2	-0.09833862
90	0xbd6e151a	-0.058125593
91	0x3c2509b9	0.010073119
92	0xbe1e63ab	-0.15467708
93	0xbda641d0	-0.081180215
94	0xbd1ef830	-0.03881091
95	0xbca82346	-0.020524632
96	0x3bdeae7a	0.0067957016
97	0xbdad829c	-0.084721774
98	0xbb132753	-0.002245386
99	0xbdcb36f2	-0.09922589
100	0xbd62d838	-0.055381984
101	0xbdd04c7b	-0.101708375
102	0xbbc7badc	-0.0060952734
103	0x3c8eceb1	0.017432543
104	0xbd812903	-0.063066505
105	0x3ca7f23a	0.020501245
106	0xbdc75ab1	-0.09734095
107	0x3c7775d8	0.01510378
108	0xbd82da1e	-0.06389259
109	0xbd33ccfa	-0.043896653
110	0x3a6ffa52	0.0009154427
111	0xbdd23a06	-0.10264973
112	0x3c704243	0.0146642355
113	0xbdc284a3	-0.09497955
114	0xbcaa2d3c	-0.020773523
115	0xbd9894d0	-0.07450259
116	0xbcea53c6	-0.0286044
117	0x3d06e945	0.032937307
118	0xbd7a33f1	-0.06108469
119	0xbd0484e4	-0.032353297
120	0x3c4ac06c	0.0123749785
121	0xbda8222b	-0.08209642
122	0xbc28d202	-0.010303976
123	0xbcdfca29	-0.027318077
124	0xbdd5462b	-0.10413774
125	0xbd5a1d3e	-0.053250544
126	0x3bda44cd	0.0066610337
127	0xbd19dd9e	-0.037564866

fc.2.weight f4 [64, 128]
0	0xbca4b875	-0.020107487
1	0xbd081cae	-0.033230476
2	0xbd5a2a4f	-0.053263005
3	0xba69f5d7	-0.00089248776
4	0xbcb82a51	-0.022481116
5	0xbd197b08	-0.037470847
6	0xbd3e08e8	-0.046395212
7	0x3d90fa1e	0.07078956
8	0x3d19902f	0.03749102
9	0xbc77474e	-0.015092684
10	0x3d181bc5	0.037135858
11	0x3d713120	0.05888474
12	0x3d10c0dc	0.035340175
13	0xbd5dfd46	-0.05419662
14	0x3c85dfb0	0.016342014
15	0x3bfcc280	0.007713616
16	0x389b683e	7.4103926e-05
17	0xbd530b2a	-0.05152432
18	0x3d9209cd	0.071307756
19	0x3cdb57b4	0.026775219
20	0xbd7a59ed	-0.061120916
21	0xbd80dd70	-0.06292236
22	0xbd9f3822	-0.07774378
23	0xbc459819	-0.012060189
24	0xbdb38a4c	-0.087666124
25	0xbdb5de33	-0.08880272
26	0x3d8f93fa	0.07010646
27	0x3c8cafc1	0.01717365
28	0x3d894c45	0.067040004
29	0xbcdcde35	-0.026961425
30	0xbd5dafbe	-0.05412268
31	0xbd26ff02	-0.04077054
32	0x3c5ff893	0.013670105
33	0xbc1338ca	-0.008985708
34	0x3d690706	0.056891464
35	0xbd738d47	-0.059460904
36	0x3d0f65ec	0.03500931
37	0x3d857ce3	0.06517961
38	0xbd7c6749	-0.061621938
39	0x3d8d7f29	0.069090195
40	0xbd1b563c	-0.037924036
41	0xbd8efade	-0.06981443
42	0xbcd5c9ea	-0.026097257
43	0xbd515705	-0.05110838
44	0xbd8db037	-0.06918376
45	0x3c673278	0.014111154
46	0xbdb841b6	-0.08996908
47	0x3d54cf01	0.051955227
48	0x3d96cc8d	0.07363234
49	0xbccd4c9c	-0.025060944
50	0xbd8c513a	-0.0685143
51	0xbda40e03	-0.08010485
52	0xbdad0137	-0.08447497
53	0xbc9c276c	-0.019061767
54	0xbccb0ac9	-0.024785416
55	0x3d9aad6a	0.07552607
56	0x3d3b8410	0.04578024
57	0x3ceaa5c8	0.028643504
58	0x3d4c0117	0.049805727
59	0xbc5e0b90	-0.013552561
60	0x3d94ab60	0.0725925
61	0x3d05203d	0.032501448
62	0xbda0cd1f	-0.07851624
63	0x3d9f773a	0.077864125
64	0x3d4ce44a	0.0500224
65	0xbd86d456	-0.065834686
66	0xbd829995	-0.0637695
67	0x3d7eb6bc	0.062185988
68	0xbdbd71ab	-0.09250196
69	0xbd7b98da	-0.061425067
70	0xbcba4e06	-0.022742283
71	0xbdb86c9b	-0.0900509
72	0x3c825055	0.015907446
73	0xbc95a70c	-0.01826813
74	0x3d5f7d19	0.05456266
75	0x3c2d4078	0.010574453
76	0xbd241d9e	-0.040067308
77	0x3c9122ec	0.017716847
78	0xbd636ad5	-0.055521805
79	0x3d3600fa	0.044434525
80	0x3cc7df40	0.024398446
81	0x3d14b2b9	0.036303256
82	0x3ca3315f	0.019921003
83	0xbc64ec2d	-0.013972324
84	0xbd07d55b	-0.033162456
85	0x3d7d15aa	0.06178824
86	0xbc8c4e34	-0.017127134
87	0xbc9858a1	-0.018596949
88	0x3db7256f	0.08942687
89	0xbd301b95	-0.042995054
90	0x3d8806b1	0.06641901
91	0xbd1d6a9e	-0.038431756
92	0x3aa1102c	0.0012288145
93	0xbdb7fa82	-0.089833274
94	0xbc8aa70f	-0.016925363
95	0x3b944fd9	0.00452612
96	0x3d9aa961	0.07551838
97	0xbc625ae8	-0.013815619
98	0x3cf6e390	0.030137807
99	0x3cc3f5ac	0.023920856
100	0xbce04e2c	-0.027381025
101	0xbdbe7399	-0.09299392
102	0xbda6b58f	-0.08140098
103	0xbd341549	-0.04396561
104	0xbd369d73	-0.04458375
105	0xbda48e9d	-0.08035014
106	0xbccfe863	-0.025379365
107	0xbd5d3a31	-0.054010574
108	0x3d04c435	0.03241368
109	0xbda0a5b0	-0.078441024
110	0xbdb32272	-0.08746804
111	0xbd1b6538	-0.037938327
112	0xbca32b43	-0.01991809
113	0xbdac89ae	-0.08424698
114	0xbb8a8d15	-0.004228244
115	0xbce14c8e	-0.027502324
116	0x3d4594ba	0.04823754
117	0xbcace41b	-0.021104863
118	0x3d32e462	0.043674834
119	0xbd8156f3	-0.06315412
120	0x3d906345	0.07050184
121	0x3d8e01ea	0.06933959
122	0xbd2c1abb	-0.04201768
123	0xbdab1e03	-0.08355334
124	0x3d3bf853	0.045891117
125	0x3c794dac	0.015216272
126	0x3cbf7853	0.023372805
127	0x3cb9d91a	0.02268653
128	0xbdad55fa	-0.08463664
129	0x3d240cd3	0.040051293
130	0xbd37af40	-0.044844866
131	0x3d9b0212	0.07568754
132	0xbd3119ce	-0.0432375
133	0xbd230a0c	-0.039804503
134	0x3d4648fa	0.04840944
135	0x3bc86ec9	0.0061167222
136	0xbdd65a66	-0.10466461
137	0xbc9f5057	-0.019447489
138	0xbe0bc77b	-0.13650315
139	0xbdba0caa	-0.09084447
140	0xbd3aaf01	-0.045577053
141	0xbd5f1d96	-0.054471575
142	0xbcbd170e	-0.023082282
143	0xbda7b14f	-0.08188116
144	0x3d8ff473	0.07029047
145	0x3cb5bff0	0.02218625
146	0x3d4949f2	0.049142785
147	0x3d0920e9	0.03347865
148	0xbcbb61e0	-0.022873819
149	0xbcfde18d	-0.03099134
150	0xbc823b88	-0.015897527
151	0xbd909843	-0.070602916
152	0xbd7f86e7	-0.062384512
153	0x3b3fb77f	0.002925366
154	0x3c7d3b77	0.015456072
155	0x3b84f912	0.004058012
156	0x3d03d71d	0.03218757
157	0xbd037e3c	-0.03210281
158	0x3d31aee1	0.04337967
159	0xbd9328ba	-0.07185502
160	0xbd9f17fe	-0.07768248
161	0xbe01f784	-0.12692076
162	0x3c5ca86b	0.013467888
163	0x3d4d6230	0.050142467
164	0xbd0c31e7	-0.034227278
165	0xbded8e33	-0.11599388
166	0xbdb9e759	-0.09077329
167	0x3d71f83f	0.059074637
168	0x3ccb6e84	0.024832971
169	0xbc9a9001	-0.018867495
170	0x3c41aa9f	0.011820464
171	0xbc713c5c	-0.014723863
172	0xbba4ef78	-0.0050334297
173	0xbd0d50d7	-0.034500923
174	0xbd52c1a0	-0.051454186
175	0xbd93ff2f	-0.07226407
176	0x3d6729ac	0.056436226
177	0xbdb94717	-0.090467624
178	0x3da86d20	0.08223939
179	0xbbef5d85	-0.0073048496
180	0x3ca8c785	0.02060295
181	0xbd27bc67	-0.04095116
182	0xbd27793b	-0.0408871
183	0x3d866c4d	0.065636255
184	0xbe11e2ef	-0.14246725
185	0xbd6645c6	-0.056218885
186	0x3c34311a	0.010998035
187	0xbd1d6da1	-0.03843463
188	0xbd3721e1	-0.044710044
189	0xbd8dd464	-0.06925276
190	0x3cc4e946	0.024037015
191	0xbd21de77	-0.0395188
192	0xbd27682a	-0.040870823
193	0xbd151adb	-0.036402564
194	0xbd28dde2	-0.04122723
195	0xbd53cb51	-0.05170757
196	0xbcfa1e27	-0.030531956
197	0xbd62adad	-0.05534141
198	0xbc08829e	-0.008331923
199	0x3b2c0ed5	0.0026253958
200	0xbd35f00c	-0.04441838
201	0xbbb13d2d	-0.005408904
202	0x3d528439	0.05139563
203	0xbd8196fe	-0.063276276
204	0xbd67c5c7	-0.0565851
205	0xbadfa7b4	-0.0017063529
206	0x3d8e0dc8	0.06936222
207	0xbc78e9d2	-0.015192466
208	0xbd3606f4	-0.044440225
209	0xbd215400	-0.03938675
210	0xbda9b888	-0.0828715
211	0xbd9a1cad	-0.07525001
212	0x3dcf5f89	0.10125644
213	0xbd8f4a34	-0.06996575
214	0xbd4c0d70	-0.049817502
215	0xbda04dec	-0.078273624
216	0xbd67e0b5	-0.05661078
217	0xbd79cab4	-0.06098433
218	0xbdb89253	-0.09012284
219	0x3d90bcb1	0.0706724
220	0xbd840325	-0.06445912
221	0xbd55d766	-0.052207373
222	0x3c95b4b9	0.018274652
223	0xbdbf8b0c	-0.09352693
224	0xbd3f7edc	-0.046751842
225	0xbd654d9a	-0.05598221
226	0xbd42e351	-0.047580067
227	0xbc6abe02	-0.014327528
228	0xbb9c2713	-0.0047654
229	0x3d6c5654	0.057699516
230	0xbd006424	-0.0313455
231	0xbc592649	-0.013253757
232	0xbd59c364	-0.053164855
233	0xbd6d0af3	-0.05787177
234	0xbdb13bae	-0.08653961
235	0xbdacef4f	-0.08444082
236	0xbd48fb7f	-0.04906797
237	0x3cf69d06	0.030104171
238	0xbcdb7ac7	-0.026791943
239	0xbd99d821	-0.075119264
240	0xbc717da9	-0.014739432
241	0xbdb0394b	-0.08604678
242	0xbca5e2e7	-0.020249797
243	0x3da7c004	0.08190921
244	0x3d18b02f	0.037277397
245	0xbda78759	-0.081801124
246	0x3d91f2fb	0.07126423
247	0xbd11e866	-0.035622023
248	0xbdb7dbe0	-0.08977485
249	0x3d499345	0.049212713
250	0xbdb2bd03	-0.087274574
251	0xbd200926	-0.039071225
252	0xbd6a7855	-0.057243664
253	0xbc0adb62	-0.0084751565
254	0xbdecb99c	-0.1155884
255	0xbc5ee06c	-0.013603311

fc.2.bias f4 [64]
0	0xbcacde4e	-0.021102097
1	0xbb959768	-0.004565168
2	0xbb2ef14a	-0.0026694112
3	0xbc8cb985	-0.017178306
4	0xbc45cd43	-0.012072864
5	0xbc9b67df	-0.018970428
6	0xbc3cc050	-0.01152046
7	0x3daa2f38	0.083097875
8	0x3cec9273	0.028878426
9	0x3d820989	0.06349475
10	0xbce84669	-0.028353887
11	0xbd22a80d	-0.039711047
12	0xbd64c543	-0.055852186
13	0xbc82aa46	-0.015950333
14	0xbcdd0df7	-0.026984198
15	0x3dfc309e	0.123139605
16	0x3e2b3c53	0.1672223
17	0xbdb6a684	-0.08918479
18	0x3d864aa7	0.065572076
19	0x3d7649bb	0.06012891
20	0xbd9dd14d	-0.077059366
21	0xba9ce7e1	-0.0011970961
22	0xbdbdc488	-0.09266001
23	0xbc6808fb	-0.014162297
24	0xbce08fe5	-0.027412364
25	0x3de2f6df	0.11082243
26	0xbd6f2f5c	-0.058394775
27	0xbd326c84	-0.04356052
28	0xbc9513f3	-0.01819799
29	0x3db069d6	0.086139366
30	0xbd0e83d0	-0.034793675
31	0xbc78ab1f	-0.015177517
32	0x3da5dd5b	0.08098861
33	0xb925352c	-0.00015755434
34	0xbd096223	-0.033540856
35	0x3c963a5c	0.018338375
36	0x3c0399d3	0.00803228
37	0xbd656be4	-0.056011096
38	0xbd3575ca	-0.044301786
39	0xbc8641c3	-0.01638878
40	0x3e2b84fe	0.16749951
41	0xbd02a876	-0.031898938
42	0xbd1feaa2	-0.039042123
43	0x3d84aa27	0.064777665
44	0xbdc5b6e8	-0.09654027
45	0xbcdc8ad1	-0.026921662
46	0xbc45c779	-0.012071484
47	0xbd0a8562	-0.03381861
48	0xbc8e6eae	-0.01738676
49	0xbd0dca1f	-0.034616586
50	0x3e1a1138	0.15045631
51	0xbd1b6879	-0.03794143
52	0x3d003cf7	0.03130814
53	0xbd0e1f29	-0.034697685
54	0xbd1c95c4	-0.038228765
55	0xbcae9d34	-0.021315195
56	0x3c36e1c2	0.011162223
57	0x3dc0c23d	0.09412048
58	0xbd9ea954	-0.077471405
59	0x3e18c467	0.14918672
60	0x3e1df561	0.15425636
61	0xbd8ad985	-0.0677977
62	0xbd79c6b2	-0.060980506
63	0xbd5e8042	-0.054321535

fc.4.weight f4 [1, 64]
0	0xbae2ffc1	-0.0017318652
1	0xb985bd53	-0.00025508794
2	0x3b994673	0.0046775877
3	0xbd01bc52	-0.031673737
4	0x3c74faa7	0.014952338
5	0x3ca83c71	0.020536633
6	0xbdd26f4b	-0.10275134
7	0x3d892da5	0.06698159
8	0x3c96bc94	0.018400468
9	0x3da2966e	0.079388484
10	0xbcadc56d	-0.021212304
11	0xbda4bec0	-0.08044195
12	0xbd114072	-0.03546185
13	0xbda3a95a	-0.079912856
14	0xbd7640b5	-0.060120303
15	0x3dfcc9b1	0.12343157
16	0x3e18c6a5	0.14919527
17	0x3c945561	0.018107118
18	0x3d9faee5	0.0779703
19	0x3d25ad15	0.040448267
20	0xbd8cf5df	-0.06882834
21	0x3b8234f8	0.0039735995
22	0x3d9d3e77	0.0767793
23	0xbd40269c	-0.04691182
24	0xbd924ee1	-0.07143951
25	0x3df5ff63	0.12011602
26	0x3a290027	0.0006446861
27	0xbdd84f8a	-0.10562046
28	0xbda9b4b6	-0.08286421
29	0x3d505785	0.050864715
30	0x3d769cd4	0.060208157
31	0xbd0245d5	-0.03180488
32	0x3d196e09	0.037458453
33	0x3b09ffac	0.0021056933
34	0xbc871aa6	-0.0164922
35	0x3c942fe1	0.018089237
36	0x3b9717cc	0.004610991
37	0xbd9e78d2	-0.077378884
38	0x3d8b6aff	0.06807517
39	0xbdb8c5f9	-0.09022135
40	0x3e1bfb6d	0.1523263
41	0x3d97ef09	0.07418639
42	0xbd157294	-0.036486223
43	0x3d088592	0.033330508
44	0x3d8b4dc0	0.06801939
45	0x3cb88710	0.02252534
46	0x3d241062	0.040054686
47	0xbbd60621	-0.0065314923
48	0x3bf89c3e	0.007586985
49	0xbdc006be	-0.09376286
50	0x3e187429	0.14888062
51	0xbd351f72	-0.04421944
52	0x3d759c31	0.05996341
53	0xbdde5021	-0.10855127
54	0xbd89e64f	-0.06733381
55	0x3cb5331e	0.022119101
56	0x3cf69743	0.030101424
57	0x3d8fc5c7	0.07020145
58	0xbd1703c6	-0.036868833
59	0x3dd47bcd	0.103751756
60	0x3dfd31e8	0.123630345
61	0x3be6a665	0.0070388787
62	0xbd832b9e	-0.06404804
63	0x3d77b737	0.06047746

exp_avg f4 [16, 2, 3, 3]
0	0x36194973	2.284153e-06
1	0x33831909	6.104717e-08
2	0xb4954c88	-2.7809097e-07
3	0xb45597c2	-1.989238e-07
4	0x36ea3c15	6.980738e-06
5	0x36a342b4	4.865544e-06
6	0x343a77a4	1.7366125e-07
7	0x36aa1b3d	5.0695658e-06
8	0x36665024	3.4319319e-06
9	0xb3ce5269	-9.607613e-08
10	0x3401868c	1.2063009e-07
11	0x33fafc61	1.16874396e-07
12	0xb2e84e96	-2.7044091e-08
13	0x349ab9ac	2.881983e-07
14	0x34a0cbc0	2.995057e-07
15	0xb2ae0e62	-2.0262807e-08
16	0x34a00960	2.9809144e-07
17	0x34a9ab9d	3.1603568e-07
18	0x35768b2d	9.184467e-07
19	0x364c6ede	3.0462902e-06
20	0x36c70d68	5.932223e-06
21	0x3419aecc	1.4312826e-07
22	0x368838b5	4.0597174e-06
23	0x353a07e1	6.9301865e-07
24	0x35313013	6.6007595e-07
25	0x368845aa	4.061226e-06
26	0x348d9113	2.6368852e-07
27	0x34e698a0	4.2951888e-07
28	0x34d70ebd	4.0057594e-07
29	0x34c44ef5	3.6565294e-07
30	0x34db0693	4.0796712e-07
31	0x34ba8bf4	3.474703e-07
32	0x34a78ac1	3.120713e-07
33	0x346534cf	2.1346499e-07
34	0x343e9dba	1.775251e-07
35	0x340aa0ea	1.2910792e-07
36	0x3329f514	3.9571276e-08
37	0x330c8aa8	3.2722397e-08
38	0x33d2d552	9.81769e-08
39	0x35d2b9ff	1.5700351e-06
40	0xb2a85254	-1.9595213e-08
41	0x329a43d6	1.7958808e-08
42	0x35a2d1e8	1.2131031e-06
43	0x333b0ffb	4.3553865e-08
44	0x33e7af55	1.07886684e-07
45	0x334b709c	4.736704e-08
46	0x334b709c	4.736704e-08
47	0xb2d53afe	-2.482329e-08
48	0x32ffafe7	2.9765898e-08
49	0x32ffafe7	2.9765898e-08
50	0xb3228ce0	-3.784669e-08
51	0x33011255	3.0051826e-08
52	0x33011255	3.0051826e-08
53	0xb321749b	-3.7591786e-08
54	0x3675b00b	3.6610315e-06
55	0xb5425f1e	-7.2409046e-07
56	0x35192941	5.7056974e-07
57	0x3425381f	1.5387239e-07
58	0xb58e3af4	-1.0596982e-06
59	0x36c4fb67	5.8705223e-06
60	0x32c4fdf4	2.2932888e-08
61	0x35e13bc2	1.6781198e-06
62	0x3400a12d	1.1979564e-07
63	0x33f06d05	1.11957014e-07
64	0x33e5a116	1.0692945e-07
65	0x33ebcb50	1.09800226e-07
66	0x341b7e06	1.4481347e-07
67	0x34178b4e	1.411365e-07
68	0x340a69d1	1.2890747e-07
69	0x33a65563	7.745509e-08
70	0x339e6ff5	7.377813e-08
71	0x33842f10	6.1552896e-08
72	0x34bc7c0d	3.5107988e-07
73	0x361a95e1	2.303503e-06
74	0x3584ddbf	9.899303e-07
75	0x361fb76e	2.3799616e-06
76	0x35c3bf18	1.4584248e-06
77	0xb4b384df	-3.3438025e-07
78	0xb678e602	-3.7088762e-06
79	0xb3709729	-5.6016834e-08
80	0xb480f61c	-2.4020926e-07
81	0x348497c0	2.469733e-07
82	0x3455a33b	1.9896554e-07
83	0x3402ed8f	1.2193617e-07
84	0x34866815	2.5035175e-07
85	0x34594400	2.0234438e-07
86	0x340bf7e2	1.3035563e-07
87	0x34512e1c	1.9481416e-07
88	0x3444ddc6	1.8334603e-07
89	0x342c6793	1.6056428e-07
90	0xb4e860ce	-4.3283802e-07
91	0xb67d7d2a	-3.7772793e-06
92	0xb5100152	-5.36461e-07
93	0xb6c48363	-5.8565506e-06
94	0xb5c5aa64	-1.4727234e-06
95	0xb7068fc6	-8.020497e-06
96	0xb512d1f4	-5.469476e-07
97	0xb40319d9	-1.2209729e-07
98	0x334d4b22	4.7798615e-08
99	0xb48a3e08	-2.5749637e-07
100	0xb4867e7c	-2.5051474e-07
101	0xb43d7f49	-1.7648303e-07
102	0xb4a29dfb	-3.0289797e-07
103	0xb4ae187c	-3.242784e-07
104	0xb48a68cb	-2.578075e-07
105	0xb437b1d6	-1.71079e-07
106	0xb44f5224	-1.930826e-07
107	0xb407d745	-1.265117e-07
108	0x35ecbbf2	1.763807e-06
109	0xb51e0222	-5.886269e-07
110	0x344ebc2f	1.9253706e-07
111	0xb4a2ce21	-3.032483e-07
112	0xb61abed4	-2.3058865e-06
113	0x358d9470	1.054852e-06
114	0xb49d3861	-2.928455e-07
115	0xb6352562	-2.6992861e-06
116	0x30b68ad5	1.3281701e-09
117	0x33004c69	2.9871817e-08
118	0x31e85767	6.762025e-09
119	0x327380bd	1.4173733e-08
120	0x32920313	1.6998035e-08
121	0x30baf3c7	1.3602567e-09
122	0x32496114	1.1721813e-08
123	0x33ca2677	9.413355e-08
124	0x33a96e6b	7.889761e-08
125	0x33b9a470	8.644645e-08
126	0x34d06e13	3.882311e-07
127	0x324ad40e	1.1806163e-08
128	0x3626b1a6	2.4839333e-06
129	0xb538c607	-6.883351e-07
130	0x3551c2e6	7.814218e-07
131	0x3108a47a	1.9884099e-09
132	0x345223ce	1.95708e-07
133	0x35cd938a	1.531663e-06
134	0x35db6453	1.634597e-06
135	0x33ebc40d	1.0978702e-07
136	0xb25e17cf	-1.2927514e-08
137	0xb233a949	-1.0457662e-08
138	0x33ed585c	1.1052245e-07
139	0xb28a64e6	-1.6111198e-08
140	0xb26a5b30	-1.3641326e-08
141	0x3427fed6	1.5645796e-07
142	0x3314cf83	3.4647666e-08
143	0x3322c45c	3.7897152e-08
144	0x353d8802	7.0605904e-07
145	0xb62059d9	-2.3894156e-06
146	0xb480c9be	-2.3988645e-07
147	0xb56ecdcf	-8.89614e-07
148	0x3392b37b	6.831302e-08
149	0xb39562ff	-6.9563605e-08
150	0x354a23bf	7.530288e-07
151	0x35835bf3	9.787021e-07
152	0xb5d3cd66	-1.5780504e-06
153	0xb3747492	-5.6916697e-08
154	0xb3d9ae40	-1.0136546e-07
155	0x341ab21c	1.4407163e-07
156	0xb402d25f	-1.2183726e-07
157	0xb4352870	-1.687165e-07
158	0x33c68033	9.243413e-08
159	0xb3bfb6e9	-8.927402e-08
160	0xb40262ef	-1.2143185e-07
161	0x34009ddf	1.1978362e-07
162	0xb2b2bf3f	-2.0808896e-08
163	0x3448ec97	1.8712522e-07
164	0xb58101d0	-9.611776e-07
165	0xb629a76e	-2.528042e-06
166	0x3456e1d4	2.0012459e-07
167	0xb4951b2c	-2.7773183e-07
168	0x35b7fcd7	1.3708149e-06
169	0x33853b09	6.2040336e-08
170	0xb38f09ba	-6.660726e-08
171	0xb3ff2653	-1.1881334e-07
172	0xb3a1e7ce	-7.539312e-08
173	0xb3505444	-4.8505413e-08
174	0xb3ea9f35	-1.0925434e-07
175	0xb3877cb5	-6.3091115e-08
176	0xb318236b	-3.542247e-08
177	0xb408af03	-1.2729656e-07
178	0xb3cad09b	-9.444303e-08
179	0xb36e8561	-5.5535e-08
180	0x34757acb	2.2862075e-07
181	0xb5624da6	-8.4304554e-07
182	0x35962119	1.1185504e-06
183	0x36a1ff4b	4.827894e-06
184	0xb3896454	-6.397809e-08
185	0x359e97ca	1.1816094e-06
186	0xb5a09182	-1.1963277e-06
187	0x3681a66b	3.863873e-06
188	0x36713001	3.593974e-06
189	0x32ba8081	2.1711687e-08
190	0x335b60c0	5.1077905e-08
191	0x3384f19e	6.190679e-08
192	0x336baea0	5.487402e-08
193	0x33b4e794	8.424027e-08
194	0x33caab5b	9.4375274e-08
195	0x33709ea0	5.6023623e-08
196	0x33803ba7	5.971315e-08
197	0x3367146f	5.3802463e-08
198	0xb0cc855a	-1.4880854e-09
199	0xb2d68da3	-2.4977288e-08
200	0x308bc184	1.0168582e-09
201	0xb69e424a	-4.716484e-06
202	0x34098caa	1.2810293e-07
203	0xb42cf9f3	-1.6109679e-07
204	0xb1e8a9d9	-6.771398e-09
205	0x3183998c	3.830058e-09
206	0xb26b38c0	-1.3691704e-08
207	0xb0c16424	-1.407106e-09
208	0xb0c16424	-1.407106e-09
209	0x3067d4ef	8.433991e-10
210	0xb115b7da	-2.1786861e-09
211	0xb115b7da	-2.1786861e-09
212	0x2f5fb92b	2.0347517e-10
213	0xb14fd49f	-3.0243326e-09
214	0xb14fd49f	-3.0243326e-09
215	0xb02fe5cf	-6.3991207e-10
216	0x333d1cde	4.4031246e-08
217	0x34eba00a	4.3888605e-07
218	0x36081854	2.027974e-06
219	0xb4085157	-1.2695578e-07
220	0x3639cb35	2.768543e-06
221	0x3202f4eb	7.622684e-09
222	0x341669d0	1.4008333e-07
223	0x35d82155	1.6102955e-06
224	0x363d35a8	2.8194427e-06
225	0x340c07ad	1.3041308e-07
226	0x3439c46d	1.7300927e-07
227	0x346cee4e	2.2065908e-07
228	0x34082869	1.2680688e-07
229	0x3435895d	1.6906911e-07
230	0x346cd482	2.2056523e-07
231	0x33ce681e	9.611561e-08
232	0x3412600c	1.3632251e-07
233	0x34037729	1.2243676e-07
234	0x33166b68	3.5022282e-08
235	0xb3c7ac1c	-9.297966e-08
236	0xb24e7b73	-1.2018847e-08
237	0xb33382ac	-4.179553e-08
238	0x3498b6a2	2.844509e-07
239	0xb499867d	-2.8596324e-07
240	0xb241b7ef	-1.12759e-08
241	0xb5d09858	-1.5541546e-06
242	0xb39d299e	-7.318452e-08
243	0xb3a70ddf	-7.7790666e-08
244	0xb35ec77f	-5.1869844e-08
245	0xb35ec77e	-5.186984e-08
246	0x32a148e1	1.8776008e-08
247	0x33bca910	8.7851845e-08
248	0x33c99175	9.38625e-08
249	0x32a5fb5b	1.9322831e-08
250	0x33c1748a	9.008461e-08
251	0x33ce5cf2	9.609529e-08
252	0x35d2528c	1.5670244e-06
253	0x35ad89d2	1.2929615e-06
254	0x36625a5c	3.372922e-06
255	0xb50bb8d4	-5.2050495e-07

exp_avg_sq f4 [16, 2, 3, 3]
0	0x2e8be577	6.361749e-11
1	0x2dab7261	1.9491244e-11
2	0x2ee190ed	1.02575594e-10
3	0x2fc46d49	3.5729844e-10
4	0x3209be9c	8.017789e-09
5	0x319ea632	4.6172994e-09
6	0x2f8e4ca1	2.5884098e-10
7	0x3161caab	3.2857013e-09
8	0x31eb02c3	6.839714e-09
9	0x2e202279	3.6410406e-11
10	0x2eb88153	8.390324e-11
11	0x2ebe3101	8.6489045e-11
12	0x2e790859	5.662346e-11
13	0x2f094c03	1.2487082e-10
14	0x2f0c7f67	1.2778188e-10
15	0x2e6ba781	5.3581587e-11
16	0x2f01b57f	1.1796962e-10
17	0x2f03df5a	1.1993731e-10
18	0x310a36e7	2.0112851e-09
19	0x30bf2494	1.3907475e-09
20	0x318cbc2a	4.095928e-09
21	0x2fc929cc	3.6591385e-10
22	0x30521215	7.642325e-10
23	0x2fe6f814	4.2013026e-10
24	0x2ea7ba49	7.6273717e-11
25	0x30b020e5	1.2815035e-09
26	0x2f2a80c7	1.5507161e-10
27	0x2e89dc0f	6.269129e-11
28	0x2e9f96ba	7.257257e-11
29	0x2e9018dc	6.552778e-11
30	0x2e8e194e	6.4619074e-11
31	0x2ea7e19c	7.634357e-11
32	0x2e9a5849	7.018792e-11
33	0x2e73828e	5.536776e-11
34	0x2e8fddac	6.542264e-11
35	0x2e84d54b	6.0405535e-11
36	0x2e70ff20	5.479628e-11
37	0x2bd2852b	1.4958359e-12
38	0x2e3b8786	4.2639246e-11
39	0x31958156	4.3511745e-09
40	0x2fca95e3	3.6850087e-10
41	0x2e2324d2	3.7094612e-11
42	0x3109f490	2.0075142e-09
43	0x2fce4b77	3.7524803e-10
44	0x2da9e59c	1.9315043e-11
45	0x2db2f85e	2.0346554e-11
46	0x2db2f85d	2.0346553e-11
47	0x2da9064f	1.9215877e-11
48	0x2e49b410	4.5862036e-11
49	0x2e49b40f	4.5862033e-11
50	0x2e468c19	4.514442e-11
51	0x2e47548e	4.532246e-11
52	0x2e47548e	4.532246e-11
53	0x2e4435c9	4.461301e-11
54	0x2fc7681b	3.627186e-10
55	0x2f64fa0e	2.0825316e-10
56	0x2eb8c8bb	8.403008e-11
57	0x2e5210c2	4.7763356e-11
58	0x315eaf3a	3.2404857e-09
59	0x300b34c4	5.064289e-10
60	0x2c8b9317	3.966948e-12
61	0x2de13ed7	2.5607445e-11
62	0x2e6246cc	5.144933e-11
63	0x2d032f05	7.456928e-12
64	0x2d4beac5	1.1591343e-11
65	0x2d5cf85b	1.2560698e-11
66	0x2d0f1ca8	8.134972e-12
67	0x2d5e08ca	1.26211906e-11
68	0x2d892d64	1.5595254e-11
69	0x2ca4c60c	4.683148e-12
70	0x2d0c7c24	7.985643e-12
71	0x2d261074	9.439661e-12
72	0x2f0026bf	1.1655298e-10
73	0x30c85ffc	1.4579196e-09
74	0x2fa2fd69	2.9647687e-10
75	0x30ab8edc	1.2482491e-09
76	0x30527dfb	7.6576584e-10
77	0x30da1edd	1.587036e-09
78	0x3103fe48	1.920755e-09
79	0x2d66bdb3	1.3116108e-11
80	0x2d04c968	7.5480525e-12
81	0x2e1660d7	3.4192062e-11
82	0x2e4fcf7b	4.725063e-11
83	0x2e166a25	3.4200327e-11
84	0x2e114e1d	3.303856e-11
85	0x2e496e96	4.580033e-11
86	0x2e112d95	3.3009668e-11
87	0x2dd41979	2.4112922e-11
88	0x2e05ef19	3.045306e-11
89	0x2dc4587e	2.2321919e-11
90	0x2ff33b5f	4.4243628e-10
91	0x30c5bb1f	1.438682e-09
92	0x2f8cfe86	2.5646701e-10
93	0x3169d6ca	3.4028056e-09
94	0x312f3e12	2.5501135e-09
95	0x321a890e	8.995142e-09
96	0x2f82cc61	2.3792082e-10
97	0x2d4abcd4	1.1524299e-11
98	0x2e0496c6	3.014724e-11
99	0x2e8f7213	6.523151e-11
100	0x2e919905	6.621018e-11
101	0x2e7e6d86	5.785019e-11
102	0x2e920e0d	6.641807e-11
103	0x2e968781	6.8452806e-11
104	0x2e85a850	6.078038e-11
105	0x2e87e3ae	6.179533e-11
106	0x2e87ae89	6.170093e-11
107	0x2e43d8e4	4.4530504e-11
108	0x318c868c	4.0898325e-09
109	0x3118652c	2.217642e-09
110	0x309a47dc	1.1225398e-09
111	0x3015b2e5	5.446011e-10
112	0x324229bd	1.1301776e-08
113	0x320aa87f	8.070969e-09
114	0x2d6f43aa	1.36006015e-11
115	0x302fdc13	6.3977373e-10
116	0x2cc923f3	5.7167548e-12
117	0x2eb25f59	8.11144e-11
118	0x2ed61873	9.7359364e-11
119	0x2e8c9f58	6.394768e-11
120	0x2ed6d284	9.7689884e-11
121	0x2efea353	1.1579595e-10
122	0x2ea84ec9	7.6537506e-11
123	0x2e52a511	4.789508e-11
124	0x2e8e2122	6.463298e-11
125	0x2e2479c1	3.7397422e-11
126	0x2fe4bbf0	4.1606496e-10
127	0x309724b0	1.0997123e-09
128	0x3102368f	1.8948503e-09
129	0x314fea31	3.0255587e-09
130	0x2ffd652a	4.6092313e-10
131	0x2f167f96	1.3687748e-10
132	0x2d1ede71	9.030652e-12
133	0x319fc7c9	4.650222e-09
134	0x313d88a0	2.7580782e-09
135	0x2e11e7ed	3.3175174e-11
136	0x2e5fab4a	5.0856465e-11
137	0x2e4dba02	4.677681e-11
138	0x2e10876d	3.286209e-11
139	0x2e5e3442	5.052337e-11
140	0x2e4c2542	4.641732e-11
141	0x2deeede8	2.7163119e-11
142	0x2e59d6a4	4.9530727e-11
143	0x2e4e6741	4.6930685e-11
144	0x30366018	6.634777e-10
145	0x311e90d4	2.3074351e-09
146	0x2e9cd88d	7.132526e-11
147	0x30f70303	1.7972471e-09
148	0x3051f479	7.6381174e-10
149	0x2e40522f	4.372874e-11
150	0x2f64b7d1	2.0801784e-10
151	0x31ec43a4	6.876194e-09
152	0x305f8abf	8.13241e-10
153	0x2ece33ff	9.377032e-11
154	0x2eba4f91	8.4724346e-11
155	0x2e0e475d	3.2350445e-11
156	0x2ed713fa	9.7806166e-11
157	0x2ec5b6d1	8.9909975e-11
158	0x2e278b0e	3.809491e-11
159	0x2ed3d552	9.6330624e-11
160	0x2ec5e556	8.999261e-11
161	0x2e3844ba	4.1897798e-11
162	0x2d1742d5	8.598196e-12
163	0x2f9d0269	2.8559846e-10
164	0x307d45c5	9.214001e-10
165	0x31e629a4	6.698615e-09
166	0x2fc4f29d	3.582458e-10
167	0x2f93800d	2.683013e-10
168	0x3197f58f	4.422595e-09
169	0x2ec98b0a	9.16512e-11
170	0x30342c53	6.5546607e-10
171	0x2f837153	2.3909283e-10
172	0x2f8ab94a	2.523371e-10
173	0x2f75fad3	2.2371731e-10
174	0x2f92669b	2.663015e-10
175	0x2f993ced	2.7873828e-10
176	0x2f872065	2.4579375e-10
177	0x2f9603c5	2.728752e-10
178	0x2f9e354f	2.877791e-10
179	0x2f8bafa3	2.540875e-10
180	0x30e089f1	1.633735e-09
181	0x3117c6b3	2.208634e-09
182	0x3002ec4c	4.762952e-10
183	0x3252b304	1.2264312e-08
184	0x30e39667	1.6559171e-09
185	0x308baccd	1.0162694e-09
186	0x2f6f83cb	2.1783746e-10
187	0x30a04f68	1.1664101e-09
188	0x30d21824	1.5286372e-09
189	0x2e74a9df	5.5630053e-11
190	0x2e662fca	5.233839e-11
191	0x2e1ce549	3.567394e-11
192	0x2e7d853e	5.7643883e-11
193	0x2e650e01	5.208101e-11
194	0x2e1bebd8	3.545239e-11
195	0x2dc6fa46	2.2621138e-11
196	0x2de1b7ba	2.566113e-11
197	0x2dcac465	2.3051958e-11
198	0x2c90c08e	4.114104e-12
199	0x2d0f4b82	8.145375e-12
200	0x2bd70d49	1.5280356e-12
201	0x30a5ab2f	1.2053983e-09
202	0x2e6c1d0a	5.368598e-11
203	0x2bb9afa7	1.3193794e-12
204	0x2b3f41e1	6.7948257e-13
205	0x2b69aa35	8.301444e-13
206	0x2cca2d06	5.746184e-12
207	0x2c7964c4	3.5440964e-12
208	0x2c7964c4	3.5440964e-12
209	0x2c7065ff	3.416267e-12
210	0x2c989c81	4.3374753e-12
211	0x2c989c81	4.3374753e-12
212	0x2c93a2a0	4.1960463e-12
213	0x2c2dd17d	2.4701068e-12
214	0x2c2dd17d	2.4701068e-12
215	0x2c1c54ec	2.2216074e-12
216	0x2eb1aa81	8.079316e-11
217	0x30871181	9.827518e-10
218	0x30cad997	1.4759277e-09
219	0x2f011f56	1.1743614e-10
220	0x309cebb7	1.1417488e-09
221	0x2e1e1742	3.5945698e-11
222	0x2f39f00a	1.6910931e-10
223	0x2f3ad547	1.6992373e-10
224	0x30099fb7	5.006728e-10
225	0x2d5b7d1a	1.2476487e-11
226	0x2d85d95f	1.5216882e-11
227	0x2d8d7b9f	1.6084743e-11
228	0x2d5cacb6	1.2543902e-11
229	0x2d82519c	1.481553e-11
230	0x2d882c1b	1.5480997e-11
231	0x2d37e359	1.0452827e-11
232	0x2d440547	1.1142482e-11
233	0x2d3bda69	1.0678216e-11
234	0x2ed922ce	9.8742e-11
235	0x2e6b0729	5.3439173e-11
236	0x2e22ca92	3.7014454e-11
237	0x2da59422	1.8824112e-11
238	0x2f42292a	1.7658822e-10
239	0x318244df	3.7913277e-09
240	0x301f6539	5.798771e-10
241	0x2eb98d3d	8.437915e-11
242	0x2e066b35	3.056329e-11
243	0x2d884c6a	1.5495345e-11
244	0x2d90c59e	1.6458664e-11
245	0x2d9b01b9	1.7622225e-11
246	0x2df3e2ff	2.7726708e-11
247	0x2e010f5d	2.934485e-11
248	0x2e040cb7	3.0024618e-11
249	0x2dd1a7fa	2.3835146e-11
250	0x2ddbb38e	2.4977156e-11
251	0x2de14a78	2.561261e-11
252	0x30059bd6	4.8606574e-10
253	0x3058f1e6	7.89241e-10
254	0x311a64cb	2.2467244e-09
255	0x313a575b	2.7116218e-09
