output/blue/images/epoch_78.pt (torch, 369546 bytes, 27 tensors)

conv.0.weight f4 [16, 2, 3, 3]
000000 38 f3 93 be f8 3f 81 be 24 51 c7 bd e4 41 20 be
       -0.288965 -0.25244117 -0.09732273 -0.15650135
000010 d3 62 d4 3d 00 16 c7 3d 04 b4 ae be 75 ec 07 ba
       0.10370412 0.09720993 -0.34121716 -0.0005185076
000020 bb b8 9e 3d f2 11 91 bd 2e 36 06 be 19 32 b5 bb
       0.07750078 -0.07083501 -0.13106605 -0.0055296537
000030 7b 87 84 be 6f ba 93 be c8 48 c6 3d 2d 37 80 be
       -0.25884613 -0.28853175 0.09681851 -0.25042096
000040 74 44 87 bd d9 be 5d 3d 47 fe e4 3d 06 6c ac 3d
       -0.06604853 0.054137085 0.11181312 0.08419041
000050 0f ec 52 3e 71 75 83 bd 48 b1 8c bd 16 db 98 bd
       0.20597862 -0.064188845 -0.06869751 -0.07463662
000060 87 52 94 be 88 ca b9 3a 03 63 e1 bd 0f 34 10 3e
       -0.28969213 0.0014174739 -0.11005213 0.14082359
000070 bd e5 0d be ec bc a6 be bf c5 f8 bd 3f 21 61 be
       -0.1385717 -0.3256601 -0.12147092 -0.21985339
000080 f0 6b 16 be 2f e1 20 3e ca 53 bd 3b 30 52 0c 3e
       -0.14689612 0.157109 0.0057778107 0.13703227
000090 72 5a ad bd 65 0b 92 be 8d 79 c2 bd 9a d9 9e 3d
       -0.08464517 -0.28524318 -0.0949584 0.07756348
0000a0 8c fe 0c be af c9 62 be 10 33 f9 3d 5f 90 a4 bd
       -0.13768977 -0.22147249 0.121679425 -0.08035349
0000b0 54 99 04 be 07 2c f9 bd 84 99 55 be d6 99 8a 3d
       -0.12949115 -0.12166601 -0.20859343 0.06767623
0000c0 2d ef b6 bb ab a8 79 3d bc 33 09 be 37 b4 8e 3d
       -0.005582711 0.06095187 -0.13398641 0.06967967
0000d0 e2 8c f0 bc f0 ce af bb dc 5c cc 3d ef 9c 8b bd
       -0.029364053 -0.005365245 0.09978649 -0.06817042
0000e0 ac e7 5b be 02 b9 14 be 76 b6 1d 3e 0f bf a5 bc
       -0.21475095 -0.145237 0.15401635 -0.020232705
0000f0 c6 06 85 be 47 ae 0f be e8 a9 00 be 87 7c 99 be
       -0.2598173 -0.14031325 -0.12564814 -0.2997782
000100 aa 46 9a be 37 fe 9a 3d eb 93 19 be 11 f6 89 be
       -0.30132037 0.07568019 -0.14997832 -0.26945546
000110 22 85 08 be 67 98 00 3e f4 0c 73 bc 5e 5b 8a be
       -0.13332036 0.12558137 -0.014834631 -0.27022833
000120 7f f3 34 be 1c 44 49 3d b4 a0 a9 bc 90 a2 4e 3d
       -0.17671011 0.04913722 -0.020706512 0.050448
000130 49 ae bb ba 9d 58 0e 3d 93 b6 63 3d 8c 0b 33 be
       -0.0014318909 0.034752477 0.05559404 -0.17484874
000140 a9 5d 86 be b4 33 0d 3e a9 39 3c be 4b ce 5f bc
       -0.26243332 0.13789254 -0.1838137 -0.013660024
000150 87 25 8b be f7 a6 4c 3d 56 a9 83 be 7c 4c e5 3b
       -0.2717707 0.049963918 -0.2571513 0.006997643
000160 f7 b1 52 be 33 55 bb 3d 40 ae 34 be b0 b7 a1 bd
       -0.205757 0.0914711 -0.17644596 -0.07896364
000170 99 23 66 be 39 9a 9c 3d 2c c4 35 bc 25 df 11 3e
       -0.22474517 0.07646603 -0.011094134 0.14245279
000180 dc 25 06 be 67 70 a8 be 9b cf 89 be a9 f4 ea bc
       -0.1310038 -0.32898256 -0.26916203 -0.028681116
000190 c5 bb 14 3e 46 98 77 be f0 ab 20 be 5f 94 17 be
       0.14524753 -0.24179181 -0.15690589 -0.14802693
0001a0 3f 04 01 3d c4 c5 1e 3e 31 99 89 be 65 e4 6b bd
       0.03149819 0.15505129 -0.26874688 -0.05759086
0001b0 fe 77 37 3d 9b 52 19 bd 51 25 f5 bd 4b b2 51 be
       0.044792168 -0.037432294 -0.11970008 -0.2047817
0001c0 25 c8 83 3d 0a 59 5b 3d 5b fa 90 be a7 27 0f bc
       0.06434659 0.05355171 -0.28316006 -0.008737481
0001d0 ef 8d 81 be 5e 4c 40 be 50 c5 a6 3b 48 24 0a 3d
       -0.253036 -0.18779132 0.0050894395 0.033726007
0001e0 fb 46 10 3e 8b 66 8e be d1 58 5f be 5c 57 ca 3d
       0.14089577 -0.2781261 -0.21811225 0.09879944
0001f0 ba d3 94 be 00 c4 1f be 0d 39 07 bd bb 9e 06 bc
       -0.29067785 -0.15602112 -0.033013392 -0.008216555
000200 9e 88 7c 3d 76 5d 31 3d de 43 92 bd dd 51 18 be
       0.061653726 0.043302022 -0.07141851 -0.14874978
000210 ae 77 69 be dc 7e 50 3c 25 98 84 bb f8 ec 67 bd
       -0.2279956 0.012725558 -0.0040464574 -0.056622475
000220 89 9f 30 3e cb 56 e0 3d 83 b0 ec bd fc 38 84 be
       0.17248358 0.109540544 -0.115571044 -0.25824726
000230 07 e6 3e bd 53 4e 54 be f6 48 62 be d7 21 c2 3d
       -0.04660609 -0.20733003 -0.22098145 0.09479111
000240 22 e6 1a bc 3b 8f 68 3d 46 c0 3f be 99 2b ab bc
       -0.009454282 0.05677722 -0.1872569 -0.020894812
000250 b1 ec 86 bd df 7a 76 be 3a 81 34 be 01 c4 f2 3d
       -0.06588114 -0.24070309 -0.17627421 0.11853791
000260 78 77 b7 bd 80 82 0e 3e c5 c9 42 be 30 34 90 bd
       -0.08958334 0.1391697 -0.19022281 -0.07041204
000270 91 70 ae 3d d2 53 0d be a5 73 3a be 0e 80 29 3a
       0.08517564 -0.13801506 -0.18208177 0.000646592
000280 f7 07 06 3e 08 67 65 be 0e c5 5a be 65 16 ac bd
       0.13088976 -0.22402585 -0.21364233 -0.08402709
000290 b6 ae 5a bc 89 c2 bd 3d 0e d7 e4 bd b2 84 43 be
       -0.013347318 0.0926562 -0.11173831 -0.19093588
0002a0 63 17 1c 3d 22 77 29 be 2a 49 8e bd 9b 9b 05 be
       0.03810824 -0.16549352 -0.06947549 -0.1304764
0002b0 27 8f d2 bc 33 dd 0b 3e 11 cf 50 bd 54 85 63 3d
       -0.025703026 0.136586 -0.050978724 0.055547073
0002c0 62 7a e5 3d 8b 99 0f 3e bb 67 4f bd 32 47 94 3d
       0.11204983 0.14023416 -0.050636034 0.07240142
0002d0 01 03 d7 3c 4e 45 e2 3d 95 89 03 be 22 15 15 3e
       0.02624655 0.11048375 -0.12845452 0.14558843
0002e0 13 1c 90 bd 06 d0 11 be b1 dd f9 bd ed 7b a6 bd
       -0.07036605 -0.14239511 -0.122004874 -0.08129106
0002f0 fe c1 10 bd 2f 2b 58 bd bc a8 1d 3e 19 a9 fc 3d
       -0.035341255 -0.052775558 0.15396398 0.1233694
000300 7c d2 d2 3c 8e e7 4b be 6d dd 30 3e 52 07 43 be
       0.025735132 -0.1991255 0.17271967 -0.19045761
000310 19 07 c5 bd a6 04 04 bd 0c 29 0b be 38 ca e6 bd
       -0.096204944 -0.032230996 -0.13589877 -0.11269039
000320 b3 66 3c be 25 93 84 3d 25 f6 43 bc 5a c5 25 be
       -0.18398552 0.06473378 -0.011960541 -0.16188565
000330 fe 0d 0c be 66 13 73 be 13 df bd bd 62 f7 42 bd
       -0.13677213 -0.23737869 -0.09271064 -0.047599204
000340 e9 e9 00 be 9b 52 8f be bb 87 f9 3d 59 59 82 be
       -0.1258923 -0.2799271 0.12184092 -0.25458792
000350 aa 24 1f 3c bc 9d 11 be 78 1d a0 be 73 3b 67 bd
       0.009713331 -0.14220327 -0.31272483 -0.05645318
000360 e1 35 44 be 3d bd 86 3d 41 12 32 3e cc 0f 57 be
       -0.19161178 0.06579063 0.17389776 -0.2100212
000370 c9 5c a9 3d ce 45 85 be d7 51 d5 bd 51 5d dc bd
       0.082696505 -0.2602982 -0.10416 -0.10759986
000380 95 57 00 3c a4 94 71 be 44 b1 b6 bd 1f 48 9e 3c
       0.007833381 -0.23591858 -0.089205295 0.0193215
000390 12 d8 45 be d9 72 91 bc f2 a0 25 be 5d f6 94 3d
       -0.19320706 -0.017754959 -0.16174677 0.072735526
0003a0 72 a9 83 3d ba 72 7f 3c df 00 04 be 00 05 32 be
       0.064288035 0.015591318 -0.12890957 -0.1738472
0003b0 c0 8c 87 be 51 27 59 be 8b 52 8d bd 41 44 26 3e
       -0.2647457 -0.21206404 -0.069005094 0.16236974
0003c0 4b 9b 9e bd 47 7f 39 be d9 90 5d be e6 27 2c be
       -0.077444635 -0.18114959 -0.21637286 -0.16812095
0003d0 e9 cd a5 be 7f ce 55 bc 84 fa 17 3d 03 81 d8 3d
       -0.3238366 -0.013049721 0.037104145 0.10571482
0003e0 0a a6 8f be 68 6b 76 bc 53 ba 56 bd 80 3f 9e 3d
       -0.28056365 -0.015040256 -0.052423786 0.077269554
0003f0 48 fc 3f 3c c3 19 93 3a 19 31 1f 3e d9 ae de 3d
       0.011717863 0.0011222888 0.15546073 0.10873193

conv.0.bias f4 [16]
000000 75 e1 61 3d 9f 18 20 3e 54 6c 46 be 00 0f 4e be
       0.055146653 0.15634392 -0.19377261 -0.2012291
000010 37 15 fc bd cb 55 a8 3d 8f 02 98 3c 6e 53 13 3d
       -0.12308734 0.08219489 0.018555908 0.035968237
000020 c2 75 c2 3d 53 ac 35 be 2c 82 76 3d 7d af af bd
       0.09495117 -0.17741518 0.060182735 -0.085783936
000030 15 d0 b2 bd 98 e4 d4 3d 24 49 02 be f7 ce 0d 3e
       -0.08731095 0.10395163 -0.12723213 0.13848482

conv.3.weight f4 [32, 16, 3, 3]
000000 16 3b 37 bd 7a 29 20 bd ff da e5 3b 32 58 2c ba
       -0.044734083 -0.039102055 0.0070146318 -0.00065744214
000010 e5 9c a2 bd 31 8b a3 bd d8 07 1c 3d 54 a3 dc bc
       -0.079400815 -0.07985533 0.038093418 -0.02693335
000020 fb 34 b4 3d f5 95 64 3c ef 13 29 bb 6a c6 c4 bd
       0.08799168 0.013951768 -0.0025799235 -0.09608157
000030 32 c9 74 bb 61 fa cf bd 35 93 c6 bd 76 b6 a9 3c
       -0.0037351367 -0.10155178 -0.09696046 0.020716887
000040 5d fa 31 bc cf 5f 05 3d a7 05 40 bd 0f fe 12 3d
       -0.010862914 0.032562073 -0.04688039 0.03588682
000050 57 59 80 bd 0f 42 11 3c e6 17 8b 3d b4 22 7f bc
       -0.0626704 0.008865847 0.06791668 -0.015572239
000060 bc 2a 64 bd 0b de 8c 3d 13 a2 3f 3d 6b 0c a3 bd
       -0.055704817 0.06878289 0.046785425 -0.07961353
000070 57 8d bb bd c7 7c 0a be 8c 96 d4 3d 4f 50 c4 bb
       -0.09157818 -0.13524161 0.10380277 -0.005991019
000080 3a 46 6e 3d 93 cd 5e 3d b3 a9 7f bd 21 40 50 3a
       0.058172442 0.05439527 -0.062417697 0.0007944126
000090 9c 9c c4 bd db 04 60 ba 28 2a 00 3d f1 9a eb bd
       -0.09600183 -0.00085456454 0.031290203 -0.11504162
0000a0 b5 3b 3f 3d 22 ae e7 3c db 93 c2 bc ae 0f 52 3c
       0.0466878 0.028281275 -0.023752144 0.012821121
0000b0 f1 51 14 3d df 5f 26 3d 6e e0 2f bc 58 cf 51 bd
       0.036210958 0.040618774 -0.010734661 -0.05122313
0000c0 57 25 f5 bd 06 cc 2a bd 45 fc 11 3d 25 7d 94 3c
       -0.11970013 -0.04169848 0.035640974 0.01812608
0000d0 a4 4e bf bd 02 cd 59 3d 17 d7 0c bd ee 68 e6 bd
       -0.093411714 0.053174026 -0.034384813 -0.112504825
0000e0 c3 a3 58 3c 45 35 94 bd ad 00 17 3c 3f 58 83 bc
       0.013222638 -0.07236723 0.00921647 -0.01603329
0000f0 ad b0 7e bd 38 04 da 3c 97 f4 75 bc 6e 65 b8 3b
       -0.06218021 0.02661334 -0.015011928 0.0056273257
000100 0d 40 b6 bb b8 45 6d 3d 8c 19 82 bc 8c 33 a1 3c
       -0.0055618347 0.057927817 -0.015881322 0.0196779
000110 2a 91 b5 bd ac 32 34 3c ac 49 6d 3c 72 bd 68 3d
       -0.088655785 0.010998409 0.014482897 0.056821294
000120 ac db 94 bd a1 33 1a bc 35 c4 52 bd 03 73 b4 3c
       -0.072684616 -0.009411723 -0.05145665 0.022027498
000130 54 93 a9 ba 3a ad 1b 3d 6c 00 b1 bd 94 62 94 bd
       -0.0012937584 0.038007 -0.086426586 -0.07245365
000140 cd 67 31 3d 18 6d b5 bd c8 e4 64 bd 92 ac 9b bd
       0.043311883 -0.088586986 -0.055882245 -0.076012745
000150 61 31 f8 bb fa 9f 34 bd 70 e8 2c 3d 4f be b7 3c
       -0.007574246 -0.044097878 0.042213857 0.022429613
000160 33 ea af bd 72 c5 5a 3d 7d 57 41 bd 7e 5d bd bd
       -0.08589592 0.053410955 -0.047202576 -0.09246348
000170 fa 7a e8 3c 66 f3 e7 bd 02 c4 b6 bd 07 de d2 bd
       0.028378952 -0.113257214 -0.08924104 -0.102962546
000180 2f f4 83 3d dc 87 ad bd 89 c7 af bc 98 4c c8 bd
       0.06443059 -0.08473179 -0.02145745 -0.09780234
000190 e5 c8 5b ba 6b 42 e7 bd 02 61 c7 bd c8 05 3b bd
       -0.00083841226 -0.11291965 -0.097353 -0.04565981
0001a0 f1 4a 82 bc 09 ac eb bd f1 7d 86 bc f4 ce 55 3c
       -0.015904875 -0.115074225 -0.016417475 0.01304983
0001b0 70 af 55 3d e4 70 6e 3c a2 51 c1 bd e4 08 3d 3d
       0.052169263 0.014553282 -0.09439398 0.046151057
0001c0 f8 98 94 bd ad b0 d4 bd 13 68 39 bd a7 1e 89 3c
       -0.07255739 -0.10385261 -0.04526527 0.016738249
0001d0 d8 d5 c2 bc 51 64 8b bc 5c e4 c0 bd f8 50 5f 3d
       -0.02378361 -0.017015608 -0.09418556 0.054520577
0001e0 fc bb da 3c 8f 60 23 3d 9e 54 c1 bc 1c e4 ad bc
       0.026700966 0.039887007 -0.023599919 -0.021226935
0001f0 9d 3d 27 bd 0a 0a f3 3c ac 2b 21 bb 86 50 60 bc
       -0.040830243 0.029667873 -0.002459268 -0.013691073
000200 3a a8 20 bd 42 97 4f bd b0 d0 b7 3c ad 77 b7 3c
       -0.039222933 -0.05068136 0.022438377 0.022395933
000210 8b f7 28 3c d1 e9 dc bd b8 e1 36 3b c5 71 da bd
       0.010312925 -0.107867844 0.0027905535 -0.10666231
000220 9e f8 06 bc c4 ce 67 3d 44 76 a8 bc a7 1e e0 bc
       -0.008237986 0.05659367 -0.020564206 -0.027358366
000230 10 8d b2 bc 90 6a 46 bd a7 bd e1 bb 0f 26 89 bd
       -0.02179578 -0.04844147 -0.0068890634 -0.06696712
000240 9a 7c 8e bc 29 5b 8f bd 79 d1 65 bc 11 64 90 bd
       -0.017393399 -0.06999809 -0.014026993 -0.07050336
000250 e8 f5 78 3d 18 74 a9 bc c0 2e d3 bd 79 fb ad bc
       0.06078139 -0.02068524 -0.10311651 -0.021238076
000260 f2 65 20 3b 26 5a 45 bd 07 de ad 3c 8c 9e a3 bd
       0.0024474827 -0.048181675 0.021224035 -0.07989225
000270 15 0d f0 bd a2 7f 9b 3c 25 62 cd bd 1b fc cd bd
       -0.11721245 0.018981759 -0.10028485 -0.10057851
000280 e7 a1 7c bd ea 32 d7 bc 03 b9 64 3b a2 36 bb bd
       -0.06167784 -0.026269395 0.0034900315 -0.0914128
000290 b4 d6 36 3c 6c bd a2 bd c7 5d f4 b9 9c 98 3c bc
       0.011159588 -0.079462856 -0.00046609176 -0.011510994
0002a0 de e1 a9 bd 53 b6 12 be 69 bc ac bd 2e da d2 bd
       -0.08295034 -0.14327364 -0.08434374 -0.10295521
0002b0 fc 10 47 bc a4 60 c5 bd 10 0d 98 bd fb b4 83 bd
       -0.0121500455 -0.09637573 -0.074243665 -0.06431004
0002c0 4f 81 fb bc 51 66 37 bd 92 19 5f bd da 50 81 bb
       -0.030701308 -0.04477531 -0.054467745 -0.003946406
0002d0 08 31 f3 3b 52 b5 2f 3d cf 1b 16 3d 28 ba b1 bd
       0.0074216165 0.04289753 0.036647614 -0.086780846
0002e0 9d 50 ff bb 82 1c ce bc 17 23 9e 3c 3b ec 26 3d
       -0.0077915923 -0.025160078 0.019303842 0.04075263
0002f0 29 c4 8d bd 99 73 1a bd 8b d8 aa bd cb 8a 9f bd
       -0.0692218 -0.0377079 -0.083420835 -0.077901445
000300 ef 43 3b 3c 0d 8e 07 3d c9 b2 98 bd d5 15 45 bd
       0.011429771 0.033094455 -0.074559756 -0.048116524
000310 e0 6a 24 3c c0 98 63 bc ab bd 15 bc f2 7b 37 3d
       0.010035247 -0.013891399 -0.009139459 0.044795938
000320 60 71 48 bd aa 83 a9 bd 1b 52 a5 bd 2b 9c 10 bd
       -0.048936248 -0.08277066 -0.08072301 -0.035305183
000330 19 34 b0 bb db 1b 89 bd e9 2b 8e bd d8 d2 d6 bc
       -0.0053773043 -0.06694766 -0.06941969 -0.026223585
000340 b5 d2 38 3c 00 0b b0 bd 9b ee 8d bd 3d c6 42 bd
       0.011280705 -0.08595848 -0.06930276 -0.047552336
000350 65 b5 bd bd f2 90 8d bc c4 e9 e7 bd c9 2c 98 bd
       -0.09263114 -0.01728103 -0.11323884 -0.07430417
000360 03 c3 88 bd f4 73 38 3d 1b e2 1b 3d dd 3e 77 bd
       -0.066778205 0.045032457 0.038057428 -0.060362685
000370 18 0b 5a bd 83 bb 9e bb fd 00 99 bd bb ae 16 be
       -0.053233236 -0.0048441305 -0.074708916 -0.14715092
000380 c7 da e6 3a f3 db 3b bd ec 6f 52 3d a6 79 34 3c
       0.0017612808 -0.045864057 0.05137627 0.011015331
000390 3f bf 34 bd 56 91 cf bd 9a 02 10 bd 9f 90 99 bc
       -0.0441277 -0.101351425 -0.03515873 -0.018745719
0003a0 e3 ef b4 3b b4 0b 8d bd 9e 64 42 3c 91 ff b5 bd
       0.005521761 -0.06886998 0.011864809 -0.08886636
0003b0 c7 83 dd 3c 21 c3 4b bd 9c 25 34 bd 31 7a 00 bd
       0.027040375 -0.049746636 -0.04398118 -0.03136653
0003c0 31 24 47 be f0 ce f2 bd 79 fe d2 bd 4b 8d 3b 3c
       -0.194474 -0.118558764 -0.10302443 0.011447261
0003d0 b6 99 59 3d 6f 77 92 3d ee e0 11 3d e2 e9 89 bd
       0.053125106 0.071516864 0.0356149 -0.06734063
0003e0 a8 8a d6 3d 19 fc 66 3c 3c 73 41 3d 4f 9d b8 bd
       0.10475665 0.014098191 0.047229037 -0.09014379
0003f0 b7 12 11 3d 49 10 cd bd 2c 85 92 bd d6 55 c3 bd
       0.03541824 -0.10012872 -0.07154307 -0.09537856

conv.3.bias f4 [32]
000000 2a 0b 08 bd 8d aa 6f 3d 0e 09 d6 3c 89 f0 10 3d
       -0.033213772 0.05851226 0.026127364 0.035385642
000010 82 f8 ab bc 35 cd 0f 3d 48 e4 52 bd 77 b5 c2 ba
       -0.020992521 0.03510781 -0.051487237 -0.0014855106
000020 c8 6e a1 bc 1b 15 b8 bd bc 82 41 3c ec 3d 80 bd
       -0.019706145 -0.089884005 0.011810955 -0.06261811
000030 fd 2f 47 bc 6b ae b5 3c 89 39 a0 bb 48 c1 00 3d
       -0.012157437 0.022177896 -0.004889671 0.031434327
000040 be 37 79 bd 41 17 96 3c 5f dd d1 bc 48 94 f8 bc
       -0.060844176 0.018321635 -0.025618253 -0.030344144
000050 bd 37 1a bd 1f 32 c3 3c 44 42 c6 bc 7c 39 6c bd
       -0.037650812 0.02382761 -0.02420152 -0.05767201
000060 6c a1 ad bc 37 48 1b 3c ec fd 49 bd d7 19 ab bc
       -0.021195136 0.009477667 -0.049314424 -0.020886345
000070 aa 17 51 3d 92 86 ab bd 09 68 c7 bd c7 b7 11 bd
       0.05104796 -0.083752766 -0.0973664 -0.035575654

fc.0.weight f4 [128, 128]
000000 69 5f 81 bd c2 18 a9 3c 8b 9c 2a 3d 45 c2 6b bd
       -0.06317026 0.020641688 0.041653197 -0.057558317
000010 3a 0e 9f ba be 22 53 bd e6 f2 da bc 87 f9 b6 bd
       -0.0012134977 -0.051546805 -0.026727151 -0.08934312
000020 4b ed 88 bb fd 5c cd bb 31 aa aa bd fc ca ea 3c
       -0.004178678 -0.0062671886 -0.08333243 0.028661244
000030 27 76 db bd 50 64 64 bc 38 0a 8e bd c0 1e a5 3b
       -0.10715895 -0.013939932 -0.06935543 0.005039066
000040 d7 d4 a8 3c 08 27 f7 3d be 6b 51 bc 61 a7 c8 bd
       0.020609302 0.120679915 -0.012782035 -0.0979755
000050 72 96 12 3d f4 2c 4f bd 3e 65 7a bd 5f e7 72 3d
       0.035788007 -0.05057998 -0.06113171 0.059302684
000060 6d dc cc 3c 8c 2e 67 bd 7a c8 82 bd 58 04 09 3d
       0.025007451 -0.056440875 -0.06385894 0.03345141
000070 6f 42 a0 3a c9 cf b5 3c 97 f5 4e 3d e4 1e 97 3d
       0.001222683 0.022193806 0.05052718 0.07378939
000080 48 69 da 3c b3 25 82 3c 54 02 a6 bd 11 30 3b 3b
       0.02666153 0.015887117 -0.08105913 0.0028562585
000090 ef 8d 99 bd 1a 6b c5 bd af d5 d1 3c 0d a4 98 bd
       -0.07497775 -0.096395686 0.025614588 -0.07453165
0000a0 f6 69 2a bd 9b fd 30 bd 2b 55 f0 bd 49 ae b3 bd
       -0.04160496 -0.043210607 -0.117349945 -0.08773477
0000b0 cc 92 3f 3d 92 bb ba bd d1 08 87 3c 14 53 60 3d
       0.046770856 -0.091178074 0.016483696 0.05476673
0000c0 e5 09 d0 bd 2b 01 4e 3d d3 f8 be bd 80 0e 48 3d
       -0.10158137 0.050294083 -0.09324803 0.048841953
0000d0 4a e6 7f bc 87 78 65 bd 2b 36 b4 3c 1b 7c 91 3b
       -0.01561887 -0.056023147 0.021998486 0.0044398434
0000e0 72 1e c1 bc 4d 43 dc bc c9 c7 9b 3d c0 2b a8 3c
       -0.023574088 -0.02688756 0.07606465 0.020528674
0000f0 69 92 02 bd b1 cb ae bd 82 b9 26 bd aa d5 20 bd
       -0.03187791 -0.08534945 -0.040704258 -0.039266266
000100 0f cd af 3d f0 75 64 bd f1 9e a5 bd 57 41 09 3d
       0.08584034 -0.055776536 -0.08086956 0.03350958
000110 f6 eb 3a bb ff b1 b9 bd 74 7d 0b 3d fe 69 43 3d
       -0.0028521991 -0.09067153 0.03405519 0.047708504
000120 47 5f a0 3d 30 ac 00 bd 75 45 41 bd 32 15 a0 3d
       0.07830673 -0.03141421 -0.04718538 0.07816543
000130 63 b2 a3 3c 68 69 92 3d a3 4b ef 3c 89 1b 0e bd
       0.019982522 0.07149011 0.029210871 -0.03469423
000140 2b 80 46 3d e3 87 2f bc b3 93 68 bd c5 26 91 bd
       0.048462074 -0.01071355 -0.056781482 -0.07087473
000150 a3 b1 63 3d b7 92 ac 3d f6 cb b9 bd 1f 5e 99 3d
       0.05558933 0.08426421 -0.090721056 0.07488655
000160 30 ff d1 3c d4 b8 99 bd c2 6e 30 bd 3a 6f a6 bc
       0.025634378 -0.07505956 -0.043074377 -0.020316709
000170 c2 49 17 bd e3 5c 13 3c 6d 7f d8 3b fd 8c 94 3c
       -0.036935575 0.008994314 0.006606987 0.018133635
000180 8c 41 9a 3d 58 47 11 3d 12 e5 1f bc 5d d2 49 3c
       0.07532033 0.03546843 -0.009759204 0.012318221
000190 30 91 20 bd a7 2d f4 bc 08 bc 8b bb 82 67 8b bc
       -0.03920096 -0.029806925 -0.0042643584 -0.01701713
0001a0 76 74 45 bd 0b 5b 9b 3c a9 d2 5c 3d 4c 70 8b bd
       -0.04820677 0.018964311 0.05391184 -0.06808528
0001b0 1a ac 62 3d 93 ff 5d ba 25 94 82 bd a0 a0 27 bb
       0.05533991 -0.00084685645 -0.063759126 -0.0025577918
0001c0 0c 8a e3 3c f7 f3 1b bc f6 03 63 3d 8e 6e 58 3d
       0.027775787 -0.009518615 0.0554237 0.05283981
0001d0 5a 41 71 3d ef f2 ba 3d ac e7 b2 3c 8c 83 d6 bc
       0.058900215 0.09128367 0.021838985 -0.026185773
0001e0 1a a1 91 3d 7d 57 80 3d 25 83 98 3d 15 ba 50 3d
       0.07110806 0.06266687 0.07446889 0.05095871
0001f0 b5 04 69 bc 58 28 7e 3d dc a3 85 bc 1e 31 73 bd
       -0.014222314 0.062050194 -0.016313486 -0.059373014
000200 64 4a ff bc 68 d2 62 bb 02 82 60 3d 46 c9 cb 3c
       -0.031163402 -0.0034610275 0.054811485 0.024876248
000210 47 35 f9 3b ab 0a 26 3d df d9 7a 3c 42 9d 23 3d
       0.007605228 0.040537518 0.015310734 0.039944895
000220 53 30 99 bd 62 18 16 bd 4c 19 0d bd f0 cd 72 bd
       -0.0747992 -0.036644347 -0.034447953 -0.05927843
000230 7a 0e 9a bd 1f 04 78 3d 1e 5b 00 3c 08 96 7d bd
       -0.075222924 0.060550805 0.007834224 -0.06191066
000240 8a b0 84 3c 36 92 c1 bc d7 aa b6 bd 99 43 22 bd
       0.016197462 -0.02362929 -0.08919304 -0.039615247
000250 56 a2 2e bd 77 77 13 bc 03 48 e0 3c 3e 34 91 bd
       -0.042635284 -0.009000651 0.027378088 -0.070900425
000260 72 0c 00 3d 28 53 92 bc d8 d5 c2 3c f0 a6 7a bd
       0.03126187 -0.017861918 0.02378361 -0.06119436
000270 ed 7b 3e bd 18 cf 85 bd f6 d5 c7 3c 16 62 9f 3d
       -0.046504904 -0.065336406 0.024394017 0.0778238
000280 0b 87 3c 3d 53 2e 63 3c 7a d3 3e bd 9b 33 2f bd
       0.046027225 0.013866025 -0.0465884 -0.042773824
000290 74 0b 85 bd de 26 74 3d 82 0c c2 3c ad b8 3e bd
       -0.06496325 0.05960738 0.023687605 -0.04656284
0002a0 53 c7 72 bd b5 ee ef bb 4b eb 7d bd a1 93 f4 bb
       -0.05927212 -0.0073221573 -0.06199197 -0.007463888
0002b0 36 6f ef bc 65 fd 6d bc 71 c3 66 bb a2 f5 91 3b
       -0.029227834 -0.014525746 -0.0035211707 0.0044543305
0002c0 62 69 a2 3d 77 0d 96 bd d9 bb 7a 3c 62 9c af 3d
       0.079302564 -0.07326787 0.015303575 0.085747495
0002d0 98 23 70 bd 2b 72 1c bb d3 ab 22 bd 6f 04 c8 bb
       -0.058627695 -0.002387176 -0.039714646 -0.006104044
0002e0 8d e7 90 3c 33 d6 83 bd 4d 2e 97 3d bb bb 04 bd
       0.017688537 -0.0643734 0.07381878 -0.032405596
0002f0 06 00 08 3d a3 25 92 3c a8 ce be 3c 9e 56 17 3c
       0.033203147 0.017840212 0.0232919 0.00923696
000300 be 4e 7c 3d 8f f9 3b bd cb 59 8b bd 47 d2 8e bd
       0.061598532 -0.045892294 -0.06804236 -0.06973701
000310 14 1f 4b 3d e2 59 94 bd a9 ca 54 bc b0 6f 94 bc
       0.049590185 -0.07243706 -0.012987771 -0.018119663
000320 62 53 45 3d 73 b7 5b bd ff 15 c4 bb 4c 3d 38 3c
       0.048175223 -0.053641748 -0.0059840675 0.011245083
000330 3b 7b 0f 3d 32 b3 87 bd 71 87 31 3c bf 62 7f 3d
       0.03502963 -0.06625976 0.010835514 0.06235003
000340 77 20 8b bc 46 77 64 bd 9e 62 3e bd bd bb 55 3d
       -0.016983254 -0.05577781 -0.046480767 0.052180994
000350 60 28 1e bd a2 67 31 3d e3 6b 6a 3d fd ec 22 bc
       -0.038612723 0.043311723 0.057231795 -0.009944198
000360 8f 49 8c bd 4f dc 85 bd 31 a3 2f 3d 35 f9 1f 3d
       -0.06849968 -0.06536161 0.04288024 0.03905602
000370 e0 48 8b 3d da 7c 72 bc ca 12 89 3d 97 8b 86 bd
       0.06801009 -0.014800275 0.06693037 -0.065695934
000380 32 29 7f 3d 72 4c fb bc 82 1c 39 3d f2 45 83 3d
       0.062295146 -0.0306761 0.045193203 0.064098254
000390 a8 1d 5c bc 0f 85 10 bc 90 a1 bb bc a3 6e 20 3d
       -0.013434805 -0.008820786 -0.022904187 0.03916801
0003a0 09 04 8b 3d 2e 6a fc 3c cc 11 0c bd 67 70 8a bd
       0.06787879 0.03081235 -0.03419666 -0.0675972
0003b0 9e f8 3e 3d 1e a1 93 bd 02 bb 5e 3d 56 0c 35 bd
       0.04662382 -0.07208465 0.054377563 -0.044201218
0003c0 51 5e 17 3d b7 a1 fb bc f0 62 0e 3d 90 3a c0 3d
       0.03695518 -0.03071676 0.034762323 0.0938617
0003d0 25 dc 2e 3d 99 97 a4 3d ad 1e 99 3b d6 d5 ba 3b
       0.042690415 0.080367275 0.0046728463 0.0057017608
0003e0 42 24 a9 bc 96 66 6f bd fc ea 32 bd b1 a6 a1 bc
       -0.020647172 -0.058447443 -0.04368113 -0.019732805
0003f0 67 f6 73 bd b0 44 6c 3c d3 7b 60 3d e3 e4 50 ba
       -0.05956116 0.014420673 0.054805588 -0.0007968677

fc.0.bias f4 [128]
000000 a6 a0 a7 bd c2 d8 f8 bd 78 77 9c bb 3e c3 94 bd
       -0.08184938 -0.12150718 -0.004774984 -0.07263802
000010 30 c2 77 3c c0 f6 cb 3b 97 c5 39 bc ce f1 f8 bd
       0.0151219815 0.0062244833 -0.011338613 -0.121554956
000020 e7 79 47 3c 6e f4 15 bd ef b2 86 bd 9d 3c d7 bd
       0.01217506 -0.03661006 -0.065770976 -0.10509608
000030 95 85 79 3c 89 22 02 be a8 22 97 bd ba 22 d8 bc
       0.015229602 -0.12708487 -0.07379657 -0.026383746
000040 98 fd b8 bd 5f 2b c9 bd 6a d5 44 3c c3 7b 86 bd
       -0.09032744 -0.098227255 0.0120137725 -0.065665744
000050 b4 e6 88 3c 1e 83 99 3b 26 2e a6 bd 4c b1 3d bd
       0.01671157 0.00468482 -0.08114271 -0.04631166
000060 98 c5 3c bd 3e 86 8b bd c0 90 b0 bd cb 1c b2 bd
       -0.046086878 -0.06812714 -0.08621359 -0.08696898
000070 15 aa 20 bd 81 db d7 3c 6a f3 2c bb 11 45 cc bc
       -0.039224703 0.026349785 -0.0026390203 -0.024935277
000080 de 66 36 bc 11 61 9e bc 1c 37 57 bd 6a 2d 9f bd
       -0.011132924 -0.019333394 -0.05254279 -0.07772334
000090 23 b9 f8 3b d9 51 2b bd 99 f2 85 bd 62 e9 51 3c
       0.0075904294 -0.041826103 -0.065404125 0.01281199
0000a0 91 ac 9c bd 67 38 fc bd e8 ba 91 3b f0 94 4a bc
       -0.07650102 -0.123154454 0.00444733 -0.012364611
0000b0 1e 70 e2 bd d4 7c ca bd 8b f1 78 ba 02 37 d9 bd
       -0.11056541 -0.0988709 -0.0009496442 -0.10606195
0000c0 4c 07 af bd d4 f6 38 bd b2 b8 9f bc e3 86 04 3c
       -0.08546314 -0.04515727 -0.01949725 0.0080888
0000d0 c3 88 dd bd be 4f ba bc 8d 4d 76 bc a5 d1 db bd
       -0.10817101 -0.022743102 -0.015033138 -0.10733346
0000e0 f3 2b 36 bd 69 3b 4f bd 8c 89 87 bd 27 39 70 bd
       -0.044475507 -0.050593767 -0.06618032 -0.058648255
0000f0 23 6a 97 bd 28 a7 d3 bd 4e 80 23 bd 79 66 47 ba
       -0.07393291 -0.10334617 -0.039917283 -0.0007606517
000100 aa bc c9 bb c0 cc b5 bd 9f 03 c3 bc 79 80 55 bd
       -0.0061565237 -0.088769436 -0.023805438 -0.052124474
000110 6a 94 eb bd ec 4d 29 3c 7e 23 43 3b 9a 38 19 3d
       -0.11502917 0.010333519 0.0029775794 0.037407495
000120 46 82 20 bc 08 63 ad 3c 84 a7 70 3b fe 45 28 bc
       -0.009796685 0.021165386 0.003672094 -0.010270594
000130 3c 60 e0 3c 31 a1 53 bc 92 d5 7d 3c 5f 73 03 3d
       0.027389638 -0.012916849 0.015492814 0.03209245
000140 d4 44 32 bd 45 45 01 bc 6e 70 05 bd fe aa f5 bd
       -0.04352267 -0.00789005 -0.032577924 -0.11995505
000150 79 82 82 bd fa 31 92 bc 7e db b7 bd b7 b1 15 be
       -0.06372542 -0.017846096 -0.08977412 -0.14618574
000160 d0 f1 9c bc c7 67 d0 bd 1a 15 6e bd 9b 74 50 3c
       -0.019158274 -0.10176044 -0.058125593 0.012723113
000170 03 d0 31 be e2 65 cc bd e5 ad ac bd bd 6b f8 bc
       -0.17364506 -0.0998037 -0.08431605 -0.030324811
000180 42 64 3b 3b a5 a0 ce bd c0 27 13 bb e7 3d e3 bd
       0.0028593694 -0.10089234 -0.0022454113 -0.11095791
000190 38 d8 62 bd 7b 4c d0 bd 84 bc b9 bc 00 9f 6a 3c
       -0.055381984 -0.101708375 -0.022672899 0.014320135
0001a0 5d e2 81 bd dc 49 83 3c 65 79 d0 bd 29 cc 14 bc
       -0.063420035 0.01602643 -0.10179404 -0.009081879
0001b0 0b 26 d4 bd 5a 6d 5e bd 15 7d 07 bb 06 3a d2 bd
       -0.103588186 -0.054303505 -0.002067392 -0.10264973
0001c0 29 42 70 3c b7 f2 d0 bd 65 95 96 bc d0 94 98 bd
       0.014664211 -0.10202544 -0.018381784 -0.07450259
0001d0 0f 33 06 bd d0 0a c8 3c f1 33 7a bd 3d 4c 06 bd
       -0.032763537 0.024419218 -0.06108469 -0.03278755
0001e0 13 6d 12 bc 2b 22 a8 bd 08 d2 28 bc 7c 2d e7 bc
       -0.008937138 -0.08209642 -0.010303982 -0.02821993
0001f0 30 28 ff bd 35 d4 80 bd ea b1 fa bc c6 89 3d bd
       -0.12458837 -0.06290475 -0.030602414 -0.04627397

fc.2.weight f4 [64, 128]
000000 75 b8 a4 bc ae 1c 08 bd 4f 2a 5a bd d7 f5 69 ba
       -0.020107487 -0.033230476 -0.053263005 -0.00089248776
000010 51 2a b8 bc 08 7b 19 bd e8 08 3e bd 1e fa 90 3d
       -0.022481116 -0.037470847 -0.046395212 0.07078956
000020 2f 90 19 3d d9 87 79 bc c5 1b 18 3d 20 31 71 3d
       0.03749102 -0.0152301425 0.037135858 0.05888474
000030 dc c0 10 3d 46 fd 5d bd b0 df 85 3c 80 c2 fc 3b
       0.035340175 -0.05419662 0.016342014 0.007713616
000040 3e 68 9b 38 2a 0b 53 bd cd 09 92 3d b4 57 db 3c
       7.4103926e-05 -0.05152432 0.071307756 0.026775219
000050 ed 59 7a bd 70 dd 80 bd 22 38 9f bd 19 98 45 bc
       -0.061120916 -0.06292236 -0.07774378 -0.012060189
000060 4c 8a b3 bd 33 de b5 bd 8a ab f4 3c 3b 86 4f 3c
       -0.087666124 -0.08880272 0.029866952 0.01266628
000070 45 4c 89 3d 35 de dc bc be af 5d bd 02 ff 26 bd
       0.067040004 -0.026961425 -0.05412268 -0.04077054
000080 93 f8 5f 3c ca 38 13 bc 06 07 69 3d 47 8d 73 bd
       0.013670105 -0.008985708 0.056891464 -0.059460904
000090 ec 65 0f 3d e3 7c 85 3d a5 25 7d bd 29 7f 8d 3d
       0.03500931 0.06517961 -0.06180348 0.069090195
0000a0 3c 56 1b bd de fa 8e bd ea c9 d5 bc 05 57 51 bd
       -0.037924036 -0.06981443 -0.026097257 -0.05110838
0000b0 37 b0 8d bd 78 32 67 3c b6 41 b8 bd 01 cf 54 3d
       -0.06918376 0.014111154 -0.08996908 0.051955227
0000c0 8d cc 96 3d 9c 4c cd bc 3a 51 8c bd 03 0e a4 bd
       0.07363234 -0.025060944 -0.0685143 -0.08010485
0000d0 37 01 ad bd 6c 27 9c bc c9 0a cb bc 6a ad 9a 3d
       -0.08447497 -0.019061767 -0.024785416 0.07552607
0000e0 10 84 3b 3d c8 a5 ea 3c 17 01 4c 3d 90 0b 5e bc
       0.04578024 0.028643504 0.049805727 -0.013552561
0000f0 60 ab 94 3d 3d 20 05 3d 1f cd a0 bd 3a 77 9f 3d
       0.0725925 0.032501448 -0.07851624 0.077864125
000100 4a e4 4c 3d 56 d4 86 bd 95 99 82 bd bc b6 7e 3d
       0.0500224 -0.065834686 -0.0637695 0.062185988
000110 ab 71 bd bd da 98 7b bd 06 4e ba bc 9b 6c b8 bd
       -0.09250196 -0.061425067 -0.022742283 -0.0900509
000120 55 50 82 3c c3 24 97 bc 19 7d 5f 3d 78 40 2d 3c
       0.015907446 -0.018450147 0.05456266 0.010574453
000130 9e 1d 24 bd ec 22 91 3c d5 6a 63 bd b8 7b 35 3d
       -0.040067308 0.017716847 -0.055521805 0.04430744
000140 40 df c7 3c b9 b2 14 3d f6 31 1f 3c 2d ec 64 bc
       0.024398446 0.036303256 0.009716501 -0.013972324
000150 5b d5 07 bd aa 15 7d 3d 34 4e 8c bc a1 58 98 bc
       -0.033162456 0.06178824 -0.017127134 -0.018596949
000160 6f 25 b7 3d 95 1b 30 bd b1 06 88 3d 9e 6a 1d bd
       0.08942687 -0.042995054 0.06641901 -0.038431756
000170 2c 10 a1 3a 82 fa b7 bd 0f a7 8a bc d9 4f 94 3b
       0.0012288145 -0.089833274 -0.016925363 0.00452612
000180 61 a9 9a 3d e8 5a 62 bc 90 e3 f6 3c ac f5 c3 3c
       0.07551838 -0.013815619 0.030137807 0.023920856
000190 2c 4e e0 bc 99 73 be bd 8f b5 a6 bd 49 15 34 bd
       -0.027381025 -0.09299392 -0.08140098 -0.04396561
0001a0 73 9d 36 bd 9d 8e a4 bd 63 e8 cf bc 31 3a 5d bd
       -0.04458375 -0.08035014 -0.025379365 -0.054010574
0001b0 35 c4 04 3d b0 a5 a0 bd 72 22 b3 bd 38 65 1b bd
       0.03241368 -0.078441024 -0.08746804 -0.037938327
0001c0 43 2b a3 bc ae 89 ac bd 15 8d 8a bb 8e 4c e1 bc
       -0.01991809 -0.08424698 -0.004228244 -0.027502324
0001d0 ba 94 45 3d 1b e4 ac bc 62 e4 32 3d f3 56 81 bd
       0.04823754 -0.021104863 0.043674834 -0.06315412
0001e0 45 63 90 3d ea 01 8e 3d bb 1a 2c bd 03 1e ab bd
       0.07050184 0.06933959 -0.04201768 -0.08355334
0001f0 8a ad 35 3d ac 4d 79 3c 53 78 bf 3c 1a d9 b9 3c
       0.044354953 0.015216272 0.023372805 0.02268653
000200 fa 55 ad bd d3 0c 24 3d 40 af 37 bd 12 02 9b 3d
       -0.08463664 0.040051293 -0.044844866 0.07568754
000210 ce 19 31 bd 0c 0a 23 bd fa 48 46 3d c9 6e c8 3b
       -0.0432375 -0.039804503 0.04840944 0.0061167222
000220 66 5a d6 bd 57 50 9f bc 7b c7 0b be aa 0c ba bd
       -0.10466461 -0.019447489 -0.13650315 -0.09084447
000230 a8 b0 3a bd 96 1d 5f bd 0e 17 bd bc 4f b1 a7 bd
       -0.04557863 -0.054471575 -0.023082282 -0.08188116
000240 73 f4 8f 3d 7d 14 b6 3c f2 49 49 3d e9 20 09 3d
       0.07029047 0.022226566 0.049142785 0.03347865
000250 e0 61 bb bc 8d e1 fd bc 88 3b 82 bc 43 98 90 bd
       -0.022873819 -0.03099134 -0.015897527 -0.070602916
000260 e7 86 7f bd 7f b7 3f 3b d4 3d 7d bb 12 f9 84 3b
       -0.062384512 0.002925366 -0.0038641589 0.004058012
000270 1d d7 03 3d 3c 7e 03 bd e1 ae 31 3d ba 28 93 bd
       0.03218757 -0.03210281 0.04337967 -0.07185502
000280 fe 17 9f bd 84 f7 01 be 6b a8 5c 3c 30 62 4d 3d
       -0.07768248 -0.12692076 0.013467888 0.050142467
000290 e7 31 0c bd c0 99 ed bd 59 e7 b9 bd 3f f8 71 3d
       -0.034227278 -0.11601591 -0.09077329 0.059074637
0002a0 84 6e cb 3c 01 90 9a bc 9f aa 41 3c 3c 51 71 bc
       0.024832971 -0.018867495 0.011820464 -0.01472884
0002b0 78 ef a4 bb d7 50 0d bd a0 c1 52 bd 2f ff 93 bd
       -0.0050334297 -0.034500923 -0.051454186 -0.07226407
0002c0 ac 29 67 3d 17 47 b9 bd 20 6d a8 3d 85 5d ef bb
       0.056436226 -0.090467624 0.08223939 -0.0073048496
0002d0 85 c7 a8 3c 67 bc 27 bd 3b 79 27 bd 4d 6c 86 3d
       0.02060295 -0.04095116 -0.0408871 0.065636255
0002e0 ef e2 11 be c6 45 66 bd 1a 31 34 3c a1 6d 1d bd
       -0.14246725 -0.056218885 0.010998035 -0.03843463
0002f0 e1 21 37 bd 64 d4 8d bd 46 e9 c4 3c 77 de 21 bd
       -0.044710044 -0.06925276 0.024037015 -0.0395188
000300 2a 68 27 bd db 1a 15 bd e2 dd 28 bd 51 cb 53 bd
       -0.040870823 -0.036402564 -0.04122723 -0.05170757
000310 27 1e fa bc 90 2d 63 bd 9e 82 08 bc d5 0e 2c 3b
       -0.030531956 -0.055463374 -0.008331923 0.0026253958
000320 0c f0 35 bd ff 95 bb bb 39 84 52 3d fe 96 81 bd
       -0.04441838 -0.005724668 0.05139563 -0.063276276
000330 c7 c5 67 bd b4 a7 df ba c8 0d 8e 3d d2 e9 78 bc
       -0.0565851 -0.0017063529 0.06936222 -0.015192466
000340 f4 06 36 bd 00 54 21 bd 88 b8 a9 bd ad 1c 9a bd
       -0.044440225 -0.03938675 -0.0828715 -0.07525001
000350 89 5f cf 3d de 49 8f bd 70 0d 4c bd ec 4d a0 bd
       0.10125644 -0.06996511 -0.049817502 -0.078273624
000360 b5 e0 67 bd b4 ca 79 bd 53 92 b8 bd c6 40 90 3d
       -0.05661078 -0.06098433 -0.09012284 0.070436046
000370 25 03 84 bd 66 d7 55 bd b9 b4 95 3c 0c 8b bf bd
       -0.06445912 -0.052207373 0.018274652 -0.09352693
000380 dc 7e 3f bd 9a 4d 65 bd 51 e3 42 bd b9 b1 6e bc
       -0.046751842 -0.05598221 -0.047580067 -0.01456874
000390 13 27 9c bb 54 56 6c 3d 24 64 00 bd 49 26 59 bc
       -0.0047654 0.057699516 -0.0313455 -0.013253757
0003a0 64 c3 59 bd f3 0a 6d bd ae 3b b1 bd 4f ef ac bd
       -0.053164855 -0.05787177 -0.08653961 -0.08444082
0003b0 7f fb 48 bd 06 9d f6 3c c7 7a db bc 21 d8 99 bd
       -0.04906797 0.030104171 -0.026791943 -0.075119264
0003c0 a9 7d 71 bc 4b 39 b0 bd e7 e2 a5 bc 04 c0 a7 3d
       -0.014739432 -0.08604678 -0.020249797 0.08190921
0003d0 2f b0 18 3d 59 87 a7 bd fb f2 91 3d 66 e8 11 bd
       0.037277397 -0.081801124 0.07126423 -0.035622023
0003e0 e0 db b7 bd 45 93 49 3d 03 bd b2 bd 26 09 20 bd
       -0.08977485 0.049212713 -0.087274574 -0.039071225
0003f0 55 78 6a bd 3c fe 0a bc 9c b9 ec bd 6c e0 5e bc
       -0.057243664 -0.008483466 -0.1155884 -0.013603311

fc.2.bias f4 [64]
000000 d8 29 30 bd bd 08 a0 bb a5 6e ca bb ac b9 8c bc
       -0.043008655 -0.004883854 -0.0061777406 -0.017178379
000010 3d 0d d1 bc df 67 9b bc 50 c0 3c bc d4 92 9f 3d
       -0.025519008 -0.018970428 -0.01152046 0.07791677
000020 af 5a d4 3a 71 70 78 3d 69 46 e8 bc 0d a8 22 bd
       0.0016201342 0.060654107 -0.028353887 -0.039711047
000030 a2 63 b3 bd 46 aa 82 bc f6 77 45 bd 7b b8 00 3e
       -0.08759238 -0.015950333 -0.048210107 0.12570374
000040 12 9e 2f 3e 84 a6 b6 bd 91 00 80 3d 9c 98 2c 3d
       0.17150143 -0.08918479 0.06250108 0.042137727
000050 4d d1 9d bd bf c8 28 bb 88 c4 bd bd 20 0c 9e bc
       -0.077059366 -0.002575442 -0.09266001 -0.019292891
000060 5d c2 10 bd 77 9f e7 3d 5c 2f 6f bd 84 6c 32 bd
       -0.03534161 0.113097124 -0.058394775 -0.04356052
000070 f3 13 95 bc da 7a 9b 3d 75 3e 60 bd 1f ab 78 bc
       -0.01819799 0.075917915 -0.054747064 -0.015177517
000080 02 d8 82 3d 9e c0 22 bb 23 62 09 bd 97 1c 9e 39
       0.063888565 -0.0024834047 -0.033540856 0.0003015741
000090 f2 56 96 b7 e4 6b 65 bd ca 75 35 bd b1 75 44 bd
       -1.792188e-05 -0.056011096 -0.044301786 -0.0479638
0000a0 fa 08 30 3e 84 00 36 bc a2 ea 1f bd 4d 97 2d 3d
       0.17190924 -0.011108521 -0.039042123 0.04238062
0000b0 e8 b6 c5 bd d1 8a dc bc f3 c2 e9 bb 62 85 0a bd
       -0.09654027 -0.026921662 -0.0071338355 -0.03381861
0000c0 a4 7e d4 bc c6 94 15 bd 99 62 1e 3e 79 68 1b bd
       -0.025939293 -0.036518835 0.154673 -0.03794143
0000d0 12 84 b1 3c 89 18 8e bd c4 95 1c bd 7a c4 54 bc
       0.021669421 -0.069382735 -0.038228765 -0.012986297
0000e0 34 69 88 ba 09 a6 b7 3d 54 a9 9e bd 35 a5 19 3e
       -0.001040733 0.089672156 -0.077471405 0.15004428
0000f0 e2 b3 20 3e 85 d9 8a bd b2 c6 79 bd 42 80 5e bd
       0.1569362 -0.0677977 -0.060980506 -0.054321535

fc.4.weight f4 [1, 64]
000000 3e 0c 1a 3c da 90 c5 b7 08 de 33 3b 6a bc 01 bd
       0.009402333 -2.3551682e-05 0.0027445573 -0.031673826
000010 d6 d1 ae bb 71 3c a8 3c 4b 6f d2 bd fc 5f 85 3d
       -0.005335073 0.020536633 -0.10275134 0.06512448
000020 13 e6 a5 3a 75 e2 97 3d 6d c5 ad bc c0 be a4 bd
       0.0012657068 0.0741624 -0.021212304 -0.08044195
000030 6f 7a 83 bb 5a a9 a3 bd 95 2a 7a bd f9 0b 01 3e
       -0.004012398 -0.079912856 -0.061075766 0.12602223
000040 8a 46 1d 3e 61 55 94 3c 9d 47 95 3d 6c ed f6 3c
       0.1535894 0.018107118 0.0728905 0.030142508
000050 df f5 8c bd e3 65 60 3b 77 3e 9d 3d da 3e 36 bd
       -0.06882834 0.0034240417 0.0767793 -0.044493534
000060 72 2e 8d bd 36 45 f8 3d 27 00 29 3a 8a 4f d8 bd
       -0.06893624 0.12122576 0.0006446861 -0.10562046
000070 b6 b4 a9 bd dc ea 42 3d a5 e6 75 3d d5 45 02 bd
       -0.08286421 0.04758726 0.060034413 -0.03180488
000080 e9 af 0b 3d 2f fd 77 3b a6 1a 87 bc 7a f4 df 39
       0.034103308 0.0037840118 -0.0164922 0.00042716024
000090 05 42 0b b9 d2 78 9e bd ff 6a 8b 3d 63 d7 8c bd
       -0.00013280667 -0.077378884 0.06807517 -0.06877019
0000a0 90 17 20 3e 3d e2 99 3d 94 72 15 bd 52 e1 c1 3c
       0.15633988 0.07513855 -0.036486223 0.023667011
0000b0 c0 4d 8b 3d 10 87 b8 3c 78 5e 54 3d 21 06 d6 bb
       0.06801939 0.02252534 0.051847905 -0.0065314923
0000c0 a6 49 75 bb 57 f3 bf bd 5d 16 1c 3e 72 1f 35 bd
       -0.003742793 -0.09372585 0.15242906 -0.04421944
0000d0 d8 cc 12 3d 67 00 9a bd 4f e6 89 bd 50 6a 04 3d
       0.035839885 -0.07519608 -0.06733381 0.03232795
0000e0 03 6a fa 3b aa 75 8e 3d c6 03 17 bd 8f ca d9 3d
       0.007642032 0.069560364 -0.036868833 0.10634338
0000f0 8c 2d 03 3e 65 a6 e6 3b 9e 2b 83 bd 37 b7 77 3d
       0.12810344 0.0070388787 -0.06404804 0.06047746

exp_avg f4 [16, 2, 3, 3]
000000 53 32 37 32 34 dd 95 b2 01 d6 dc 33 f5 42 db b4
       1.0663444e-08 -1.7446474e-08 1.02834754e-07 -4.0840646e-07
000010 b6 1f 54 b4 4f 0f 0c 35 45 d6 5d 33 fa 0d 5e 34
       -1.9755575e-07 5.217634e-07 5.165045e-08 2.0680446e-07
000020 5b 16 46 b4 ab 2a 0f 33 46 8a 83 b3 e0 e3 87 b3
       -1.844832e-07 3.333359e-08 -6.125315e-08 -6.3278776e-08
000030 5e e2 3e 33 e6 21 c9 32 3d 05 bf 32 41 d5 53 33
       4.4443702e-08 2.3414895e-08 2.2237709e-08 4.932122e-08
000040 8b b7 ee 32 ec 6e e1 32 5a 3c 1a 35 84 94 37 35
       2.7790312e-08 2.6243889e-08 5.7457294e-07 6.838893e-07
000050 f0 53 85 35 ce 79 96 35 89 ab 26 35 d0 cf 69 34
       9.933701e-07 1.1211321e-06 6.2089435e-07 2.1775418e-07
000060 99 1e 76 31 1c 92 82 34 40 d0 ad 34 21 7f 06 34
       3.5815104e-09 2.4320696e-07 3.2375283e-07 1.2525972e-07
000070 c9 fe c2 33 ec a7 b7 33 21 7f 06 34 c9 fe c2 33
       9.080174e-08 8.5521464e-08 1.2525972e-07 9.080174e-08
000080 ec a7 b7 33 db b1 6b 33 8a 0f 47 33 2a 43 1f 33
       8.5521464e-08 5.487696e-08 4.634743e-08 3.7081158e-08
000090 58 c2 f0 33 8e 68 1e 32 80 6b 91 2f 32 28 18 35
       1.1211222e-07 9.220583e-09 2.645173e-10 5.6682904e-07
0000a0 cf b5 8a 33 f6 bb 0d b2 42 4b 03 35 b9 b2 c2 b3
       6.4591966e-08 -8.250018e-09 4.891082e-07 -9.0663384e-08
0000b0 88 4b df 33 4b 18 d0 32 4b 18 d0 32 3d 32 8b b2
       1.0397986e-07 2.4225434e-08 2.4225434e-08 -1.6204575e-08
0000c0 03 ba 0d 33 03 ba 0d 33 b6 d5 aa b2 93 e3 0d 33
       3.2998297e-08 3.2998297e-08 -1.988779e-08 3.30361e-08
0000d0 93 e3 0d 33 b9 82 aa b2 bc 3d d5 34 eb b0 a7 b3
       3.30361e-08 -1.985005e-08 3.971926e-07 -7.808725e-08
0000e0 2d 8f 2e b4 c4 7a 84 34 fd 99 ed b5 14 b2 2e 35
       -1.62571e-07 2.467624e-07 -1.7702693e-06 6.507919e-07
0000f0 e1 ff 91 b2 7b 4e 1e b3 a5 6b e5 32 d7 2d 79 b2
       -1.6996582e-08 -3.685862e-08 2.670806e-08 -1.450413e-08
000100 f8 7b 94 b2 4a f9 10 b3 8e f7 54 b2 55 3f 81 b2
       -1.7285842e-08 -3.375434e-08 -1.23963115e-08 -1.5046377e-08
000110 8c ca 11 b3 d2 0f 20 b0 4d 20 5e b1 45 45 26 b2
       -3.394466e-08 -5.8230143e-10 -3.2323613e-09 -9.678222e-09
000120 11 13 15 b3 6d 6a e2 33 f7 71 f6 32 4a 34 9f b4
       -3.4709107e-08 1.0543304e-07 2.8689994e-08 -2.9654103e-07
000130 88 e3 ab 32 dc 9b cc b4 88 76 25 b5 44 58 d9 31
       2.001049e-08 -3.8111364e-07 -6.1639776e-07 6.325566e-09
000140 56 b3 82 b1 d7 68 0c b3 0e 92 05 b3 b0 4c ab b2
       -3.803886e-09 -3.269164e-08 -3.109931e-08 -1.9941893e-08
000150 bd fb 0c b3 f3 24 06 b3 50 9d ac b2 e5 c1 54 b2
       -3.2825245e-08 -3.123291e-08 -2.0094973e-08 -1.2384111e-08
000160 b4 f9 5e b2 8a ef ef 2f 6b 64 83 b4 c2 83 d8 b4
       -1.2978877e-08 4.364405e-10 -2.4473715e-07 -4.0329002e-07
000170 2d b1 e2 33 07 d7 5a b5 c3 e8 a3 b5 21 ef 11 b6
       1.0556173e-07 -8.1524234e-07 -1.2212189e-06 -2.1745875e-06
000180 43 83 d4 32 52 fe 13 b3 3f 86 48 b3 9f 3a 7c b3
       2.473974e-08 -3.4457408e-08 -4.6688225e-08 -5.8726638e-08
000190 16 91 74 b3 b3 0f 51 b3 14 6f 81 b3 a5 62 7a b3
       -5.6942632e-08 -4.8675883e-08 -6.0272356e-08 -5.8297378e-08
0001a0 3b e1 56 b3 98 c4 ae b3 b3 e1 ab b3 5e db 93 b3
       -5.0030604e-08 -8.1382666e-08 -8.0038625e-08 -6.8851236e-08
0001b0 dd c8 39 32 5e 92 93 b4 33 fc 79 33 15 54 4a 32
       1.0814088e-08 -2.748738e-07 5.8204204e-08 1.17770655e-08
0001c0 dc 8a 23 35 a1 cf 15 35 1f 2e 8e b1 11 0c 19 34
       6.09243e-07 5.5808965e-07 -4.1379873e-09 1.4253625e-07
0001d0 cf 64 88 b2 79 83 d2 32 f9 52 d4 32 19 5a 32 33
       -1.5878326e-08 2.4507004e-08 2.471778e-08 4.1525798e-08
0001e0 8a 06 db 32 09 d6 dc 32 d9 5b 32 33 2e 47 77 33
       2.5497929e-08 2.5708703e-08 4.152739e-08 5.7573907e-08
0001f0 f5 2a 78 33 1c 2c 55 33 82 6a 15 33 72 74 b7 b4
       5.778107e-08 4.9633044e-08 3.4788634e-08 -3.417113e-07
000200 3e b7 7e 35 24 08 2d 34 31 e9 aa 34 b0 7a d5 32
       9.4889026e-07 1.6114842e-07 3.1834637e-07 2.4852255e-08
000210 c4 25 47 b2 7d ec ad b3 20 c2 15 34 0e 60 d7 33
       -1.1591911e-08 -8.098957e-08 1.3947329e-07 1.002919e-07
000220 55 9c 34 33 f9 4c 36 33 0e 60 d7 33 55 9c 34 33
       4.20517e-08 4.2445183e-08 1.002919e-07 4.20517e-08
000230 f9 4c 36 33 19 5e 9d 32 5d 28 86 b2 5d 28 86 b2
       4.2445183e-08 1.8319996e-08 -1.5618008e-08 -1.5618008e-08
000240 6f cc c5 b4 5c 05 9b 35 b3 c1 06 34 b4 75 4d b4
       -3.6842854e-07 1.154996e-06 1.255019e-07 -1.9134933e-07
000250 76 03 4c 34 df 56 ad 33 8d 19 f0 b3 79 a5 af b4
       1.900024e-07 8.071742e-08 -1.11805186e-07 -3.2716687e-07
000260 c0 a5 fa b4 73 88 ed 33 0c 89 e4 33 05 2c bb 33
       -4.6686728e-07 1.10609925e-07 1.0642006e-07 8.715873e-08
000270 3b 77 3e 34 d8 1a 3a 34 d1 7b 12 34 11 ab 26 34
       1.7738505e-07 1.7332366e-07 1.3642354e-07 1.5522188e-07
000280 ed f0 23 34 ba 2f 0c 34 67 49 97 32 bc 3d 90 b3
       1.5268206e-07 1.3055879e-07 1.7612093e-08 -6.716752e-08
000290 fe 2d df b2 e2 be 53 b5 5c 9f 42 b3 5a 5a 3d 32
       -2.5981532e-08 -7.8881396e-07 -4.531408e-08 1.10217915e-08
0002a0 b2 05 da 34 5e 34 9f 32 43 82 37 b3 21 04 01 b4
       4.0609808e-07 1.853385e-08 -4.272648e-08 -1.2015563e-07
0002b0 92 cd 7b b4 aa bb 69 b4 c6 93 cd b3 20 4f 63 b4
       -2.3450983e-07 -2.1768088e-07 -9.572936e-08 -2.1169808e-07
0002c0 e7 76 64 b4 08 21 d2 b3 bd ee 72 b4 44 3c 74 b4
       -2.1277411e-07 -9.7848954e-08 -2.2624859e-07 -2.2746195e-07
0002d0 c2 c2 1c 34 77 ff b8 34 2d a1 00 35 05 8e 59 35
       1.4599485e-07 3.4458546e-07 4.791826e-07 8.1045465e-07
0002e0 be 99 09 35 22 b2 fe b4 98 ac c3 33 8d 09 fa 34
       5.12602e-07 -4.7440795e-07 9.11179e-08 4.6573078e-07
0002f0 8c 07 82 34 03 d1 51 34 78 b0 8f 33 d6 72 02 33
       2.4219878e-07 1.954068e-07 6.691056e-08 3.0372426e-08
000300 b1 b8 63 34 d2 7f b3 33 e0 33 42 33 10 fc 81 34
       2.1208213e-07 8.3585874e-08 4.5216325e-08 2.4211522e-07
000310 5e f3 9e 33 d5 ba 71 33 4d 17 af b1 1d 3c 1c 33
       7.4017166e-08 5.6282108e-08 -5.0958193e-09 3.6376253e-08
000320 29 1e ed 2f 13 4a 14 34 09 1a e0 33 08 0d 29 b1
       4.313148e-10 1.3810522e-07 1.04355486e-07 -2.4600144e-09
000330 17 7a 23 32 d2 36 b8 b0 51 9b 9a 31 db e2 b3 b1
       9.515609e-09 -1.3403343e-09 4.4996473e-09 -5.235376e-09
000340 db e2 b3 b1 64 07 ce ae ee e2 b3 b1 ee e2 b3 b1
       -5.235376e-09 -9.369108e-11 -5.2353846e-09 -5.2353846e-09
000350 dc 0c ce ae fd f5 2e a8 fd f5 2e a8 fd f5 2e a8
       -9.37008e-11 -9.7122805e-15 -9.7122805e-15 -9.7122805e-15
000360 17 94 9f 33 a6 a2 21 35 4f 62 60 34 67 7a a1 31
       7.430952e-08 6.021386e-07 2.089739e-07 4.6996322e-09
000370 2e 21 75 35 3b bd 49 b3 48 a7 65 b4 84 6a 96 b3
       9.1317895e-07 -4.6971063e-08 -2.1388144e-07 -7.0042944e-08
000380 b4 17 f6 b4 fc dd 75 b2 52 29 a2 b3 37 5d be b3
       -4.5838317e-07 -1.431135e-08 -7.551229e-08 -8.86452e-08
000390 1d 77 cc b2 93 21 c4 b3 82 5b cf b3 b7 83 a9 b3
       -2.3802892e-08 -9.133068e-08 -9.655834e-08 -7.8936345e-08
0003a0 dd d2 1b b4 34 43 1f b4 70 d5 a3 b3 5e ca d1 33
       -1.4512212e-07 -1.4832477e-07 -7.629103e-08 9.769131e-08
0003b0 07 a2 cc 32 3d 12 8f b3 18 df f2 34 b1 82 f9 34
       2.3822407e-08 -6.662274e-08 4.5238335e-07 4.6474955e-07
0003c0 61 3b 1f 34 35 19 91 33 5f 56 d9 32 18 d2 a1 b2
       1.4829631e-07 6.756674e-08 2.5301402e-08 -1.8838406e-08
0003d0 bc ee c0 b2 bc ee c0 b2 c4 a1 0e b2 c8 c4 bc 32
       -2.2460306e-08 -2.2460306e-08 -8.302269e-09 2.1975566e-08
0003e0 00 77 46 b2 a2 30 c7 2f 2f a2 03 33 ab df 45 b1
       -1.1552174e-08 3.6232445e-10 3.064832e-08 -2.8794414e-09
0003f0 cd db 07 35 31 67 1b 34 2b 6a 61 34 58 81 05 b5
       5.061127e-07 1.4473041e-07 2.0993382e-07 -4.973458e-07
