output/blue/images/epoch_85.pt (torch, 369546 bytes, 27 tensors)

conv.0.weight f4 [16, 2, 3, 3]
-0.28892598 -0.2525554 -0.092574954 -0.15476987 0.11550091 0.097798645 -0.33793813 1.1849162e-05
0.08834195 -0.06727951 -0.1288582 -0.0031003274 -0.25674984 -0.28727654 0.098277256 -0.2512465
-0.06645581 0.053970695 0.11137248 0.0918588 0.20994371 -0.054617677 -0.078826234 -0.06929509
-0.28568915 0.0042265984 -0.11718711 0.13875942 -0.14007396 -0.32863805 -0.12309304 -0.22097665
-0.14946859 0.15712944 0.0067051947 0.13639659 -0.06604828 -0.29751733 -0.09452034 0.085456274
-0.12711899 -0.22185673 0.12458274 -0.079705544 -0.14657336 -0.122186124 -0.2091133 0.06612992
-0.009457023 0.057077494 -0.13767496 0.06320137 -0.03584224 -0.012358954 0.09859332 -0.055924617
-0.21750946 -0.14372247 0.16655128 0.007716117 -0.25495848 -0.16945182 -0.1304935 -0.2911126
-0.29155695 0.08491795 -0.1413579 -0.25931495 -0.12360044 0.13324127 -0.005445789 -0.26125166
-0.18651755 0.075576946 -0.025754869 0.0508014 0.0045426087 0.035101242 0.050492045 -0.17403196
-0.26954684 0.14277303 -0.17961754 -0.0057244687 -0.26685405 0.054194473 -0.24918693 0.01042183
-0.20308457 0.09886786 -0.18631627 -0.08632215 -0.22204202 0.07330378 -0.019745788 0.1361177
-0.12615244 -0.33545735 -0.2963285 -0.039017707 0.13504931 -0.25264487 -0.16683932 -0.15784867
0.020789985 0.14809741 -0.27562478 -0.06460839 0.04716358 -0.026914021 -0.12277038 -0.20419368
0.05912087 0.050329972 -0.28006867 -0.019776499 -0.25085837 -0.18927102 0.004290811 0.032713372
0.13881627 -0.27947253 -0.21930124 0.096847646 -0.29201904 -0.15696329 -0.020991793 -0.011244926
0.07497838 0.036902044 -0.06587848 -0.14397421 -0.22580795 0.018443557 -0.0028722978 -0.053763725
0.17531422 0.11252782 -0.112711154 -0.2554163 -0.04361828 -0.20280272 -0.21984173 0.09594761
0.008759679 0.037567627 -0.18051374 -0.020741412 -0.06845591 -0.24865162 -0.16462687 0.11566151
-0.07638177 0.14051165 -0.19674104 -0.075975135 0.084880665 -0.14646028 -0.18772447 -0.0004455426
0.12157922 -0.23047787 -0.21103337 -0.090886 -0.013027003 0.08939667 -0.10757214 -0.1914933
0.037758403 -0.16605236 -0.0680002 -0.14193416 -0.03916467 0.12327376 -0.062327128 0.043135047
0.10017999 0.13072668 -0.06022299 0.06383565 0.027788175 0.11113396 -0.12813374 0.14455476
-0.06955881 -0.14151776 -0.13202293 -0.07816314 -0.035417337 -0.052022826 0.15399249 0.12317143
0.026503328 -0.19907743 0.1725264 -0.18703818 -0.09291421 -0.02893065 -0.111956626 -0.1121237
-0.19890438 0.061789323 -0.008487137 -0.17235428 -0.13355494 -0.23723093 -0.081135504 -0.059336904
-0.1376301 -0.29495636 0.11043958 -0.26598883 -0.004848439 -0.14220323 -0.31272477 -0.05645318
-0.1916778 0.07242631 0.16846196 -0.2078723 0.08119444 -0.25873527 -0.11186163 -0.10381948
0.0019784563 -0.24337178 -0.0914352 0.01715549 -0.20090517 -0.019997118 -0.16393809 0.06415354
0.062397692 0.013734229 -0.12900186 -0.16374026 -0.27318013 -0.21182741 -0.060704358 0.16568048
-0.08965007 -0.19237474 -0.22063425 -0.16702425 -0.32162598 -0.010894259 0.036676984 0.10673104
-0.27885792 -0.015885899 -0.051886063 0.07863271 -0.006749585 -0.009832004 0.16453141 0.09489064
00000000: 1bee 93be f14e 81be f097 bdbd fe7b 1ebe
00000010: be8b ec3d a84a c83d 3a06 adbe c3cb 4637
00000020: a0ec b43d d7c9 89bd 67f3 03be dd2e 4bbb
00000030: b774 83be e915 93be 9645 c93d 62a3 80be
00000040: fc19 88bd 6010 5d3d 4117 e43d 7720 bc3d
00000050: 7cfb 563e c9b6 5fbd a66f a1bd 96ea 8dbd
00000060: d945 92be 477f 8a3b ccff efbd f316 0e3e
00000070: 8c6f 0fbe 3f43 a8be 3418 fcbd b447 62be
00000080: 4b0e 19be 8ae6 203e 40b7 db3b 8cab 0b3e
00000090: 5244 87bd 3154 98be e193 c1bd b303 af3d
000000a0: 7b2b 02be 692e 63be 3c25 ff3d a93c a3bd
000000b0: 5417 16be b83c fabd cc21 56be 206f 873d
000000c0: a1f1 1abc 17ca 693d aafa 0cbe b86f 813d
000000d0: 50cf 12bd 367d 4abc 4beb c93d 3611 65bd
000000e0: cdba 5ebe fc2b 13be 6b8c 2a3e 7bd7 fc3b
000000f0: eb89 82be c784 2dbe 17a0 05be b60c 95be
00000100: f446 95be 76e9 ad3d 20c0 10be eec4 84be
00000110: 3a22 fdbd 6670 083e 9772 b2bb c7c2 85be
00000120: 75fe 3ebe 16c8 9a3d e0fb d2bc 2115 503d
00000130: 2ada 943b 52c6 0f3d bfd0 4e3d 6f35 32be
00000140: 0b02 8abe 1833 123e a9ed 37be 5394 bbbb
00000150: 18a1 88be 06fb 5d3d dc2a 7fbe 53c0 2a3c
00000160: 67f5 4fbe 3c7b ca3d b1c9 3ebe abc9 b0bd
00000170: fc5e 63be 4b20 963d ebc1 a1bc 7062 0b3e
00000180: 1b2e 01be 11c1 abbe 5fb8 97be 08d1 1fbd
00000190: 5e4a 0a3e ab5a 81be edd7 2abe 15a3 21be
000001a0: c24f aa3c d9a6 173e b11e 8dbe 6751 84bd
000001b0: 992e 413d cb7a dcbc 096f fbbd 2618 51be
000001c0: ba28 723d cd26 4e3d 2965 8fbe 5302 a2bc
000001d0: 8270 80be 43d0 41be ee99 8c3b 75fe 053d
000001e0: da25 0e3e 0617 8fbe 8190 60be 0f58 c63d
000001f0: 8583 95be fcba 20be fbf6 abbc a33c 38bc
00000200: 448e 993d 9926 173d 4ceb 86bd fa6d 13be
00000210: 333a 67be f116 973c 293d 3cbb 5a37 5cbd
00000220: 9285 333e fc74 e63d 1bd5 e6bd edc5 82be
00000230: 15a9 32bd 84ab 4fbe 311e 61be 2e80 c43d
00000240: c284 0f3c 83e0 193d 98d8 38be e5e9 a9bc
00000250: 9d32 8cbd 889e 7ebe f293 28be f1df ec3d
00000260: 0c6e 9cbd 49e2 0f3e 7c76 49be da98 9bbd
00000270: ead5 ad3d aff9 15be d83a 40be b797 e9b9
00000280: 87fe f83d 6402 6cbe 2219 58be 7022 babd
00000290: 366f 55bc 9a15 b73d c84e dcbd d216 44be
000002a0: 8ea8 1a3d a109 2abe b043 8bbd 3057 11be
000002b0: 226b 20bd f476 fc3d bb4a 7fbd 60ae 303d
000002c0: 2b2b cd3d 37dd 053e 62ac 76bd 44bc 823d
000002d0: 07a4 e33c 349a e33d 7e35 03be 2a06 143e
000002e0: d974 8ebd 08ea 10be 0531 07be ff13 a0bd
000002f0: c511 11bd e315 55bd 35b0 1d3e 4d41 fc3d
00000300: 821d d93c f4da 4bbe c3aa 303e f086 3fbe
00000310: ce49 bebd f8ff ecbc 8449 e5bd 1ca1 e5bd
00000320: 97ad 4bbe cd16 7d3d a20d 0bbc a47d 30be
00000330: a0c2 08be aaec 72be 5f2a a6bd 410b 73bd
00000340: e8ee 0cbe 8504 97be 262e e23d b02f 88be
00000350: a7df 9ebb b99d 11be 761d a0be 733b 67bd
00000360: 2f47 44be 3f54 943d 4b81 2c3e 7adc 54be
00000370: 4549 a63d f378 84be b617 e5bd 4f9f d4bd
00000380: fda8 013b 7436 79be 6142 bbbd ac89 8c3c
00000390: 16ba 4dbe ffd0 a3bc 63df 27be ee62 833d
000003a0: b994 7f3d 8805 613c 1019 04be 87ab 27be
000003b0: 44de 8bbe 49e9 58be 22a5 78bd 25a8 293e
000003c0: 759a b7bd e2fd 44be f2ed 61be 6808 2bbe
000003d0: 29ac a4be d67d 32bc 9b3a 163d ce95 da3d
000003e0: 77c6 8ebe 2523 82bc 7b86 54bd 300a a13d
000003f0: 9f2b ddbb 6a16 21bc ec7a 283e 0656 c23d

conv.0.bias f4 [16]
0.059054654 0.1550062 -0.19096111 -0.18829669 -0.11281325 0.079450175 0.01644633 0.038281042
0.08408589 -0.18419102 0.06019596 -0.09063787 -0.09093686 0.11030405 -0.13416675 0.13659208
00000000: 4be3 713d f2b9 1e3e 4f8b 43be d9d0 40be
00000010: a20a e7bd c6b6 a23d 74ba 863c 95cc 1c3d
00000020: 3935 ac3d 929c 3cbe 0a90 763d 59a0 b9bd
00000030: 1b3d babd 17e7 e13d 0263 09be cbde 0b3e

conv.3.weight f4 [32, 16, 3, 3]
-0.04509868 -0.03910611 0.0070146318 -0.00060265965 -0.07967638 -0.07907544 0.0335297 -0.025987824
0.087519124 0.0072005433 -0.008249997 -0.09614838 -0.0037573052 -0.10150014 -0.09744905 0.016969714
-0.015490762 0.023039868 -0.04688039 0.03588682 -0.06305962 -0.001822168 0.06756945 -0.015116341
-0.07614963 0.068566985 0.044590168 -0.07961353 -0.09157818 -0.13524161 0.10380277 -0.005991019
0.05726384 0.04275552 -0.06373509 0.00028648993 -0.09600183 -0.00085456454 0.031290203 -0.11504162
0.04668934 0.02779688 -0.024043104 0.013359627 0.038878683 0.04016774 -0.010898913 -0.05122313
-0.119759254 -0.041733485 0.035552565 0.011570237 -0.10084025 0.051132977 -0.034384813 -0.112504825
0.013222638 -0.07236619 0.009213797 -0.01599865 -0.061937537 0.026475277 -0.01387519 0.005628365
-0.0055618347 0.057927817 -0.015870437 0.019727465 -0.08854582 0.007846384 0.012165057 0.05032067
-0.07268482 -0.009617786 -0.0525003 0.020251727 -0.004695742 0.031864207 -0.090409815 -0.073909186
0.026204934 -0.08895005 -0.05643136 -0.07612842 -0.012783804 -0.04450422 0.041067105 -0.0019321686
-0.08894013 0.045366716 -0.047944605 -0.09326046 0.027837003 -0.11345661 -0.089243196 -0.103055075
0.03743948 -0.08743962 -0.032726385 -0.09780234 -0.00083841226 -0.11291965 -0.097353 -0.04565981
-0.015904875 -0.115074225 -0.016417475 0.01304983 0.051222503 0.014553331 -0.09439398 0.046152033
-0.07255574 -0.10385408 -0.04562434 0.018033613 -0.024278797 -0.018428136 -0.09422674 0.054838844
0.027151635 0.039591566 -0.025557114 -0.020959498 -0.047927566 0.028773883 -0.002444495 -0.013691042
-0.039222833 -0.050688196 0.02256649 0.022381404 -0.010983426 -0.1056727 -0.02017486 -0.10666231
-0.0082425 0.056472108 -0.020593422 -0.0273533 -0.022653844 -0.049535904 -0.008921933 -0.07299685
-0.01748363 -0.07066408 -0.015572881 -0.070886195 0.060043424 -0.02045277 -0.10311651 -0.024472374
0.0011374524 -0.048283983 0.020972056 -0.07981875 -0.11733178 0.018458802 -0.09965397 -0.09996624
-0.063945375 -0.023406826 0.0035089012 -0.09162125 0.007262795 -0.07946313 0.0037874267 -0.011216945
-0.082917996 -0.14259627 -0.08364501 -0.10295521 -0.011971842 -0.09688098 -0.074243665 -0.067574464
-0.030887323 -0.04477531 -0.06724752 -0.0071032266 0.0074216165 0.04289753 0.037163217 -0.086780846
-0.008108609 -0.029276688 0.019303842 0.039284136 -0.07362348 -0.0377079 -0.084532864 -0.07724024
0.010993718 0.032677818 -0.074043386 -0.048116524 0.005474719 -0.019655108 -0.009139459 0.04481023
-0.048936248 -0.082805894 -0.082331836 -0.035928078 -0.0053773043 -0.078543216 -0.06941969 -0.026223585
0.012098759 -0.08543942 -0.06974365 -0.05058662 -0.09311162 -0.016624922 -0.11279607 -0.07449077
-0.06678444 0.043194827 0.030982645 -0.060288563 -0.05574844 -0.006599129 -0.07361837 -0.1476128
0.0037846405 -0.049017176 0.04739119 0.007934597 -0.045130786 -0.1044406 -0.037168115 -0.018897338
0.005244692 -0.06914247 0.008522126 -0.092726134 0.025331767 -0.05480712 -0.048783224 -0.034708302
-0.19141048 -0.12440199 -0.10263572 0.011447261 0.053125106 0.071516864 0.0356149 -0.06734063
0.10475665 0.014098191 0.047229037 -0.09014379 0.03541824 -0.09938096 -0.07245964 -0.09537856
00000000: 65b9 38bd ba2d 20bd ffda e53b cefb 1dba
00000010: 5f2d a3bd 4ef2 a1bd 7056 093d 6be4 d4bc
00000020: 3a3d b33d 89f2 eb3b ff2a 07bc 71e9 c4bd
00000030: 1f3d 76bb 4edf cfbd 5e93 c7bd 1204 8b3c
00000040: f7cc 7dbc 1bbe bc3c a705 40bd 0ffe 123d
00000050: 6725 81bd d0d5 eeba da61 8a3d 88aa 77bc
00000060: 56f4 9bbd d96c 8c3d 2ea4 363d 6b0c a3bd
00000070: 578d bbbd c77c 0abe 8c96 d43d 4f50 c4bb
00000080: 7d8d 6a3d 6a20 2f3d 8b87 82bd 0734 9639
00000090: 9c9c c4bd db04 60ba 282a 003d f19a ebbd
000000a0: 523d 3f3d 48b6 e33c 0bf6 c4bc 56e2 5a3c
000000b0: 413f 1f3d ee86 243d 5b91 32bc 58cf 51bd
000000c0: 5744 f5bd bbf0 2abd 919f 113d 1791 3d3c
000000d0: 5585 cebd d070 513d 17d7 0cbd ee68 e6bd
000000e0: c3a3 583c ba34 94bd 77f5 163c 9a0f 83bc
000000f0: 37b2 7dbd aee2 d83c c454 63bc 266e b83b
00000100: 0d40 b6bb b845 6d3d b802 82bc 7e9b a13c
00000110: 8357 b5bd 1f8e 003c f24f 473c 0c1d 4e3d
00000120: c7db 94bd eb93 1dbc 8e0a 57bd f3e6 a53c
00000130: bdde 99bb 0b84 023d c828 b9bd b35d 97bd
00000140: bbab d63c 722b b6bd 9224 67bd 38e9 9bbd
00000150: 2973 51bc 0f4a 36bd fb35 283d d240 fdba
00000160: 3e26 b6bd 73d2 393d 9061 44bd 57ff bebd
00000170: 6d0a e43c f05b e8bd 23c5 b6bd 8a0e d3bd
00000180: 245a 193d 8b13 b3bd 1a0c 06bd 984c c8bd
00000190: e5c8 5bba 6b42 e7bd 0261 c7bd c805 3bbd
000001a0: f14a 82bc 09ac ebbd f17d 86bc f4ce 553c
000001b0: b0ce 513d 1871 6e3c a251 c1bd ea09 3d3d
000001c0: 1b98 94bd 73b1 d4bd 97e0 3abd 3abb 933c
000001d0: 54e4 c6bc 9af6 96bc f3f9 c0bd b29e 603d
000001e0: 1b6d de3c c42a 223d 275d d1bc 41b3 abbc
000001f0: b24f 44bd 35b7 eb3c d233 20bb 6450 60bc
00000200: 1fa8 20bd 6d9e 4fbd 5cdd b83c 3559 b73c
00000210: d4f3 33bc ee6a d8bd bf45 a5bc c571 dabd
00000220: 8d0b 07bc 4c4f 673d 89b3 a8bc 0714 e0bc
00000230: 8e94 b9bc 29e6 4abd 4d2d 12bc 5f7f 95bd
00000240: d439 8fbc 54b8 90bd 6625 7fbc c82c 91bd
00000250: 18f0 753d 918c a7bc c02e d3bd 4a7a c8bc
00000260: 9216 953a 6dc5 45bd 97cd ab3c 0378 a3bd
00000270: a54b f0bd ea36 973c 6117 ccbd 1abb ccbd
00000280: cbf5 82bd acbf bfbc 98f5 653b eca3 bbbd
00000290: befc ed3b 91bd a2bd 7a36 783b 47c7 37bc
000002a0: e9d0 a9bd c204 12be 134e abbd 2eda d2bd
000002b0: 8b25 44bc 8969 c6bd 100d 98bd 7b64 8abd
000002c0: 6907 fdbc 5166 37bd 11b9 89bd 2fc2 e8bb
000002d0: 0831 f33b 52b5 2f3d 7538 183d 28ba b1bd
000002e0: f9d9 04bc aad5 efbc 1723 9e3c 67e8 203d
000002f0: e8c7 96bd 9973 1abd 911f adbd 2230 9ebd
00000300: ff1e 343c 2dd9 053d 0fa4 97bd d515 45bd
00000310: 4665 b33b c003 a1bc abbd 15bc ef8a 373d
00000320: 6071 48bd 2396 a9bd 989d a8bd 5229 13bd
00000330: 1934 b0bb 44db a0bd e92b 8ebd d8d2 d6bc
00000340: e039 463c ddfa aebd c2d5 8ebd ea33 4fbd
00000350: 4eb1 bebd fd30 88bc a001 e7bd 9e8e 98bd
00000360: 48c6 88bd 0fed 303d 51cf fd3c 24f1 76bd
00000370: 7a58 64bd 823d d8bb 3ac5 96bd cf27 17be
00000380: bb07 783b 3cc6 48bd 441d 423d 1d00 023c
00000390: 0fdb 38bd f4e4 d5bd 983d 18bd 97ce 9abc
000003a0: aadb ab3b 919a 8dbd 63a0 0b3c 33e7 bdbd
000003b0: 9184 cf3c 6e7d 60bd ebd0 47bd 4b2a 0ebd
000003c0: 1c01 44be 78c6 febd ad32 d2bd 4b8d 3b3c
000003d0: b699 593d 6f77 923d eee0 113d e2e9 89bd
000003e0: a88a d63d 19fc 663c 3c73 413d 4f9d b8bd
000003f0: b712 113d 3f88 cbbd b865 94bd d655 c3bd

conv.3.bias f4 [32]
-0.04035031 0.046749804 0.024605658 0.040710144 -0.026476765 0.03808164 -0.051227152 -0.0018048221
-0.019434504 -0.0901313 0.018635996 -0.06475637 -0.013952153 0.021919494 -0.0034246473 0.030514844
-0.052701496 0.018217936 -0.024967737 -0.032031097 -0.039594367 0.044341814 -0.025147831 -0.05268527
-0.021552214 0.010711825 -0.048200127 -0.040526476 0.05319531 -0.08501666 -0.09508522 -0.034358345
00000000: 5e46 25bd b97c 3f3d ce91 c93c aebf 263d
00000010: cde5 d8bc 7efb 1b3d 90d3 51bd c88f ecba
00000020: 1c35 9fbc c296 b8bd 84aa 983c fd9e 84bd
00000030: 9297 64bc 8390 b33c 0c70 60bb 44fa f93c
00000040: 86dd 57bd c83d 953c 2489 ccbc 0a33 03bd
00000050: b42d 22bd c39f 353d d302 cebc 82cc 57bd
00000060: 458e b0bc a780 2f3c 7f6d 45bd 17ff 25bd
00000070: 53e3 593d 371d aebd 0abc c2bd 56bb 0cbd

fc.0.weight f4 [128, 128]
-0.06317026 0.020641688 0.041653197 -0.057558317 0.02851282 -0.051546805 0.0028931126 -0.08934312
-0.004178678 -0.0062671886 -0.08333243 0.028661244 -0.11245426 -0.013939932 -0.08268359 0.005039066
0.07865824 0.10831343 -0.020772783 -0.10406151 0.020392183 -0.035377383 -0.07725567 0.053730644
0.025007451 -0.056440875 -0.06385894 0.03345141 0.001222683 0.022193806 0.07267892 0.07378939
0.003788942 0.015887117 -0.077082954 0.009413243 -0.07497775 -0.096395686 0.025614588 -0.07453165
-0.06048177 -0.049643528 -0.15073293 -0.10829393 0.046770856 -0.091178074 0.020986088 0.050051276
-0.10158137 0.0061014686 -0.09324803 0.048841953 -0.01561887 -0.056023147 0.021998486 0.0044398434
-0.014408295 -0.01017627 0.07766664 0.01954715 -0.07010038 -0.08867005 -0.041611344 -0.02204393
0.08584034 -0.055776536 -0.08086956 0.03350958 -0.01943193 -0.10903892 0.03405519 0.027448041
0.07830673 -0.03141421 -0.04718538 0.07816543 0.019982522 0.07149011 0.029210871 -0.036381666
0.046775736 -0.003730796 -0.06734663 -0.06666053 0.05558933 0.052761942 -0.19063915 0.09314829
0.025634378 -0.07505956 -0.043074377 -0.020316709 -0.036935575 0.008994314 0.006606987 0.018133635
0.07532033 0.03546843 -0.009759204 0.012318221 -0.03920096 -0.029806925 -0.0042643584 -0.01701713
-0.04090075 0.038486872 0.05391184 -0.06808528 0.05533991 -0.00084685645 -0.063759126 -0.0025577918
0.027775787 0.0009983093 0.0554237 0.05283981 0.058900215 0.09128367 0.021838985 -0.026185773
0.07110806 0.06266687 0.07446889 0.05095871 -0.014222314 0.062050194 -0.016313486 -0.059782837
-0.031163402 -0.0034610275 0.054811485 0.024876248 0.007605228 0.040537518 0.015310734 0.039944895
-0.0747992 -0.036644347 -0.034447953 -0.05927843 -0.075222924 0.060550805 0.007834224 -0.06191066
0.016197462 -0.02362929 -0.08919304 -0.039615247 -0.042635284 -0.009000651 0.027378088 -0.070900425
0.03126187 -0.017861918 0.02378361 -0.06119436 -0.046504904 -0.065336406 0.024394017 0.0778238
0.046027225 0.013866025 -0.0465884 -0.042773824 -0.06496325 0.05960738 0.023687605 -0.04656284
-0.05927212 -0.0073221573 -0.06199197 -0.007463888 -0.029227834 -0.014525746 -0.0035211707 0.0044543305
0.079302564 -0.07326787 0.015303575 0.085747495 -0.058627695 -0.002387176 -0.039714646 -0.006104044
0.017688537 -0.0643734 0.07381878 -0.032405596 0.033203147 0.017840212 0.0232919 0.00923696
0.061598532 -0.045892294 -0.06804236 -0.06973701 0.049590185 -0.07243706 -0.012987771 -0.018119663
0.048175223 -0.053641748 -0.0059840675 0.011245083 0.03502963 -0.06625976 0.010835514 0.06235003
-0.016983254 -0.05577781 -0.046480767 0.052180994 -0.038612723 0.043311723 0.057231795 -0.009944198
-0.06849968 -0.06536161 0.04288024 0.03905602 0.06801009 -0.014800275 0.06693037 -0.065695934
0.062295146 -0.0306761 0.045193203 0.064098254 -0.013434805 -0.008820786 -0.022904187 0.03916801
0.06787879 0.03081235 -0.03419666 -0.0675972 0.04662382 -0.07208465 0.054377563 -0.044201218
0.03695518 -0.03071676 0.034762323 0.0938617 0.042690415 0.080367275 0.0046728463 0.0057017608
-0.020647172 -0.058447443 -0.04368113 -0.019732805 -0.05956116 0.014420673 0.054805588 -0.0007968677
00000000: 695f 81bd c218 a93c 8b9c 2a3d 45c2 6bbd
00000010: b893 e93c be22 53bd 609a 3d3b 87f9 b6bd
00000020: 4bed 88bb fd5c cdbb 31aa aabd fcca ea3c
00000030: 6b4e e6bd 5064 64bc 0456 a9bd c01e a53b
00000040: 9217 a13d 6ed3 dd3d af2b aabc 331e d5bd
00000050: 820d a73c e0e7 10bd 3938 9ebd aa14 5c3d
00000060: 6ddc cc3c 8c2e 67bd 7ac8 82bd 5804 093d
00000070: 6f42 a03a c9cf b53c b0d8 943d e41e 973d
00000080: e64f 783b b325 823c abdd 9dbd 013a 1a3c
00000090: ef8d 99bd 1a6b c5bd afd5 d13c 0da4 98bd
000000a0: bcbb 77bd 0357 4bbd bc59 1abe 35c9 ddbd
000000b0: cc92 3f3d 92bb babd 04eb ab3c 9102 4d3d
000000c0: e509 d0bd d4ee c73b d3f8 bebd 800e 483d
000000d0: 4ae6 7fbc 8778 65bd 2b36 b43c 1b7c 913b
000000e0: c510 6cbc 5fba 26bc b00f 9f3d 5821 a03c
000000f0: ca90 8fbd a598 b5bd a870 2abd 7995 b4bc
00000100: 0fcd af3d f075 64bd f19e a5bd 5741 093d
00000110: b62f 9fbc cc4f dfbd 747d 0b3d b7da e03c
00000120: 475f a03d 30ac 00bd 7545 41bd 3215 a03d
00000130: 63b2 a33c 6869 923d a34b ef3c f104 15bd
00000140: ea97 3f3d 5f80 74bb 08ed 89bd 5185 88bd
00000150: a3b1 633d e81c 583d e936 43be 88c4 be3d
00000160: 30ff d13c d4b8 99bd c26e 30bd 3a6f a6bc
00000170: c249 17bd e35c 133c 6d7f d83b fd8c 943c
00000180: 8c41 9a3d 5847 113d 12e5 1fbc 5dd2 493c
00000190: 3091 20bd a72d f4bc 08bc 8bbb 8267 8bbc
000001a0: 8b87 27bd 69a4 1d3d a9d2 5c3d 4c70 8bbd
000001b0: 1aac 623d 93ff 5dba 2594 82bd a0a0 27bb
000001c0: 0c8a e33c b4d9 823a f603 633d 8e6e 583d
000001d0: 5a41 713d eff2 ba3d ace7 b23c 8c83 d6bc
000001e0: 1aa1 913d 7d57 803d 2583 983d 15ba 503d
000001f0: b504 69bc 5828 7e3d dca3 85bc d9de 74bd
00000200: 644a ffbc 68d2 62bb 0282 603d 46c9 cb3c
00000210: 4735 f93b ab0a 263d dfd9 7a3c 429d 233d
00000220: 5330 99bd 6218 16bd 4c19 0dbd f0cd 72bd
00000230: 7a0e 9abd 1f04 783d 1e5b 003c 0896 7dbd
00000240: 8ab0 843c 3692 c1bc d7aa b6bd 9943 22bd
00000250: 56a2 2ebd 7777 13bc 0348 e03c 3e34 91bd
00000260: 720c 003d 2853 92bc d8d5 c23c f0a6 7abd
00000270: ed7b 3ebd 18cf 85bd f6d5 c73c 1662 9f3d
00000280: 0b87 3c3d 532e 633c 7ad3 3ebd 9b33 2fbd
00000290: 740b 85bd de26 743d 820c c23c adb8 3ebd
000002a0: 53c7 72bd b5ee efbb 4beb 7dbd a193 f4bb
000002b0: 366f efbc 65fd 6dbc 71c3 66bb a2f5 913b
000002c0: 6269 a23d 770d 96bd d9bb 7a3c 629c af3d
000002d0: 9823 70bd 2b72 1cbb d3ab 22bd 6f04 c8bb
000002e0: 8de7 903c 33d6 83bd 4d2e 973d bbbb 04bd
000002f0: 0600 083d a325 923c a8ce be3c 9e56 173c
00000300: be4e 7c3d 8ff9 3bbd cb59 8bbd 47d2 8ebd
00000310: 141f 4b3d e259 94bd a9ca 54bc b06f 94bc
00000320: 6253 453d 73b7 5bbd ff15 c4bb 4c3d 383c
00000330: 3b7b 0f3d 32b3 87bd 7187 313c bf62 7f3d
00000340: 7720 8bbc 4677 64bd 9e62 3ebd bdbb 553d
00000350: 6028 1ebd a267 313d e36b 6a3d fdec 22bc
00000360: 8f49 8cbd 4fdc 85bd 31a3 2f3d 35f9 1f3d
00000370: e048 8b3d da7c 72bc ca12 893d 978b 86bd
00000380: 3229 7f3d 724c fbbc 821c 393d f245 833d
00000390: a81d 5cbc 0f85 10bc 90a1 bbbc a36e 203d
000003a0: 0904 8b3d 2e6a fc3c cc11 0cbd 6770 8abd
000003b0: 9ef8 3e3d 1ea1 93bd 02bb 5e3d 560c 35bd
000003c0: 515e 173d b7a1 fbbc f062 0e3d 903a c03d
000003d0: 25dc 2e3d 9997 a43d ad1e 993b d6d5 ba3b
000003e0: 4224 a9bc 9666 6fbd fcea 32bd b1a6 a1bc
000003f0: 67f6 73bd b044 6c3c d37b 603d e3e4 50ba

fc.0.bias f4 [128]
-0.09080287 -0.12150718 -0.004774984 -0.07263802 0.011575304 0.0062244833 -0.011338613 -0.121554956
0.01217506 -0.03661006 -0.065770976 -0.10509608 0.015229599 -0.12708487 -0.07379657 -0.026383746
-0.09032744 -0.10602874 0.0120137725 -0.065665744 0.016384533 0.002035731 -0.08114271 -0.04631166
-0.046086878 -0.06812714 -0.086123504 -0.08696898 -0.039224703 0.026349785 -0.0026390203 -0.024935277
-0.011139126 -0.019275317 -0.05254279 -0.07772334 0.0075904294 -0.041826103 -0.066503316 0.01281199
-0.07650102 -0.123154454 0.00444733 -0.015939564 -0.11056541 -0.0994219 -0.0009496442 -0.10606195
-0.08546314 -0.04515727 -0.01949725 0.0080888 -0.10817101 -0.022743102 -0.015033138 -0.10733346
-0.044475507 -0.050593767 -0.06618032 -0.058648255 -0.07393291 -0.10334617 -0.039917283 -0.0007606517
-0.0061565237 -0.088769436 -0.026533328 -0.052124474 -0.11502917 0.011259777 -0.0017612439 0.037025303
-0.017358797 0.021291325 0.003672094 -0.010270594 0.02457846 -0.012916849 0.015492814 0.032526553
-0.04870927 -0.00789005 -0.048272762 -0.11995505 -0.06372542 -0.02821374 -0.092286125 -0.14618574
-0.019158274 -0.10176044 -0.058125593 0.01203222 -0.17364506 -0.0998037 -0.08431605 -0.030324811
0.0028593694 -0.10089234 -0.0022454113 -0.11095791 -0.055381984 -0.101708375 -0.022672899 0.016574837
-0.063420035 0.009893844 -0.10179404 -0.009081879 -0.103588186 -0.054303505 -0.0011964585 -0.10264973
0.014664211 -0.10202544 -0.018381784 -0.07450259 -0.033061165 0.020470606 -0.06108469 -0.03278755
-0.008942711 -0.08209642 -0.010303982 -0.02821993 -0.12458837 -0.06290475 -0.030602414 -0.04627397
00000000: dbf6 b9bd c2d8 f8bd 7877 9cbb 3ec3 94bd
00000010: 58a6 3d3c c0f6 cb3b 97c5 39bc cef1 f8bd
00000020: e779 473c 6ef4 15bd efb2 86bd 9d3c d7bd
00000030: 9185 793c 8922 02be a822 97bd ba22 d8bc
00000040: 98fd b8bd 9925 d9bd 6ad5 443c c37b 86bd
00000050: db38 863c e669 053b 262e a6bd 4cb1 3dbd
00000060: 98c5 3cbd 3e86 8bbd 8561 b0bd cb1c b2bd
00000070: 15aa 20bd 81db d73c 6af3 2cbb 1145 ccbc
00000080: e180 36bc 45e7 9dbc 1c37 57bd 6a2d 9fbd
00000090: 23b9 f83b d951 2bbd e432 88bd 62e9 513c
000000a0: 91ac 9cbd 6738 fcbd e8ba 913b b093 82bc
000000b0: 1e70 e2bd b69d cbbd 8bf1 78ba 0237 d9bd
000000c0: 4c07 afbd d4f6 38bd b2b8 9fbc e386 043c
000000d0: c388 ddbd be4f babc 8d4d 76bc a5d1 dbbd
000000e0: f32b 36bd 693b 4fbd 8c89 87bd 2739 70bd
000000f0: 236a 97bd 28a7 d3bd 4e80 23bd 7966 47ba
00000100: aabc c9bb c0cc b5bd 6c5c d9bc 7980 55bd
00000110: 6a94 ebbd ed7a 383c 8ad9 e6ba d8a7 173d
00000120: 0934 8ebc 256b ae3c 84a7 703b fe45 28bc
00000130: c458 c93c 31a1 53bc 92d5 7d3c 903a 053d
00000140: 5f83 47bd 4545 01bc a9b9 45bd feaa f5bd
00000150: 7982 82bd 8020 e7bc 8200 bdbd b7b1 15be
00000160: d0f1 9cbc c767 d0bd 1a15 6ebd ca22 453c
00000170: 03d0 31be e265 ccbd e5ad acbd bd6b f8bc
00000180: 4264 3b3b a5a0 cebd c027 13bb e73d e3bd
00000190: 38d8 62bd 7b4c d0bd 84bc b9bc f4c7 873c
000001a0: 5de2 81bd ca19 223c 6579 d0bd 29cc 14bc
000001b0: 0b26 d4bd 5a6d 5ebd 7cd2 9cba 063a d2bd
000001c0: 2942 703c b7f2 d0bd 6595 96bc d094 98bd
000001d0: 256b 07bd f9b1 a73c f133 7abd 3d4c 06bd
000001e0: 7384 12bc 2b22 a8bd 08d2 28bc 7c2d e7bc
000001f0: 3028 ffbd 35d4 80bd eab1 fabc c689 3dbd

fc.2.weight f4 [64, 128]
-0.020107487 -0.033230476 -0.053263005 -0.00089248776 -0.022481116 -0.037470847 -0.046395212 0.07078956
0.03749102 -0.0152301425 0.037135858 0.05888474 0.035340175 -0.05419662 0.016342014 0.007713616
7.4103926e-05 -0.05152432 0.071307756 0.026775219 -0.061120916 -0.06292236 -0.07774378 -0.012060189
-0.087666124 -0.08880272 0.029866952 0.01266628 0.067040004 -0.026961425 -0.05412268 -0.04077054
0.013670105 -0.008985708 0.056891464 -0.059460904 0.03500931 0.06517961 -0.06180348 0.069090195
-0.037924036 -0.06981443 -0.026097257 -0.05110838 -0.06918376 0.014111154 -0.08996908 0.051955227
0.07363234 -0.025060944 -0.0685143 -0.08010485 -0.08447497 -0.019061767 -0.024785416 0.07552607
0.04578024 0.028643504 0.049805727 -0.013552561 0.0725925 0.032501448 -0.07851624 0.077864125
0.0500224 -0.065834686 -0.0637695 0.062185988 -0.09250196 -0.061425067 -0.022742283 -0.0900509
0.015907446 -0.018450147 0.05456266 0.010574453 -0.040067308 0.017716847 -0.055521805 0.04430744
0.024398446 0.036303256 0.009716501 -0.013972324 -0.033162456 0.06178824 -0.017127134 -0.018596949
0.08942687 -0.042995054 0.06641901 -0.038431756 0.0012288145 -0.089833274 -0.016925363 0.00452612
0.07551838 -0.013815619 0.030137807 0.023920856 -0.027381025 -0.09299392 -0.08140098 -0.04396561
-0.04458375 -0.08035014 -0.025379365 -0.054010574 0.03241368 -0.078441024 -0.08746804 -0.037938327
-0.01991809 -0.08424698 -0.004228244 -0.027502324 0.04823754 -0.021104863 0.043674834 -0.06315412
0.07050184 0.06933959 -0.04201768 -0.08355334 0.044354953 0.015216272 0.023372805 0.02268653
-0.08463664 0.040051293 -0.044844866 0.07568754 -0.0432375 -0.039804503 0.04840944 0.0061167222
-0.10466461 -0.019447489 -0.13650315 -0.09084447 -0.04557863 -0.054471575 -0.023082282 -0.08188116
0.07029047 0.022226566 0.049142785 0.03347865 -0.022873819 -0.03099134 -0.015897527 -0.070602916
-0.062384512 0.002925366 -0.0038641589 0.004058012 0.03218757 -0.03210281 0.04337967 -0.07185502
-0.07768248 -0.12692076 0.013467888 0.050142467 -0.034227278 -0.11601591 -0.09077329 0.059074637
0.024832971 -0.018867495 0.011820464 -0.01472884 -0.0050334297 -0.034500923 -0.051454186 -0.07226407
0.056436226 -0.090467624 0.08223939 -0.0073048496 0.02060295 -0.04095116 -0.0408871 0.065636255
-0.14246725 -0.056218885 0.010998035 -0.03843463 -0.044710044 -0.06925276 0.024037015 -0.0395188
-0.040870823 -0.036402564 -0.04122723 -0.05170757 -0.030531956 -0.055463374 -0.008331923 0.0026253958
-0.04441838 -0.005724668 0.05139563 -0.063276276 -0.0565851 -0.0017063529 0.06936222 -0.015192466
-0.044440225 -0.03938675 -0.0828715 -0.07525001 0.10125644 -0.06996511 -0.049817502 -0.078273624
-0.05661078 -0.06098433 -0.09012284 0.070436046 -0.06445912 -0.052207373 0.018274652 -0.09352693
-0.046751842 -0.05598221 -0.047580067 -0.01456874 -0.0047654 0.057699516 -0.0313455 -0.013253757
-0.053164855 -0.05787177 -0.08653961 -0.08444082 -0.04906797 0.030104171 -0.026791943 -0.075119264
-0.014739432 -0.08604678 -0.020249797 0.08190921 0.037277397 -0.081801124 0.07126423 -0.035622023
-0.08977485 0.049212713 -0.087274574 -0.039071225 -0.057243664 -0.008483466 -0.1155884 -0.013603311
00000000: 75b8 a4bc ae1c 08bd 4f2a 5abd d7f5 69ba
00000010: 512a b8bc 087b 19bd e808 3ebd 1efa 903d
00000020: 2f90 193d d987 79bc c51b 183d 2031 713d
00000030: dcc0 103d 46fd 5dbd b0df 853c 80c2 fc3b
00000040: 3e68 9b38 2a0b 53bd cd09 923d b457 db3c
00000050: ed59 7abd 70dd 80bd 2238 9fbd 1998 45bc
00000060: 4c8a b3bd 33de b5bd 8aab f43c 3b86 4f3c
00000070: 454c 893d 35de dcbc beaf 5dbd 02ff 26bd
00000080: 93f8 5f3c ca38 13bc 0607 693d 478d 73bd
00000090: ec65 0f3d e37c 853d a525 7dbd 297f 8d3d
000000a0: 3c56 1bbd defa 8ebd eac9 d5bc 0557 51bd
000000b0: 37b0 8dbd 7832 673c b641 b8bd 01cf 543d
000000c0: 8dcc 963d 9c4c cdbc 3a51 8cbd 030e a4bd
000000d0: 3701 adbd 6c27 9cbc c90a cbbc 6aad 9a3d
000000e0: 1084 3b3d c8a5 ea3c 1701 4c3d 900b 5ebc
000000f0: 60ab 943d 3d20 053d 1fcd a0bd 3a77 9f3d
00000100: 4ae4 4c3d 56d4 86bd 9599 82bd bcb6 7e3d
00000110: ab71 bdbd da98 7bbd 064e babc 9b6c b8bd
00000120: 5550 823c c324 97bc 197d 5f3d 7840 2d3c
00000130: 9e1d 24bd ec22 913c d56a 63bd b87b 353d
00000140: 40df c73c b9b2 143d f631 1f3c 2dec 64bc
00000150: 5bd5 07bd aa15 7d3d 344e 8cbc a158 98bc
00000160: 6f25 b73d 951b 30bd b106 883d 9e6a 1dbd
00000170: 2c10 a13a 82fa b7bd 0fa7 8abc d94f 943b
00000180: 61a9 9a3d e85a 62bc 90e3 f63c acf5 c33c
00000190: 2c4e e0bc 9973 bebd 8fb5 a6bd 4915 34bd
000001a0: 739d 36bd 9d8e a4bd 63e8 cfbc 313a 5dbd
000001b0: 35c4 043d b0a5 a0bd 7222 b3bd 3865 1bbd
000001c0: 432b a3bc ae89 acbd 158d 8abb 8e4c e1bc
000001d0: ba94 453d 1be4 acbc 62e4 323d f356 81bd
000001e0: 4563 903d ea01 8e3d bb1a 2cbd 031e abbd
000001f0: 8aad 353d ac4d 793c 5378 bf3c 1ad9 b93c
00000200: fa55 adbd d30c 243d 40af 37bd 1202 9b3d
00000210: ce19 31bd 0c0a 23bd fa48 463d c96e c83b
00000220: 665a d6bd 5750 9fbc 7bc7 0bbe aa0c babd
00000230: a8b0 3abd 961d 5fbd 0e17 bdbc 4fb1 a7bd
00000240: 73f4 8f3d 7d14 b63c f249 493d e920 093d
00000250: e061 bbbc 8de1 fdbc 883b 82bc 4398 90bd
00000260: e786 7fbd 7fb7 3f3b d43d 7dbb 12f9 843b
00000270: 1dd7 033d 3c7e 03bd e1ae 313d ba28 93bd
00000280: fe17 9fbd 84f7 01be 6ba8 5c3c 3062 4d3d
00000290: e731 0cbd c099 edbd 59e7 b9bd 3ff8 713d
000002a0: 846e cb3c 0190 9abc 9faa 413c 3c51 71bc
000002b0: 78ef a4bb d750 0dbd a0c1 52bd 2fff 93bd
000002c0: ac29 673d 1747 b9bd 206d a83d 855d efbb
000002d0: 85c7 a83c 67bc 27bd 3b79 27bd 4d6c 863d
000002e0: efe2 11be c645 66bd 1a31 343c a16d 1dbd
000002f0: e121 37bd 64d4 8dbd 46e9 c43c 77de 21bd
00000300: 2a68 27bd db1a 15bd e2dd 28bd 51cb 53bd
00000310: 271e fabc 902d 63bd 9e82 08bc d50e 2c3b
00000320: 0cf0 35bd ff95 bbbb 3984 523d fe96 81bd
00000330: c7c5 67bd b4a7 dfba c80d 8e3d d2e9 78bc
00000340: f406 36bd 0054 21bd 88b8 a9bd ad1c 9abd
00000350: 895f cf3d de49 8fbd 700d 4cbd ec4d a0bd
00000360: b5e0 67bd b4ca 79bd 5392 b8bd c640 903d
00000370: 2503 84bd 66d7 55bd b9b4 953c 0c8b bfbd
00000380: dc7e 3fbd 9a4d 65bd 51e3 42bd b9b1 6ebc
00000390: 1327 9cbb 5456 6c3d 2464 00bd 4926 59bc
000003a0: 64c3 59bd f30a 6dbd ae3b b1bd 4fef acbd
000003b0: 7ffb 48bd 069d f63c c77a dbbc 21d8 99bd
000003c0: a97d 71bc 4b39 b0bd e7e2 a5bc 04c0 a73d
000003d0: 2fb0 183d 5987 a7bd fbf2 913d 66e8 11bd
000003e0: e0db b7bd 4593 493d 03bd b2bd 2609 20bd
000003f0: 5578 6abd 3cfe 0abc 9cb9 ecbd 6ce0 5ebc

fc.2.bias f4 [64]
-0.043008655 -0.004883854 -0.0061777406 -0.017178379 -0.025519008 -0.018970428 -0.01152046 0.07446624
-5.9217666e-05 0.05793309 -0.028353887 -0.039711047 -0.08759238 -0.015950333 -0.054480717 0.1250898
0.17147046 -0.08918479 0.05969471 0.034307998 -0.077059366 -0.0028273154 -0.09266001 -0.019292891
-0.039363623 0.11235553 -0.058394775 -0.04356052 -0.01819799 0.07052609 -0.054747064 -0.015177517
0.05588554 -0.0027630373 -0.033540856 -7.7163575e-05 -8.348179e-06 -0.056011096 -0.044301786 -0.0479638
0.17192353 -0.011236486 -0.039042123 0.032504372 -0.09654027 -0.026921662 -0.0062517263 -0.03381861
-0.025939293 -0.036518835 0.15461923 -0.03794143 0.01612986 -0.069382735 -0.038228765 -0.013362041
-0.0010778675 0.08655922 -0.077471405 0.14884728 0.15637949 -0.0677977 -0.060980506 -0.054321535
00000000: d829 30bd bd08 a0bb a56e cabb acb9 8cbc
00000010: 3d0d d1bc df67 9bbc 50c0 3cbc c281 983d
00000020: 7c60 78b8 3f4b 6d3d 6946 e8bc 0da8 22bd
00000030: a263 b3bd 46aa 82bc 2c27 5fbd 8a17 003e
00000040: f495 2f3e 84a6 b6bd 7182 743d 8b86 0c3d
00000050: 4dd1 9dbd 7b4a 39bb 88c4 bdbd 200c 9ebc
00000060: c03b 21bd a81a e63d 5c2f 6fbd 846c 32bd
00000070: f313 95bc fc6f 903d 753e 60bd 1fab 78bc
00000080: 3ce8 643d 1314 35bb 2362 09bd e1d2 a1b8
00000090: 280f 0cb7 e46b 65bd ca75 35bd b175 44bd
000000a0: b90c 303e 3d19 38bc a2ea 1fbd 4e23 053d
000000b0: e8b6 c5bd d18a dcbc 48db ccbb 6285 0abd
000000c0: a47e d4bc c694 15bd 8154 1e3e 7968 1bbd
000000d0: c522 843c 8918 8ebd c495 1cbd 76ec 5abc
000000e0: 3b47 8dba f645 b13d 54a9 9ebd 6c6b 183e
000000f0: f221 203e 85d9 8abd b2c6 79bd 4280 5ebd

fc.4.weight f4 [1, 64]
0.009402333 -2.3551604e-05 0.0027445573 -0.031673826 -0.005335081 0.020536633 -0.10275134 0.06262388
-0.0002533053 0.07031048 -0.021212304 -0.08044195 -0.0040123947 -0.079912856 -0.060440145 0.12540632
0.15383618 0.018107118 0.06922511 0.025047854 -0.06882834 0.003010025 0.0767793 -0.044493534
-0.06846811 0.120265044 0.0006446861 -0.10562046 -0.08286421 0.045079496 0.060034413 -0.03180488
0.030805282 0.003355873 -0.0164922 7.207126e-05 -0.00015178409 -0.077378884 0.06807517 -0.06877019
0.1565872 0.075120136 -0.036486223 0.018925274 0.06801939 0.02252534 0.05024483 -0.0065314923
-0.003742793 -0.09372585 0.1524152 -0.04421944 0.025717335 -0.07519608 -0.06733381 0.029574122
0.007579667 0.067696154 -0.036868833 0.10624957 0.12812243 0.0070388787 -0.06404804 0.06047746
00000000: 3e0c 1a3c af90 c5b7 08de 333b 6abc 01bd
00000010: e7d1 aebb 713c a83c 4b6f d2bd f340 803d
00000020: 10ce 84b9 f1fe 8f3d 6dc5 adbc c0be a4bd
00000030: 687a 83bb 5aa9 a3bd 1690 77bd 846a 003e
00000040: 3b87 1d3e 6155 943c e5c5 8d3d 2831 cd3c
00000050: dff5 8cbd d743 453b 773e 9d3d da3e 36bd
00000060: 0239 8cbd 854d f63d 2700 293a 8a4f d8bd
00000070: b6b4 a9bd 47a5 383d a5e6 753d d545 02bd
00000080: 5c5b fc3c 35ee 5b3b a61a 87bc f724 9738
00000090: 3b28 1fb9 d278 9ebd ff6a 8b3d 63d7 8cbd
000000a0: 6558 203e 96d8 993d 9472 15bd 2d09 9b3c
000000b0: c04d 8b3d 1087 b83c 86cd 4d3d 2106 d6bb
000000c0: a649 75bb 57f3 bfbd bb12 1c3e 721f 35bd
000000d0: 29ad d23c 6700 9abd 4fe6 89bd 6e45 f23c
000000e0: db5e f83b 48a4 8a3d c603 17bd 6099 d93d
000000f0: 8732 033e 65a6 e63b 9e2b 83bd 37b7 773d

exp_avg f4 [16, 2, 3, 3]
3.1275456e-09 -2.3580894e-08 -3.476127e-07 -3.2556193e-07 -7.580238e-07 -7.2275134e-07 1.2970376e-08 -2.4246728e-07
-4.5013797e-07 -5.0032643e-08 -9.186376e-08 -9.226277e-08 2.1816637e-08 -1.8029201e-08 -1.3485338e-08 9.5054965e-08
4.8300596e-08 5.3555674e-08 -9.043758e-07 -5.135511e-07 -2.5123292e-08 3.5936022e-08 2.3538966e-08 4.0689608e-07
-1.2028785e-08 3.9387047e-07 2.3906006e-07 -2.4954466e-07 -1.8397483e-07 -2.0191246e-07 -2.4956537e-07 -1.8399555e-07
-2.0191246e-07 -2.8832443e-07 -2.2927269e-07 -2.7500403e-07 7.40394e-08 1.0222419e-07 4.9834572e-08 -6.127613e-08
-1.4971529e-07 4.431217e-09 1.4247897e-06 3.7199192e-07 1.7872244e-08 1.14374785e-07 1.14374785e-07 5.789014e-08
1.5168216e-07 1.5168216e-07 8.666846e-08 1.5077963e-07 1.5077963e-07 8.576592e-08 -6.1246493e-07 -3.0074364e-07
-1.8550034e-09 -2.6670095e-08 -9.4309206e-07 -8.40028e-07 -3.840776e-09 -3.184561e-08 1.8365487e-09 -7.536195e-08
-6.836597e-08 -5.86836e-08 -9.7724445e-08 -9.0987015e-08 -5.931285e-08 2.2495998e-08 2.923344e-08 5.2971185e-08
3.4787722e-09 4.2946886e-07 3.9750935e-07 -5.5711848e-08 5.7122232e-08 2.6253477e-07 2.509146e-07 9.691314e-11
6.65336e-09 2.1723945e-08 7.170364e-08 6.025398e-08 2.2011987e-08 7.199168e-08 6.054522e-08 3.7321808e-08
5.1311414e-08 3.621265e-08 4.7041677e-08 3.915866e-07 -1.6150619e-08 4.531813e-07 8.145102e-07 1.4587539e-06
1.2433904e-08 -2.2218956e-09 1.8240366e-08 1.2184428e-07 1.4492609e-07 1.5117571e-07 1.4280583e-07 1.6323233e-07
1.6948557e-07 5.876031e-08 5.6955745e-08 6.3719675e-08 -4.741885e-07 -2.4789858e-07 -2.3223352e-08 -4.153234e-09
-6.5094e-07 -6.5972716e-07 -4.4099918e-11 2.3662043e-09 -6.303349e-12 -6.709808e-08 -6.4521295e-08 -6.203277e-08
-7.208452e-08 -6.950772e-08 -6.202308e-08 -6.890837e-09 -6.893656e-09 -1.0640935e-10 8.45083e-08 -2.4541992e-08
-1.6195618e-07 -1.4064997e-07 -2.4994085e-09 1.4101724e-08 -7.279934e-11 3.5414664e-07 -2.8569036e-07 -2.4033037e-08
4.4085798e-08 4.3567386e-08 -2.4033037e-08 4.4085798e-08 4.3567386e-08 -2.9003784e-08 2.6018796e-08 2.6018796e-08
3.088277e-07 1.12680155e-07 8.8185004e-08 1.4142367e-07 1.9212207e-07 9.34974e-09 5.6324467e-08 1.5062501e-06
-9.145189e-09 3.9478917e-07 4.0823952e-07 1.7961335e-07 3.9959218e-07 4.1510347e-07 1.8552913e-07 3.8393398e-07
3.994453e-07 1.8378036e-07 1.8309679e-08 -6.3545315e-08 5.936208e-08 5.000574e-07 1.242841e-07 1.1382925e-08
-7.926527e-07 3.2411958e-08 -3.2090017e-09 -1.06751735e-07 -2.0729011e-07 -1.9548858e-07 -3.8742474e-08 -1.3928086e-07
-1.2132841e-07 -4.2863004e-08 -1.2948367e-07 -1.1165977e-07 -2.0114689e-07 5.2312305e-07 -6.847399e-08 3.696738e-07
5.7118297e-07 -2.7920356e-07 9.34675e-08 1.303694e-07 2.5321287e-07 -2.765521e-08 3.2966614e-09 -4.6269927e-10
9.097332e-09 4.00492e-08 3.6296395e-08 -4.453221e-10 4.178049e-08 2.003782e-08 6.6045697e-10 8.0043644e-10
7.931922e-10 1.1980853e-08 5.5943966e-10 2.0836384e-10 -3.5999693e-11 1.8919181e-16 -4.5321004e-12 -9.635459e-11
-9.635459e-11 4.23094e-14 -9.635459e-11 -9.635459e-11 4.23094e-14 -4.41566e-40 -4.41566e-40 -6e-45
2.0359262e-07 5.2955767e-07 5.994794e-07 8.103523e-08 1.0237096e-06 3.5222836e-09 1.0128569e-07 7.204895e-08
4.7685865e-07 1.3753206e-07 1.164147e-07 1.1678509e-07 1.5645885e-07 1.3505145e-07 1.3098237e-07 1.2100296e-07
9.321636e-08 8.634982e-08 3.350291e-08 2.2313141e-07 1.7965341e-08 -3.158643e-08 -2.0330697e-07 7.6204697e-07
4.6673584e-08 1.2261163e-08 -2.5744873e-08 2.7231058e-08 5.7881284e-08 5.7881284e-08 8.3366885e-08 1.0746635e-07
1.01748356e-07 8.786221e-08 7.777954e-08 7.206155e-08 6.974541e-09 -8.1780875e-08 -1.7313818e-07 -5.246659e-07
00000000: 5dec 5631 ef8e cab2 879f bab4 e4c8 aeb4
00000010: 007b 4bb5 1803 42b5 51d4 5e32 732c 82b4
00000020: 7eaa f1b4 79e3 56b3 a346 c5b3 ff21 c6b3
00000030: 4b67 bb32 a2de 9ab2 25ad 67b2 0521 cc33
00000040: 1173 4f33 1605 6633 3bc4 72b5 f6da 09b5
00000050: b4ce d7b2 1358 1a33 bc32 ca32 5f73 da34
00000060: 28a7 4eb2 2575 d334 2a58 8034 28f9 85b4
00000070: 9e8a 45b4 46cd 58b4 01fc 85b4 5090 45b4
00000080: 46cd 58b4 02cb 9ab4 ff2d 76b4 44a4 93b4
00000090: 97ff 9e33 5886 db33 b109 5633 e996 83b3
000000a0: 6dc1 20b4 6641 9831 673b bf35 2eb6 c734
000000b0: 7b85 9932 349e f533 349e f533 e2a2 7833
000000c0: 13de 2234 13de 2234 7d1e ba33 fde5 2134
000000d0: fde5 2134 502e b833 4568 24b5 e475 a1b4
000000e0: 21f3 feb0 2918 e5b2 cb28 7db5 497e 61b5
000000f0: d3f7 83b1 9ec6 08b3 d069 fc30 acd6 a1b3
00000100: 97d0 92b3 4d0b 7cb3 95dc d1b3 a464 c3b3
00000110: 2bbf 7eb3 393d c132 041d fb32 6f82 6333
00000120: 350f 6f31 c091 e634 4569 d534 d347 6fb3
00000130: 8f56 7533 81f2 8c34 71b5 8634 3f1d d52e
00000140: 939b e431 769b ba32 7efb 9933 fa64 8133
00000150: df14 bd32 d899 9a33 1605 8233 c34b 2033
00000160: 7f61 5c33 3b88 1b33 df0a 4a33 413b d234
00000170: 96bb 8ab2 c34c f334 b7a4 5a35 67ca c335
00000180: e39c 5532 00b0 18b1 fdae 9c32 4dd4 0234
00000190: fb9c 1b34 dd52 2234 2b56 1934 f644 2f34
000001a0: d7fb 3534 a55f 7c33 819f 7433 43d6 8833
000001b0: f993 feb4 ec16 85b4 b17c c7b2 3cb4 8eb1
000001c0: 42bc 2eb5 1b18 31b5 18f4 41ae b59a 2231
000001d0: 85c7 ddac 8f17 90b3 f58e 8ab3 e036 85b3
000001e0: e2cc 9ab3 4644 95b3 8c31 85b3 71c4 ecb1
000001f0: 3ddd ecb1 23ff e9ae ee7a b533 69d0 d2b2
00000200: 2de6 2db4 9205 17b4 0fc2 2bb1 0a44 7232
00000210: 6316 a0ae 8b21 be34 fc60 99b4 3571 ceb2
00000220: d958 3d33 d91e 3b33 3571 ceb2 d958 3d33
00000230: d91e 3b33 ff23 f9b2 f07f df32 f07f df32
00000240: f5cc a534 92fa f133 3860 bd33 3eda 1734
00000250: 1d4a 4e34 97a0 2032 68e9 7133 5c2a ca35
00000260: f71c 1db2 69f3 d334 032c db34 bedb 4034
00000270: 8887 d634 63db de34 dc35 4734 7c1f ce34
00000280: 5873 d634 2955 4534 6947 9d32 6876 88b3
00000290: 4cf5 7e33 af3b 0635 f472 0534 a28e 4332
000002a0: aec6 54b5 5335 0b33 5b85 5cb1 633f e5b3
000002b0: 7993 5eb4 7ee7 51b4 cd65 26b3 3b8d 15b4
000002c0: 8046 02b4 5f18 38b3 3308 0bb4 9cc9 efb3
000002d0: d6fa 57b4 be6c 0c35 f90b 93b3 9577 c634
000002e0: 6553 1935 72e5 95b4 4db8 c833 abfb 0b34
000002f0: 50f1 8734 738e edb2 7b8b 6231 225f feaf
00000300: 7d4a 1c32 9002 2c33 4fe4 1b33 84d1 f4af
00000310: 2272 3333 a21f ac32 878b 3530 b505 5c30
00000320: f007 5a30 59d4 4d32 11c7 1930 3519 652f
00000330: 0d54 1eae 911f 5a25 8875 9fac d0e2 d3ae
00000340: d0e2 d3ae 6b8b 3e29 d0e2 d3ae d0e2 d3ae
00000350: 6b8b 3e29 e8ce 0480 e8ce 0480 0400 0080
00000360: 1d9b 5a34 ed26 0e35 e9eb 2035 9705 ae33
00000370: 6566 8935 ab0c 7231 6682 d933 54b9 9a33
00000380: 7a01 0035 86ac 1334 a8ff f933 48cb fa33
00000390: 15ff 2734 a902 1134 29a4 0c34 0aed 0134
000003a0: 3c2e c833 516f b933 d7e4 0f33 e595 6f34
000003b0: 3452 9a32 a6a9 07b3 984c 5ab4 788f 4c35
000003c0: 2676 4833 2aa5 5232 9325 ddb2 bbe9 e932
000003d0: 2599 7833 2599 7833 6e07 b333 40c8 e633
000003e0: c080 da33 c3ae bc33 c107 a733 42c0 9a33
000003f0: b6a4 ef31 839f afb3 dce7 39b4 c4d6 0cb5

exp_avg_sq f4 [16, 2, 3, 3]
2.8988582e-11 1.7024552e-11 1.2473989e-10 3.086846e-10 7.3674555e-09 4.524511e-09 1.6977314e-11 1.7689432e-09
3.658666e-09 1.4051462e-11 3.9226133e-11 3.9581848e-11 1.9203989e-11 6.515786e-11 6.6266506e-11 1.4746475e-11
5.6738513e-11 5.8129713e-11 4.5808424e-09 2.9961094e-09 6.165469e-09 7.2598305e-10 1.4630961e-09 1.3351621e-09
1.0211096e-11 1.9060522e-09 1.2496268e-10 1.1928658e-10 1.3862089e-10 1.224842e-10 1.2137014e-10 1.4088189e-10
1.2287775e-10 7.133478e-11 8.0332324e-11 7.129733e-11 1.6617499e-11 2.418856e-12 7.283336e-12 1.8330808e-09
3.6882955e-11 1.1194945e-11 3.9329273e-09 1.7813348e-10 4.414625e-11 3.555868e-11 3.555868e-11 2.516936e-11
4.2287458e-11 4.2287458e-11 2.994824e-11 3.4455473e-11 3.4455473e-11 2.2209254e-11 1.381164e-09 1.620727e-10
1.18121355e-11 3.2935255e-11 4.05456e-09 2.9712388e-10 9.883911e-13 3.2167e-11 1.6216629e-11 1.7414941e-11
1.8010263e-11 1.6008098e-11 1.8527185e-11 1.907636e-11 1.6017852e-11 1.4649186e-11 1.5216349e-11 1.4217049e-11
6.063047e-12 8.4525875e-10 1.3496333e-10 8.425097e-10 5.1854393e-10 1.3547994e-09 1.0302501e-09 6.0873116e-13
1.072357e-12 7.746149e-12 8.44378e-12 6.889008e-12 7.6956505e-12 8.3854364e-12 6.839692e-12 5.405578e-12
5.681304e-12 4.980665e-12 1.13253046e-10 1.1719922e-09 7.154199e-11 4.9671116e-09 8.707972e-10 5.752067e-09
1.7322156e-10 2.7685061e-12 4.3732574e-12 4.25552e-11 4.7193735e-11 3.8308204e-11 4.7743927e-11 5.2686133e-11
4.0910258e-11 4.0313405e-11 4.52901e-11 3.6253753e-11 8.8308627e-10 1.15794055e-10 5.390574e-11 2.9010577e-11
2.0727853e-09 9.2505353e-10 8.3684806e-13 1.1585469e-09 7.468729e-13 8.338896e-12 1.0796548e-11 9.2035424e-12
8.886983e-12 1.1415908e-11 9.377162e-12 7.558039e-12 1.0100159e-11 7.933017e-12 3.5094183e-10 7.324527e-10
1.6064798e-09 2.377571e-09 5.5873656e-10 1.2518938e-11 3.686163e-13 8.22216e-10 5.0313415e-10 1.5728963e-11
2.4494563e-11 2.2156827e-11 1.5720415e-11 2.44864e-11 2.2149388e-11 8.622345e-12 1.1307198e-11 1.1106046e-11
1.0833329e-10 7.124706e-10 2.8567732e-11 7.8531404e-10 3.643946e-10 3.9133974e-12 1.6799288e-11 2.5861964e-09
1.5155942e-10 3.1578764e-11 3.4891645e-11 2.140694e-11 3.4014975e-11 3.575923e-11 1.9709722e-11 3.317092e-11
3.530754e-11 1.9881836e-11 6.593498e-12 2.5120833e-10 2.8531347e-10 8.748026e-09 3.6937822e-10 5.360256e-11
6.7400987e-09 1.752191e-10 9.1352187e-10 1.0225572e-10 9.464647e-11 7.168267e-11 8.919282e-11 8.050015e-11
6.0256654e-11 8.235646e-11 8.2018156e-11 6.189564e-11 2.9431863e-08 7.5989426e-08 8.938011e-09 1.3168001e-07
2.9333425e-08 1.7714587e-08 1.3024306e-09 6.861759e-09 1.7447709e-08 1.547204e-09 1.5447741e-09 1.1632145e-09
1.5633971e-09 1.5610349e-09 1.17781e-09 6.43622e-10 6.081378e-10 4.967151e-10 3.4567577e-12 2.1845357e-11
1.2963258e-13 1.0828722e-09 4.8327887e-11 7.02161e-13 4.378405e-14 4.639914e-14 2.2836987e-13 3.5593482e-13
3.5593482e-13 3.2440785e-13 3.775883e-13 3.775883e-13 3.4563324e-13 1.3008167e-13 1.3008167e-13 1.2283965e-13
2.89442e-10 6.935375e-09 1.2882371e-08 3.3431524e-10 1.4422742e-08 1.3520032e-10 1.8469024e-10 7.6359535e-10
8.101602e-09 1.0633523e-10 1.8045973e-10 1.795498e-10 1.0798153e-10 1.7604035e-10 1.8218885e-10 6.761577e-11
1.1175129e-10 1.184766e-10 8.1265474e-11 9.3423665e-11 7.500279e-12 1.6294735e-10 3.497147e-10 5.7719647e-09
1.6747537e-10 3.558172e-11 1.3306297e-11 4.7630965e-11 4.926058e-11 4.9911644e-11 3.476982e-11 3.9735153e-11
5.6280026e-11 2.22899e-11 2.6432615e-11 3.9949592e-11 5.959238e-10 4.8012894e-10 2.0463844e-09 4.0804204e-09
00000000: 7cfc fe2d e2bf 952d 2827 092f 7fb3 a92f
00000010: d324 fd31 0576 9b31 8355 952d 281f f330
00000020: ef6b 7b31 2932 772d b384 2c2e 3315 2e2e
00000030: 8aeb a82d 9d48 8f2e bab8 912e 1cb6 812d
00000040: e389 792e 3da8 7f2e 8465 9d31 1de4 4d31
00000050: 0ad8 d331 848e 4730 1e16 c930 d780 b730
00000060: b0a2 332d a0fb 0231 de65 092f 3028 032f
00000070: 506a 182f 3dac 062f a872 052f bae6 1a2f
00000080: 031b 072f e9dd 9c2e 14a7 b02e d4c8 9c2e
00000090: 482b 922d 3c36 2a2c 3b21 002d ccef fb30
000000a0: 8436 222e 8df1 442d 6522 8731 1edc 432f
000000b0: 4228 422e 8463 1c2e 8463 1c2e 5c64 dd2d
000000c0: 72fb 392e 72fb 392e b8b6 032e 6a89 172e
000000d0: 6a89 172e cb5a c32d 63d3 bd30 6933 322f
000000e0: 21cd 4f2d cdd9 102e 4950 8b31 7858 a32f
000000f0: 8b1a 8b2b d378 0d2e 9aa4 8e2d f62e 992d
00000100: 826b 9e2d 08cf 8c2d 83f7 a22d 25cc a72d
00000110: ffe4 8c2d 09db 802d 2cd8 852d e61b 7a2d
00000120: 1353 d52c cc57 6830 cd64 142f 5996 6730
00000130: 4989 0e30 c433 ba30 b498 8d30 b457 2b2b
00000140: bceb 962b 8e45 082d 688b 142d ab62 f22c
00000150: 2162 072d a684 132d 78a6 f02c 1e31 be2c
00000160: a3e4 c72c d83d af2c cc0b f92e cf13 a130
00000170: 8f52 9d2e 2dab aa31 e85c 6f30 b7a3 c531
00000180: 8975 3e2f f9d0 422c cdde 992c e528 3b2e
00000190: 6c8f 4f2e 347b 282e e2fa 512e 50b7 672e
000001a0: dbec 332e dc4c 312e 1f30 472e 1972 1f2e
000001b0: acbd 7230 42a2 fe2e 7814 6d2e 032e ff2d
000001c0: d370 0e31 db46 7e30 428d 6b2b bf3a 9f30
000001d0: dd39 522b 0db3 122d 54ef 3d2d 12e9 212d
000001e0: 6a57 1c2d aed4 482d fcf6 242d 62f6 042d
000001f0: 13af 312d 228f 0b2d acee c02f c755 4930
00000200: fcca dc30 ac62 2331 9795 1930 493c 5c2d
00000210: 3583 cf2a 4f02 6230 eb4c 0a30 7a5a 8a2d
00000220: da74 d72d bde4 c22d 3a47 8a2d 7962 d72d
00000230: fdd3 c22d 97af 172d 18eb 462d 2f61 432d
00000240: 383a ee2e a9d7 4330 d048 fb2d 90dd 5730
00000250: fb53 c82f c0b0 892c a2c4 932d d9b8 3131
00000260: 2fa4 262f 87e2 0a2e 8074 192e 254c bc2d
00000270: 7599 152e 5045 1d2e 595e ad2d 23e3 112e
00000280: c248 1b2e eae1 ae2d f3fc e72c 6e1a 8a2f
00000290: 4dda 9c2f 3a4a 1632 5d11 cb2f 1ebf 6b2e
000002a0: 8996 e731 cba7 402f 631b 7b30 dadc e02e
000002b0: 3a21 d02e c1a1 9d2e 1823 c42e 8e05 b12e
000002c0: 7b81 842e 911a b52e 1e5c b42e 261c 882e
000002d0: 5ad1 fc32 a12f a333 ca8d 1932 ed63 0d34
000002e0: e2f8 fb32 ca2a 9832 3401 b330 acc4 eb31
000002f0: ebdf 9532 67a5 d430 e84f d430 f9de 9f30
00000300: 25df d630 088c d630 81e0 a130 dfea 3030
00000310: e529 2730 3889 0830 693f 732c 5f27 c02d
00000320: 0cf4 112a 2ed4 9430 5d8c 542e 08a4 452b
00000330: 932f 4529 91f6 5029 918f 802a 9d5f c82a
00000340: 9d5f c82a 19a0 b62a 3590 d42a 3590 d42a
00000350: 0093 c22a 7d75 122a 7d75 122a 1e4e 0a2a
00000360: 571f 9f2f 344c ee31 4451 5d32 b0ca b72f
00000370: e4c7 7732 82a7 142f ae11 4b2f 3fe5 5130
00000380: 392f 0b32 6ad5 e92e e66a 462f c76a 452f
00000390: 3374 ed2e f48e 412f 9a51 482f 4bb0 942e
000003a0: 62be f52e 3344 022f 65b4 b22e d970 cd2e
000003b0: 41f2 032d 9a29 332f f841 c02f bd52 c631
000003c0: 2024 382f 757d 1c2e 3c16 6a2d b37b 512e
000003d0: 7ca6 582e 8483 5b2e 56eb 182e cec1 2e2e
000003e0: ad85 772e 6510 c42d f580 e82d 3eb3 2f2e
000003f0: 69ce 2330 12fa 0330 60a0 0c31 c233 8c31

exp_avg f4 [16]
-2.3848546e-08 -1.8885696e-07 1.5672377e-07 -9.81172e-08 7.13114e-08 1.6106542e-07 -6.877944e-08 3.924549e-08
4.0455717e-07 -1.3992904e-07 4.730829e-08 1.7690873e-09 1.372137e-07 1.06858664e-07 -8.616207e-08 2.3082603e-07
00000000: 82db ccb2 9bc8 4ab4 e747 2834 80b4 d2b3
00000010: db23 9933 53f1 2c34 e6b3 93b3 df8e 2833
00000020: ea31 d934 673f 16b4 0430 4b33 3a24 f330
00000030: 0455 1334 2c7a e533 1908 b9b3 fad8 7734

exp_avg_sq f4 [16]
2.6245633e-10 3.384667e-10 1.0724464e-10 5.6880417e-11 5.858147e-11 2.3625446e-10 1.5083021e-10 8.366447e-11
9.19206e-11 2.2396097e-10 5.016801e-09 1.1804486e-11 7.705959e-10 1.0424213e-10 9.6090996e-11 1.6559826e-10
00000000: 7249 902f f412 ba2f 5dd5 eb2e a829 7a2e
00000010: 70d2 802e dce1 812f eed6 252f e9fa b72e
00000020: b322 ca2e 693f 762f 4060 ac31 aeaa 4f2d
00000030: ded1 5330 1a3b e52e 6c4e d32e c413 362f
