output/blue/images/epoch_37.pt (torch, 369546 bytes, 27 tensors)

conv.0.weight f4 [16, 2, 3, 3]
00000000: 4aec 5cbe cc9f 93be cba3 ffbd 1349 0abe
00000010: 1661 163e 907f fa3d d01f 67be 2933 803d
00000020: bfaa f63d 2dd3 cf3c 54a5 28bd ae96 b43d
00000030: d141 35be 95b3 57be 97dc 353e aea2 34be
00000040: d0c9 ce3b b37a 023e a816 2a3e cb41 d13d
00000050: 770c 463e 451a f1bd d6f7 5bbd 0024 febd
00000060: fea0 4dbe ead4 0e3d a8c0 aabd 8c6e 453e
00000070: f41c b6bd 3ce7 88be e571 a3bd 268e 3bbe
00000080: cb24 cebd f032 2b3e 5e7e 753c 0094 1e3e
00000090: 86a6 b3bd fddb 57be 4265 5bbd e24d ff3d
000000a0: f4e9 51bd 1a50 f9bd 2c3b ac3d e472 00bd
000000b0: 1734 28be 7331 f4bd 1b1c 53be dd15 923d
000000c0: a3d5 053d fd2d cb3d dcb7 bebd 806d b63d
000000d0: b04f 23bc f2d2 813c e3cc f33d 2fad 39bd
000000e0: bf14 68be 3d3c 53be 91e5 4a3e 6f96 00bd
000000f0: 22db 7dbe 9d25 1ebe 239d 05be 890c 7ebe
00000100: 2693 71be 3d2f 0b3e fad7 bebd 2483 4cbe
00000110: e31f 8dbd 0c6c 493e cadd 923d 8252 39be
00000120: 86bf 08be 6e46 ed3d bed3 95bc a62f 3a3d
00000130: bcc6 56bc f7d1 b03d 1796 063e 0c6e 32be
00000140: e5cf 6dbe 2014 2a3e 63d7 10be 70d8 b13c
00000150: 57d8 76be 2ffc c33d 5e0b 61be ea24 673d
00000160: 47e1 0ebe 8514 1b3e 685d 14be 9b3a 9cbd
00000170: b49e 4cbe bae5 dd3d 902a 3e3d 47b8 363e
00000180: ff7e 50bd 1e0d 86be d503 4abe 7922 bd3c
00000190: f8a8 3f3e 89ff 52be b0ad b0bd 2615 bbbd
000001a0: 1364 a73d 1027 553e 660b 63be f4b8 43bc
000001b0: 1691 cd3d 3d3d 983c 1f56 91bd bd95 41be
000001c0: e753 263e af43 093e ec49 83be 532f 813c
000001d0: 7a7d 8cbe 2fde ffbd ea38 893d 43f9 b53d
000001e0: 3e97 4f3e 4341 5ebe 2cf4 2cbe dec9 2e3e
000001f0: b3ca 65be 04ab c3bd d77a 2ebc fa37 113d
00000200: 63f1 af3d 564c 8f3d e9cc 69bd 10fb f8bd
00000210: 09c2 33be 72cc 693d dbcf 493d 5a12 a4bc
00000220: c8b2 5c3e 6acc 1b3e b4be a3bd ff33 5dbe
00000230: bcae 9cbb f988 5cbe 3c8a 5cbe 267b cc3d
00000240: 817f 1c3d 4f47 0a3e bdba 1bbe e4bf 6b3d
00000250: 8ab7 0f3c 59c6 3bbe ef62 09be 15bd 113e
00000260: 55cd 3ebd 0e5e 183e d426 32be b951 3abd
00000270: 5fbe b63d 7b50 04be d70a 2abe 3a2f 37ba
00000280: 899a f33d f1c9 6ebe 3416 75be 3ba8 89bd
00000290: 7284 f03c 4660 103e e00f b4bd 6794 c1bd
000002a0: da50 a03d e451 09be 538e 64bd 3adc 97bd
000002b0: b791 013d 45c3 473e 276e df3a 3dfd de3d
000002c0: 14d7 2a3e 12f3 383e 6578 4cbc d1f4 e63d
000002d0: 924f 1b3d bc4f c03d 698e e6bd 3d1c 373e
000002e0: c0ec 41bd bcc8 cdbd f19a f6bd 66c5 e33b
000002f0: cb0f 983d 2ec2 c4bd 6f57 ee3d 05b5 ae3d
00000300: 31e9 2abc f0d6 6abe 094f 133e ef25 78be
00000310: 3096 1cbe 1257 babd 2742 13be 1c7c b4bd
00000320: 6d4f 24be 4006 e33d aec8 e73b 8f4e 30be
00000330: 8c9c 19be e15f 52be 0f02 75bd 193a 2e3d
00000340: e575 12bd d5f3 48be 39c7 433e 5eaf 3dbe
00000350: 721e 9e3d 46a6 5abd ae46 65be 0f40 b13c
00000360: dbd0 debd cab1 1e3e ad71 253e 3780 0ebe
00000370: 7a18 043e 1345 61be f0cc 6eb9 5d24 e5bd
00000380: 154b f03c 359b 48be c356 aabd 60fb e03c
00000390: b75d 1bbe 1931 14bc 839c 20be 474b b53d
000003a0: 515a 533d 92eb c83b 6e52 a0bd d4a4 4abe
000003b0: 9f4c 1ebe 27da 60be fc9f a4bd 5ba0 4f3e
000003c0: 7c08 df3c b53a 01be 650f 32be 9a21 e3bd
000003d0: 66e5 7fbe a0e7 813d 2ba0 f13d ca52 4a3e
000003e0: 64e4 3ebe d951 523d d8d8 c23c efab 203e
000003f0: d427 db3c 669a 133d e184 193e ef77 033e
-0.21574512 -0.28832853 -0.12482413 -0.13504438 0.14685473 0.12231362 -0.2257073 0.06259758
0.12044286 0.025369251 -0.041173294 0.08817802 -0.17700888 -0.21064599 0.1775993 -0.17640182
0.006310679 0.12742119 0.16610205 0.10217627 0.19340692 -0.11772589 -0.05370315 -0.1240921
-0.20080945 0.03487102 -0.083375275 0.19280452 -0.08892241 -0.26738918 -0.07980708 -0.18315944
-0.100656115 0.1671865 0.014983742 0.15486145 -0.08771996 -0.21080013 -0.053563364 0.12466027
-0.051248506 -0.12173481 0.08409724 -0.03135957 -0.1642612 -0.11923494 -0.2061619 0.07133076
0.032674443 0.09920881 -0.09312412 0.08907604 -0.009967729 0.015847657 0.119043134 -0.045331176
-0.22664164 -0.20628448 0.19814135 -0.031393465 -0.24790624 -0.15444036 -0.13048224 -0.2480947
-0.23591289 0.13592239 -0.09318538 -0.19971901 -0.068908475 0.19670123 0.07171209 -0.1809788
-0.1335431 0.11585699 -0.018289443 0.045455597 -0.013108905 0.086337976 0.13143192 -0.17424792
-0.23223837 0.1660924 -0.14144664 0.02170965 -0.24105965 0.095695846 -0.21976992 0.05643169
-0.13953124 0.15144546 -0.14488757 -0.076283656 -0.19982415 0.108348325 0.04642731 0.17843734
-0.050902363 -0.26181883 -0.19728024 0.023087727 0.187168 -0.20605291 -0.08626878 -0.09134893
0.081733845 0.20815682 -0.22172317 -0.011945952 0.100374386 0.018583888 -0.070965044 -0.18904777
0.16242944 0.13404725 -0.25642335 0.015769636 -0.2743948 -0.1249355 0.067003086 0.088854335
0.20272538 -0.21704583 -0.16890019 0.17069194 -0.22440605 -0.09554103 -0.0106494045 0.035453774
0.08590963 0.06996982 -0.057080183 -0.12157261 -0.17554487 0.05707974 0.049270492 -0.020028282
0.21552575 0.15214697 -0.07995358 -0.21601866 -0.004781572 -0.21536626 -0.21537107 0.09984426
0.038207535 0.13503765 -0.15207954 0.057556048 0.0087717865 -0.18337382 -0.13416646 0.14232285
-0.04658254 0.14879629 -0.17397624 -0.045488093 0.08923029 -0.12921326 -0.16605698 -0.00069879333
0.118947096 -0.23319222 -0.23934251 -0.067215405 0.02936003 0.14099225 -0.087920904 -0.094521336
0.07827921 -0.13410145 -0.055799793 -0.07415052 0.031633105 0.19508083 0.0017046378 0.10888145
0.16683608 0.18061474 -0.012479876 0.11277164 0.03791768 0.09390208 -0.11257631 0.17881866
-0.047344923 -0.10048053 -0.120412715 0.006951022 0.07424887 -0.09607349 0.116377704 0.085306205
-0.010431574 -0.22933555 0.14385618 -0.2423322 -0.15291667 -0.090986386 -0.14380704 -0.088127345
-0.16045924 0.110851765 0.0070734834 -0.17217468 -0.15001124 -0.20544387 -0.059816416 0.042535875
-0.035756964 -0.19624265 0.19118966 -0.18523929 0.07720651 -0.053381227 -0.22390243 0.02163699
-0.1087968 0.15497509 0.16156645 -0.13916098 0.12899962 -0.21999006 -0.00022773794 -0.11188576
0.029332677 -0.19590457 -0.0831733 0.027463615 -0.15172468 -0.009044909 -0.15684704 0.08852249
0.051599804 0.006131598 -0.07828222 -0.1978944 -0.15458916 -0.21958219 -0.08038327 0.20276015
0.027225725 -0.12620051 -0.17388685 -0.11090393 -0.24989852 0.06343007 0.11798128 0.19758144
-0.18641812 0.051347587 0.02378504 0.15690587 0.02675239 0.036035918 0.14992096 0.1283872

conv.0.bias f4 [16]
00000000: f83d ef3d 03c8 533e 1041 2dbe e666 2cbe
00000010: 5ca5 63bd ffb4 1d3e 6ce7 c33d 1479 9e3d
00000020: de3d 023e fd19 06be a031 ef3d 08df 39bd
00000030: 6e3a 84bc 4cc2 093e b110 06be ca35 4c3e
0.116817415 0.20681767 -0.1691935 -0.16836128 -0.05557762 0.15401076 0.095656246 0.077379376
0.12718913 -0.13095851 0.11679387 -0.045378715 -0.016141143 0.13453025 -0.13092305 0.19942394

conv.3.weight f4 [32, 16, 3, 3]
00000000: eebe b6bc 7cbc 16bd 9424 27bb 2dd4 413c
00000010: 689a 8fbd e69f 4dbd 6c37 a33a ff12 fdbc
00000020: 37cd 933d 9467 213d 13ee 613c a555 b9bd
00000030: 95f7 5a3c a275 a9bd b1d9 9fbd c5d1 343c
00000040: d6f0 3fbc 03b9 893c e473 d5bc 75cf 3c3d
00000050: 5f00 40bd f4ab 0b3d 453e 793d b34d 0cbb
00000060: 4b10 6dbd c2eb 053d 0cf7 79bc bf37 aabd
00000070: f061 9ebd 6c94 bbbd bd61 893d 4c04 0b3c
00000080: 7236 6f3d c153 223d 0822 a5bc 78af b93c
00000090: 166b 9bbd 5ea1 363c 2034 283d 291b a3bd
000000a0: da3a 633d 1596 f43c 298d 80bd 62ca 7a3c
000000b0: f6f6 e83c 52be 723d 9434 2b3c 1daf 04bd
000000c0: f12e b8bd a7dc 3cbd da38 a63c 9099 023d
000000d0: 4d31 a1bd d5f2 5b3d 94b7 afbc d998 b7bd
000000e0: fbcf 063d 251e 6fbd 517d f93c d81e b2bc
000000f0: 20cd a1bd 83b6 4c3d 3727 84bc 154a 153d
00000100: bbaf 0b3b aa09 8f3d 6bea 93bb 4f38 a43c
00000110: 1947 9cbd e6db 17bc f6c7 4dbc a078 763d
00000120: 987b 76bd fa8d 933c 8d9b 80bd 94c1 6bbb
00000130: 6243 f93c e069 843d 4064 adbd 2482 bbbd
00000140: 0f70 fc3c 5642 33bd 81cc bcbc f58f 47bd
00000150: 6724 533a 0eee 4ebc 176f 4e3d bf37 f93b
00000160: 69dc afbd 89da dd3c ad85 01bd d02c 88bd
00000170: 5e3b 443d 92c8 a2bd 19e3 62bd 4c31 babd
00000180: bbe6 dd3c abd4 9fbd 5535 8cbc 9d8f 85bd
00000190: 16d8 c7bc a317 b5bd a793 77bd 93f2 68bd
000001a0: 89ac 20b9 2471 c3bd d262 e43c ebf1 1bbc
000001b0: 02a5 803d 5266 1a3d 53b3 a0bd 8557 853d
000001c0: 81ab 82bd 9115 92bd 2d37 6dbd 362b dd3c
000001d0: 7955 053b 3cf3 df3b 8b45 b4bd 0f0d 363d
000001e0: 41bc 193d 7bf8 b83c 8799 64bd f32c 163c
000001f0: bbdf 65bd f008 313d 61a6 693b 60e4 e5bc
00000200: 1c98 bbbc c6d3 a4bc d4f2 043d 4f53 a73c
00000210: 39a1 a53c a369 c7bd b1f8 393d 2fa7 9abd
00000220: 4f9a f93a 8297 433d 479b 943c cafc a8bc
00000230: 9bb1 a2bc 0fa2 adbd ecdf e7bc ce40 adbd
00000240: a908 373d 15b7 84bd c911 ca3a bfa8 12bd
00000250: fe46 793d 5672 d6bc b066 6dbd 7416 91bc
00000260: 2a53 a23c b598 9bbc a354 6d3d db3f b9bc
00000270: 98b6 adbd 32e9 8f3c 2374 81bd b6e6 51bd
00000280: ac3a b6bc b942 50bd 4a3d 8db8 ec12 c1bd
00000290: de2d 243d c255 67bd a59f 96bb 64a7 7e3c
000002a0: 68e8 87bd 4b76 a2bd bf07 babc 9d16 cfbd
000002b0: 6f92 9c3c 847d 80bd de93 94bd 3c5f 15bd
000002c0: 260e e8bc 321e 2fbd be1d 58bd 70f0 0abc
000002d0: 1b0f 393c 7afa 5a3d 1641 923d 4dc0 acbd
000002e0: a42a 78ba 0996 693b 4a3d aa3c 81f6 273d
000002f0: 9d36 d13b fb22 2dbd d301 7cbd 517e 4dbd
00000300: 661b 533d 0c3e 1e3d a6b9 82bd e8ef 3fbd
00000310: 1bd5 dc3c 023d fe3c c432 96bb 831f 913d
00000320: 4fed d2bc fc30 96bd 6922 95bd cd38 51bd
00000330: 3bb1 16bb a49f 35bc c8fa 2abd b8d8 afbc
00000340: 1e7b 1e3d 0282 67bd d9e6 93bd 6989 75bd
00000350: b36a 97bd 0b7a f0bb de9d 5dbd 7123 5cbd
00000360: 9a52 65bd e02c 943d 87a7 873d 29f1 42bd
00000370: 677c eebc 80af c53a 6c65 66bd b36e 10be
00000380: bcad c43d a9ba 40bd ab3d 823d ac71 b53c
00000390: a394 38bc f821 83bd 600b 87bb 2b71 f43b
000003a0: c4a4 d63c dc9e 44bd 9994 883d c775 a2bd
000003b0: 76b3 683d 8e2c 1f3c 2e00 bdbb 126e 543b
000003c0: 440d d9bd e3ba acbd f3d9 92bd c5a6 843c
000003d0: b388 2f3d 882a a23d 6829 083d da0c 77bd
000003e0: 7433 d23d 19fc 663c 2d8f 413d 4f9d b8bd
000003f0: fff2 6f3d 8e13 84bd 0f0a b1bc 58cc adbd
-0.02230784 -0.036800846 -0.002550398 0.011830372 -0.070118725 -0.05020132 0.001245243 -0.030892847
0.07216876 0.03940542 0.0137896715 -0.090495385 0.013364692 -0.0827439 -0.07805193 0.011036341
-0.011715135 0.016811853 -0.026056238 0.046096284 -0.046875354 0.034099534 0.0608504 -0.0021408617
-0.057876866 0.03269554 -0.0152566545 -0.08311414 -0.07733524 -0.091591686 0.06708095 0.008484911
0.058401532 0.039630655 -0.020157829 0.022666678 -0.075887844 0.011146871 0.041065335 -0.07964165
0.055476047 0.029856721 -0.06276924 0.015307041 0.028438073 0.059263535 0.010449547 -0.032393564
-0.08993328 -0.046108868 0.02029078 0.03188473 -0.078707315 0.05369838 -0.021449842 -0.089647
0.03291319 -0.058378357 0.030455263 -0.021743223 -0.079004526 0.049978744 -0.01613198 0.036447603
0.002131446 0.06984265 -0.004514029 0.020046381 -0.07630748 -0.0092687365 -0.012559881 0.06017363
-0.060176462 0.018012036 -0.06279669 -0.0035973536 0.030427638 0.064655066 -0.08466387 -0.09155682
0.030815152 -0.043764435 -0.023046734 -0.048721272 0.00080544356 -0.012629999 0.050398912 0.0076055224
-0.08586962 0.027081745 -0.031621624 -0.06649172 0.04790818 -0.07948412 -0.05539236 -0.09091434
0.02708756 -0.07804235 -0.017115274 -0.06521533 -0.02439503 -0.08842399 -0.060443547 -0.05687196
-0.00015323063 -0.09543064 0.027879152 -0.009518127 0.06281473 0.037695237 -0.078467034 0.06510834
-0.06380368 -0.0713302 -0.057913948 0.026998144 0.0020345135 0.0068344157 -0.08802327 0.044446047
0.03753305 0.022579422 -0.055810478 0.00916599 -0.05612157 0.043221414 0.0035652148 -0.028063
-0.02289968 -0.020120513 0.03245814 0.020425467 0.020218479 -0.097369455 0.045403186 -0.07551419
0.001904318 0.04775191 0.018140448 -0.020628352 -0.01986008 -0.08478176 -0.028305016 -0.08459626
0.044685993 -0.064802326 0.0015416677 -0.03580546 0.06085872 -0.026177566 -0.05795926 -0.017710902
0.019815046 -0.018993715 0.057942044 -0.022613456 -0.084820926 0.01756725 -0.063209794 -0.051245414
-0.022244774 -0.05084488 -6.73482e-05 -0.09427437 0.040082805 -0.05647827 -0.004596668 0.015542839
-0.06636125 -0.07932719 -0.022708772 -0.10111735 0.019112794 -0.0627394 -0.07254766 -0.036467776
-0.028327059 -0.042753406 -0.05276274 -0.008480176 0.011295105 0.05346153 0.071413204 -0.08435116
-0.0009466803 0.0035642406 0.020781178 0.04100657 0.0063846842 -0.042269688 -0.061525177 -0.050169293
0.0515398 0.03863339 -0.06383066 -0.04685965 0.026957085 0.03103495 -0.0045836885 0.070860885
-0.025747923 -0.07333562 -0.07281954 -0.05107956 -0.0022993821 -0.011085425 -0.04174307 -0.021465644
0.038691632 -0.05652047 -0.07221765 -0.059945498 -0.07393398 -0.0073387674 -0.054105632 -0.053744737
-0.055986978 0.07235122 0.0662375 -0.04759327 -0.029112054 0.001508221 -0.056249067 -0.14104728
0.0960345 -0.047053013 0.063594185 0.02214893 -0.0112659065 -0.064029634 -0.004121229 0.0074597797
0.026201613 -0.048003063 0.06668968 -0.079326205 0.056811772 0.0097152125 -0.0057678437 0.003241424
-0.10598233 -0.08434083 -0.07170477 0.016192803 0.042854976 0.079182684 0.033242613 -0.06031499
0.1026372 0.014098191 0.047255684 -0.09014379 0.05858135 -0.06449042 -0.021611242 -0.08486241

conv.3.bias f4 [32]
00000000: 7edc 7bbc c8fb d63d 046c 3f3d 1896 8a3d
00000010: 5394 a4bb df39 6a3c af34 f0bc 1e22 373c
00000020: 97c8 20bd feba 62bd 6bf0 b8b9 3a7a 39bd
00000030: 5190 823c 7dbd 963d 6b41 0d3c 748e df3c
00000040: 8b92 fabc 4773 963c 54a8 df3b ef9d a2bb
00000050: 2b80 ccbc 4c58 593d 6522 b33c c553 1ebc
00000060: be14 443c b798 523d 512c 4fbd 053b 2abd
00000070: 2ad8 5b3d 0b30 87bd 5c7a 92bd f019 393c
-0.015372394 0.10497242 0.04673387 0.06766909 -0.0050225644 0.014296024 -0.029321996 0.011177568
-0.039253797 -0.05535411 -0.0003527434 -0.04528258 0.015937956 0.07360361 0.008621554 0.027289607
-0.030587455 0.018365515 0.006825486 -0.004962675 -0.024963459 0.053062722 0.021866987 -0.009663527
0.011967836 0.05141517 -0.050579373 -0.04156019 0.053672947 -0.0660096 -0.071522444 0.011297688

fc.0.weight f4 [128, 128]
00000000: 695f 81bd 379d 543d 4f9a 763d 3a10 d4bb
00000010: 2166 18bb be22 53bd eb24 093b 8f7b 71bd
00000020: bddd f9bb 3347 8abc 31aa aabd decf e33c
00000030: d518 9fbd 7e5c 8abc dd9e bdbc d67f be3b
00000040: b208 7f3d 5af0 a13d 4d4e d93a 12f1 bbbd
00000050: 6042 3a3d 32e6 06bd d8df 5cbd b00a 043d
00000060: 137b c03c 8c2e 67bd 6a7f 82bd 5204 103d
00000070: 9d61 fc3c ab90 b63c 5628 973d d587 a13d
00000080: 4869 da3c b325 823c 0d9b 46bd 8dcc a03b
00000090: 3caf 84bd cad5 b9bd 61cb eabb 1d1a 9dbd
000000a0: 54fd 93bd e694 a1bd 7aed 1fbd 44a8 b7bd
000000b0: 7623 473d d0b6 babd 0a16 143d abe8 423d
000000c0: 2331 cfbd 2b01 4e3d d9f8 bebd 753e 483d
000000d0: 5bf3 37bc 5df6 62bd 56f2 c23c 1b7c 913b
000000e0: 3645 e8bc bc65 8bbc c9c7 9b3d 6490 ac3c
000000f0: 68b6 9abc 268d 70bd f393 16bc aad5 20bd
00000100: 7a3e f83c af0b 5dbd f19e a5bd 5741 093d
00000110: a71a 083d 69c0 11bd 8e4f 213d 09d4 5c3d
00000120: 912e 983d ab33 01bd 02c5 2abd c62b 9f3d
00000130: 63b2 a33c 2dd7 7e3d 60e4 0d3d 9591 79bd
00000140: 6402 5b3d d2d0 4fbc e866 74bd 526b 89bd
00000150: cced 623d b792 ac3d 89b2 8cbd 157e 993d
00000160: b637 cf3c 966d a8bd c26e 30bd 899d b3bc
00000170: c249 17bd db33 0d3c 6d7f d83b fa28 913c
00000180: 8c41 9a3d 5847 113d 93f1 a7bb 5dd2 493c
00000190: 1e03 1ebd a72d f4bc 08bc 8bbb 947a 8cbc
000001a0: 4a60 bfbc 583a dd3c f356 603d 4c70 8bbd
000001b0: 1aac 623d 2697 3039 2594 82bd 60a9 23bb
000001c0: 0c8a e33c fcea 01bc f603 633d 8e6e 583d
000001d0: 5a41 713d eff2 ba3d d361 033b 8c83 d6bc
000001e0: 1aa1 913d 7d57 803d 2583 983d 15ba 503d
000001f0: b0aa 4b3c 3071 7b3d dca3 85bc fc6e 48bd
00000200: d30d 9dbc 68d2 62bb ccd3 923d 1af6 373d
00000210: 066f ea3c ab0a 263d 9556 b73c 429d 233d
00000220: 9fe6 98bd 30f5 14bd 4c19 0dbd 3f44 72bd
00000230: 8f5f 9abd 825f 833d 4331 9c3b 0688 78bd
00000240: af51 6d3d 32a6 99bc dc80 b2bd 0b08 20bd
00000250: 41b4 d4bb c086 723c ae37 523d 5dfb 84bd
00000260: 720c 003d e562 6fbc 54bc ea3c 47ec 4ebd
00000270: ed7b 3ebd 18cf 85bd f6d5 c73c 1662 9f3d
00000280: 831c 483d 532e 633c 2505 33bd 9a83 32bc
00000290: 4677 85bd 4d63 973d ad46 d33c b6c5 4abd
000002a0: 480e b0bc 1d21 153d d936 f2bc 7f5a 023d
000002b0: 934b e2bc 65fd 6dbc 5bce 4c3b da64 293c
000002c0: cd37 ad3d 770d 96bd c308 c23c 629c af3d
000002d0: 2eff 5bbd 97f8 f8ba 5719 1dbd 6f04 c8bb
000002e0: 3650 8b3c 7994 84bd 4d2e 973d 53a7 f4bc
000002f0: 6126 063d a325 923c 41d1 c23c 9e56 173c
00000300: be4e 7c3d e160 27bd cb59 8bbd 47d2 8ebd
00000310: cbad a53d 025a 79bd 66b5 71bc a467 d6bb
00000320: 7a22 453d f807 54bd ff15 c4bb 8644 3b3c
00000330: 60a5 7a3d 6e93 7dbd d44f 1d3d 4e30 bb3d
00000340: 06af 6cbc 2088 64bd 35b8 3dbd 4be2 543d
00000350: 9dd2 1fbd a267 313d bc5c 8d3d dc70 1abc
00000360: 7025 8cbd 009c 84bd 31a3 2f3d 3617 243d
00000370: 453f b13d 99bc 91bc ca12 893d 978b 86bd
00000380: 3229 7f3d 724c fbbc 926d 453d d972 833d
00000390: 003e 46bc 0f85 10bc 90a1 bbbc 5994 213d
000003a0: 3401 9c3d 2e5e fa3c da6d c3bc 6770 8abd
000003b0: cee5 383d 1ea1 93bd 02bb 5e3d 560c 35bd
000003c0: 515e 173d b7a1 fbbc f062 0e3d ba59 943d
000003d0: 25dc 2e3d 9997 a43d ad1e 993b d6d5 ba3b
000003e0: 4224 a9bc 9666 6fbd fcea 32bd b1a6 a1bc
000003f0: 67f6 73bd b044 6c3c d37b 603d e3e4 50ba
-0.06317026 0.051907744 0.060205754 -0.006471661 -0.0023254233 -0.051546805 0.0020926546 -0.058955725
-0.00762531 -0.016879654 -0.08333243 0.02780908 -0.07768408 -0.016889807 -0.023147041 0.005813579
0.062264152 0.079071715 0.0016579122 -0.0917684 0.045473456 -0.032934375 -0.05392441 0.032236755
0.023496186 -0.056440875 -0.063719586 0.03516037 0.030808264 0.02228578 0.0738074 0.07887236
0.02666153 0.015887117 -0.04848771 0.004907197 -0.06478736 -0.0907398 -0.007165358 -0.07670996
-0.07226053 -0.07889728 -0.039044835 -0.08967641 0.048617803 -0.091169 0.03615383 0.04758517
-0.10116794 0.050294083 -0.09324808 0.04888769 -0.011227454 -0.05541073 0.023797195 0.0044398434
-0.028353315 -0.017016284 0.07606465 0.021064945 -0.018885806 -0.05872836 -0.009190547 -0.039266266
0.030303229 -0.05396622 -0.08086956 0.03350958 0.033228543 -0.035583887 0.03938251 0.05391315
0.07430757 -0.031543415 -0.041691788 0.07772021 0.019982522 0.062216926 0.034641623 -0.060929853
0.053469077 -0.012684064 -0.05966845 -0.06709923 0.055402562 0.08426421 -0.068699904 0.07494751
0.02529512 -0.08224027 -0.043074377 -0.021925705 -0.036935575 0.00861832 0.006606987 0.017719734
0.07532033 0.03546843 -0.0051252334 0.012318221 -0.03857719 -0.029806925 -0.0042643584 -0.017148294
-0.023361344 0.02700536 0.05477042 -0.06808528 0.05533991 0.00016840975 -0.063759126 -0.0024972782
0.027775787 -0.00792956 0.0554237 0.05283981 0.058900215 0.09128367 0.0020047321 -0.026185773
0.07110806 0.06266687 0.07446889 0.05095871 0.012430832 0.06138724 -0.016313486 -0.048933968
-0.019171631 -0.0034610275 0.07169303 0.044912435 0.028617393 0.040537518 0.022380153 0.039944895
-0.074658625 -0.03636664 -0.034447953 -0.059147116 -0.075377576 0.06414701 0.0047666146 -0.060676597
0.057939228 -0.018756006 -0.08715984 -0.03907017 -0.0064912145 0.014802635 0.05132263 -0.06493256
0.03126187 -0.014610981 0.028654255 -0.0505183 -0.046504904 -0.065336406 0.024394017 0.0778238
0.048855316 0.013866025 -0.043706078 -0.010895634 -0.0651689 0.07391987 0.025790537 -0.049504958
-0.021491185 0.036408532 -0.029567169 0.031824585 -0.027623927 -0.014525746 0.0031250927 0.010338986
0.08457909 -0.07326787 0.023685819 0.085747495 -0.053710155 -0.0018994984 -0.038354244 -0.006104044
0.017006021 -0.064736314 0.07381878 -0.029864943 0.032751445 0.017840212 0.02378142 0.00923696
0.061598532 -0.040863875 -0.06804236 -0.06973701 0.08089789 -0.060876854 -0.014752721 -0.0065431166
0.048128583 -0.051765412 -0.0059840675 0.0114299115 0.06119287 -0.061908178 0.03840621 0.09140073
-0.014446026 -0.05579388 -0.04631825 0.051973622 -0.039019216 0.043311723 0.06902453 -0.009426322
-0.06843078 -0.06475067 0.04288024 0.0400612 0.08654646 -0.017790126 0.06693037 -0.065695934
0.062295146 -0.0306761 0.048200198 0.0641839 -0.012099743 -0.008820786 -0.022904187 0.039448116
0.07617417 0.030562486 -0.023856092 -0.0675972 0.045141034 -0.07208465 0.054377563 -0.044201218
0.03695518 -0.03071676 0.034762323 0.072436765 0.042690415 0.080367275 0.0046728463 0.0057017608
-0.020647172 -0.058447443 -0.04368113 -0.019732805 -0.05956116 0.014420673 0.054805588 -0.0007968677

fc.0.bias f4 [128]
00000000: be3d adbd 233d 9fbd 1a76 7d3c 5a25 93bd
00000010: 8d45 493d 7872 2e3d 8c73 f33c ab60 abbd
00000020: 5144 323d be53 44bb 73e4 33bd fddf c3bd
00000030: 9a5f be3c ac94 c8bd 6da6 2fbd 6846 a0bc
00000040: 98fd b8bd 7f4b a0bd 4197 3a3d c37b 86bd
00000050: 2bc0 503c 2d0f 123d 09ea 56bd adc1 f0bb
00000060: 19d3 04bd ff2d 72bd e374 99bd 11b8 7cbd
00000070: 15aa 20bd e4dd 563d 6af3 2cbb e359 103c
00000080: e780 123d fadb a23b 5d00 6abd 6c4b 6ebd
00000090: 1a1e 453c 25e0 1ebc 6ada 75bd 366c 173d
000000a0: ee06 98bd a34c d0bd 818a 973c 696b c33c
000000b0: c5fc c8bd 0295 b2bd 298c 093d f81b bebd
000000c0: bab8 99bd 90c4 58bd b2b8 9fbc 048d 2e3d
000000d0: a02c c7bd b318 e83a a284 943c 8cf7 cbbd
000000e0: 9d66 1ebc 6bc1 53bc 9ca2 85bd 13a6 95bc
000000f0: d6bd 79bd fdab 7abd 7c12 28bd 16d0 bb3b
00000100: aabc c9bb f0db 9dbd 5fbc 8fbc 62f7 2bbd
00000110: 6a94 ebbd 4d78 033d 51d0 ca3c afad 2d3d
00000120: e080 ea3c 65e5 093d ebf6 2e3d c7fa 453c
00000130: 5b0f 3e3c 66dc 823c f5fd 703d 6231 583d
00000140: fe1a 0bbd 5f1c efbb 8a71 93bc f29d b0bd
00000150: 7982 82bd f479 e7bb ae67 ddbd b088 a3bd
00000160: f9db babc cf35 96bd afd5 5ebc 985e 313d
00000170: 6a5c f2bd dfcb 7cbd 72c8 0abd 254b 4abc
00000180: 35eb d73c d048 aabd 9c27 053d 320e b5bd
00000190: 38d8 62bd 3f98 c5bd 46da 05bb 5fd9 673d
000001a0: 8b53 97bd 8774 f43c 7e05 93bd 16e9 163c
000001b0: 950e 49bd af77 2fbd 4e22 cc3c 063a d2bd
000001c0: 94fd 243d 081c a3bd 355e d1bb d094 98bd
000001d0: 686d 92bc 4090 803d f133 7abd 6bf3 c7bb
000001e0: 945e ee3c 375c 64bd a741 973c deea 94bc
000001f0: 51ee d5bd 7a52 2dbd 45ca 283c 89f5 0dbd
-0.08459042 -0.07775333 0.015470052 -0.071848586 0.049138594 0.042589635 0.029718183 -0.08368047
0.043522183 -0.002995714 -0.043919038 -0.09564207 0.023238946 -0.09793982 -0.042883325 -0.019564822
-0.09032744 -0.078269 0.045554403 -0.065665744 0.012741129 0.035659004 -0.052469287 -0.0073473067
-0.03242788 -0.059125897 -0.074929975 -0.061698977 -0.039224703 0.052457705 -0.0026390203 0.008810493
0.035767462 0.004970071 -0.057129253 -0.058177397 0.012031103 -0.009696995 -0.06002275 0.036968432
-0.07423197 -0.10170867 0.018498661 0.023854928 -0.09813837 -0.08719827 0.033580933 -0.09282678
-0.07505937 -0.05292183 -0.01949725 0.04261495 -0.097253084 0.0017707556 0.01812965 -0.09959325
-0.00966802 -0.012924532 -0.06525156 -0.018267667 -0.060972057 -0.061199177 -0.041033253 0.005731593
-0.0061565237 -0.077079654 -0.017545877 -0.04198397 -0.11502917 0.03209715 0.024757536 0.042401966
0.028625906 0.033666033 0.042715948 0.012083716 0.011600341 0.015974235 0.058835942 0.05278147
-0.03396129 -0.0072970833 -0.017998476 -0.08623876 -0.06372542 -0.0070640985 -0.10810791 -0.079850554
-0.02280997 -0.07334482 -0.013600751 0.043303102 -0.11834033 -0.061717864 -0.033882566 -0.012347017
0.026357273 -0.08314669 0.032508478 -0.08840598 -0.055381984 -0.09648179 -0.002042429 0.056603786
-0.073889814 0.02984072 -0.07178782 0.009210845 -0.049086172 -0.04283875 0.024918701 -0.10264973
0.040280893 -0.07964331 -0.006389404 -0.07450259 -0.017874435 0.062775135 -0.06108469 -0.0061020157
0.029097833 -0.055752005 0.018463923 -0.0181784 -0.10445846 -0.042314984 0.010302131 -0.03465799

fc.2.weight f4 [64, 128]
00000000: 75b8 a4bc ae1c 08bd 4f2a 5abd d7f5 69ba
00000010: 512a b8bc 087b 19bd e808 3ebd 1efa 903d
00000020: 2f90 193d 4e47 77bc c51b 183d 2031 713d
00000030: dcc0 103d 46fd 5dbd b0df 853c 80c2 fc3b
00000040: 3e68 9b38 2a0b 53bd cd09 923d b457 db3c
00000050: ed59 7abd 70dd 80bd 2238 9fbd 1998 45bc
00000060: 4c8a b3bd 33de b5bd fa93 8f3d c1af 8c3c
00000070: 454c 893d 35de dcbc beaf 5dbd 02ff 26bd
00000080: 93f8 5f3c ca38 13bc 0607 693d 478d 73bd
00000090: ec65 0f3d e37c 853d 4967 7cbd 297f 8d3d
000000a0: 3c56 1bbd defa 8ebd eac9 d5bc 0557 51bd
000000b0: 37b0 8dbd 7832 673c b641 b8bd 01cf 543d
000000c0: 8dcc 963d 9c4c cdbc 3a51 8cbd 030e a4bd
000000d0: 3701 adbd 6c27 9cbc c90a cbbc 6aad 9a3d
000000e0: 1084 3b3d c8a5 ea3c 1701 4c3d 900b 5ebc
000000f0: 60ab 943d 3d20 053d 1fcd a0bd 3a77 9f3d
00000100: 4ae4 4c3d 56d4 86bd 9599 82bd bcb6 7e3d
00000110: ab71 bdbd da98 7bbd 064e babc 9b6c b8bd
00000120: 5550 823c 0ca7 95bc 197d 5f3d 7840 2d3c
00000130: 9e1d 24bd ec22 913c d56a 63bd fa00 363d
00000140: 40df c73c b9b2 143d 5f31 a33c 2dec 64bc
00000150: 5bd5 07bd aa15 7d3d 344e 8cbc a158 98bc
00000160: 6f25 b73d 951b 30bd b106 883d 9e6a 1dbd
00000170: 2c10 a13a 82fa b7bd 0fa7 8abc d94f 943b
00000180: 61a9 9a3d e85a 62bc 90e3 f63c acf5 c33c
00000190: 2c4e e0bc 9973 bebd 8fb5 a6bd 4915 34bd
000001a0: 739d 36bd 9d8e a4bd 63e8 cfbc 313a 5dbd
000001b0: 35c4 043d b0a5 a0bd 7222 b3bd 3865 1bbd
000001c0: 432b a3bc ae89 acbd 158d 8abb 8e4c e1bc
000001d0: ba94 453d 1be4 acbc 62e4 323d f356 81bd
000001e0: 4563 903d ea01 8e3d bb1a 2cbd 031e abbd
000001f0: 53f8 3b3d ac4d 793c 5378 bf3c 1ad9 b93c
00000200: fa55 adbd b069 243d 45af 37bd 1202 9b3d
00000210: e918 31bd 0c0a 23bd 434a 463d 9c85 c83b
00000220: 2350 d6bd 154d 9fbc 4fc7 0bbe aa0c babd
00000230: e4ae 3abd 561a 5fbd 4ae0 bcbc 4cb2 a7bd
00000240: 73f4 8f3d 301f bb3c 360f 4a3d e920 093d
00000250: dc64 533c c7e3 fdbc 3d33 82bc 739b 90bd
00000260: 988f 7fbd b407 413b 773b 7d3c 12f9 843b
00000270: 1dd7 033d 9cf3 fabc e1ae 313d 7ff1 92bd
00000280: e50f 9fbd 46ef 01be 7fbe 993c 322e 523d
00000290: e731 0cbd 7c8c edbd f6e7 b9bd 3ff8 713d
000002a0: 762a 013d 0190 9abc 9faa 413c e302 71bc
000002b0: f5d2 a4bb d750 0dbd 07c1 52bd abfc 93bd
000002c0: dea2 723d 1747 b9bd 206d a83d 855d efbb
000002d0: 1e40 a93c 30c6 27bd 8273 27bd 4d6c 863d
000002e0: cee1 11be c645 66bd 642f 343c 9ea9 1dbd
000002f0: e121 37bd 64d4 8dbd b673 c53c 77de 21bd
00000300: 2a68 27bd db1a 15bd 05bd 28bd 51cb 53bd
00000310: 271e fabc 2369 62bd f17d 08bc 11c8 683b
00000320: 93e5 35bd f2d1 afbb 8f8b 523d 2496 81bd
00000330: 7b89 62bd e292 e0ba c80d 8e3d 0c60 78bc
00000340: f406 36bd 0aba 1fbd 2bb8 a9bd ad1c 9abd
00000350: 895f cf3d 9521 8fbd 700d 4cbd ec4d a0bd
00000360: dedd 67bd 52ca 79bd a475 b8bd 77f8 903d
00000370: cd02 84bd 66d7 55bd b9b4 953c 56ee bebd
00000380: 8b35 3fbd 9a4d 65bd 07e4 42bd 9cba 6abc
00000390: 1327 9cbb 5456 6c3d 3264 00bd 2b15 59bc
000003a0: 6fd4 59bd f30a 6dbd 4825 b1bd 4fef acbd
000003b0: 7ffb 48bd 069d f63c 9065 dbbc 21d8 99bd
000003c0: a97d 71bc d239 b0bd e7e2 a5bc 04c0 a73d
000003d0: 0fa9 183d 5987 a7bd fbf2 913d afee 11bd
000003e0: e0db b7bd 15d6 493d 67bc b2bd 1bde 1fbd
000003f0: 5578 6abd 7589 0abc 92b9 ecbd 6ce0 5ebc
-0.020107487 -0.033230476 -0.053263005 -0.00089248776 -0.022481116 -0.037470847 -0.046395212 0.07078956
0.03749102 -0.015092684 0.037135858 0.05888474 0.035340175 -0.05419662 0.016342014 0.007713616
7.4103926e-05 -0.05152432 0.071307756 0.026775219 -0.061120916 -0.06292236 -0.07774378 -0.012060189
-0.087666124 -0.08880272 0.07010646 0.01717365 0.067040004 -0.026961425 -0.05412268 -0.04077054
0.013670105 -0.008985708 0.056891464 -0.059460904 0.03500931 0.06517961 -0.061621938 0.069090195
-0.037924036 -0.06981443 -0.026097257 -0.05110838 -0.06918376 0.014111154 -0.08996908 0.051955227
0.07363234 -0.025060944 -0.0685143 -0.08010485 -0.08447497 -0.019061767 -0.024785416 0.07552607
0.04578024 0.028643504 0.049805727 -0.013552561 0.0725925 0.032501448 -0.07851624 0.077864125
0.0500224 -0.065834686 -0.0637695 0.062185988 -0.09250196 -0.061425067 -0.022742283 -0.0900509
0.015907446 -0.01826813 0.05456266 0.010574453 -0.040067308 0.017716847 -0.055521805 0.044434525
0.024398446 0.036303256 0.019921003 -0.013972324 -0.033162456 0.06178824 -0.017127134 -0.018596949
0.08942687 -0.042995054 0.06641901 -0.038431756 0.0012288145 -0.089833274 -0.016925363 0.00452612
0.07551838 -0.013815619 0.030137807 0.023920856 -0.027381025 -0.09299392 -0.08140098 -0.04396561
-0.04458375 -0.08035014 -0.025379365 -0.054010574 0.03241368 -0.078441024 -0.08746804 -0.037938327
-0.01991809 -0.08424698 -0.004228244 -0.027502324 0.04823754 -0.021104863 0.043674834 -0.06315412
0.07050184 0.06933959 -0.04201768 -0.08355334 0.045891117 0.015216272 0.023372805 0.02268653
-0.08463664 0.040139854 -0.044844884 0.07568754 -0.043236647 -0.039804503 0.048410665 0.006119443
-0.104645036 -0.019445935 -0.13650249 -0.09084447 -0.045576945 -0.054468475 -0.023056168 -0.08188304
0.07029047 0.02284202 0.049330913 0.03347865 0.012902465 -0.030992402 -0.015893573 -0.070608996
-0.0623928 0.0029454054 0.015456072 0.004058012 0.03218757 -0.03063374 0.04337967 -0.07174968
-0.077667035 -0.12688932 0.018767593 0.051313587 -0.034227278 -0.11599061 -0.09077446 0.059074637
0.031534635 -0.018867495 0.011820464 -0.014710161 -0.005030031 -0.034500923 -0.051453616 -0.07225927
0.059237354 -0.090467624 0.08223939 -0.0073048496 0.020660456 -0.04096049 -0.04088164 0.065636255
-0.14246294 -0.056218885 0.010997627 -0.038491838 -0.044710044 -0.06925276 0.024103027 -0.0395188
-0.040870823 -0.036402564 -0.041195888 -0.05170757 -0.030531956 -0.055276047 -0.008330808 0.003551964
-0.044408392 -0.0053656036 0.051402625 -0.06327465 -0.055306893 -0.0017133618 0.06936222 -0.015159618
-0.044440225 -0.03899578 -0.082870804 -0.07525001 0.10125644 -0.06988827 -0.049817502 -0.078273624
-0.056608073 -0.060983963 -0.09006813 0.07078641 -0.06445847 -0.052207373 0.018274652 -0.09322803
-0.046681922 -0.05598221 -0.047580745 -0.014326718 -0.0047654 0.057699516 -0.031345554 -0.013249676
-0.053181108 -0.05787177 -0.08649689 -0.08444082 -0.04906797 0.030104171 -0.026781827 -0.075119264
-0.014739432 -0.08604778 -0.020249797 0.08190921 0.0372706 -0.081801124 0.07126423 -0.035628017
-0.08977485 0.04927643 -0.08727341 -0.039030176 -0.057243664 -0.008455624 -0.11558832 -0.013603311

fc.2.bias f4 [64]
00000000: 4ede acbc 8889 343a 54cc 7939 7a4c 133a
00000010: d385 b639 8d49 a0bc 95d0 03bc fbe1 bc3d
00000020: 8c1a 813d a7eb 8c3d 67a1 e5bc e627 65bc
00000030: 570c c6bc 46aa 82bc 5331 e7bc 7650 fc3d
00000040: b2cb 283e 84a6 b6bd e095 913d 7a90 a43d
00000050: 4dd1 9dbd 4915 923c 88c4 bdbd 9939 4dbc
00000060: 89aa 1abc 033d e33d 5c2f 6fbd 846c 32bd
00000070: f313 95bc abe9 d03d 6fff d8bc 1fab 78bc
00000080: 647e d93d 52e4 fe3c 5b33 20bc 24b4 333d
00000090: d4f8 483d e46b 65bd ca75 35bd c341 86bc
000000a0: 62e4 283e 76a8 02bd 55a7 19bc a617 bc3d
000000b0: e8b6 c5bd c582 86bc cae9 48bc 5db1 82bc
000000c0: 2dc2 fdbb 1fca 0dbd ba8c 173e 7968 1bbd
000000d0: e05b 1a3d 3c6b 02bd dcc5 15bd c1c0 c8bb
000000e0: f95b a13c 3680 d33d 54a9 9ebd c8a0 1b3e
000000f0: 9212 1e3e 85d9 8abd b2c6 79bd 4280 5ebd
-0.021102097 0.0006886949 0.00023822609 0.0005619001 0.00034813452 -0.019566322 -0.008045335 0.0922279
0.063038915 0.068808846 -0.028031064 -0.013986563 -0.024175806 -0.015950333 -0.028221762 0.12320034
0.16483954 -0.08918479 0.071086645 0.08035369 -0.077059366 0.017832415 -0.09266001 -0.012525939
-0.009440073 0.110956214 -0.058394775 -0.04356052 -0.01819799 0.10200819 -0.026488988 -0.015177517
0.1061981 0.031114731 -0.009777869 0.043872967 0.049065426 -0.056011096 -0.044301786 -0.01638878
0.16493371 -0.031898938 -0.009378274 0.09184198 -0.09654027 -0.016419778 -0.012262771 -0.015953714
-0.007744095 -0.034616586 0.14799777 -0.03794143 0.037685275 -0.031840548 -0.036565647 -0.0061264937
0.019697176 0.10327189 -0.077471405 0.15198052 0.15436772 -0.0677977 -0.060980506 -0.054321535

fc.4.weight f4 [1, 64]
00000000: c1ff e2ba 9f70 2539 f2f4 4d3a 85a8 2738
00000010: f815 ad39 a35a 083d cc20 d3bd 75ec 953d
00000020: 45c8 0f3d 5c97 b93d 85dd adbc 90c2 debd
00000030: d4bd 88bd 5aa9 a3bd 8e6e 76bd 634a fd3d
00000040: 8697 153e 6155 943c 03d5 b63d 3160 4c3d
00000050: dff5 8cbd 57ad 173d 773e 9d3d 4e62 45bd
00000060: 1d88 cabd 9d7a fa3d 2700 293a 8a4f d8bd
00000070: b6b4 a9bd 795a 643d 99f2 773d d545 02bd
00000080: 070d 2d3d 505e 8e3c da28 c7bc 6e39 3a3d
00000090: f055 fb3c d278 9ebd ff6a 8b3d f9c5 b8bd
000000a0: fed6 183e 09ef 973d 6bb6 89bd db73 273d
000000b0: c04d 8b3d 6ea5 1e3c 5d51 213d 80f6 f3bc
000000c0: 35a8 7b3b be06 c0bd 36f3 163e 721f 35bd
000000d0: 415c b83d 8cf7 e0bd 4b8a 8abd 9779 08bb
000000e0: 94cc a33d 816b 983d c603 17bd 8857 d13d
000000f0: 4dc4 f83d 65a6 e63b 9e2b 83bd 37b7 773d
-0.0017318652 0.00015777581 0.0007856629 3.997285e-05 0.000330135 0.033289563 -0.1030899 0.07320491
0.0351031 0.09062073 -0.021223793 -0.108769536 -0.06676832 -0.079912856 -0.060164027 0.12367704
0.14608583 0.018107118 0.089273475 0.049896423 -0.06882834 0.037030544 0.0767793 -0.048189454
-0.09889243 0.12230418 0.0006446861 -0.10562046 -0.08286421 0.055750344 0.060534094 -0.03180488
0.042248752 0.017378956 -0.024311472 0.045464925 0.030680627 -0.077378884 0.06807517 -0.09022135
0.14925763 0.07418639 -0.067242466 0.040881973 0.06801939 0.009682996 0.039384235 -0.029780626
0.003839982 -0.09376286 0.14741215 -0.04421944 0.09001971 -0.10984716 -0.067646585 -0.0020824426
0.079980046 0.0744238 -0.036868833 0.102217734 0.121468164 0.0070388787 -0.06404804 0.06047746

exp_avg f4 [16, 2, 3, 3]
00000000: c47c 19b4 3489 c5b4 47d3 0a33 1e35 e1b0
00000010: c6a5 36b6 64c3 34b5 36cd b3b4 c7f1 82b6
00000020: 4f24 16b7 65b1 7cb4 cc4b 33b5 fe79 34b5
00000030: 89d6 89b4 9778 4ab5 191e 47b5 b1a1 50b4
00000040: 3d91 3eb5 60e4 3ab5 287d dcb5 eb69 ed35
00000050: 0ffd abb5 b4f6 1e34 a546 ea35 8dc4 0a35
00000060: 9699 9db5 9050 07b6 203b 2bb5 653d 85b4
00000070: 3db1 91b4 bc9f e4b3 0189 38b5 9cd4 35b5
00000080: fad1 0ab5 6c17 0cb5 7b25 04b5 8b7a c4b4
00000090: f5bf 6db5 4b9a 1533 4958 1935 ebbb b3b5
000000a0: 7961 2eb5 262a bdb3 2dac 54b5 3d60 e631
000000b0: c8b3 8bb4 fd0c 4eb4 fd0c 4eb4 9e0c 29b4
000000c0: eee6 24b4 eee6 24b4 831b 88b3 af1f 7ab4
000000d0: ae1f 7ab4 00bd 1db4 ca16 abb5 670d e634
000000e0: 4e58 82b5 3f18 e633 cfa4 9c36 b2b6 cdb4
000000f0: 90d4 4033 84b7 e334 c915 aa33 9920 2e32
00000100: 47ad 6534 b684 5834 edec 8fb2 9780 4434
00000110: 4c96 4634 2a34 42b3 2bf1 2534 da02 4434
00000120: 16cb f6b4 338e e7b5 346f abb5 7129 b334
00000130: e1f0 e834 ecb6 45b5 dbb7 9936 bce7 e934
00000140: 3f0a 3c34 6cf3 7534 c10d 2335 b57b 0834
00000150: ad70 5734 19a7 1c35 66ad e633 1072 e734
00000160: 4c27 0d35 fe57 8633 ef91 a235 6513 f135
00000170: c972 c534 5d27 9336 ccf0 4a36 229c b036
00000180: ab4d b035 b30a 7eb4 e0eb 2035 f374 dd34
00000190: 5009 e334 04ca 3335 ed16 e334 2410 ed34
000001a0: 458f 3a35 f4f6 0035 e8f2 0835 34a2 4a35
000001b0: 9579 a4b4 29ba 47b3 dfad 8735 8f06 97b3
000001c0: bfb7 bc36 0463 7d36 1975 1f34 9a60 a535
000001d0: 0e19 a534 d9a2 5e35 606f 9135 7864 1035
000001e0: 56c8 6635 5dab 9735 fd42 0f35 c576 7b35
000001f0: 6d5a a135 766c 0b35 df17 bbb5 cda2 63b6
00000200: f817 21b6 1b6e 4a35 091d 58b6 6dd1 25b4
00000210: 76d5 d633 1676 3036 3e2f 9536 767c 5533
00000220: 3e86 1733 6a1d 8f33 3621 6533 744a 0e33
00000230: 0486 8a33 5c29 ae34 af19 fe34 4086 f534
00000240: e1c7 2335 6059 ccb4 c416 8535 d6d6 10b6
00000250: 1b7e 18b4 b889 4735 76bc cb34 b454 c235
00000260: 35c4 1235 3fac 8eb5 c361 6ab5 0894 72b5
00000270: 7b60 95b5 0365 75b5 7994 7bb5 ee80 91b5
00000280: d3c6 88b5 0ba0 86b5 5c6d e0b3 f8a5 0d35
00000290: 51db 3936 ef19 1f36 c669 d1b4 d68d 09b5
000002a0: f295 b3b5 5f27 9534 6067 2836 0e4c 3eb4
000002b0: 82f3 d3b3 0f41 94b4 7159 85b3 d322 8b32
000002c0: c21c 3cb4 e7e1 26b4 a0f8 ebb2 7645 58b4
000002d0: 099f e935 4691 00b6 84bf c8b5 9889 59b6
000002e0: 8d81 b935 a72d 68b5 f85e 0b35 5c99 cb34
000002f0: 89f0 8b35 b01d 75b5 30c3 74b5 1be2 69b5
00000300: 894a 6db5 3be8 6ab5 e761 61b5 9611 bab4
00000310: f201 88b4 61c1 2cb4 ad21 b8b4 4e2e a8b3
00000320: e365 9433 093e 9f36 e1a7 17b6 c22f bbb2
00000330: 8c4b 3033 2d4e 8434 b054 c035 ccbd 3235
00000340: ccbd 3235 1482 3a35 cd29 2f35 cd29 2f35
00000350: a855 3c35 bc33 1235 bc33 1235 6658 1035
00000360: 43e7 23b5 8c6f 8eb6 0c8e 3ab6 d6c4 0a35
00000370: 3908 f8b5 a39b c3b4 3ae6 4e35 ec38 4bb5
00000380: 5c87 cf35 4802 c6b4 8a52 28b5 eddc 17b5
00000390: f203 d6b4 055a 39b5 0c2c 22b5 9c74 c3b4
000003a0: 14dc 24b5 1c20 0fb5 e6ed b5b3 5ecf a7b4
000003b0: 4e73 0ab4 ff04 9db3 97b0 25b5 2ea7 8d34
000003c0: f381 9336 03ee 2ab5 eefb 8e32 7865 3d35
000003d0: 0e1b 3735 1e91 4b35 900e 6835 b48d 6335
000003e0: 851a 8d35 4dfb 6a35 289a 6935 e5e3 8f35
000003f0: c1d0 8235 b3ed 89b4 aed2 dcb5 fff8 8b36
-1.4294625e-07 -3.6793938e-07 3.2322784e-08 -1.6386001e-09 -2.7216606e-06 -6.7339556e-07 -3.349066e-07 -3.9024485e-06
-8.9491505e-06 -2.3533865e-07 -6.6792995e-07 -6.723275e-07 -2.5674333e-07 -7.5426345e-07 -7.4177075e-07 -1.9430333e-07
-7.0991865e-07 -6.962273e-07 -1.6427703e-06 1.7688702e-06 -1.2814143e-06 1.4804647e-07 1.7454919e-06 5.1695025e-07
-1.1742111e-06 -2.0163461e-06 -6.37885e-07 -2.481785e-07 -2.7137312e-07 -1.0646133e-07 -6.874471e-07 -6.773714e-07
-5.171456e-07 -5.218815e-07 -4.9228373e-07 -3.6597007e-07 -8.8568714e-07 3.4832095e-08 5.7125413e-07 -1.3391231e-06
-6.496189e-07 -8.808665e-08 -7.9226703e-07 6.704822e-09 -2.6021576e-07 -1.918997e-07 -1.918997e-07 -1.5743942e-07
-1.5357702e-07 -1.5357702e-07 -6.337998e-08 -2.3294591e-07 -2.329459e-07 -1.4690522e-07 -1.2747125e-06 4.285059e-07
-9.711455e-07 1.071462e-07 4.6683485e-06 -3.8317154e-07 4.4896808e-08 4.241557e-07 7.9202046e-08 1.0135545e-08
2.1390325e-07 2.0164848e-07 -1.6755132e-08 1.8300703e-07 1.8494865e-07 -4.5216588e-08 1.5454559e-07 1.825496e-07
-4.5968835e-07 -1.7252227e-06 -1.2772857e-06 3.33715e-07 4.338863e-07 -7.3654405e-07 4.581159e-06 4.356824e-07
1.7512592e-07 2.290596e-07 6.0742246e-07 1.2710991e-07 2.0064427e-07 5.835769e-07 1.07417506e-07 4.3110094e-07
5.258378e-07 6.255867e-08 1.2112413e-06 1.7961544e-06 3.6777627e-07 4.385524e-06 3.0240508e-06 5.263385e-06
1.3135626e-06 -2.3659486e-07 5.994789e-07 4.124955e-07 4.228882e-07 6.697667e-07 4.2298726e-07 4.4156434e-07
6.9498884e-07 4.804308e-07 5.1017423e-07 7.54869e-07 -3.0635843e-07 -4.650261e-08 1.0108887e-06 -7.0326784e-08
5.6242275e-06 3.7757572e-06 1.4850629e-07 1.2321573e-06 3.0751875e-07 8.293842e-07 1.0835756e-06 5.379038e-07
8.5973204e-07 1.130025e-06 5.336913e-07 9.367762e-07 1.2021752e-06 5.1939367e-07 -1.3939533e-06 -3.3920398e-06
-2.4004821e-06 7.541109e-07 -3.220341e-06 -1.5443011e-07 1.000398e-07 2.6294779e-06 4.4460458e-06 4.9706124e-08
3.527952e-08 6.664307e-08 5.3348423e-08 3.3129666e-08 6.450503e-08 3.2440119e-07 4.7329874e-07 4.5732486e-07
6.1013094e-07 -3.806299e-07 9.915898e-07 -2.1582723e-06 -1.420198e-07 7.4333684e-07 3.794882e-07 1.4478778e-06
5.467476e-07 -1.0629955e-06 -8.7314055e-07 -9.036744e-07 -1.1129445e-06 -9.1416604e-07 -9.372084e-07 -1.0840865e-06
-1.0190655e-06 -1.0030357e-06 -1.0450705e-07 5.276811e-07 2.7694807e-06 2.3707942e-06 -3.9006244e-07 -5.1242876e-07
-1.3380179e-06 2.778206e-07 2.5094123e-06 -1.7722797e-07 -9.869747e-08 -2.7614485e-07 -6.2095644e-08 1.6197566e-08
-1.7519326e-07 -1.5542138e-07 -2.7470662e-08 -2.0141837e-07 1.7406138e-06 -1.9158047e-06 -1.49569e-06 -3.241561e-06
1.3821278e-06 -8.649317e-07 5.1919733e-07 3.792328e-07 1.0426312e-06 -9.1312813e-07 -9.118112e-07 -8.712829e-07
-8.8397843e-07 -8.750973e-07 -8.39615e-07 -3.4657995e-07 -2.533339e-07 -1.6089099e-07 -3.4297173e-07 -7.8315324e-08
6.91032e-08 4.745791e-06 -2.2598472e-06 -2.1791383e-08 4.1046903e-08 2.4643796e-07 1.4329762e-06 6.658636e-07
6.658636e-07 6.947969e-07 6.525341e-07 6.525341e-07 7.0160104e-07 5.446452e-07 5.446452e-07 5.3772817e-07
-6.105876e-07 -4.2449155e-06 -2.7798842e-06 5.169544e-07 -1.8479833e-06 -3.643482e-07 7.7076004e-07 -7.5706225e-07
1.5462097e-06 -3.6882034e-07 -6.270499e-07 -5.657337e-07 -3.9863477e-07 -6.9048866e-07 -6.04138e-07 -3.6406425e-07
-6.1415017e-07 -5.3318377e-07 -8.471743e-08 -3.1257053e-07 -1.2894199e-07 -7.311791e-08 -6.172426e-07 2.6384936e-07
4.3960695e-06 -6.367629e-07 1.664554e-08 7.0555643e-07 6.821218e-07 7.5834566e-07 8.6447926e-07 8.4770295e-07
1.0513037e-06 8.7537484e-07 8.702359e-07 1.0720656e-06 9.74651e-07 -2.5691187e-07 -1.6452593e-06 4.1715098e-06

exp_avg_sq f4 [16, 2, 3, 3]
00000000: 4c32 4830 0de9 7d2f d551 d630 b932 ab31
00000010: 5297 1534 e9b3 a633 12b4 e330 a18b 7a33
00000020: 963a fe33 5121 1330 d79e 7830 ef54 8230
00000030: 0cd5 5f30 cce3 b630 832c bc30 a037 5030
00000040: 65e3 ab30 a207 b030 789c db32 d013 8832
00000050: f073 5c33 fdf4 5c30 28a1 5f31 b772 6131
00000060: b8e8 942f a6e7 3832 45c2 db30 ba98 e02f
00000070: 5193 1030 eef3 0b30 b34d fa2f af6e 2330
00000080: 558f 1e30 1561 b52f be34 f22f e86d f92f
00000090: dd20 3a2e 73f5 9a2d 7d5d b42f 7778 b132
000000a0: 291b 3f31 56e7 e62f de8b 7532 944c a031
000000b0: be4f 722f 1005 cf2e 1005 cf2e 04fc 9b2e
000000c0: 74da 172f 72da 172f bf75 d22e d8da 102f
000000d0: d9da 102f 65e4 cc2e f3cc 2431 cf95 8d30
000000e0: 5f4c cf2f b2f6 a42f 9611 1733 44e5 8331
000000f0: 1556 912e 7a09 662f 8906 6e30 05c6 2f2e
00000100: f730 8a2e 4e9d 982e 640e 952e 565c f42e
00000110: 2e50 0d2f 1b2c 972e 46cb fe2e d4e1 f92e
00000120: d0f3 c430 15c9 9231 afc3 c330 6c8c 9931
00000130: 2ba7 6731 b7e7 2a32 6a76 1532 223d 912f
00000140: 1b6f 292f c815 392f d2b2 232f d3a9 232f
00000150: 57e6 442f 0a2a 2e2f 0c09 2c2f 3f3e 012f
00000160: 3903 f52e a1df ea2e 5ee8 c131 3fa3 3832
00000170: 0fb9 1b31 b873 1533 0c09 f032 7b57 ab33
00000180: 22bd fe30 2cd5 262f 408c 0630 f6ef 4330
00000190: 299f 4430 88ae 5730 2486 0730 e134 0830
000001a0: 2426 1930 fd14 662f 2824 672f d1d1 842f
000001b0: 0ed2 e133 a1d4 7d33 fc54 e532 9321 7932
000001c0: 6710 9934 21f8 4e34 7f84 8c2f 1b11 a831
000001d0: 955b d42e 0abd ee30 758e fd30 7077 9e30
000001e0: 3cc6 1831 cfff 2131 ce81 da30 c631 4230
000001f0: 4f44 5930 f29b 0a30 7d40 0c32 2d59 a432
00000200: 9912 e732 b347 fc32 2820 2e32 ea76 7f31
00000210: f86f 302f 3b31 9c32 682e 3d32 c5bb 902f
00000220: 4273 b32f 3c9a ac2f e45d 922f 1df6 b42f
00000230: 4a39 ad2f e218 122f 4ba8 832f a050 822f
00000240: 04df 8532 2520 8733 f7b9 4130 1b25 0e33
00000250: a866 3d32 52ba c22f 8978 b431 2e12 3a34
00000260: 1b4c 9c32 34f9 d130 20c0 d530 64d5 2830
00000270: 3e9b f330 82f8 f730 5d23 4830 b057 e530
00000280: dc56 ec30 f5c9 5630 0725 fb2e 2af5 0131
00000290: 6b9d 1832 8310 c933 a069 e031 f5ba ba31
000002a0: f9d1 d032 952f 0d31 795d e131 dc4d 0831
000002b0: 5547 0431 ebe7 e330 7733 3b31 fb4a 3631
000002c0: 854d 1f31 eb7e 3131 29be 3031 69ce 1b31
000002d0: c2b7 4231 8da2 8b31 82c0 a330 0c3f 2c33
000002e0: 9b1f 9a31 238d 4831 fd25 e92f f179 6531
000002f0: dcd7 0132 2c21 c72e 6e9e 462f e821 152f
00000300: ae77 d02e b055 502f 7b80 1c2f 951d fc2e
00000310: 45e2 9d2f aad1 7b2f 80c4 162f bb05 8b2f
00000320: c616 3f2e 8b64 6031 4f23 8930 949e b62d
00000330: 3301 6c2d 5a7a 0c2d 7070 e92e 9948 6a2d
00000340: 9948 6a2d be43 4f2d 41ea e22d 41ea e22d
00000350: 3003 df2d 1451 032e 1451 032e 2e69 df2d
00000360: 1e31 5230 4e8d 3f32 e515 1632 00ae 1030
00000370: fc65 3032 db0e f12f ca90 1531 8587 0c30
00000380: 854f 8d31 f817 012f 68fe ce2e 54eb b22e
00000390: 2f11 092f 13f4 cb2e 4143 b02e 4a71 ce2e
000003a0: 1acf 9a2e 55d7 8a2e ccd8 a930 12fc 0c2f
000003b0: e19d 0a30 fb30 df2f 7591 9d31 d008 a333
000003c0: 049b 1532 7f19 7930 5323 3a30 2fd5 e82e
000003d0: 83e4 162f 3da5 052f a19c ae2f 2e05 ca2f
000003e0: 30b2 ad2f 6178 892f f049 9d2f 4dda 852f
000003f0: cfa7 1632 3bcf 8832 be8a 6133 109b 0f33
7.283105e-10 2.3093012e-10 1.5593807e-09 4.9825215e-09 1.3931756e-07 7.762703e-08 1.6567603e-09 5.8334653e-08
1.18384534e-07 5.3525634e-10 9.04476e-10 9.482884e-10 8.1429685e-10 1.3306987e-09 1.3691451e-09 7.5749007e-10
1.2506517e-09 1.2807855e-09 2.556611e-08 1.5841493e-08 5.1328186e-08 8.0383683e-10 3.2542378e-09 3.2807017e-09
2.70864e-10 1.076288e-08 1.5989562e-09 4.0853881e-10 5.2596244e-10 5.091455e-10 4.5529944e-10 5.9456345e-10
5.768375e-10 3.299269e-10 4.405702e-10 4.537093e-10 4.2320692e-11 1.7616774e-11 3.2808237e-10 2.0660293e-08
2.7809597e-09 4.200113e-10 1.4292679e-08 4.665319e-09 2.2038102e-10 9.4141694e-11 9.4141694e-11 7.093351e-11
1.381098e-10 1.3810977e-10 9.57061e-11 1.3174473e-10 1.3174474e-10 9.317417e-11 2.3981641e-09 1.0301678e-09
3.7707346e-10 3.0006714e-10 3.517342e-08 3.8386663e-09 6.609128e-11 2.0921745e-10 8.659318e-10 3.996627e-11
6.284211e-11 6.940103e-11 6.778292e-11 1.11122375e-10 1.2852361e-10 6.87452e-11 1.1586691e-10 1.1363324e-10
1.4330173e-09 4.2720196e-09 1.4243734e-09 4.46885e-09 3.3709948e-09 9.947988e-09 8.699866e-09 2.6418784e-10
1.5409933e-10 1.683339e-10 1.4888293e-10 1.4885097e-10 1.790793e-10 1.5840143e-10 1.5646523e-10 1.1754596e-10
1.11418826e-10 1.06808125e-10 5.6434564e-09 1.07473275e-08 2.2660662e-09 3.479701e-08 2.7943791e-08 7.9787206e-08
1.8534687e-09 1.5173346e-10 4.8948223e-10 7.128159e-10 7.1530565e-10 7.846457e-10 4.930334e-10 4.9551657e-10
5.5715277e-10 2.0925835e-10 2.1022173e-10 2.4159744e-10 1.0515588e-07 5.9099538e-08 2.6697755e-08 1.45013415e-08
2.8510405e-07 1.9275514e-07 2.5559996e-10 4.891388e-09 9.656912e-11 1.7370507e-09 1.8448661e-09 1.1529959e-09
2.2231594e-09 2.3573994e-09 1.589848e-09 7.064752e-10 7.904121e-10 5.042572e-10 8.1637355e-09 1.9132665e-08
2.6900397e-08 2.9369266e-08 1.01354445e-08 3.7174979e-09 1.6046886e-10 1.8183178e-08 1.10117995e-08 2.6326866e-10
3.2641806e-10 3.1396208e-10 2.6623959e-10 3.2916683e-10 3.1509223e-10 1.3287463e-10 2.394834e-10 2.370415e-10
1.5584654e-08 6.2922744e-08 7.0477263e-10 3.30957e-08 1.1024589e-08 3.5420783e-10 5.2523927e-09 1.7329214e-07
1.8195399e-08 1.5277579e-09 1.5552395e-09 6.142129e-10 1.77247e-09 1.8042245e-09 7.280983e-10 1.6686865e-09
1.7195947e-09 7.8139745e-10 1.1420736e-10 1.891133e-09 8.883357e-09 9.362795e-08 6.531266e-09 5.434567e-09
2.4309871e-08 2.0545248e-09 6.5589885e-09 1.9834863e-09 1.9249076e-09 1.6582339e-09 2.7241336e-09 2.6527107e-09
2.318161e-09 2.5829034e-09 2.5719464e-09 2.26728e-09 2.833517e-09 4.0639123e-09 1.1914525e-09 4.010421e-08
4.485583e-09 2.9184057e-09 4.2409445e-10 3.3393202e-09 7.557869e-09 9.055365e-11 1.806428e-10 1.3563517e-10
9.480004e-11 1.8947932e-10 1.4233763e-10 1.1464888e-10 2.8718908e-10 2.2902805e-10 1.3712231e-10 2.5288024e-10
4.34486e-11 3.2653442e-09 9.978097e-10 2.0761427e-11 1.3415313e-11 7.985246e-12 1.0615586e-10 1.331748e-11
1.331748e-11 1.17816295e-11 2.5797255e-11 2.5797255e-11 2.535358e-11 2.9857963e-11 2.9857963e-11 2.5398874e-11
7.6467355e-10 1.1149792e-08 8.736127e-09 5.2634164e-10 1.0267737e-08 4.38482e-10 2.1764657e-09 5.112429e-10
4.1126804e-09 1.1740997e-10 9.412987e-11 8.1363055e-11 1.2466182e-10 9.2747275e-11 8.0155e-11 9.3879196e-11
7.039898e-11 6.313764e-11 1.2357986e-09 1.2822479e-10 5.0428467e-10 4.0598266e-10 4.585838e-09 7.591882e-08
8.708188e-09 9.0621904e-10 6.7716605e-10 1.05880076e-10 1.3723604e-10 1.2154984e-10 3.1761707e-10 3.6747266e-10
3.1595127e-10 2.500569e-10 2.861067e-10 2.434767e-10 8.769304e-09 1.5926721e-08 5.251308e-08 3.343581e-08

exp_avg f4 [16]
00000000: 1fc0 4bb5 7fdb 13b5 6636 05b4 f800 f934
00000010: f2d4 9a34 53d0 e234 50cf 4a35 c884 a3b4
00000020: edbf 31b4 986b 69b4 681b 4eb5 fb96 f134
00000030: e5d9 a8b4 7f96 9734 7ef1 f434 17ca 6033
-7.5902966e-07 -5.5081176e-07 -1.240638e-07 4.638057e-07 2.8839673e-07 4.2247356e-07 7.5552543e-07 -3.0457727e-07
-1.6554232e-07 -2.1738958e-07 -7.678086e-07 4.49996e-07 -3.1450978e-07 2.8235442e-07 4.562425e-07 5.2337864e-08

exp_avg_sq f4 [16]
00000000: 5e0f cd31 140b 3131 70a1 1330 0aaa 2130
00000010: 8b3e 1830 9238 9f30 a19d 1432 fe1e a230
00000020: f7a2 e531 3735 a531 ea53 4c30 cd30 682e
00000030: 7829 e82f b731 a930 cdb9 e330 586e 9131
5.9680323e-09 2.5763187e-09 5.3707705e-10 5.88131e-10 5.5386157e-10 1.1584851e-09 8.6505745e-09 1.179586e-09
6.683304e-09 4.808182e-09 7.4334017e-10 5.2794037e-11 4.223002e-10 1.2310498e-09 1.6569232e-09 4.2326e-09
