output/blue/images/epoch_12.pt (torch, 369546 bytes, 27 tensors)

conv.0.weight f4 [16, 2, 3, 3]
000000 d6 30 49 be 23 f4 83 be e4 6d ed bd fe 96 15 be
       -0.19647536 -0.257722 -0.115932256 -0.1460838
000010 f8 26 1a 3e d8 a6 fb 3d a5 42 65 be cb c1 90 3d
       0.15053928 0.12287682 -0.22388704 0.07068213
000020 3b 44 03 3e 3b e2 0c 3d d4 47 17 bd 0c 35 bf 3d
       0.12818997 0.034395438 -0.036933735 0.0933629
000030 9e 6d 2f be 1d b5 54 be 1f a2 39 3e 1e 5b 2f be
       -0.1713166 -0.20772214 0.1812825 -0.17124602
000040 b8 3e 0f 3c b4 b6 05 3e fa 54 31 3e 38 d5 d9 3d
       0.008742981 0.13057977 0.17317572 0.106363714
000050 65 e1 47 3e 7b 3a 24 be 89 5d 8a bd 95 a4 ed bd
       0.19519575 -0.16037934 -0.06756122 -0.11603657
000060 ca 10 51 be 54 ca 0b 3d cf 69 c5 bd 49 3a 42 3e
       -0.20416561 0.034128502 -0.09639322 0.18967547
000070 10 cd af bd 0e 6c 87 be 76 1f a9 bd 06 6e 38 be
       -0.085840344 -0.26449627 -0.08257954 -0.1801072
000080 3c e9 c7 bd db 90 24 3e d7 13 80 3c a9 79 1f 3e
       -0.09761283 0.16070883 0.01563446 0.15573753
000090 6f 76 09 be c9 37 56 be 71 19 72 bd 08 07 03 3e
       -0.13424085 -0.20919718 -0.059106294 0.12795651
0000a0 0d d1 16 bd b6 53 f4 bd e3 75 a9 3d b8 0c 13 bd
       -0.03682046 -0.11930029 0.08274438 -0.0359008
0000b0 ec 6f 2d be f1 16 e3 bd c0 8e 4a be eb 0c a7 3d
       -0.16937226 -0.1108836 -0.19781017 0.08156761
0000c0 82 7d eb 3c 9d 22 c3 3d 11 57 b5 bd 04 d5 aa 3d
       0.02874637 0.09528086 -0.08854497 0.08341411
0000d0 8f 09 80 bc 41 e9 93 3c 8d 7c f6 3d 65 b3 3e bd
       -0.015629558 0.01805556 0.12035475 -0.046557803
0000e0 4f 10 5e be f8 7f 4d be bf e5 52 3e 2a 76 cf bc
       -0.21685909 -0.20068347 0.20595454 -0.0253249
0000f0 0d 20 76 be c3 87 23 be 5a 3e 06 be 67 e2 6c be
       -0.24035664 -0.15969758 -0.13109723 -0.2313324
000100 1c 71 6b be 74 ad 13 3e 3f 01 9c bd 87 83 44 be
       -0.22992367 0.14421636 -0.07617425 -0.19190799
000110 22 af 73 bd 38 e7 58 3e 27 c3 9f 3d 43 f6 32 be
       -0.05949319 0.21181953 0.07800894 -0.17476754
000120 77 48 30 be e0 6e d4 3d 64 92 3d bd f0 66 e6 3c
       -0.17215143 0.1037271 -0.046282187 0.028125256
000130 26 b4 5e bc f0 f7 ae 3d 75 17 0a 3e 0c cf 3c be
       -0.013592755 0.08543384 0.1348551 -0.18438357
000140 0a c5 68 be 1b 5c 12 3e 98 3d 23 be ce e1 12 3c
       -0.22731414 0.14292948 -0.15941465 0.008964969
000150 b5 8d 87 be e7 95 9c 3d 6b 4c 6f be 3d 23 0f 3d
       -0.264753 0.07645779 -0.23368995 0.034945715
000160 91 cb 1c be 74 5a 13 3e 6a 6e 0f be 2f 21 9b bd
       -0.1531203 0.14389974 -0.14006963 -0.07574689
000170 8b 7b 52 be b7 44 f7 3d 02 90 7e 3d 33 a6 3d 3e
       -0.2055494 0.12073653 0.062149055 0.18520431
000180 96 5d 2a bd cb 3c 7d be 51 95 46 be c8 ab d6 3c
       -0.041593157 -0.24730222 -0.19392897 0.026204959
000190 b0 1e 45 3e 0e aa 50 be 28 0d 9b bd 88 3a 9e bd
       0.19249988 -0.2037737 -0.07570869 -0.07726008
0001a0 56 8a bb 3d ed 16 67 3e 67 a4 4e be c6 c2 fb 3a
       0.09157245 0.22567339 -0.20179902 0.0019207827
0001b0 ed 50 d6 3d c9 87 e6 3c eb d1 87 bd ba ba 34 be
       0.10464654 0.02814092 -0.066318356 -0.17649356
0001c0 cc 0e 2b 3e 57 26 11 3e 4e b5 84 be 62 a9 5a 3c
       0.16704863 0.14174782 -0.25919574 0.013346048
0001d0 5b 09 82 be 0d 54 00 be f6 5a 87 3d 80 e4 b7 3d
       -0.25397763 -0.12532063 0.06609146 0.0897913
0001e0 e1 fb 4f 3e 6a 13 5e be 1c 80 2a be ae fd 25 3e
       0.20310928 -0.21687093 -0.16650432 0.16210052
0001f0 a7 6f 6e be a7 dd cb bd 4a 76 ba bb f8 37 35 3d
       -0.2328478 -0.09954386 -0.0056903707 0.04424283
000200 d1 52 bf 3d 1e 70 96 3d 94 c7 5b bd 62 6a fb bd
       0.09341968 0.073456034 -0.05365713 -0.1227615
000210 01 05 12 be a0 11 5c 3d a9 06 1a 3d df bb d3 bc
       -0.14259721 0.053727746 0.037604008 -0.02584642
000220 03 3e 57 3e 48 8a 15 3e c5 9d b0 bd 72 ef 62 be
       0.2101975 0.14603531 -0.08623842 -0.22161654
000230 26 c6 36 bc 12 ff 67 be d5 b5 63 be 90 f2 bc 3d
       -0.011155641 -0.22655895 -0.22237332 0.092259526
000240 56 7d 0c 3d fd 14 0f 3e e8 c7 29 be c5 85 65 3d
       0.034299217 0.1397285 -0.16580164 0.056035776
000250 8f 66 5e 3a d3 cb 41 be 6e 36 ff bd d5 2c 16 3e
       0.00084839104 -0.18925409 -0.124615535 0.1466554
000260 4e be 2c bd 6a 33 1b 3e ae 88 2f be b3 f9 41 bd
       -0.042173676 0.15156332 -0.17141983 -0.047357272
000270 48 32 bf 3d d3 1b 00 be 79 bc 2c be a4 37 b0 3b
       0.09335762 -0.12510614 -0.16868772 0.0053777266
000280 9d 5a 00 3e ca 94 6e be 53 7b 71 be 25 87 81 bd
       0.12534566 -0.23298946 -0.235822 -0.06324605
000290 4e fb 12 3d 15 45 16 3e 70 03 b9 bd 67 1f a8 bd
       0.035884194 0.1467479 -0.09033859 -0.082091145
0002a0 25 1d af 3d f2 02 0b be b4 15 60 bd 4f 96 82 bd
       0.08550481 -0.13575342 -0.054708198 -0.06376325
0002b0 6c 32 33 3d 12 53 52 3e ab b3 27 3c a8 74 f3 3d
       0.043749258 0.20539501 0.010235707 0.11887485
0002c0 67 88 33 3e c9 55 41 3e 0b 23 4b bb 11 16 f7 3d
       0.17532502 0.1888038 -0.003099623 0.12064756
0002d0 af d5 00 3d db e1 a2 3d 76 f4 f4 bd 56 c4 3f 3e
       0.031453785 0.07953235 -0.1196069 0.1872724
0002e0 4f 93 2a bd e3 15 c1 bd 80 41 eb bd 62 97 91 3c
       -0.04164439 -0.09428003 -0.114871025 0.01777238
0002f0 45 7f 8a 3d 28 b0 a5 bd 70 fa ee 3d 6a 51 ad 3d
       0.06762556 -0.0809024 0.11668861 0.08462794
000300 8b ee 82 b9 e3 60 6e be 20 f7 0d 3e 2c b3 71 be
       -0.0002497326 -0.23279147 0.13863802 -0.23603505
000310 55 0a 24 be 2e ec cd bd 1c a4 fb bd 37 d8 b1 bd
       -0.16019566 -0.10054813 -0.12287161 -0.08683818
000320 0a 67 12 be 0b 03 02 3e 65 b5 d5 3a 93 df 2a be
       -0.14297119 0.12696473 0.001630467 -0.1668685
000330 7b 52 03 be 6e a7 47 be 19 14 aa bd e7 14 87 3d
       -0.12824433 -0.19497463 -0.083046146 0.06595784
000340 2c 18 4a bc 11 5d 30 be 9f a7 56 3e f8 ce 2a be
       -0.012334865 -0.17223002 0.2096238 -0.16680515
000350 34 8c c0 3d bd e5 17 bd 85 96 54 be a5 04 22 3d
       0.094017416 -0.03708433 -0.20760544 0.03955521
000360 31 d8 eb bd ef 14 20 3e 17 b0 23 3e 2a e3 27 be
       -0.115158446 0.15632986 0.15985142 -0.1639525
000370 a6 11 ef 3d b3 fd 71 be 32 48 05 bc af 85 07 be
       0.11673288 -0.23631935 -0.0081348885 -0.1323459
000380 cc 08 bf 3c e1 4f 4f be 0b 2b c5 bd d0 d0 6d 3c
       0.023319624 -0.20245315 -0.096273504 0.014515117
000390 65 f0 1d be 76 21 8e bc c2 b7 2b be 2d 1c b2 3d
       -0.15423734 -0.01734994 -0.16769317 0.0869678
0003a0 d0 49 36 3d 62 1b e2 bb 24 21 99 bd a7 b2 5b be
       0.044503987 -0.006900237 -0.07477024 -0.21454869
0003b0 3a a9 23 be bc 0d 5c be f8 23 a4 bd e0 36 50 3e
       -0.15982524 -0.21489614 -0.08014673 0.20333433
0003c0 06 57 00 3d ee 9c 0d be 1a ac 26 be ae 8e e7 bd
       0.031332992 -0.13829395 -0.16276589 -0.11306511
0003d0 09 7e 84 be 86 d9 60 3d 87 74 e9 3d 85 f8 40 3e
       -0.25877407 0.054894947 0.11399179 0.18844803
0003e0 df b3 48 be bf c4 36 3d 8a 3c 38 3c 8a 00 13 3e
       -0.19599865 0.044621225 0.011244902 0.14355674
0003f0 db 6b 03 3d 0d c6 2f 3d c2 e6 1f 3e f2 dd 0c 3e
       0.03208528 0.042913485 0.15615371 0.1375654

conv.0.bias f4 [16]
000000 a3 58 f7 3d e2 1f 53 3e 7b eb 32 be 83 93 20 be
       0.12077453 0.20617631 -0.17472641 -0.15681271
000010 06 4d 2b bd fb ea 2f 3e 2d c1 c7 3d 30 72 93 3d
       -0.041821502 0.17179482 0.09753642 0.07199514
000020 5c 6d 02 3e 2f 06 00 be a4 bf e1 3d fe b2 e0 bc
       0.1273703 -0.12502359 0.11022881 -0.0274291
000030 0a 80 0b bd 86 31 fd 3d 94 e9 04 be 6e e9 46 3e
       -0.034057654 0.123629615 -0.12979728 0.19424984

conv.3.weight f4 [32, 16, 3, 3]
000000 34 fb ab bc f7 5e 0c bd 45 df 2f b9 89 cc 59 3c
       -0.020993806 -0.034270253 -0.00016772475 0.013293394
000010 f0 0f 95 bd 12 b4 46 bd db db 97 3b 62 9d 0e bd
       -0.072784305 -0.048511572 0.004634363 -0.03481806
000020 a8 d8 97 3d e1 1c 22 3d 85 13 47 3c 4b 85 ba bd
       0.07414371 0.039578322 0.01215065 -0.09107455
000030 2f 6d 7c 3c 74 5b a5 bd 72 09 9e bd f1 45 71 3c
       0.015406891 -0.08074084 -0.07716645 0.014726148
000040 35 6b 68 bc cb d3 63 3c 18 6a d5 bc b2 a3 40 3d
       -0.014185716 0.013905476 -0.026051566 0.047031112
000050 e9 e0 41 bd 3f 73 0c 3d 92 66 81 3d 9e f6 09 b9
       -0.04733363 0.034289595 0.06318392 -0.0001315721
000060 90 82 6c bd e6 57 07 3d 0f 46 58 bc 95 2b aa bd
       -0.0577417 0.03304281 -0.013200297 -0.08309094
000070 6b 48 9e bd 8a fa bd bd e4 6b 8b 3d 35 e8 1d 3c
       -0.077286564 -0.09276302 0.06807688 0.009637882
000080 ab 35 80 3d dc 15 23 3d c4 b5 b8 bc 2a 39 af 3c
       0.06260236 0.03981577 -0.02254761 0.021389563
000090 48 21 9b bd 69 eb 2e 3c 36 aa 29 3d e2 30 a2 bd
       -0.07574707 0.010676243 0.04142209 -0.0791948
0000a0 9c 7d 68 3d 34 fd 03 3d ec 1d 80 bd b8 74 30 3c
       0.056760415 0.032223895 -0.06255707 0.010770015
0000b0 bb 07 cc 3c dc 60 79 3d 11 0d 34 3c fd 9c f7 bc
       0.02490603 0.060883388 0.010989443 -0.030226225
0000c0 22 a8 b5 bd e5 16 33 bd 96 f7 c4 3c b6 f2 0a 3d
       -0.088699594 -0.043723006 0.02404384 0.033922873
0000d0 4e 37 a1 bd 5b 6c 51 3d 0d 02 a4 bc 3e 94 ba bd
       -0.07871877 0.051128726 -0.02002051 -0.09110306
0000e0 42 7f 03 3d 00 db 6b bd de d9 01 3d fd af 93 bc
       0.032103784 -0.0575819 0.031701915 -0.018028254
0000f0 39 74 a0 bd e9 ff 3c 3d da 44 87 bc a8 04 18 3d
       -0.07834668 0.046142492 -0.016512323 0.037113816
000100 b0 bc b5 3a 53 6d 8f 3d 85 01 65 bb 2e 6d 9d 3c
       0.0013865437 0.07003274 -0.0034943533 0.0192171
000110 0c 66 98 bd f9 9e d3 bb 18 67 51 bc 32 82 6a 3d
       -0.07441339 -0.00645816 -0.012780927 0.05725307
000120 47 c3 75 bd 94 30 98 3c 15 63 7c bd 3e 4a 28 bb
       -0.060000684 0.018577851 -0.06161793 -0.0025679017
000130 a1 6b fb 3c ba 87 84 3d 34 81 ac bd ce ba bd bd
       0.03069097 0.064712 -0.08423081 -0.09264146
000140 84 17 fc 3c bf 35 31 bd 19 75 b3 bc 60 5f 4c bd
       0.030772932 -0.043264147 -0.021906422 -0.049895644
000150 6b d7 53 3b 79 81 46 bc f7 df 52 3d 73 c3 3a 3c
       0.0032324444 -0.01211583 0.05148312 0.011399138
000160 4d 3a ad bd 9d e0 d4 3c f5 d5 fd bc 64 9e 86 bd
       -0.084583856 0.02598601 -0.030985812 -0.06573179
000170 e8 90 42 3d 5f 2d a2 bd 45 d4 60 bd b9 da b6 bd
       0.047501475 -0.0791881 -0.054889936 -0.08928437
000180 31 cf e3 3c 0b 77 a3 bd fe f4 94 bc 9d 8f 85 bd
       0.027808757 -0.0798169 -0.018183228 -0.06521533
000190 93 83 c6 bc 73 03 b6 bd 13 26 7c bd 43 bf 58 bd
       -0.024232661 -0.08887377 -0.061559748 -0.052916776
0001a0 c3 dd 1d 3a 69 2b c3 bd c5 6f dc 3c 17 27 1e bc
       0.000602212 -0.09529764 0.026908765 -0.009652874
0001b0 b3 93 81 3d 32 a2 17 3d 3f 20 a3 bd 97 7e 88 3d
       0.063269995 0.037019916 -0.07965135 0.0666477
0001c0 b7 2f 81 bd c1 df 8c bd 39 47 6b bd a7 ae c3 3c
       -0.06307929 -0.06878615 -0.05744097 0.023886992
0001d0 70 8b 6c b9 73 72 13 3c 28 0c b5 bd 8c c8 42 3d
       -0.00022558658 0.008999455 -0.08840209 0.047554538
0001e0 db b3 2c 3d 52 2b bb 3c a7 ed 5f bd d7 48 52 3c
       0.04216371 0.022847805 -0.054670002 0.012834749
0001f0 6e 5c 61 bd ac 70 32 3d 29 ff 5b 3b e8 0a ee bc
       -0.05501979 0.043564484 0.0033568835 -0.029057935
000200 6d 76 c7 bc 70 f7 9a bc fa 3d 0c 3d 92 7f b5 3c
       -0.024348462 -0.018916816 0.034238793 0.022155557
000210 8e ac a1 3c 0f a3 c5 bd a7 c1 12 3d a7 51 99 bd
       0.0197356 -0.096502416 0.035829213 -0.07486277
000220 f2 95 0a 3b 4f 2f 48 3d 1a c1 9b 3c 92 04 9c bc
       0.0021146503 0.048873242 0.019012976 -0.019045148
000230 4f f1 8a bc 1a 09 ac bd 3f 18 06 bd e2 d8 b2 bd
       -0.016960768 -0.084001735 -0.032737967 -0.08732773
000240 09 25 3d 3d 28 13 86 bd 37 59 e2 b8 43 24 06 bd
       0.046177898 -0.065466225 -0.00010793137 -0.032749426
000250 11 24 72 3d e1 00 e3 bc 31 7a 58 bd dd ab ea bc
       0.059116427 -0.02771038 -0.052850906 -0.028646404
000260 ff 25 92 ba 81 8b 26 bc 5e 70 68 3d a9 9b f0 bc
       -0.001115024 -0.010165096 0.056747787 -0.0293711
000270 75 34 ab bd 97 a4 90 3c c5 4d 87 bd 9c 93 24 bd
       -0.08359615 0.017656608 -0.0660663 -0.040179834
000280 c0 e3 b7 bc 3c 3b 82 bd 81 87 14 3b 77 cb c0 bd
       -0.022447467 -0.06358954 0.0022663774 -0.09413808
000290 fb 27 1f 3d 88 c1 65 bd 3c fc 92 bb 9a b2 4d 3c
       0.038856488 -0.05609277 -0.004485635 0.012554789
0002a0 9f 03 6a bd fb 2f a5 bd ca 75 a5 bc 3f ea ca bd
       -0.05713236 -0.08065792 -0.020197768 -0.0990796
0002b0 44 a6 8a 3c 7d 48 89 bd 02 d4 94 bd dd 51 22 bd
       0.016924985 -0.06703279 -0.07267 -0.039628852
0002c0 b8 26 ec bc 35 9c 25 bd be 1d 58 bd 35 47 27 bc
       -0.028827056 -0.040432174 -0.05276274 -0.010209848
0002d0 13 d9 51 3c eb ce 51 3d ea 20 8e 3d 52 9b ab bd
       0.012808102 0.051222723 0.069398716 -0.083792344
0002e0 01 60 ae ba 7b b0 08 3b 0c 8b 01 3d 38 ff 38 3d
       -0.0013303758 0.0020857144 0.031626746 0.04516527
0002f0 3b af d1 3b 7f f4 17 bd 49 73 7b bd 16 13 57 bd
       0.006399063 -0.037098404 -0.06138924 -0.052508436
000300 7f 82 61 3d e7 2c 1c 3d fe db 87 bd b0 b0 2e bd
       0.05505609 0.03812876 -0.06633757 -0.04264897
000310 10 92 d7 3c 26 f2 f9 3c 98 f7 8c ba 89 84 8f 3d
       0.026314765 0.030510973 -0.0010754941 0.07007701
000320 fe f6 f5 bc af 65 94 bd 7b 11 97 bd 01 70 54 bd
       -0.030025002 -0.07245957 -0.07376381 -0.051864628
000330 ea 5a c7 3a f2 d8 28 bc 90 d7 3b bd 4a 3a 95 bc
       0.001520959 -0.01030563 -0.045859873 -0.018216271
000340 ed ac 15 3d ab 47 72 bd 6d 52 8e bd 06 51 76 bd
       0.036541868 -0.05915038 -0.06949315 -0.060135864
000350 0d a1 9d bd cf 44 95 bb d7 47 95 bd dc d0 ab bd
       -0.076967336 -0.0045553218 -0.07289093 -0.08389446
000360 e8 ce 5c bd 1a 4c 94 3d e5 88 83 3d 1e e8 3d bd
       -0.05390826 0.07241078 0.06422595 -0.046363942
000370 46 b8 f1 bc 9e 7f b3 3a bb 16 59 bd 0c 7e 0d be
       -0.029506814 0.0013694649 -0.053000193 -0.13817614
000380 45 03 8b 3d 6f ac 28 bd 13 94 83 3d 7c b9 a4 3c
       0.06787733 -0.04118007 0.06424727 0.020107977
000390 39 56 7e bb f3 54 82 bd 12 ce 00 bc 91 53 98 3c
       -0.0038808717 -0.06363859 -0.007861631 0.018594535
0003a0 f8 c3 93 3c bf 8b 6b bd 97 48 8e 3d 68 ee a2 bd
       0.018037781 -0.05750632 0.06947439 -0.07955629
0003b0 8f d4 5a 3d df a1 4d 3c 3b 0a c5 bb 4e 54 10 3b
       0.053425368 0.0125508 -0.0060131825 0.0022022906
0003c0 6d 19 d5 bd bb e5 b5 bd c4 ab b4 bd 82 2c c1 3c
       -0.1040524 -0.08881708 -0.08821824 0.023580793
0003d0 8b e5 32 3d ee 90 9e 3d 89 b4 12 3d 35 8d 6f bd
       0.04367594 0.07742487 0.035816703 -0.058484275
0003e0 81 0e ca 3d a2 de 66 3c 42 52 39 3d 4f 9d b8 bd
       0.09866048 0.014091166 0.045244463 -0.09014379
0003f0 da 83 80 3d dd 42 8c bd e1 38 ce bc 8a fd ae bd
       0.06275149 -0.06848691 -0.025173606 -0.085444525

conv.3.bias f4 [32]
000000 f2 e6 6e bc ac 23 d5 3d d8 3f 3c 3d cc 91 88 3d
       -0.014581429 0.104071945 0.045959324 0.066684335
000010 d1 1a 88 bc c3 a9 19 3c 23 56 a5 bc a7 e1 7e 3c
       -0.01661435 0.009378853 -0.020182675 0.015556729
000020 42 60 1b bd 31 24 61 bd 84 73 42 bc b1 6d 33 bd
       -0.037933595 -0.054966155 -0.011868361 -0.04380578
000030 46 75 dd 3b fb fb 96 3d 15 f8 6f 3c e7 8f d1 3c
       0.006758365 0.0737228 0.01464655 0.025581313
000040 6f 55 fc bc a4 60 53 bb 79 b4 73 b8 06 c2 87 bb
       -0.030802457 -0.0032253647 -5.8103793e-05 -0.0041430024
000050 3c 41 89 bc 58 1b 66 3d fc cc 86 3c 24 71 e1 bb
       -0.016754739 0.05617842 0.016455166 -0.0068799425
000060 ac 3c 3e 3c 23 b7 67 3d 74 19 50 bd a2 79 4f bd
       0.011611145 0.056571137 -0.050805524 -0.050653107
000070 cd 1d 71 3d 23 4d 67 bd 6c 66 8b bd a0 51 14 3c
       0.05886631 -0.056470048 -0.06806645 0.009052664

fc.0.weight f4 [128, 128]
000000 f8 65 81 bd 37 9d 54 3d 14 b2 76 3d 3a 10 d4 bb
       -0.06318277 0.051907744 0.060228422 -0.006471661
000010 29 15 de bc ae 79 51 bd 7d a0 7f 3c 2f f1 66 bd
       -0.0271097 -0.051141433 0.015602228 -0.056382354
000020 79 5a 9a bb 12 1f f4 bb 79 53 a8 bd 81 86 e3 3c
       -0.004710492 -0.007449993 -0.08219046 0.027774097
000030 e5 ad 9b bd fa 9f ae bb cd 63 b0 bc b2 ff 0b 3c
       -0.07601527 -0.0053291293 -0.021531964 0.008544849
000040 94 38 91 3d 0a 27 89 3d ea b0 18 3d a9 0b ae bd
       0.070908695 0.06696899 0.037278093 -0.08498318
000050 7c 62 8c 3d 94 f4 85 bc 2c 95 27 bd 6e 6f 11 3d
       0.06854722 -0.016351976 -0.040913746 0.03550666
000060 a8 c0 f4 3c 83 e2 5c bd ca 24 68 bd cd 25 22 3d
       0.029877022 -0.053926956 -0.05667571 0.03958683
000070 c5 6f 0b 3d 00 ab b5 3c 7d 45 99 3d 18 c4 a2 3d
       0.03404214 0.022176266 0.07483957 0.07947558
000080 37 ed f3 3c e9 c6 7f 3c b8 df 13 bd 58 b3 d7 3b
       0.029776199 0.015611389 -0.036102027 0.0065826587
000090 3c af 84 bd fa 75 a9 bd 9f 06 1f bb 22 2b 89 bd
       -0.06478736 -0.08274455 -0.002426542 -0.0669768
0000a0 86 13 5c bd ff e6 82 bd 83 72 09 bd ce 4f b4 bd
       -0.053729557 -0.06391715 -0.033556473 -0.08804284
0000b0 ae 5d 55 3d a5 c1 a6 bd b1 29 48 3d e3 bf da 3c
       0.052091293 -0.081424035 0.048867885 0.026702827
0000c0 a7 07 8e bd 06 1d 81 3d 36 30 ad bd 30 90 8a 3d
       -0.06935053 0.06304364 -0.08456461 0.06765783
0000d0 e8 4b 25 bc 53 ae 5b bd f2 4f c2 3c 11 78 9f 3b
       -0.010088898 -0.053633045 0.023719762 0.004866608
0000e0 07 e6 e6 bc e8 e4 7a bc a5 9a 9c 3d 23 4d af 3c
       -0.028185857 -0.015313365 0.076466836 0.021399086
0000f0 f0 8f 71 bc 1b e8 6c bd e9 a9 9f bc c4 91 1c bd
       -0.01474379 -0.05783854 -0.0194902 -0.03822495
000100 c0 4c 91 3b f3 1e 07 bd 56 1b 9a bd 61 76 0e 3d
       0.004434198 -0.0329885 -0.07524745 0.034780864
000110 01 23 92 3d 12 23 c6 bc 45 73 4f 3d 07 89 67 3d
       0.07135583 -0.024186645 0.05064704 0.056527164
000120 96 5e a3 3d 27 05 be bc 44 a0 24 bd f0 39 b3 3d
       0.07977025 -0.023195816 -0.040191904 0.08751285
000130 35 8e a9 3c 8d a3 82 3d b4 02 44 3d 99 8a 79 bd
       0.020697692 0.06378851 0.04785414 -0.060923193
000140 15 74 70 3d be 67 35 bc 44 db 70 bd 68 36 88 bd
       0.058704454 -0.011072097 -0.058802858 -0.06651002
000150 8a 09 6e 3d b7 92 ac 3d de 66 89 bd 58 80 a5 3d
       0.058114566 0.08426421 -0.067090735 0.0808112
000160 42 0f ff 3c 00 aa a5 bd df 07 33 bd bd b5 ae bc
       0.031135205 -0.080890656 -0.04370868 -0.021326894
000170 9b 3a 15 bd 78 a8 1b 3c b1 97 df 3b 6e e4 95 3c
       -0.036432844 0.009500615 0.006823503 0.0182974
000180 a3 d7 a4 3d 73 5c 11 3d 3e 24 f1 3a dc aa 4a 3c
       0.08048942 0.035488557 0.0018397642 0.012369838
000190 43 ad 21 bd 0d a7 f3 bc 1c b2 8e bb 9f 63 88 bc
       -0.039471876 -0.029742742 -0.0043547284 -0.016649066
0001a0 55 34 b8 bc f4 c7 f8 3c 2e 64 8d 3d e8 6f 8b bd
       -0.022485891 0.030368783 0.069038734 -0.06808454
0001b0 e2 21 5e 3d 25 82 81 3b f7 06 83 bd c5 12 ce 3c
       0.054231532 0.003952282 -0.06397813 0.025155434
0001c0 1b 38 4a 3c 9a 26 df bb f6 03 63 3d 8e 6e 58 3d
       0.012342478 -0.0068100216 0.0554237 0.05283981
0001d0 a3 e8 78 3d e2 38 8a 3d ee c3 71 3d b8 ff 93 bc
       0.060768735 0.06749131 0.059024744 -0.018066272
0001e0 1a a1 91 3d 35 5b 80 3d d8 87 98 3d ba 57 51 3d
       0.07110806 0.06267396 0.07447785 0.051109053
0001f0 b0 aa 4b 3c e1 23 7d 3d 0d bd 85 bc 6f 91 2d bd
       0.012430832 0.061801795 -0.016325498 -0.042375024
000200 6c 5b f1 bc 68 d2 62 bb 1e d7 92 3d 1a f6 37 3d
       -0.029462539 -0.0034610275 0.071699366 0.044912435
000210 21 b9 69 bc ab 0a 26 3d ab 62 ac 3c 0c a2 29 3d
       -0.01426533 0.040537518 0.021043142 0.041414306
000220 16 97 98 bd 13 ba 14 bd 47 42 0b bd 93 83 6b bd
       -0.07450692 -0.036310267 -0.033998754 -0.057498526
000230 61 c3 9d bd c1 d5 84 3d de 59 0a 3b cf 18 80 bd
       -0.07703281 0.06486083 0.0021110694 -0.06254732
000240 45 2a 98 3d 2b a8 c1 bc 4d 33 b2 bd 73 93 17 bd
       0.07429937 -0.023639759 -0.08701191 -0.037005853
000250 fe 70 ae bb 26 28 9d 3c 4c 84 7f 3d 69 40 81 bd
       -0.0053235283 0.019184183 0.062382028 -0.063111134
000260 58 35 05 3d b6 f5 39 bc 6b c5 ec 3c 48 ab 4f bd
       0.032521576 -0.011350086 0.02890273 -0.050700456
000270 93 42 3e bd 0d d2 85 bd 9d cc c7 3c 26 59 a0 3d
       -0.04645021 -0.06534205 0.02438956 0.07829504
000280 08 19 55 3d 53 2e 63 3c a1 77 1c bd 5a e6 b8 bb
       0.052025825 0.013866025 -0.038200025 -0.0056426944
000290 46 77 85 bd 27 fd 93 3d 0d 3f d7 3c e8 82 42 bd
       -0.0651689 0.07226019 0.026275182 -0.047488123
0002a0 62 9c 69 bc d4 c6 2b 3d 26 7a f8 bc 33 f0 f7 3c
       -0.014258476 0.041937664 -0.030331682 0.030265903
0002b0 6b 5a d9 bc 65 fd 6d bc 78 2f 6a 3b 6d 06 9a 3b
       -0.026532372 -0.014525746 0.003573386 0.004700473
0002c0 40 9d a5 3d 77 0d 96 bd f5 ba 7d 3c b4 5e a5 3d
       0.08086634 -0.07326787 0.015486469 0.08074704
0002d0 aa 34 5d bd 2c fe 08 bb 4d 87 19 bd a5 c3 c8 bb
       -0.054005302 -0.0020903451 -0.03748255 -0.0061268383
0002e0 44 d3 82 3c cb 8c 85 bd bd 31 97 3d a6 30 f2 bc
       0.01596988 -0.06520995 0.07382534 -0.029564213
0002f0 e5 46 18 3d e9 c1 91 3c 5f 64 51 3d 61 83 1a 3c
       0.037176985 0.017792659 0.051121112 0.009430737
000300 be 4e 7c 3d f3 90 a2 bb 3a 20 0e bd 03 4a 8f bd
       0.061598532 -0.004961127 -0.034698702 -0.069965385
000310 2d df 9c 3d d7 c6 6a bd ac 43 70 bc 6b 1f ea 3a
       0.07659755 -0.057318535 -0.014664572 0.0017862146
000320 2a b3 42 3d fb fd 52 bd bf 53 c5 bb 09 14 2a 3c
       0.047534145 -0.051511746 -0.006021946 0.010380753
000330 fa de 7b 3d 16 40 7d bd 91 a8 3b 3d e7 52 bb 3d
       0.061491944 -0.061828695 0.045815054 0.09146672
000340 7f f8 44 bc 78 05 67 bd 7c 83 3b bd 57 32 56 3d
       -0.012022137 -0.0564017 -0.04577969 0.0522941
000350 31 2c 23 bd a2 67 31 3d 1b 66 87 3d d4 86 25 bc
       -0.039837066 0.043311723 0.06611272 -0.010102946
000360 44 3c 8c bd 71 4f 84 bd 3e b2 2f 3d 1f 57 24 3d
       -0.06847432 -0.06460465 0.042894594 0.040122148
000370 a4 e3 a9 3d fb 76 9b bc ba f2 88 3d fa 8f 86 bd
       0.08295372 -0.018977633 0.066869214 -0.0657043
000380 93 47 87 3d 8d 34 f7 bc 2a 5e 4a 3d a7 04 7e 3d
       0.066054486 -0.030176425 0.049406208 0.062016156
000390 72 a0 55 bc 64 03 0e bc d6 12 c6 bc 06 48 20 3d
       -0.013038741 -0.008667801 -0.024178904 0.039131187
0003a0 ea a9 9a 3d 58 77 fc 3c c7 5a bb bc 26 0c 8a bd
       0.0755194 0.030818626 -0.022870434 -0.067405984
0003b0 94 03 0f 3d 5d a1 92 bd 02 bb 5e 3d 25 f8 35 bd
       0.03491552 -0.07159684 0.054377563 -0.044426102
0003c0 b8 34 1f 3d b7 a1 fb bc f0 62 0e 3d ba 59 94 3d
       0.038868636 -0.03071676 0.034762323 0.072436765
0003d0 53 de 69 3d 7e 41 6b 3d 45 1c 5d 3c 32 30 5e 3c
       0.05709679 0.057435505 0.0134955095 0.013561295
0003e0 42 24 a9 bc ba 74 6f bd fc ea 32 bd 11 bb a0 bc
       -0.020647172 -0.05846093 -0.04368113 -0.01962045
0003f0 89 7a 73 bd 5e 3f 60 3c 65 7f 60 3d 80 de a3 ba
       -0.05944303 0.013686983 0.054808993 -0.0012502223

fc.0.bias f4 [128]
000000 58 7e 3c bd 60 59 61 bd d9 31 29 3d 1b e6 75 bd
       -0.04601893 -0.055016875 0.041307304 -0.0600339
000010 98 ea a6 3d 8c 9d 9a 3d 3c f2 32 3d 49 0b a1 bd
       0.08150214 0.07549581 0.043688044 -0.078634806
000020 1c 3f 97 3d 7e 26 ff 3c 29 29 ad bc 74 23 a8 bd
       0.07385084 0.031146284 -0.02113779 -0.08209887
000030 05 67 23 3d c6 3a a5 bd 62 38 d0 bb 19 b7 09 3c
       0.03989317 -0.08067851 -0.0063543776 0.00840547
000040 69 29 9a bd 83 b1 8d bd 0f c6 95 3d c3 7b 86 bd
       -0.075274296 -0.06918623 0.07313167 -0.065665744
000050 3d b6 0e 3d e0 fb 91 3d 5c 0a 90 bc d9 3c 0c 3d
       0.034841765 0.071281195 -0.017583065 0.034237716
000060 77 c1 7e bc 3f d5 0e bd ab 34 98 bd a3 87 86 bd
       -0.015549055 -0.034871336 -0.074319206 -0.065688394
000070 ae 0a 09 bd 80 9f 8a 3d 1b 7e 08 3c 23 d8 0c 3d
       -0.03345745 0.067687035 0.008330847 0.03438581
000080 7c 21 4e 3d 74 16 47 3d 5d 00 6a bd af 59 10 bd
       0.050324902 0.048605397 -0.057129253 -0.03524178
000090 6c 1d 33 3d 93 af 3b 3c 7a bf 34 bd a0 01 78 3d
       0.04372923 0.011455434 -0.04412792 0.060548425
0000a0 4f bd 6b bd 63 00 ad bd 35 58 2f 3d f8 59 7e 3d
       -0.057553586 -0.084473394 0.04280873 0.06209752
0000b0 a8 45 ad bd 1c c2 91 bd 5d 26 54 3d 00 48 a3 bd
       -0.084605515 -0.071171016 0.0517944 -0.07972717
0000c0 83 82 49 bd 80 26 44 bd 58 d1 ef bb bb 1e 94 3d
       -0.04919673 -0.04788828 -0.007318657 0.07232424
0000d0 ca 83 be bd 5a 54 9a 3c 75 f8 21 3d 5d 0b c1 bd
       -0.093024805 0.01883905 0.039543588 -0.094259955
0000e0 93 5b 3d 3c 6b c1 53 bc e9 12 6f bd 33 bd 92 bb
       0.0115574775 -0.012924532 -0.058367644 -0.0044781207
0000f0 51 56 4f bd a8 a6 61 bd 5b 11 13 bc 5e fd 83 3c
       -0.050619427 -0.055090576 -0.008976306 0.016112026
000100 aa bc c9 bb c3 4d 99 bd 04 21 99 3b fa cc e7 bc
       -0.0061565237 -0.07485535 0.004673125 -0.028295983
000110 12 f8 c4 bd 4b 8c 67 3d 0d 60 8a 3d b4 9a aa 3d
       -0.09617628 0.05653028 0.067566015 0.083302885
000120 e4 a2 99 3d ca c2 7e 3d 06 0f 80 3d 56 e5 21 3d
       0.07501772 0.062197484 0.062528655 0.039525352
000130 50 6f 91 3c 4e 2b 45 3d ba 0c 8f 3d ca 66 c7 3d
       0.017753273 0.048137 0.06984849 0.09736402
000140 89 19 b6 bc b5 76 51 3c 01 3b 97 3c fc 80 aa bd
       -0.022228973 0.01278465 0.018460752 -0.08325383
000150 d0 7b 09 bd 90 19 70 3c ae 67 dd bd 35 25 a5 bd
       -0.033565342 0.014654532 -0.10810791 -0.08063737
000160 a3 ca 94 bc a0 26 93 bd 9e 0d 53 3c 71 e0 78 3d
       -0.018163031 -0.071851015 0.012881665 0.06076092
000170 06 16 e1 bd d0 8a fb bc b5 19 29 bc 86 67 d4 3c
       -0.10990529 -0.03070584 -0.01032107 0.02592827
000180 94 e5 45 3d 02 40 77 bd e3 7c 62 3d 59 f4 8c bd
       0.048314646 -0.060363777 0.055294883 -0.06882543
000190 38 d8 62 bd 12 7f 8a bd eb 60 7c 3c 67 49 b8 3d
       -0.055381984 -0.06762518 0.015403966 0.089983754
0001a0 99 e0 95 bd ec 40 23 3d 1b a4 81 bd 4e a7 1f 3d
       -0.07318229 0.039856836 -0.06330129 0.038977914
0001b0 f9 38 1b bd 0b 2f f9 bc a3 3a 38 3d 06 3a d2 bd
       -0.03789613 -0.03041794 0.044977795 -0.10264973
0001c0 c8 13 6b 3d 16 51 b6 bd 92 03 af 3c d0 94 98 bd
       0.05739191 -0.08902185 0.021364007 -0.07450259
0001d0 87 b2 ae 3c 7c 7d a5 3d f1 33 7a bd db e5 8a 3c
       0.021325363 0.08080575 -0.06108469 0.016955307
0001e0 ba e0 58 3d b7 7e ca bc 78 46 0e 3d 96 11 57 3c
       0.05294869 -0.024718625 0.034735173 0.013126751
0001f0 ac 39 a0 bd 0d 38 07 bc e3 f9 0a 3d 50 d0 8d bc
       -0.078235 -0.00825311 0.033929717 -0.017311245

fc.2.weight f4 [64, 128]
000000 e8 2b a4 bc ae 1c 08 bd 83 35 5a bd d7 f5 69 ba
       -0.020040467 -0.033230476 -0.05327369 -0.00089248776
000010 f2 65 b8 bc 6a dc 19 bd 69 0a 3e bd 1e fa 90 3d
       -0.022509549 -0.03756372 -0.046396647 0.07078956
000020 26 3c 19 3d 51 42 77 bc b4 f4 17 3d 20 31 71 3d
       0.037410878 -0.015091495 0.0370986 0.05888474
000030 3b c1 10 3d 46 fd 5d bd d3 9e 85 3c 02 f7 fb 3b
       0.03534053 -0.05419662 0.016311085 0.0076893577
000040 3e 68 9b 38 2a 0b 53 bd 9e 00 92 3d b4 57 db 3c
       7.4103926e-05 -0.05152432 0.07129024 0.026775219
000050 ed 59 7a bd 67 f4 80 bd 2c 38 9f bd 99 7b 45 bc
       -0.061120916 -0.06296616 -0.07774386 -0.012053394
000060 e2 8c b3 bd d1 c7 b5 bd fa 93 8f 3d c1 af 8c 3c
       -0.08767106 -0.088760026 0.07010646 0.01717365
000070 45 4c 89 3d 35 de dc bc be af 5d bd 02 c5 26 bd
       0.067040004 -0.026961425 -0.05412268 -0.040715225
000080 ea f5 5f 3c 55 80 13 bc 06 07 69 3d 47 8d 73 bd
       0.01366947 -0.009002765 0.056891464 -0.059460904
000090 ec 65 0f 3d c2 80 85 3d 49 67 7c bd 29 7f 8d 3d
       0.03500931 0.06518699 -0.061621938 0.069090195
0000a0 3c 56 1b bd de fa 8e bd 8d 18 d6 bc 72 77 51 bd
       -0.037924036 -0.06981443 -0.026134754 -0.051139303
0000b0 37 b0 8d bd 78 32 67 3c e2 3c b8 bd 01 cf 54 3d
       -0.06918376 0.014111154 -0.089959875 0.051955227
0000c0 8d cc 96 3d 9c 4c cd bc 3a 51 8c bd 03 0e a4 bd
       0.07363234 -0.025060944 -0.0685143 -0.08010485
0000d0 37 01 ad bd 6c 27 9c bc c9 0a cb bc 6a ad 9a 3d
       -0.08447497 -0.019061767 -0.024785416 0.07552607
0000e0 46 46 3b 3d c8 a5 ea 3c 17 01 4c 3d 8b eb 5d bc
       0.045721315 0.028643504 0.049805727 -0.013544927
0000f0 60 ab 94 3d 3d 20 05 3d 1f cd a0 bd 3a 77 9f 3d
       0.0725925 0.032501448 -0.07851624 0.077864125
000100 4a e4 4c 3d 56 d4 86 bd 95 99 82 bd bc b6 7e 3d
       0.0500224 -0.065834686 -0.0637695 0.062185988
000110 ab 71 bd bd 47 99 7b bd 1c 96 b5 bc 25 6a b8 bd
       -0.09250196 -0.061425474 -0.022166304 -0.090046205
000120 c4 e8 81 3c 73 90 95 bc 19 7d 5f 3d f2 40 2d 3c
       0.015858062 -0.018257355 0.05456266 0.010574566
000130 9e 1d 24 bd 07 fc 90 3c 46 68 63 bd 3e 0e 36 3d
       -0.040067308 0.017698301 -0.055519365 0.044447176
000140 40 df c7 3c 6f 6f 14 3d a1 e3 a2 3c 2d ec 64 bc
       0.024398446 0.036239084 0.019883933 -0.013972324
000150 5b d5 07 bd 88 20 7d 3d 34 4e 8c bc a1 58 98 bc
       -0.033162456 0.061798602 -0.017127134 -0.018596949
000160 6f 25 b7 3d 95 1b 30 bd 82 03 88 3d 74 6b 1d bd
       0.08942687 -0.042995054 0.06641294 -0.038432553
000170 2c 10 a1 3a 82 fa b7 bd 0f a7 8a bc 36 95 89 3b
       0.0012288145 -0.089833274 -0.016925363 0.0041986955
000180 61 a9 9a 3d e8 5a 62 bc 6f cc f7 3c 23 86 be 3c
       0.07551838 -0.013815619 0.030248849 0.02325732
000190 2c 4e e0 bc 99 73 be bd b6 ba a6 bd f2 a7 34 bd
       -0.027381025 -0.09299392 -0.08141081 -0.044105478
0001a0 73 9d 36 bd 00 0d a5 bd 9e 52 cc bc 86 09 5f bd
       -0.04458375 -0.0805912 -0.024941739 -0.05445244
0001b0 07 c4 04 3d b0 a5 a0 bd 72 22 b3 bd 38 65 1b bd
       0.03241351 -0.078441024 -0.08746804 -0.037938327
0001c0 43 2b a3 bc 0f 8c ac bd 15 8d 8a bb 8e 4c e1 bc
       -0.01991809 -0.084251516 -0.004228244 -0.027502324
0001d0 ec 67 45 3d 1b e4 ac bc 62 e4 32 3d f3 56 81 bd
       0.04819481 -0.021104863 0.043674834 -0.06315412
0001e0 bb 67 90 3d 24 f8 8d 3d bb 1a 2c bd 03 1e ab bd
       0.07051035 0.06932095 -0.04201768 -0.08355334
0001f0 53 f8 3b 3d 27 5e 79 3c 8d 49 bf 3c 1a d9 b9 3c
       0.045891117 0.015220202 0.023350501 0.02268653
000200 97 b2 a8 bd 04 b0 30 3d ee 0b 2d bd f4 63 9e 3d
       -0.08237188 0.04313661 -0.042247705 0.07733908
000210 f7 f3 06 bd bb cd 0f bd 4a f7 54 3d 55 d0 09 3c
       -0.032947507 -0.03510831 0.051993646 0.008411487
000220 7e 4d a2 bd bd c3 69 bc a1 4c 01 be 52 81 ba bd
       -0.07924937 -0.014267859 -0.12626888 -0.09106697
000230 3e b5 25 bd 1e 49 5f bd 07 8f 7f bc 4b 8a 8d bd
       -0.04045605 -0.05451309 -0.015598065 -0.06911143
000240 20 04 92 3d 60 f0 d2 3c a4 5d 67 3d e9 20 09 3d
       0.07129693 0.025749385 0.056485787 0.03347865
000250 55 a8 a0 3c 4d d8 17 bc 84 6c 2d bc 41 3d 6d bd
       0.019611517 -0.009267879 -0.010584954 -0.057919744
000260 a9 55 6a bd 15 9d 65 3c ca 6a 68 3c c4 fd 80 3b
       -0.0572106 0.014014502 0.014185617 0.003936501
000270 ec 57 04 3d 74 62 db bc cd aa 40 3d 2d 9d 85 bd
       0.03231041 -0.026780345 0.04703789 -0.065241195
000280 b6 00 94 bd 9b c9 db bd 7f be 99 3c 19 31 69 3d
       -0.07226698 -0.107318126 0.018767593 0.05693159
000290 4e 03 3f bd cb e7 e2 bd bd c4 b6 bd c5 9b 72 3d
       -0.04663401 -0.11079367 -0.089242436 0.059230585
0002a0 4f 9c 01 3d 93 93 9a bc 9f 8d aa 3c 5d 6c 4c 3b
       0.031643208 -0.018869197 0.020819483 0.003119252
0002b0 6b b6 a2 bb df 58 0c bd 0f 6d 12 bd 52 41 95 bd
       -0.0049655936 -0.03426444 -0.035748538 -0.072878495
0002c0 3f f4 66 3d 04 31 b9 bd 5f 98 93 3d e0 cb 10 3c
       0.056385275 -0.09042552 0.07206797 0.00883767
0002d0 52 73 aa 3c 3d f0 1e bd 2a 06 13 bd 4d 6c 86 3d
       0.020806942 -0.038803328 -0.03589455 0.065636255
0002e0 cd af 05 be c6 45 66 bd 13 98 32 3c 43 d3 fc bc
       -0.13055344 -0.056218885 0.010900515 -0.030862456
0002f0 06 cf 26 bd c3 3d 8e bd 07 45 05 3d db e4 26 bd
       -0.040724777 -0.06945374 0.032536533 -0.040745597
000300 2a 68 27 bd 1a bb db bc 81 40 d0 bc c0 ac 60 bd
       -0.040870823 -0.026822615 -0.025421383 -0.054852247
000310 94 4c 00 bd 7e 42 29 bd 5e 28 9d 3b a3 13 81 3c
       -0.03132303 -0.041323178 0.004796072 0.015756434
000320 f8 5a ec bc 7d 05 08 3b ab ef 59 3d b2 0e 6e bd
       -0.028851971 0.0020755224 0.05320708 -0.058119483
000330 82 0b 4e bd ad 17 65 3c c6 ca 90 3d ec 83 71 3c
       -0.050303943 0.0139826955 0.07069926 0.014740925
000340 e6 a5 34 bd 00 03 22 bd f5 af 66 bd db 72 95 bd
       -0.044103526 -0.039553642 -0.05632015 -0.072972976
000350 60 1c a8 3d d4 b7 8b bd 70 0d 4c bd 96 6a a0 bd
       0.08208537 -0.06822172 -0.049817502 -0.0783283
000360 6a 0a 6f bd 4f d8 78 bd fe 91 a6 bd e9 78 93 3d
       -0.05835954 -0.060753163 -0.081333145 0.07200796
000370 27 86 87 bd 27 d2 52 bd 1d ed c4 3b 5a 57 97 bd
       -0.066173844 -0.05146995 0.0060097114 -0.07389708
000380 5d ce 29 bd 69 c4 1b bd 0f 2b c8 bc 63 e8 86 3b
       -0.04145657 -0.03802911 -0.024434594 0.004117058
000390 13 27 9c bb 9e ba 69 3d 6a cb ac bc 5a f5 bb 3b
       -0.0047654 0.057062738 -0.02109309 0.0057360353
0003a0 dc e1 5a bd 31 6c 53 bd aa 11 a4 bd a9 cd ac bd
       -0.053438053 -0.05161685 -0.08011182 -0.08437664
0003b0 a4 18 43 bd 41 d3 bc 3c 33 f0 04 bc 21 d8 99 bd
       -0.04763092 0.023049952 -0.008113909 -0.075119264
0003c0 b2 da 65 bb fe 08 b0 bd 4e ec 71 bc 04 c0 a7 3d
       -0.003507298 -0.08595465 -0.014765812 0.08190921
0003d0 4c 0f 24 3d 1d f0 81 bd fb f2 91 3d c4 7a 09 bd
       0.04005365 -0.06344626 0.07126423 -0.033564344
0003e0 cb 32 ac bd eb b9 5e 3d 36 1a 9d bd b3 80 09 bd
       -0.084081255 0.054376524 -0.07671015 -0.033570003
0003f0 2e c5 63 bd ef a2 0a ba 35 bf e3 bd 19 53 10 bc
       -0.055607967 -0.0005288561 -0.11120454 -0.0088088745

fc.2.bias f4 [64]
000000 f9 b0 ad bc b7 63 55 3d d2 a4 09 3d d6 20 36 3d
       -0.021202551 0.05209705 0.03360445 0.04446491
000010 5e 6b 2b 3d 8d 49 a0 bc f4 9c 05 3d 9c f6 b7 3d
       0.04185044 -0.019566322 0.032620385 0.08982584
000020 66 7e a8 3d 61 b3 7e 3d 6f 12 25 bd c9 3a a1 38
       0.082272336 0.062182788 -0.040300783 7.688028e-05
000030 57 0c c6 bc fe 45 d5 bb 21 ed e7 bc dd 71 ed 3d
       -0.024175806 -0.006508588 -0.028311314 0.11593983
000040 cf 96 1d 3e 84 a6 b6 bd 03 fa 82 3d 4f 13 ba 3d
       0.1538956 -0.08918479 0.06395342 0.09085714
000050 4d d1 9d bd 3d 5c 95 3c 88 c4 bd bd 22 75 d7 3c
       -0.077059366 0.01823246 -0.09266001 0.02630097
000060 31 d0 e1 3c 91 72 d0 3d 5c 2f 6f bd 84 6c 32 bd
       0.027565094 0.10178102 -0.058394775 -0.04356052
000070 bb 2b 83 3c 3d ea d8 3d f7 31 d3 bc b8 ee 74 bc
       0.016012063 0.105915524 -0.025780661 -0.014949493
000080 e6 0d f9 3d 79 da 88 3d 15 2f 60 3c 8c c0 60 3d
       0.12160854 0.06682295 0.0136831 0.054871127
000090 80 98 9b 3d e4 6b 65 bd ca 75 35 bd c3 41 86 bc
       0.075974464 -0.056011096 -0.044301786 -0.01638878
0000a0 b7 f7 1d 3e ef df e0 bc e4 8e 85 3a 36 3b e2 3d
       0.15426527 -0.02745053 0.001018968 0.1104645
0000b0 e8 b6 c5 bd d9 e7 4c bc d9 29 6c bc 79 1d 54 ba
       -0.09654027 -0.012506449 -0.014414274 -0.000809155
0000c0 ba 04 82 3c 2c 0c 39 bd 75 06 0c 3e 0c c5 52 bd
       0.015871394 -0.045177624 0.13674338 -0.05145745
0000d0 1b ed e6 3c d7 b2 23 bd c0 44 3e bd 42 93 85 3a
       0.028189233 -0.039965477 -0.046452284 0.0010190981
0000e0 67 da 0a 3c e8 2b d6 3d 54 a9 9e bd 31 8a 17 3e
       0.008474923 0.10457593 -0.077471405 0.1479881
0000f0 90 d5 16 3e 85 d9 8a bd b2 c6 79 bd 42 80 5e bd
       0.14729905 -0.0677977 -0.060980506 -0.054321535

fc.4.weight f4 [1, 64]
000000 15 29 e0 ba bb 56 9b 3b 89 dc e6 3c 15 9d 02 3c
       -0.0017102087 0.0047405637 0.028181331 0.007972022
000010 58 20 1c 3c a3 5a 08 3d 5b 1f d7 bd 12 c0 97 3d
       0.009529196 0.033289563 -0.105040275 0.074096814
000020 87 a7 1e 3d f0 02 c5 3d d4 cf a6 bc 70 ba e1 bd
       0.038733985 0.09619701 -0.020362772 -0.11021888
000030 d4 bd 88 bd 57 c8 a3 bd 2b 7f 75 bd c8 54 f1 3d
       -0.06676832 -0.07997196 -0.05993573 0.11783749
000040 23 7f 0d 3e 61 55 94 3c 0e 56 c2 3d e9 d8 4c 3d
       0.1381803 0.018107118 0.0948907 0.05001155
000050 df f5 8c bd d5 0a 89 3d 77 3e 9d 3d 72 e5 b3 bd
       -0.06882834 0.06691519 0.0767793 -0.087839976
000060 1c b3 d2 bd 26 00 f7 3d 27 00 29 3a 8a 4f d8 bd
       -0.10288069 0.12060575 0.0006446861 -0.10562046
000070 1b 76 b8 bd 88 20 60 3d f3 00 78 3d be e9 02 bd
       -0.09006902 0.054718524 0.06054778 -0.031961195
000080 fd e1 1f 3d bd 93 0e 3d ac f4 d5 bc 29 cd 8a 3d
       0.03903388 0.034808863 -0.026117645 0.067774124
000090 f9 59 3f 3d d2 78 9e bd ff 6a 8b 3d f9 c5 b8 bd
       0.046716664 -0.077378884 0.06807517 -0.09022135
0000a0 5a 19 10 3e ff 0a 99 3d 20 22 8a bd 5c aa 20 3d
       0.14072171 0.074728005 -0.0674479 0.039224967
0000b0 c0 4d 8b 3d 81 88 21 3c e6 b3 50 3d d9 5a fa bc
       0.06801939 0.009859205 0.050952815 -0.030560898
0000c0 d9 99 55 bb 8a 1c be bd 87 ba 10 3e dd 10 30 bd
       -0.003259292 -0.09282787 0.14133655 -0.042984832
0000d0 a3 73 da 3d 58 0f df bd 26 28 86 bd 61 3b e9 3b
       0.10666587 -0.108915985 -0.065506265 0.007117674
0000e0 b7 a1 da 3d b2 aa 91 3d c6 03 17 bd 34 5e bd 3d
       0.10675376 0.07112636 -0.036868833 0.092464834
0000f0 d4 3c e8 3d 65 a6 e6 3b 9e 2b 83 bd 37 b7 77 3d
       0.11339727 0.0070388787 -0.06404804 0.06047746

exp_avg f4 [16, 2, 3, 3]
000000 9f fe 26 37 91 8c 47 b6 38 2a 12 b6 5f 3e c4 36
       9.953655e-06 -2.9735131e-06 -2.178027e-06 5.848516e-06
000010 9a 4d 45 b6 34 8e 3b 37 c5 ac b5 36 37 bf 18 37
       -2.9400458e-06 1.1179178e-05 5.4143334e-06 9.104427e-06
000020 14 50 d4 b5 16 03 23 b6 be 7e 2d b6 7a d4 2c b6
       -1.5818537e-06 -2.429069e-06 -2.5852783e-06 -2.5753675e-06
000030 68 f7 67 b6 41 92 60 b6 b5 1d 5a b6 ee 7d a4 b6
       -3.4565692e-06 -3.3463732e-06 -3.2501823e-06 -4.902241e-06
000040 fc ac a2 b6 4e b7 a1 b6 3a 33 13 37 ae 0a ac 37
       -4.8481143e-06 -4.8195134e-06 8.77381e-06 2.0508971e-05
000050 0e 43 84 37 b3 2d 64 b5 68 32 9c 36 0b 9e 2f 37
       1.5766851e-05 -8.500312e-07 4.6550304e-06 1.046761e-05
000060 5f b2 c1 35 20 3e a4 34 b7 f1 c8 36 a6 42 1a b5
       1.4431533e-06 3.0592582e-07 5.988604e-06 -5.7466457e-07
000070 df ab 13 35 07 b7 19 36 5b c1 8f b5 be c0 9e 33
       5.501187e-07 2.2905313e-06 -1.0710604e-06 7.392508e-08
000080 b1 dd 00 36 e3 76 a5 b5 77 6c 62 b4 c7 5b dd 35
       1.9202528e-06 -1.2328059e-06 -2.108735e-07 1.6492494e-06
000090 13 ea a3 36 43 b5 8e b5 5d 2b 6b b6 ba ed 02 b7
       4.8850284e-06 -1.0632579e-06 -3.504297e-06 -7.803954e-06
0000a0 32 d0 be 36 40 2d 38 b6 b8 c2 ff 36 e0 15 db b6
       5.6866784e-06 -2.7444476e-06 7.6222605e-06 -6.529255e-06
0000b0 40 aa 9b b5 ed 39 d0 b5 ee 39 d0 b5 50 07 26 b5
       -1.1597949e-06 -1.5514066e-06 -1.5514067e-06 -6.185046e-07
0000c0 71 a6 1d b6 71 a6 1d b6 f1 39 db b5 fb ba 21 b6
       -2.3491705e-06 -2.3491705e-06 -1.6333635e-06 -2.4099706e-06
0000d0 fb ba 21 b6 a2 8a da b5 71 7f 85 b7 92 30 05 b6
       -2.4099706e-06 -1.6282613e-06 -1.591418e-05 -1.9846816e-06
0000e0 0c c5 c8 35 c4 68 a5 b6 7c ae 41 37 2b e7 e7 36
       1.4958509e-06 -4.9295795e-06 1.1544322e-05 6.911248e-06
0000f0 f3 54 85 b4 d1 98 08 36 48 d7 7e b5 a0 24 b4 b5
       -2.483499e-07 2.035453e-06 -9.493565e-07 -1.3421704e-06
000100 8b 40 ca b5 68 c7 c7 b5 5a b9 c6 b5 69 8f ec b5
       -1.5068957e-06 -1.488469e-06 -1.4806094e-06 -1.7625108e-06
000110 b2 90 d8 b5 d1 78 b9 b5 df 4e df b5 e9 fc da b5
       -1.6135366e-06 -1.3818736e-06 -1.6637749e-06 -1.6315872e-06
000120 8c b5 89 36 40 fe 76 36 32 93 88 36 03 38 eb b6
       4.104053e-06 3.680485e-06 4.0702516e-06 -7.0100664e-06
000130 4f 82 96 b5 18 03 07 b7 49 4b 0a b6 bf 1d 0a b7
       -1.1213796e-06 -8.047347e-06 -2.0607424e-06 -8.232367e-06
000140 10 7b 4d 36 36 c0 97 35 60 63 bc 35 57 16 cb 35
       3.0619012e-06 1.1306317e-06 1.4036013e-06 1.513118e-06
000150 02 bb 78 b3 2a aa ce 33 52 22 89 34 b1 19 34 b4
       -5.7912082e-08 9.623575e-08 2.554321e-07 -1.6773153e-07
000160 9a c0 e1 b4 83 b8 54 32 e4 ac f0 36 93 f8 73 37
       -4.2049652e-07 1.2381977e-08 7.1726845e-06 1.4541804e-05
000170 4b ee 19 36 0a 9f f3 37 1c 96 d1 36 d4 a5 5a b6
       2.2937481e-06 2.9041916e-05 6.2461604e-06 -3.2581056e-06
000180 0f aa c7 35 1d 4c 38 36 15 23 e5 36 46 b1 2d 36
       1.4876149e-06 2.746244e-06 6.828816e-06 2.5882196e-06
000190 7e 19 1d 36 8c 6f 26 36 9a 32 83 36 27 e0 64 36
       2.3409661e-06 2.4800856e-06 3.909995e-06 3.4105121e-06
0001a0 8f 7b 71 36 da f1 99 36 82 b3 81 36 4f ef 8b 36
       3.598372e-06 4.5879106e-06 3.865397e-06 4.170382e-06
0001b0 af 48 67 b7 d3 f3 14 36 fb 7a b7 36 ca 84 cb 36
       -1.3785596e-05 2.2195643e-06 5.468142e-06 6.06533e-06
0001c0 5c fd 7d 35 30 85 fa 37 32 6a a3 35 28 d8 7b 35
       9.461853e-07 2.9864343e-05 1.2175353e-06 9.3819335e-07
0001d0 1b f9 02 36 cd 8f 22 b4 31 3f 2b b5 77 ea 13 34
       1.9516508e-06 -1.513974e-07 -6.379442e-07 1.377574e-07
0001e0 75 ee ad 34 11 1d 9e b4 e0 9f 3f 35 83 f7 63 b4
       3.239726e-07 -2.9450942e-07 7.1385693e-07 -2.1231067e-07
0001f0 56 ec 60 b5 c1 28 14 b5 bd bf 7c 37 8a db fb b6
       -8.3790417e-07 -5.51936e-07 1.5065013e-05 -7.5059406e-06
000200 91 51 4c 37 10 5f 1a b7 fa 14 e2 36 79 f2 0c 36
       1.2178339e-05 -9.201249e-06 6.737767e-06 2.1002763e-06
000210 52 81 e4 b6 30 e6 37 35 a7 c5 c2 34 22 f4 a9 35
       -6.8099844e-06 6.850778e-07 3.6279127e-07 1.2662533e-06
000220 df 56 b7 34 0b 4d b8 34 8f 7d 99 35 a4 c0 71 34
       3.4149613e-07 3.4328727e-07 1.1435931e-06 2.2514956e-07
000230 1b 70 5a 34 57 94 da 35 1a a3 3e 35 9f 0b 12 35
       2.0343616e-07 1.6285438e-06 7.101786e-07 5.440615e-07
000240 3a 2b 91 37 01 2d e3 37 f0 eb 8b 36 b9 31 86 37
       1.7305476e-05 2.7081465e-05 4.1699896e-06 1.5997199e-05
000250 93 32 42 37 e9 f5 d5 b6 81 16 8f b5 01 b1 cb b6
       1.1575076e-05 -6.3765224e-06 -1.066088e-06 -6.0704774e-06
000260 ce 10 37 37 96 a7 5d 36 cc 52 5a 36 5f cf e4 b4
       1.0911563e-05 3.3029114e-06 3.2532726e-06 -4.2619192e-07
000270 74 aa 5c 36 2c f0 51 36 36 64 29 b5 06 57 e8 35
       3.2881771e-06 3.1283225e-06 -6.310323e-07 1.7310674e-06
000280 03 c4 d4 35 01 0d 89 b5 1d df 73 35 47 a2 76 36
       1.5852278e-06 -1.021108e-06 9.0849227e-07 3.6751314e-06
000290 26 c6 1b b7 5f e2 8d 36 81 9b a2 b5 54 19 1e b7
       -9.284855e-06 4.2284805e-06 -1.2115198e-06 -9.423431e-06
0002a0 e5 c0 ad 37 07 3f d0 b5 6f e8 93 37 ab 21 d5 35
       2.071303e-05 -1.5515551e-06 1.7632e-05 1.5879535e-06
0002b0 70 ca 3d 36 b1 39 20 36 04 94 be 35 c9 83 32 36
       2.8281029e-06 2.3875439e-06 1.4199181e-06 2.6600776e-06
0002c0 1c 74 fe 35 08 ee c9 35 d0 e5 1e 36 8b 93 cd 35
       1.8958267e-06 1.5044943e-06 2.3677603e-06 1.5316631e-06
0002d0 1f a6 ba b6 cb 05 ba b7 7e c4 99 b7 75 a0 37 b8
       -5.562571e-06 -2.2175625e-05 -1.833052e-05 -4.3780037e-05
0002e0 1c d7 64 b7 39 dc 2d b7 bf e2 10 b7 b7 86 3a b7
       -1.3639943e-05 -1.0362878e-05 -8.635862e-06 -1.111783e-05
0002f0 b9 43 20 b7 bb 3c 99 b6 a0 ed 7b b6 3a f8 22 b6
       -9.552511e-06 -4.5668253e-06 -3.754023e-06 -2.4284368e-06
000300 9c f8 8a b6 1e 81 63 b6 b3 e5 12 b6 39 a7 6f b5
       -4.1416624e-06 -3.3900792e-06 -2.1889398e-06 -8.927778e-07
000310 c3 5a fd b4 2f cb a3 34 5e 8b a2 34 71 21 70 36
       -4.719096e-07 3.0508951e-07 3.0276254e-07 3.5782252e-06
000320 58 06 10 b6 18 8f 01 37 0b 75 b3 36 44 b8 b4 b5
       -2.1461365e-06 7.722316e-06 5.3482413e-06 -1.3464673e-06
000330 24 44 fa 35 12 81 a7 35 6b a5 1c 36 f0 22 18 36
       1.8646283e-06 1.2480034e-06 2.3342097e-06 2.2670101e-06
000340 f0 22 18 36 18 8b 22 36 66 ce 6e 35 6d ce 6e 35
       2.2670101e-06 2.4220844e-06 8.896226e-07 8.89623e-07
000350 1a 4c b5 35 be d3 1f 35 bc d3 1f 35 51 06 7f 35
       1.3507699e-06 5.954024e-07 5.954023e-07 9.5004094e-07
000360 f0 c8 33 36 1b 9a 00 37 f4 fc 25 36 92 69 f7 36
       2.679004e-06 7.665275e-06 2.4734154e-06 7.3734636e-06
000370 d5 b0 e3 35 b4 41 59 b6 b5 b9 fd 33 7b 6c a9 36
       1.6964283e-06 -3.2373764e-06 1.18150105e-07 5.0492213e-06
000380 f0 5d ca b4 1a da 06 b5 2a b7 fe b4 98 30 36 b5
       -3.769378e-07 -5.023627e-07 -4.7444456e-07 -6.7870997e-07
000390 f4 6d 5f b4 d7 90 18 b4 86 45 ee b4 af 6d 91 34
       -2.0808494e-07 -1.4208796e-07 -4.438154e-07 2.708816e-07
0003a0 46 5e 5d 34 17 96 00 33 96 46 8f 36 24 4a 2e b5
       2.0616525e-07 2.993883e-08 4.2699494e-06 -6.492794e-07
0003b0 ac 32 3c b6 eb 04 04 36 46 20 71 b7 e0 a6 9c b6
       -2.8043678e-06 1.9672395e-06 -1.4372234e-05 -4.668589e-06
0003c0 d1 07 0d b7 d8 be 53 36 f4 ae 2f 36 6a bc cf 35
       -8.406075e-06 3.1552536e-06 2.6178868e-06 1.5477538e-06
0003d0 46 64 83 35 8a 3a d6 34 e3 a0 6c 34 1a 79 ff b4
       9.789444e-07 3.99032e-07 2.2037743e-07 -4.7585564e-07
0003e0 75 4b 12 b4 1a b2 d1 34 28 9a 3e b5 6f 77 02 b5
       -1.362476e-07 3.905887e-07 -7.100484e-07 -4.860257e-07
0003f0 1e 84 ea b6 a2 02 e8 b5 60 2b 8d b7 b0 19 a0 b7
       -6.989124e-06 -1.7286113e-06 -1.6828708e-05 -1.9085448e-05
