output/blue/images/epoch_27.pt (torch, 369546 bytes, 27 tensors)

conv.0.weight f4 [16, 2, 3, 3]
-0.20866276 -0.27499616 -0.12346808 -0.14381298 0.14560206 0.11996267 -0.22697827 0.06596489
0.12269003 0.027196392 -0.040740035 0.08916091 -0.17807055 -0.21156046 0.1771882 -0.17782645
0.0051327613 0.12673102 0.16895293 0.10303966 0.1922453 -0.13966869 -0.06049657 -0.1286181
-0.19609107 0.043448713 -0.08795389 0.19451529 -0.086571574 -0.26429957 -0.078197345 -0.18080093
-0.09770828 0.1669878 0.016138637 0.1566693 -0.096229084 -0.20776972 -0.0613597 0.12332247
-0.048564732 -0.12026994 0.08122506 -0.037703503 -0.16548082 -0.110386506 -0.19731306 0.07816947
0.03199907 0.098533496 -0.09210657 0.088188805 -0.010854915 0.016187102 0.12267118 -0.053725116
-0.22423826 -0.19825795 0.19862735 -0.03355842 -0.24407706 -0.1495855 -0.13076037 -0.23477997
-0.23148878 0.13840368 -0.08213779 -0.19524953 -0.06533058 0.20489499 0.07395716 -0.17876136
-0.1456563 0.10484492 -0.025936728 0.035592057 -0.00944375 0.09071681 0.12812088 -0.17422655
-0.23911999 0.15086971 -0.15601167 0.012481854 -0.25615707 0.081228726 -0.22905557 0.04113299
-0.15043508 0.14641802 -0.15038408 -0.08196165 -0.2035171 0.113462515 0.04980982 0.17733888
-0.045754425 -0.23830798 -0.19726928 0.017290305 0.18248272 -0.21277303 -0.08790298 -0.09145239
0.07890025 0.20941854 -0.219739 -0.013608632 0.101333365 0.022440726 -0.07018668 -0.1862567
0.16195416 0.13690397 -0.25861385 0.005375736 -0.27066854 -0.12702654 0.06445449 0.08754443
0.20120564 -0.21887541 -0.16981491 0.16394368 -0.23137069 -0.09973483 -0.011414795 0.040431883
0.08945596 0.07123837 -0.056413993 -0.11997144 -0.1629483 0.05555982 0.04686579 -0.02133301
0.213691 0.15031295 -0.081504256 -0.2181954 -0.0069581172 -0.21867552 -0.2181779 0.09716358
0.033691145 0.13531087 -0.17091493 0.053289518 0.00076386856 -0.19183803 -0.12868322 0.14210515
-0.050483048 0.14796872 -0.17598456 -0.049359106 0.08867049 -0.13077167 -0.17007013 0.00019655879
0.119610064 -0.23455186 -0.24140479 -0.06277253 0.028334457 0.14327945 -0.087387 -0.089060254
0.08095213 -0.13054352 -0.056857232 -0.07068801 0.035685856 0.19866446 0.004272249 0.11196289
0.16953489 0.18300447 -0.0095869675 0.115311615 0.04162056 0.093717285 -0.11283683 0.18279606
-0.036200896 -0.09553316 -0.106535286 0.011431487 0.06573248 -0.08478531 0.12171379 0.08873218
-0.0019026325 -0.2258655 0.14473462 -0.23827524 -0.15269001 -0.093409985 -0.12763184 -0.0847362
-0.1495632 0.120706744 0.009339519 -0.16787209 -0.14284946 -0.21294606 -0.06509965 0.05266451
-0.025628284 -0.18496093 0.19539088 -0.18103807 0.08284441 -0.04824631 -0.21876729 0.0278281
-0.097655825 0.15836789 0.16033404 -0.14691623 0.12912092 -0.22144467 0.008423906 -0.11958084
0.026970863 -0.1918965 -0.08436081 0.02696475 -0.14534359 -0.0065642297 -0.15583298 0.09532938
0.055264805 0.008050196 -0.071765356 -0.20236042 -0.15703861 -0.22274719 -0.08133658 0.20124677
0.032416753 -0.13172573 -0.17119119 -0.11491361 -0.25379008 0.060054086 0.111473665 0.1905105
-0.19365922 0.04260985 0.013458042 0.14601408 0.03145236 0.03788485 0.15120699 0.1311762
00000000: b1ab 55be 4ccc 8cbe d5dc fcbd b643 13be
00000010: b518 153e fdae f53d fe6c 68be 9a18 873d
00000020: e944 fb3d f8ca de3c 06df 26bd ff99 b63d
00000030: 2058 36be 4ea3 58be d370 353e 2318 36be
00000040: b930 a83b c7c5 013e ff01 2d3e 7506 d33d
00000050: f4db 443e 4f05 0fbe 40cb 77bd 77b4 03be
00000060: 19cc 48be 47f7 313d 2b21 b4bd 042f 473e
00000070: 704c b1bd 4652 87be ee25 a0bd e123 39be
00000080: 471b c8bd dafe 2a3e 2d35 843c eb6d 203e
00000090: c113 c5bd 96c1 54be 4f54 7bbd 7e90 fc3d
000000a0: d0eb 46bd 1650 f6bd 5359 a63d fd6e 1abd
000000b0: ce73 29be 5212 e2bd 6f0c 4abe 5117 a03d
000000c0: 7511 033d eecb c93d 5fa2 bcbd 559c b43d
000000d0: d0d8 31bc d09a 843c 073b fb3d de0e 5cbd
000000e0: b79e 65be 2204 4bbe f864 4b3e 8e74 09bd
000000f0: 56ef 79be f12c 19be 0ce6 05be 296a 70be
00000100: 650b 6dbe b2b9 0d3e dc37 a8bd 7eef 47be
00000110: 0acc 85bd fecf 513e da76 973d 380d 37be
00000120: ed26 15be efb8 d63d 4379 d4bc fac8 113d
00000130: f5b9 1abc bcc9 b93d 1f32 033e 7268 32be
00000140: dfdb 74be 977d 1a3e 86c1 1fbe b180 4c3c
00000150: 0527 83be 3f5b a63d 8b8d 6abe 117b 283d
00000160: a70b 1abe 9bee 153e 49fe 19be 82db a7bd
00000170: c966 50be 095f e83d 6205 4c3d 5398 353e
00000180: fe68 3bbd 0207 74be f500 4abe 66a4 8d3c
00000190: c0dc 3a3e 2ce1 59be 7a06 b4bd 644b bbbd
000001a0: 7496 a13d d071 563e 4303 61be bdf6 5ebc
000001b0: de87 cf3d 9dd5 b73c 09be 8fbd 14ba 3ebe
000001c0: 50d7 253e 8e30 0c3e 0969 84be f126 b03b
000001d0: 1195 8abe 3f13 02be b700 843d 7e4a b33d
000001e0: da08 4e3e e020 60be f6e3 2dbe dae0 273e
000001f0: 70ec 6cbe c641 ccbd 1f05 3bbc e79b 253d
00000200: b034 b73d 6ce5 913d 5c12 67bd 96b3 f5bd
00000210: ebdb 26be b292 633d 58f6 3f3d 91c2 aebc
00000220: d0d1 5a3e a3eb 193e b4eb a6bd 9d6e 5fbe
00000230: eb00 e4bb 7aec 5fbe 076a 5fbe b3fd c63d
00000240: baff 093d ef8e 0a3e 5304 2fbe 1c46 5a3d
00000250: 5a3e 483a 3071 44be 89c5 03be 0384 113e
00000260: 50c7 4ebd 1d85 173e 4c35 34be c62c 4abd
00000270: e098 b53d 02e9 05be dd26 2ebe 591b 4e39
00000280: 1ff6 f43d 5d2e 70be d132 77be e28e 80bd
00000290: aa1d e83c d9b7 123e f5f7 b2bd 3965 b6bd
000002a0: 3bca a53d 33ad 05be 21e3 68bd e0c4 90bd
000002b0: 552b 123d b26e 4b3e 39fe 8b3b cd4c e53d
000002c0: 8e9a 2d3e 8665 3b3e a812 1dbc 7f28 ec3d
000002d0: 527a 2a3d d9ee bf3d ff16 e7bd e42e 3b3e
000002e0: 6447 14bd e4a6 c3bd 2c2f dabd 224b 3b3c
000002f0: c09e 863d eca3 adbd 1445 f93d 38b9 b53d
00000300: c161 f9ba 4949 67be 5035 143e 6dfe 73be
00000310: c55a 1cbe bc4d bfbd ecb1 02be 2c8a adbd
00000320: 1827 19be 1935 f73d c804 193c a9e6 2bbe
00000330: 2147 12be 880e 5abe f752 85bd beb6 573d
00000340: 68f2 d1bc 6666 3dbe 8c14 483e 0b62 39be
00000350: 54aa a93d ec9d 45bd 8804 60be c1f7 e33c
00000360: c7ff c7bd 312b 223e 9b2e 243e 3571 16be
00000370: 4638 043e 64c2 62be 6c04 0a3c cde6 f4bd
00000380: 00f2 dc3c 8480 44be 5cc5 acbd 2ee5 dc3c
00000390: f3d4 14be c018 d7bb ae92 1fbe 0d3c c33d
000003a0: 595d 623d f8e4 033c b7f9 92bd 9237 4fbe
000003b0: bbce 20be d717 64be cb93 a6bd a213 4e3e
000003c0: 6ec7 043d 1ce3 06be be4c 2fbe d457 ebbd
000003d0: c6f0 81be 46fb 753d 4e4c e43d 2f15 433e
000003e0: 9a4e 46be ab87 2e3d 1f7f 5c3c b784 153e
000003f0: 31d4 003d 252d 1b3d 01d6 1a3e 0e53 063e

conv.0.bias f4 [16]
0.11680431 0.20595513 -0.17537649 -0.16599907 -0.05007916 0.16029423 0.0953655 0.07578439
0.12445066 -0.129449 0.120758526 -0.035313617 -0.017888615 0.12871237 -0.13205549 0.19735521
00000000: 1937 ef3d e7e5 523e e595 33be a9fb 29be
00000010: ce1f 4dbd 2c24 243e fd4e c33d d934 9b3d
00000020: fddf fe3d 478e 04be 3f50 f73d 03a5 10bd
00000030: 258b 92bc 2dcd 033e 8e39 07be 7c17 4a3e

conv.3.weight f4 [32, 16, 3, 3]
-0.022576094 -0.036191355 -0.002434245 0.011747869 -0.07030621 -0.049520604 -0.00026597886 -0.030762983
0.072338775 0.038214285 0.013077062 -0.09143367 0.013669503 -0.082484595 -0.07814246 0.01135676
-0.012035422 0.016810382 -0.02609146 0.046103615 -0.046849743 0.034119893 0.06154932 -0.0017464928
-0.057876866 0.032471914 -0.016179556 -0.08311414 -0.07777406 -0.09163507 0.06725419 0.008926192
0.05902773 0.039630655 -0.020855378 0.02223475 -0.07584092 0.010664838 0.04032824 -0.07957774
0.05574591 0.030382685 -0.06266939 0.014391841 0.028305428 0.059339993 0.0096582 -0.03272216
-0.089867525 -0.045685276 0.021362834 0.031825308 -0.07893553 0.053681355 -0.021121234 -0.09059652
0.032910198 -0.058302663 0.030728359 -0.021025807 -0.079004526 0.050117794 -0.016020082 0.036031254
0.0022019516 0.06941159 -0.004439571 0.020060912 -0.076370776 -0.011104505 -0.011943712 0.060355447
-0.060147975 0.017829522 -0.06297743 -0.0033761393 0.030605316 0.0644932 -0.08473046 -0.092198186
0.030479005 -0.04424973 -0.02270303 -0.048587617 0.00066740933 -0.012338186 0.05079201 0.007474122
-0.08580234 0.027042994 -0.03141144 -0.066669926 0.04753806 -0.07947336 -0.055158276 -0.09057078
0.026416142 -0.07846306 -0.017322298 -0.06521533 -0.02439503 -0.0884248 -0.060443547 -0.056038998
-0.00010855914 -0.09543064 0.027446093 -0.009606792 0.062004227 0.037500035 -0.07919744 0.06532042
-0.06340116 -0.07103949 -0.05817091 0.027354045 0.0010958158 0.0071515045 -0.08832357 0.04459828
0.038275436 0.022855913 -0.055342115 0.0090163555 -0.056210138 0.043125834 0.002048869 -0.028404254
-0.024247216 -0.01981744 0.032814357 0.020590618 0.019986873 -0.09724905 0.045360625 -0.075523324
0.0017621933 0.047074966 0.01821325 -0.020310408 -0.018951518 -0.08475416 -0.02924942 -0.08451637
0.046758596 -0.06788433 -0.00058707694 -0.03428318 0.05953613 -0.027215406 -0.058852755 -0.027781975
0.0037522332 -0.013208709 0.054647025 -0.030210938 -0.083802216 0.01715739 -0.06616608 -0.046981312
-0.023966998 -0.06272795 0.00095049746 -0.0941462 0.0360269 -0.055861473 -0.004394427 0.013481678
-0.06519743 -0.08783757 -0.021468464 -0.09852157 0.014593422 -0.069702834 -0.07258472 -0.03808924
-0.029099988 -0.04275449 -0.05276274 -0.0075973724 0.013059952 0.049954243 0.06855289 -0.08435654
-0.0014088727 0.0020183162 0.022455009 0.037418034 0.005786651 -0.03948776 -0.064359665 -0.05349628
0.052778646 0.037835993 -0.066292256 -0.04557426 0.02760971 0.03153404 -0.0014166969 0.06739176
-0.032514516 -0.072832584 -0.07340889 -0.052152332 -0.0009639768 -0.012992326 -0.043441754 -0.018577013
0.03517619 -0.06009011 -0.07058796 -0.060455587 -0.076638326 -0.008193334 -0.06763547 -0.07686861
-0.05405523 0.0698414 0.06368159 -0.04698144 -0.029640835 0.0005892024 -0.057370435 -0.14087163
0.07597798 -0.04386908 0.06440674 0.019444833 -0.0074174902 -0.064276285 -0.0063585853 0.0122229215
0.019904092 -0.05403141 0.06843151 -0.08094816 0.051770553 0.011110999 -0.006403313 0.002227513
-0.10582568 -0.08558884 -0.08162096 0.019415557 0.041082438 0.07437006 0.034822825 -0.0601294
0.09960104 0.014098191 0.047263 -0.09014379 0.062412903 -0.07077569 -0.02529485 -0.08502057
00000000: 80f1 b8bc 633d 14bd db87 1fbb 227a 403c
00000010: b4fc 8fbd 1ed6 4abd 1473 8bb9 a702 fcbc
00000020: 5a26 943d 9586 1c3d 2c41 563c 9341 bbbd
00000030: 0df6 5f3c afed a8bd 2709 a0bd b411 3a3c
00000040: 3830 45bc edb5 893c c2bd d5bc 25d7 3c3d
00000050: 84e5 3fbd 4dc1 0b3d 241b 7c3d 93ea e4ba
00000060: 4b10 6dbd 4501 053d fd8a 84bc bf37 aabd
00000070: 0248 9fbd 2bab bbbd 91bc 893d 2a3f 123c
00000080: 10c7 713d c153 223d e6d8 aabc a725 b63c
00000090: 7c52 9bbd 93bb 2e3c 392f 253d a7f9 a2bd
000000a0: d355 643d 1ce5 f83c cf58 80bd c2cb 6b3c
000000b0: c9e0 e73c 7e0e 733d 6d3d 1e3c ac07 06bd
000000c0: 770c b8bd 7c20 3bbd 1c01 af3c 415b 023d
000000d0: f3a8 a1bd fbe0 5b3d 7006 adbc ab8a b9bd
000000e0: d8cc 063d c6ce 6ebd 0aba fb3c 503e acbc
000000f0: 20cd a1bd 5148 4d3d 8c3c 83bc 8295 133d
00000100: 9e4e 103b aa27 8e3d d279 91bb c856 a43c
00000110: 4868 9cbd abef 35bc 8faf 43bc 4637 773d
00000120: b95d 76bd 380f 923c 50fa 80bd 3842 5dbb
00000130: 00b8 fa3c 0315 843d 2a87 adbd 67d2 bcbd
00000140: 1baf f93c 343f 35bd b4fb b9bc cf03 47bd
00000150: 15f5 2e3a 1a26 4abc 480b 503d 7be9 f43b
00000160: 23b9 afbd 4589 dd3c 48a9 00bd 3e8a 88bd
00000170: 45b7 423d eec2 a2bd a5ed 61bd 2c7d b9bd
00000180: aa66 d83c 3eb1 a0bd 7ee7 8dbc 9d8f 85bd
00000190: 16d8 c7bc 1018 b5bd a793 77bd 2689 65bd
000001a0: 3faa e3b8 2471 c3bd a1d6 e03c ce65 1dbc
000001b0: 25f8 7d3d a399 193d 4432 a2bd b6c6 853d
000001c0: 78d8 81bd 277d 91bd 9f44 6ebd 9715 e03c
000001d0: 7aa1 8f3a 2b57 ea3b fde2 b4bd b0ac 363d
000001e0: b4c6 1c3d 533c bb3c 6aae 62bd 56b9 133c
000001f0: 9a3c 66bd b7a4 303d 5146 063b 0ab0 e8bc
00000200: 19a2 c6bc 2f58 a2bc 5968 063d a8ad a83c
00000210: 83bb a33c 832a c7bd 10cc 393d f9ab 9abd
00000220: 65f9 e63a aed1 403d f433 953c 0362 a6bc
00000230: 3740 9bbc 9793 adbd 7b9c efbc eb16 adbd
00000240: f185 3f3d f106 8bbd 11e6 19ba 856c 0cbd
00000250: 28dc 733d d8f2 debc 960f 71bd 0697 e3bc
00000260: 07e8 753b 5769 58bc 8fd5 5f3d ee7c f7bc
00000270: 7fa0 abbd a88d 8c3c 1582 87bd 7a6f 40bd
00000280: 7056 c4bc 8377 80bd ce2a 793a b9cf c0bd
00000290: f190 133d 00cf 64bd 20ff 8fbb 42e2 5c3c
000002a0: 3b86 85bd 2fe4 b3bd a2de afbc adc5 c9bd
000002b0: 4019 6f3c 5cc0 8ebd 4ca7 94bd 7703 1cbd
000002c0: 1963 eebc 551f 2fbd be1d 58bd 61f3 f8bb
000002d0: 69f9 553c d29c 4c3d 7565 8c3d 1fc3 acbd
000002e0: eca9 b8ba ba45 043b 91f3 b73c a743 193d
000002f0: f29d bd3b ebbd 21bd 00cf 83bd ea1e 5bbd
00000300: 6c2e 583d eaf9 1a3d 3cc4 87bd 13ac 3abd
00000310: c22d e23c d629 013d 76b0 b9ba b104 8a3d
00000320: f12d 05bd 4029 95bd 6657 96bd af9d 55bd
00000330: 63b3 7cba c4dd 54bc fbef 31bd d22e 98bc
00000340: e914 103d 0c21 76bd 6c90 90bd 47a0 77bd
00000350: 8ef4 9cbd 553d 06bc 7784 8abd 4a6d 9dbd
00000360: 0469 5dbd 0209 8f3d 7e6b 823d 9c6f 40bd
00000370: 56d1 f2bc b474 1a3a 43fd 6abd a740 10be
00000380: 589a 9b3d 10b0 33bd aee7 833d c54a 9f3c
00000390: 6b0e f3bb 49a3 83bd ae5b d0bb a642 483c
000003a0: e80d a33c 0a50 5dbd d225 8c3d 26c8 a5bd
000003b0: 5c0d 543d e80a 363c e2d2 d1bb 77fb 113b
000003c0: 22bb d8bd 3449 afbd e428 a7bd 600d 9f3c
000003d0: 0f46 283d 544f 983d 61a2 0e3d 3f4a 76bd
000003e0: a1fb cb3d 19fc 663c d996 413d 4f9d b8bd
000003f0: aca4 7f3d d8f2 90bd 2537 cfbc 441f aebd

conv.3.bias f4 [32]
-0.015303157 0.10323592 0.04878722 0.06579572 -0.009423593 0.009732645 -0.022326548 0.0126915295
-0.03995665 -0.056199435 -0.0074929544 -0.046105087 0.0061402763 0.07032073 0.010132702 0.030236812
-0.024505325 0.0103723565 0.005468721 -0.003843635 -0.024804404 0.053175915 0.022767771 -0.009773249
0.014302481 0.054697763 -0.05359311 -0.046408776 0.056155097 -0.06886918 -0.06862493 0.009073411
00000000: 18ba 7abc 5b6d d33d 1cd5 473d e8bf 863d
00000010: 6a65 1abc ac75 1f3c 2ae6 b6bc 22f0 4f3c
00000020: 96a9 23bd 6131 66bd 7587 f5bb b0d8 3cbd
00000030: 5f34 c93b 5104 903d a203 263c 31b3 f73c
00000040: 64bf c8bc d1f0 293c f532 b33b 7fe5 7bbb
00000050: 9b32 cbbc fdce 593d 7a83 ba3c fa1f 20bc
00000060: f454 6a3c c30a 603d 7384 5bbd 2117 3ebd
00000070: e302 663d 490b 8dbd 3a8b 8cbd a5a8 143c

fc.0.weight f4 [128, 128]
-0.06317026 0.051907744 0.060205754 -0.006471661 -0.002684891 -0.051546805 0.016178278 -0.057279352
-0.0074969274 -0.0073517514 -0.08278161 0.027836787 -0.0770469 -0.0039306176 -0.020692041 0.009174333
0.06423884 0.06802369 0.03033459 -0.08539789 0.061994616 -0.019584112 -0.045202572 0.033509396
0.027793933 -0.055894863 -0.056475956 0.038615108 0.03236497 0.022272155 0.07480922 0.07937242
0.026398866 0.015887117 -0.039288457 0.0058140857 -0.06478736 -0.08408781 -0.0025503582 -0.06822854
-0.05770757 -0.06715782 -0.033990443 -0.08829458 0.051877525 -0.08140055 0.046200126 0.02617801
-0.068934314 0.059192393 -0.08699163 0.07005538 -0.010410136 -0.053222053 0.023464303 0.0048125195
-0.028926954 -0.016870948 0.076176904 0.020765426 -0.015222797 -0.058243148 -0.021647163 -0.0393124
0.0024495781 -0.035247747 -0.079741955 0.0347589 0.06925956 -0.026925905 0.046908528 0.05556957
0.075908765 -0.0242301 -0.040268138 0.08788322 0.019922432 0.062596425 0.044400867 -0.060913082
0.056702755 -0.0113287065 -0.05862461 -0.06659102 0.058977537 0.08426421 -0.06691335 0.08018101
0.031186515 -0.08119365 -0.043560468 -0.021128189 -0.0368776 0.00861832 0.0066114888 0.018743636
0.07743169 0.03546843 0.0011891711 0.012326405 -0.036846157 -0.029806491 -0.0042581735 -0.016192451
-0.022865359 0.030747354 0.068031974 -0.06802605 0.05533796 -0.00058118755 -0.063759126 0.026523657
0.022079084 -0.005918741 0.0554237 0.05283981 0.058900215 0.09128367 0.018032292 -0.026185773
0.07110806 0.06266687 0.07446889 0.05095871 0.012430832 0.061502293 -0.016313486 -0.045363043
-0.02254261 -0.0034610275 0.07169303 0.044912435 0.018011216 0.040537518 0.022380153 0.039944895
-0.074658625 -0.036714893 -0.034447953 -0.059140485 -0.076065466 0.06380838 0.004335864 -0.060675588
0.05909355 -0.02082346 -0.087202504 -0.038592532 -0.006251302 0.013723419 0.052571382 -0.064823404
0.03126187 -0.014610981 0.028654255 -0.0505183 -0.046504904 -0.065336406 0.024394017 0.0778238
0.048724107 0.013866025 -0.042503327 -0.011669034 -0.0651689 0.07391987 0.025961883 -0.049568165
-0.02227556 0.03576239 -0.029741686 0.031428985 -0.027000614 -0.014525746 0.0029773237 0.0045931367
0.08207967 -0.07326787 0.014872359 0.081044436 -0.053767342 -0.001963936 -0.038354244 -0.006104044
0.016767018 -0.06477413 0.07381519 -0.029321795 0.03334773 0.017840212 0.029699193 0.00923696
0.061598532 -0.03181202 -0.06804236 -0.06973701 0.08105772 -0.061977103 -0.01481479 -0.004020307
0.048128583 -0.05164204 -0.0059840675 0.010639805 0.06119287 -0.061908178 0.038183115 0.09155128
-0.013922392 -0.055957675 -0.04631825 0.051973622 -0.039019216 0.043311723 0.06823614 -0.009426322
-0.06862187 -0.06495367 0.04288024 0.0400612 0.08227915 -0.01852864 0.06693037 -0.065695934
0.062627755 -0.030217651 0.04745563 0.06318391 -0.012233732 -0.008820786 -0.022904187 0.039448116
0.07491355 0.030661091 -0.024006862 -0.0675972 0.03945744 -0.07208465 0.054377563 -0.044201218
0.03695518 -0.03071676 0.034762323 0.072436765 0.042690415 0.080367275 0.0046728463 0.0057017608
-0.020647172 -0.058447443 -0.04368113 -0.019732805 -0.05956116 0.014420673 0.054805588 -0.0007968677
00000000: 695f 81bd 379d 543d 4f9a 763d 3a10 d4bb
00000010: fff4 2fbb be22 53bd 4f88 843c c19d 6abd
00000020: c9a8 f5bb f6e6 f0bb 6889 a9bd f909 e43c
00000030: c4ca 9dbd 69cc 80bb 5b82 a9bc f14f 163c
00000040: a78f 833d 0150 8b3d 3f80 f83c 17e5 aebd
00000050: 11ee 7d3d dc6e a0bc 5526 39bd 2641 093d
00000060: 1ab0 e33c 03f2 64bd 5553 67bd e02a 1e3d
00000070: 2191 043d 1874 b63c 9435 993d 028e a23d
00000080: 6f42 d83c b325 823c efec 20bd 1684 be3b
00000090: 3caf 84bd 3b36 acbd e923 27bb 68bb 8bbd
000000a0: c65e 6cbd 0a8a 89bd 9039 0bbd cad3 b4bd
000000b0: 877d 543d 55b5 a6bd 583c 3d3d 4473 d63c
000000c0: 6f2d 8dbd b973 723d ab28 b2bd 3279 8f3d
000000d0: 468f 2abc 5eff 59bd 3638 c03c 57b2 9d3b
000000e0: 38f8 ecbc f134 8abc a302 9c3d 411c aa3c
000000f0: 0a69 79bc 5e90 6ebd 6455 b1bc 0a06 21bd
00000100: 1a89 203b f15f 10bd c04f a3bd 595f 0e3d
00000110: f5d7 8d3d b793 dcbc 2823 403d eb9c 633d
00000120: 0e76 9b3d 347e c6bc 34f0 24bd 1efc b33d
00000130: 5e34 a33c 8e32 803d afdd 353d ff7f 79bd
00000140: 2641 683d 0a9c 39bc 5c20 70bd df60 88bd
00000150: 6e92 713d b792 ac3d de09 89bd f135 a43d
00000160: dd7a ff3c db48 a6bd 766c 32bd 0615 adbc
00000170: f70c 17bd db33 0d3c 30a5 d83b 418c 993c
00000180: 8294 9e3d 5847 113d f6dd 9b3a b1f4 493c
00000190: ffeb 16bd be2c f4bc 2688 8bbb 08a6 84bc
000001a0: 2250 bbbc e0e1 fb3c 5954 8b3d 3e51 8bbd
000001b0: 0faa 623d d65a 18ba 2594 82bd 2448 d93c
000001c0: 32df b43c 00f2 c1bb f603 633d 8e6e 583d
000001d0: 5a41 713d eff2 ba3d 75b8 933c 8c83 d6bc
000001e0: 1aa1 913d 7d57 803d 2583 983d 15ba 503d
000001f0: b0aa 4b3c d4e9 7b3d dca3 85bc 99ce 39bd
00000200: 48ab b8bc 68d2 62bb ccd3 923d 1af6 373d
00000210: 428c 933c ab0a 263d 9556 b73c 429d 233d
00000220: 9fe6 98bd 5b62 16bd 4c19 0dbd 4b3d 72bd
00000230: 36c8 9bbd f8ad 823d dd13 8e3b f786 78bd
00000240: 140c 723d f695 aabc 3a97 b2bd 3413 1ebd
00000250: b9d7 ccbb 31d8 603c 1755 573d 22c2 84bd
00000260: 720c 003d e562 6fbc 54bc ea3c 47ec 4ebd
00000270: ed7b 3ebd 18cf 85bd f6d5 c73c 1662 9f3d
00000280: ee92 473d 532e 633c f817 2ebd 7a2f 3fbc
00000290: 4677 85bd 4d63 973d 04ae d43c fd07 4bbd
000002a0: 3c7b b6bc 957b 123d d6a4 f3bc aebb 003d
000002b0: 6430 ddbc 65fd 6dbc 341f 433b 0682 963b
000002c0: 6319 a83d 770d 96bd 32ab 733c a0fa a53d
000002d0: 253b 5cbd 61b5 00bb 5719 1dbd 6f04 c8bb
000002e0: fc5a 893c 4da8 84bd 6b2c 973d 4334 f0bc
000002f0: a197 083d a325 923c b94b f33c 9e56 173c
00000300: be4e 7c3d 524d 02bd cb59 8bbd 47d2 8ebd
00000310: 9701 a63d b4db 7dbd bcb9 72bc c8bc 83bb
00000320: 7a22 453d 9b86 53bd ff15 c4bb 9452 2e3c
00000330: 60a5 7a3d 6e93 7dbd e665 1c3d 3d7f bb3d
00000340: bf1a 64bc e033 65bd 35b8 3dbd 4be2 543d
00000350: 9dd2 1fbd a267 313d 64bf 8b3d dc70 1abc
00000360: 9f89 8cbd 6e06 85bd 31a3 2f3d 3617 243d
00000370: f981 a83d 60c9 97bc ca12 893d 978b 86bd
00000380: fb42 803d 028b f7bc d660 423d 9166 813d
00000390: fe6f 48bc 0f85 10bc 90a1 bbbc 5994 213d
000003a0: 466c 993d f82c fb3c 0aaa c4bc 6770 8abd
000003b0: 209e 213d 1ea1 93bd 02bb 5e3d 560c 35bd
000003c0: 515e 173d b7a1 fbbc f062 0e3d ba59 943d
000003d0: 25dc 2e3d 9997 a43d ad1e 993b d6d5 ba3b
000003e0: 4224 a9bc 9666 6fbd fcea 32bd b1a6 a1bc
000003f0: 67f6 73bd b044 6c3c d37b 603d e3e4 50ba

fc.0.bias f4 [128]
-0.058078002 -0.07765148 0.017252788 -0.069813706 0.0591213 0.04465274 0.032670807 -0.07392472
0.048854686 0.006193306 -0.032789897 -0.09564207 0.022431413 -0.09374073 -0.02657604 -0.011134297
-0.075274296 -0.0729589 0.05008469 -0.065665744 0.015843844 0.042958505 -0.04320153 0.0024506038
-0.029171292 -0.04879611 -0.074929975 -0.061663214 -0.039224703 0.053919274 -0.0026390203 0.012641503
0.037976477 0.0159273 -0.057129253 -0.05316178 0.011418658 -0.0058007506 -0.057238907 0.038468394
-0.07423197 -0.10170867 0.020318337 0.03038404 -0.08681899 -0.07738993 0.0337835 -0.08640198
-0.07052576 -0.05226891 -0.012652261 0.04767926 -0.09975243 0.0014861325 0.018045355 -0.09385282
-0.0034077934 -0.012924532 -0.06708094 -0.01182235 -0.061276257 -0.05622559 -0.041062478 0.009054069
-0.0061565237 -0.07686588 -0.01885861 -0.035236277 -0.1064513 0.03524637 0.041208852 0.04990225
0.039053854 0.035831712 0.042005967 0.020006897 0.007797229 0.022591777 0.061402503 0.06419258
-0.034942344 -0.0012384594 -0.0071280375 -0.082291976 -0.06372542 0.0018522405 -0.10810791 -0.077808306
-0.02280997 -0.0769007 -0.009244806 0.044274077 -0.11221051 -0.039997794 -0.033882394 -0.0074252654
0.0328862 -0.058630783 0.03436092 -0.079148985 -0.055381984 -0.08590109 -0.0010467224 0.0587341
-0.07220748 0.030429067 -0.07200602 0.0099051725 -0.046339273 -0.038873293 0.023604462 -0.10264973
0.038779054 -0.08833817 -0.002365643 -0.07450259 -0.004582206 0.06442608 -0.06108469 0.0018830892
0.03251824 -0.04240568 0.017122312 -0.0073036235 -0.09988607 -0.031310055 0.015043895 -0.035315026
00000000: 33e3 6dbd bd07 9fbd b855 8d3c 7dfa 8ebd
00000010: 2d29 723d cbe5 363d d3d1 053d d865 97bd
00000020: da1b 483d 37f1 ca3b b34e 06bd fddf c3bd
00000030: 15c2 b73c 24fb bfbd ffb5 d9bc a06c 36bc
00000040: 6929 9abd 7a6b 95bd 9b25 4d3d c37b 86bd
00000050: f3ca 813c 42f5 2f3d 16f4 30bd 4f9a 203b
00000060: a2f8 eebc 6ede 47bd e374 99bd 9192 7cbd
00000070: 15aa 20bd 75da 5c3d 6af3 2cbb 4e1e 4f3c
00000080: 398d 1b3d f879 823c 5d00 6abd 2bc0 59bd
00000090: 5315 3b3c 3914 bebb 5873 6abd 0991 1d3d
000000a0: ee06 98bd a34c d0bd a472 a63c f3e7 f83c
000000b0: 28ce b1bd 9d7e 9ebd 9160 0a3d 85f3 b0bd
000000c0: cf6f 90bd ed17 56bd 6e4b 4fbc 544b 433d
000000d0: 014b ccbd 55ca c23a dad3 933c e835 c0bd
000000e0: 4955 5fbb 6bc1 53bc bb61 89bd 88b2 41bc
000000f0: d0fc 7abd ce4c 66bd 2131 28bd 8557 143c
00000100: aabc c9bb dc6b 9dbd 5f7d 9abc ea53 10bd
00000110: 2403 dabd 7f5e 103d 9dca 283d 4d66 4c3d
00000120: eff6 1f3d 46c4 123d 730e 2c3d 81e5 a33c
00000130: e67f ff3b 6412 b93c 3181 7b3d 6677 833d
00000140: b41f 0fbd cd53 a2ba 5092 e9bb b288 a8bd
00000150: 7982 82bd e1c6 f23a ae67 ddbd f659 9fbd
00000160: f9db babc 1d7e 9dbd 8777 17bc bc58 353d
00000170: a0ce e5bd bad4 23bd 44c8 0abd a44f f3bb
00000180: aeb3 063d d526 70bd 09be 0c3d dd18 a2bd
00000190: 38d8 62bd e9ec afbd 2d32 89ba 2b93 703d
000001a0: 84e1 93bd 6146 f93c e477 93bd 4e49 223c
000001b0: 40ce 3dbd 9a39 1fbd 255e c13c 063a d2bd
000001c0: c9d6 1e3d a4ea b4bd e708 1bbb d094 98bd
000001d0: 5426 96bb d2f1 833d f133 7abd fdd1 f63a
000001e0: d931 053d 94b1 2dbd 1744 8c3c 3c53 efbb
000001f0: 1191 ccbd f93e 00bd ab7a 763c 7da6 10bd

fc.2.weight f4 [64, 128]
-0.020107487 -0.033230476 -0.053263005 -0.00089248776 -0.022481116 -0.037470847 -0.046395212 0.07078956
0.03749102 -0.015092684 0.037135858 0.05888474 0.035340175 -0.05419662 0.016342014 0.007713616
7.4103926e-05 -0.05152432 0.071307756 0.026775219 -0.061120916 -0.06292236 -0.07774378 -0.012060189
-0.087666124 -0.08880272 0.07010646 0.01717365 0.067040004 -0.026961425 -0.05412268 -0.04077054
0.013670105 -0.008985708 0.056891464 -0.059460904 0.03500931 0.06517961 -0.061621938 0.069090195
-0.037924036 -0.06981443 -0.026097257 -0.05110838 -0.06918376 0.014111154 -0.08996908 0.051955227
0.07363234 -0.025060944 -0.0685143 -0.08010485 -0.08447497 -0.019061767 -0.024785416 0.07552607
0.04578024 0.028643504 0.049805727 -0.013552561 0.0725925 0.032501448 -0.07851624 0.077864125
0.0500224 -0.065834686 -0.0637695 0.062185988 -0.09250196 -0.061425067 -0.022742283 -0.0900509
0.015907446 -0.01826813 0.05456266 0.010574453 -0.040067308 0.017716847 -0.055521805 0.044434525
0.024398446 0.036303256 0.019921003 -0.013972324 -0.033162456 0.06178824 -0.017127134 -0.018596949
0.08942687 -0.042995054 0.06641901 -0.038431756 0.0012288145 -0.089833274 -0.016925363 0.00452612
0.07551838 -0.013815619 0.030137807 0.023920856 -0.027381025 -0.09299392 -0.08140098 -0.04396561
-0.04458375 -0.08035014 -0.025379365 -0.054010574 0.03241368 -0.078441024 -0.08746804 -0.037938327
-0.01991809 -0.08424698 -0.004228244 -0.027502324 0.04823754 -0.021104863 0.043674834 -0.06315412
0.07050184 0.06933959 -0.04201768 -0.08355334 0.045891117 0.015216272 0.023372805 0.02268653
-0.084347 0.040104017 -0.044779636 0.075800076 -0.043118834 -0.039709374 0.048352942 0.005986668
-0.103977524 -0.019251177 -0.13650188 -0.09084447 -0.045253497 -0.054467577 -0.02272052 -0.08102733
0.07129693 0.022672413 0.04937104 0.03347865 0.012603277 -0.030389287 -0.0155854765 -0.07022589
-0.06235324 0.003673651 0.015456072 0.00405836 0.03218757 -0.030769525 0.04337967 -0.07163363
-0.07772244 -0.12649421 0.018767593 0.051911127 -0.034227278 -0.11598608 -0.090695865 0.059257124
0.031534635 -0.018867495 0.011847759 -0.014254219 -0.004721528 -0.0344916 -0.05103268 -0.07201668
0.059237354 -0.090467624 0.068545096 -0.007093298 0.020660555 -0.040807188 -0.040610842 0.065636255
-0.14232193 -0.056218885 0.010992569 -0.03822288 -0.044755932 -0.06925276 0.02420473 -0.0395188
-0.040870823 -0.036550958 -0.041037448 -0.05169863 -0.030531956 -0.054611225 -0.007258793 0.0036117577
-0.043880086 -0.0050844536 0.051411927 -0.062849104 -0.05547932 -0.0017336475 0.06937352 -0.013469826
-0.044440225 -0.038900662 -0.08171102 -0.07524476 0.10125644 -0.06979471 -0.049817502 -0.078273445
-0.056608073 -0.0610195 -0.09004356 0.071003124 -0.06441631 -0.052147187 0.018274652 -0.09326492
-0.046663824 -0.056194488 -0.047249302 -0.01485516 -0.0047654 0.057665523 -0.031282693 -0.012902176
-0.053181108 -0.05787377 -0.086485 -0.08438954 -0.049061004 0.030066041 -0.026732229 -0.075119264
-0.01490118 -0.08604641 -0.020249797 0.08190921 0.03732605 -0.082052074 0.07126423 -0.035500407
-0.08976004 0.049687516 -0.08726902 -0.03886188 -0.057406038 -0.00828175 -0.11554188 -0.0137061495
00000000: 75b8 a4bc ae1c 08bd 4f2a 5abd d7f5 69ba
00000010: 512a b8bc 087b 19bd e808 3ebd 1efa 903d
00000020: 2f90 193d 4e47 77bc c51b 183d 2031 713d
00000030: dcc0 103d 46fd 5dbd b0df 853c 80c2 fc3b
00000040: 3e68 9b38 2a0b 53bd cd09 923d b457 db3c
00000050: ed59 7abd 70dd 80bd 2238 9fbd 1998 45bc
00000060: 4c8a b3bd 33de b5bd fa93 8f3d c1af 8c3c
00000070: 454c 893d 35de dcbc beaf 5dbd 02ff 26bd
00000080: 93f8 5f3c ca38 13bc 0607 693d 478d 73bd
00000090: ec65 0f3d e37c 853d 4967 7cbd 297f 8d3d
000000a0: 3c56 1bbd defa 8ebd eac9 d5bc 0557 51bd
000000b0: 37b0 8dbd 7832 673c b641 b8bd 01cf 543d
000000c0: 8dcc 963d 9c4c cdbc 3a51 8cbd 030e a4bd
000000d0: 3701 adbd 6c27 9cbc c90a cbbc 6aad 9a3d
000000e0: 1084 3b3d c8a5 ea3c 1701 4c3d 900b 5ebc
000000f0: 60ab 943d 3d20 053d 1fcd a0bd 3a77 9f3d
00000100: 4ae4 4c3d 56d4 86bd 9599 82bd bcb6 7e3d
00000110: ab71 bdbd da98 7bbd 064e babc 9b6c b8bd
00000120: 5550 823c 0ca7 95bc 197d 5f3d 7840 2d3c
00000130: 9e1d 24bd ec22 913c d56a 63bd fa00 363d
00000140: 40df c73c b9b2 143d 5f31 a33c 2dec 64bc
00000150: 5bd5 07bd aa15 7d3d 344e 8cbc a158 98bc
00000160: 6f25 b73d 951b 30bd b106 883d 9e6a 1dbd
00000170: 2c10 a13a 82fa b7bd 0fa7 8abc d94f 943b
00000180: 61a9 9a3d e85a 62bc 90e3 f63c acf5 c33c
00000190: 2c4e e0bc 9973 bebd 8fb5 a6bd 4915 34bd
000001a0: 739d 36bd 9d8e a4bd 63e8 cfbc 313a 5dbd
000001b0: 35c4 043d b0a5 a0bd 7222 b3bd 3865 1bbd
000001c0: 432b a3bc ae89 acbd 158d 8abb 8e4c e1bc
000001d0: ba94 453d 1be4 acbc 62e4 323d f356 81bd
000001e0: 4563 903d ea01 8e3d bb1a 2cbd 031e abbd
000001f0: 53f8 3b3d ac4d 793c 5378 bf3c 1ad9 b93c
00000200: 1fbe acbd 1c44 243d da6a 37bd 123d 9b3d
00000210: 609d 30bd 4ca6 22bd bc0d 463d d02b c43b
00000220: 2bf2 d4bd a5b4 9dbc 26c7 0bbe aa0c babd
00000230: bb5b 39bd 6519 5fbd 6220 babc a8f1 a5bd
00000240: 2004 923d 7fbb b93c 4a39 4a3d e920 093d
00000250: fa7d 4e3c f4f2 f8bc 3a5a 7fbc 97d2 8fbd
00000260: 1c66 7fbd a3c1 703b 773b 7d3c fefb 843b
00000270: 1dd7 033d 5f10 fcbc e1ae 313d a7b4 92bd
00000280: f12c 9fbd b387 01be 7fbe 993c c3a0 543d
00000290: e731 0cbd 1c8a edbd c1be b9bd 99b7 723d
000002a0: 762a 013d 0190 9abc 1a1d 423c 878a 69bc
000002b0: 0cb7 9abb 1047 0dbd a507 51bd 7b7d 93bd
000002c0: dea2 723d 1747 b9bd 5f61 8c3d e56e e8bb
000002d0: 5340 a93c 7025 27bd 8e57 26bd 4d6c 863d
000002e0: d7bc 11be c645 66bd 2d1a 343c 988f 1cbd
000002f0: ff51 37bd 64d4 8dbd ff48 c63c 77de 21bd
00000300: 2a68 27bd 75b6 15bd e216 28bd f1c1 53bd
00000310: 271e fabc 05b0 5fbd 2bdb edbb 3db3 6c3b
00000320: 9bbb 33bd 7d9b a6bb 5095 523d 08b7 80bd
00000330: 493e 63bd 8f3b e3ba b413 8e3d 8cb0 5cbc
00000340: f406 36bd 4d56 1fbd 1b58 a7bd ed19 9abd
00000350: 895f cf3d 87f0 8ebd 700d 4cbd d44d a0bd
00000360: dedd 67bd 95ef 79bd c268 b8bd 166a 913d
00000370: b3ec 83bd 4a98 55bd b9b4 953c ae01 bfbd
00000380: 9122 3fbd 312c 66bd 7c88 41bd 0f63 73bc
00000390: 1327 9cbb af32 6c3d 4822 00bd a663 53bc
000003a0: 6fd4 59bd 0c0d 6dbd 0c1f b1bd 6cd4 acbd
000003b0: 31f4 48bd 0f4d f63c 8cfd dabc 21d8 99bd
000003c0: 1424 74bc 1a39 b0bd e7e2 a5bc 04c0 a73d
000003d0: 33e3 183d eb0a a8bd fbf2 913d e068 11bd
000003e0: 1dd4 b7bd 2385 4b3d 1aba b2bd a22d 1fbd
000003f0: 9822 6bbd 2db0 07bc 39a1 ecbd c28f 60bc

fc.2.bias f4 [64]
-0.021102097 0.0106434915 0.008644942 0.010359142 0.010419135 -0.019566322 -0.008045334 0.090248495
0.07068984 0.065029085 -0.028036717 -0.013986563 -0.024175806 -0.014660158 -0.026890138 0.11837565
0.15858491 -0.08918479 0.06709042 0.083622806 -0.077059366 0.018281648 -0.09266001 0.0012744588
-0.007128911 0.105680086 -0.058394775 -0.04356052 -0.007878311 0.10290729 -0.026488988 -0.014962221
0.111995965 0.046694826 -0.0052499673 0.04830204 0.059802163 -0.056011096 -0.044301786 -0.01638878
0.15873581 -0.031898938 -0.008053446 0.09845755 -0.09654027 -0.013002902 -0.014519323 -0.015233081
-0.0032922516 -0.034616586 0.1416385 -0.037940912 0.032967016 -0.032048866 -0.036565647 0.00035883524
0.01406249 0.10235653 -0.077471405 0.14843485 0.14955783 -0.0677977 -0.060980506 -0.054321535
00000000: 4ede acbc 0a62 2e3c 84a3 0d3c 64b9 293c
00000010: 05b5 2a3c 8d49 a0bc 94d0 03bc 34d4 b83d
00000020: d6c5 903d f82d 853d 42ad e5bc e627 65bc
00000030: 570c c6bc 2931 70bc b548 dcbc ef6e f23d
00000040: 1564 223e 84a6 b6bd b466 893d 6f42 ab3d
00000050: 4dd1 9dbd 65c3 953c 88c4 bdbd be0b a73a
00000060: a499 e9bb cd6e d83d 5c2f 6fbd 846c 32bd
00000070: 0814 01bc 0fc1 d23d 6fff d8bc 1a24 75bc
00000080: 245e e53d 1343 3f3d eb07 acbb 5cd8 453d
00000090: 1df3 743d e46b 65bd ca75 35bd c341 86bc
000000a0: a48b 223e 76a8 02bd 9af2 03bc 1da4 c93d
000000b0: e8b6 c5bd 200a 55bc 74e2 6dbc 2c94 79bc
000000c0: d1c2 57bb 1fca 0dbd af09 113e ee67 1bbd
000000d0: 6c08 073d ac45 03bd dcc5 15bd 0d22 bc39
000000e0: 5c66 663c 4da0 d13d 54a9 9ebd 4eff 173e
000000f0: b025 193e 85d9 8abd b2c6 79bd 4280 5ebd

fc.4.weight f4 [1, 64]
-0.0017318652 0.0008283653 0.006364844 0.00044572656 0.0016159292 0.033289563 -0.1030899 0.07069861
0.034773603 0.09058711 -0.021223793 -0.108769536 -0.06676832 -0.07992168 -0.06011383 0.118707314
0.13980441 0.018107118 0.088933 0.04790405 -0.06882834 0.04886022 0.0767793 -0.07847078
-0.09889637 0.11841406 0.0006446861 -0.10562046 -0.08492111 0.052357085 0.060534094 -0.031808637
0.038472272 0.022570094 -0.024457034 0.05045116 0.03330621 -0.077378884 0.06807517 -0.09022135
0.14297658 0.07418639 -0.06723734 0.037664086 0.06801939 0.009783798 0.03903551 -0.029788855
0.0035828692 -0.09376286 0.14166658 -0.04421944 0.09544211 -0.109847106 -0.067646585 -0.0009134025
0.09132335 0.070749186 -0.036868833 0.09576785 0.11531955 0.0070388787 -0.06404804 0.06047746
00000000: c1ff e2ba a726 593a 2e90 d03b 68b0 e939
00000010: 96cd d33a a35a 083d cc20 d3bd 6fca 903d
00000020: c46e 0e3d bc85 b93d 85dd adbc 90c2 debd
00000030: d4bd 88bd faad a3bd eb39 76bd d21c f33d
00000040: e328 0f3e 6155 943c 8122 b63d 0a37 443d
00000050: dff5 8cbd a721 483d 773e 9d3d 4ab5 a0bd
00000060: 2e8a cabd 1283 f23d 2700 293a 8a4f d8bd
00000070: 1eeb adbd 6274 563d 99f2 773d c649 02bd
00000080: 1a95 1d3d ebe4 b83c 1e5a c8bc e0a5 4e3d
00000090: 186c 083d d278 9ebd ff6a 8b3d f9c5 b8bd
000000a0: 7468 123e 09ef 973d bbb3 89bd a845 1a3d
000000b0: c04d 8b3d 394c 203c b3e3 1f3d c207 f4bc
000000c0: 92ce 6a3b be06 c0bd 0b11 113e 721f 35bd
000000d0: 2777 c33d 85f7 e0bd 4b8a 8abd 6771 6fba
000000e0: bd07 bb3d f3e4 903d c603 17bd ef21 c43d
000000f0: a82c ec3d 65a6 e63b 9e2b 83bd 37b7 773d

exp_avg f4 [16, 2, 3, 3]
8.031046e-07 7.3621146e-07 3.471695e-06 4.6386554e-06 3.3309445e-06 5.0185695e-06 -1.480437e-06 4.6605705e-06
-1.6921086e-06 -7.9361837e-07 -1.1546405e-06 -1.2472907e-06 -5.355167e-07 -9.3639784e-07 -9.672774e-07 -7.4873975e-07
-1.1638075e-06 -1.1426599e-06 1.4047016e-06 1.5439673e-06 5.3374642e-06 -2.317389e-06 4.967539e-06 3.6142148e-06
-3.490368e-06 -4.238494e-06 -1.9827626e-06 3.8284583e-07 1.726981e-07 1.916958e-07 -1.4002373e-07 -3.8694006e-07
-3.6953466e-07 -5.268817e-07 -6.6308866e-07 -6.394145e-07 3.549244e-07 -1.2932315e-07 -1.0388155e-06 -1.7219533e-06
1.987782e-06 1.0260686e-06 -4.299227e-06 -2.5385216e-06 -1.2174324e-06 -3.3530617e-07 -3.3530614e-07 -2.8165368e-07
-6.389118e-07 -6.3891184e-07 -6.894787e-07 -6.4620133e-07 -6.462014e-07 -7.0761246e-07 1.2479695e-06 3.7103755e-06
-8.2830286e-07 2.080782e-06 7.557176e-06 6.781942e-06 -2.7144864e-07 5.7225895e-07 2.8300967e-06 -1.8622899e-07
2.4155509e-07 3.4375185e-07 -3.337281e-07 1.4312095e-08 1.3508846e-07 -3.9229428e-07 -4.4254104e-08 -8.8963425e-08
-2.2793088e-06 3.706888e-07 -4.0523482e-06 -4.734295e-06 -7.0383835e-06 3.840759e-06 9.525388e-06 7.015952e-07
9.294144e-07 8.9235436e-07 7.950119e-07 5.0756177e-07 1.1031677e-06 9.76248e-07 6.5682025e-07 1.3784753e-06
1.1557565e-06 7.6553033e-07 -3.966791e-06 -1.2698072e-06 6.357629e-07 5.3977838e-06 -1.3768328e-06 -5.352546e-07
1.0973384e-06 5.6133473e-07 3.2553664e-06 -3.41388e-07 -1.5221934e-07 2.6076916e-07 1.3576363e-07 3.9808415e-07
8.2413277e-07 3.6058404e-07 5.0391213e-07 9.302669e-07 -4.8961197e-06 8.1648227e-07 1.3043093e-06 -6.8270276e-07
2.2568195e-06 1.2851489e-06 2.1716376e-08 2.2014278e-06 -1.4793494e-06 6.029898e-07 6.373723e-07 3.164745e-07
5.687777e-07 6.454078e-07 3.746538e-07 6.532674e-07 7.291989e-07 3.852965e-07 1.1245312e-06 -7.984461e-06
-8.137316e-06 2.3082032e-06 -7.1559657e-06 -1.3720371e-06 1.5499619e-07 -4.968281e-06 -9.78897e-06 -4.1331342e-07
-6.1780105e-07 -5.471611e-07 -3.86579e-07 -5.941007e-07 -5.2432085e-07 1.3097555e-07 7.525271e-08 1.6890013e-07
3.8054697e-08 -1.4931176e-06 -9.466612e-07 -3.3142658e-06 -2.405584e-06 -3.5967319e-06 -4.662261e-07 -1.8708835e-05
-1.2979246e-05 -1.5994222e-07 -2.7541256e-07 1.4036127e-07 -4.0047325e-07 -5.302939e-07 1.270116e-07 -3.4784773e-07
-5.9326754e-07 -2.9963402e-08 4.0932417e-08 -8.115757e-07 -1.4865461e-06 1.2338852e-06 2.288212e-06 -3.6815447e-07
-3.4140803e-07 2.2568736e-06 2.6996588e-07 7.3440873e-07 6.032193e-07 1.1252819e-07 1.3661279e-06 1.2324753e-06
6.708315e-07 1.4767697e-06 1.4122503e-06 8.40742e-07 2.578234e-06 1.2989817e-06 1.0602388e-06 -3.925933e-06
-3.6939743e-06 -5.1073844e-06 -2.810209e-06 -1.9049803e-07 -5.406706e-06 1.7310163e-06 1.4015851e-06 1.3949125e-06
1.9363251e-06 1.6327093e-06 1.6734315e-06 1.5548478e-06 1.0347343e-06 9.625309e-07 -2.647615e-07 -2.4523013e-06
7.965334e-07 1.8219498e-06 -1.0980712e-06 2.9898308e-07 -1.4630878e-07 1.8620356e-07 1.6597529e-06 3.3684262e-08
3.368426e-08 8.813247e-08 1.2969241e-07 1.2969241e-07 2.2396598e-07 3.647808e-07 3.6478073e-07 4.8675645e-07
4.3194527e-06 -2.7513222e-06 -2.5454751e-06 -4.9879905e-06 -7.502437e-06 1.4850642e-06 8.607969e-07 -3.512235e-06
6.926292e-06 -3.2069352e-07 8.295551e-08 4.464226e-07 -6.471993e-07 -2.0563986e-07 1.5610074e-07 -3.2320713e-07
9.8566666e-08 4.7306364e-07 -1.578388e-07 -9.974491e-07 -1.0315425e-06 -5.0739686e-07 2.680723e-06 -4.1910453e-06
1.9107326e-06 4.5963557e-06 -2.528496e-06 -5.983579e-07 -5.0459755e-07 -6.409271e-07 1.0837425e-07 -3.859365e-08
9.271385e-09 3.5006886e-07 1.3268075e-07 2.0004578e-07 -4.294744e-06 2.6856867e-06 6.3797967e-07 -1.3791167e-06
00000000: ee94 5735 11a0 4535 44fb 6836 bfa5 9b36
00000010: 3189 5f36 2f65 a836 6eb3 c6b5 ff61 9c36
00000020: 691c e3b5 0a09 55b5 25f9 9ab5 9568 a7b5
00000030: 6dc0 0fb5 c55c 7bb5 66d3 81b5 01fd 48b5
00000040: 1f34 9cb5 7f5d 99b5 2e89 bc35 503a cf35
00000050: 7818 b336 7184 1bb6 d6ae a636 bd8b 7236
00000060: 113c 6ab6 6338 8eb6 9a0f 05b6 ee89 cd34
00000070: e46e 3934 f1d4 4d34 6e59 16b4 a3bc cfb4
00000080: 7564 c6b4 096f 0db5 1bff 31b5 3ba4 2bb5
00000090: 708c be34 14dc 0ab4 6e6d 8bb5 dd1d e7b5
000000a0: d665 0536 73b7 8935 1442 90b6 785b 2ab6
000000b0: a966 a3b5 2104 b4b4 2004 b4b4 3036 97b4
000000c0: af81 2bb5 b081 2bb5 9e14 39b5 9e76 2db5
000000d0: 9f76 2db5 c2f2 3db5 e87f a735 c4ff 7836
000000e0: 8a58 5eb5 90a3 0b36 a693 fd36 7090 e336
000000f0: 9ebb 91b4 569d 1935 b1ec 3d36 3cf6 47b4
00000100: 14af 8134 e58c b834 3e2b b3b4 42e1 7532
00000110: d50c 1134 849c d2b4 e711 3eb3 290c bfb3
00000120: 3af6 18b6 1503 c734 68f9 87b6 49db 9eb6
00000130: 412b ecb6 dedf 8036 3bcf 1f37 4155 3c35
00000140: df7c 7935 208a 6f35 cd68 5535 613f 0835
00000150: 8e10 9435 a007 8335 5850 3035 0d04 b935
00000160: 7e1f 9b35 d87e 4d35 7a1a 85b6 3e6e aab5
00000170: 4ba9 2a35 9c1e b536 9dcb b8b5 6bae 0fb5
00000180: 4348 9335 a1ae 1635 c576 5a36 0248 b7b4
00000190: bc71 23b4 d7ff 8b34 6cc6 1134 45b8 d534
000001a0: f939 5d35 4b96 c134 9444 0735 74b7 7935
000001b0: 5949 a4b6 3c2c 5b35 ba0f af35 fa42 37b5
000001c0: dd73 1736 617d ac35 d18a ba32 3ebc 1336
000001d0: 0f8e c6b5 25dd 2135 e417 2b35 ede7 a934
000001e0: 1bae 1835 1640 2d35 0724 c934 325c 2f35
000001f0: 2bbe 4335 bfda ce34 99ee 9635 00f5 05b7
00000200: 8285 08b7 a1e6 1a36 471d f0b6 d626 b8b5
00000210: 076d 2634 35b5 a6b6 4e3b 24b7 5de5 ddb4
00000220: f7d6 25b5 a0e0 12b5 038b cfb4 4a7a 1fb5
00000230: 0ebf 0cb5 49a2 0c34 9d9a a133 ea5a 3534
00000240: 9571 2333 2167 c8b5 101e 7eb5 a76a 5eb6
00000250: 9e6f 21b6 625f 71b6 a14d fab4 ebf0 9cb7
00000260: 70c1 59b7 95bc 2bb4 6adc 93b4 36b6 1634
00000270: a000 d7b4 8559 0eb5 af60 0834 d4bf bab4
00000280: 0941 1fb5 1cb1 00b3 abcd 2f33 0fdb 59b5
00000290: 5685 c7b5 f99b a535 2f8f 1936 c4a6 c5b4
000002a0: c34a b7b4 cb74 1736 d4ef 9034 2f24 4535
000002b0: eaec 2135 07a7 f133 cc5b b735 876b a535
000002c0: 3113 3435 6c35 c635 8d8c bd35 5aaf 6135
000002d0: b905 2d36 ac58 ae35 874d 8e35 82bb 83b6
000002e0: ffe5 77b6 1960 abb6 0697 3cb6 b38b 4cb4
000002f0: 406b b5b6 4455 e835 191e bc35 d438 bb35
00000300: d0f1 0136 7723 db35 ab9a e035 2ab0 d035
00000310: 33e1 8a35 4f30 8135 8b24 8eb4 3792 24b6
00000320: 5cd1 5535 b889 f435 7061 93b5 ec83 a034
00000330: 0d19 1db4 3fef 4734 adc4 de35 3dac 1033
00000340: 3cac 1033 5643 bd33 9441 0b34 9441 0b34
00000350: 4d7b 7034 17d7 c334 15d7 c334 a6a9 0235
00000360: d1ef 9036 5ba3 38b6 eed2 2ab6 835e a7b6
00000370: 71bd fbb6 6b52 c735 8311 6735 bdb3 6bb6
00000380: 6568 e836 c82b acb4 4625 b233 dbab ef34
00000390: 32bb 2db5 dbcd 5cb4 a59c 2734 4085 adb4
000003a0: 99ab d333 5ff9 fd34 667a 29b4 17e0 85b5
000003b0: 8873 8ab5 0c34 08b5 78e6 3336 cea0 8cb6
000003c0: 233a 0036 653a 9a36 3baf 29b6 d79e 20b5
000003d0: ae73 07b5 2d0c 2cb5 60bb e833 2bc2 25b3
000003e0: fc47 1f32 19f1 bb34 0277 0e34 2acc 5634
000003f0: 921b 90b6 bf3b 3436 a141 2b35 171a b9b5

exp_avg_sq f4 [16, 2, 3, 3]
3.1597658e-09 9.849078e-10 6.854666e-09 2.162234e-08 6.2242805e-07 3.461222e-07 7.1509745e-09 2.5968905e-07
5.28635e-07 2.3573064e-09 4.0030423e-09 4.1995367e-09 3.597113e-09 5.897884e-09 6.0712684e-09 3.3415246e-09
5.5381486e-09 5.673848e-09 1.13147706e-07 6.998671e-08 2.2755783e-07 3.0478322e-09 1.3566642e-08 1.4064898e-08
1.0837395e-09 4.5787775e-08 6.8592834e-09 1.7672257e-09 2.2879596e-09 2.2029678e-09 1.970506e-09 2.5924412e-09
2.5064697e-09 1.4087632e-09 1.9041402e-09 1.9601354e-09 1.4997245e-10 7.3826084e-11 1.340284e-09 9.0302294e-08
1.213055e-08 1.7790306e-09 6.244453e-08 1.943812e-08 9.378534e-10 4.020689e-10 4.020689e-10 3.0290206e-10
5.917207e-10 5.9172045e-10 4.0914594e-10 5.655921e-10 5.655922e-10 3.9897455e-10 9.495055e-09 4.0783954e-09
1.5969949e-09 1.2664061e-09 1.5486077e-07 1.6569947e-08 2.8786115e-10 8.806309e-10 3.816538e-09 1.665581e-10
2.604893e-10 2.9073238e-10 2.9030728e-10 4.7534776e-10 5.540863e-10 2.9641709e-10 4.989529e-10 4.902002e-10
5.8920073e-09 1.5775802e-08 5.3778306e-09 1.7767553e-08 1.3096381e-08 4.039134e-08 3.642103e-08 1.0663725e-09
6.667933e-10 7.113019e-10 6.1287664e-10 6.2618305e-10 7.6063744e-10 6.5642e-10 6.597311e-10 4.9580245e-10
4.667642e-10 4.5209997e-10 2.4861423e-08 4.7262805e-08 9.843699e-09 1.5318267e-07 1.2299508e-07 3.5058298e-07
7.887794e-09 5.9960503e-10 2.009347e-09 3.1435246e-09 3.146316e-09 3.4697247e-09 2.1435562e-09 2.146956e-09
2.4369515e-09 8.8457464e-10 8.8946084e-10 1.0375807e-09 4.6795887e-07 2.6311903e-07 1.1875756e-07 6.415276e-08
1.272756e-06 8.606216e-07 1.1059228e-09 2.0897915e-08 4.0392764e-10 7.730364e-09 8.19892e-09 5.1229057e-09
9.899419e-09 1.0486349e-08 7.0769013e-09 3.108542e-09 3.4725276e-09 2.2202546e-09 3.6128245e-08 8.46635e-08
1.1925898e-07 1.2949245e-07 4.4552753e-08 1.6456179e-08 6.6271916e-10 7.9595516e-08 4.738458e-08 1.1491407e-09
1.4135314e-09 1.3637864e-09 1.1628798e-09 1.4262211e-09 1.369151e-09 5.729359e-10 1.0343612e-09 1.0256787e-09
6.891993e-08 2.8037473e-07 2.9939111e-09 1.4657698e-07 4.8710323e-08 1.4093616e-09 2.3070495e-08 7.735957e-07
8.023782e-08 6.8000827e-09 6.930466e-09 2.718324e-09 7.89076e-09 8.041696e-09 3.2268568e-09 7.429678e-09
7.663663e-09 3.4649226e-09 4.9705484e-10 8.292875e-09 3.925861e-08 4.1795448e-07 2.8918441e-08 2.4124958e-08
1.06679785e-07 8.917294e-09 2.850171e-08 8.8300185e-09 8.562038e-09 7.368995e-09 1.21617445e-08 1.1836959e-08
1.0337104e-08 1.1525454e-08 1.14742535e-08 1.0108115e-08 1.15032295e-08 1.637978e-08 4.7119064e-09 1.7530631e-07
1.8921064e-08 1.20769155e-08 1.6032895e-09 1.2662168e-08 2.9099741e-08 3.6153658e-10 7.6690265e-10 5.6930144e-10
3.819473e-10 8.089895e-10 6.018942e-10 4.7247173e-10 1.2509774e-09 9.946358e-10 5.896355e-10 1.0847796e-09
1.7619546e-10 1.2996097e-08 4.033598e-09 8.3608884e-11 5.4197643e-11 3.12661e-11 3.9801598e-10 5.2786865e-11
5.2786865e-11 4.6755495e-11 1.07518654e-10 1.07518654e-10 1.0566561e-10 1.2683533e-10 1.2683533e-10 1.069408e-10
3.0933207e-09 4.876848e-08 3.8118586e-08 2.0567839e-09 4.4812552e-08 1.8361547e-09 8.9538394e-09 2.047963e-09
1.693026e-08 4.9953425e-10 3.8273434e-10 3.2227093e-10 5.342029e-10 3.8344888e-10 3.200468e-10 4.0090425e-10
2.8095112e-10 2.395737e-10 5.36704e-09 4.896278e-10 2.1364568e-09 1.7601844e-09 2.0185354e-08 3.3811364e-07
3.728711e-08 3.9120223e-09 2.9168488e-09 4.4130283e-10 5.802105e-10 5.1254445e-10 1.3846997e-09 1.6031311e-09
1.3706779e-09 1.0787944e-09 1.2345102e-09 1.0408635e-09 3.8405734e-08 7.0811865e-08 2.3394452e-07 1.4794696e-07
00000000: 3023 5931 5d5d 8730 4886 eb31 07bc b932
00000010: ee14 2735 acd2 b934 a3b4 f531 646b 8b34
00000020: 85e7 0d35 2cfe 2131 228b 8931 844b 9031
00000030: 1531 7731 56a6 ca31 719b d031 b9a0 6531
00000040: 124a be31 b2f3 c231 9cfb f233 9a4b 9633
00000050: 9f56 7434 0872 5131 b912 6932 13a2 7132
00000060: b2f2 9430 31a8 4433 e5ae eb31 bae2 f230
00000070: 363a 1d31 0563 1731 8269 0731 b526 3231
00000080: 483e 2c31 739e c130 fdd9 0231 11b3 0631
00000090: 7ee5 242f 6458 a22e 0d35 b830 36ec c133
000000a0: b966 5032 1382 f430 3e19 8633 e1f8 a632
000000b0: c8e5 8030 2b0a dd2f 2b0a dd2f ad85 a62f
000000c0: a4a6 2230 a0a6 2230 2cee e02f 0178 1b30
000000d0: 0378 1b30 ad56 db2f b21f 2332 f221 8c31
000000e0: 437d db30 b40d ae30 ce47 2634 b355 8e32
000000f0: db40 9e2f e410 7230 a022 8331 f021 372f
00000100: 9c34 8f2f f2d4 9f2f 1e99 9f2f a0a9 0230
00000110: 5b4e 1830 fff4 a22f b026 0930 c6be 0630
00000120: a572 ca31 5b83 8732 e6c7 b831 439f 9832
00000130: 7efe 6032 bf7a 2d33 596d 1c33 a68f 9230
00000140: 6849 3730 6c85 4330 5c77 2830 b71f 2c30
00000150: 1a15 5130 736f 3430 7358 3530 ff48 0830
00000160: 9c4d 0030 6a8b f82f d98e d532 01fe 4a33
00000170: 0c1d 2932 887a 2434 a110 0434 c237 bc34
00000180: e382 0732 74d1 2430 ce14 0a31 7805 5831
00000190: 9436 5831 0b70 6e31 d74d 1331 a689 1331
000001a0: 4e77 2731 6826 7330 3e7e 7430 a09a 8e30
000001b0: c73b fb34 ce42 8d34 a907 ff33 5ac4 8933
000001c0: 90d3 aa35 7705 6735 33ff 9730 0083 b332
000001d0: c30f de2f 80ce 0432 3bdb 0c32 8e05 b031
000001e0: 1b12 2a32 7327 3432 1529 f331 0d9e 5531
000001f0: 5aa1 6e31 2293 1831 6d2b 1b33 40d0 b533
00000200: a90d 0034 9d0a 0b34 455a 3f33 855b 8d32
00000210: b72a 3630 19ee aa33 e683 4b33 cbef 9d30
00000220: 3746 c230 f86f bb30 32d3 9f30 b204 c430
00000230: b82c bc30 c87c 1d30 5929 8e30 dcf7 8c30
00000240: 2201 9433 6986 9634 71bd 4d31 c662 1d34
00000250: 9135 5133 81b3 c130 8e2c c632 17a9 4f35
00000260: 354f ac33 29a6 e931 0621 ee31 43cd 3a31
00000270: ee8f 0732 c127 0a32 77bf 5d31 2448 ff31
00000280: 25a9 0332 901b 6e31 20a1 0830 7378 0e32
00000290: 4c9d 2833 3a63 e034 5368 f832 583b cf32
000002a0: d517 e533 ac32 1932 ecd3 f432 d5b2 1732
000002b0: 3e18 1332 5e32 fd31 ebef 5032 7f5b 4b32
000002c0: 1097 3132 7c01 4632 4d20 4532 f6a7 2d32
000002d0: bd9f 4532 84b3 8c32 5ee6 a131 d53b 3c34
000002e0: dc87 a232 d67a 4f32 bc5a dc30 ce88 5932
000002f0: 02f7 f932 c0c1 c62f facd 5230 077d 1c30
00000300: 4efa d12f 935f 5e30 8a72 2530 3edf 0130
00000310: dbee ab30 a3b3 8830 e913 2230 4a17 9530
00000320: 9dba 412f 7045 5f32 e797 8a31 9edb b72e
00000330: 1f5d 6e2e 8082 092e c5cf da2f ba28 682e
00000340: ba28 682e 02a2 4d2e 9f6f ec2e 9f6f ec2e
00000350: 735c e82e f974 0b2f f974 0b2f 522a eb2e
00000360: 4692 5431 8375 5133 d4b7 2333 5357 0d31
00000370: ec77 4033 f35b fc30 67d3 1932 25bc 0c31
00000380: 096e 9132 994f 0930 1269 d22f 9a2b b12f
00000390: 30d7 1230 a2cd d22f 95f2 af2f 4266 dc2f
000003a0: 5b74 9a2f 00b5 832f fc68 b831 7e96 0630
000003b0: f2d0 1231 fcea f130 1064 ad32 fc85 b534
000003c0: 9c25 2033 836a 8631 bf71 4831 da9b f22f
000003d0: af7c 1f30 1ce3 0c30 ca4f be30 2955 dc30
000003e0: 7162 bc30 b444 9430 77ab a930 210e 8f30
000003f0: 8df3 2433 3c11 9833 2e32 7b34 5adb 1e34

exp_avg f4 [16]
-6.564328e-07 4.936964e-07 -1.5276155e-06 1.0331286e-06 2.4470146e-06 -1.9127113e-07 2.2557736e-06 2.6020495e-09
-2.2891961e-06 9.2935846e-07 2.0132557e-06 -5.2875137e-08 -8.361895e-07 -7.2849895e-07 -6.095285e-07 1.3824356e-06
00000000: b835 30b5 8f86 0435 7808 cdb5 07aa 8a35
00000010: 6437 2436 3560 4db4 e561 1736 bdcf 3231
00000020: 17a0 19b6 0779 7935 781b 0736 d418 63b3
00000030: 8176 60b5 118e 43b5 7b9e 23b5 208c b935

exp_avg_sq f4 [16]
2.6585267e-08 1.1307414e-08 2.3403628e-09 2.5827647e-09 2.3347124e-09 4.988072e-09 3.852724e-08 5.1932836e-09
2.9826314e-08 2.148607e-08 3.1853717e-09 1.9682829e-10 1.7857787e-09 5.4220686e-09 7.3721567e-09 1.882156e-08
00000000: 9f5d e432 8842 4232 19d4 2031 7a7c 3131
00000010: b270 2031 8c63 ab31 2679 2533 9b70 b231
00000020: 611a 0033 5e90 b832 a7e5 5a31 3d6a 582f
00000030: 816f f530 054d ba31 2d4e fd31 0cad a132
