output/blue/images/epoch_68.pt (torch, 369546 bytes, 27 tensors)

conv.0.weight f4 [16, 2, 3, 3]
00000000: de42 7bbe 41c4 89be 9cf0 98bd 3868 dbbd
00000010: 0c79 0c3e 35aa 083e a3c0 a6be 528a 323d
00000020: 937a c63d b64d 7ebc 56c4 9dbd af87 4b3d
00000030: 2d51 4fbe 1ddd 73be 1b16 173e b035 4bbe
00000040: 1552 a1bc 2752 cc3d 8b2e 083e 8fb9 cb3d
00000050: 2407 513e 735c d7bd 1e15 a7bd bad3 c4bd
00000060: 15cf 7abe 63fb ad3c f41a ebbd 38f6 4c3e
00000070: 68d7 a8bd 3980 89be 98ea 90bd c3cb 30be
00000080: 6b63 c2bd 69d1 4a3e feae 373d 3539 383e
00000090: cb20 9dbd 8a75 7bbe 3cfb d0bd 4ebf a83d
000000a0: ef81 e5bd 3afe 41be c6f2 e73d 9b61 adbd
000000b0: afde 18be 6842 cabd ab24 3ebe 7df9 cd3d
000000c0: fc35 bd3c c290 b73d d6f8 bebd 35ed ba3d
000000d0: e4a2 febb 0a98 d83c 9c23 cf3d 69e5 95bd
000000e0: de29 65be 789e 1bbe c15a 2c3e 7923 0fbd
000000f0: ec94 84be c4de e4bd ac49 06be a3d7 89be
00000100: d3ed 88be 0087 d23d 704a fabd 0fb5 73be
00000110: 9308 dcbd 64b2 1f3e 8e35 a73c 485d 71be
00000120: 64cc 3abe 3c8f 8b3d 8f34 44bc c41d 3e3d
00000130: 0eec c93c 62d5 423d b420 753d 5cd0 23be
00000140: dd76 5dbe 3a44 153e 5c78 2dbe b09f 4ebb
00000150: d0e1 86be dbd5 843d 67d9 7bbe 33b8 913b
00000160: 2e9b 47be f4a7 ce3d 0468 3fbe b394 b8bd
00000170: c167 4ebe 841d c13d 7009 bd3b 5e9d 1c3e
00000180: a8cc c1bd 6cb8 9ebe e339 84be 27df 193c
00000190: 6c5d 333e 8ac7 68be 22e1 ebbd e642 eebd
000001a0: 91f2 493d 7e41 453e 8458 73be 311d 17bd
000001b0: b557 923d fe26 87bc 903a d2bd 9f45 3cbe
000001c0: f830 f33d c0b9 b93d 2dab 8fbe 5c06 d23c
000001d0: 23ce 7ebe d21d 2fbe 2d68 bc3c 36da 4d3d
000001e0: e099 243e 27bf 83be 4cc0 4cbe 927f 003e
000001f0: edef 87be f59e 05be 1317 b9bc 5d0a 003c
00000200: 6e5e 8a3d ecda 433d 7c3c 79bd fed3 0bbe
00000210: 3922 59be 8c53 af3c 41ef 2bbb d732 08bd
00000220: 0068 423e e827 013e f3ca bcbd dfe4 76be
00000230: 34ce f7bc 17b5 56be c5f6 67be 501b b73d
00000240: 5310 983c 7577 ca3d 1791 48be 19a9 2d3c
00000250: 29f8 1fbd 8724 6ebe e170 15be 5a1e 023e
00000260: 252a 50bd d073 143e 9848 41be 22a1 94bd
00000270: fe3b b03d 9f9f 12be 8728 44be da32 003a
00000280: 0226 ff3d eb37 6dbe 3da4 63be f164 5ebd
00000290: a6e6 bf3c 4a86 f23d 0f13 cebd 8413 f9bd
000002a0: 7e48 543d 1041 11be 24b8 a5bd 606b ddbd
000002b0: 337c 9f3a e3a9 283e 5687 f5bc fa70 a43d
000002c0: 855f 0d3e 3bf8 1d3e 5f99 12bd 0ad3 b63d
000002d0: c775 983c eff7 de3d ff4e dbbd b870 1d3e
000002e0: 9155 81bd 699d 0fbe ff77 e2bd efe7 49bd
000002f0: 7e40 f1bb 98fd aebd 6c1b fc3d eadf c43d
00000300: c38c e4bb 30c3 6bbe a0b1 153e f203 79be
00000310: eb46 0abe 0328 96bd 27f3 03be 85e0 cdbd
00000320: 68bc 3ebe 9ca1 953d f361 12bc 6a25 01be
00000330: 79bf 26be 648c 6abe 69ef d4bd 9bfc 82bd
00000340: 59aa 11be 0966 92be dd70 d83d 0c9f 8abe
00000350: 2c09 6b3b 431d 12be 3c5d a0be 2f49 69bd
00000360: 8ef3 1bbe 378a 103e d672 1e3e 1937 3dbe
00000370: 37ab c03d cc71 8bbe 81c6 46bd 914f bdbd
00000380: cb26 9abc d471 57be ac4d b2bd a57d ab3c
00000390: 8f8b 2bbe 1dd2 53bc 27f6 24be 0b3e c03d
000003a0: be58 8e3d 6867 9e3c d9a7 f9bd c7c3 3bbe
000003b0: 2cef 5fbe 744d 4dbe dd42 8fbd a973 2e3e
000003c0: 2605 debc 5249 0abe 858d 5abe bad0 0fbe
000003d0: fac8 95be 0485 8c3c 7559 b13d 55c9 243e
000003e0: 0db3 6dbe f992 a23c ae51 1abc c25d e93d
000003f0: b4b2 ab3a 1de6 913b 1fe3 0f3e 570f d13d
-0.24537227 -0.26907542 -0.074677676 -0.107132375 0.1371805 0.13346179 -0.32568845 0.043588944
0.09691348 -0.015521457 -0.07703464 0.049689945 -0.2024581 -0.23814817 0.14754526 -0.19844699
-0.01969246 0.09976607 0.13299005 0.09947502 0.2041288 -0.1051568 -0.08158325 -0.09610696
-0.24493058 0.021238035 -0.1147975 0.200158 -0.082442105 -0.2685564 -0.07075995 -0.17265229
-0.09491619 0.19806446 0.04484462 0.17990573 -0.076722704 -0.24556556 -0.10204169 0.082396135
-0.112064235 -0.18944636 0.11325602 -0.084658824 -0.14928697 -0.09875947 -0.18568675 0.10057352
0.02309703 0.08963157 -0.093248054 0.09127275 -0.007770883 0.026439685 0.10114214 -0.07319147
-0.22379252 -0.1519717 0.16831495 -0.03494594 -0.25894868 -0.11175302 -0.13114041 -0.2692233
-0.26743945 0.102796555 -0.12221229 -0.23799537 -0.10743823 0.15595394 0.020411279 -0.2357074
-0.18242031 0.06814429 -0.011975422 0.046415105 0.024648692 0.04756678 0.05984564 -0.15997452
-0.21627374 0.14576808 -0.16940445 -0.0031528287 -0.26344156 0.06486102 -0.24594651 0.004447007
-0.1949279 0.10090628 -0.18692023 -0.09012737 -0.20156766 0.09429458 0.0057689473 0.15294406
-0.09462863 -0.31000078 -0.25825414 0.009391583 0.17516106 -0.22732368 -0.1151755 -0.116338536
0.049303595 0.19263265 -0.23764235 -0.036893073 0.07145635 -0.016498085 -0.10265076 -0.18385933
0.118745744 0.09068632 -0.28060284 0.025637798 -0.24883322 -0.1710122 0.022998894 0.05025693
0.16074324 -0.25731775 -0.1999523 0.12548664 -0.26550236 -0.13048919 -0.02259401 0.007814971
0.06756292 0.047816202 -0.060848698 -0.13655087 -0.21204461 0.021402143 -0.0026235136 -0.03325161
0.18984985 0.1261288 -0.09218397 -0.24110745 -0.030249692 -0.20967518 -0.22652729 0.08940756
0.018562471 0.09886066 -0.19586597 0.010599398 -0.039055023 -0.23256122 -0.14593841 0.1270689
-0.050821442 0.14497304 -0.18875349 -0.07257296 0.086051926 -0.14318703 -0.19156085 0.000489039
0.12458421 -0.23165862 -0.2223062 -0.054295484 0.023425411 0.1184202 -0.10062229 -0.121619254
0.051826946 -0.14184976 -0.08091763 -0.10811496 0.0012167752 0.16471057 -0.02997176 0.08029361
0.13805969 0.15426724 -0.035790797 0.08926971 0.018610848 0.10887133 -0.10708427 0.1537503
-0.063151486 -0.14024891 -0.11058044 -0.049293455 -0.0073624244 -0.08544463 0.12309918 0.09613021
-0.006974788 -0.23023677 0.1461854 -0.24317911 -0.13503616 -0.073318504 -0.12885724 -0.10052589
-0.18626559 0.07306215 -0.008934486 -0.12611929 -0.16283979 -0.22905117 -0.10397226 -0.06395837
-0.14225139 -0.28593472 0.10568402 -0.27074468 0.003586362 -0.14268975 -0.31321132 -0.05695456
-0.15229627 0.14115225 0.15473494 -0.1847805 0.09407657 -0.27235258 -0.04852915 -0.09243692
-0.018817326 -0.21039516 -0.08706221 0.020933935 -0.16752456 -0.012928513 -0.16109525 0.09386834
0.0695052 0.019336417 -0.121902175 -0.18336402 -0.2186858 -0.20049077 -0.06995175 0.17036308
-0.027102064 -0.13504532 -0.21343048 -0.14044467 -0.29254895 0.01715327 0.08659641 0.16092427
-0.23212834 0.019845473 -0.009418888 0.11394836 0.0013099522 0.0044524805 0.14051484 0.10208004

conv.0.bias f4 [16]
00000000: bb71 b73d b587 363e ae36 3fbe 7d6f 40be
00000010: a562 e6bd 1d62 f93d cbed 7a3d 6b8f 2a3d
00000020: 180a d83d 4114 19be 2ce3 983d 616e 8fbd
00000030: 6fd3 64bd 61fe fa3d 6d00 17be a910 403e
0.08957239 0.17825206 -0.18673202 -0.1879253 -0.11249284 0.12176917 0.061261933 0.04164068
0.105488 -0.14949133 0.074652046 -0.07003475 -0.0558657 0.1225555 -0.14746256 0.18756355

conv.3.weight f4 [32, 16, 3, 3]
00000000: 4e6c 37bd 9e7c 20bd dfd9 fc3b a98d 983a
00000010: 5bc1 a5bd 0bb8 90bd 1814 803d 001d f9bc
00000020: 3586 ac3d c4f3 7e3c 70f9 4cba 94a5 c4bd
00000030: 3828 e3ba 4766 d0bd 16c3 c7bd b72a 0b3d
00000040: 672b 613b 1742 e13c a705 40bd 8f46 123d
00000050: 8853 80bd 4259 4339 5f1d a93d be7c eabc
00000060: 77b5 87bd afce a63d c3a3 523b 6b0c a3bd
00000070: e782 bbbd 9fe9 09be 7111 d43d 858c c2bb
00000080: a240 6d3d 6531 1f3d 17a9 24bd afd6 2eba
00000090: 9c9c c4bd 648d 5fba 2034 003d d69a ebbd
000000a0: 2e44 413d ac90 e73c 1b79 a7bc d313 603c
000000b0: b9c8 273d e4ec 233d b4c4 31bc b588 4ebd
000000c0: ffbd f2bd 2d43 2fbd 6d40 053d c27b 463c
000000d0: 6059 b0bd 3f10 0f3d c04c 0cbd b6cf e5bd
000000e0: 1ce8 673c bba3 93bd eea4 1a3c a731 74bc
000000f0: 478f 81bd 7eb4 243d c084 67bc 2ab1 bc3b
00000100: 4959 a9bb 25cf 6f3d 3ccd 85bc 1701 a13c
00000110: 91e4 b2bd 657f 913c a1d1 893c ba1f 8f3d
00000120: f58d 94bd f44f 14bc 9f40 51bd 0ff4 cf3c
00000130: 7d86 0ebb 9e3d 093d 90ae 85bd 3d03 8bbd
00000140: 5e9b 2b3d b3bb b0bd d2b3 6fbd 94aa a2bd
00000150: 2b81 49bc f33e 29bd 053a 343d 4a2a 793c
00000160: a573 a6bd 2ad1 4a3d 6bd8 47bd 6659 bdbd
00000170: 6b4b e93c 2a4c e9bd b02c b5bd 9172 d0bd
00000180: fdf0 ea3c e76c 9fbd 1522 2abc 984c c8bd
00000190: 5ed1 4eba 6b42 e7bd 06f0 c7bd ae11 3cbd
000001a0: 806d 8abc 29a6 ebbd badf e43c 789c 8f3c
000001b0: 42ed 583d 01c0 6d3c a817 bdbd 05b2 3b3d
000001c0: a72c 93bd 8de9 d2bd 9491 c0bb f786 ac3c
000001d0: 7d82 17bb 9092 92bc 9d48 bebd a59f 5e3d
000001e0: a231 e63c 2ec3 293d 354e 7dbc 4f15 c5bc
000001f0: 4c91 6abd f3d4 d43c ac2b 21bb 6990 61bc
00000200: 1274 18bd e52b 50bd 29d3 b63c eda3 b33c
00000210: 12f1 073c a320 c5bd 1193 d63c 3051 dabd
00000220: dc33 04bc 6031 683d 7a0d acbc cc48 dfbc
00000230: 821f b4bc 35b2 33bd d0bb e4bb 7320 94bd
00000240: b2d7 0f3d 7ffc 9abd 9364 35bc 9f1d 35bd
00000250: 22e8 5a3d 5736 d4bc 5523 a4bd 6b82 09bd
00000260: ce77 633c 103b f3bc 5f39 363d 2b58 0cbd
00000270: 4790 b3bd 81cf 503c 76dd 90bd 382e 62bd
00000280: 025c 96bc 796b 66bd 9273 83bb 6216 c4bd
00000290: a9e2 d13c d6e3 55bd 56ee afbb 897d 753c
000002a0: 14ce 92bd f6bc dcbd 9e1d 80bd a1f8 d2bd
000002b0: 9341 f03a 7d7b babd 17d5 93bd c0d1 26bd
000002c0: 9890 0abd 9f14 2fbd 9219 5fbd eafa 40bb
000002d0: 843a f13b e195 393d 8e32 793d e0fb b1bd
000002e0: 1605 c6bb 72a9 bb3a 1723 9e3c 5e29 323d
000002f0: 87ed 85bd ffba 40bd e0c6 99bd 99e2 6dbd
00000300: 9d14 2c3d 6f2c f53c 9e6d 89bd 135a 2bbd
00000310: 3ab3 d93c 64a0 913c 31f5 3ebc 0107 6f3d
00000320: 866e 2dbd 914a 9ebd 37db a1bd 0275 5cbd
00000330: 7efb 61bb a65c abbc 81aa a2bd 1376 b9bc
00000340: 872c ef3c 04a8 92bd 7025 95bd e93e 82bd
00000350: cc18 9bbd fef6 a6bc ebe6 a8bd 355f 62bd
00000360: c58f 7dbd b458 7d3d f553 623d d727 53bd
00000370: 3bab 0fbd 2ea6 7ebb a19e 93bd e59a 0ebe
00000380: af82 353d 0e93 4ebd 138b 723d 0583 383c
00000390: d5e2 45bc dff9 80bd 714e e6bb fb99 b8bb
000003a0: 6ec8 b93c 6f05 83bd 8c91 553d 6e04 b6bd
000003b0: 5df4 193d c7b1 b33b 8366 2abc a0fd 8eba
000003c0: 32c2 eabd aeac e1bd ff6e 90bd 4b8d 3b3c
000003d0: bcd1 403d 0676 8e3d eee0 113d d1ab 87bd
000003e0: a942 d63d 19fc 663c 3c73 413d 4f9d b8bd
000003f0: 20aa 483d b3a4 96bd 4b76 2dbd 6615 acbd
-0.04478102 -0.039181344 0.007716402 0.0011638898 -0.0809352 -0.070663534 0.062538326 -0.030409336
0.084240355 0.015561048 -0.00078191515 -0.09601894 -0.0017330712 -0.10175758 -0.097540066 0.033976283
0.0034358145 0.027497334 -0.04688039 0.03571182 -0.06265932 0.000186299 0.08257555 -0.028623935
-0.066264085 0.081448905 0.0032141067 -0.07961353 -0.09155827 -0.13468026 0.10354889 -0.0059371614
0.057922967 0.038865466 -0.04020032 -0.00066695636 -0.09600183 -0.0008527844 0.03129971 -0.11504142
0.04718416 0.028267227 -0.02044349 0.013676601 0.04096291 0.04002084 -0.01085012 -0.050423343
-0.11852645 -0.042788673 0.032532144 0.012114467 -0.08610797 0.034927603 -0.034252882 -0.11221258
0.01415446 -0.072089635 0.009438736 -0.014904416 -0.06326156 0.040211193 -0.014130771 0.0057584243
-0.0051681143 0.058547158 -0.016333215 0.01965384 -0.08735002 0.017760942 0.016823592 0.06988473
-0.07253639 -0.009052265 -0.051087018 0.02538493 -0.0021747642 0.03350603 -0.06527436 -0.06787727
0.041896217 -0.08629551 -0.0585211 -0.079426914 -0.012298862 -0.0413198 0.044000644 0.015207836
-0.08127526 0.04951588 -0.048790377 -0.09245567 0.028478345 -0.1139148 -0.08846414 -0.10178102
0.028679365 -0.07784443 -0.010384102 -0.09780234 -0.00078894745 -0.11291965 -0.09762578 -0.0459153
-0.016897917 -0.11506302 0.027938712 0.017530665 0.05296064 0.014511109 -0.09233028 0.04582407
-0.07186251 -0.102984525 -0.0058767293 0.02106045 -0.0023118549 -0.017892152 -0.09291194 0.054351468
0.028099839 0.041445903 -0.015460541 -0.024058012 -0.057267472 0.025980448 -0.002459268 -0.01376734
-0.03722007 -0.05082311 0.022317486 0.021928752 0.008297222 -0.096253656 0.026193174 -0.106600165
-0.008069005 0.056687713 -0.02100252 -0.027256392 -0.02198768 -0.043871123 -0.006980397 -0.07232752
0.035117812 -0.07567691 -0.011071342 -0.044217702 0.053444035 -0.025904818 -0.080145516 -0.033571642
0.013883544 -0.02969125 0.044488307 -0.03426377 -0.08767753 0.012744785 -0.0707349 -0.05521986
-0.01835442 -0.056254838 -0.00401158 -0.09574582 0.025620775 -0.052219234 -0.005368988 0.014983543
-0.071682125 -0.10778229 -0.06255649 -0.103013285 0.001833009 -0.09105585 -0.07218378 -0.040727377
-0.0338293 -0.042744275 -0.054467745 -0.0029446431 0.007361712 0.04530895 0.06083923 -0.086906195
-0.0060430868 0.0014317466 0.019303842 0.043496482 -0.06539445 -0.047053333 -0.075086355 -0.05807743
0.042011846 0.029928414 -0.06710361 -0.04183395 0.02657472 0.017776676 -0.011655138 0.05835629
-0.04234173 -0.07729066 -0.0790314 -0.053822525 -0.0034482176 -0.020918202 -0.07942677 -0.02263931
0.029196037 -0.07160953 -0.07282531 -0.063596554 -0.07573089 -0.020381447 -0.08247169 -0.055266578
-0.061904687 0.061852172 0.05525585 -0.051551666 -0.035075407 -0.0038856375 -0.072079904 -0.13926275
0.044314083 -0.05043321 0.059214663 0.011261706 -0.012078007 -0.06297659 -0.007028394 -0.0056335903
0.02267858 -0.06397521 0.052140757 -0.08887564 0.03758656 0.005483839 -0.010400417 -0.0010909326
-0.11462821 -0.11019264 -0.07052421 0.011447261 0.04707502 0.06956105 0.0356149 -0.06624568
0.10461933 0.014098191 0.047229037 -0.09014379 0.04899037 -0.07355633 -0.04234914 -0.08402519

conv.3.bias f4 [32]
00000000: 96dc fcbc f2f9 c03d e474 bc3c 5d54 883d
00000010: d775 28bc 0b8e d63c 339a 52bd 6446 20bc
00000020: ad05 14bd 9025 acbd f6e3 8d3a 4067 a3bd
00000030: db10 03bb 9a1a 453d 8f53 5abc 4f0c c83c
00000040: 42a8 79bd 6e05 e43c 8a0a a4bc fa51 b3bc
00000050: 73e4 11bd 1ef0 0e3d 2af1 9a3b 0e9f 43bd
00000060: 6eaf 51bb 0d59 b73c f6e1 11bd a24a 63bd
00000070: 6bd5 223d 6350 7cbd 2796 adbd de6c 2f3b
-0.030866902 0.09422673 0.023004957 0.06656716 -0.010282001 0.026190778 -0.051416587 -0.009782407
-0.036138225 -0.08405602 0.0010825384 -0.07978678 -0.001999906 0.048121072 -0.013325586 0.024419932
-0.06095148 0.02783462 -0.020024557 -0.021889675 -0.035618257 0.034896962 0.004728456 -0.04775911
-0.0031995433 0.02238133 -0.035615884 -0.055491097 0.039754312 -0.0616001 -0.08475905 0.002676777

fc.0.weight f4 [128, 128]
00000000: 695f 81bd c218 a93c 8b9c 2a3d 45c2 6bbd
00000010: 3a0e 9fba be22 53bd e6f2 dabc 87f9 b6bd
00000020: 4bed 88bb fd5c cdbb 31aa aabd fcca ea3c
00000030: a26d c8bd cdb5 eebc 3acd 15bd c01e a53b
00000040: d5ff 9c3c a436 ff3d 331c 5dbc 0d67 dabd
00000050: 0670 0b3d 4ab7 5ebd 2e6d 7cbd 3773 7b3d
00000060: 6ddc cc3c 8c2e 67bd 7ac8 82bd 5804 093d
00000070: f958 ea3c c9cf b53c 5628 973d 9742 a43d
00000080: 4869 da3c b325 823c 6162 8bbd 1130 3b3b
00000090: ef8d 99bd 1a6b c5bd 979e d63c 0da4 98bd
000000a0: 9a53 46bd 2e17 32bd 2127 cfbd de39 aabd
000000b0: cc92 3f3d 92bb babd d108 873c d5ee 8c3d
000000c0: e509 d0bd 2b01 4e3d d3f8 bebd 800e 483d
000000d0: 4ae6 7fbc 8778 65bd 2b36 b43c 1b7c 913b
000000e0: 721e c1bc 4d43 dcbc c9c7 9b3d c02b a83c
000000f0: 54d0 97bc 268d 70bd 2009 f9bc aad5 20bd
00000100: 0fcd af3d f075 64bd f19e a5bd 5741 093d
00000110: ee40 8c3b a0b2 b2bd 747d 0b3d eae4 663d
00000120: 475f a03d 30ac 00bd 7545 41bd 3215 a03d
00000130: 63b2 a33c 6869 923d a34b ef3c 1d3f 77bd
00000140: 2b80 463d e387 2fbc b393 68bd c526 91bd
00000150: a3b1 633d b792 ac3d 6273 97bd 1f5e 993d
00000160: 30ff d13c d4b8 99bd c26e 30bd 3a6f a6bc
00000170: c249 17bd e35c 133c 6d7f d83b fd8c 943c
00000180: 8c41 9a3d 5847 113d 12e5 1fbc 5dd2 493c
00000190: 3091 20bd a72d f4bc 08bc 8bbb 8267 8bbc
000001a0: 3d05 30bd 7b15 ae3c 5476 643d 4c70 8bbd
000001b0: 1aac 623d 93ff 5dba 2594 82bd a0a0 27bb
000001c0: 0c8a e33c fcea 01bc f603 633d 8e6e 583d
000001d0: 5a41 713d eff2 ba3d ace7 b23c 8c83 d6bc
000001e0: 1aa1 913d 7d57 803d 2583 983d 15ba 503d
000001f0: b504 69bc 5828 7e3d dca3 85bc 1e31 73bd
00000200: 644a ffbc 68d2 62bb 0282 603d 46c9 cb3c
00000210: 4735 f93b ab0a 263d dfd9 7a3c 429d 233d
00000220: 5330 99bd 6218 16bd 4c19 0dbd f0cd 72bd
00000230: 7a0e 9abd 1f04 783d 1e5b 003c 0896 7dbd
00000240: d145 1f3d 739b 7ebc d7aa b6bd 9943 22bd
00000250: ca1a fcbc e274 7e3a 5339 213d abc4 8ebd
00000260: 720c 003d 2853 92bc d8d5 c23c f0a6 7abd
00000270: ed7b 3ebd 18cf 85bd f6d5 c73c 1662 9f3d
00000280: 0b87 3c3d 532e 633c 7ad3 3ebd 6ec4 68bc
00000290: 740b 85bd de26 743d 820c c23c adb8 3ebd
000002a0: e122 36bd 1dee 703c d9e5 24bd e6c2 a13c
000002b0: 366f efbc 65fd 6dbc 71c3 66bb a2f5 913b
000002c0: 6269 a23d 770d 96bd d9bb 7a3c 629c af3d
000002d0: 9823 70bd 2b72 1cbb d3ab 22bd 6f04 c8bb
000002e0: 8de7 903c 33d6 83bd 4d2e 973d bbbb 04bd
000002f0: 0600 083d a325 923c a8ce be3c 9e56 173c
00000300: be4e 7c3d 8ff9 3bbd cb59 8bbd 47d2 8ebd
00000310: c2e4 7f3d e259 94bd a9ca 54bc b06f 94bc
00000320: 6253 453d 73b7 5bbd ff15 c4bb 4c3d 383c
00000330: 60a5 7a3d 738c 79bd adf4 103d d1e6 b93d
00000340: 7720 8bbc 4677 64bd 9e62 3ebd bdbb 553d
00000350: 6028 1ebd a267 313d 6748 873d fdec 22bc
00000360: 8f49 8cbd 4fdc 85bd 31a3 2f3d 35f9 1f3d
00000370: e048 8b3d da7c 72bc ca12 893d 978b 86bd
00000380: 3229 7f3d 724c fbbc 821c 393d f245 833d
00000390: a81d 5cbc 0f85 10bc 90a1 bbbc a36e 203d
000003a0: 764b 933d 7143 1c3d cc11 0cbd 6770 8abd
000003b0: 9ef8 3e3d 1ea1 93bd 02bb 5e3d 560c 35bd
000003c0: 515e 173d b7a1 fbbc f062 0e3d 903a c03d
000003d0: 25dc 2e3d 9997 a43d ad1e 993b d6d5 ba3b
000003e0: 4224 a9bc 9666 6fbd fcea 32bd b1a6 a1bc
000003f0: 67f6 73bd b044 6c3c d37b 603d e3e4 50ba
-0.06317026 0.020641688 0.041653197 -0.057558317 -0.0012134977 -0.051546805 -0.026727151 -0.08934312
-0.004178678 -0.0062671886 -0.08333243 0.028661244 -0.09786536 -0.029139424 -0.036572672 0.005039066
0.019164959 0.12461594 -0.013495493 -0.106641866 0.03404238 -0.054374017 -0.06162756 0.061389174
0.025007451 -0.056440875 -0.06385894 0.03345141 0.028606879 0.022193806 0.0738074 0.080205135
0.02666153 0.015887117 -0.06805874 0.0028562585 -0.07497775 -0.096395686 0.026198668 -0.07453165
-0.048419572 -0.043479137 -0.10114885 -0.083118185 0.046770856 -0.091178074 0.016483696 0.06881491
-0.10158137 0.050294083 -0.09324803 0.048841953 -0.01561887 -0.056023147 0.021998486 0.0044398434
-0.023574088 -0.02688756 0.07606465 0.020528674 -0.018531956 -0.05872836 -0.030399859 -0.039266266
0.08584034 -0.055776536 -0.08086956 0.03350958 0.004280201 -0.08725476 0.03405519 0.056370653
0.07830673 -0.03141421 -0.04718538 0.07816543 0.019982522 0.07149011 0.029210871 -0.060362924
0.048462074 -0.01071355 -0.056781482 -0.07087473 0.05558933 0.08426421 -0.073950544 0.07488655
0.025634378 -0.07505956 -0.043074377 -0.020316709 -0.036935575 0.008994314 0.006606987 0.018133635
0.07532033 0.03546843 -0.009759204 0.012318221 -0.03920096 -0.029806925 -0.0042643584 -0.01701713
-0.042973746 0.021250477 0.05577691 -0.06808528 0.05533991 -0.00084685645 -0.063759126 -0.0025577918
0.027775787 -0.00792956 0.0554237 0.05283981 0.058900215 0.09128367 0.021838985 -0.026185773
0.07110806 0.06266687 0.07446889 0.05095871 -0.014222314 0.062050194 -0.016313486 -0.059373014
-0.031163402 -0.0034610275 0.054811485 0.024876248 0.007605228 0.040537518 0.015310734 0.039944895
-0.0747992 -0.036644347 -0.034447953 -0.05927843 -0.075222924 0.060550805 0.007834224 -0.06191066
0.03888494 -0.015539992 -0.08919304 -0.039615247 -0.030774493 0.0009706748 0.03936131 -0.06971105
0.03126187 -0.017861918 0.02378361 -0.06119436 -0.046504904 -0.065336406 0.024394017 0.0778238
0.046027225 0.013866025 -0.0465884 -0.014206989 -0.06496325 0.05960738 0.023687605 -0.04656284
-0.044466857 0.014705208 -0.040258262 0.019746255 -0.029227834 -0.014525746 -0.0035211707 0.0044543305
0.079302564 -0.07326787 0.015303575 0.085747495 -0.058627695 -0.002387176 -0.039714646 -0.006104044
0.017688537 -0.0643734 0.07381878 -0.032405596 0.033203147 0.017840212 0.0232919 0.00923696
0.061598532 -0.045892294 -0.06804236 -0.06973701 0.06247402 -0.07243706 -0.012987771 -0.018119663
0.048175223 -0.053641748 -0.0059840675 0.011245083 0.06119287 -0.06092496 0.03538959 0.09077228
-0.016983254 -0.05577781 -0.046480767 0.052180994 -0.038612723 0.043311723 0.066056065 -0.009944198
-0.06849968 -0.06536161 0.04288024 0.03905602 0.06801009 -0.014800275 0.06693037 -0.065695934
0.062295146 -0.0306761 0.045193203 0.064098254 -0.013434805 -0.008820786 -0.022904187 0.03916801
0.071921274 0.038150255 -0.03419666 -0.0675972 0.04662382 -0.07208465 0.054377563 -0.044201218
0.03695518 -0.03071676 0.034762323 0.0938617 0.042690415 0.080367275 0.0046728463 0.0057017608
-0.020647172 -0.058447443 -0.04368113 -0.019732805 -0.05956116 0.014420673 0.054805588 -0.0007968677

fc.0.bias f4 [128]
00000000: 5bbb a5bd 0b6f d1bd 7877 9cbb 1b0a 93bd
00000010: 5c0a 9c3c c0f6 cb3b fc27 cc3b cef1 f8bd
00000020: e71f 4e3c 0e5d 80bc 1b0d 79bd 9d3c d7bd
00000030: a29c 803c 8dcd f1bd 0b7a 89bd ba22 d8bc
00000040: 98fd b8bd ac70 e7bd e95c c93c c37b 86bd
00000050: 09a7 843c 785c 1f3c 3466 8cbd 045b 0abd
00000060: 98c5 3cbd 3e86 8bbd 9dfa b9bd fd97 97bd
00000070: 15aa 20bd 81db d73c 6af3 2cbb 458f 43bc
00000080: 7972 b1bb 990d 97bc 1c37 57bd 0e13 9ebd
00000090: 23b9 f83b 4a7d b6bc 06c0 81bd 62e9 513c
000000a0: 0f95 99bd 6738 fcbd 99be a23b c2bb 10bc
000000b0: 1e70 e2bd f861 b9bd e934 f5ba 0237 d9bd
000000c0: 4c07 afbd 90c4 58bd b2b8 9fbc a10e 1b3c
000000d0: c388 ddbd cd76 93bc 8d4d 76bc a5d1 dbbd
000000e0: 7196 0fbd 693b 4fbd 8c89 87bd 184f 25bd
000000f0: 236a 97bd 28a7 d3bd 4e80 23bd 7966 47ba
00000100: aabc c9bb c286 9ebd 64f5 90bc 7980 55bd
00000110: 6a94 ebbd d0fe 993b f6ac 9f3b f5a8 213d
00000120: 4e2b b7bb 3abc 183d 84a7 703b fe45 28bc
00000130: 46dd 083d 31a1 53bc 444c 753c 96de 1d3d
00000140: fb0a 2abd 5255 5dbb 6ad9 d8bc feaa f5bd
00000150: 7982 82bd d45e f2bc ae67 ddbd 4690 babd
00000160: d0f1 9cbc c265 c9bd 1a15 6ebd 4dd0 033c
00000170: 0851 1abe d041 a6bd 8e88 5bbd ee5d a6bc
00000180: a26c dd3b 9c82 adbd c027 13bb f236 cbbd
00000190: 38d8 62bd 7b4c d0bd e22b 13bc 833f 853c
000001a0: f323 81bd b467 993c 6579 d0bd 29cc 14bc
000001b0: 35f0 a7bd 5a6d 5ebd 79fa 6cbb 063a d2bd
000001c0: 2942 703c 8036 bdbd 5175 96bc d094 98bd
000001d0: d13d e8bc 373d f03c f133 7abd 3d4c 06bd
000001e0: 7803 323c 2b22 a8bd 08d2 28bc 7c2d e7bc
000001f0: 2b46 d5bd 1a90 57bd a1d2 f13b c689 3dbd
-0.08092376 -0.10226258 -0.004774984 -0.07179662 0.019047908 0.0062244833 0.0062303524 -0.121554956
0.012580848 -0.015669372 -0.060803514 -0.10509608 0.015699688 -0.11806784 -0.06712731 -0.026383746
-0.09032744 -0.11300787 0.024580436 -0.065665744 0.01619293 0.009726636 -0.06855431 -0.033778206
-0.046086878 -0.06812714 -0.09081004 -0.07402036 -0.039224703 0.026349785 -0.0026390203 -0.011936014
-0.0054152575 -0.018439101 -0.05254279 -0.07718478 0.0075904294 -0.02227654 -0.06335454 0.01281199
-0.07499134 -0.123154454 0.0049665687 -0.008833827 -0.11056541 -0.09051889 -0.0018707785 -0.10606195
-0.08546314 -0.05292183 -0.01949725 0.009463937 -0.10817101 -0.018000985 -0.015033138 -0.10733346
-0.03505558 -0.050593767 -0.06618032 -0.040358633 -0.07393291 -0.10334617 -0.039917283 -0.0007606517
-0.0061565237 -0.07740547 -0.017695136 -0.052124474 -0.11502917 0.0046995655 0.0048729135 0.03946777
-0.005589879 0.03728888 0.003672094 -0.010270594 0.033414148 -0.012916849 0.014971796 0.038542353
-0.041514378 -0.0033772779 -0.026470859 -0.11995505 -0.06372542 -0.029586233 -0.10810791 -0.09109549
-0.019158274 -0.09833862 -0.058125593 0.008045268 -0.15069973 -0.081180215 -0.053597026 -0.020308461
0.006757335 -0.084721774 -0.0022454113 -0.09922589 -0.055381984 -0.101708375 -0.00898263 0.016265636
-0.06305685 0.018726207 -0.10179404 -0.009081879 -0.08200113 -0.054303505 -0.0036160036 -0.10264973
0.014664211 -0.09238911 -0.018366488 -0.07450259 -0.028349789 0.029326065 -0.06108469 -0.03278755
0.010865085 -0.08209642 -0.010303982 -0.02821993 -0.10413774 -0.05262766 0.0073798453 -0.04627397

fc.2.weight f4 [64, 128]
00000000: 75b8 a4bc ae1c 08bd 4f2a 5abd d7f5 69ba
00000010: 512a b8bc 087b 19bd e808 3ebd 1efa 903d
00000020: 2f90 193d 4e47 77bc c51b 183d 2031 713d
00000030: dcc0 103d 46fd 5dbd b0df 853c 80c2 fc3b
00000040: 3e68 9b38 2a0b 53bd cd09 923d b457 db3c
00000050: ed59 7abd 70dd 80bd 2238 9fbd 1998 45bc
00000060: 4c8a b3bd 33de b5bd fa93 8f3d c1af 8c3c
00000070: 454c 893d 35de dcbc beaf 5dbd 02ff 26bd
00000080: 93f8 5f3c ca38 13bc 0607 693d 478d 73bd
00000090: ec65 0f3d e37c 853d 4967 7cbd 297f 8d3d
000000a0: 3c56 1bbd defa 8ebd eac9 d5bc 0557 51bd
000000b0: 37b0 8dbd 7832 673c b641 b8bd 01cf 543d
000000c0: 8dcc 963d 9c4c cdbc 3a51 8cbd 030e a4bd
000000d0: 3701 adbd 6c27 9cbc c90a cbbc 6aad 9a3d
000000e0: 1084 3b3d c8a5 ea3c 1701 4c3d 900b 5ebc
000000f0: 60ab 943d 3d20 053d 1fcd a0bd 3a77 9f3d
00000100: 4ae4 4c3d 56d4 86bd 9599 82bd bcb6 7e3d
00000110: ab71 bdbd da98 7bbd 064e babc 9b6c b8bd
00000120: 5550 823c 0ca7 95bc 197d 5f3d 7840 2d3c
00000130: 9e1d 24bd ec22 913c d56a 63bd fa00 363d
00000140: 40df c73c b9b2 143d 5f31 a33c 2dec 64bc
00000150: 5bd5 07bd aa15 7d3d 344e 8cbc a158 98bc
00000160: 6f25 b73d 951b 30bd b106 883d 9e6a 1dbd
00000170: 2c10 a13a 82fa b7bd 0fa7 8abc d94f 943b
00000180: 61a9 9a3d e85a 62bc 90e3 f63c acf5 c33c
00000190: 2c4e e0bc 9973 bebd 8fb5 a6bd 4915 34bd
000001a0: 739d 36bd 9d8e a4bd 63e8 cfbc 313a 5dbd
000001b0: 35c4 043d b0a5 a0bd 7222 b3bd 3865 1bbd
000001c0: 432b a3bc ae89 acbd 158d 8abb 8e4c e1bc
000001d0: ba94 453d 1be4 acbc 62e4 323d f356 81bd
000001e0: 4563 903d ea01 8e3d bb1a 2cbd 031e abbd
000001f0: 53f8 3b3d ac4d 793c 5378 bf3c 1ad9 b93c
00000200: fa55 adbd d30c 243d 40af 37bd 1202 9b3d
00000210: ce19 31bd 0c0a 23bd fa48 463d c96e c83b
00000220: 665a d6bd 5750 9fbc 7bc7 0bbe aa0c babd
00000230: 01af 3abd 961d 5fbd 0e17 bdbc 4fb1 a7bd
00000240: 73f4 8f3d f0bf b53c f249 493d e920 093d
00000250: e061 bbbc 8de1 fdbc 883b 82bc 4398 90bd
00000260: e786 7fbd 7fb7 3f3b 773b 7d3c 12f9 843b
00000270: 1dd7 033d 3c7e 03bd e1ae 313d ba28 93bd
00000280: fe17 9fbd 84f7 01be 6ba8 5c3c 3062 4d3d
00000290: e731 0cbd 338e edbd 59e7 b9bd 3ff8 713d
000002a0: 846e cb3c 0190 9abc 9faa 413c 5c3c 71bc
000002b0: 78ef a4bb d750 0dbd a0c1 52bd 2fff 93bd
000002c0: ac29 673d 1747 b9bd 206d a83d 855d efbb
000002d0: 85c7 a83c 67bc 27bd 3b79 27bd 4d6c 863d
000002e0: efe2 11be c645 66bd 1a31 343c a16d 1dbd
000002f0: e121 37bd 64d4 8dbd 46e9 c43c 77de 21bd
00000300: 2a68 27bd db1a 15bd e2dd 28bd 51cb 53bd
00000310: 271e fabc adad 62bd 9e82 08bc d50e 2c3b
00000320: 0cf0 35bd 2d3d b1bb 3984 523d fe96 81bd
00000330: c7c5 67bd b4a7 dfba c80d 8e3d d2e9 78bc
00000340: f406 36bd 0054 21bd 88b8 a9bd ad1c 9abd
00000350: 895f cf3d 344a 8fbd 700d 4cbd ec4d a0bd
00000360: b5e0 67bd b4ca 79bd 5392 b8bd b1bc 903d
00000370: 2503 84bd 66d7 55bd b9b4 953c 0c8b bfbd
00000380: dc7e 3fbd 9a4d 65bd 51e3 42bd 02be 6abc
00000390: 1327 9cbb 5456 6c3d 2464 00bd 4926 59bc
000003a0: 64c3 59bd f30a 6dbd ae3b b1bd 4fef acbd
000003b0: 7ffb 48bd 069d f63c c77a dbbc 21d8 99bd
000003c0: a97d 71bc 4b39 b0bd e7e2 a5bc 04c0 a73d
000003d0: 2fb0 183d 5987 a7bd fbf2 913d 66e8 11bd
000003e0: e0db b7bd 4593 493d 03bd b2bd 2609 20bd
000003f0: 5578 6abd 62db 0abc 9cb9 ecbd 6ce0 5ebc
-0.020107487 -0.033230476 -0.053263005 -0.00089248776 -0.022481116 -0.037470847 -0.046395212 0.07078956
0.03749102 -0.015092684 0.037135858 0.05888474 0.035340175 -0.05419662 0.016342014 0.007713616
7.4103926e-05 -0.05152432 0.071307756 0.026775219 -0.061120916 -0.06292236 -0.07774378 -0.012060189
-0.087666124 -0.08880272 0.07010646 0.01717365 0.067040004 -0.026961425 -0.05412268 -0.04077054
0.013670105 -0.008985708 0.056891464 -0.059460904 0.03500931 0.06517961 -0.061621938 0.069090195
-0.037924036 -0.06981443 -0.026097257 -0.05110838 -0.06918376 0.014111154 -0.08996908 0.051955227
0.07363234 -0.025060944 -0.0685143 -0.08010485 -0.08447497 -0.019061767 -0.024785416 0.07552607
0.04578024 0.028643504 0.049805727 -0.013552561 0.0725925 0.032501448 -0.07851624 0.077864125
0.0500224 -0.065834686 -0.0637695 0.062185988 -0.09250196 -0.061425067 -0.022742283 -0.0900509
0.015907446 -0.01826813 0.05456266 0.010574453 -0.040067308 0.017716847 -0.055521805 0.044434525
0.024398446 0.036303256 0.019921003 -0.013972324 -0.033162456 0.06178824 -0.017127134 -0.018596949
0.08942687 -0.042995054 0.06641901 -0.038431756 0.0012288145 -0.089833274 -0.016925363 0.00452612
0.07551838 -0.013815619 0.030137807 0.023920856 -0.027381025 -0.09299392 -0.08140098 -0.04396561
-0.04458375 -0.08035014 -0.025379365 -0.054010574 0.03241368 -0.078441024 -0.08746804 -0.037938327
-0.01991809 -0.08424698 -0.004228244 -0.027502324 0.04823754 -0.021104863 0.043674834 -0.06315412
0.07050184 0.06933959 -0.04201768 -0.08355334 0.045891117 0.015216272 0.023372805 0.02268653
-0.08463664 0.040051293 -0.044844866 0.07568754 -0.0432375 -0.039804503 0.04840944 0.0061167222
-0.10466461 -0.019447489 -0.13650315 -0.09084447 -0.045577053 -0.054471575 -0.023082282 -0.08188116
0.07029047 0.02218625 0.049142785 0.03347865 -0.022873819 -0.03099134 -0.015897527 -0.070602916
-0.062384512 0.002925366 0.015456072 0.004058012 0.03218757 -0.03210281 0.04337967 -0.07185502
-0.07768248 -0.12692076 0.013467888 0.050142467 -0.034227278 -0.11599388 -0.09077329 0.059074637
0.024832971 -0.018867495 0.011820464 -0.014723863 -0.0050334297 -0.034500923 -0.051454186 -0.07226407
0.056436226 -0.090467624 0.08223939 -0.0073048496 0.02060295 -0.04095116 -0.0408871 0.065636255
-0.14246725 -0.056218885 0.010998035 -0.03843463 -0.044710044 -0.06925276 0.024037015 -0.0395188
-0.040870823 -0.036402564 -0.04122723 -0.05170757 -0.030531956 -0.05534141 -0.008331923 0.0026253958
-0.04441838 -0.005408904 0.05139563 -0.063276276 -0.0565851 -0.0017063529 0.06936222 -0.015192466
-0.044440225 -0.03938675 -0.0828715 -0.07525001 0.10125644 -0.06996575 -0.049817502 -0.078273624
-0.05661078 -0.06098433 -0.09012284 0.0706724 -0.06445912 -0.052207373 0.018274652 -0.09352693
-0.046751842 -0.05598221 -0.047580067 -0.014327528 -0.0047654 0.057699516 -0.0313455 -0.013253757
-0.053164855 -0.05787177 -0.08653961 -0.08444082 -0.04906797 0.030104171 -0.026791943 -0.075119264
-0.014739432 -0.08604678 -0.020249797 0.08190921 0.037277397 -0.081801124 0.07126423 -0.035622023
-0.08977485 0.049212713 -0.087274574 -0.039071225 -0.057243664 -0.0084751565 -0.1155884 -0.013603311

fc.2.bias f4 [64]
00000000: 4ede acbc 6897 95bb f22e e2bb acb9 8cbc
00000010: 43cd 45bc df67 9bbc 50c0 3cbc 94cc 9e3d
00000020: 924a 7f3c 1b6f 713d 6946 e8bc 0da8 22bd
00000030: 43c5 64bd 46aa 82bc f70d ddbc 25a3 f63d
00000040: 7f20 293e 84a6 b6bd 9791 793d 2ba2 513d
00000050: 4dd1 9dbd 8d46 2dbb 88c4 bdbd fb08 68bc
00000060: e58f e0bc 863b dd3d 5c2f 6fbd 846c 32bd
00000070: f313 95bc ac39 a13d d083 0ebd 1fab 78bc
00000080: d073 913d b6cb 9bba 2362 09bd ece8 ff3b
00000090: 7603 4d3a e46b 65bd ca75 35bd c341 86bc
000000a0: 5978 293e 76a8 02bd a2ea 1fbd cc47 5d3d
000000b0: e8b6 c5bd d18a dcbc 193f 61bc 6285 0abd
000000c0: a47e d4bc 1fca 0dbd edf2 173e 7968 1bbd
000000d0: f477 d23c 291f 0ebd c495 1cbd 1230 fabc
000000e0: d091 9b3b d8d1 b53d 54a9 9ebd bb47 153e
000000f0: 8d30 1b3e 85d9 8abd b2c6 79bd 4280 5ebd
-0.021102097 -0.004565168 -0.006902569 -0.017178379 -0.012072864 -0.018970428 -0.01152046 0.07753864
0.015581744 0.05894385 -0.028353887 -0.039711047 -0.055852186 -0.015950333 -0.026984198 0.12042836
0.16516303 -0.08918479 0.06092986 0.051180046 -0.077059366 -0.0026439757 -0.09266001 -0.014162297
-0.027412364 0.10802369 -0.058394775 -0.04356052 -0.01819799 0.07872328 -0.034793675 -0.015177517
0.071021676 -0.0011886272 -0.033540856 0.007809749 0.0007820645 -0.056011096 -0.044301786 -0.01638878
0.16549815 -0.031898938 -0.039042123 0.05402355 -0.09654027 -0.026921662 -0.013747954 -0.03381861
-0.025939293 -0.034616586 0.14838763 -0.03794143 0.025691964 -0.034697685 -0.038228765 -0.0305405
0.004747607 0.08877915 -0.077471405 0.14578144 0.1515524 -0.0677977 -0.060980506 -0.054321535

fc.4.weight f4 [1, 64]
00000000: c1ff e2ba 53bd 85b9 6205 f73a 6abc 01bd
00000010: a7fa 743c 713c a83c 4b6f d2bd 6e2e 803d
00000020: 2e24 223c dd3e 963d 6dc5 adbc c0be a4bd
00000030: 7240 11bd 5aa9 a3bd b540 76bd 7329 f73d
00000040: b4ed 163e 6155 943c 7926 943d 4e37 0e3d
00000050: dff5 8cbd b3be 573b 773e 9d3d 9c26 40bd
00000060: e14e 92bd 1dad ef3d 2700 293a 8a4f d8bd
00000070: b6b4 a9bd ddf8 3e3d d49c 763d d545 02bd
00000080: 8b9f 073d 90ef f13a a61a 87bc 1b31 013c
00000090: 0716 c239 d278 9ebd ff6a 8b3d f9c5 b8bd
000000a0: 8a33 1a3e 09ef 973d 9472 15bd 5550 e33c
000000b0: c04d 8b3d 1087 b83c df5d 273d 2106 d6bb
000000c0: a649 75bb be06 c0bd 0d53 163e 721f 35bd
000000d0: d96d 493d 2150 debd 4fe6 89bd 93a1 b03c
000000e0: 1a39 573c 94c1 873d c603 17bd d43f d03d
000000f0: d812 f93d 65a6 e63b 9e2b 83bd 37b7 773d
-0.0017318652 -0.00025508794 0.0018846209 -0.031673826 0.014952338 0.020536633 -0.10275134 0.06258856
0.009896321 0.07336209 -0.021212304 -0.08044195 -0.03546185 -0.079912856 -0.060120303 0.12068453
0.14739114 0.018107118 0.072339006 0.03472071 -0.06882834 0.0032920062 0.0767793 -0.04691182
-0.07143951 0.117029406 0.0006446861 -0.10562046 -0.08286421 0.046624053 0.060208157 -0.03180488
0.033111136 0.0018458236 -0.0164922 0.007885243 0.00037018975 -0.077378884 0.06807517 -0.09022135
0.15058723 0.07418639 -0.036486223 0.027748266 0.06801939 0.02252534 0.040861007 -0.0065314923
-0.003742793 -0.09376286 0.14680119 -0.04421944 0.049177025 -0.10855127 -0.06733381 0.02156142
0.013136173 0.06628719 -0.036868833 0.10168424 0.12161797 0.0070388787 -0.06404804 0.06047746

exp_avg f4 [16, 2, 3, 3]
00000000: a717 18b4 f84c c833 f299 0335 3b9d 0034
00000010: e1a3 0db5 9a83 a5b5 8cbb 04b3 daf7 fbb5
00000020: 979e 1ab5 974f 1c33 4a9d 90b3 00af 08b3
00000030: c4e3 20b4 77ce b6b4 be67 86b4 bba4 6eb4
00000040: e880 dab4 a783 b8b4 da5c fdb5 5c5b 0bb6
00000050: df7b b0b5 e541 1bb5 8d33 8bb5 c0d5 9fb5
00000060: a301 d333 98af 1c34 b718 f5b4 e17e 15b4
00000070: 025e 3bb4 b39e 6133 1f4a 3cb4 6e76 55b4
00000080: 7688 3533 c1d7 0fb3 f668 51b2 2f7a 2c34
00000090: 7893 2ab3 4a94 9ab3 be00 13b3 5f45 88b5
000000a0: 963a b1b4 07b9 3db4 d4eb 0fb5 8344 a1b4
000000b0: 6f16 8db4 ac42 30b1 ac42 30b1 ed1d 35b3
000000c0: 7772 28b4 7772 28b4 094a 6cb4 312c 25b4
000000d0: 312c 25b4 f8a5 67b4 da74 8b33 c31a 5ab3
000000e0: ed72 20b4 fee5 7ab3 571a 9a34 94dd c4b3
000000f0: 56f3 d232 706a 1332 d021 41b3 0fa6 8b33
00000100: 7238 8533 11a6 9832 80d2 4333 ef33 4a33
00000110: cadd 6632 a5ea 00b3 6c12 f5b2 aebc efb2
00000120: f7de 2cb4 6a84 4eb5 861d 3834 8735 b535
00000130: c7bd 2bb5 4b5b 6a35 9b72 51b5 359d c0b3
00000140: e9d7 0fb3 3af5 5ab3 c2c9 c6b3 ac03 52b3
00000150: a3c2 e5b2 cdbf 92b3 d502 e3b1 4d58 28b4
00000160: c115 55b4 cff8 1db4 2811 c2b4 5cd3 4433
00000170: 8c61 16b5 894d 0e34 f22b c0b5 e562 83b5
00000180: 2a4f 2132 583f 8432 714a f3b2 7bc6 81b4
00000190: a702 25b4 5885 e7b3 816e 88b4 c1ab 47b4
000001a0: f978 21b4 ea3e acb3 ad82 f4b0 ac74 a833
000001b0: 0a6d 0e35 84d3 20b5 b158 f8b3 df21 11b5
000001c0: 3a30 e934 4da6 bcb4 db08 0633 6c25 bf34
000001d0: 8340 0734 9fce f2b3 008e 17b4 9e29 eeb3
000001e0: 4391 1333 c349 0ab2 ffcd 12b2 af4c 5433
000001f0: 6a91 0d32 3603 4cb2 fa95 a6b4 1d92 e534
00000200: 2da7 cdb5 7fc5 e034 e085 2b34 402c 82b3
00000210: 068c be31 f9e3 24b5 74b7 71b4 e5f4 0cb4
00000220: 0614 a9b3 93cb bcb3 e5f4 0cb4 0714 a9b3
00000230: 95cb bcb3 37d7 f5b3 e14e c6b3 407a c9b3
00000240: 4dd6 c4b3 784b 8cb5 e6f7 58b4 14e3 1fb3
00000250: f178 61b5 0535 afb3 5cb1 afb4 e7cb bab5
00000260: d13d 0235 02d0 77b4 a499 4bb4 41e1 cbb4
00000270: 6545 86b4 4405 6ab4 f967 e3b4 1f13 5ab4
00000280: 0b77 2fb4 62f5 c4b4 9c17 08b4 c07a bdb4
00000290: 1ab6 ce34 ceb0 9c35 f9a7 2a35 5868 b333
000002a0: 76aa 42b4 9ca1 1535 47ab 3db5 e6cc 2fb3
000002b0: f0e2 be33 2b59 2734 99e9 3633 7b1e 3934
000002c0: 3c99 7c34 e727 6db2 271f 7733 49b9 0734
000002d0: 193a 7db5 5184 1835 e07b 36b5 a955 61b6
000002e0: bf34 64b5 4c23 9db5 aef9 9ab4 24ae f1b3
000002f0: 9173 9fb5 e8ee 0ab3 5795 5cb4 bd40 a3b4
00000300: 98d2 20b4 1a56 adb4 e968 e0b4 dc06 8ab4
00000310: ef9c ceb4 f633 edb4 6e37 d0b2 f593 9932
00000320: 6e34 f2b2 0f27 1635 1454 b0b3 c2ac 1132
00000330: a859 beb2 5727 8db1 c8ae 70b1 114e 1d32
00000340: 114e 1d32 c177 ae32 fea2 2e32 fea2 2e32
00000350: 3722 b732 52a7 8a30 52a7 8a30 52a7 8a30
00000360: 8d94 ebb4 631e deb5 f1e7 00b6 a7e3 b1b1
00000370: 33a1 a3b5 7f58 e9b4 0990 09b4 b892 85b4
00000380: 6d08 ffb4 6fd1 9ab4 678e 6fb4 6af5 4db4
00000390: c36b 95b4 1c47 56b4 fb32 18b4 0126 77b4
000003a0: 1623 fcb3 9a9b b5b3 9c81 3a35 6ef8 88b4
000003b0: 34b9 b2b4 67a4 6e34 442e be34 856f 2735
000003c0: b01d 9633 c0b9 3eb3 b7a3 03b4 6c45 0634
000003d0: 42c4 6a33 42c4 6a33 d5fd 6233 cfff 9632
000003e0: 0a7d 5933 b79d c9b2 9551 3db3 f451 3db2
000003f0: f1f4 6ab4 fc35 6034 5161 9f34 ef82 8cb5
-1.4164708e-07 9.327226e-08 4.902532e-07 1.1978129e-07 -5.276507e-07 -1.2331759e-06 -3.0904218e-08 -1.8773092e-06
-5.760025e-07 3.6393967e-08 -6.734133e-08 -3.182413e-08 -1.4984022e-07 -3.4050365e-07 -2.5034927e-07 -2.2225406e-07
-4.0699456e-07 -3.436846e-07 -1.8876992e-06 -2.0765792e-06 -1.3149073e-06 -5.783789e-07 -1.037131e-06 -1.1908633e-06
9.825751e-08 1.4592513e-07 -4.5652789e-07 -1.3922865e-07 -1.7449932e-07 5.253123e-08 -1.753583e-07 -1.9880255e-07
4.2266457e-08 -3.349101e-08 -1.21892665e-08 1.6063198e-07 -3.971533e-08 -7.1981574e-08 -3.422678e-08 -1.0152979e-06
-3.3011446e-07 -1.7669309e-07 -5.3614826e-07 -3.0038436e-07 -2.627962e-07 -2.564927e-09 -2.564927e-09 -4.2169564e-08
-1.5687861e-07 -1.5687861e-07 -2.2006147e-07 -1.5382899e-07 -1.5382899e-07 -2.157393e-07 6.493947e-08 -5.078142e-08
-1.4942971e-07 -5.8416838e-08 2.87039e-07 -9.167266e-08 2.4557874e-08 8.580727e-09 -4.4967067e-08 6.502898e-08
6.2035625e-08 1.7770647e-08 4.5593424e-08 4.7079023e-08 1.3438191e-08 -3.001573e-08 -2.8530131e-08 -2.7909064e-08
-1.6099862e-07 -7.693367e-07 1.7147076e-07 1.3501129e-06 -6.3978626e-07 8.730464e-07 -7.802534e-07 -8.9692925e-08
-3.349115e-08 -5.0980113e-08 -9.256793e-08 -4.8897775e-08 -2.674762e-08 -6.833543e-08 -6.6068915e-09 -1.5678343e-07
-1.9845085e-07 -1.471228e-07 -3.61478e-07 4.5827036e-08 -5.6021304e-07 1.3252988e-07 -1.4317905e-06 -9.789043e-07
9.389433e-09 1.5395628e-08 -2.8322775e-08 -2.4172536e-07 -1.5367787e-07 -1.0781031e-07 -2.5412376e-07 -1.8595803e-07
-1.5038303e-07 -8.020818e-08 -1.7790477e-09 7.844332e-08 5.3057795e-07 -5.991244e-07 -1.1564533e-07 -5.4066e-07
4.343472e-07 -3.5138729e-07 3.120736e-08 3.560375e-07 1.2596324e-07 -1.1306587e-07 -1.411463e-07 -1.1090309e-07
3.435822e-08 -8.049429e-09 -8.545157e-09 4.942984e-08 8.2403435e-09 -1.1875093e-08 -3.1029032e-07 4.2760885e-07
-1.5322345e-06 4.186695e-07 1.597432e-07 -6.061646e-08 5.5456466e-09 -6.1426505e-07 -2.2511614e-07 -1.3127608e-07
-7.873318e-08 -8.791462e-08 -1.3127608e-07 -7.873319e-08 -8.7914636e-08 -1.1447849e-07 -9.2344415e-08 -9.382029e-08
-9.165942e-08 -1.0452777e-06 -2.0206753e-07 -3.72266e-08 -8.3995025e-07 -8.158717e-08 -3.2725336e-07 -1.3917423e-06
4.851873e-07 -2.307934e-07 -1.8961742e-07 -3.797559e-07 -2.5009936e-07 -2.1794864e-07 -4.2357695e-07 -2.0309788e-07
-1.6341453e-07 -3.6686384e-07 -1.2674576e-07 -3.5293306e-07 3.8502986e-07 1.1674363e-06 6.357437e-07 8.354317e-08
-1.8129671e-07 5.5742e-07 -7.065723e-07 -4.0931717e-08 8.888844e-08 1.5585526e-07 4.2587633e-08 1.7240556e-07
2.3525075e-07 -1.3804288e-08 5.7537502e-08 1.2640261e-07 -9.433439e-07 5.681696e-07 -6.7980545e-07 -3.3577473e-06
-8.5013374e-07 -1.1707684e-06 -2.88664e-07 -1.1254113e-07 -1.1880057e-06 -3.2347913e-08 -2.0543426e-07 -3.040822e-07
-1.4977775e-07 -3.2286408e-07 -4.1799584e-07 -2.5709494e-07 -3.8484674e-07 -4.4182497e-07 -2.4239593e-08 1.7878827e-08
-2.819635e-08 5.593619e-07 -8.2109324e-08 8.479391e-09 -2.2159682e-08 -4.1081125e-09 -3.5023948e-09 9.156353e-09
9.156353e-09 2.0310724e-08 1.0165193e-08 1.0165193e-08 2.1319563e-08 1.0088377e-09 1.0088377e-09 1.0088377e-09
-4.3880246e-07 -1.6549133e-06 -1.9208494e-06 -5.177259e-09 -1.2191362e-06 -4.346402e-07 -1.2811519e-07 -2.4879932e-07
-4.7503582e-07 -2.8837118e-07 -2.2310415e-07 -1.9181394e-07 -2.783182e-07 -1.9956173e-07 -1.417465e-07 -2.3017493e-07
-1.17410465e-07 -8.456773e-08 6.9479006e-07 -2.551273e-07 -3.3289837e-07 2.2225287e-07 3.542392e-07 6.237463e-07
6.9903194e-08 -4.440676e-08 -1.2259885e-07 1.2504978e-07 5.4660866e-08 5.4660866e-08 5.2850584e-08 1.7578627e-08
5.0637972e-08 -2.34712e-08 -4.407919e-08 -1.1019882e-08 -2.1882057e-07 2.0881265e-07 2.9686865e-07 -1.046892e-06

exp_avg_sq f4 [16, 2, 3, 3]
00000000: a305 552e 7199 382d 8e5f 9b2e 08a8 272f
00000010: 9b6a 7a31 1b47 0631 9776 3a2f d2af c330
00000020: 26a5 5731 bd71 7f2d f4f0 1b2e 571b 202e
00000030: 287b c32d ac87 622e 25e2 662e 48ab bc2d
00000040: da0b 582e 5215 5b2e 7235 d230 5ba6 5d30
00000050: 111a 1431 cba9 7b2f 0bdb 1030 eb89 c52f
00000060: bf09 412e 252f 5230 4dd0 b92e 14ac 6f2e
00000070: f599 912e 7edf 572e 94e2 832e 5391 9f2e
00000080: a4e0 702e 66bf 602e b5fc 872e 91bb 482e
00000090: d8e3 bf2d f369 d72b bb05 882d 35bf ea30
000000a0: 6ddd 0f2f 84f9 982d 64f9 9130 e0df 132f
000000b0: 1802 1b2d 1de3 4b2d 1ce3 4b2d 256b 462d
000000c0: 94fb bd2d 94fb bd2d 4801 bb2d 0b19 bd2d
000000d0: 0b19 bd2d 7915 ba2d 27f7 1030 fff5 352f
000000e0: 7371 3a2e da0c 4a2e e9fb 6f31 bc8a b12f
000000f0: 86e3 ae2c fa2c ea2d b981 1e2e 0258 062d
00000100: 86bc 252d 2aa1 302d ced4 142d 9f8b 372d
00000110: 0f0f 4a2d 0bcf e82c edc0 112d 2490 112d
00000120: 4535 522e 590e 6230 ae6c 192f f745 3e30
00000130: 45de c62f c67f 7e30 7abd e130 2480 f72c
00000140: 045a 4f2c cee6 8c2d d5f1 ce2d cb3e a52d
00000150: b806 892d c81d ca2d 3557 a12d 00f0 542d
00000160: e50f 822d 4864 502d 024c 412f ae58 7b30
00000170: 24c7 e42e 42c5 f230 ae05 8330 51ed ac31
00000180: 7870 102f 952b b52c 7495 872d d089 ed2d
00000190: 74c8 f12d 0ff5 052e 3267 f82d 586a ff2d
000001a0: 1c07 0e2e cdfe 012e aa56 022e fd60 032e
000001b0: 3a2f d630 0518 5e30 ab7b e22f 309f 612f
000001c0: 0675 9631 f062 5031 8b31 0c2d ee86 d22f
000001d0: 1b82 392c 34aa 032e c709 212e 2aa8 dc2d
000001e0: d602 1d2e c505 3d2e f88f 012e b067 9c2d
000001f0: 2b1a d92d f108 862d 23e7 5f2f 9674 0a30
00000200: 208e 8330 c922 da30 4e54 6b2f 582e 622e
00000210: 6a6d 6d2c a316 0d31 33cb 9630 0ada 802d
00000220: 8edc cf2d 1db9 c42d 10c6 7f2d a9d5 ce2d
00000230: a39e c32d 8243 662d eb6a db2d f527 d32d
00000240: 159e c22f f8ad ba30 bafb 7c2e fe9b 7630
00000250: d743 ae2f 0c7f d42d 1f39 af2e 866f 7131
00000260: fdf6 d02f cd58 2e2e 3793 252e b043 ad2d
00000270: 1250 402e 27b6 302e ec35 c42d 6b7c 3d2e
00000280: 0acc 2d2e 755c b82d 606c cd2c d465 0c2f
00000290: 28f0 fb2f 714b 4731 d9c8 502f 4348 082f
000002a0: 62c9 fc30 fd03 422e 5697 872f 65a2 d32e
000002b0: 7b16 e02e c197 c92e d1a1 eb2e d4cf f72e
000002c0: 1dd0 dd2e 45ed f92e 1936 042f 92e4 ed2e
000002d0: 9c42 5230 8d99 7e30 d563 5d2f e37f a931
000002e0: 200a 2e30 5754 cb2f 07dd c22e a257 5a30
000002f0: 5660 5630 34b2 cc2d 0ae6 b42d f04e 7b2d
00000300: 1d14 d12d ca9e b22d 5927 792d 4f81 3b2d
00000310: 3959 512d c19b 3e2d d00e 882c b299 e32d
00000320: cdc5 782b 8e70 f330 4cd1 ef2d fbeb c42b
00000330: 0037 8f2a 7ed7 d92a 7fc4 132c dc85 602c
00000340: dc85 602c ecac 5c2c dc05 742c dc05 742c
00000350: cdd0 6f2c 5dbb ea2b 5dbb ea2b a6a9 dd2b
00000360: 0e06 912e 2884 3f30 ae80 5530 d48b 582e
00000370: 17e1 4230 d9fc 882d 400d d12e 060e 122f
00000380: bc62 bd2f 2c30 6d2d 461b 202d 15c1 242d
00000390: 54fa 6d2d fe2e 1d2d 3328 202d c417 5f2d
000003a0: e824 042d 372e 012d a3cd dd2e fee2 062e
000003b0: fdef c12d e080 392d 89fd f42e 54b2 0d31
000003c0: 89a8 cb2f 824e 972e 580b d92d 432a 4f2d
000003d0: b4a8 4e2d 86d1 552d cd40 5b2d 1ee3 662d
000003e0: 4fe1 952d ab9c 3f2d f335 462d 9603 7e2d
000003f0: e9a9 ab2f 4bc5 e22f f296 a430 04dd 2831
4.84356e-11 1.049326e-11 7.065558e-11 1.5248258e-10 3.6440386e-09 1.9539985e-09 1.6958733e-10 1.4238088e-09
3.1380494e-09 1.4520327e-11 3.545693e-11 3.640407e-11 2.2223626e-11 5.150695e-11 5.2496802e-11 2.144919e-11
4.912324e-11 4.981377e-11 1.5294701e-09 8.0635737e-10 2.1551652e-09 2.288864e-10 5.2698174e-10 3.5932088e-10
4.3891776e-11 7.646455e-10 8.4498276e-11 5.4495145e-11 6.621185e-11 4.908384e-11 5.997439e-11 7.2562976e-11
5.4769203e-11 5.11017e-11 6.183979e-11 4.5641328e-11 2.1815369e-11 1.5306076e-12 1.5463955e-11 1.7080085e-09
1.308444e-10 1.7391207e-11 1.062102e-09 1.3449108e-10 8.811195e-12 1.1589643e-11 1.15896424e-11 1.1278788e-11
2.1598535e-11 2.1598535e-11 2.1260008e-11 2.1497934e-11 2.1497934e-11 2.1155288e-11 5.273812e-10 1.654925e-10
4.2392267e-11 4.5940897e-11 3.4922272e-09 3.229469e-10 4.9706376e-12 2.6622694e-11 3.6040258e-11 7.63656e-12
9.421025e-12 1.0040227e-11 8.460078e-12 1.0433348e-11 1.1485714e-11 6.616823e-12 8.285134e-12 8.274301e-12
4.7795785e-11 8.223871e-10 1.395388e-10 6.9221023e-10 3.6173922e-10 9.258624e-10 1.6424757e-09 7.0343887e-12
2.9466438e-12 1.6018655e-11 2.3526884e-11 1.8786214e-11 1.557808e-11 2.2977967e-11 1.8342309e-11 1.21040955e-11
1.4786347e-11 1.1845698e-11 1.7580251e-10 9.143929e-10 1.0403614e-10 1.7663881e-09 9.533119e-10 5.0328386e-09
1.313668e-10 5.149168e-12 1.5414094e-11 2.7004982e-11 2.7487547e-11 3.0458355e-11 2.8240164e-11 2.903737e-11
3.2293376e-11 2.9557513e-11 2.963555e-11 2.9872094e-11 1.5583972e-09 8.0797263e-10 4.1197032e-10 2.0520186e-10
4.3788786e-09 3.0324223e-09 7.969079e-12 3.829465e-10 2.6362304e-12 2.9937122e-11 3.6615846e-11 2.5085784e-11
3.5700186e-11 4.297875e-11 2.9459074e-11 1.7781193e-11 2.4681665e-11 1.5238007e-11 2.0363848e-10 5.0369786e-10
9.571899e-10 1.5871474e-09 2.1403077e-10 5.1427612e-11 3.3740463e-12 2.0531068e-09 1.0971689e-09 1.4648744e-11
2.3631121e-11 2.2364827e-11 1.45390505e-11 2.3514373e-11 2.2239382e-11 1.3088976e-11 2.4944899e-11 2.4005667e-11
3.5400718e-10 1.3582726e-09 5.7521744e-11 8.9715957e-10 3.169862e-10 2.415803e-11 7.9682254e-11 3.513351e-09
3.8010475e-10 3.964189e-11 3.764741e-11 1.9697882e-11 4.3726862e-11 4.017955e-11 2.2306566e-11 4.308413e-11
3.951687e-11 2.0959437e-11 5.8384825e-12 1.2769102e-10 4.5827275e-10 2.9001195e-09 1.8988845e-10 1.23948e-10
1.839265e-09 4.4114035e-11 2.4663888e-10 9.624016e-11 1.0190334e-10 9.167379e-11 1.0715307e-10 1.1269177e-10
1.0086885e-10 1.13653566e-10 1.202455e-10 1.08181145e-10 7.649221e-10 9.262287e-10 2.01353e-10 4.9330864e-09
6.331522e-10 3.6985412e-10 8.861361e-11 7.943247e-10 7.798965e-10 2.3271253e-11 2.0565789e-11 1.4285226e-11
2.3769481e-11 2.0306774e-11 1.4162748e-11 1.0658432e-11 1.1900086e-11 1.0834834e-11 3.866997e-12 2.5875167e-11
8.8381803e-13 1.7712567e-09 2.72641e-11 1.3992135e-12 2.5440067e-13 3.869647e-13 2.0999034e-12 3.1906621e-12
3.1906621e-12 3.1359871e-12 3.4677738e-12 3.4677738e-12 3.407985e-12 1.6678704e-12 1.6678704e-12 1.5750081e-12
6.594912e-11 6.96732e-10 7.7671813e-10 4.9236906e-11 7.089666e-10 1.5573697e-11 9.506573e-11 1.3283605e-10
3.4449055e-10 1.3482587e-11 9.101003e-12 9.3651935e-12 1.3527474e-11 8.934851e-12 9.103873e-12 1.26813594e-11
7.511526e-12 7.343063e-12 1.0086445e-10 3.0669682e-11 2.2048136e-11 1.05446485e-11 1.1140872e-10 2.0619568e-09
3.7045236e-10 6.880631e-11 2.4675081e-11 1.1775972e-11 1.1747204e-11 1.2154172e-11 1.2463097e-11 1.31244165e-11
1.7039396e-11 1.089188e-11 1.1266976e-11 1.4439025e-11 3.1225447e-10 4.1249346e-10 1.1975472e-09 2.457285e-09

exp_avg f4 [16]
00000000: 3453 1fb5 a102 26b5 cff8 c4b3 2f2d 01b4
00000010: 30b1 d6b2 6203 80b4 180a 9934 a5c2 11b4
00000020: ffea 00b5 5787 9234 ff3f 94b4 bb69 b533
00000030: bcd2 dbb4 4578 fb33 9f0d 88b3 e0b2 28b4
-5.935319e-07 -6.1843645e-07 -9.172219e-08 -1.2030499e-07 -2.4993454e-08 -2.384432e-07 2.8505815e-07 -1.3574989e-07
-4.802568e-07 2.7293092e-07 -2.7613711e-07 8.4477016e-08 -4.0945258e-07 1.1709975e-07 -6.335471e-08 -1.5711294e-07

exp_avg_sq f4 [16]
00000000: a1c8 482f 0212 592f 662c 772e a311 3b2e
00000010: 4566 a92e bb77 132f 7210 422f affd cc2e
00000020: a17d 392f 2ab9 5c2f d076 a42e ad70 ae2d
00000030: 5c78 4d2e d356 842e a214 592e 3ed6 852f
1.8261172e-10 1.9742433e-10 5.620073e-11 4.2534542e-11 7.703397e-11 1.3412109e-10 1.765004e-10 9.321909e-11
1.6870284e-10 2.0074667e-10 7.478962e-11 1.9831548e-11 4.6718504e-11 6.018088e-11 4.9358413e-11 2.4344787e-10
