output/blue/images/epoch_98.pt (torch, 369546 bytes, 27 tensors)

conv.0.weight f4 [16, 2, 3, 3]
00000000: d620 96be 0937 78be 1fb1 f6bd 9cf0 24be
00000010: 4ceb d13d 142a 4a3d a93d b7be 1e9a dabc
00000020: 3b1b a23d bbd0 a3bd 4e0c 2cbe bdb1 2bbd
00000030: 3a08 8cbe e89d a6be 690e 783d 508c 89be
00000040: 8eb2 d9bd 4b7d 723c 6b6b 063e ac54 973d
00000050: 27d5 333e 978a 8ebd 5216 acbd 3b73 d2bd
00000060: 6cd5 94be 3a40 61bc 4922 12be 8383 093e
00000070: 8d30 17be 8ac3 b1be 0084 02be b4eb 69be
00000080: e505 2cbe f117 1b3e f955 a3ba 3da9 ed3d
00000090: b6c4 cdbd 3e39 88be 4c65 efbd 1968 ce3d
000000a0: bc87 1dbe e6fb 83be 5409 f33d 5afc d9bd
000000b0: d032 07be 00fd c0bd 0082 39be 7827 d33d
000000c0: 9141 343c 70cb 9e3d acd4 e0bd 961e 8c3d
000000d0: 01e3 fabc 1c0a c73a 66aa e63d 9212 23bd
000000e0: e78f 7fbe 96ac fabd 8a38 2c3e 6081 91bd
000000f0: 7755 5dbe 501f 4dbe 1397 13be 57c2 83be
00000100: e3cd 89be f9d2 ce3d 6b52 ecbd dc1e 78be
00000110: 8bdb ecbd 51a3 143e 3943 1bbb 1799 87be
00000120: 8e00 61be 1207 cf3c a7b0 29bd 18d5 a83c
00000130: f1f2 d2bc 0cbc 7f3c 59cf ad3b 135e 3cbe
00000140: 0822 97be f2b3 073e 1812 3ebe 18b6 38bb
00000150: 6335 8ebe 9cc9 423d 77db 7cbe 7d56 a03a
00000160: c5f1 5cbe db27 c43d bf7a 61be 87a8 89bd
00000170: 1e35 81be dcc3 a23d bf2d 5bbd 261f 153e
00000180: 7566 f4bd 2d67 9abe 20fa 83be b8ac d3bc
00000190: e9f3 133e b995 7cbe aa9d 20be bb24 1bbe
000001a0: fc8d bf3c fe53 283e 4f95 85be db13 5bbd
000001b0: 3b9b fb3c 34d5 6abd 9923 18be 764a 50be
000001c0: 4856 553d 138e d239 1d21 80be 5028 8dbc
000001d0: 8c52 80be dceb 58be e665 83bc 706b 4d3c
000001e0: 821a f03d ee13 99be 5220 75be d32d d53d
000001f0: 733c 92be 57b2 1abe c6b3 6dbc 87da aebb
00000200: c8b2 963d f580 633d af42 8dbd 15af 21be
00000210: 6876 72be eea6 023d 8ea1 29bd c8d5 4dbd
00000220: 4c7e 2c3e ea1e d73d 78a4 dfbd c049 86be
00000230: c656 51bd e239 51be 128d 6abe bb77 b13d
00000240: e83f 41bc 27c2 2e3c 9441 41be 84a1 27bd
00000250: c4b6 bebd eadc 86be 51cc 35be f84b cb3d
00000260: f5e8 dcbd 0368 0f3e 3fff 40be 11ec 53bd
00000270: 4493 9e3d e166 16be a272 2ebe 63e5 d5bb
00000280: d7e6 fa3d 9727 59be 4736 24be cc43 9ebd
00000290: fbe3 3b3d 0657 0d3e aa0d eebd 5296 3dbe
000002a0: 4f9c 453d 88d3 42be 71eb 27bd 1dba f3bd
000002b0: 3398 4abc 5e61 1c3e 4b69 eebc 517b a43d
000002c0: 6359 0f3e fcfb 243e 3177 e3bc 42a8 c93d
000002d0: fe71 563c 529f d83d 111e 0bbe 8890 103e
000002e0: 1383 98bd 0c27 1abe 27f6 00be 508e a6bd
000002f0: eedd ebbc 2f82 86bd 0639 183e 8fd0 ef3d
00000300: ebdb 4c3c 96b7 51be cd00 2a3e baed 4dbe
00000310: c6fc ccbd 383a 18bd b8c0 1bbe f7b9 f4bd
00000320: 25b4 49be fce6 643d 4e40 e93a 04f7 3ebe
00000330: 4920 f9bd 713c 8bbe 8e14 09be a199 65bd
00000340: 8492 09be 12a4 9abe 8c84 e43d 089a 87be
00000350: c787 4fbc d064 11be 0e01 a0be 07b8 6fbd
00000360: 113c 56be 0cfc 953d bf54 373e 2925 50be
00000370: 7fb9 a13d 4437 87be 36b5 04be 4ce0 d2bd
00000380: c465 213a 6bd7 53be ce31 8abd d832 0d3d
00000390: 0057 2cbe aaa4 963a 6b63 19be 9501 d63d
000003a0: 23fa bf3d 5651 183d 51f0 06be 5029 33be
000003b0: dd8f 8dbe ac32 52be 1125 0ebd 03e0 2a3e
000003c0: 8765 edbd 352a 6cbe 9ce0 76be ca3d 0ebe
000003d0: c73e 9cbe 10d6 b43b 3c77 843d 12d1 fa3d
000003e0: d089 87be 67b0 cb3c f619 c7bc 437b d03d
000003f0: 801b 26bc 5b80 49bd e924 fd3d 14f0 b43d
-0.29321927 -0.24239744 -0.12045502 -0.1610741 0.102499574 0.049356535 -0.3578923 -0.026684817
0.0791535 -0.079987966 -0.16801569 -0.04191755 -0.27350026 -0.32542348 0.060560618 -0.26864862
-0.1062976 0.01480038 0.13126914 0.07389197 0.1756178 -0.06960028 -0.08402695 -0.10275885
-0.29069078 -0.013748223 -0.14270891 0.13429074 -0.14764614 -0.34719497 -0.12745667 -0.2284382
-0.16799124 0.15145852 -0.0012461535 0.11604545 -0.10047285 -0.26606172 -0.11689243 0.10078449
-0.1538381 -0.2577812 0.118670136 -0.10643835 -0.13202977 -0.09423256 -0.18115997 0.103102624
0.01100196 0.077536464 -0.10978064 0.06841771 -0.030625822 0.0015185508 0.1126297 -0.039812632
-0.24957238 -0.122399494 0.16818443 -0.071047544 -0.21614634 -0.20031476 -0.14413099 -0.25734207
-0.26914892 0.100988336 -0.115391575 -0.24230522 -0.11565312 0.14515425 -0.002369119 -0.26483986
-0.21972868 0.025271926 -0.041428234 0.020609424 -0.02575061 0.015608799 0.005304259 -0.18395261
-0.2951815 0.13252237 -0.1856159 -0.0028184708 -0.27775106 0.04755555 -0.24693094 0.0012232807
-0.21576603 0.09577914 -0.2201948 -0.06721597 -0.25235838 0.079475135 -0.053510424 0.14562663
-0.11933605 -0.30156842 -0.25776768 -0.025839195 0.14448513 -0.2466649 -0.15685144 -0.1515073
0.023383133 0.1643829 -0.26090476 -0.053485733 0.030713668 -0.057332233 -0.1485733 -0.20340905
0.052084237 0.00040160175 -0.25025263 -0.017231137 -0.25062978 -0.21183723 -0.0160398 0.012537822
0.11723806 -0.29898018 -0.2393811 0.10409131 -0.28561744 -0.15107094 -0.014508193 -0.005336109
0.073583186 0.055542905 -0.068974845 -0.15789445 -0.23677981 0.031897478 -0.041413836 -0.050252706
0.16845053 0.10503943 -0.10920042 -0.26228142 -0.051108144 -0.20432237 -0.22905377 0.08665415
-0.011795022 0.010666407 -0.18872672 -0.040925518 -0.093122035 -0.2634042 -0.17753722 0.09926599
-0.107866205 0.14004521 -0.18847369 -0.051738802 0.077429324 -0.14687683 -0.17035916 -0.006527589
0.122510605 -0.21206509 -0.1603633 -0.07727775 0.045871716 0.13802728 -0.116237 -0.18514374
0.04824477 -0.19026005 -0.04099602 -0.11900733 -0.012365389 0.15271518 -0.029102942 0.08031333
0.13998942 0.1611175 -0.027766796 0.09846546 0.013088701 0.10577263 -0.13585688 0.14117634
-0.074468754 -0.15053958 -0.125939 -0.08132613 -0.028792348 -0.06567799 0.14865503 0.11709701
0.012503604 -0.20480189 0.16601868 -0.20110217 -0.1000915 -0.037164897 -0.15210235 -0.119495325
-0.19697626 0.055884346 0.0017795654 -0.18648916 -0.12164361 -0.2719455 -0.13386747 -0.056054715
-0.13434798 -0.302033 0.11158094 -0.26484704 -0.012666649 -0.14198613 -0.31250805 -0.05852511
-0.20921351 0.07323465 0.17903422 -0.20326675 0.07896709 -0.26409352 -0.12959751 -0.102966875
0.0006156827 -0.20687644 -0.06747781 0.034472317 -0.16830063 0.0011493166 -0.14979331 0.104495205
0.09373882 0.037186943 -0.13177611 -0.17496228 -0.2764882 -0.20527142 -0.034703318 0.16687016
-0.115916304 -0.23062976 -0.24109119 -0.13890758 -0.30516645 0.0055186823 0.06468055 0.12246908
-0.2647233 0.024864389 -0.024304371 0.1017976 -0.010138392 -0.049194675 0.12360556 0.08834854

conv.0.bias f4 [16]
00000000: 1b72 fa3c 1d19 033e 7c93 34be 4b9e 58be
00000010: 0954 29be b7dc a93d 2f68 1f3b 808f 393d
00000020: aa2f 1f3d 85f9 17be 6af3 6e3d 121f e8bd
00000030: cee3 a8bd 9802 0a3e b78f 2bbe 5dff e53d
0.030571988 0.12802549 -0.17634386 -0.21154134 -0.16535963 0.08294051 0.0024323573 0.045302868
0.038863815 -0.14841278 0.058337606 -0.11334051 -0.08246575 0.13477552 -0.16754042 0.11230347

conv.3.weight f4 [32, 16, 3, 3]
00000000: 65b9 38bd a82f 20bd ffda e53b 5672 3dba
00000010: 67b5 a4bd 5846 acbd d0e0 053d e3c5 20bd
00000020: c80e 933d f578 e53b 6107 08bc 06ef c4bd
00000030: 9ed1 77bb a510 d0bd f150 c7bd a554 823c
00000040: b063 a5bc 6c2e b43c a705 40bd 0ffe 123d
00000050: b911 81bd 4726 edba aa81 8c3d add7 8dbc
00000060: 39f4 9bbd 5759 8d3d 0cba 8b3c 6b0c a3bd
00000070: 578d bbbd c77c 0abe 8c96 d43d 4f50 c4bb
00000080: ff5d 6a3d e639 2c3d 0a8e 82bd 9a6b bd3a
00000090: 9c9c c4bd db04 60ba 41d9 fe3c f19a ebbd
000000a0: 1964 3e3d 7b91 e33c d75e c5bc 4e71 573c
000000b0: 5596 153d 2b1e 233d 5b91 32bc 58cf 51bd
000000c0: 5744 f5bd 4af5 2abd e2e2 0d3d bf91 3d3c
000000d0: 99e3 cdbd 19ba 503d 17d7 0cbd ee68 e6bd
000000e0: c3a3 583c ba34 94bd 7bdf 153c 250a 83bc
000000f0: bb29 7ebd 636e d63c 9364 5cbc 896c b83b
00000100: 0d40 b6bb b845 6d3d b802 82bc b718 a13c
00000110: 6c51 b5bd 8c90 003c 5750 3a3c 7108 4e3d
00000120: c7db 94bd f9dc 1ebc 8e0a 57bd 0402 9e3c
00000130: e606 b2bb 367c 003d 5720 b9bd 3b59 9ebd
00000140: e268 9c3c 1bc3 b6bd 7f93 66bd 6467 9bbd
00000150: d0c4 5fbc 62c9 37bd 7a62 213d bae0 3ebb
00000160: 193a c3bd b74f 0d3d 218e 46bd 8d64 bfbd
00000170: 0884 e23c 00af e8bd 0257 b7bd 73b7 d4bd
00000180: 9ff0 0d3d c5f7 bebd 7ae9 09bd 984c c8bd
00000190: e5c8 5bba 6b42 e7bd 0261 c7bd c805 3bbd
000001a0: 6295 84bc 09ac ebbd f17d 86bc f4ce 553c
000001b0: 4acd 513d 1871 6e3c a251 c1bd ea09 3d3d
000001c0: ec97 94bd 73b1 d4bd dde9 3dbd 91a5 533c
000001d0: 8f2e c6bc 9af6 96bc c500 c1bd f188 613d
000001e0: 356d de3c 5c3a 1c3d 207e ddbc dbbb aebc
000001f0: 809f 43bd dc48 e63c d233 20bb 6450 60bc
00000200: 1fa8 20bd 6d9e 4fbd 5cdd b83c 3ec8 b53c
00000210: fb78 43bc ee6a d8bd c1e9 aabc c571 dabd
00000220: ca26 07bc d235 673d 89b3 a8bc b48a e4bc
00000230: 6c9e bbbc 6ce6 4abd 6501 48bc 1ce7 95bd
00000240: 855b a7bc d442 7ebd bafc 8bbb 2233 91bd
00000250: 9a39 833d 23ee 95bc c02e d3bd ace7 bcbc
00000260: b064 8d39 5fc2 3bbd f575 a73c 3389 a4bd
00000270: 4197 f1bd 3244 e93c abf2 c2bd 55fd cdbd
00000280: 94f8 80bd 99e1 b1bc 090a 66bc 0e7c c2bd
00000290: edac 253c 580e a2bd 5bea 55bc 3d0f c13b
000002a0: b876 a9bd 073f 11be 324b abbd 2eda d2bd
000002b0: 661e 8abb 68e1 c5bd c5f1 90bd 6faf 6ebd
000002c0: ce52 a63b 5166 37bd 11b9 89bd 14be a5bb
000002d0: 5f8c ed3b 4e2e 353d e188 3b3d 65de b1bd
000002e0: 73d3 96bb d871 9dbc 1723 9e3c 11c7 833c
000002f0: e8c7 96bd b77b 1abd c6a7 a4bd eeaf 9dbd
00000300: 6dc1 093c 58e2 1f3d 8693 97bd d515 45bd
00000310: 4665 b33b 8881 a3bc abbd 15bc 0fa9 4d3d
00000320: cd38 3dbd 2396 a9bd ba28 a6bd 33b9 d5bc
00000330: 1934 b0bb 44db a0bd e92b 8ebd 868b d2bc
00000340: 4d95 603c dc7f afbd b8c8 8ebd a2ed 33bd
00000350: 9028 bebd a08b 82bc 88e8 e5bd 9e8e 98bd
00000360: 6be8 89bd 0389 533d effc 173d 5660 80bd
00000370: 9180 7abd f86a a4bb 9827 92bd e73b 18be
00000380: cae9 833b 11c5 6bbd 351a 383d 7e6e 703c
00000390: d0e1 20bd ef2d f5bd 09d5 15bd 84d4 96bc
000003a0: d473 4e3c e00c 8fbd f2b5 ee3a 9f64 bcbd
000003b0: c8c3 cb3c 43a6 62bd 306c 52bd 6539 18bd
000003c0: 1768 44be d157 f3bd d37d c8bd 4b8d 3b3c
000003d0: a183 573d d868 8f3d eee0 113d 2d86 90bd
000003e0: c58e d53d 19fc 663c 3c73 413d 4f9d b8bd
000003f0: 50e6 dc3c 8d9a c5bd 83bf 98bd 4ccf c6bd
-0.04509868 -0.03910795 0.0070146318 -0.0007226815 -0.08042412 -0.084118545 0.0326851 -0.03925122
0.07180554 0.0070029446 -0.0083025405 -0.096159026 -0.003781415 -0.10159425 -0.09732235 0.015909502
-0.020189136 0.021994792 -0.04688039 0.03588682 -0.063022085 -0.0018093073 0.06860669 -0.017314756
-0.07614941 0.06901806 0.017056488 -0.07961353 -0.09157818 -0.13524161 0.10380277 -0.005991019
0.057218548 0.042047404 -0.06374748 0.0014451623 -0.09600183 -0.00085456454 0.031109454 -0.11504162
0.04648218 0.027779331 -0.024093075 0.013149573 0.03652032 0.039823692 -0.010898913 -0.05122313
-0.119759254 -0.041737832 0.0346402 0.011570393 -0.100531764 0.050958727 -0.034384813 -0.112504825
0.013222638 -0.07236619 0.00914752 -0.015996048 -0.062051516 0.026175683 -0.013451713 0.005628173
-0.0055618347 0.057927817 -0.015870437 0.019665105 -0.088534206 0.007846963 0.011371694 0.05030102
-0.07268482 -0.009696239 -0.0525003 0.01928807 -0.0054329513 0.031368457 -0.090393715 -0.07731863
0.01909298 -0.08923932 -0.056293007 -0.075880796 -0.013657764 -0.044869788 0.039400555 -0.0029125647
-0.095325656 0.03449985 -0.04847539 -0.093453504 0.027650848 -0.113615036 -0.08952142 -0.10386553
0.034653302 -0.09324602 -0.033669926 -0.09780234 -0.00083841226 -0.11291965 -0.097353 -0.04565981
-0.016184513 -0.115074225 -0.016417475 0.01304983 0.05122117 0.014553331 -0.09439398 0.046152033
-0.07255539 -0.10385408 -0.046365608 0.012917892 -0.024192123 -0.018428136 -0.09423975 0.055062238
0.027151683 0.038141593 -0.02703768 -0.02132981 -0.047759533 0.028110914 -0.002444495 -0.013691042
-0.039222833 -0.050688196 0.02256649 0.02219021 -0.011930699 -0.1056727 -0.020863416 -0.10666231
-0.008248994 0.05644781 -0.020593422 -0.02789817 -0.02290269 -0.049536154 -0.012207364 -0.07319471
-0.020429382 -0.06207545 -0.0042720707 -0.07089831 0.06407471 -0.018302029 -0.10311651 -0.023059689
0.00026968634 -0.045839664 0.020441988 -0.08033981 -0.117964275 0.0284749 -0.095189415 -0.10058085
-0.062974125 -0.021714019 -0.0140404785 -0.09496318 0.0101120295 -0.07912892 -0.013056363 0.005891709
-0.08274597 -0.141842 -0.08363952 -0.10295521 -0.0042150496 -0.096621335 -0.07077364 -0.058272775
0.005075789 -0.04477531 -0.06724752 -0.0050580595 0.0072493996 0.044233613 0.045784835 -0.086849965
-0.0046028434 -0.019219324 0.019303842 0.016086133 -0.07362348 -0.03771564 -0.08039813 -0.076995715
0.008407933 0.039034218 -0.07401185 -0.048116524 0.005474719 -0.019959226 -0.009139459 0.050210055
-0.046196748 -0.082805894 -0.08113237 -0.026089286 -0.0053773043 -0.078543216 -0.06941969 -0.025701296
0.013707471 -0.08569309 -0.06971878 -0.043927796 -0.092850804 -0.015935719 -0.112259924 -0.07449077
-0.06733783 0.051644336 0.03710645 -0.062683746 -0.061157767 -0.0050176345 -0.07136458 -0.14866601
0.0040256726 -0.057560984 0.044946868 0.014674781 -0.03927785 -0.11971652 -0.03658012 -0.018411882
0.012600858 -0.069848776 0.0018212183 -0.091988795 0.02487363 -0.05533434 -0.051372707 -0.03716411
-0.19180332 -0.11881984 -0.09789624 0.011447261 0.052615765 0.07002419 0.0356149 -0.07056842
0.10427622 0.014098191 0.047229037 -0.09014379 0.02696529 -0.09648619 -0.07458403 -0.097075075

conv.3.bias f4 [32]
00000000: 829f 3cbd 8d8b 653d fba6 9dbc e440 993c
00000010: 0de7 5dba cdf7 bc3c e248 52bd bef6 ddbb
00000020: 0ca0 b7bc 74ac b6bd 632e 2f3c fe7d 2dbd
00000030: f028 3fbc cee6 a33c d619 8e3c 02d0 183d
00000040: 21c2 62bd ac67 1a3d 395b 4bbd 8cca 56bd
00000050: f6cb 24bd f20b b6bb cebe c2bc 87ec 74bd
00000060: 48cf b7bc afc0 f839 86a0 fbbc a3c1 1cbd
00000070: 3b8f 6c3d cf5d 99bd 8e58 bebd 4ae6 3fbd
-0.046050556 0.05604129 -0.019244662 0.0187077 -0.000846491 0.02306738 -0.051339038 -0.0067737987
-0.022415183 -0.089196116 0.010692212 -0.042356484 -0.011667475 0.020007517 0.017346304 0.037307747
-0.055360917 0.037696525 -0.049647544 -0.052439258 -0.040233575 -0.005555623 -0.023772623 -0.059795883
-0.022437707 0.00047445807 -0.030716192 -0.038270604 0.057753783 -0.07488596 -0.09294234 -0.04685048

fc.0.weight f4 [128, 128]
00000000: 695f 81bd c218 a93c 8b9c 2a3d 45c2 6bbd
00000010: b893 e93c be22 53bd 609a 3d3b 87f9 b6bd
00000020: 4bed 88bb fd5c cdbb 31aa aabd fcca ea3c
00000030: 6e38 efbd 5064 64bc 99ac cebd c01e a53b
00000040: e926 a03d f28f ba3d a964 bbbc 331e d5bd
00000050: ead0 5b3c 1a3a 20bd 60e6 9fbd 4d4c 273d
00000060: 6ddc cc3c 8c2e 67bd 7ac8 82bd 5804 093d
00000070: 6f42 a03a c9cf b53c b0d8 943d e41e 973d
00000080: e64f 783b b325 823c 7edd 9dbd 013a 1a3c
00000090: ef8d 99bd 1a6b c5bd afd5 d13c 0da4 98bd
000000a0: 1af1 8cbd 2133 53bd bc59 1abe 20fb 01be
000000b0: cc92 3f3d 92bb babd 04eb ab3c f14f 0e3d
000000c0: e509 d0bd d4ee c73b d3f8 bebd 800e 483d
000000d0: 4ae6 7fbc 8778 65bd 2b36 b43c 1b7c 913b
000000e0: c510 6cbc 5fba 26bc b00f 9f3d 5821 a03c
000000f0: ca90 8fbd 2194 bcbd a870 2abd 7995 b4bc
00000100: 0fcd af3d f075 64bd f19e a5bd 5741 093d
00000110: 87a0 0ebd 166d fbbd 747d 0b3d 616c 2d3c
00000120: 475f a03d 30ac 00bd 7545 41bd 3215 a03d
00000130: 63b2 a33c 6869 923d a34b ef3c f104 15bd
00000140: ea97 3f3d b674 93bb 7ab9 8bbd 5185 88bd
00000150: a3b1 633d e81c 583d 7321 4cbe 0ec1 be3d
00000160: 30ff d13c d4b8 99bd c26e 30bd 3a6f a6bc
00000170: c249 17bd e35c 133c 6d7f d83b fd8c 943c
00000180: 8c41 9a3d 5847 113d 12e5 1fbc 5dd2 493c
00000190: 3091 20bd a72d f4bc 08bc 8bbb 8267 8bbc
000001a0: 8b87 27bd 69a4 1d3d a9d2 5c3d 4c70 8bbd
000001b0: 1aac 623d 93ff 5dba 2594 82bd a0a0 27bb
000001c0: 0c8a e33c 8780 85bc f603 633d 8e6e 583d
000001d0: 5a41 713d eff2 ba3d ace7 b23c 8c83 d6bc
000001e0: 1aa1 913d 7d57 803d 2583 983d 15ba 503d
000001f0: b504 69bc 5828 7e3d dca3 85bc d9de 74bd
00000200: 644a ffbc 68d2 62bb 0282 603d 46c9 cb3c
00000210: 4735 f93b ab0a 263d dfd9 7a3c 429d 233d
00000220: 5330 99bd 6218 16bd 4c19 0dbd f0cd 72bd
00000230: 7a0e 9abd 1f04 783d 1e5b 003c 0896 7dbd
00000240: 8ab0 843c 3692 c1bc d7aa b6bd 9943 22bd
00000250: 56a2 2ebd 7777 13bc 0348 e03c 3e34 91bd
00000260: 720c 003d 2853 92bc d8d5 c23c f0a6 7abd
00000270: ed7b 3ebd 18cf 85bd f6d5 c73c 1662 9f3d
00000280: 0b87 3c3d 532e 633c 7ad3 3ebd 9b33 2fbd
00000290: 740b 85bd de26 743d 820c c23c adb8 3ebd
000002a0: 53c7 72bd b5ee efbb 4beb 7dbd a193 f4bb
000002b0: 366f efbc 65fd 6dbc 71c3 66bb a2f5 913b
000002c0: 6269 a23d 770d 96bd d9bb 7a3c 629c af3d
000002d0: 9823 70bd 2b72 1cbb d3ab 22bd 6f04 c8bb
000002e0: 8de7 903c 33d6 83bd 4d2e 973d bbbb 04bd
000002f0: 0600 083d a325 923c a8ce be3c 9e56 173c
00000300: be4e 7c3d 8ff9 3bbd cb59 8bbd 47d2 8ebd
00000310: 141f 4b3d e259 94bd a9ca 54bc b06f 94bc
00000320: 6253 453d 73b7 5bbd ff15 c4bb 4c3d 383c
00000330: 3b7b 0f3d 32b3 87bd 7187 313c bf62 7f3d
00000340: 7720 8bbc 4677 64bd 9e62 3ebd bdbb 553d
00000350: 6028 1ebd a267 313d e36b 6a3d fdec 22bc
00000360: 8f49 8cbd 4fdc 85bd 31a3 2f3d 35f9 1f3d
00000370: e048 8b3d da7c 72bc ca12 893d 978b 86bd
00000380: 3229 7f3d 724c fbbc 821c 393d f245 833d
00000390: a81d 5cbc 0f85 10bc 90a1 bbbc a36e 203d
000003a0: 0904 8b3d 2e6a fc3c cc11 0cbd 6770 8abd
000003b0: 9ef8 3e3d 1ea1 93bd 02bb 5e3d 560c 35bd
000003c0: 515e 173d b7a1 fbbc f062 0e3d 903a c03d
000003d0: 25dc 2e3d 9997 a43d ad1e 993b d6d5 ba3b
000003e0: 4224 a9bc 9666 6fbd fcea 32bd b1a6 a1bc
000003f0: 67f6 73bd b044 6c3c d37b 603d e3e4 50ba
-0.06317026 0.020641688 0.041653197 -0.057558317 0.02851282 -0.051546805 0.0028931126 -0.08934312
-0.004178678 -0.0062671886 -0.08333243 0.028661244 -0.11680685 -0.013939932 -0.10091514 0.005039066
0.078199215 0.09109487 -0.022875147 -0.10406151 0.013416508 -0.03911791 -0.078076124 0.04084425
0.025007451 -0.056440875 -0.06385894 0.03345141 0.001222683 0.022193806 0.07267892 0.07378939
0.003788942 0.015887117 -0.07708262 0.009413243 -0.07497775 -0.096395686 0.025614588 -0.07453165
-0.06881924 -0.051562432 -0.15073293 -0.12693453 0.046770856 -0.091178074 0.020986088 0.034744207
-0.10158137 0.0061014686 -0.09324803 0.048841953 -0.01561887 -0.056023147 0.021998486 0.0044398434
-0.014408295 -0.01017627 0.07766664 0.01954715 -0.07010038 -0.09207941 -0.041611344 -0.02204393
0.08584034 -0.055776536 -0.08086956 0.03350958 -0.03482106 -0.12276666 0.03405519 0.010584922
0.07830673 -0.03141421 -0.04718538 0.07816543 0.019982522 0.07149011 0.029210871 -0.036381666
0.046775736 -0.004499997 -0.06822486 -0.06666053 0.05558933 0.052761942 -0.19934635 0.09314166
0.025634378 -0.07505956 -0.043074377 -0.020316709 -0.036935575 0.008994314 0.006606987 0.018133635
0.07532033 0.03546843 -0.009759204 0.012318221 -0.03920096 -0.029806925 -0.0042643584 -0.01701713
-0.04090075 0.038486872 0.05391184 -0.06808528 0.05533991 -0.00084685645 -0.063759126 -0.0025577918
0.027775787 -0.016296638 0.0554237 0.05283981 0.058900215 0.09128367 0.021838985 -0.026185773
0.07110806 0.06266687 0.07446889 0.05095871 -0.014222314 0.062050194 -0.016313486 -0.059782837
-0.031163402 -0.0034610275 0.054811485 0.024876248 0.007605228 0.040537518 0.015310734 0.039944895
-0.0747992 -0.036644347 -0.034447953 -0.05927843 -0.075222924 0.060550805 0.007834224 -0.06191066
0.016197462 -0.02362929 -0.08919304 -0.039615247 -0.042635284 -0.009000651 0.027378088 -0.070900425
0.03126187 -0.017861918 0.02378361 -0.06119436 -0.046504904 -0.065336406 0.024394017 0.0778238
0.046027225 0.013866025 -0.0465884 -0.042773824 -0.06496325 0.05960738 0.023687605 -0.04656284
-0.05927212 -0.0073221573 -0.06199197 -0.007463888 -0.029227834 -0.014525746 -0.0035211707 0.0044543305
0.079302564 -0.07326787 0.015303575 0.085747495 -0.058627695 -0.002387176 -0.039714646 -0.006104044
0.017688537 -0.0643734 0.07381878 -0.032405596 0.033203147 0.017840212 0.0232919 0.00923696
0.061598532 -0.045892294 -0.06804236 -0.06973701 0.049590185 -0.07243706 -0.012987771 -0.018119663
0.048175223 -0.053641748 -0.0059840675 0.011245083 0.03502963 -0.06625976 0.010835514 0.06235003
-0.016983254 -0.05577781 -0.046480767 0.052180994 -0.038612723 0.043311723 0.057231795 -0.009944198
-0.06849968 -0.06536161 0.04288024 0.03905602 0.06801009 -0.014800275 0.06693037 -0.065695934
0.062295146 -0.0306761 0.045193203 0.064098254 -0.013434805 -0.008820786 -0.022904187 0.03916801
0.06787879 0.03081235 -0.03419666 -0.0675972 0.04662382 -0.07208465 0.054377563 -0.044201218
0.03695518 -0.03071676 0.034762323 0.0938617 0.042690415 0.080367275 0.0046728463 0.0057017608
-0.020647172 -0.058447443 -0.04368113 -0.019732805 -0.05956116 0.014420673 0.054805588 -0.0007968677

fc.0.bias f4 [128]
00000000: 0323 d3bd c2d8 f8bd 7877 9cbb 6469 c9bd
00000010: 5800 aa3b c0f6 cb3b a369 8fbc cef1 f8bd
00000020: 050b 3e3c 6ef4 15bd bb0c acbd 9d3c d7bd
00000030: 851d 503c 8922 02be 00b5 9ebd 9be7 debc
00000040: 98fd b8bd ec9e dabd 6ad5 443c c37b 86bd
00000050: 490b 893c e669 053b 262e a6bd 4cb1 3dbd
00000060: 98c5 3cbd 3e86 8bbd 80ac b0bd cb1c b2bd
00000070: 15aa 20bd 81db d73c cd8b dabc 1145 ccbc
00000080: e180 36bc bb93 bebc 1c37 57bd b548 c4bd
00000090: 23b9 f83b d951 2bbd 0169 82bd 4f60 283c
000000a0: 91ac 9cbd 6738 fcbd e8ba 913b b093 82bc
000000b0: 6da9 11be a125 d3bd b7a1 16bb fc41 d0bd
000000c0: 4c07 afbd d4f6 38bd b2b8 9fbc e386 043c
000000d0: ab0c e8bd be4f babc 8d4d 76bc a5d1 dbbd
000000e0: 17c8 36bd 693b 4fbd 8c89 87bd 2739 70bd
000000f0: 22c4 7cbd 28a7 d3bd e9a6 2bbd 7966 47ba
00000100: f401 30bc c0cc b5bd 76f2 1bbd e3de aabd
00000110: 6a94 ebbd 5766 dc3b 1105 123b 8178 ee3c
00000120: 0934 8ebc 07d6 a03c 0963 a73a fe45 28bc
00000130: 3b5f 9d3c 31a1 53bc 92d5 7d3c 2dfe 8b3c
00000140: a3d8 4abd 843a 8dbc abcf 4bbd feaa f5bd
00000150: 7982 82bd 4b82 f1bc 0793 c6bd b7b1 15be
00000160: d0f1 9cbc bcd8 0cbe 1a15 6ebd 0db4 0a3c
00000170: 03d0 31be e265 ccbd e5ad acbd 3fab fdbc
00000180: 163b 4c3b a5a0 cebd d2db 5b3a e73d e3bd
00000190: 38d8 62bd 7b4c d0bd 84bc b9bc 6089 d63c
000001a0: 5de2 81bd cd3a 0e3b 6579 d0bd 29cc 14bc
000001b0: 0b26 d4bd 5a6d 5ebd 7645 9abb 063a d2bd
000001c0: 2942 703c b7f2 d0bd 6595 96bc d094 98bd
000001d0: db33 69bd 9bcc 513c f133 7abd 3d4c 06bd
000001e0: 7384 12bc 2b22 a8bd 08d2 28bc 5e88 28bd
000001f0: 3028 ffbd 35d4 80bd 5b52 fabc c689 3dbd
-0.10309412 -0.12150718 -0.004774984 -0.09834555 0.0051880293 0.0062244833 -0.017506426 -0.121554956
0.011599307 -0.03661006 -0.08400866 -0.10509608 0.0127023505 -0.12708487 -0.07749367 -0.027210047
-0.09032744 -0.10674843 0.0120137725 -0.065665744 0.016729014 0.002035731 -0.08114271 -0.04631166
-0.046086878 -0.06812714 -0.08626652 -0.08696898 -0.039224703 0.026349785 -0.02667799 -0.024935277
-0.011139126 -0.023263803 -0.05254279 -0.0958418 0.0075904294 -0.041826103 -0.06367684 0.010276868
-0.07650102 -0.123154454 0.00444733 -0.015939564 -0.14224787 -0.103099115 -0.0022984573 -0.101688355
-0.08546314 -0.04515727 -0.01949725 0.0080888 -0.11330541 -0.022743102 -0.015033138 -0.10733346
-0.044624414 -0.050593767 -0.06618032 -0.058648255 -0.061710484 -0.10334617 -0.041907225 -0.0007606517
-0.010742653 -0.088769436 -0.038073026 -0.083432935 -0.11502917 0.006726067 0.0022280852 0.029110195
-0.017358797 0.019633306 0.0012770604 -0.010270594 0.019210448 -0.012916849 0.015492814 0.017088974
-0.049523007 -0.017239816 -0.049758594 -0.11995505 -0.06372542 -0.029481074 -0.09696012 -0.14618574
-0.019158274 -0.13754553 -0.058125593 0.008465779 -0.17364506 -0.0998037 -0.08431605 -0.030965446
0.0031163148 -0.10089234 0.0008386943 -0.11095791 -0.055381984 -0.101708375 -0.022672899 0.026188552
-0.063420035 0.0021702528 -0.10179404 -0.009081879 -0.103588186 -0.054303505 -0.0047079874 -0.10264973
0.014664211 -0.10202544 -0.018381784 -0.07450259 -0.05693422 0.012805129 -0.06108469 -0.03278755
-0.008942711 -0.08209642 -0.010303982 -0.041145675 -0.12458837 -0.06290475 -0.030556848 -0.04627397

fc.2.weight f4 [64, 128]
00000000: 75b8 a4bc ae1c 08bd 4f2a 5abd d7f5 69ba
00000010: 512a b8bc 087b 19bd e808 3ebd 1efa 903d
00000020: 2f90 193d d987 79bc c51b 183d 2031 713d
00000030: dcc0 103d 46fd 5dbd b0df 853c 80c2 fc3b
00000040: 3e68 9b38 2a0b 53bd cd09 923d b457 db3c
00000050: ed59 7abd 70dd 80bd 2238 9fbd 1998 45bc
00000060: 4c8a b3bd 33de b5bd 8aab f43c 3b86 4f3c
00000070: 454c 893d 35de dcbc beaf 5dbd 02ff 26bd
00000080: 93f8 5f3c ca38 13bc 0607 693d 478d 73bd
00000090: ec65 0f3d e37c 853d a525 7dbd 297f 8d3d
000000a0: 3c56 1bbd defa 8ebd eac9 d5bc 0557 51bd
000000b0: 37b0 8dbd 7832 673c b641 b8bd 01cf 543d
000000c0: 8dcc 963d 9c4c cdbc 3a51 8cbd 030e a4bd
000000d0: 3701 adbd 6c27 9cbc c90a cbbc 6aad 9a3d
000000e0: 1084 3b3d c8a5 ea3c 1701 4c3d 900b 5ebc
000000f0: 60ab 943d 3d20 053d 1fcd a0bd 3a77 9f3d
00000100: 4ae4 4c3d 56d4 86bd 9599 82bd bcb6 7e3d
00000110: ab71 bdbd da98 7bbd 064e babc 9b6c b8bd
00000120: 5550 823c c324 97bc 197d 5f3d 7840 2d3c
00000130: 9e1d 24bd ec22 913c d56a 63bd b87b 353d
00000140: 40df c73c b9b2 143d f631 1f3c 2dec 64bc
00000150: 5bd5 07bd aa15 7d3d 344e 8cbc a158 98bc
00000160: 6f25 b73d 951b 30bd b106 883d 9e6a 1dbd
00000170: 2c10 a13a 82fa b7bd 0fa7 8abc d94f 943b
00000180: 61a9 9a3d e85a 62bc 90e3 f63c acf5 c33c
00000190: 2c4e e0bc 9973 bebd 8fb5 a6bd 4915 34bd
000001a0: 739d 36bd 9d8e a4bd 63e8 cfbc 313a 5dbd
000001b0: 35c4 043d b0a5 a0bd 7222 b3bd 3865 1bbd
000001c0: 432b a3bc ae89 acbd 158d 8abb 8e4c e1bc
000001d0: ba94 453d 1be4 acbc 62e4 323d f356 81bd
000001e0: 4563 903d ea01 8e3d bb1a 2cbd 031e abbd
000001f0: 8aad 353d ac4d 793c 5378 bf3c 1ad9 b93c
00000200: fa55 adbd d30c 243d 40af 37bd 1202 9b3d
00000210: ce19 31bd 0c0a 23bd fa48 463d c96e c83b
00000220: 2aec d6bd 5750 9fbc 3f89 12be aa0c babd
00000230: a8b0 3abd 961d 5fbd 0e17 bdbc af6a b1bd
00000240: 73f4 8f3d b377 b03c f249 493d e920 093d
00000250: e061 bbbc 8de1 fdbc 883b 82bc 4398 90bd
00000260: e786 7fbd 7fb7 3f3b d43d 7dbb 12f9 843b
00000270: 1dd7 033d 3c7e 03bd e1ae 313d ba28 93bd
00000280: fe17 9fbd 84f7 01be 6ba8 5c3c 4e54 7e3c
00000290: e731 0cbd c099 edbd 59e7 b9bd 3ff8 713d
000002a0: 846e cb3c 0190 9abc 9faa 413c 3c51 71bc
000002b0: 78ef a4bb d750 0dbd a0c1 52bd 2fff 93bd
000002c0: ac29 673d 1747 b9bd 206d a83d 855d efbb
000002d0: 85c7 a83c 67bc 27bd 3b79 27bd 4d6c 863d
000002e0: efe2 11be c645 66bd 1a31 343c a16d 1dbd
000002f0: 39cf 39bd 64d4 8dbd 46e9 c43c 77de 21bd
00000300: 2a68 27bd db1a 15bd e2dd 28bd 51cb 53bd
00000310: 271e fabc 902d 63bd 9e82 08bc d50e 2c3b
00000320: 0cf0 35bd ff95 bbbb 3984 523d fe96 81bd
00000330: c7c5 67bd b4a7 dfba c80d 8e3d ecd9 79bc
00000340: f406 36bd 4abb 3dbd 88b8 a9bd ad1c 9abd
00000350: 895f cf3d de49 8fbd 700d 4cbd ec4d a0bd
00000360: b5e0 67bd b4ca 79bd 5392 b8bd c640 903d
00000370: 2503 84bd 66d7 55bd b9b4 953c 0c8b bfbd
00000380: dc7e 3fbd 9a4d 65bd 51e3 42bd b9b1 6ebc
00000390: 1327 9cbb 5456 6c3d 2464 00bd 4926 59bc
000003a0: 64c3 59bd f30a 6dbd ae3b b1bd 4fef acbd
000003b0: 7ffb 48bd 069d f63c c77a dbbc 21d8 99bd
000003c0: a97d 71bc 4b39 b0bd e7e2 a5bc 04c0 a73d
000003d0: 2fb0 183d 5987 a7bd fbf2 913d 66e8 11bd
000003e0: e0db b7bd 4593 493d 03bd b2bd 2609 20bd
000003f0: 5578 6abd 3cfe 0abc 9cb9 ecbd 6ce0 5ebc
-0.020107487 -0.033230476 -0.053263005 -0.00089248776 -0.022481116 -0.037470847 -0.046395212 0.07078956
0.03749102 -0.0152301425 0.037135858 0.05888474 0.035340175 -0.05419662 0.016342014 0.007713616
7.4103926e-05 -0.05152432 0.071307756 0.026775219 -0.061120916 -0.06292236 -0.07774378 -0.012060189
-0.087666124 -0.08880272 0.029866952 0.01266628 0.067040004 -0.026961425 -0.05412268 -0.04077054
0.013670105 -0.008985708 0.056891464 -0.059460904 0.03500931 0.06517961 -0.06180348 0.069090195
-0.037924036 -0.06981443 -0.026097257 -0.05110838 -0.06918376 0.014111154 -0.08996908 0.051955227
0.07363234 -0.025060944 -0.0685143 -0.08010485 -0.08447497 -0.019061767 -0.024785416 0.07552607
0.04578024 0.028643504 0.049805727 -0.013552561 0.0725925 0.032501448 -0.07851624 0.077864125
0.0500224 -0.065834686 -0.0637695 0.062185988 -0.09250196 -0.061425067 -0.022742283 -0.0900509
0.015907446 -0.018450147 0.05456266 0.010574453 -0.040067308 0.017716847 -0.055521805 0.04430744
0.024398446 0.036303256 0.009716501 -0.013972324 -0.033162456 0.06178824 -0.017127134 -0.018596949
0.08942687 -0.042995054 0.06641901 -0.038431756 0.0012288145 -0.089833274 -0.016925363 0.00452612
0.07551838 -0.013815619 0.030137807 0.023920856 -0.027381025 -0.09299392 -0.08140098 -0.04396561
-0.04458375 -0.08035014 -0.025379365 -0.054010574 0.03241368 -0.078441024 -0.08746804 -0.037938327
-0.01991809 -0.08424698 -0.004228244 -0.027502324 0.04823754 -0.021104863 0.043674834 -0.06315412
0.07050184 0.06933959 -0.04201768 -0.08355334 0.044354953 0.015216272 0.023372805 0.02268653
-0.08463664 0.040051293 -0.044844866 0.07568754 -0.0432375 -0.039804503 0.04840944 0.0061167222
-0.104942635 -0.019447489 -0.14310168 -0.09084447 -0.04557863 -0.054471575 -0.023082282 -0.086629264
0.07029047 0.021541452 0.049142785 0.03347865 -0.022873819 -0.03099134 -0.015897527 -0.070602916
-0.062384512 0.002925366 -0.0038641589 0.004058012 0.03218757 -0.03210281 0.04337967 -0.07185502
-0.07768248 -0.12692076 0.013467888 0.0155230295 -0.034227278 -0.11601591 -0.09077329 0.059074637
0.024832971 -0.018867495 0.011820464 -0.01472884 -0.0050334297 -0.034500923 -0.051454186 -0.07226407
0.056436226 -0.090467624 0.08223939 -0.0073048496 0.02060295 -0.04095116 -0.0408871 0.065636255
-0.14246725 -0.056218885 0.010998035 -0.03843463 -0.04536364 -0.06925276 0.024037015 -0.0395188
-0.040870823 -0.036402564 -0.04122723 -0.05170757 -0.030531956 -0.055463374 -0.008331923 0.0026253958
-0.04441838 -0.005724668 0.05139563 -0.063276276 -0.0565851 -0.0017063529 0.06936222 -0.0152497105
-0.044440225 -0.04632119 -0.0828715 -0.07525001 0.10125644 -0.06996511 -0.049817502 -0.078273624
-0.05661078 -0.06098433 -0.09012284 0.070436046 -0.06445912 -0.052207373 0.018274652 -0.09352693
-0.046751842 -0.05598221 -0.047580067 -0.01456874 -0.0047654 0.057699516 -0.0313455 -0.013253757
-0.053164855 -0.05787177 -0.08653961 -0.08444082 -0.04906797 0.030104171 -0.026791943 -0.075119264
-0.014739432 -0.08604678 -0.020249797 0.08190921 0.037277397 -0.081801124 0.07126423 -0.035622023
-0.08977485 0.049212713 -0.087274574 -0.039071225 -0.057243664 -0.008483466 -0.1155884 -0.013603311

fc.2.bias f4 [64]
00000000: d829 30bd 22a4 11bd 7bdd 4bbc f313 72bc
00000010: 3d0d d1bc 5de2 48bd 20e6 ec3a fb34 853d
00000020: 967c 92b9 bbcf 4d3d 6946 e8bc 0da8 22bd
00000030: a263 b3bd 46aa 82bc c043 6dbd 8f19 fe3d
00000040: de39 303e 84a6 b6bd 113a 543d aa59 1b3c
00000050: 4dd1 9dbd fc2c 2fbb 88c4 bdbd 652f f4bc
00000060: c03b 21bd 5a33 e33d 5c2f 6fbd 3d53 5bbd
00000070: f313 95bc 7a1d 623d 753e 60bd 1fab 78bc
00000080: 0537 053d 42ad 28bb 2362 09bd 9169 a8b8
00000090: 4529 52b9 e46b 65bd ca75 35bd b175 44bd
000000a0: 2ace 303e 2152 e5bc a2ea 1fbd e892 aa3b
000000b0: e8b6 c5bd d18a dcbc 0194 28bb 6285 0abd
000000c0: ae00 0abd c694 15bd 10e0 1e3e 7968 1bbd
000000d0: 9e53 883a 8918 8ebd c495 1cbd 8238 a8bc
000000e0: 558c b1bb 4680 a03d 54a9 9ebd 50d6 153e
000000f0: 8c56 1f3e 85d9 8abd b2c6 79bd 4280 5ebd
-0.043008655 -0.03555692 -0.012442942 -0.014775264 -0.025519008 -0.049044 0.0018073954 0.06504246
-0.00027940114 0.050246935 -0.028353887 -0.039711047 -0.08759238 -0.015950333 -0.05792594 0.12407219
0.17209575 -0.08918479 0.05181319 0.009481827 -0.077059366 -0.0026729694 -0.09266001 -0.029807756
-0.039363623 0.11093779 -0.058394775 -0.05354618 -0.01819799 0.055203892 -0.054747064 -0.015177517
0.032523174 -0.0025738035 -0.033540856 -8.0305275e-05 -0.00020042535 -0.056011096 -0.044301786 -0.0479638
0.17266145 -0.027993264 -0.039042123 0.005205501 -0.09654027 -0.026921662 -0.0025722983 -0.03381861
-0.033692054 -0.036518835 0.1551516 -0.03794143 0.0010400896 -0.069382735 -0.038228765 -0.020534758
-0.00541834 0.07836966 -0.077471405 0.14632535 0.15560359 -0.0677977 -0.060980506 -0.054321535

fc.4.weight f4 [1, 64]
00000000: 3e0c 1a3c 9fb9 02bd d787 7cbc e304 02bd
00000010: e7d1 aebb f2de 8abc 8697 8bbc f033 633d
00000020: c177 42ba 75b0 763d 6dc5 adbc c0be a4bd
00000030: 687a 83bb 5aa9 a3bd 41ef 30bd b0a3 fe3d
00000040: afc6 1e3e 6155 943c 9683 743d 24c1 eb3b
00000050: dff5 8cbd 15d3 e83b 773e 9d3d 747c 09bd
00000060: 0239 8cbd bf05 f23d 2700 293a 8aa1 71bd
00000070: b6b4 a9bd 99e6 173d a5e6 753d d545 02bd
00000080: b5ef a33c 9d17 ec3b a61a 87bc 8b90 103b
00000090: 86f5 8938 d278 9ebd ff6a 8b3d 63d7 8cbd
000000a0: c369 213e a1ce 2d3d 9472 15bd 8be1 6f3b
000000b0: c04d 8b3d 1087 b83c f943 8e3d 2106 d6bb
000000c0: 0ed4 a43c 57f3 bfbd 847a 1c3e 721f 35bd
000000d0: 6941 e93a 6700 9abd 4fe6 89bd fa91 89bb
000000e0: 8068 703b b75f 803d c603 17bd bbde d93d
000000f0: 1bfd 033e 65a6 e63b 9e2b 83bd 37b7 773d
0.009402333 -0.031915303 -0.015413246 -0.03174294 -0.005335081 -0.016952012 -0.017040025 0.055469453
-0.00074183574 0.060226876 -0.021212304 -0.08044195 -0.0040123947 -0.079912856 -0.04319692 0.12433565
0.1550548 0.018107118 0.059695803 0.007194655 -0.06882834 0.007105241 0.0767793 -0.033565953
-0.06846811 0.11817502 0.0006446861 -0.058991946 -0.08286421 0.03708515 0.060034413 -0.03180488
0.020011762 0.0072049634 -0.0164922 0.002205881 6.5784014e-05 -0.077378884 0.06807517 -0.06877019
0.15763001 0.042433385 -0.036486223 0.003660294 0.06801939 0.02252534 0.069465585 -0.0065314923
0.020120647 -0.09372585 0.15281111 -0.04421944 0.0017795983 -0.07519608 -0.06733381 -0.00419831
0.003668338 0.06268256 -0.036868833 0.106381856 0.12889521 0.0070388787 -0.06404804 0.06047746

exp_avg f4 [16, 2, 3, 3]
00000000: 7ff4 91b1 46d7 1db6 a62e 1c35 c535 85b5
00000010: 382c 1f36 7e47 e6b6 c2f2 0435 47b3 6db7
00000020: c88a 31b7 dddf d135 6f6c 0536 6f6c 0536
00000030: 2dc3 d235 c06e 0636 c06e 0636 8704 b335
00000040: d91e ed35 d91e ed35 bc6a 15b7 5a4b bab7
00000050: 4563 31b7 2aa0 4237 d04c 3eb7 5b21 4736
00000060: 8652 61b4 ea5d 53b7 2436 91b3 cbd2 51b6
00000070: a7ec 4eb6 771e f3b5 cbd2 51b6 a7ec 4eb6
00000080: 771e f3b5 9f47 4cb6 1c1d 4eb6 ec5e f2b5
00000090: 1c73 b2b4 25d4 e9b4 99a9 6fb5 43fb 8136
000000a0: 75ae ac36 2a6b b633 84e7 1036 8070 7a37
000000b0: b7aa 89b4 5ed6 4635 5ed6 4635 b91b 1db5
000000c0: 9930 f7b4 9930 f7b4 ecf1 f0b5 32d9 8e33
000000d0: 32d9 8e33 3138 aab5 7bb0 0eb7 64f8 b8b7
000000e0: 7d13 c034 a8d9 77b7 5e6e 83b7 cc29 b1b5
000000f0: 38dc fab1 7a6b 8ab2 557d ec36 d512 5db5
00000100: dd85 e2b4 2dba efb4 c4bb cb34 b9ad 5135
00000110: 6c16 4b35 b61d 8cb3 4798 b434 1387 b534
00000120: e1f6 8635 f80c df36 071f ea32 169c 2c37
00000130: 8d70 45b5 b795 af36 3e2f 55b2 1109 9b1d
00000140: 0400 0000 a30a 90b1 a30a 90b1 a30a 90b1
00000150: a30a 90b1 a30a 90b1 a30a 90b1 0400 0000
00000160: 0400 0000 0400 0000 8b58 3d36 6e39 8c37
00000170: 2362 2634 9429 ab37 9ac0 6c36 9e5a 9537
00000180: 730c 0734 cbeb c8b4 4551 3535 96f3 47b5
00000190: 1249 3eb5 3cd3 d9b4 0a9c 5ab5 7ef1 50b5
000001a0: 1d24 ffb4 adf3 f6b5 01ec f1b5 773c c9b5
000001b0: 7c15 b236 b4eb 1734 9ede 0731 f04a 0435
000001c0: 76d0 8336 d496 7c35 e995 cd33 1259 4336
000001d0: e645 5eaf 2ccd dd32 2ccd dd32 48cd dd32
000001e0: 2ccd dd32 2ccd dd32 48cd dd32 7e94 8a96
000001f0: 7e94 8a96 0400 0080 2fe0 ac36 aade 06b6
00000200: faf5 d6b7 3302 b1b6 b81b 1eb7 965b 00b5
00000210: f4ca 82b4 f326 b3b6 e593 5b35 7735 80b5
00000220: 28bf 7ab5 28bf 7ab5 7735 80b5 28bf 7ab5
00000230: 28bf 7ab5 c840 34b5 e904 47b5 e904 47b5
00000240: 9a9b 9236 0efe 6536 1d58 e7b4 17ea 5fb6
00000250: 6181 ad36 3a7d b230 f26e 91b5 3270 d3b5
00000260: 4455 1db6 f852 e835 a472 b635 9c83 0c35
00000270: c56f c035 738f 8e35 744c ef34 b96f c035
00000280: 668f 8e35 744c ef34 1101 e5b6 70e1 6bb3
00000290: ead6 0ab7 cf39 c6b6 2533 1435 9aa5 9c37
000002a0: e69a ec35 2ba9 0535 4132 8936 6457 8db4
000002b0: 3fd4 e034 5aa1 cf35 01b4 1db3 7c9a 4435
000002c0: 9360 fb35 2e8a e0b3 0910 3335 869b f235
000002d0: e464 bd36 5514 cb36 e1f8 2836 5f4e f5b5
000002e0: c2ca 8b37 feb0 d6b6 5e95 9cb5 d11b a9b5
000002f0: 9d37 26b6 d96a 1f36 cb80 a835 767f 3b35
00000300: 0d60 2e36 346b c635 4854 7735 b107 9335
00000310: 6f57 9035 45fd 1435 0e88 b023 729d 6a2d
00000320: ba60 0ba4 156b 0836 7135 c033 fd82 5eb0
00000330: 43d8 c0ad ceb0 3a23 7309 2eb3 a776 9a1f
00000340: a776 9a1f 0400 0080 a776 9a1f a776 9a1f
00000350: 0400 0080 0400 0000 0400 0000 0400 0000
00000360: a5bf 0fb2 d74d 8536 1c55 1f37 77cf 55b5
00000370: 56b8 7237 daee 2737 b4bf 89b4 fd96 b3b6
00000380: d89e 7637 c210 9bb6 32ba a1b6 23a5 a1b6
00000390: db36 71b6 9a89 7eb6 7b5f 7eb6 0321 39b6
000003a0: 2e26 40b6 11fc 3fb6 ce85 68b5 4b4c 1237
000003b0: cb56 8036 9037 b1b5 d996 14b5 dff2 1238
000003c0: 7a38 ae37 2cbf c736 01de 4bb4 c942 4cb5
000003d0: b1c7 67b5 b1c7 67b5 caf3 85b5 3eb6 94b5
000003e0: 1788 2eb5 4f9e 21b5 6243 37b5 e57b 71b4
000003f0: 4b94 ac36 2c1f 0836 0d6b 2937 c065 8136
-4.2478514e-09 -2.3520129e-06 5.818241e-07 -9.924921e-07 2.3718585e-06 -6.862857e-06 4.952709e-07 -1.4168042e-05
-1.0582335e-05 1.5636866e-06 1.988166e-06 1.988166e-06 1.5703023e-06 2.003202e-06 2.003202e-06 1.3337857e-06
1.7666854e-06 1.7666854e-06 -8.905943e-06 -2.2208016e-05 -1.0573135e-05 1.1600592e-05 -1.1342767e-05 2.9672726e-06
-2.098478e-07 -1.2598446e-05 -6.761937e-08 -3.1266125e-06 -3.0834142e-06 -1.8113777e-06 -3.1266125e-06 -3.0834142e-06
-1.8113777e-06 -3.0440058e-06 -3.0713336e-06 -1.8058031e-06 -3.3238837e-07 -4.3553987e-07 -8.9281235e-07 3.8737503e-06
5.146309e-06 8.4945285e-08 2.1592432e-06 1.4927355e-05 -2.564245e-07 7.4072693e-07 7.4072693e-07 -5.85274e-07
-4.6042695e-07 -4.6042695e-07 -1.7951802e-06 6.651898e-08 6.651898e-08 -1.2682341e-06 -8.50495e-06 -2.2050175e-05
3.5776966e-07 -1.4773024e-05 -1.566781e-05 -1.3199692e-06 -7.3009936e-09 -1.6114189e-08 7.0479387e-06 -8.235632e-07
-4.219318e-07 -4.465268e-07 3.7948314e-07 7.8111367e-07 7.565602e-07 -6.5246624e-08 3.363841e-07 3.3812157e-07
1.0055629e-06 6.6474277e-06 2.7255295e-08 1.02883405e-05 -7.3552e-07 5.2328355e-06 -1.2408973e-08 4.1037533e-21
6e-45 -4.192161e-09 -4.192161e-09 -4.192161e-09 -4.192161e-09 -4.192161e-09 -4.192161e-09 6e-45
6e-45 6e-45 2.8214733e-06 1.6716043e-05 1.5495657e-07 2.040415e-05 3.527885e-06 1.7804381e-05
1.2577384e-07 -3.7424465e-07 6.7546017e-07 -7.448774e-07 -7.0886847e-07 -4.0573093e-07 -8.1438395e-07 -7.7837456e-07
-4.7523727e-07 -1.8399347e-06 -1.8024585e-06 -1.4993265e-06 5.3073145e-06 1.4148719e-07 1.9771629e-09 4.928288e-07
3.9283723e-06 9.40968e-07 9.573325e-08 2.910911e-06 -2.0215615e-10 2.5821087e-08 2.5821087e-08 2.5821137e-08
2.5821087e-08 2.5821087e-08 2.5821137e-08 -2.2388814e-25 -2.2388814e-25 -6e-45 5.152098e-06 -2.0097164e-06
-2.562533e-05 -5.275267e-06 -9.423988e-06 -4.781699e-07 -2.4362055e-07 -5.33915e-06 8.179907e-07 -9.552303e-07
-9.3410426e-07 -9.3410426e-07 -9.552303e-07 -9.3410426e-07 -9.3410426e-07 -6.7149494e-07 -7.414042e-07 -7.414042e-07
4.3692535e-06 3.4271538e-06 -4.3091214e-07 -3.3365848e-06 5.1708635e-06 1.2986796e-09 -1.0835631e-06 -1.5753378e-06
-2.3444454e-06 1.7309494e-06 1.3593421e-06 5.234558e-07 1.4337644e-06 1.0621574e-06 4.4572846e-07 1.433763e-06
1.0621559e-06 4.4572846e-07 -6.824856e-06 -5.4920235e-08 -8.27548e-06 -5.9075896e-06 5.520872e-07 1.8673763e-05
1.7628452e-06 4.979253e-07 4.0887685e-06 -2.6326882e-07 4.187768e-07 1.5469661e-06 -3.6718124e-08 7.3240494e-07
1.8729064e-06 -1.04559476e-07 6.670603e-07 1.8075668e-06 5.644384e-06 6.0522384e-06 2.5178817e-06 -1.8276731e-06
1.6664508e-05 -6.3983016e-06 -1.1666377e-06 -1.2599577e-06 -2.4768299e-06 2.375504e-06 1.2554459e-06 6.984841e-07
2.598393e-06 1.478335e-06 9.2137316e-07 1.0954592e-06 1.0754283e-06 5.550285e-07 1.913958e-17 1.333632e-11
-3.022275e-17 2.032791e-06 8.950418e-08 -8.0949275e-10 -2.1923912e-11 1.012052e-17 -4.0521126e-08 6.541783e-20
6.541783e-20 -6e-45 6.541783e-20 6.541783e-20 -6e-45 6e-45 6e-45 6e-45
-8.36727e-09 3.9727706e-06 9.496955e-06 -7.9650584e-07 1.4467243e-05 1.0009588e-05 -2.565772e-07 -5.352193e-06
1.4699726e-05 -4.621311e-06 -4.81985e-06 -4.8173983e-06 -3.5943729e-06 -3.7929044e-06 -3.7904526e-06 -2.7586364e-06
-2.8632453e-06 -2.860794e-06 -8.6621446e-07 8.7200415e-06 3.8248013e-06 -1.3203698e-06 -5.535381e-07 3.5035304e-05
2.0768715e-05 5.9529175e-06 -1.8986613e-07 -7.609311e-07 -8.6344795e-07 -8.6344795e-07 -9.980224e-07 -1.1079899e-06
-6.501809e-07 -6.0207543e-07 -6.827087e-07 -2.2489947e-07 5.143263e-06 2.0283724e-06 1.009811e-05 3.856345e-06

exp_avg_sq f4 [16, 2, 3, 3]
00000000: 23d8 a32c d75d bd2c 1a9f e22d 625b 612e
00000010: c226 1e31 5162 9430 b5e8 462c e942 ee2f
00000020: 4497 0331 a443 042d 7b54 8b2d acc2 8b2d
00000030: ccb3 142d ad2b b42d 457a b52d 1932 d82c
00000040: a5e7 952d 1292 972d c98e b530 51ff 7330
00000050: 7cf9 ff30 0a39 892f 377d a92f f9ca 882f
00000060: 97b3 0b2c b1dd ee2f c12e 2f2e e121 122e
00000070: 6093 232e d601 042e 466f 132e 3ffd 242e
00000080: ce40 042e fc5a d72d 3e0f e82d 8f7f b62d
00000090: 5615 542f 67f7 bf2c df3b 472f c2b1 eb30
000000a0: 76a7 3f2e d8b1 3e2d 6aeb 0031 6ee4 c32e
000000b0: e04b 492d fa91 022e fa91 022e d2c9 e92d
000000c0: 7a3f 3c2e 7a3f 3c2e 73e0 362e afb0 e52d
000000d0: afb0 e52d 9c85 da2d 30d7 4b30 6a70 422f
000000e0: bd32 0a2d 061c a72e 5e7f 1e31 c799 332f
000000f0: 2dae 4b2b a802 462d 7504 c32d 5cc4 0f2d
00000100: 5ca9 182d 9537 132d 7d97 362d a49c 562d
00000110: c15e 4e2d dccf 612d f21a 802d ef54 7c2d
00000120: ad87 be2b f2ca 902f 5932 3e2e 6d22 0830
00000130: c7a2 1f2f ed9f 2b30 385b d02f f164 8e2a
00000140: 2d3d 5e2a 7e18 4e2c 525e 4f2c d254 282c
00000150: 2cb6 4f2c efe4 502c b2db 292c 0e38 252c
00000160: 696c 282c 6024 042c 4228 f92d 5353 4f30
00000170: 225a cb2d e210 fa30 2a5c 842f 00f0 1631
00000180: c3e2 812e ffac 662b d817 fc2b dbe0 842d
00000190: e31b 8c2d 64db 692d db94 8c2d e093 932d
000001a0: 6d56 702d 464f b12d accf b72d 6a3f 972d
000001b0: 97b6 9a2f bb79 8a2e d896 712d 735f 952c
000001c0: 19ce 4d30 b5b2 9c2f a9f2 2e2a fab9 902f
000001d0: 3db0 172a 2b20 fa2b e5a6 152c 3f22 052c
000001e0: 7459 032c d3a6 1c2c 23df 062c 2bc1 be2b
000001f0: 479e f12b 77cd c52b 5117 022f a29c 572f
00000200: 4ab3 0030 c786 2e30 f20b 0c2f dd41 0f2c
00000210: ec6b bc29 2f54 e92f 86f2 de2e 6382 732c
00000220: b829 be2c ea68 b22c 926c 732c 591f be2c
00000230: 745f b22c 8c07 2f2c 1275 662c fe71 642c
00000240: 28d7 962e 4435 9d2f f670 272d 6fa7 442f
00000250: 791b 992e 448a 352b a400 4f2c 5a15 9b30
00000260: f0f4 472e 7c4a 322d fd9e 382d ba8e fe2c
00000270: d8a8 472d 5437 482d 53ce 122d 0824 452d
00000280: b5aa 462d 73f9 122d cfc1 fe2e f815 a72e
00000290: 2cd4 eb2f 407a 2131 17f0 2d2f 5423 432f
000002a0: dd8d f130 246b 122e 93bd c630 b14f e12e
000002b0: bedc ea2e 71d6 dc2e 7481 fe2e 4e1b 032f
000002c0: 8ced fb2e 7964 f62e 0392 fe2e f2b3 f42e
000002d0: d15c 9731 de78 4232 6647 b330 417c aa32
000002e0: c807 9531 29b2 3531 e0f8 682f d7ee 9230
000002f0: 408e 3231 a8e0 7d2f 831f 802f 1b13 442f
00000300: 495a 802f 62fb 802f 2255 452f 2001 e42e
00000310: 8e25 e72e 755b c32e 1e09 d02c e34b 702c
00000320: 4c3d 0629 3328 5c30 0a4f 0d2e 4654 8e2a
00000330: 3b7b 9928 8252 6228 d553 dd2a 7874 c629
00000340: 7874 c629 80ac ba29 5eb9 cc29 5eb9 cc29
00000350: 50d8 c129 109f a728 109f a728 36c7 9e28
00000360: 04bd 422e 5d77 c430 93eb 6d31 fc35 8c2e
00000370: ad7e 4b31 f3f6 3f2e 7ca3 222e dc13 6f2f
00000380: 0e27 ca30 75d3 352e 4724 4f2e 82cf 4d2e
00000390: f6be 262e 9b61 3a2e ed62 3d2e b811 032e
000003a0: d88d 042e e0ab 072e c6ab c52d 7ebb c42e
000003b0: 4df1 ba2c c67b f62d abeb 932f 1b1d 7131
000003c0: 1864 732f dd13 a92d fd1d 8e2c 7b38 182e
000003d0: 26be 1d2e 5a26 1e2e 3286 f82d 288b 052e
000003e0: 80ea 192e 15af b12d 30a2 c22d e3c3 e42d
000003f0: 151a c02f 026c db2f 71c1 5031 4823 2131
4.6567346e-12 5.3821214e-12 2.576388e-11 5.124024e-11 2.3014057e-09 1.079636e-09 2.826667e-12 4.333949e-10
1.9148994e-09 7.5183505e-12 1.5839987e-11 1.5888922e-11 8.452749e-12 2.0483027e-11 2.0631616e-11 6.144651e-12
1.704221e-11 1.723158e-11 1.3210065e-09 8.876571e-10 1.86246e-09 2.4960684e-10 3.0829891e-10 2.4882477e-10
1.985278e-12 4.344947e-10 3.983192e-11 3.3226647e-11 3.7192804e-11 3.0014956e-11 3.352276e-11 3.751421e-11
3.0070883e-11 2.4483075e-11 2.6382115e-11 2.0747652e-11 1.9288868e-10 5.4560137e-12 1.8120215e-10 1.7149022e-09
4.3577107e-11 1.0839739e-11 1.876027e-09 8.9081506e-11 1.1442375e-11 2.968823e-11 2.968823e-11 2.657866e-11
4.280263e-11 4.280263e-11 4.158136e-11 2.6112749e-11 2.6112749e-11 2.4843065e-11 7.415677e-10 1.7684135e-10
7.855658e-12 7.599259e-11 2.3064426e-09 1.6334588e-10 7.2361805e-13 1.1255587e-11 2.2170913e-11 8.1722094e-12
8.677805e-12 8.368324e-12 1.0379139e-11 1.2199273e-11 1.1730784e-11 1.2835923e-11 1.4563881e-11 1.4343401e-11
1.353797e-12 2.633765e-10 4.3245716e-11 4.9525434e-10 1.4518796e-10 6.2436706e-10 3.7899794e-10 2.529431e-13
1.9738786e-13 2.9287957e-12 2.9468828e-12 2.392132e-12 2.9517595e-12 2.9685661e-12 2.41383e-12 2.3479027e-12
2.3934416e-12 1.877852e-12 2.83259e-11 7.542457e-10 2.3118455e-11 1.8194692e-09 2.4076147e-10 2.1964297e-09
5.906522e-11 8.1952495e-13 1.7912295e-12 1.5106518e-11 1.5928541e-11 1.3293231e-11 1.5982262e-11 1.6777635e-11
1.3661611e-11 2.0157775e-11 2.0896916e-11 1.7194874e-11 2.8142175e-10 6.297137e-11 1.3732758e-11 4.2454317e-12
7.487145e-10 2.8503214e-10 1.5538494e-13 2.6325592e-10 1.3472639e-13 1.7772497e-12 2.1266819e-12 1.8919447e-12
1.8665876e-12 2.226154e-12 1.916641e-12 1.3553927e-12 1.7168011e-12 1.405472e-12 1.1831715e-10 1.9609783e-10
4.6820914e-10 6.349236e-10 1.273717e-10 2.0358084e-12 8.3675986e-14 4.244227e-10 1.0138472e-10 3.4604756e-12
5.4047565e-12 5.070712e-12 3.4592646e-12 5.403605e-12 5.0696617e-12 2.4873185e-12 3.2749953e-12 3.2464027e-12
6.85943e-11 2.859598e-10 9.517933e-12 1.788558e-10 6.9625146e-11 6.4496e-13 2.9416825e-12 1.1283803e-09
4.546491e-11 1.0134667e-11 1.04944916e-11 7.23496e-12 1.1349331e-11 1.1380969e-11 8.344952e-12 1.1206154e-11
1.12929015e-11 8.354528e-12 1.158501e-10 7.598183e-11 4.2897008e-10 2.3498075e-09 1.5819555e-10 1.7747698e-10
1.7575378e-09 3.3291717e-11 1.4460276e-09 1.02459714e-10 1.06803e-10 1.0042534e-10 1.1573578e-10 1.1924081e-10
1.1456355e-10 1.12046324e-10 1.15765196e-10 1.11278e-10 4.4052304e-09 1.1319768e-08 1.3044257e-09 1.9847109e-08
4.3373554e-09 2.6440239e-09 2.1188695e-10 1.069078e-09 2.5983269e-09 2.309003e-10 2.3305455e-10 1.7832884e-10
2.3347216e-10 2.3461683e-10 1.7947291e-10 1.03684394e-10 1.0511335e-10 8.8838194e-11 5.9127278e-12 3.4148177e-12
2.9807144e-14 8.009266e-10 3.212989e-11 2.5282744e-13 1.7039855e-14 1.2563411e-14 3.9315656e-13 8.8131705e-14
8.8131705e-14 8.289983e-14 9.091576e-14 9.091576e-14 8.608446e-14 1.8609707e-14 1.8609707e-14 1.7627918e-14
4.4278373e-11 1.4294802e-09 3.4621948e-09 6.3760525e-11 2.9612395e-09 4.3647707e-11 3.697974e-11 2.1743979e-10
1.4708534e-09 4.1342447e-11 4.709857e-11 4.6795907e-11 3.7913638e-11 4.2378195e-11 4.306149e-11 2.980169e-11
3.0139308e-11 3.0848102e-11 2.247259e-11 8.9463534e-11 5.3132277e-12 2.8021929e-11 2.6906596e-10 3.508666e-09
2.2136282e-10 1.9221897e-11 4.039212e-12 3.4610963e-11 3.5866553e-11 3.5959104e-11 2.825393e-11 3.0364294e-11
3.499645e-11 2.0200322e-11 2.2127272e-11 2.600759e-11 3.494313e-10 3.9912612e-10 3.0377942e-09 2.3448639e-09

exp_avg f4 [16]
00000000: 2f61 5335 026f d4b6 69c4 f1b5 b172 f1b5
00000010: f309 3c35 637b b735 b9c4 a035 8897 1db6
00000020: 89fc 9233 dda1 a735 1e43 f835 abfe 6734
00000030: a6eb 94b5 2ac1 0036 db7b c435 c5ca 22b6
7.8745046e-07 -6.3310154e-06 -1.8013062e-06 -1.7989279e-06 7.0049936e-07 1.3670473e-06 1.1978183e-06 -2.3483026e-06
6.844591e-08 1.2489578e-06 1.8496974e-06 2.1606199e-07 -1.1095442e-06 1.9185923e-06 1.4639185e-06 -2.4257909e-06

exp_avg_sq f4 [16]
00000000: 204b 9f2e 40b3 de2e 2090 8b2e e752 e02d
00000010: 0a35 d52d aa7b 782e 78c4 2d2e ddd2 db2d
00000020: 8da7 f52d 64f3 362f 58a7 4930 31c9 0c2d
00000030: fb19 162f fe10 a22e c04d fd2e cfd5 3d2e
7.243828e-11 1.01272324e-10 6.34659e-11 2.5502668e-11 2.423885e-11 5.6498507e-11 3.9510145e-11 2.499106e-11
2.7927683e-11 1.6639273e-10 7.3361184e-10 8.002752e-12 1.365165e-10 7.3699255e-11 1.1518919e-10 4.3163525e-11
