output/blue/images/epoch_1.pt (torch, 369054 bytes, 27 tensors)

conv.0.weight f4 [16, 2, 3, 3]
000000 89 19 33 be 23 cf 7e be 10 0b c2 bd 37 dd 02 be
       -0.1749021 -0.24883704 -0.09474766 -0.127797
000010 bc c9 2d 3e f7 7f 0b 3e e3 7f 61 be 96 28 a8 3d
       0.16971487 0.13623033 -0.22021441 0.08210866
000020 94 23 14 3e 75 6e 37 3d 29 d4 b3 bc 5a e6 de 3d
       0.14466697 0.044783074 -0.021951752 0.1088378
000030 5f 7e 22 be 20 c0 44 be e3 d3 49 3e 62 1b 24 be
       -0.15868519 -0.19213915 0.19709735 -0.1602607
000040 5b a2 bf 3c 79 39 15 3e ae d9 43 3e a7 1e 04 3e
       0.023392847 0.14572705 0.19126007 0.12902318
000050 12 13 5d 3e 18 62 32 be 43 be 86 bd d9 b7 bb bd
       0.21589306 -0.17420232 -0.06579258 -0.091659255
000060 75 d4 49 be c5 cc 81 3d ae c3 9a bd e3 7a 57 3e
       -0.19709952 0.06337885 -0.07556854 0.21042971
000070 14 09 86 bd 47 5c 78 be 58 59 84 bd 62 10 26 be
       -0.065447 -0.24253951 -0.064623535 -0.16217187
000080 8c 8e 9f bd 9c 6e 35 3e dc 35 05 3d a0 2c 32 3e
       -0.077908605 0.17717975 0.032522067 0.17399836
000090 c5 63 0b be d9 d3 4e be d2 88 23 bd 0a 3c 11 3e
       -0.13612278 -0.20198001 -0.039925404 0.1418306
0000a0 5d 9f a3 bc 32 86 da bd ea cb ba 3d b4 13 b1 bc
       -0.019973451 -0.10670127 0.09120925 -0.02161584
0000b0 fb 93 1a be 41 cc c9 bd 62 e9 3d be e8 2d c1 3d
       -0.15095513 -0.098534115 -0.1854606 0.09432584
0000c0 e8 e2 1a 3d b6 b4 d5 3d 61 66 9c bd f7 0f bc 3d
       0.03781405 0.104348585 -0.07636715 0.091827326
0000d0 17 77 ec bb f2 7b f4 3c 87 5e 19 3e f7 5a 29 bd
       -0.007216345 0.029844258 0.14977466 -0.041346516
0000e0 dd 03 4f be 80 30 4a be 9f 4f 64 3e 5e a3 a1 3a
       -0.20216317 -0.19745064 0.22295998 0.0012332012
0000f0 2a bd 72 be d8 e3 1d be 78 5c c6 bd 11 30 62 be
       -0.23704973 -0.15418947 -0.09685606 -0.22088648
000100 49 b1 5f be ea c3 1e 3e 4c 27 8b bd 74 59 3b be
       -0.21844973 0.15504423 -0.06794605 -0.18295842
000110 8d 2a 4a bd 18 d4 5e 3e 88 fc ad 3d 1d 8f 2b be
       -0.049356986 0.21760595 0.08495432 -0.16753812
000120 52 70 2d be 09 65 1e 3e 2b 88 df bc 08 77 f0 3c
       -0.16937378 0.1546823 -0.02728661 0.029353634
000130 2d 18 b9 bb 30 ff cb 3d f6 33 20 3e 6c f8 43 be
       -0.005648634 0.099607825 0.15644822 -0.19137734
000140 41 41 51 be 6f 85 28 3e 03 af 09 be 68 e0 ca 3c
       -0.20435049 0.16457151 -0.13445668 0.024765208
000150 79 a3 7c be e6 99 c7 3d 6e 66 62 be 8a da 7a 3d
       -0.24671735 0.09746151 -0.22109386 0.06124357
000160 da 61 fd bd 11 84 27 3e 9f 1b 0a be 14 0f 88 bd
       -0.12372179 0.16358973 -0.13487099 -0.06643501
000170 1e 0c 54 be d5 f2 14 3e 2a ce a1 3d 3e 0b 4d 3e
       -0.20707747 0.14545758 0.07900651 0.2002382
000180 49 f8 49 bc 0a 0a 60 be f4 0c 27 be c2 8f 0d 3d
       -0.012327262 -0.2187883 -0.16313535 0.034560926
000190 58 ab 4d 3e a1 e6 46 be 9a 48 81 bd ca ca 83 bd
       0.20084894 -0.19423915 -0.06312676 -0.06435163
0001a0 7e 15 d7 3d b3 d6 77 3e ad 62 3c be 9e b1 96 3c
       0.10502146 0.24202995 -0.18397017 0.018395241
0001b0 dd b0 ff 3d 33 05 2d 3d 87 5e 55 bd 5e e5 27 be
       0.12484906 0.042241286 -0.0520921 -0.1639609
0001c0 f4 94 3a 3e 95 e2 20 3e 91 06 7c be e4 a8 d7 3c
       0.18220884 0.15711434 -0.2461188 0.02632565
0001d0 6b 83 57 be 82 1e de bd d8 cd a6 3d c1 73 d8 3d
       -0.21046226 -0.10845663 0.0814473 0.10568953
0001e0 8f 17 61 3e 3d 79 4e be 81 61 1a be ae 3f 38 3e
       0.21981643 -0.20163436 -0.15076257 0.17993042
0001f0 87 db 5e be 99 0a aa bd 02 70 b9 3b bd cb 6b 3d
       -0.2176343 -0.083028026 0.0056591043 0.057567347
000200 66 cc dc 3d 7a d6 a6 3d 3a a6 32 bd 3e 60 dd bd
       0.107811734 0.08146377 -0.043615557 -0.10809372
000210 84 47 29 be 34 7e 8f 3d 7d 85 46 3d ab bb 2a bc
       -0.16531187 0.07006493 0.048467148 -0.01042072
000220 6e 62 68 3e 93 d0 25 3e 41 cc 91 bd 1b 25 52 be
       0.22693798 0.16192846 -0.071190365 -0.20521967
000230 ef eb 92 3b db ea 57 be 2f fa 53 be 68 70 da 3d
       0.004483692 -0.21085684 -0.20700906 0.10665971
000240 3a 01 64 3d b2 b8 24 3e 1f 4c 1c be 9a a9 a2 3d
       0.055665232 0.1608608 -0.15263413 0.07942505
000250 69 0e 94 3c 3e 17 48 be cf 2a df bd ca 70 27 3e
       0.018073278 -0.19540116 -0.10896837 0.1635162
000260 9a 7b bf bc 15 99 2c 3e 71 33 1f be 4d 9e 02 bd
       -0.023374368 0.16855271 -0.15546967 -0.03188925
000270 81 28 de 3d e6 27 e3 bd 86 90 1f be a0 d8 ab 3c
       0.10847569 -0.110915944 -0.15582475 0.020977318
000280 f5 57 0f 3e 13 d4 60 be fa 52 64 be 7c 69 35 bd
       0.13998397 -0.219559 -0.22297278 -0.04429005
000290 59 7a 52 3d c5 37 28 3e 49 36 93 bd 9b f9 86 bd
       0.05138621 0.16427524 -0.071880884 -0.06590577
0002a0 16 c0 e2 3d 21 17 04 be 3b 3e 0a bd 08 51 47 bd
       0.11071794 -0.12899448 -0.033750754 -0.04866126
0002b0 e2 b9 71 3d c8 30 62 3e 8d 0b cd 3c b6 06 09 3e
       0.059015162 0.22088921 0.025029922 0.13381466
0002c0 02 23 43 3e c0 29 50 3e 3d 05 41 3c 01 d9 0a 3e
       0.19056323 0.20328426 0.011781034 0.13559343
0002d0 9b bd 86 3d 38 65 d4 3d ab fe b4 bd a2 cb 54 3e
       0.06579133 0.103708684 -0.088376366 0.20780805
0002e0 12 e4 bc bc 37 60 93 bd fd 2d 0a be 82 e9 1e 3d
       -0.023057971 -0.07196086 -0.13494106 0.03879691
0002f0 fd 76 bb 3d d0 8a 82 bd 99 13 04 3e 66 26 d1 3d
       0.091535546 -0.06374133 0.12898101 0.10212402
000300 97 dc 82 3c 34 e2 62 be 10 1c 1f 3e 49 51 68 be
       0.015974326 -0.22156602 0.15538049 -0.22687258
000310 d8 49 1f be 40 34 be bd f5 0e ed bd 92 ee b4 bd
       -0.15555513 -0.0928731 -0.115751185 -0.08834566
000320 5b 37 0a be e5 75 01 3e c8 23 29 3c 2c d6 22 be
       -0.13497679 0.1264263 0.010323472 -0.15902013
000330 b9 07 37 be 56 bc 73 be 4b 7d a4 bd 97 3d 8d 3d
       -0.1787404 -0.23802313 -0.0803171 0.06896513
000340 11 d2 18 bc da 55 2f be f2 6d 54 3e a5 08 2d be
       -0.0093274275 -0.17122594 0.20745066 -0.16897829
000350 24 55 bf 3d 40 10 1c bd 25 a1 55 be b3 1a 28 3d
       0.09342411 -0.038101435 -0.20862253 0.041041087
000360 59 27 c6 bd 10 bc 32 3e 1f 96 3c 3e b5 5a 0b be
       -0.09675474 0.17454553 0.18416642 -0.1360882
000370 90 b2 12 3e 7a 1b 5c be 94 4b 88 3c 7c 8d ee bd
       0.14325929 -0.21494856 0.016637601 -0.1164808
000380 15 0d 7e 3d 9d 2f 3f be 97 21 9f bd 0d b1 05 3d
       0.062024195 -0.18670507 -0.07770079 0.032639552
000390 87 98 0c be 21 12 39 3b ff 2c 18 be b7 0f ca 3d
       -0.1373006 0.0028239565 -0.14860915 0.098662786
0003a0 f6 b1 62 3d 1f 55 6a 3a 17 db 5b bd 90 e8 58 be
       0.055345498 0.00089390756 -0.053675737 -0.21182466
0003b0 6f ce 13 be 0d a7 4b be a2 3d 7b bd a4 dc 5f 3e
       -0.14434217 -0.19887944 -0.061338075 0.21861511
0003c0 42 85 56 3d 59 2c 0d be 3c 7b 1a be 8b dc ac bd
       0.05237318 -0.13786449 -0.15086073 -0.08440503
0003d0 9f 6d 6c be d7 62 a3 3d f2 59 05 3e 0f 4a 52 3e
       -0.23088692 0.079778366 0.13022593 0.20536064
0003e0 b6 d5 37 be 24 f5 78 3d ef a4 e5 3c a3 73 23 3e
       -0.17952618 0.06078066 0.028032748 0.1596208
0003f0 e8 21 35 3d e5 1a 78 3d b6 cb 30 3e a5 7d 1c 3e
       0.04422179 0.060572524 0.1726521 0.15282305

conv.0.bias f4 [16]
000000 a7 6b 06 3e cd f4 62 3e 74 a2 2b be 92 93 10 be
       0.13127004 0.22163697 -0.1676119 -0.14118794
000010 2c ac de bb d7 ea 41 3e 98 ac e4 3d 14 16 b4 3d
       -0.006795427 0.1893724 0.11165732 0.087932736
000020 ac 7d 0e 3e 07 23 e6 bd 74 12 08 3e 32 57 f1 bc
       0.13915128 -0.1123715 0.1328829 -0.029460523
000030 6d 37 53 bc 13 9b 0d 3e 7b a0 f5 bd ab 22 57 3e
       -0.0128916325 0.13828687 -0.119935 0.21009319

conv.3.weight f4 [32, 16, 3, 3]
000000 68 f5 53 bc b5 4c 0f bd 1e 9e 0d 3c 67 7e 8a 3c
       -0.012936927 -0.034985263 0.008643655 0.016905976
000010 91 02 7a bd 31 5e 35 bd 30 fb d8 bc 5f 92 26 bd
       -0.061037604 -0.04427928 -0.026486963 -0.040666934
000020 ad 39 9a 3d 7a 71 47 3d 98 99 a1 3c 7c c6 b6 bd
       0.07530532 0.048692204 0.01972656 -0.08924577
000030 b5 d1 c4 3c 41 b0 9a bd a1 38 9f bd da 8a 81 ba
       0.024025777 -0.07553149 -0.07774473 -0.00098833
000040 5e 5a da bb 1a 5b b4 3c e7 1e 9f bc 1e 0a 46 3d
       -0.0066636046 0.022016097 -0.019423915 0.048349492
000050 54 38 52 bd 1f 6c 24 3d 8f 5b 70 3d b5 18 2b 3b
       -0.05132325 0.040142175 0.058681067 0.0026107256
000060 bd 84 fd bc a2 84 09 3d 66 c6 9e bc c4 39 a4 bd
       -0.030947084 0.033573754 -0.019381713 -0.080188304
000070 7c 97 94 bd e1 90 ab bd 08 95 93 3d 04 c6 d8 3c
       -0.07255456 -0.08377243 0.0720616 0.026461609
000080 b3 c6 66 3d a6 a2 69 3d 21 2a 9f bc 4e c8 f1 3c
       0.056341838 0.05703988 -0.019429268 0.029514458
000090 0e cc 99 bd 28 36 60 3c 02 e4 2e 3d 8d 89 9c bd
       -0.075096235 0.013684787 0.042697914 -0.07643423
0000a0 1a 99 7b 3d 30 1e 02 3d b5 be a1 bc c0 13 78 3c
       0.061425306 0.03176707 -0.019744257 0.0151414275
0000b0 bd 26 c0 3c 02 3f 97 3d 7d 3d 7f 3c 95 04 af bc
       0.023455972 0.07385065 0.015578625 -0.02136449
0000c0 92 73 af bd fb 80 06 bd 05 d2 28 3d 83 64 1a 3d
       -0.08566965 -0.03283785 0.041215915 0.03769351
0000d0 bb e2 99 bd 6a fe 5e 3d d9 a9 22 bc b2 19 b1 bd
       -0.075139485 0.054441847 -0.00992819 -0.08647479
0000e0 1b 6b 3b 3d 90 ad 60 bd ad ec 38 3d 5a 8e 6c bc
       0.04575644 -0.054853022 0.045147587 -0.014438236
0000f0 6f a5 7b bd 0d 1c 4c 3d 80 04 10 bc 7e 4b 2f 3d
       -0.061437067 0.04983144 -0.008790135 0.042796604
000100 21 84 be 3b c6 b3 94 3d 28 1c 9b 3a ce 6b c8 3c
       0.005814091 0.072608516 0.0011833953 0.024465468
000110 c2 68 96 bd e6 64 6f bc 92 13 81 ba e1 6b 68 3d
       -0.073442 -0.014611458 -0.0009847751 0.056743506
000120 68 af 59 bd f7 8f cb 3c f0 fd 65 bd 5d 92 28 3a
       -0.053145796 0.024848921 -0.056150377 0.0006430501
000130 92 36 2c 3d 1c c7 89 3d f1 39 76 bd 20 8c b4 bd
       0.04204423 0.0672743 -0.06011385 -0.08815789
000140 9d da 23 3d 25 fa 12 bd 6f 9b 8c bc c3 e4 53 bd
       0.040003408 -0.035883088 -0.01716396 -0.051731836
000150 cf af 0f 3c 31 eb 8e bc 8d 5e 58 3d 10 f9 29 3c
       0.008769943 -0.017446132 0.052824546 0.0103743225
000160 84 c1 92 bd cc 5d 7f 3c 72 c7 d5 bc 44 4b 77 bd
       -0.071658164 0.015586328 -0.02609608 -0.060374513
000170 48 02 58 3d 3a 8f 9d bd 26 f7 51 bd c9 22 a9 bd
       0.05273655 -0.07693334 -0.05126109 -0.08258588
000180 19 8c 3e 3d 31 a1 a3 bd 9f fc 6c bc 45 e7 6d bd
       0.046520326 -0.07989729 -0.014464526 -0.058081884
000190 ee 60 8e bc bc 9d b6 bd 18 80 21 bd f5 e6 6e bd
       -0.017380204 -0.08916804 -0.0394288 -0.058325727
0001a0 23 5f 9d 3b 1e 6a 99 bd 99 5e ce 3c 89 be 92 bc
       0.004802601 -0.07490943 0.025191592 -0.01791312
0001b0 b6 1c 8d 3d cb 5c 29 3d c9 a6 a0 bd 3b be 89 3d
       0.06890242 0.04134826 -0.07844312 0.06725737
0001c0 23 3c 73 bd 1f 50 88 bd be ff 3b bd 83 b4 f2 3c
       -0.059383523 -0.06655907 -0.04589819 0.02962709
0001d0 31 36 a0 3b e6 be 9b 3c 9c 7d ae bd 55 55 52 3d
       0.0048892726 0.019011926 -0.08520052 0.05135091
0001e0 f0 6c 29 3d d1 92 ed 3c ff 0b 78 bd f8 b1 f7 3c
       0.041363657 0.029000672 -0.060558315 0.03023623
0001f0 c3 21 5d bd 32 35 39 3d ce c2 46 3c 6d be e6 bc
       -0.053987276 0.045216747 0.012131406 -0.028166974
000200 8b 02 a2 bc 96 6b 2c bc 8a 44 f0 3c 22 27 53 3c
       -0.019776603 -0.010523697 0.029329557 0.012887748
000210 3f e5 ba 3b 8b f3 92 bd de 87 0b 3d a0 5e 8c bd
       0.005703598 -0.071753584 0.03406512 -0.06853986
000220 46 32 43 3c d5 a4 5f 3d 33 0a c5 3c a9 d7 36 bc
       0.011913842 0.054600555 0.024052715 -0.011159816
000230 d4 5a 0f bc 2b 5a 7d bd ab 00 d0 bc 28 b5 ab bd
       -0.008749682 -0.06185357 -0.025390944 -0.08384162
000240 40 a5 7b 3d 8d fe 77 bd ee fa 9d 3b 1c 27 07 bd
       0.06143689 -0.060545493 0.004821173 -0.032996282
000250 3d 17 8c 3d ee a1 82 bc 04 81 bf bc 7b 06 a0 bc
       0.0684037 -0.015946355 -0.02337695 -0.01953434
000260 31 a1 0d 3b 60 3e ad bb 2b 90 8c 3d ad 5f e3 bc
       0.002161097 -0.0052869767 0.06863435 -0.027755583
000270 a3 cf 97 bd f1 b3 ab 3c 9b c4 84 bd ff bb 60 bd
       -0.074126504 0.020959826 -0.06482812 -0.054866787
000280 00 ba 1a ba 52 6a 89 bd 87 88 2a 3c ef ad 9c bd
       -0.000590235 -0.06709732 0.010408527 -0.07650363
000290 b9 b7 48 3d 18 21 33 bd 74 5d 95 bb b6 80 c0 3b
       0.049003337 -0.043732733 -0.0045582596 0.0058747185
0002a0 1a b0 cc bc 4e 08 81 bd 69 46 92 bc 67 64 93 bd
       -0.024986316 -0.06300412 -0.01785584 -0.071968846
0002b0 43 57 fb 3c 86 4d 75 bd f8 33 85 bd d7 ca 01 bd
       0.030681258 -0.059888385 -0.06504053 -0.031687584
0002c0 72 d4 f0 bc 61 42 96 bd 58 27 0b bd ae 73 e2 3a
       -0.029398177 -0.073368795 -0.033973068 0.0017276907
0002d0 be ed db 3c 2f a3 69 3d 96 1b 7d 3d 60 a0 9e bd
       0.026846763 0.05704039 0.061793886 -0.07745433
0002e0 b8 d5 84 bb bb bc ab 3b b2 ef 2e 3d c0 3c 57 3d
       -0.0040537976 0.0052410043 0.04270906 0.05254817
0002f0 24 f6 fe 3c 35 10 b6 bc f1 aa 54 bd 25 9f 4b bd
       0.031123228 -0.022224525 -0.051920835 -0.04971232
000300 e8 87 86 3d 34 ec 32 3d 00 ec 81 bd 8e 4a 31 bd
       0.06568891 0.043682292 -0.063438416 -0.04328399
000310 9b 36 19 3d a2 c9 c4 3c 42 e9 95 3c 75 9c a8 3d
       0.03740559 0.024021927 0.018299703 0.08232967
000320 aa ac da bc bb cc 7d bd fa 6f 83 bd 75 4e 30 bd
       -0.02669366 -0.061962824 -0.06417842 -0.043043572
000330 06 3a a7 bc 56 ee 86 ba 10 3a 1f bd 7a 21 99 bc
       -0.02041341 -0.0010294418 -0.038873732 -0.01869272
000340 ec 1c 57 3d b0 09 56 bd 8c 4e 83 bd 87 a8 6c bd
       0.052517816 -0.052255332 -0.06411466 -0.057777908
000350 68 2e 97 bd a3 8a 67 3c e3 41 68 bd 16 64 b8 bd
       -0.07381898 0.014132175 -0.05670346 -0.09003465
000360 ee fe 51 bd 3f f1 b5 3d 5e ab 89 3d f8 e3 10 bd
       -0.05126851 0.08883905 0.06722139 -0.035373658
000370 41 e6 e3 bc 25 6e 05 bb 73 75 fd bc e8 50 d4 bd
       -0.027819755 -0.002035984 -0.030939793 -0.10366994
000380 e2 67 81 3d d7 c0 19 bd 0c 2f 98 3d 86 c2 cc 3c
       0.06318642 -0.037537422 0.074308485 0.0249951
000390 03 f4 f4 3a c3 57 7e bd fc 83 26 bc e6 48 1f 3d
       0.0018688444 -0.062095415 -0.010163303 0.03888788
0003a0 07 b2 e9 3c 4c 01 a6 bd a4 ce 92 3d fa c5 8b bd
       0.028527273 -0.08105716 0.0716832 -0.068248704
0003b0 1a e0 79 3d d8 66 9b 3c 0e 60 1f bb bb 1f 10 3b
       0.061004736 0.018969938 -0.0024318728 0.002199157
0003c0 46 fc 90 bd 42 06 b3 bd 70 e9 b1 bd b0 6b 09 3d
       -0.07079367 -0.08741428 -0.08687103 0.033549964
0003d0 57 95 8c 3d 04 d8 b2 3d e3 d6 4b 3d 6c 36 47 bd
       0.06864422 0.08732608 0.04976548 -0.048635885
0003e0 44 62 a7 3d 05 ed d9 3c a4 2c c9 3c 08 0e a2 bd
       0.081730396 0.026602278 0.02455742 -0.079128325
0003f0 ce 54 93 3d 9b 42 5d bd 20 0a 05 bd 7b 0a a3 bd
       0.071939096 -0.054018598 -0.03248036 -0.07960983

conv.3.bias f4 [32]
000000 53 5c c3 bb 01 a7 ca 3d 13 c2 5b 3d 4c e9 8b 3d
       -0.0059619336 0.09895135 0.05365188 0.06831607
000010 08 cc 24 bc 3e b2 2d 3c 1d 7a 2a bc 6d af 00 3d
       -0.0100584105 0.010601578 -0.010405091 0.0314173
000020 fd 1e 09 bd dc 5e 52 bd df 94 0a bc 6e ae 26 bd
       -0.03347682 -0.051359996 -0.008458345 -0.040693693
000030 f8 70 fb 3b 9c ce a7 3d fa 19 90 3c 89 01 10 3d
       0.007673379 0.081937045 0.017590512 0.035157714
000040 56 23 d3 bc d0 68 07 3c 74 34 27 3c 6c e7 0a 3c
       -0.025773685 0.008264735 0.010205377 0.008478027
000050 5a 0a 6c bc 81 3b 79 3d e3 65 ef 3c 49 c4 e5 ba
       -0.014406765 0.060847763 0.029223388 -0.0017529811
000060 36 44 9e 3c 05 cb 80 3d fe 8e 25 bd 83 81 f5 bc
       0.019319635 0.06288723 -0.04041957 -0.029968983
000070 af e8 66 3d df 42 47 bd f9 97 6f bd fb 47 72 3c
       0.056374248 -0.048647758 -0.05849454 0.014787669

fc.0.weight f4 [128, 128]
000000 21 8a 82 bd e6 58 4a 3d 52 24 78 3d 6e 54 e2 bb
       -0.06374002 0.049401186 0.060581513 -0.0069070375
000010 e7 e9 0d bd 87 a6 ca bc f8 05 71 3d b5 3e 30 bd
       -0.034646895 -0.02473761 0.058843583 -0.043028552
000020 31 08 26 bb 04 29 e7 bb 9c db a9 bd d7 d3 e0 3c
       -0.0025334472 -0.00705445 -0.0829384 0.027444763
000030 ab 18 96 bd df 82 4f bb a8 61 b7 bc 1d cd 66 3c
       -0.07328924 -0.0031663699 -0.022385433 0.014086989
000040 a8 c6 88 3d fb 90 81 3d 3a 99 25 3d 48 ac aa bd
       0.06678516 0.06326481 0.04042933 -0.08333641
000050 72 9c 94 3d de 40 45 bc 19 1e 21 bd 8e a3 18 3d
       0.07256402 -0.012039391 -0.039335344 0.037265353
000060 5a 56 06 3d 7d 85 52 bd ed 72 6d bd e0 db 20 3d
       0.032797195 -0.051396836 -0.05797093 0.03927219
000070 47 03 09 3d 59 6c b6 3c 5c 9f 98 3d 57 1e a1 3d
       0.03345039 0.022268461 0.074522704 0.07867115
000080 52 f2 10 3d 48 d1 90 3c e7 44 11 bd 5c 9a 25 3c
       0.035387345 0.017677918 -0.0354661 0.010107603
000090 65 2a 83 bd 21 91 a5 bd 7a c4 1d bb 78 4e 82 bd
       -0.064045705 -0.08084322 -0.0024073408 -0.06362623
0000a0 35 81 57 bd 97 83 7a bd cf e9 00 bd 34 9f b1 bd
       -0.052613456 -0.06116065 -0.031472977 -0.08672944
0000b0 fb f3 61 3d 13 ef a3 bd 44 91 55 3d 8a f5 f6 3c
       0.05516432 -0.08004584 0.05214049 0.030146379
0000c0 83 38 8a bd 40 9b 75 3d 2a 5e ab bd 24 88 89 3d
       -0.0674906 0.05996251 -0.0836757 0.0671542
0000d0 f1 87 0d bc 47 a6 58 bd 92 26 cd 3c cf 83 c5 3b
       -0.008638368 -0.05289295 0.025042806 0.0060276757
0000e0 bb af d9 bc 2b 32 53 bc 3a 91 a2 3d 63 ab b1 3c
       -0.026573053 -0.012890379 0.07937856 0.021688169
0000f0 b3 36 7b bc 57 ee 66 bd 16 2e b9 bc 6c 3f 1f bd
       -0.0153328655 -0.056379642 -0.022604983 -0.038878843
000100 f5 81 c3 3b 4a aa 04 bd 8d c3 79 bd eb 30 12 3d
       0.00596642 -0.032388963 -0.060977507 0.035691183
000110 45 20 97 3d 9e 66 bd bc 72 b4 64 3d af 12 68 3d
       0.07379202 -0.02312022 0.05583615 0.056658443
000120 f5 58 a9 3d 08 e3 bf bc 86 df 23 bd dc bb b5 3d
       0.0826892 -0.023423687 -0.04000809 0.08873722
000130 5c 82 ac 3c 79 b2 82 3d 0d af 42 3d a3 79 76 bd
       0.021058254 0.06381697 0.047530223 -0.060174596
000140 d0 1a 70 3d eb 10 27 bc 81 3e 6b bd 58 a9 86 bd
       0.05861932 -0.010196905 -0.057432655 -0.065752685
000150 71 42 75 3d 42 d7 ae 3d 76 9e 81 bd 8b 51 ae 3d
       0.059877817 0.08537151 -0.06329052 0.08511647
000160 3b e0 fe 3c 1b 1b a6 bd 93 d9 34 bd 64 ce af bc
       0.03111278 -0.08110639 -0.044152807 -0.02146072
000170 0a 81 19 bd 81 ca 24 3c e9 58 03 3c bb a8 a1 3c
       -0.037476577 0.010058046 0.008016803 0.019733777
000180 78 c4 9f 3d e7 62 11 3d 1f 0d 35 3a cf 53 51 3c
       0.07801145 0.03549471 0.0006906557 0.012776329
000190 ef 53 27 bd 43 0c f9 bc 92 a9 f0 3b ec ca 8b bc
       -0.04085153 -0.030401355 0.007344433 -0.017064534
0001a0 fb 6e a8 bc ba d8 f4 3c e6 1f 8f 3d 0f cd 89 bd
       -0.020560732 0.0298885 0.06988506 -0.06728565
0001b0 51 64 5f 3d 85 4f 39 3b 16 b2 82 bd 5f 16 c4 3c
       0.05453903 0.0028276157 -0.063816234 0.023936449
0001c0 8f 54 f8 3c 7f 89 c8 bb f6 03 63 3d 8e 6e 58 3d
       0.030313758 -0.0061199064 0.0554237 0.05283981
0001d0 30 02 75 3d e2 38 8a 3d e7 b4 84 3d 95 86 01 bd
       0.05981654 0.06749131 0.06479817 -0.031622488
0001e0 a1 3f 91 3d 56 8d 80 3d bf 65 98 3d fb 31 53 3d
       0.070922144 0.06276958 0.074412815 0.051561337
0001f0 94 46 50 3c 21 18 77 3d fd 17 88 bc 4f 42 29 bd
       0.01271214 0.060325745 -0.016613001 -0.041323002
000200 be 8f c1 bc c5 c2 9f 3b ab 7d 91 3d 66 7d 38 3d
       -0.023628112 0.0048755133 0.071040474 0.045041464
000210 ff 97 19 3d 6d ca 8d 3d 38 45 36 3d c0 36 47 3d
       0.03749847 0.06923375 0.044499606 0.048636198
000220 82 86 9a bd f2 b5 09 bd 36 87 09 bd 31 a5 62 bd
       -0.075451866 -0.033620782 -0.033576213 -0.05533332
000230 e7 27 99 bd 7a 11 8f 3d 8e d6 5a 3b 65 ec 75 bd
       -0.07478314 0.06985755 0.0033392045 -0.060039897
000240 4e 3a a2 3d b9 82 b3 bc f2 3c b0 bd a3 27 05 bd
       0.07921277 -0.02191292 -0.086053744 -0.032508504
000250 38 42 9f ba 0f 5f d7 3c b6 0a 89 3d 34 b3 6f bd
       -0.0012150472 0.026290445 0.06691496 -0.05852051
000260 da f2 07 3d 75 9e d1 bb 84 1b df 3c f7 e2 43 bd
       0.033190586 -0.0063970634 0.0272348 -0.047823872
000270 46 5d 3c bd 31 dc 85 bd 04 46 c8 3c 06 48 9f 3d
       -0.04598739 -0.06536139 0.024447449 0.07777409
000280 c2 45 76 3d 97 82 a7 3c 98 5e 0b bd 7c b0 ca 38
       0.06012512 0.020448012 -0.03402576 9.6649834e-05
000290 93 3b 85 bd a2 e7 94 3d c1 a0 d4 3c 8d e8 3b bd
       -0.065055035 0.07270743 0.02595556 -0.045876075
0002a0 2a ea eb bb ee 34 4f 3d e7 b3 e3 bc e3 ab 05 3d
       -0.0071995454 0.050587587 -0.027795745 0.032634627
0002b0 1c 10 cf bc da b3 89 bc f5 64 36 3c f3 1c 73 3c
       -0.025276236 -0.016809393 0.0111324685 0.014838445
0002c0 16 16 a9 3d 63 66 94 bd 8f 64 8c 3c cb e1 b0 3d
       0.08256166 -0.07246091 0.017137794 0.086368166
0002d0 f1 5c 58 bd 05 02 f8 b9 a4 be 12 bd bb a3 c8 bb
       -0.05282301 -0.0004730375 -0.03582634 -0.006123034
0002e0 a2 22 a3 3c 65 37 80 bd 4f 8f 9b 3d dd 41 e7 bc
       0.019913975 -0.06260566 0.07595693 -0.028229648
0002f0 79 75 17 3d 87 9a a3 3c 2e 0f 59 3d 1b 5a 4d 3c
       0.036977265 0.019971145 0.052992992 0.01253369
000300 6e b6 7b 3d 3e 6d 8d 3a e5 bc 53 bc 1e bd 8d bd
       0.061453275 0.0010790003 -0.012923454 -0.06920837
000310 41 d7 9d 3d fa b6 63 bd 42 97 5e bc da 0a 20 3b
       0.07707072 -0.055594422 -0.013585867 0.002442053
000320 0a 20 45 3d 06 2b 52 bd b9 63 bf bb e8 f9 22 3c
       0.048126258 -0.05131056 -0.0058407453 0.009947278
000330 53 75 85 3d fa 0d 75 bd 65 d2 42 3d ac ca bf 3d
       0.065165184 -0.059827782 0.04756393 0.093648285
000340 a5 2c 06 bc d0 4c 62 bd 00 d0 31 bd f9 d8 5a 3d
       -0.008189355 -0.055249035 -0.043411255 0.053429577
000350 58 57 16 bd 47 85 2e 3d a1 0b 8c 3d 83 bb 0a bc
       -0.03670439 0.042607572 0.068381555 -0.008467558
000360 7d fe 89 bd 30 64 82 bd 2d 33 2e 3d c5 79 23 3d
       -0.06737993 -0.063667655 0.042529274 0.03991105
000370 f4 fc b2 3d ba ee 66 bc dd 27 8b 3d 92 33 87 bd
       0.08739653 -0.014095003 0.06794713 -0.06601633
000380 73 51 89 3d ed b1 e5 bc fe da 49 3d df ad 81 3d
       0.06704988 -0.028038943 0.049281113 0.063319914
000390 63 44 fb bb 0b fb 1a bc 71 ef b0 bc e7 c5 22 3d
       -0.0076680644 -0.009459267 -0.02159855 0.039739516
0003a0 92 58 a2 3d cb e9 07 3d 99 b2 b3 bc ad 59 87 bd
       0.0792705 0.033181947 -0.021935748 -0.06608901
0003b0 b8 e6 1a 3d 29 83 89 bd 4d 2a 5d 3d 40 2f 34 bd
       0.037817687 -0.0671447 0.05399542 -0.043990374
0003c0 59 d7 4a 3d 84 2b f4 bc f0 62 0e 3d 6b 22 90 3d
       0.049521778 -0.029805906 0.034762323 0.07037815
0003d0 92 da 60 3d 7e 41 6b 3d fb 3c 99 3c 38 35 90 bc
       0.054895945 0.057435505 0.018705836 -0.017603502
0003e0 a7 94 a6 bc bd d9 6e bd f5 29 33 bd b6 64 a1 bc
       -0.020334555 -0.05831312 -0.043741185 -0.019701343
0003f0 28 96 74 bd 4c 62 67 3c 7f 97 5f 3d a9 25 57 38
       -0.059713513 0.014122557 0.054587837 5.129507e-05

fc.0.bias f4 [128]
000000 26 8e 3d bd 68 89 3f bd 1a 9e 1f 3d b2 23 74 bd
       -0.04627814 -0.0467619 0.038969137 -0.059604354
000010 ec d2 ab 3d 81 3a 9a 3d cf de 67 3d 2e d3 a3 bd
       0.083898395 0.0753069 0.05660897 -0.07999264
000020 20 a3 70 3d d7 23 69 3d 66 d8 c9 bc a8 ac 9b bd
       0.058749318 0.056918945 -0.02463932 -0.07601291
000030 7a b9 0a 3d c3 ad 54 bd a6 f9 bf ba dd b3 ef 3c
       0.03386829 -0.051923525 -0.0014646545 0.02926057
000040 69 29 9a bd f9 9c 64 bd 14 d3 aa 3d d8 0e e0 bc
       -0.075274296 -0.055813763 0.08341041 -0.027350828
000050 58 ed 39 3d cc 35 72 3d 76 79 b3 bb 83 f6 c4 3c
       0.045392364 0.059133336 -0.0054771258 0.024043327
000060 ae 5a 86 3a 06 28 04 bd 78 f4 9c bd 37 61 76 bd
       0.0010250413 -0.03226473 -0.07663816 -0.060151305
000070 a3 58 4f bc fc d3 8d 3d 14 de f1 3c 5a f2 cd 3c
       -0.01265541 0.069251984 0.02952484 0.025139976
000080 04 9d 61 3d 10 34 f5 3c 01 59 10 bd 1f cc 16 bd
       0.055081382 0.029932052 -0.03524113 -0.03681576
000090 6b b2 b2 3d 68 94 92 3c c7 12 ef bc 0a d7 84 3d
       0.08725437 0.017893031 -0.029183758 0.06486328
0000a0 4e 2b 15 bd b7 f0 96 bd 1a f8 4e 3d 1c 7d 57 3d
       -0.03641825 -0.073701315 0.050529577 0.052609548
0000b0 0e 0e 8e bd 7a 6b 39 bd f6 05 4a 3d 98 1f a1 bd
       -0.069362745 -0.045268513 0.04932209 -0.07867354
0000c0 94 d1 09 bd 58 cf 27 bd 80 6f c2 3c 49 fd ac 3d
       -0.033647135 -0.040969223 0.023734808 0.08446748
0000d0 ef f7 af bd f5 b0 ab 3c 56 43 38 3d 11 e1 c0 bd
       -0.085922115 0.020958403 0.04498609 -0.09417928
0000e0 5f 30 86 bb c2 d9 36 3c 1b 21 70 bd 70 ba be ba
       -0.0040951218 0.011160316 -0.05862532 -0.0014551412
0000f0 f8 3b 4d bd c2 19 51 bd 82 49 e9 3b 6e 73 16 3d
       -0.05010602 -0.051049955 0.0071193585 0.036731176
000100 79 ce c1 3c 50 66 83 bd 33 10 d5 bb a4 b7 96 bb
       0.023658024 -0.06415999 -0.0065021752 -0.0045995284
000110 7c 85 b6 bd 00 d6 77 3d b8 4f 8a 3d db 7a a3 3d
       -0.08912179 0.06050682 0.067534864 0.07982417
000120 2b 99 91 3d 1d dd 77 3d 32 f2 88 3d 83 e3 49 3d
       0.071092926 0.060513604 0.0668682 0.049289238
000130 ce 46 fa 3c 3d d7 28 3d 4e 9e 8c 3d 07 5e ac 3d
       0.03055134 0.041220892 0.06866132 0.08416372
000140 28 a2 3f bc 05 95 09 3c 11 1b 94 bb 9c 04 8e bd
       -0.011696376 0.008397345 -0.004519828 -0.06934473
000150 72 0c ff bb 57 51 1b 3d 1c 11 a8 bd af 0e a3 bd
       -0.007783466 0.03791937 -0.08206388 -0.07961785
000160 1b ff 06 3c d0 ce 8e bd 8b 89 0a 3d ff e7 b6 3d
       0.008239533 -0.0697304 0.033822577 0.089309685
000170 e7 bd bf bd b0 d7 a1 bc 11 8d 4f 3b f3 ad d8 3c
       -0.09362393 -0.019756168 0.0031669775 0.026450133
000180 76 b0 28 3d e8 71 97 bd 1c 7c 8a 3d 02 2c 8f bd
       0.04118391 -0.07394773 0.06761953 -0.06990816
000190 ea be 0c bd 5d ea 83 bd 77 dc 96 3c cd 18 b8 3d
       -0.034361757 -0.064411856 0.018415673 0.089891054
0001a0 10 0a 5b bd a2 8e f9 3c 58 aa 80 bd 74 44 5a 3d
       -0.053476393 0.03046352 -0.062824905 0.05328794
0001b0 1d e0 4d bd 60 be e9 bc d5 74 0d 3d e3 45 a4 bd
       -0.05026256 -0.02853316 0.034535248 -0.08021142
0001c0 58 36 85 3d 68 13 b4 bd 95 03 1e 3d fd 14 8c bd
       0.06504506 -0.08792764 0.038577635 -0.06839941
0001d0 7e f2 b9 3c d3 bb 9c 3d 72 7c 9d bc ac 68 78 3c
       0.022698637 0.07653012 -0.01922438 0.0151616745
0001e0 af 01 98 3d b4 c0 81 bc 5f 5e 21 3d 71 d9 17 3d
       0.07422196 -0.015838958 0.03939664 0.037072603
0001f0 9f 0a 96 bd 05 26 93 bc 89 7d 03 3d 4e 73 12 bc
       -0.073262446 -0.017962465 0.03210214 -0.008938624

fc.2.weight f4 [64, 128]
000000 d0 9a a5 bc b9 0c 10 bd 37 64 58 bd c6 7d 81 ba
       -0.020215422 -0.035168383 -0.052829947 -0.0009879402
000010 78 80 a9 bc b6 ba 17 bd 98 b0 3c bd 96 d9 90 3d
       -0.020691141 -0.037043296 -0.04606685 0.07072751
000020 9f d7 1e 3d 6f 8c 74 bc 02 a4 23 3d 20 31 71 3d
       0.03877985 -0.01492606 0.039951332 0.05888474
000030 0c 00 11 3d e8 a8 5c bd bb fe 90 3c 6d f4 00 3c
       0.035400435 -0.05387202 0.01769959 0.007870776
000040 25 69 9b 38 af 84 4f bd 46 97 92 3d b4 57 db 3c
       7.410561e-05 -0.050663646 0.07157759 0.026775219
000050 41 b2 7b bd b1 fe 73 bd 61 b2 9d bd 9f 18 2e bc
       -0.061449293 -0.059569065 -0.07700039 -0.010625987
000060 69 fb b4 bd 5d 7c af bd 2a d3 6b 3d 50 70 8e 3c
       -0.08837015 -0.08568642 0.05757443 0.01738754
000070 45 4c 89 3d 19 c8 dc bc be af 5d bd db f4 28 bd
       0.067040004 -0.026950883 -0.05412268 -0.041249137
000080 fe d9 5f 3c fa c4 d7 bb 06 07 69 3d 85 ca 72 bd
       0.013662813 -0.0065847607 0.056891464 -0.05927517
000090 6e f2 18 3d 42 63 89 3d db 86 7c bd 44 77 8d 3d
       0.037340574 0.06708385 -0.061652046 0.06907514
0000a0 fe 55 1b bd 61 e7 8e bd 66 c0 d8 bc 3d f3 42 bd
       -0.037923805 -0.06977726 -0.02645893 -0.04759525
0000b0 4f 72 8d bd 77 b2 7b 3c 46 d3 b8 bd b6 ce 54 3d
       -0.06906568 0.015362374 -0.09024672 0.051954947
0000c0 5a 90 97 3d db b2 d3 bc 3a 51 8c bd 9b 5a a1 bd
       0.0740058 -0.02584212 -0.0685143 -0.0787861
0000d0 35 35 ad bd 74 01 9c bc 2e 5a ca bc 6a ad 9a 3d
       -0.08457414 -0.019043662 -0.024701204 0.07552607
0000e0 4b db 55 3d c8 a5 ea 3c 17 01 4c 3d a8 0e 4f bc
       0.052211087 0.028643504 0.049805727 -0.012637772
0000f0 76 af 94 3d 8c 2d 06 3d cb b5 a0 bd 6d 2b 9a 3d
       0.07260029 0.03275828 -0.07847174 0.07527814
000100 4a e4 4c 3d 56 d4 86 bd 1d b7 aa bd 67 c8 7d 3d
       0.0500224 -0.065834686 -0.08335707 0.061958697
000110 17 6b bd bd 2e 88 7c bd 41 0b c6 bc 4f 52 b6 bd
       -0.092489414 -0.06165331 -0.024175288 -0.08902418
000120 9b cf 9a 3c 0d 79 97 bc 14 2b 5f 3d b6 92 30 3c
       0.018897822 -0.018490339 0.054484442 0.010777166
000130 5d 1e 1d bd 47 11 9d 3c bd bd 63 bd 11 64 43 3d
       -0.038359035 0.019173278 -0.05560087 0.047702853
000140 87 e1 c7 3c 06 e2 14 3d e7 37 df 3c a4 23 59 bc
       0.024399532 0.036348365 0.027248336 -0.013253126
000150 f4 4d 07 bd 63 fe 7f 3d 34 4e 8c bc 4c 52 98 bc
       -0.033033326 0.06249846 -0.017127134 -0.01859393
000160 a3 27 9a 3d 94 04 2f bd a5 07 8a 3d e1 7c 1b bd
       0.07527091 -0.042728975 0.06739739 -0.03796089
000170 72 41 a7 3a 58 f2 b7 bd 78 7e 88 bc bf e9 08 bc
       0.0012760593 -0.0898177 -0.016661867 -0.008356511
000180 66 6e 9a 3d e8 5a 62 bc ec c2 e3 3c 40 f3 af 3c
       0.07540588 -0.013815619 0.027802907 0.021478295
000190 2c 4e e0 bc f2 85 be bd 3b 94 a5 bd 27 c4 0b bd
       -0.027381025 -0.09302892 -0.08084913 -0.034122612
0001a0 35 c9 35 bd 86 c0 a5 bd fd d8 bc bc df 58 63 bd
       -0.04438134 -0.080933616 -0.023052687 -0.055504676
0001b0 89 11 05 3d 98 02 9e bd 61 06 af bd 38 65 1b bd
       0.032487426 -0.077153385 -0.085461386 -0.037938327
0001c0 09 68 a5 bc 30 01 ad bd c7 6e 9d bb 8e 4c e1 bc
       -0.02019121 -0.08447492 -0.0048044655 -0.027502324
0001d0 4d 52 45 3d 92 fe b4 bc 62 e4 32 3d 1f 36 81 bd
       0.04817419 -0.022094045 0.043674834 -0.06309151
0001e0 f4 c9 90 3d d9 06 8e 3d a0 c5 23 bd 93 d6 aa bd
       0.070697695 0.069349 -0.03998339 -0.08341708
0001f0 f3 95 3c 3d c8 62 8a 3c 29 4f c2 3c a3 59 cd 3c
       0.04604144 0.016892806 0.023719387 0.025067156
000200 c8 fd 96 bd 64 3a 3e 3d 5a 34 1d bd 3a 41 a9 3d
       -0.07372624 0.046442404 -0.038380004 0.08264394
000210 f1 79 64 3a 48 2c ce bc bc b7 76 3d 56 5c ad 3c
       0.00087156805 -0.0251676 0.060233817 0.021162193
000220 46 8b be bc 3f c3 10 bc c2 b0 d6 bd 24 50 b8 bd
       -0.02325977 -0.008835613 -0.104829326 -0.089996606
000230 22 db 07 bd 9f ff 57 bd ee fd f8 3b d5 bc 81 bd
       -0.033167966 -0.052734014 0.00759863 -0.06334845
000240 20 04 92 3d 48 1a 56 3d 55 7b 90 3d dc 70 fa 3c
       0.07129693 0.052271158 0.07054774 0.030571394
000250 0c 21 fe 3c f9 d0 1d 3d 08 b8 4f 3c d4 e7 95 bc
       0.031021617 0.03852937 0.012678154 -0.01829902
000260 ee 65 43 bd 59 97 68 3d 16 24 1b 3d 78 63 fc 3b
       -0.04770463 0.05678496 0.03787621 0.0077022873
000270 c4 60 ef 3c 29 a5 9a bc 0b ca 5f 3d 5e fc 36 bd
       0.029220946 -0.018877583 0.054636043 -0.04467427
000280 8c ac 60 bd 2e 4d 82 bd 2c 5e 9e 3c 42 72 8a 3d
       -0.054852054 -0.06362377 0.019332014 0.06760074
000290 06 93 6e bd 7e de b6 bd 99 59 a7 bd d9 6d 77 3d
       -0.05824568 -0.08929156 -0.08171386 0.060407493
0002a0 22 3c 02 3d 14 71 bf bc 79 29 1d 3d ef 1f 39 3d
       0.03179563 -0.02336935 0.03836963 0.04519647
0002b0 68 04 b8 3a 2e 21 04 bd c7 a8 2d bc e8 09 95 bd
       0.0014039399 -0.032258205 -0.010599322 -0.0727728
0002c0 04 86 43 3d bb 33 ad bd 57 42 9c 3d db a5 70 3d
       0.04773523 -0.084571324 0.07629841 0.058751922
0002d0 a0 71 ac 3c e0 e7 1c bd c1 f4 96 bc cb 79 86 3d
       0.021050274 -0.03830707 -0.018427255 0.06566199
0002e0 8f 4e ab bd b8 9b 7b bd d0 08 33 3c e5 d8 a3 bb
       -0.08364593 -0.0614278 0.010927394 -0.005000221
0002f0 48 a2 12 bd 92 b2 8b bd c5 bb 4f 3d fd d3 93 bc
       -0.035799295 -0.06821169 0.05071618 -0.01804542
000300 90 05 44 bd da 52 63 bc e0 1c 01 3b 65 c3 3a bd
       -0.047856867 -0.013874734 0.0019701049 -0.0455965
000310 d0 3c ff bc b2 97 86 bb 6f 50 45 3d b4 a8 52 3d
       -0.031156927 -0.004107439 0.04817241 0.05143042
000320 38 78 0d 3c 5a 11 55 3c 1b 2a 71 3d 14 54 1b bd
       0.008634619 0.013004625 0.058878046 -0.03792198
000330 b7 15 23 bd 7f 44 40 3d d4 6f 92 3d 2e e4 52 3d
       -0.03981563 0.046940323 0.07150236 0.05148714
000340 90 91 2d bd 79 47 0c bd 05 7c ec b9 5d 9b 4d bd
       -0.042375147 -0.03424785 -0.0004510583 -0.050196994
000350 dd bf ab 3d 3d e5 88 bd 97 80 55 bd 19 61 a0 bd
       0.083862044 -0.06684349 -0.052124586 -0.0783102
000360 9d 74 8c bd 5d f7 6a bd 86 2e 90 bd 90 c8 92 3d
       -0.0685818 -0.05736481 -0.07040124 0.071671605
000370 17 94 61 bd 10 ea 43 bd 68 4b 64 3c a4 ef 20 bc
       -0.05507287 -0.04783064 0.013933994 -0.00982276
000380 a0 e7 1a bd 41 b3 2d bd a9 36 9b bc fd b9 72 3d
       -0.03781855 -0.042407278 -0.018946962 0.059259403
000390 78 a1 22 bc e4 19 72 3d 03 e9 1e 3b f3 36 37 3d
       -0.009926192 0.059106722 0.0024247773 0.044730138
0003a0 6b a3 5f bd 9c 0a fd bc 96 b0 50 bd b8 55 a1 bd
       -0.054599207 -0.030888848 -0.050949655 -0.07877678
0003b0 1c 2f 38 bd 41 3b 5d 3d 42 d1 a1 3c 21 d8 99 bd
       -0.044966802 0.054011587 0.019753102 -0.075119264
0003c0 f3 4e 39 3d bb c1 a4 bd 71 49 1d bc 5d 7f b0 3d
       0.045241307 -0.08044764 -0.009600029 0.086180426
0003d0 cc 18 2a 3d c8 df 9a bc a5 29 8f 3d be ef ed bc
       0.041527554 -0.018905535 0.06990365 -0.029044982
0003e0 a2 da a9 bd f3 0f 7f 3d 0d 4b 7a bd fd 19 de bc
       -0.08293654 0.06227107 -0.06110673 -0.027112002
0003f0 4f 99 31 bd 3e fd 0a 3d 32 b4 c0 bd 11 d9 ba bb
       -0.043359097 0.033932917 -0.094093695 -0.005702146

fc.2.bias f4 [64]
000000 d5 35 86 bc 86 49 48 3d 89 e5 87 3c 47 56 0f 3d
       -0.016383091 0.048898242 0.016588943 0.03499439
000010 de f3 9a 3c d0 0a 5f bc 0a 76 83 3d f2 17 41 3d
       0.018915113 -0.013613418 0.064189985 0.047141977
000020 39 f4 3a 3d 40 6e 98 3c ae 7e 35 bd bf 3b a1 38
       0.045643065 0.018607259 -0.044310264 7.688207e-05
000030 57 0c c6 bc f7 9f b2 3c a3 70 26 bc 74 75 89 3d
       -0.024175806 0.021804793 -0.010158691 0.067118555
000040 10 9d d9 3d 4f bb b6 bd b8 19 a1 3c 60 35 5b 3d
       0.106256604 -0.08922445 0.019665584 0.0535177
000050 4d d1 9d bd bf 8e b9 bc 20 64 bd bd d5 51 87 3d
       -0.077059366 -0.022651074 -0.09247613 0.06607405
000060 af 0b 36 3d 62 25 67 3d 47 63 5e bd 84 6c 32 bd
       0.044444736 0.056432135 -0.054293897 -0.04356052
000070 ad 51 3d 3d e3 f5 84 3d 8f 42 be bc 1c dd 04 3a
       0.04622047 0.06492212 -0.023225097 0.0005068348
000080 c4 4d aa 3d 0c ae 1f 3d 0f 3a 71 3c bb 5d 80 3c
       0.08315614 0.038984343 0.014723315 0.015669694
000090 31 78 10 3d e4 6b 65 bd e2 c4 18 bd c3 41 86 bc
       0.035270873 -0.056011096 -0.037297137 -0.01638878
0000a0 1e 2f dc 3d 8d b2 7a bd 45 75 6d 3c 2d 96 97 3d
       0.107511744 -0.061205436 0.014493291 0.07401691
0000b0 b3 90 b0 bd d9 e7 4c bc 5d 75 63 bd e7 a1 4a 3b
       -0.08621349 -0.012506449 -0.05553185 0.0030919255
0000c0 3a 42 30 3d 08 2b 18 bd a4 8a b7 3d b7 27 2d bd
       0.04303191 -0.037150413 0.089619905 -0.042274203
0000d0 e5 36 83 bc 0c 79 f5 bc ae 4e 1a bd fd 8c 50 b9
       -0.016017387 -0.029964946 -0.03767269 -0.00019888948
0000e0 0f 04 11 bd 66 f4 7c 3d 6c 5b 9e bd b3 50 c1 3d
       -0.03540426 0.061756514 -0.07732281 0.0943922
0000f0 d3 fe 96 3d 85 d9 8a bd b2 c6 79 bd a9 fd 5d bd
       0.073728226 -0.0677977 -0.060980506 -0.054196987

fc.4.weight f4 [1, 64]
000000 e5 21 9b bb 65 56 d5 3a da 41 a0 3d 55 1a 09 3c
       -0.004734265 0.0016276358 0.0782506 0.008368094
000010 13 c5 a0 3c 2c 5f 3b 3d 61 fe dd bd af f4 8c 3d
       0.019625222 0.04574506 -0.108395346 0.06882607
000020 74 d9 d7 3c 95 ea be 3d 75 f7 7e bc 70 ba e1 bd
       0.026348807 0.09322087 -0.015561928 -0.11021888
000030 d4 bd 88 bd 78 7c a6 bd 6b aa 77 bd 6b fa ab 3d
       -0.06676832 -0.08129209 -0.060465258 0.08397373
000040 97 e4 ed 3d 0a 5e 94 3c 40 72 bf 3d db f9 0c 3d
       0.11615866 0.018111248 0.09347963 0.03441797
000050 df f5 8c bd 4c d4 a3 3d d1 9d 9d 3d 18 51 ed bd
       -0.06882834 0.07999477 0.07696117 -0.11587733
000060 e2 d3 e6 bd d8 31 e6 3d 20 4d 4d b9 8a 4f d8 bd
       -0.11270882 0.11239976 -0.00019579055 -0.10562046
000070 4c ba c2 bd ec c6 3f 3d a3 a7 79 3d 65 02 0a bd
       -0.095081896 0.046820566 0.060950886 -0.03369369
000080 cb 21 d1 3c be 7a 07 3d 6f 9a d5 bc 20 44 d5 3d
       0.025528809 0.03307604 -0.026074616 0.104133844
000090 a5 39 86 3d d2 78 9e bd 08 a2 8d 3d f9 c5 b8 bd
       0.065539636 -0.077378884 0.06915671 -0.09022135
0000a0 f7 36 ef 3d 21 f5 c8 3d be 09 8b bd af f2 98 3c
       0.116804056 0.0981238 -0.067889675 0.018670408
0000b0 16 2b 92 3d 81 88 21 3c 87 75 82 3d fa 07 02 bd
       0.07137124 0.009859205 0.06370073 -0.03174589
0000c0 b8 3e 35 bc 92 01 ab bd 23 ad 00 3e 55 b3 bc bc
       -0.011062317 -0.08349909 0.12566046 -0.02303473
0000d0 6c 53 e7 3d 24 f7 c6 bd f9 3c 51 bd 15 dd ec 3b
       0.11295208 -0.09715107 -0.05108354 0.0072285035
0000e0 9f 11 f3 3d 5a 15 49 3d d0 0d 17 bd 7a b1 1d 3d
       0.11868595 0.049092628 -0.036878407 0.038499333
0000f0 68 31 e1 3d 65 a6 e6 3b 9e 2b 83 bd a8 97 77 3d
       0.109957516 0.0070388787 -0.06404804 0.060447365

exp_avg f4 [16, 2, 3, 3]
000000 3c 41 77 39 d7 f6 8a 38 f7 f3 9a 39 34 04 18 3a
       0.00023580057 6.62633e-05 0.00029554937 0.0005798966
000010 61 89 3d 3b 85 32 0a 3b 65 4c 75 39 36 e6 ef 3a
       0.0028920996 0.002108724 0.0002339348 0.0018302861
000020 74 d4 22 3b bf 08 46 39 1e 61 79 39 6e 8a 7d 39
       0.002484587 0.0001888601 0.0002378267 0.0002417953
000030 f6 3b 79 39 8f 8e 99 39 b1 5c 9b 39 fa b0 72 39
       0.00023768828 0.00029288649 0.00029632964 0.00023144847
000040 af 98 95 39 a9 c3 96 39 0e 70 8a 3a 3a 48 7c 3a
       0.00028533253 0.00028756008 0.0010561959 0.00096237997
000050 cb ef d9 3a bf 70 a4 38 14 89 a1 39 21 50 a8 39
       0.001662725 7.84113e-05 0.00030810444 0.00032103158
000060 08 72 b3 38 0e ca 40 3a 5d 51 b4 39 bc 3c 24 39
       8.556625e-05 0.0007354327 0.00034392896 0.00015662884
000070 7c 9b 3a 39 f8 98 35 39 15 47 2c 39 6d f9 45 39
       0.00017796265 0.0001731849 0.00016429678 0.00018880302
000080 e0 32 41 39 c9 b4 10 39 fa 0e 2e 39 05 93 31 39
       0.00018424867 0.00013800258 0.00016599512 0.00016934804
000090 93 65 44 37 40 b6 cf 36 46 0b 59 38 74 67 69 3a
       1.170616e-05 6.1902974e-06 5.174733e-05 0.00089036603
0000a0 2f 28 b0 39 77 b8 1b 39 5c 43 47 3a ac ef d8 39
       0.00033599275 0.0001485067 0.0007601285 0.000413773
0000b0 0e 79 04 39 1f 95 6f 38 1d 95 6f 38 b1 bc 64 38
       0.00012633597 5.712092e-05 5.7120913e-05 5.453517e-05
0000c0 2d b4 68 38 2d b4 68 38 02 3d 68 38 3f ca 62 38
       5.5480912e-05 5.5480912e-05 5.536993e-05 5.4070955e-05
0000d0 40 ca 62 38 a0 1e 67 38 5d 06 9f 39 ec 85 9f 38
       5.407096e-05 5.5103214e-05 0.00030331584 7.606656e-05
0000e0 28 52 98 38 1d fd d0 b7 f8 7a a8 3a 0e fe d3 39
       7.2632276e-05 -2.4913397e-05 0.001285403 0.00040434342
0000f0 48 16 58 38 0e 14 b2 38 4b 95 59 39 ae 52 0c 38
       5.1519164e-05 8.491437e-05 0.00020750349 3.3455603e-05
000100 dc 3b 54 38 92 ae 56 38 8d 83 44 38 73 29 88 38
       5.0600487e-05 5.1184157e-05 4.6852558e-05 6.492706e-05
000110 eb 4a 8a 38 63 59 2b 38 bb 28 77 38 83 27 72 38
       6.594307e-05 4.0852825e-05 5.8927322e-05 5.7734094e-05
000120 9f 0b 01 b9 25 88 46 39 1f 85 23 b9 9f 05 43 b9
       -0.00012306728 0.00018933469 -0.00015594483 -0.00018598743
000130 a5 79 18 b9 28 e6 2e 38 be c0 e7 39 00 b4 97 b7
       -0.00014541166 4.1699182e-05 0.00044203358 -1.8084422e-05
000140 eb 3b 49 b8 10 e5 91 b7 3c 27 12 b7 9f 63 01 b8
       -4.7977937e-05 -1.7392013e-05 -8.711413e-06 -3.0848776e-05
000150 51 69 3d b7 69 8f c2 b5 56 f0 c4 b7 eb cb 56 37
       -1.1289799e-05 -1.4495864e-06 -2.3476936e-05 1.2802872e-05
000160 b2 b4 61 37 e0 eb 08 b7 18 61 10 3a b6 d2 45 3a
       1.34531165e-05 -8.161151e-06 0.0005507632 0.0007546352
000170 52 df a8 39 e2 d3 af 3a eb 54 9f 3a 6b e9 f0 3a
       0.00032209844 0.0013414586 0.0012156045 0.0018380111
000180 ae 03 47 39 9d b3 e5 b7 6e 3d c3 38 c2 7d 09 39
       0.0001897949 -2.7382566e-05 9.309767e-05 0.00013112187
000190 54 a2 05 39 9d a3 12 39 7e 29 fa 38 c6 49 f0 38
       0.0001274434 0.00013984596 0.000119286575 0.00011457833
0001a0 db 27 04 39 75 e2 52 38 a8 cc 4c 38 15 88 80 38
       0.00012603348 5.0278806e-05 4.882799e-05 6.128863e-05
0001b0 fc 68 26 3b 52 8e e6 3a 46 f0 a5 3a 1b 12 4a 3a
       0.0025392165 0.0017590022 0.0012660108 0.00077083864
0001c0 27 b3 77 3b bb 58 4e 3b 42 8a b5 38 0a 7d 1a 3a
       0.0037795992 0.0031485993 8.656505e-05 0.0005893266
0001d0 51 fe b1 37 7b c6 a4 39 e3 0f aa 39 55 d3 89 39
       2.121847e-05 0.00031428397 0.00032436763 0.0002628813
0001e0 b6 0e ba 39 7e 85 bf 39 54 52 a1 39 5f 00 45 39
       0.00035487645 0.00036529818 0.00030769652 0.00018787522
0001f0 1e ba 4f 39 4c 6c 2f 39 ad 25 3e 3a 0c 9a 91 3a
       0.00019810392 0.00016729644 0.0007253539 0.0011108532
000200 d0 d2 a4 3a b6 c8 ab 3a 1d ec 59 3a 33 1b eb 39
       0.0012575034 0.0013106081 0.00083130767 0.00044842958
000210 d0 e3 21 38 0f d5 85 3a 65 a0 41 3a 22 ea c9 38
       3.8597558e-05 0.0010210591 0.00073862664 9.6280375e-05
000220 48 3d 9b 38 11 73 79 38 47 37 cd 38 ff c3 9d 38
       7.4023905e-05 5.947339e-05 9.785458e-05 7.5228505e-05
000230 df 8d 7e 38 dc 5b e6 37 95 d5 dc 35 79 8d 73 b6
       6.0690447e-05 2.7460912e-05 1.6453438e-06 -3.629217e-06
000240 7e 67 54 3a e1 e8 e8 3a 89 f3 01 39 c8 81 b3 3a
       0.000810258 0.0017769599 0.00012393123 0.0013695294
000250 a0 11 52 3a 4e 5f 25 38 c5 9d 2e 3a b3 cc 47 3b
       0.00080134906 3.9427825e-05 0.0006661083 0.0030487
000260 65 95 87 3a e3 a9 8d 39 d1 f7 8d 39 5c b6 32 39
       0.0010344206 0.0002702019 0.00027078253 0.00017043337
000270 39 ea 95 39 cc 89 96 39 09 3f 42 39 5c 62 91 39
       0.00028594004 0.00028712896 0.00018524764 0.0002772984
000280 84 fa 93 39 83 3a 49 39 9a 05 95 38 90 33 9e 39
       0.00028224674 0.00019190651 7.105917e-05 0.00030174525
000290 78 89 42 3a e7 81 10 3b 64 70 34 3a 46 b7 1d 3a
       0.0007420997 0.0022050084 0.00068832026 0.00060163846
0002a0 09 23 95 3a 5e 7a ae 39 bf da 36 3a 37 65 8c 39
       0.0011378239 0.00033279037 0.0006975345 0.00026778292
0002b0 b4 07 8b 39 54 3e 81 39 c0 9b a1 39 78 3e a0 39
       0.00026517885 0.00024651235 0.00030824356 0.0003056412
0002c0 75 f4 95 39 e2 3c 9b 39 6b 7c 9c 39 2d af 92 39
       0.0002860163 0.00029609265 0.00029847337 0.00027977806
0002d0 9f 3f b0 39 2b 4d 73 39 20 9a 3a 39 37 cd b2 3a
       0.00033616737 0.00023203033 0.00017795758 0.0013641481
0002e0 7e 93 03 3a 85 ca 91 39 43 4e 1a b8 cd 76 38 39
       0.00050192315 0.00027807444 -3.6789348e-05 0.00017591864
0002f0 52 af 03 37 41 11 7f b7 a0 26 77 b8 0e e8 74 b8
       7.849028e-06 -1.5203202e-05 -5.892536e-05 -5.839025e-05
000300 8d 21 47 b7 66 fd 72 b8 eb 2c 6f b8 b6 c4 3c b8
       -1.1869136e-05 -5.7933292e-05 -5.7023874e-05 -4.5005894e-05
000310 06 2b be b8 83 4f b7 b8 5e e0 93 b8 81 4e 0c b9
       -9.06792e-05 -8.74093e-05 -7.051298e-05 -0.00013380685
000320 89 3f f9 b7 ba c4 34 b5 0a f8 27 b9 c3 73 d6 b6
       -2.9712699e-05 -6.73415e-07 -0.00016018763 -6.3911734e-06
000330 45 ff ca 36 c6 d8 ef 36 42 be 64 38 30 73 da b6
       6.0497864e-06 7.147991e-06 5.4536627e-05 -6.510316e-06
000340 31 73 da b6 e4 b3 31 36 62 a2 2b 36 62 a2 2b 36
       -6.5103163e-06 2.6479765e-06 2.5575505e-06 2.5575505e-06
000350 cb e3 3a 37 0f 72 a8 37 10 72 a8 37 1a 17 ad 37
       1.1139501e-05 2.0080273e-05 2.0080275e-05 2.0633965e-05
000360 28 eb f5 37 46 aa 3a 3a d6 20 33 3a e6 4f a0 38
       2.931578e-05 0.00071207096 0.0006833201 7.644277e-05
000370 54 4f 20 3a cb 82 f8 37 bb 8a 1a 39 90 e2 af 38
       0.00061153364 2.9624809e-05 0.00014738266 8.386851e-05
000380 5d f8 99 39 49 b1 50 38 8f e2 fa 37 42 e0 e6 37
       0.0002936748 4.9756174e-05 2.9907822e-05 2.7522565e-05
000390 62 10 5a 38 3f ef 01 38 02 54 d7 37 a1 1a 1a 38
       5.1990508e-05 3.0978812e-05 2.5669116e-05 3.674126e-05
0003a0 e7 b7 63 37 45 82 c6 36 a7 a4 3d 39 d8 96 d8 38
       1.35730725e-05 5.916025e-06 0.00018085782 0.000103277795
0003b0 5a e0 91 38 77 c2 8e 38 77 37 02 3a 34 56 e1 3a
       6.9559275e-05 6.8073095e-05 0.00049673714 0.0017191828
0003c0 2a 6c 2d 3a c4 9a 63 39 11 1d 21 39 59 9e 28 38
       0.0006615544 0.00021706062 0.00015364985 4.0201794e-05
0003d0 8c 2a 7a 38 b6 e1 74 38 51 1e c6 38 54 85 f0 38
       5.964427e-05 5.8384343e-05 9.4470226e-05 0.00011468926
0003e0 ea bc e8 38 f5 96 b3 38 d1 e4 d7 38 9e e0 cf 38
       0.0001109781 8.563503e-05 0.00010294619 9.9123674e-05
0003f0 09 37 3e 3a 3b 9b 88 3a 9e b8 e1 3a 03 91 9d 3a
       0.00072561257 0.0010422239 0.0017221158 0.0012021366
